models/GMI_pretrained/GMI_GPM_channel_predictor_19V_ocean.pt (torch, 544272 bytes, 7 tensors)

l1.weight f4 [256, 12]
0.2513849 -0.22109681 -0.272006 0.080695204 0.23899788 0.024904143 0.14452644 -0.2848031
-0.027939199 0.17893907 0.032540146 -0.30383047 -0.014833527 0.33413 0.24728669 -0.16705433
-0.16263604 0.20805562 0.19148362 -0.022343788 -0.24047899 -0.1729833 0.12029519 0.05752563
-0.0548421 0.2401844 0.08504603 -0.19793557 0.08281727 -0.21633677 0.13376443 0.13680726
-0.10717155 -0.22508013 0.22061607 -0.2339456 -0.15684 -0.022096535 0.079971254 -0.24799533
0.10653322 -0.24107513 -0.24186322 -0.18623547 0.105776004 0.118411094 -0.0010516539 0.20956296
0.2988636 0.15623379 0.1832144 -0.014419027 -0.1442732 -0.13177477 -0.3636672 -0.24966808
0.03248936 0.20841478 -0.25314122 0.18147111 -0.29057044 -0.008756623 0.31239727 0.12755047
-0.17197807 0.109020725 -0.08948683 -0.00081432785 -0.15911062 0.2387044 -0.26228246 -0.120226614
-0.030926734 0.15550265 0.17561193 -0.123032145 0.058114257 0.15221834 -0.1960556 0.14557189
-0.1752516 0.2083213 0.10710795 0.026690047 -0.020564847 0.0140175335 0.16205685 -0.007500816
-0.29549086 0.10212835 -0.30296785 -0.021593427 0.18887986 -0.007438056 -0.21255204 -0.0148497615
-0.22796036 0.057996742 0.022946602 0.023991805 -0.25949448 0.15204027 0.0745188 0.23269217
0.08527431 -0.25832003 -0.29317442 0.0044772704 0.027928293 0.14836407 -0.0041424013 -0.2234061
-0.18724856 -0.15420976 -0.10283472 0.113494925 0.068434656 0.15000111 0.26366517 -0.22345152
0.29005733 0.101740845 0.15811768 -0.030691268 0.26276526 -0.2779772 0.27224174 0.26503202
0.2413125 -0.1394958 0.15154035 -0.059671097 -0.11754307 -0.11013776 0.25130746 0.252254
0.06468384 -0.20628805 0.14462501 0.12762788 0.109936915 0.025533317 -0.0043446594 -0.18362604
-0.018043641 -0.08586004 0.00895444 -0.13932954 -0.2370806 0.08934495 -0.25612643 -0.28826475
-0.15099183 -0.18550554 -0.055313863 -0.13949111 0.10045115 0.21132478 -0.20510447 -0.050509807
-0.07274144 0.15012747 0.0873351 -0.08483512 -0.047009513 -0.14985971 -0.18901971 0.055627156
0.239207 -0.05730347 0.18980783 -0.22844245 -0.12143749 -0.27939737 0.16360538 -0.012402771
-0.26499975 0.16408175 0.22653437 -0.2683692 -0.02218792 -0.12915102 -0.17443798 0.2291494
0.18887244 0.09594494 -0.29937112 0.050787915 0.045921076 0.10006144 -0.0025694333 0.14432493
0.15420876 -0.0856007 0.26662868 0.24173117 0.22459966 -0.14341876 -0.3008021 0.13221033
0.0037384804 -0.30974802 -0.008426924 0.052407797 -0.27009758 0.035630554 -0.1817178 0.18042973
-0.036962915 -0.28800687 0.07194021 0.05484423 0.055134606 -0.24087952 -0.1495625 -0.07547932
-0.28034362 0.024518676 -0.23284191 0.13663486 0.15404461 0.12317602 -0.20678866 0.076702185
-0.13725123 0.20888482 -0.07094441 -0.054322258 -0.16748868 -0.1827805 -0.22031206 -0.079116754
-0.22268082 -0.1412974 -0.18539694 -0.16724373 -0.1341877 0.10540583 0.25374338 0.13194157
-0.081534974 -0.17918028 -0.087761685 -0.26590383 -0.20579799 -0.15014131 0.2190543 0.14972092
-0.13714124 -0.2832093 -0.2769362 0.16795672 -0.1676189 0.09119114 -0.14606118 -0.031751752
00000000: 86b5 803e 3467 62be 5f44 8bbe 8743 a53d
00000010: dcbb 743e c603 cc3c bdfe 133e b6d1 91be
00000020: bfe0 e4bc ce3b 373e d148 053d ab8f 9bbe
00000030: 5208 73bc 1613 ab3e b938 7d3e 4a10 2bbe
00000040: 108a 26be 880c 553e 4814 443e 520a b7bc
00000050: 2040 76be 8922 31be 535d f63d ff9f 6b3d
00000060: 1ca2 60bd e6f2 753e 9d2c ae3d 9faf 4abe
00000070: 1a9c a93d 6387 5dbe 8bf9 083e 3417 0c3e
00000080: c27c dbbd 687b 66be 2ee9 613e 6f8f 6fbe
00000090: aa9a 20be cb03 b5bc f8c7 a33d 7df2 7dbe
000000a0: 172e da3d 66dc 76be feaa 77be 83b4 3ebe
000000b0: 17a1 d83d 8481 f23d a6d7 89ba ac97 563e
000000c0: a604 993e c0fb 1f3e 8e9c 3b3e c83d 6cbc
000000d0: 5bbc 13be f7ef 06be 9632 babe fda8 7fbe
000000e0: 9013 053d af6a 553e ba9b 81be 90d3 393e
000000f0: a6c5 94be f077 0fbc 89f2 9f3e 979c 023e
00000100: 051b 30be 4246 df3d df44 b7bd 9e78 55ba
00000110: e5ed 22be ed6e 743e e349 86be 5f39 f6bd
00000120: 105a fdbc 163c 1f3e 9dd3 333e 47f8 fbbd
00000130: 3709 6e3d 20df 1b3e cdc2 48be cc10 153e
00000140: 2875 33be 2e52 553e 6a5b db3d 16a5 da3c
00000150: 9c77 a8bc cca9 653c 3bf2 253e 68c9 f5bb
00000160: 944a 97be ab28 d13d 9a1e 9bbe b3e4 b0bc
00000170: b969 413e f0ba f3bb 3ea7 59be 6a4c 73bc
00000180: 716e 69be fe8d 6d3d 83fa bb3c 768a c43c
00000190: 76dc 84be 72b0 1b3e 509d 983d db46 6e3e
000001a0: 4ca4 ae3d 8642 84be f51a 96be 11b6 923b
000001b0: e0c9 e43c c0ec 173e fbbc 87bb 92c4 64be
000001c0: 16be 3fbe 2ae9 1dbe 029b d2bd 0770 e83d
000001d0: 7827 8c3d e499 193e 1fff 863e 7ad0 64be
000001e0: 6582 943e 815d d03d 9ae9 213e 416c fbbc
000001f0: 2b89 863e 0753 8ebe 4563 8b3e 47b2 873e
00000200: a01a 773e fdd7 0ebe 652d 1b3e ae69 74bd
00000210: 6cba f0bd e88f e1bd 5fab 803e 7027 813e
00000220: f678 843d 2d3d 53be 9418 143e e2b0 023e
00000230: 9b26 e13d 3f2b d13c a55d 8ebb 7708 3cbe
00000240: 42d0 93bc 63d7 afbd a5b5 123c 67ac 0ebe
00000250: 42c5 72be 7cfa b63d 0123 83be 7097 93be
00000260: 9a9d 1abe 2af5 3dbe ca90 62bd c2d6 0ebe
00000270: 55b9 cd3d 8665 583e e806 52be 5fe3 4ebd
00000280: 77f9 94bd 04bb 193e bfdc b23d 09be adbd
00000290: 0c8d 40bd d374 19be 628e 41be 4dd9 633d
000002a0: aef2 743e 0bb7 6abd fc5c 423e d1ec 69be
000002b0: 38b4 f8bd 2c0d 8fbe 2b88 273e fe34 4bbc
000002c0: 0cae 87be 0c05 283e a0f8 673e b067 89be
000002d0: 71c3 b5bc 2a40 04be df9f 32be 24a6 6a3e
000002e0: c767 413e c87e c43d 2c47 99be fd06 503d
000002f0: bd17 3c3d 03ed cc3d f063 28bb eac9 133e
00000300: e7e8 1d3e 6b4f afbd 8e83 883e 6088 773e
00000310: 74fd 653e 5edc 12be bc02 9abe 2562 073e
00000320: 4b01 753b 4b97 9ebe 1511 0abc 8fa9 563d
00000330: 3b4a 8abe 58f1 113d 3b14 3abe 92c2 383e
00000340: 6d66 17bd a375 93be 6455 933d 58a4 603d
00000350: d3d4 613d 1fa9 76be e926 19be e794 9abd
00000360: 3389 8fbe 64db c83c 1c6e 6ebe 02ea 0b3e
00000370: dfbd 1d3e b643 fc3d 68c0 53be 0916 9d3d
00000380: 968b 0cbe e7e5 553e 4e4b 91bd 0481 5ebd
00000390: 2782 2bbe d02a 3bbe 7c99 61be f707 a2bd
000003a0: 7106 64be 44b0 10be b2d8 3dbe f141 2bbe
000003b0: 8068 09be 03df d73d a7ea 813e b11b 073e
000003c0: cffb a6bd 097b 37be 66bc b3bd 8c24 88be
000003d0: b5bc 52be a5be 19be c54f 603e 7150 193e
000003e0: c16e 0cbe cf00 91be 95ca 8dbe d9fc 2b3e
000003f0: 4aa4 2bbe 6cc2 ba3d 1091 15be 200e 02bd

l1.bias f4 [256]
0.057017013 0.121766195 -0.03192131 0.10884236 -0.022101043 -0.0026773359 -0.19651532 -0.24700706
0.08044248 0.17172816 -0.2626931 -0.20945776 -0.25172943 -0.048688512 -0.21036349 0.12232334
0.05348675 -0.11666716 0.14483555 0.18593027 -0.11701807 0.16797328 -0.0980683 0.12542194
-0.1044679 -0.28720504 0.2600975 0.12441241 -0.08268749 -0.2189881 0.23531821 -0.07517636
-0.3063644 0.085856505 0.20830555 -0.27138075 -0.29668972 0.17253304 -0.07183276 0.25525907
-0.2777189 0.22077107 0.1491396 -0.0953838 0.10803343 -0.17470227 -0.21614127 0.20828323
0.082346246 0.020855868 0.28677765 -0.01925483 0.16601843 -0.12082727 -0.098810695 0.0761843
0.16084605 0.12357362 -0.26158622 0.11887701 -0.010669379 -0.063643724 -0.16403289 0.04916359
-0.21688206 -0.18181781 -0.19021334 0.03702112 -0.043231968 -0.305632 0.08998857 -0.37017396
0.18297297 -0.09670287 -0.23433547 -0.052340806 0.16015427 0.015234941 0.2655188 0.012464128
0.013233069 0.05251911 -0.391604 0.18169194 -0.25085682 -0.13269311 -0.13494135 -0.4390376
0.016691076 -0.059777915 0.21151698 0.16336021 -0.02833735 -0.14098278 -0.17991954 0.25201666
-0.18599696 -0.25597277 -0.29117072 -0.117252216 -0.16232455 0.2620568 0.076085016 -0.19292325
0.014957328 -0.08302924 -0.1855031 0.15370794 0.04524328 -0.2313411 0.23381245 0.26876348
-0.17042759 0.12688906 0.16153069 0.1703895 0.21572655 -0.275245 -0.17672214 0.14298064
0.100501046 0.15085462 -0.27778357 -0.07163807 0.18348555 0.17768398 0.07782597 0.053425714
-0.028188745 0.17331703 -0.1766155 -0.34679213 -0.2881441 0.25449288 -0.09014924 0.15192132
0.0764461 0.16168514 -0.04292022 0.17716816 -0.25920877 -0.17656034 -0.18713675 -0.20117526
0.064481795 -0.08019387 -0.46024802 -0.23184317 0.03699565 0.1518941 -0.22140816 0.12365574
-0.071499065 0.25021067 0.049781416 -0.009901724 -0.15954444 0.099759266 0.05463946 -0.0319966
0.092145525 -0.10657121 -0.10916415 0.23643966 -0.22303985 0.084594406 -0.11181224 0.16588591
0.17260018 0.25598565 0.2304326 -0.16088964 -0.035330992 -0.08815577 -0.052279454 -0.28121558
0.23683485 -0.5622306 -0.12360783 -0.24774419 0.19660321 0.2240087 -0.054509383 -0.104751036
0.1184836 -0.030333985 -0.039118886 0.09090622 0.02877647 0.10491547 0.041943766 -0.2111347
-0.238153 -0.18899672 -0.14444713 -0.15706968 0.030687457 0.19746248 0.20626116 -0.041647043
0.18361491 -0.1825668 -0.044390358 -0.2765659 0.04974491 -0.0044889376 -0.14619933 0.029215606
0.14320832 -0.3113742 0.1818554 0.01829207 0.08428995 0.21642832 -0.13044128 -0.18774162
-0.10255323 -0.008654735 -0.24818493 0.23458835 0.14861882 -0.16650526 -0.06503374 -0.14029135
-0.22233903 -0.035596408 0.05706802 -0.2880958 0.06876969 -0.28225195 0.08790852 -0.1322452
0.17800333 -0.009804795 -0.1613736 -0.19264798 0.0146734435 0.09655859 0.12623344 -0.28591326
0.19776428 0.10912252 0.022354301 0.2366422 -0.19959502 -0.25166005 0.1923369 -0.15469226
-0.05182396 -0.12017842 0.2259723 0.16791157 0.031505115 0.037059966 -0.21321845 0.1784766
00000000: ac8a 693d 8e60 f93d ebbf 02bd bee8 de3d
00000010: 3f0d b5bc 3e76 2fbb 503b 49be 6bef 7cbe
00000020: 07bf a43d 82d9 2f3e b67f 86be 187c 56be
00000030: aee2 80be 9b6d 47bd 8769 57be a984 fa3d
00000040: ec14 5b3d 31ef eebd c54f 143e 8164 3e3e
00000050: 2ba7 efbd 3001 2c3e 08d8 c8bd 9c6e 003e
00000060: 44f3 d5bd 8a0c 93be 802b 853e efcb fe3d
00000070: 0f58 a9bd 6b3e 60be 42f7 703e 10f6 99bd
00000080: cbdb 9cbe 89d5 af3d 0d4e 553e 6bf2 8abe
00000090: b7e7 97be 80ac 303e 0e1d 93bd 51b1 823e
000000a0: 2c31 8ebe d011 623e 0db8 183e 9558 c3bd
000000b0: a240 dd3d 27e5 32be 2354 5dbe 3348 553e
000000c0: 26a5 a83d edd9 aa3c 85d4 923e 4ebc 9dbc
000000d0: bc00 2a3e 4a74 f7bd 435d cabd 8406 9c3d
000000e0: d4b4 243e 2b14 fd3d a1ee 85be ca75 f33d
000000f0: 9ece 2ebc a457 82bd 3df8 27be c35f 493d
00000100: 5516 5ebe 732e 3abe 49c7 42be 75a3 173d
00000110: 0114 31bd cc7b 9cbe ed4b b83d 7187 bdbe
00000120: 445d 3b3e 280c c6bd a3f5 6fbe 5063 56bd
00000130: 7bff 233e f99b 793c 15f2 873e 5836 4c3c
00000140: 84cf 583c 471e 573d 5280 c8be 740d 3a3e
00000150: 4e70 80be b4e0 07be 112e 0abe 89c9 e0be
00000160: b9bb 883c b0d9 74bd e897 583e e647 273e
00000170: bb23 e8bc ca5d 10be d43c 38be 5408 813e
00000180: fd75 3ebe dd0e 83be 5414 95be ee21 f0bd
00000190: 6838 26be 4f2c 863e 76d2 9b3d ac8d 45be
000001a0: 950f 753c 3c0b aabd 86f4 3dbe 9d65 1d3e
000001b0: 0451 393d aee4 6cbe 886c 6f3e 5e9b 893e
000001c0: 9284 2ebe 35ef 013e 4d68 253e 967a 2e3e
000001d0: 6ce7 5c3e eaec 8cbe a6f6 34be 8469 123e
000001e0: 7ed3 cd3d a279 1a3e a639 8ebe fbb6 92bd
000001f0: a3e3 3b3e caf2 353e 3963 9f3d ecd4 5a3d
00000200: 15ec e6bc 057a 313e b2da 34be bd8e b1be
00000210: a087 93be e44c 823e 2aa0 b8bd 4391 1b3e
00000220: c68f 9c3d ca90 253e 1dcd 2fbd 926b 353e
00000230: 03b7 84be 3ccc 34be c7a0 3fbe e300 4ebe
00000240: 080f 843d af3c a4bd a1a5 ebbe 4c68 6dbe
00000250: c088 173d 208a 1b3e d2b8 62be 383f fd3d
00000260: 1a6e 92bd 9d1b 803e 99e7 4b3d d73a 22bc
00000270: 9e5f 23be 964e cc3d a0cd 5f3d de0e 03bd
00000280: cbb6 bc3d 0242 dabd 7491 dfbd 3d1d 723e
00000290: 8f64 64be d53f ad3d d1fd e4bd ffdd 293e
000002a0: 1abe 303e 8d10 833e 86f6 6b3e 41c0 24be
000002b0: 3bb7 10bd 038b b4bd fb22 56bd 7dfb 8fbe
000002c0: d684 723e 58ee 0fbf 1a26 fdbd a7b0 7dbe
000002d0: 5a52 493e 8962 653e 3b45 5fbd b687 d6bd
000002e0: 88a7 f23d fa7e f8bc 203b 20bd 0a2d ba3d
000002f0: a2bc eb3c ecdd d63d 3acd 2b3d b233 58be
00000300: 61de 73be 5b88 41be f3e9 13be e0d6 20be
00000310: 4364 fb3c 9b33 4a3e 2036 533e 1796 2abd
00000320: 8c05 3c3e cbf2 3abe aad2 35bd 0c9a 8dbe
00000330: 52c1 4b3d f017 93bb 47b5 15be 9155 ef3c
00000340: 34a5 123e 706c 9fbe 4d38 3a3e 40d9 953c
00000350: 36a0 ac3d 639f 5d3e 6692 05be 573f 40be
00000360: 6e07 d2bd 97cc 0dbc 3124 7ebe ee37 703e
00000370: 882f 183e 5b80 2abe 6930 85bd 89a8 0fbe
00000380: d8ac 63be 8acd 11bd 28c0 693d 4b81 93be
00000390: 20d7 8c3d 5483 90be 6209 b43d 496b 07be
000003a0: 8146 363e 4aa4 20bc 1f3f 25be 8345 45be
000003b0: e268 703c 83c0 c53d 5743 013e 3963 92be
000003c0: b882 4a3e a17b df3d 5e20 b73c 5552 723e
000003d0: a362 4cbe 96d9 80be f7f3 443e a667 1ebe
000003e0: 5c45 54bd 1a20 f6bd 4865 673e 03f1 2b3e
000003f0: 820b 013d 31cc 173d f055 5abe 92c2 363e

l2.weight f4 [256, 256]
-0.03610895 -0.016382659 -0.043059114 -0.023807384 -0.0076625994 -0.04142332 -0.021330645 0.05371307
-0.005153236 -0.010188609 0.029566886 -0.052076984 -0.042618833 0.033022366 -0.047647826 -0.032800976
-0.067867346 -0.017740816 -0.04540944 -0.039008215 5.1245093e-05 0.055757396 0.04028327 -0.038733575
0.0005256683 0.017308064 0.051515788 0.013811238 -0.006086588 -0.04090868 -0.010118768 -0.031401798
0.056816377 -0.06709561 -0.029449373 -0.024947397 0.045362163 -0.06557255 -0.050420348 -0.008829311
-0.028127879 0.034434963 -0.061297454 -0.014680028 0.01428318 -0.062501 0.039246842 -0.03713458
0.052021272 0.00090710074 0.039565027 0.028671542 -0.048816293 0.0505946 -0.026572697 -0.027436852
-0.064190134 0.003515727 0.047765214 0.044685844 0.021290677 0.055128753 0.035690922 -0.049831644
-0.025605999 0.014041215 -0.051179588 0.0050144554 0.006998046 0.04474296 0.04004866 0.026060523
-0.048633702 0.026159957 -0.01592242 0.059465647 0.051319376 -0.0040496513 -0.044056736 0.03767427
0.01847913 0.04962239 -0.009522481 -0.047938596 -0.0045277253 -0.0067975465 0.008468099 -0.05687902
0.038291577 -0.04526911 0.013497867 -0.011662245 0.03798117 -0.034610882 -0.062324867 0.015025897
-0.0328302 -0.03028138 0.000106937725 -0.036298797 0.0075057703 -0.061864965 0.026157947 0.01304125
0.013360589 0.007160142 0.037385833 0.046993542 -0.0014265403 0.05464363 0.03989727 -0.022778682
0.022736676 0.053650998 0.02736957 0.034339193 -0.04443859 -0.05135193 -0.034716822 -0.045687668
0.047748797 0.0327695 0.026289977 0.008497819 0.024561264 0.030670278 -0.030921668 0.050086837
0.010115827 -0.020027129 -0.021153353 -0.052443955 -0.025319792 -0.021176256 -0.036353774 0.050686155
-0.052592248 -0.015776258 -0.041469883 0.060779892 -0.026136106 -0.040248215 0.035572752 -0.05252666
0.04033064 -0.013303399 0.01751543 0.019339839 0.037161995 0.016205825 0.023593733 -0.02387721
-0.0003887234 -0.02827566 0.059854724 -0.0042142156 0.025919823 -0.036949053 0.025029665 -0.019922448
-0.024545975 -0.048438728 -0.018747922 0.030572511 -0.029158393 0.055430308 0.060638845 -0.05956222
-0.04022505 0.040130354 -0.022943288 -0.02883172 -0.05392728 -0.0079850545 0.009103696 -0.013905573
-0.06084791 -0.003926209 0.023667177 0.027809896 -0.04412853 -0.061575405 -0.027325582 -0.035505462
-0.05427192 -0.051421605 -0.018081341 0.005335584 0.031882934 -0.03591066 0.054988384 0.032582365
-0.054009937 -0.03925373 -0.039647117 0.049528413 0.040875 0.027038286 -0.052282974 -0.026081704
-0.07037988 0.022561364 0.030610003 -0.011165805 -0.035944425 0.03520772 0.05109947 -0.008736543
-0.062245086 0.028653335 -0.015441242 0.04825489 -0.0017223769 -0.0100656515 -0.06342853 -0.029031374
-0.06606131 -0.063499525 0.00276343 -0.039639343 0.05842738 -0.05830431 0.017903592 -0.009591203
-0.0007675737 -0.05441398 0.045628026 -0.03960411 0.00013678744 0.015336052 -0.036135852 -0.0023558661
-0.028903872 -0.009701243 -0.015187154 0.025642931 0.049717974 -0.0050067576 -0.03427688 -0.02618546
0.029715607 0.0045300005 -0.054476764 -0.06220366 0.04891236 -0.011030242 0.025684712 -0.006343073
0.025042407 0.0046292422 0.035283364 0.008215626 -0.015435594 -0.021085586 0.028709237 0.04853136
00000000: fae6 13bd ed34 86bc c15e 30bd b407 c3bc
00000010: 8b16 fbbb 80ab 29bd 9bbd aebc 3c02 5c3d
00000020: 7adc a8bb 20ee 26bc 4136 f23c ad4e 55bd
00000030: 1691 2ebd 7642 073d 5e2a 43bd 515a 06bd
00000040: 09fe 8abd 3055 91bc 40ff 39bd 14c7 1fbd
00000050: 00f0 5638 de61 643d 1200 253d 19a7 1ebd
00000060: 01cd 093a a4c9 8d3c 3802 533d 8848 623c
00000070: 0072 c7bb dc8f 27bd 30c9 25bc 2c9f 00bd
00000080: 4ab8 683d 6c69 89bd d03f f1bc 7c5e ccbc
00000090: adcd 393d e74a 86bd 9185 4ebd d0a8 10bc
000000a0: 706c e6bc ad0b 0d3d 0a13 7bbd 8084 70bc
000000b0: 0004 6a3c 8600 80bd 4cc1 203d 6e1a 18bd
000000c0: 4214 553d 80ca 6d3a f00e 223d 95e0 ea3c
000000d0: 98f3 47bd 493c 4f3d fcae d9bc 40c3 e0bc
000000e0: 1e76 83bd 1c68 663b 75a5 433d 8108 373d
000000f0: c969 ae3c b0ce 613d a530 123d 441c 4cbd
00000100: acc3 d1bc 200d 663c b0a1 51bd 4d50 a43b
00000110: dd4f e53b 6544 373d 100a 243d e17c d53c
00000120: 2234 47bd 684d d63c bc6f 82bc 4092 733d
00000130: 4434 523d f0b2 84bb d674 34bd 5650 1a3d
00000140: 8b61 973c d940 4b3d 2e04 1cbc 435b 44bd
00000150: 505d 94bb f4bd debb c8bd 0a3c faf9 68bd
00000160: a1d7 1c3d 1a6c 39bd 2826 5d3c 0013 3fbc
00000170: 2592 1b3d 24c4 0dbd 5c48 7fbd 2e2f 763c
00000180: f678 06bd a810 f8bc c143 e038 0cae 14bd
00000190: f7f2 f53b 1e66 7dbd 3149 d63c f8aa 553c
000001a0: 5fe6 5a3c a09f ea3b e321 193d 4d7c 403d
000001b0: c0fa baba 00d2 5f3d 526b 233d 5c9a babc
000001c0: 4442 ba3c 26c1 5b3d 2636 e03c 41a7 0c3d
000001d0: 3d05 36bd 6756 52bd 3a33 0ebd fe22 3bbd
000001e0: 3e94 433d 5039 063d 145e d73c 703a 0b3c
000001f0: b434 c93c 3c40 fb3c 704f fdbc db27 4d3d
00000200: dbbc 253c ef0f a4bc cc49 adbc 79cf 56bd
00000210: 746b cfbc d479 adbc b2e7 14bd 499c 4f3d
00000220: f86a 57bd 363d 81bc 53dc 29bd 56f4 783d
00000230: 631b d6bc 50db 24bd bcb4 113d 3226 57bd
00000240: be31 253d 80f6 59bc 857c 8f3c 956e 9e3c
00000250: 2d37 183d 14c2 843c a547 c13c 249a c3bc
00000260: 92cd cbb9 5ba2 e7bc 3a2a 753d 6717 8abb
00000270: cf55 d43c e457 17bd 030b cd3c 6734 a3bc
00000280: a414 c9bc b067 46bd 3e95 99bc 3473 fa3c
00000290: 95dd eebc e40a 633d 7060 783d 84f7 73bd
000002a0: 06c3 24bd ba5f 243d 90f3 bbbc 8030 ecbc
000002b0: dae2 5cbd bfd3 02bc ab27 153c 33d4 63bc
000002c0: a83b 79bd 6ea7 80bb abe1 c13c 94d1 e33c
000002d0: 1ec0 34bd 7e36 7cbd e6d9 dfbc 2d6e 11bd
000002e0: 3c4c 5ebd 769f 52bd 521f 94bc 1fd6 ae3b
000002f0: ae97 023d 0e17 13bd 803b 613d 1675 053d
00000300: 8639 5dbd 85c8 20bd 0465 22bd 4ede 4a3d
00000310: 8b6c 273d 657f dd3c ac26 56bd 4ca9 d5bc
00000320: 5423 90bd 9cd2 b83c d4c1 fa3c c8f0 36bc
00000330: 763a 13bd f835 103d ae4d 513d b823 0fbc
00000340: b4f4 7ebd 66ba ea3c 43fd 7cbc eba6 453d
00000350: 61c1 e1ba 67ea 24bc d1e6 81bd 34d3 edbc
00000360: 274b 87bd 0a0c 82bd a91a 353b dd5c 22bd
00000370: 8c51 6f3d 80d0 6ebd 8eaa 923c 6c24 1dbc
00000380: 0037 49ba 32e1 5ebd 74e4 3a3d eb37 22bd
00000390: 996e 0f39 1044 7b3c 3003 14bd e064 1abb
000003a0: d0c7 ecbc f6f1 1ebc 8ad3 78bc 2011 d23c
000003b0: 13a5 4b3d ba0f a4bb ea65 0cbd e482 d6bc
000003c0: 256e f33c 6670 943b 0723 5fbd 44c9 7ebd
000003d0: 5458 483d 30b8 34bc bf68 d23c 8ed9 cfbb
000003e0: bc25 cd3c e6b0 973b 4a85 103d d59a 063c
000003f0: 93e5 7cbc aebb acbc a22f eb3c d2c8 463d

l2.bias f4 [256]
-0.05202885 0.042559054 0.099399365 -0.008194374 0.009040327 -0.058792293 0.013316723 -0.0050499346
0.055567857 0.04297626 0.1055234 -0.04570775 0.013859897 -0.052432124 0.040976577 0.059100423
0.057379365 0.022208467 -0.0013158055 -0.04720757 -0.0122317355 0.029052407 -0.009090776 -0.05696138
-0.013139717 -0.025845563 0.051245734 0.0022660324 0.03750986 -0.033326358 0.024412256 0.00630033
-0.027638458 0.033947475 0.056110922 0.0016766826 0.044789616 -0.041260436 0.047860645 0.021943789
-0.06524178 0.025664132 0.016689483 -0.02078748 -0.05854696 -0.044721413 0.041286603 -0.052158594
-0.03638631 -0.03036154 0.043468215 -0.016020272 0.062020704 -0.052204728 0.08687024 0.05862645
0.04573889 0.026355013 -0.033418015 0.035275944 -0.03271035 -0.0020351633 -0.0177804 -0.0020172074
0.02624622 -0.06792648 0.105318934 0.03517368 -0.038792014 -0.0062851114 -0.035306033 0.04881736
0.04547669 0.050244886 -0.064585045 -0.07747909 0.043624252 -0.052274484 -0.06102154 0.026595958
-0.0019712795 0.052754156 -0.053929914 -0.019103242 -0.03535142 0.050511014 0.010685651 -0.0449176
-0.020236043 -0.04008043 0.01329872 -0.06957391 -0.058351602 0.029942347 -0.0650454 0.014789269
0.004437536 -0.012808166 -0.011805376 0.015091272 -0.042422004 -0.051478516 -0.020775527 -0.058372825
0.020030694 -0.026121128 -0.034883223 -0.04949553 -0.07033654 0.021217687 -0.010945208 -0.058421597
0.042054113 -0.037929505 -0.06167726 0.00055227004 -0.06803233 0.021049049 0.030145107 -0.047750037
0.010682427 -0.045102634 -0.018944677 -0.080243915 -0.031656455 -0.05354917 0.022198029 0.012750147
-0.0061399564 -0.0078492975 0.0075606206 0.03720963 -0.05222541 -0.009520582 -0.0063060718 -0.061705314
0.045663364 0.05145234 0.10831892 -0.0026208858 -0.024261275 0.04513327 0.0060522435 0.040361352
-0.010031648 -0.02426424 -0.059011847 -0.0682169 0.038125567 0.0012884398 -0.040673487 -0.017000504
0.005518484 -0.055009823 -0.009811212 -0.055895317 -0.027675478 -0.024872214 -0.027536148 -0.06173506
0.04865934 0.03801188 -0.029117813 0.008425491 -0.03304018 -0.013575457 -0.043715287 -0.04851454
-0.001981918 -0.06876091 -0.027596647 0.040191315 0.008856027 0.024001345 -0.0071367696 0.021402076
0.055536944 0.0067705344 0.013971487 -0.05467923 -0.06746728 0.0019864286 0.07570295 0.023662612
-0.004697237 -0.05362148 -0.029949784 -0.032561168 -0.04262846 0.033195347 -0.005314712 0.04178993
0.00799953 0.018044248 -0.033884887 -0.01411859 0.04009685 0.039483868 0.025591847 0.052167095
0.029451577 -0.011514841 0.003891347 0.005468307 -0.038427427 0.027206086 -0.0018695783 0.030318938
-0.023035556 -0.041808516 0.031194136 -0.012139961 0.08696666 -0.06473026 -0.03955776 -0.026576815
0.0051782457 -0.0027935365 0.047255676 0.0035941228 0.06347014 -0.01661636 0.026076213 -0.045407686
0.02673449 0.013007742 0.020170266 -0.0071563767 -0.06833258 -0.0095874565 0.043944295 0.020210795
-0.024569996 0.047757484 -0.0074857585 -0.017288266 -0.059554446 0.035759114 -0.064189404 -0.011191279
-0.039270915 -0.03883571 0.020641789 -0.000305415 -0.046209447 0.01681979 0.026871312 -0.016964056
-0.0074434 0.043791894 0.04807378 0.02240117 0.049645938 0.013685138 -0.058771323 -0.019030675
00000000: 341c 55bd 6752 2e3d e591 cb3d b241 06bc
00000010: e11d 143c 30d0 70bd 622e 5a3c ec79 a5bb
00000020: 1f9b 633d e007 303d a71c d83d 0d38 3bbd
00000030: 9f14 633c 11c3 56bd 0ed7 273d 4913 723d
00000040: a006 6b3d 88ee b53c 1b77 acba ba5c 41bd
00000050: 9e67 48bc 50ff ed3c 7af1 14bc 5650 69bd
00000060: f847 57bc 13ba d3bc 0ce7 513d b781 143b
00000070: f0a3 193d 3881 08bd 36fc c73c 0073 ce3b
00000080: 0c6a e2bc 820c 0b3d 91d4 653d 22c4 db3a
00000090: 5175 373d b400 29bd 8609 443d 76c3 b33c
000000a0: 7b9d 85bd 963d d23c 62b8 883c 814a aabc
000000b0: f0ce 6fbd cd2d 37bd 241c 293d 40a4 55bd
000000c0: d009 15bd c4b8 f8bc ba0b 323d f23c 83bc
000000d0: 6c09 7e3d a0d4 55bd 06e9 b13d 4a22 703d
000000e0: b458 3b3d 78e6 d73c 54e1 08bd 827d 103d
000000f0: 4afb 05bd 6060 05bb 34a8 91bc 2033 04bb
00000100: 5002 d73c 0a1d 8bbd 74b1 d73d 4712 103d
00000110: 60e4 1ebd 56f3 cdbb 0f9d 10bd b6f4 473d
00000120: c445 3a3d 95cd 4d3d 2a45 84bd 5bad 9ebd
00000130: 58af 323d c51d 56bd b9f1 79bd c4df d93c
00000140: 9530 01bb be14 583d 9de5 5cbd 677e 9cbc
00000150: a7cc 10bd a3e4 4e3d de12 2f3c 84fb 37bd
00000160: 0fc6 a5bc 612b 24bd e0e2 593c c47c 8ebd
00000170: 1702 6fbd a749 f53c 8636 85bd b14e 723c
00000180: c068 913b 58d9 51bc 566b 41bc 6241 773c
00000190: b2c2 2dbd 23db 52bd 7031 aabc 5818 6fbd
000001a0: 6917 a43c fafb d5bc b6e1 0ebd d3bb 4abd
000001b0: 9b0c 90bd b7d0 ad3c 8853 33bc 7c4b 6fbd
000001c0: ef40 2c3d f85b 1bbd 4ba1 7cbd 37c6 103a
000001d0: 8954 8bbd 0e6f ac3c dff2 f63c 8b95 43bd
000001e0: 5905 2f3c 8abd 38bd de31 9bbc ec56 a4bd
000001f0: 33aa 01bd 6056 5bbd a4d8 b53c fee5 503c
00000200: b031 c9bb 579a 00bc 15bf f73b 2069 183d
00000210: 50ea 55bd 37fc 1bbc 2aa3 cebb b6be 7cbd
00000220: 8209 3b3d b0bf 523d 4fd6 dd3d 2bc3 2bbb
00000230: 95bf c6bc aadd 383d e651 c63b f251 253d
00000240: c85b 24bc cdc5 c6bc 68b6 71bd 4db5 8bbd
00000250: 8e29 1c3d dee0 a83a 3e99 26bd a444 8bbc
00000260: 66d4 b43b fb51 61bd 35bf 20bc 7df2 64bd
00000270: afb7 e2bc d0c0 cbbc 7d93 e1bc e7dd 7cbd
00000280: 044f 473d 58b2 1b3d 7b88 eebc 120b 0a3c
00000290: 2455 07bd 986b 5ebc cd0e 33bd 2fb7 46bd
000002a0: 11e3 01bb 85d2 8cbd 5d12 e2bc a69f 243d
000002b0: df18 113c 789e c43c 90db e9bb 6853 af3c
000002c0: b57a 633d 5cdb dd3b aae8 643c 54f7 5fbd
000002d0: 492c 8abd be2e 023b 260a 9b3d 18d8 c13c
000002e0: 48eb 99bb 32a2 5bbd 4059 f5bc dc5e 05bd
000002f0: 2e9b 2ebd d8f7 073d 0927 aebb eb2b 2b3d
00000300: 7610 033c 88d1 933c e1ca 0abd a951 67bc
00000310: 983c 243d d6b9 213d fea5 d13c 2aad 553d
00000320: 6f44 f13c bea8 3cbc f805 7f3b 7c2f b33b
00000330: 1466 1dbd 4cdf de3c a30c f5ba 6c5f f83c
00000340: 10b5 bcbc 683f 2bbd d88a ff3c b0e6 46bc
00000350: 941b b23d 4c91 84bd 5107 22bd 9fb7 d9bc
00000360: 46ae a93b c413 37bb 2b8f 413d 608b 6b3b
00000370: a2fc 813d 081f 88bc c89d d53c 69fd 39bd
00000380: 4a02 db3c 6d1e 553c 1d3c a53c 0a80 eabb
00000390: f4f1 8bbd b514 1dbc effe 333d 1c91 a53c
000003a0: 0447 c9bc 5a9d 433d 184b f5bb 1fa0 8dbc
000003b0: 5def 73bd 2678 123d bc75 83bd a05b 37bc
000003c0: 8ada 20bd 3212 1fbd f818 a93c 1b20 a0b9
000003d0: 1e46 3dbd a8c9 893c 3a21 dc3c 34f8 8abc
000003e0: c4e7 f3bb 215f 333d 03e9 443d a982 b73c
000003f0: 8a59 4b3d a137 603c 33ba 70bd 38e6 9bbc

l3.weight f4 [256, 256]
0.008810379 0.028642703 0.06661918 -0.017600229 -0.025828527 -0.05920943 -0.033966154 0.03083401
0.010569374 -0.047936656 0.057763726 0.0007019779 -0.014764279 0.017512172 -0.044673882 -0.031608578
-0.017644055 -0.003001166 0.06758096 -0.014780908 0.031041073 -0.04552071 0.052947372 0.026483014
0.04640019 0.05011712 0.031860117 0.0035185164 -0.04288317 -0.031568125 -0.012727035 -0.0059684217
-0.048772022 0.02183894 -0.018628519 -0.037739057 0.08647698 0.050406683 -0.035215564 0.01435878
-0.0264018 0.017381117 -0.0063757463 0.04175934 -0.0021770063 0.051792696 0.0037026815 -0.050206523
-0.031349987 -0.06679792 0.044898845 -0.05840133 0.056899503 -0.026208157 0.084660105 -0.0071706623
0.018920295 -0.017582877 0.0073772073 0.034643427 -0.0013041049 0.038128868 -0.012687822 0.0060534626
-0.022912275 0.023434192 -0.0031388288 0.027711347 0.0016309348 0.042944282 -0.028113216 0.0002473263
0.070145994 0.061130356 0.0585163 -0.06264488 0.018106679 -0.047057495 -0.05505851 0.012518631
-0.006741321 -0.027235046 -0.027476666 0.03288407 -0.020882731 -0.0026347057 -0.054317947 0.053187348
-0.052911486 -0.042251777 0.017208943 -0.03656251 0.015323761 -0.03004719 0.04932555 -0.05588395
0.0013432205 0.043586414 0.009225452 0.017146561 -0.033778653 -0.05378939 -0.029547812 0.06478916
-0.0069957464 -0.0105059855 0.05765379 0.043012004 -0.014395136 0.040050767 -0.0028945364 -0.04000456
0.025296023 0.019472525 -0.035167582 -0.07275651 -0.043456607 -0.028320212 0.003285622 -0.03835454
-0.016973339 -0.015617639 -0.048344526 -0.019844964 -0.052460954 0.021437563 -0.009113761 -0.021648834
0.034864802 0.059811406 -0.028215498 0.025853256 -0.005386799 0.01071081 -0.015611483 -0.006936524
0.041500293 0.011462867 0.08746143 -0.05572028 -0.020912321 0.08801704 0.037817236 -0.01715345
1.2627679e-05 -0.062109493 0.031926073 0.061864134 0.03698329 0.022482144 1.9714236e-05 0.055868313
-0.019473929 0.012701149 -0.039464805 -0.049067833 -0.054679163 0.011417428 -0.036236167 -0.037033267
-0.028424 -0.054825276 -0.027030082 -0.022483747 -0.039680555 0.0140038505 -0.01907693 -0.04646477
-0.0011588976 0.08677615 0.0029521068 0.038703285 -0.051224265 0.048146002 -0.03584168 -0.0089318305
0.018878356 0.023184502 -0.025206463 -0.008206842 0.060834743 0.05683436 0.030427977 -0.06366752
-0.029574618 0.054456964 0.013042118 -0.005354006 0.04527063 -0.030110143 0.025565052 0.0046630464
0.04260237 -0.023384046 -0.044234913 0.040224448 0.037521742 0.04839018 0.025510272 0.06152881
-0.020179994 -0.036578376 0.002432082 0.06076629 -0.0024552739 0.01955776 0.037988104 -0.006862873
-0.025178785 -0.03520105 -0.0029522767 -0.025036432 0.03701496 -0.00497007 -0.038208496 -0.04269069
0.04991981 0.0419112 0.0008983204 -0.031183153 0.08205913 0.06683913 -0.050122496 -0.018558607
0.034637578 0.043463305 0.06048185 -0.022141127 -0.07467899 -0.00035639477 0.06880181 -0.006511168
-0.036251888 0.037240475 0.01957492 0.041573867 -0.0154971825 0.017764153 0.03460036 0.017473876
0.047755018 -0.05760749 -0.060573988 -0.010138504 -0.006434674 0.015867481 -0.020703174 -0.04729338
0.038000707 0.0061928807 0.04894669 0.02068045 0.05606196 -0.017044183 -0.019573295 -0.011508357
00000000: 6859 103c 1aa4 ea3c a36f 883d 5b2e 90bc
00000010: 5996 d3bc 9685 72bd 1820 0bbd 9b97 fc3c
00000020: 2b2b 2d3c 3a59 44bd a899 6c3d f004 383a
00000030: e0e5 71bc b075 8f3c f6fb 36bd ff77 01bd
00000040: 448a 90bc 36af 44bb e367 8a3d 9f2b 72bc
00000050: d949 fe3c ed73 3abd 58df 583d e8f2 d83c
00000060: 200e 3e3d 9c47 4d3d c17f 023d e996 663b
00000070: 43a6 2fbd 944d 01bd 0e85 50bc c092 c3bb
00000080: 2cc5 47bd 94e7 b23c d69a 98bc 4594 1abd
00000090: d81a b13d 3d77 4e3d 323e 10bd 1741 6b3c
000000a0: 9648 d8bc d862 8e3c a3eb d0bb d70b 2b3d
000000b0: 1bac 0ebb 9424 543d b0a8 723b 5ba5 4dbd
000000c0: d868 00bd 59cd 88bd dae7 373d 3c36 6fbd
000000d0: 740f 693d 7db2 d6bc 4762 ad3d e0f7 eabb
000000e0: bcfe 9a3c f709 90bc 80bc f13b 44e6 0d3d
000000f0: 80ee aaba 042d 1c3d 95e0 4fbc 205c c63b
00000100: 86b2 bbbc 10f9 bf3c cfb4 4dbb e802 e33c
00000110: 17c5 d53a 58e6 2f3d b04d e6bc 93ab 8139
00000120: b4a8 8f3d d363 7a3d caae 6f3d f54b 80bd
00000130: 7554 943c 5cbf 40bd 0885 61bd f21a 4d3c
00000140: 4de6 dcbb 081c dfbc bf16 e1bc 72b1 063d
00000150: 4312 abbc 07ab 2cbb 7f7c 5ebd fada 593d
00000160: b7b9 58bd 3310 2dbd c5f9 8c3c 92c2 15bd
00000170: 8310 7b3c 8625 f6bc 9709 4a3d 92e6 64bd
00000180: 000f b03a ab87 323d 5a26 173c f276 8c3c
00000190: 7c5b 0abd 4352 5cbd 410e f2bc 2eb0 843d
000001a0: 933c e5bb 4c21 2cbc 6126 6c3d 5b2d 303d
000001b0: 94d9 6bbc 460c 243d 43b2 3dbb d2db 23bd
000001c0: 9b39 cf3c d884 9f3c e20b 10bd 5d01 95bd
000001d0: 8eff 31bd caff e7bc 9753 573b a619 1dbd
000001e0: ac0b 8bbc 20e1 7fbc e904 46bd e891 a2bc
000001f0: 4ce1 56bd d49d af3c e251 15bc e558 b1bc
00000200: 65ce 0e3d cefc 743d 3024 e7bc 35ca d33c
00000210: bf83 b0bb 657c 2f3c 4ec7 7fbc c84b e3bb
00000220: 36fc 293d c0ce 3b3c fa1e b33d f33a 64bd
00000230: 5150 abbc 4742 b43d 3fe6 1a3d 6485 8cbc
00000240: 78db 5337 8666 7ebd eac4 023d 3f65 7d3d
00000250: ca7b 173d 792c b83c 0060 a537 2cd6 643d
00000260: ca87 9fbc 7b18 503c d9a5 21bd 5afb 48bd
00000270: 42f7 5fbd 2a10 3b3c 606c 14bd 32b0 17bd
00000280: 73d9 e8bc 7890 60bd 316e ddbc d62f b8bc
00000290: 1488 22bd 6870 653c 3947 9cbc d851 3ebd
000002a0: 27e6 97ba b2b7 b13d 2278 413b 5687 1e3d
000002b0: 89d0 51bd be34 453d bace 12bd d056 12bc
000002c0: c8a6 9a3c 6ded bd3c c97d cebc fd75 06bc
000002d0: da2d 793d 25cb 683d 1844 f93c 1e64 82bd
000002e0: 7846 f2bc 440e 5f3d 9cae 553c a870 afbb
000002f0: b26d 393d 8ca9 f6bc cd6d d13c 78cc 983b
00000300: d37f 2e3d e68f bfbc ab2f 35bd 64c2 243d
00000310: 66b0 193d c834 463d ebfa d03c a205 7c3d
00000320: 8450 a5bc 35d3 15bd 9163 1f3b 13e6 783d
00000330: a9e8 20bb 9837 a03c 6a99 1b3d f4e1 e0bb
00000340: bd43 cebc fa2e 10bd fc7a 41bb 3419 cdbc
00000350: 009d 173d f8db a2bb 8380 1cbd 6fdc 2ebd
00000360: b778 4c3d 14ab 2b3d 437d 6b3a d073 ffbc
00000370: 9e0e a83d f4e2 883d 3f4d 4dbd 3808 98bc
00000380: 22e0 0d3d 9406 323d d1bb 773d 4f61 b5bc
00000390: 4cf1 98bd 7fda bab9 f7e7 8c3d a35b d5bb
000003a0: dc7c 14bd 7889 183d 955b a03c 5c49 2a3d
000003b0: e5e7 7dbc 2186 913c 1bb9 0d3d 6025 8f3c
000003c0: c49a 433d d5f5 6bbd 6e1c 78bd f81b 26bc
000003d0: f5d9 d2bb 85fc 813c b499 a9bc b4b6 41bd
000003e0: a1a6 1b3d a6ed ca3b 537c 483d 0c6a a93c
000003f0: 3aa1 653d 3ea0 8bbc 2d58 a0bc 8c8d 3cbc

l3.bias f4 [256]
0.07844368 0.040194027 -0.015182447 -0.027330637 0.041977607 -0.026867734 0.0005573155 -0.068951085
0.036364138 -0.03765487 -0.0516327 -0.046793487 0.010660005 0.05184014 -0.020137262 0.073112644
0.04835462 -0.037266 -0.009133141 -0.032417912 0.0026240058 0.05259748 -0.008343231 0.03750462
0.031620517 -0.0035843411 0.13115297 0.034833632 0.02174986 0.0057894737 -0.069996655 -0.04072487
0.13803093 0.009290558 -0.0010534001 -0.00087049603 0.033435516 0.03553527 0.068399675 0.022402918
-0.03933368 0.048469804 0.010338135 0.012968616 0.036238045 -0.04411928 0.09210349 -0.06722434
0.11796689 0.040912025 -0.025490023 -0.051528174 -0.0064460114 0.015714662 -0.052018356 0.016673379
0.10665429 0.063613385 0.03831708 -0.010887906 0.014245305 0.03413155 -0.010892681 -0.005057864
-0.026950154 -0.03402012 0.05324734 -0.056486372 0.15574826 -0.010437927 0.037163056 0.06207475
-0.06289929 0.019312542 0.054179907 -0.041759245 -0.05304356 0.021289458 -0.03982966 -0.014341049
0.053542126 -0.007056571 0.035699666 -0.027406102 -0.018353244 0.12818986 0.0113836825 -0.039293885
0.008167528 -0.04902795 -0.0033839175 0.0016899408 -0.022391362 0.08350027 0.02018626 -0.048383072
0.009413171 -0.03414435 0.0033647302 -0.03473626 -0.06711024 -0.052585863 0.090204254 0.035939593
0.01427758 0.04567765 -0.020754509 0.036622904 0.056885064 -0.03787532 0.12752806 0.0275216
0.0033559094 0.018644962 0.053551584 -0.003596785 -0.050560888 0.044901524 -0.011192274 -0.031910963
0.15303542 -0.033898145 -0.0074587585 0.03701003 0.087954886 0.008048252 -0.0056563765 -0.01431451
0.05731119 -0.06160562 0.030502452 -0.027938766 -0.03476416 0.03006705 -0.00054156076 -0.027385911
0.13687837 -0.0017787484 -0.047630075 -0.027724981 0.024809014 0.014039146 -0.030696558 -0.04251718
0.117365554 -0.020235252 0.0032391725 -0.024578134 0.016858168 -0.047468524 -0.062211275 0.042276464
-0.02795079 0.016427945 0.03414874 0.050083715 -0.026104022 0.025744162 0.06788609 -0.09098849
-0.0064576417 -0.018660828 -0.045338437 0.030059645 -0.003963851 -0.012908608 -0.00037429956 -0.05723421
0.008051681 0.04606745 -0.055729806 0.01107843 0.054411322 0.059573233 -0.033495076 0.039268486
0.009953015 -0.0043522744 -0.019162932 0.06917421 -0.024835603 0.10600546 0.004279329 0.099631526
0.052701898 0.050922647 0.0121056605 -0.012518122 0.055288553 -0.036991302 -0.024643127 -0.009005703
0.052198224 0.061364084 0.13164139 0.026919026 -0.067792386 0.0033742432 0.03431737 -0.037249826
0.03494625 -0.016412266 0.008908838 0.033380702 0.0346718 -0.025763003 0.036425363 0.053842925
0.01358512 0.04632763 0.012690056 -0.009606399 -0.0033014938 -0.010181403 -0.04908009 -0.0046147406
0.11622029 0.06055854 -0.00087917596 -0.02845486 0.042541675 -0.0675764 0.048323274 0.0011198474
0.020622455 -0.05187284 -0.06838743 0.0491943 0.034490995 0.15850675 -0.04747966 -0.03237078
0.051929377 -0.04275837 0.042531144 -0.010797478 0.008073167 -0.057728875 0.012433633 -0.04853399
-0.036888085 0.0027804493 -0.027275926 -0.008885109 0.047333006 0.013902485 0.012453901 -0.059519656
0.048260234 -0.0050808247 0.028420288 0.008927301 -0.0011961097 -0.033632185 -0.01769732 0.13567367
00000000: 15a7 a03d 7ea2 243d ccbf 78bc 80e4 dfbc
00000010: b6f0 2b3d b919 dcbc cf18 123a 3a36 8dbd
00000020: 90f2 143d fe3b 1abd cf7c 53bd 87aa 3fbd
00000030: 4da7 2e3c 5456 543d e6f6 a4bc 15bc 953d
00000040: 7e0f 463d 3ca4 18bd 2ba3 15bc a5c8 04bd
00000050: 83f7 2b3b 7570 573d 0cb2 08bc 729e 193d
00000060: 8484 013d 44e7 6abb f74c 063e b6ad 0e3d
00000070: c32c b23c a0b5 bd3b 685a 8fbd 1fcf 26bd
00000080: fb57 0d3e 6d37 183c 3e12 8aba 0032 64ba
00000090: aef3 083d 6e8d 113d 2115 8c3d 5386 b73c
000000a0: 5a1c 21bd 4688 463d 4861 293c 517a 543c
000000b0: 586e 143d 6bb6 34bd c1a0 bc3d eaac 89bd
000000c0: a098 f13d 5e93 273d 74d0 d0bc 350f 53bd
000000d0: 1039 d3bb 09bc 803c 3311 55bd 9c96 883c
000000e0: 906d da3d bc47 823d 5ff2 1c3d 3063 32bc
000000f0: 2465 693c 86cd 0b3d 3777 32bc 70bc a5bb
00000100: 92c6 dcbc ae58 0bbd e219 5a3d 415e 67bd
00000110: 797c 1f3e d703 2bbc 4a38 183d 1842 7e3d
00000120: 58d1 80bd 5635 9e3c c0eb 5d3d be0b 2bbd
00000130: 3444 59bd 3b67 ae3c 6d24 23bd b8f6 6abc
00000140: fd4e 5b3d cf3a e7bb d039 123d c382 e0bc
00000150: 8b59 96bc 3444 033e a082 3a3c a0f2 20bd
00000160: 18d1 053c 88d1 48bd b7c4 5dbb 0181 dd3a
00000170: 176e b7bc 3102 ab3d a85d a53c 542d 46bd
00000180: b339 1a3c f2da 0bbd ce82 5c3b 9c47 0ebd
00000190: 1871 89bd 4664 57bd 02bd b83d 6535 133d
000001a0: 83ec 693c 7d18 3b3d 5c05 aabc e601 163d
000001b0: 5000 693d 2723 1bbd b796 023e fa74 e13c
000001c0: d1ee 5b3b 52bd 983c e858 5b3d 0ab8 6bbb
000001d0: ef18 4fbd a9ea 373d cd5f 37bc 12b5 02bd
000001e0: 51b5 1c3e c8d8 0abd 9a68 f4bb d497 173d
000001f0: b121 b43d d1dc 033c 2059 b9bb 6887 6abc
00000200: 23bf 6a3d 2d56 7cbd 47e0 f93c d7df e4bc
00000210: dd64 0ebd 2d4f f63c 87f7 0dba 6b58 e0bc
00000220: d829 0c3e e424 e9ba c117 43bd 801f e3bc
00000230: 463c cb3c 7204 663c 5977 fbbc 7f26 2ebd
00000240: 5a5d f03d 66c4 a5bc 4c48 543b 1558 c9bc
00000250: 241a 8a3c 5b6e 42bd 40d1 7ebd 162a 2d3d
00000260: 0ef9 e4bc e693 863c 8ddf 0b3d 9524 4d3d
00000270: 1ad8 d5bc 6ce5 d23c dd07 8b3d 2c58 babd
00000280: a09a d3bb 98de 98bc ccb4 39bd a53f f63c
00000290: 31e3 81bb a07e 53bc a33d c4b9 6b6e 6abd
000002a0: 33eb 033c 39b1 3c3d f044 64bd 4e82 353c
000002b0: 68de 5e3d 1003 743d 2232 09bd fed7 203d
000002c0: f811 233c 869d 8ebb 95fb 9cbc 35ab 8d3d
000002d0: 0974 cbbc 6419 d93d 9d39 8c3b 9d0b cc3d
000002e0: f2dd 573d 4494 503d d256 463c cf18 4dbc
000002f0: 4076 623d 3184 17bd 62e0 c9bc a88c 13bc
00000300: cecd 553d e858 7b3d 00cd 063e 4a85 dc3c
00000310: bcd6 8abd 6822 5d3b 5f90 0c3d 4693 18bd
00000320: cd23 0f3d 0473 86bc 60f6 113c 34ba 083d
00000330: 0404 0e3d ef0c d3bc c332 153d 668a 5c3d
00000340: 2094 5e3c 0ac2 3d3d f4e9 4f3c 2864 1dbc
00000350: e05d 58bb e6cf 26bc 3408 49bd 4037 97bb
00000360: e704 ee3d 3b0c 783d 8078 66ba 2b1a e9bc
00000370: 2e40 2e3d 7f65 8abd a0ee 453d d8c7 923a
00000380: 6cf0 a83c 9d78 54bd b50e 8cbd f67f 493d
00000390: 6e46 0d3d 984f 223e 087a 42bd 3997 04bd
000003a0: e6b3 543d 6723 2fbd 2335 2e3d e8e7 30bc
000003b0: 5145 043c 1d75 6cbd 70b6 4b3c 94cb 46bd
000003c0: f617 17bd 3338 363b c371 dfbc d992 11bc
000003d0: 41e0 413d 40c7 633c 720b 4c3c e2ca 73bd
000003e0: 86ac 453d 0c7d a6bb aad1 e83c d043 123c
000003f0: c8c6 9cba e7c1 09bd f8f9 90bc 0aee 0a3e

l4.weight f4 [1, 256]
0.06057907 -0.037384935 -0.049254924 0.024506753 -0.009597172 -0.008934166 0.004552248 -0.023652766
0.0063277646 0.03101286 -0.012670906 -0.0055300044 0.017483355 0.0041253977 -0.055864353 -0.000555768
-0.03851958 -0.047916822 -0.011703943 0.013087424 -0.00030979016 0.0046964544 -0.041539602 0.05044265
-0.035346173 0.045996837 0.021552494 -0.0015030013 0.0015239427 0.00521409 -0.024516536 0.0019269182
0.03004409 -0.039404254 0.029284388 0.045143276 -0.054701366 0.0013231339 0.06265666 -0.031801227
-0.02721005 0.05263859 0.054570146 0.0022080408 0.015911253 -0.034993898 0.04599883 -0.055710018
0.03609198 0.031812005 0.012243345 0.0030379076 -0.049486235 -0.023801643 -0.009454844 -0.018674118
0.0642478 0.018445281 -0.006725971 -0.001795508 0.038205978 0.01204662 0.024553468 0.033065066
-0.0043930276 -0.053988032 0.029314682 -0.02830931 0.060926393 -0.033133358 0.053712405 0.026185669
-0.055806708 -0.041266937 -0.0056809974 0.043388225 0.0011964006 0.028443014 0.004217765 -0.02318602
0.050476268 -0.002617759 0.043685693 -0.0077278083 0.013299845 0.041044325 -0.0421587 -0.03472778
0.0011867792 0.0102356095 0.0007373841 -0.043096818 -0.040854722 0.054477967 0.037349142 -0.011406987
0.0003289637 -0.050062794 -0.051429868 0.038419694 -0.002690987 -0.01724068 0.058121324 0.0033231883
0.0058155255 -0.041165832 0.004631586 0.0033593606 0.027215496 0.00039877786 0.067509376 -0.0052177035
-0.004012032 0.03664177 -0.00074632565 -0.00459874 -0.043394014 0.00070298975 -0.016720155 -0.043846723
0.057050254 -0.032904908 0.022254871 -0.061900526 0.025816478 0.013641192 -0.0057585714 -0.0062307194
-0.022238666 0.041247346 -0.010424302 -0.015173366 -0.0068762037 -0.017187547 0.03307144 -0.05217039
0.044576358 -0.022730459 -0.0042448174 -0.031533577 0.03630232 -0.0002892135 -0.0230005 -0.019962808
0.041010994 0.002857817 -0.015924988 0.056012392 -0.0024910932 0.00072494586 0.025784664 -0.037780024
-0.055871695 -0.0007836422 -0.011896842 -0.0076883635 -0.0122466115 -0.038090304 0.051983915 -0.02220684
0.05796165 -0.037347443 -0.0431412 -0.043938592 0.0048067058 0.028472364 0.00018326269 -0.045400027
0.013924999 0.03501253 0.013595059 -0.031219356 0.019583672 0.0042650043 0.0045999745 -0.009202272
-0.052052524 0.034342367 -0.00011665394 0.073532596 0.006609554 0.06023625 0.008996683 0.009254739
-0.013510268 -0.0076854723 -0.033681326 -0.04555179 0.057998247 -0.015469097 -0.016891656 -0.0009887442
0.0057998393 0.05650946 0.07415039 -0.026729444 -0.047894187 -0.010878289 -0.0088840695 0.031256627
-0.037559986 0.04504487 0.022760667 -0.012103877 0.00809937 -0.019258503 -0.007358346 0.0010443326
0.048900824 -0.049015842 0.027828202 0.001805678 -0.040074095 0.068616994 -0.0467968 0.006048925
0.04246542 0.01674431 0.043141842 0.0023821453 -0.012644635 -0.013426799 0.037760846 -0.000107691914
0.039791875 -0.021286255 -0.014248837 -0.006356651 -0.010804929 0.059296533 0.042857803 -0.0022618647
-0.037023842 -0.007834198 0.022157498 0.05478379 0.008572789 0.011260806 0.005969482 -0.019199591
-0.030692186 -0.032253828 -0.011109971 0.0060256254 -0.00020534114 -0.025032848 -0.031871676 -0.011745522
-0.047656912 -0.00062653393 0.0031290576 0.00810197 0.0034700327 -0.0041067246 -0.05430177 0.042508785
00000000: c221 783d f220 19bd 88bf 49bd 63c2 c83c
00000010: 753d 1dbc 9c60 12bc 062b 953b 72c3 c1bc
00000020: 2359 cf3b ae0e fe3c a299 4fbc 0a35 b5bb
00000030: 4139 8f3c 582e 873b 05d2 64bd f6b0 11ba
00000040: b5c6 1dbd 6e44 44bd e5c1 3fbc a36c 563c
00000050: 556b a2b9 b7e4 993b 6e25 2abd f49c 4e3d
00000060: 26c7 10bd 2e67 3c3d db8e b03c 5b00 c5ba
00000070: 08bf c73a f5da aa3b e7d6 c8bc a590 fc3a
00000080: 061f f63c 5b66 21bd d0e5 ef3c 28e8 383d
00000090: 8a0e 60bd 026d ad3a 2352 803d 0142 02bd
000000a0: 9ce7 debc 909b 573d f284 5f3d c7b4 103b
000000b0: 5158 823c c355 0fbd 4569 3c3d 3030 64bd
000000c0: 2fd5 133d 4e4d 023d 5098 483c a217 473b
000000d0: 14b2 4abd aafb c2bc 7de8 1abc 77fa 98bc
000000e0: 5a94 833d 8f1a 973c 8965 dcbb 4057 ebba
000000f0: df7d 1c3d 305f 453c 5b24 c93c 3c6f 073d
00000100: 63f3 8fbb 8e22 5dbd 5825 f03c ede8 e7bc
00000110: f48d 793d d8b6 07bd 8a01 5c3d 5483 d63c
00000120: 9395 64bd 8507 29bd a927 babb dab7 313d
00000130: 8bd0 9c3a 5301 e93c 2d35 8a3b 9cf0 bdbc
00000140: 34c0 4e3d b58e 2bbb c5ef 323d 8e39 fdbb
00000150: 98e7 593c 181e 283d 9aae 2cbd b73e 0ebd
00000160: b48d 9b3a 42b3 273c 024d 413a 4a86 30bd
00000170: 4857 27bd 4a24 5f3d 6afb 183d 5fe4 3abc
00000180: c378 ac39 a50e 4dbd 20a8 52bd f85d 1d3d
00000190: 455b 30bb 543c 8dbc a010 6e3d d9c9 593b
000001a0: 2a90 be3b 819d 28bd 8fc4 973b b828 5c3b
000001b0: 08f3 de3c 0f13 d139 5b42 8a3d 45f9 aabb
000001c0: 5d77 83bb ae15 163d 11a5 43ba 07b1 96bb
000001d0: ecbd 31bd d848 383a b5f8 88bc 9f98 33bd
000001e0: 87ad 693d 4cc7 06bd d94f b63c 688b 7dbd
000001f0: 147d d33c 4e7f 5f3c 66b2 bcbb 102b ccbb
00000200: dd2d b6bc faf2 283d b1ca 2abc b699 78bc
00000210: c751 e1bb e6cc 8cbc eb75 073d 9eb0 55bd
00000220: b395 363d 3a35 babc 1c18 8bbb 5a29 01bd
00000230: beb1 143d 94a1 97b9 8b6b bcbc 0b89 a3bc
00000240: 25fb 273d 374a 3b3b 1f75 82bc 406d 653d
00000250: 9c41 23bb 4b0a 3e3a 5c3a d33c 3abf 1abd
00000260: b8d9 64bd 566d 4dba f9ea 42bc abee fbbb
00000270: 03a6 48bc 9404 1cbd 16ed 543d 1eeb b5bc
00000280: 3269 6d3d a2f9 18bd d4b4 30bd f4f8 33bd
00000290: 9281 9d3b e03e e93c 342a 4039 61f5 39bd
000002a0: ae25 643c 4c69 0f3d cfbd 5e3c bcbf ffbc
000002b0: f06d a03c 73c1 8b3b 62bb 963b 20c5 16bc
000002c0: 0735 55bd 95aa 0c3d 1ba4 f4b8 4298 963d
000002d0: f594 d83b 49ba 763d d366 133c 30a1 173c
000002e0: 2c5a 5dbc 6ad6 fbbb 6ef5 09bd 8494 3abd
000002f0: 928f 6d3d 1872 7dbc 5f60 8abc c098 81ba
00000300: 940c be3b 7776 673d 29dc 973d b5f7 dabc
00000310: b22c 44bd da3a 32bc 7d8e 11bc f306 003d
00000320: 80d8 19bd f880 383d 9474 ba3c 574f 46bc
00000330: 38b3 043c 02c4 9dbc 481e f1bb fde1 883a
00000340: 3b4c 483d d6c4 48bd f8f7 e33c 80ac ec3a
00000350: bc24 24bd 1187 8c3d 00ae 3fbd 1036 c63b
00000360: 38f0 2d3d 5d2b 893c 80b5 303d c41d 1c3b
00000370: 712b 4fbc 14fc 5bbc 1eab 1a3d a8d8 e1b8
00000380: cefc 223d 8360 aebc f473 69bc 744b d0bb
00000390: 2807 31bc ece0 723d aa8b 2f3d cb3b 14bb
000003a0: 50a6 17bd 025b 00bc a483 b53c f864 603d
000003b0: e274 0c3c 3e7f 383c a59b c33b 7648 9dbc
000003c0: 2e6e fbbc 971c 04bd 9906 36bc 9c72 c53b
000003d0: d850 57b9 b011 cdbc e08b 02bd 4a70 40bc
000003e0: e533 43bd fb3d 24ba e010 4d3b 20be 043c
000003f0: 7d69 633b b491 86bb 886b 5ebd b11d 2e3d
