models/GMI_pretrained/GMI_GPM_channel_predictor_10H_ocean.pt (torch, 544272 bytes, 7 tensors)

l1.weight f4 [256, 12]
0.21575578 -0.18252368 -0.089037746 0.010805158 -0.19344312 0.27388126 -0.28364617 -0.12874913
0.24706745 0.124428 -0.07810109 -0.24798821 -0.15468282 -0.23938097 0.17433831 0.23762898
-0.12315982 0.11558161 0.064605184 -0.10989258 0.12967648 0.109992385 -0.26185012 -0.08141201
0.19427416 -0.26256046 -0.122126676 0.03457195 -0.026765898 -0.20448129 -0.13144454 -0.07663917
-0.21402936 -0.26142684 0.1202827 -0.019412752 0.09212174 -0.024936102 -0.047060546 -0.00069427735
-0.0284886 -0.08705017 -0.12580392 -0.039583858 -0.25024804 -0.10742806 0.09869527 -0.113566056
-0.27359608 -0.21755773 0.146392 0.17481223 -0.119986616 0.20117074 -0.28099427 -0.11451502
0.006446232 -0.08784441 0.07819022 0.0973765 -0.21113658 -0.18850097 0.16426176 0.09358415
0.065212384 -0.11934354 0.061942 -0.17716038 -0.17134738 0.11142658 0.048878606 0.14768517
0.09209904 -0.07701537 -0.4056868 0.023014326 0.23158464 -0.085911036 -0.24024098 -0.1478312
0.07178922 0.23821963 -0.15492798 0.25617126 -0.08183257 -0.20152225 0.23572722 0.24392802
-0.047837447 -0.14537026 -0.025637057 -0.038899355 -0.23670034 -0.13745911 0.08670098 -0.23105063
0.19709639 0.2304823 -0.027071131 0.1734394 0.0020558643 0.20591868 -0.20466177 -0.2568262
-0.007895899 -0.07933462 -0.02372965 0.0036479325 -0.038664065 0.35192448 0.3589954 -0.010234382
-0.2258891 0.059287902 -0.23144846 0.023847133 -0.013001014 0.00074028905 -0.030716192 -0.03338184
-0.20334505 -0.17961216 0.225409 0.03654363 0.0026774502 -0.19305743 0.1301793 0.08582666
-0.19447616 0.18897921 -0.11366499 -0.048694566 0.26897 0.099484816 0.24862373 -0.26623467
0.06428217 -0.085397825 0.05661984 0.09477921 0.046404257 0.14590827 0.27226898 0.19447033
0.16284856 -0.21753313 0.088078626 0.13904585 -0.22578427 -0.02746255 -0.1440147 -0.13381548
-0.20556563 -0.12576184 -0.21492067 0.04617614 0.2143674 0.16744949 -0.009467217 0.044188485
-0.06759338 -0.042960543 -0.035476882 -0.0064786444 0.15731746 0.015186087 -0.015514286 -0.023388628
-0.042482823 0.08107064 -0.13817479 -0.28007194 0.044591878 0.16592996 -0.038710393 -0.018399881
0.22343877 -0.1568257 -0.048955005 -0.053954728 0.104979105 0.17285843 0.25029677 -0.005838973
0.21463326 0.1543906 0.21532917 0.22516817 -0.02839293 -0.29224706 -0.17074299 -0.19601096
0.31524673 -0.12181387 0.08001148 -0.117657974 -0.26452535 0.2520575 0.08437254 -0.010260036
0.027784647 0.16427715 0.032211076 0.12167204 -0.20031594 -0.16476862 -0.20728771 0.056893818
-0.17641948 -0.19922298 -0.17255645 0.26000878 0.2539944 0.2297395 -0.054814257 -0.28046444
-0.13339327 -0.16361922 0.20072164 -0.09230509 -0.11613886 0.107250005 0.17779496 -0.025447218
0.09439069 -0.08100708 -0.09093522 0.07084788 -0.2851486 -0.16222748 -0.003888779 -0.041316748
-0.08093395 -0.049678255 -0.20242909 -0.0928547 -0.08282187 -0.21702078 -0.13429953 -0.096472174
0.06494086 -0.39261097 0.22345197 0.1530902 -0.125552 0.09619508 0.22183596 -0.3065373
0.068049334 -0.22333485 -0.08239376 0.21653764 0.053876758 -0.024952902 -0.26837382 0.007822013
00000000: 15ef 5c3e 7de7 3abe 6c59 b6bd 1e08 313c
00000010: f415 46be 2a3a 8c3e 123a 91be d0d6 03be
00000020: 40ff 7c3e 1bd4 fe3d 77f3 9fbd 9ff0 7dbe
00000030: 2c65 1ebe 4920 75be be85 323e 0355 733e
00000040: 373b fcbd 0db6 ec3d b94f 843d 5c0f e1bd
00000050: e9c9 043e b043 e13d 3811 86be 57bb a6bd
00000060: ceef 463e 536e 86be 8d1d fabd 519b 0d3d
00000070: 2844 dbbc 8b63 51be 6699 06be fff4 9cbd
00000080: 832a 5bbe bdd9 85be c756 f63d 7e07 9fbc
00000090: 53aa bc3d cc46 ccbc 8fc2 40bd 2a00 36ba
000000a0: ed60 e9bc 5c47 b2bd bed2 00be af22 22bd
000000b0: 8320 80be 3e03 dcbd bf20 ca3d 5295 e8bd
000000c0: c914 8cbe 74c7 5ebe c9e7 153e fa01 333e
000000d0: 8bbb f5bd b4ff 4d3e 7bde 8fbe da86 eabd
000000e0: ea3a d33b c5e7 b3bd 3222 a03d 556d c73d
000000f0: 3034 58be 6606 41be 3c34 283e 0ca9 bf3d
00000100: 128e 853d 636a f4bd e5b6 7d3d 8869 35be
00000110: b075 2fbe 9e33 e43d ef34 483d c83a 173e
00000120: 6c9e bc3d 3cba 9dbd 2eb6 cfbe 8a88 bc3c
00000130: 8624 6d3e 20f2 afbd bb01 76be 1061 17be
00000140: 3a06 933d d9ef 733e 71a5 1ebe e128 833e
00000150: d697 a7bd d95b 4ebe 7a62 713e 44c8 793e
00000160: 33f1 43bd f1db 14be ce04 d2bc ee54 1fbd
00000170: 9361 72be 15c2 0cbe 4990 b13d 8998 6cbe
00000180: a3d3 493e 8d03 6c3e 47c4 ddbc 199a 313e
00000190: aebb 063b 59dc 523e db92 51be b97e 83be
000001a0: cd5d 01bc 307a a2bd af64 c2bc 2712 6f3b
000001b0: 365e 1ebd 722f b43e 3fce b73e 1cae 27bc
000001c0: 794f 67be dfd7 723d d300 6dbe 105b c33c
000001d0: 3402 55bc f50f 423a 86a0 fbbc 65bb 08bd
000001e0: af39 50be 40ec 37be 9ed1 663e c6ae 153d
000001f0: 2978 2f3b d9b0 45be b94d 053e e3c5 af3d
00000200: c224 47be c483 413e 31c9 e8bd f473 47bd
00000210: 70b6 893e b2be cb3d 3897 7e3e e94f 88be
00000220: 5fa6 833d 0ee5 aebd 35ea 673d 9a1b c23d
00000230: 6412 3e3d fa68 153e d766 8b3e 3b23 473e
00000240: c6c1 263e 01c1 5ebe 9162 b43d 0962 0e3e
00000250: fe33 67be 24f9 e0bc 9778 13be ed06 09be
00000260: cc7f 52be b6c7 00be 2a14 5cbe 3123 3d3d
00000270: 2183 5b3e e177 2b3e 631c 1bbc fcfe 343d
00000280: 666e 8abd 65f7 2fbd 3550 11bd cf4a d4bb
00000290: d417 213e 11cf 783c a22f 7ebc 8299 bfbc
000002a0: 7802 2ebd 5d08 a63d b17d 0dbe 9765 8fbe
000002b0: f9a5 363d 8be9 293e ca8e 1ebd 59bb 96bc
000002c0: 22cd 643e eb96 20be 0b85 48bd a2ff 5cbd
000002d0: 49ff d63d cd01 313e e626 803e db54 bfbb
000002e0: d2c8 5b3e 9218 1e3e 407f 5c3e 7c92 663e
000002f0: 4a98 e8bc 68a1 95be 40d7 2ebe 19b7 48be
00000300: 0568 a13e 8d79 f9bd 0fdd a33d aaf6 f0bd
00000310: de6f 87be ae0d 813e 83cb ac3d b619 28bc
00000320: a19c e33c 4538 283e c3ef 033d 312f f93d
00000330: 9f1f 4dbe 1bb9 28be 3b43 54be 7e09 693d
00000340: 4fa7 34be 1c01 4cbe a3b2 30be df1f 853e
00000350: 8e0b 823e d540 6b3e ea84 60bd 0999 8fbe
00000360: 3f98 08be cc8b 27be f989 4d3e 730a bdbd
00000370: 36da edbd e4a5 db3d e20f 363e af76 d0bc
00000380: e84f c13d 0ae7 a5bd 3f3c babd b118 913d
00000390: fffe 91be f61e 26be e3da 7ebb c03b 29bd
000003a0: b3c0 a5bd 6d7b 4bbd 9249 4fbe 9b2a bebd
000003b0: 839e a9bd b23a 5ebe d185 09be 3493 c5bd
000003c0: b7ff 843d 4e04 c9be 98d0 643e adc3 1c3e
000003d0: b490 00be ed01 c53d f728 633e 75f2 9cbe
000003e0: 735d 8b3d e4b1 64be 0fbe a8bd 0bbc 5d3e
000003f0: e0ad 5c3d 076a ccbc 4b68 89be e727 003c

l1.bias f4 [256]
-0.03274064 -0.09608993 0.20283881 0.2517953 -0.27786544 -0.16839746 -0.43803614 0.11157204
0.27079287 0.18978642 -0.09876334 0.35724193 -0.10440187 0.0050180173 0.106936954 0.10529387
0.5277573 -0.12915768 0.06817612 0.28775427 0.14000253 0.020547478 -0.2880314 -0.2816698
-0.26608893 -0.06186587 -0.095959455 -0.6467348 -0.08064463 -0.27387866 0.24928485 -0.19910464
0.17499496 0.21109653 0.2511221 0.24254262 0.1433668 -0.06404001 0.24594124 0.00749667
-0.00553291 -0.2512152 -0.0376874 0.25128108 0.26715532 0.050375815 0.1976505 -0.11895561
0.025294993 -0.07944253 -0.8311339 -0.17175023 -0.5417493 0.09993682 0.30309182 0.0685422
-0.29901007 -0.1981911 0.06651046 0.3682917 0.13956958 0.16430476 0.09758371 0.47686735
-0.014143024 -0.006525072 -0.27320686 -0.08090998 0.19351657 0.2577912 0.05728186 0.052898955
0.0950007 0.22526914 -0.095383115 -0.058936425 -0.039852727 -0.054055147 0.07587442 -0.06396696
-0.15111344 -0.32234958 -0.20694803 0.22058733 -0.3768323 -0.04597885 0.4111735 0.14724906
-0.0055821966 -0.091770366 0.26214674 0.06741232 -0.15214625 0.14443785 0.13437861 -0.4424928
-0.39166674 0.08293927 0.18811865 -0.22245786 0.17158376 0.080490656 0.066632755 -0.21825899
-0.4497435 -0.21943648 0.13406238 0.04598717 0.111143366 0.023808053 0.42656827 -0.2725625
0.20145431 0.1649738 0.1610473 0.0647719 0.11293131 0.22305633 0.26065224 -0.123908296
0.07636519 0.25276586 -0.053821757 0.13317057 0.21580903 -0.059928987 0.25725314 -0.12849806
-0.50294876 -0.0754896 0.027547354 -0.2589873 -0.6701444 0.037851665 0.18709452 0.14960359
0.032414243 0.25350052 -0.19961523 0.2053938 -0.014092111 -0.17457344 -0.17241989 -0.1441037
0.11436946 0.30322012 -0.21458319 -0.22208907 -0.11184359 -0.5845488 -0.14021091 -0.06240647
-0.24800524 -0.15546772 0.04455988 0.34104204 0.086831965 -0.0682916 -0.07875657 -0.1510035
0.2204467 0.008455765 -0.04052369 0.19798364 -0.2876007 -0.2443896 0.22907943 0.16903137
0.13687702 -0.02099254 -0.05377802 -0.22454627 -0.043099485 0.25758505 -0.25527707 -0.18324006
0.24885628 0.12273455 0.048752416 0.42637178 0.25393835 -0.26397902 0.09295137 0.14686711
0.0712725 -0.19614898 0.050730947 0.053923998 -0.04954587 -0.47626188 -0.23471124 -0.23652452
-0.18643509 -0.30904624 -0.24585885 -0.036648106 -0.06872651 -0.35043272 -0.0903382 -0.029060265
-0.1477828 -0.001889502 0.07943944 -0.081307866 -0.27264848 0.5349783 -0.16407202 -0.21797626
0.09633655 -0.37499863 -0.193725 0.11876582 0.14053208 0.008043087 -0.25135595 0.29718122
-0.62152874 -0.06565875 0.0603203 -0.12654588 0.10864042 -0.059493978 0.24673174 0.10547976
-0.1471452 0.33367673 -0.2784343 0.29079014 -0.09360349 0.41351452 -0.019911643 0.33923605
-0.07073294 0.015317987 0.06393853 -0.27919105 -0.19094568 0.35648522 0.18306537 -0.42873892
0.2515352 -0.14605094 -0.14216715 0.13291787 -0.25401434 -0.08013045 -0.1588814 -0.21859336
-0.17616183 0.04396824 -0.22053677 -0.30782276 -0.037882388 -0.2767582 -0.20794752 0.06950709
00000000: 0d1b 06bd ccca c4bd fab4 4f3e 50eb 803e
00000010: 6144 8ebe 6270 2cbe 4646 e0be e27f e43d
00000020: 5da5 8a3e 5f57 423e 6f44 cabd 6ae8 b63e
00000030: a6d0 d5bd 2e6e a43b c301 db3d 50a4 d73d
00000040: 1a1b 073f e941 04be ec9f 8b3d 8754 933e
00000050: d35c 0f3e 2f53 a83c da78 93be 0637 90be
00000060: cf3c 88be 1167 7dbd 6486 c4bd 6990 25bf
00000070: 0329 a5bd d339 8cbe 8744 7f3e 16e2 4bbe
00000080: e131 333e b029 583e 1393 803e 185d 783e
00000090: bfce 123e 6927 83bd 05d8 7b3e a0a6 f53b
000000a0: 6a4d b5bb 479f 80be 1a5e 1abd eaa7 803e
000000b0: 95c8 883e df56 4e3d e564 4a3e 009f f3bd
000000c0: 7237 cf3c c4b2 a2bd 31c5 54bf 4bdf 2fbe
000000d0: 15b0 0abf adab cc3d da2e 9b3e da5f 8c3d
000000e0: d917 99be 9cf2 4abe a336 883d bb90 bc3e
000000f0: 54eb 0e3e 823f 283e f8d9 c73d f527 f43e
00000100: 24b8 67bc 45d0 d5bb c5e1 8bbe 22b4 a5bd
00000110: 3529 463e 35fd 833e 62a0 6a3d 93ac 583d
00000120: ba8f c23d f4ac 663e 3958 c3bd 5267 71bd
00000130: 9d3c 23bd ee68 5dbd 0c64 9b3d 1c01 83bd
00000140: 7bbd 1abe 010b a5be 2fea 53be a5e1 613e
00000150: 2af0 c0be 5254 3cbd 5585 d23e 75c8 163e
00000160: dcea b6bb 1af2 bbbd 1938 863e 780f 8a3d
00000170: 3acc 1bbe 84e7 133e 8c9a 093e 6b8e e2be
00000180: 8b88 c8be 10dc a93d 2da2 403e fecb 63be
00000190: a7b3 2f3e 49d8 a43d c176 883d 497f 5fbe
000001a0: c844 e6be f5b3 60be a647 093e 0b5d 3c3d
000001b0: 229f e33d 1b09 c33c 2867 da3e 508d 8bbe
000001c0: 0a4a 4e3e e4ee 283e 95e9 243e 21a7 843d
000001d0: 8848 e73d e168 643e 3674 853e a2c3 fdbd
000001e0: 5a65 9c3d 876a 813e 3474 5cbd de5d 083e
000001f0: 0bfd 5c3e 1978 75bd afb6 833e ff94 03be
00000200: 40c1 00bf 4b9a 9abd fdaa e13c fc99 84be
00000210: 958e 2bbf 590a 1b3d b595 3f3e af31 193e
00000220: ccc4 043d d2ca 813e ef67 4cbe c152 523e
00000230: 99e2 66bc 61c3 32be d78e 30be ec8f 13be
00000240: 893a ea3d ab3f 9b3e b2bb 5bbe 516b 63be
00000250: 410e e5bd fda4 15bf 7393 0fbe ed9d 7fbd
00000260: 16f5 7dbe ee32 1fbe 6c84 363d 109d ae3e
00000270: f5d4 b13d 77dc 8bbd 204b a1bd a9a0 1abe
00000280: c8bc 613e 0d8a 0a3c 2bfc 25bd 39bc 4a3e
00000290: 6640 93be 4441 7abe cc93 6a3e 8f16 2d3e
000002a0: 7d29 0c3e 8cf8 abbc 5746 5cbd 75ef 65be
000002b0: 1689 30bd 30e2 833e adb3 82be 48a3 3bbe
000002c0: 2ed4 7e3e 405c fb3d 9db0 473d 674d da3e
000002d0: 3504 823e 4228 87be 4a5d be3d 5564 163e
000002e0: 51f7 913d 47db 48be 41cb 4f3d 69df 5c3d
000002f0: 9cf0 4abd 99d8 f3be 2558 70be 7c33 72be
00000300: d7e8 3ebe 4f3b 9ebe 6cc2 7bbe 531c 16bd
00000310: 7cc0 8cbd eb6b b3be 3c03 b9bd cb0f eebc
00000320: 6054 17be 2ba9 f7ba 25b1 a23d bd84 a6bd
00000330: 9598 8bbe 56f4 083f 7f02 28be 2b35 5fbe
00000340: 194c c53d d2ff bfbe d95f 46be 7f3b f33d
00000350: a4e7 0f3e 27c7 033c bab1 80be 2328 983e
00000360: 821c 1fbf 1878 86bd 6b12 773d 3e95 01be
00000370: de7e de3d f5af 73bd 3fa7 7c3e c605 d83d
00000380: 3bad 16be add7 aa3e f18e 8ebe 72e2 943e
00000390: 30b3 bfbd 2db8 d33e be1d a3bc 59b0 ad3e
000003a0: 6fdc 90bd 4bf8 7a3c 34f2 823d 21f2 8ebe
000003b0: 4487 43be 3b85 b63e 7d75 3b3e ab83 dbbe
000003c0: 39c9 803e 618e 15be 4494 11be 9f1b 083e
000003d0: 2b0e 82be 6f1b a4bd ceb1 22be f0d6 5fbe
000003e0: c463 34be 0b18 343d 64d4 61be f29a 9dbe
000003f0: 902a 1bbd 40b3 8dbe 32f0 54be bc59 8e3d

l2.weight f4 [256, 256]
0.027446203 -0.06406771 -0.041220695 -0.0162014 0.03352204 -0.057732284 -0.019511342 -0.045330606
-0.014335103 0.029038116 0.03244336 -0.042126343 -0.06037996 -0.006130817 0.017065018 -0.06945024
0.030072756 -0.022787906 -0.002405875 -0.048538297 -0.063630596 -0.042654134 0.042515926 -0.021906627
-0.0052362233 -0.007934268 0.027707517 -0.10309516 0.025398456 -0.00313109 0.03499864 0.046279907
-0.009610631 0.041088127 0.0004199543 0.051389404 -0.01859699 -0.044349786 0.017628826 -0.1740489
-0.053698406 -0.034117542 -0.078950986 -0.13897946 -0.022478752 -0.025082894 0.027793467 -0.009697869
-0.04197526 -0.032063093 0.035393555 -0.039733216 -0.09985828 -0.016180033 0.0300426 -0.068938516
-0.024074106 0.023775466 0.010889642 0.012111277 0.040043496 -0.09927862 -0.036106654 -0.079872794
-0.061568126 -0.027652308 -0.027342603 0.0015915579 -0.019102056 0.05902034 -0.06633919 -0.034634296
-0.0938565 -0.003760539 -0.056054093 0.044959284 -0.011296121 0.024567574 -0.018632665 -0.031446703
-0.0037127063 -0.038182445 -0.039138924 0.31380302 -0.07732855 0.045131676 -0.04855925 0.035465024
-0.041257635 0.07067067 -0.0010692985 -0.060710415 0.00096181425 -0.037465334 -0.0024095448 0.03374517
-0.085853264 0.07097936 -0.06052 -0.043773033 -0.0054660607 0.011997312 0.22379258 0.029059611
-0.016115505 -0.022506427 -0.043461084 -0.21230267 -0.024968587 0.057608783 -0.07715231 0.047944278
-0.043337442 0.033038855 0.009613588 -0.029531926 0.019242734 0.038768776 0.02277175 0.038949527
-0.027235683 -0.018019516 -0.06261155 0.031987987 0.035306647 0.024193138 0.007622137 -0.030616507
0.01278128 -0.023328265 0.04013952 -0.016630292 -0.106341265 0.020680508 0.047703143 -0.11519147
0.03211546 -0.011889747 -0.054675624 0.0002574737 0.0141694285 -0.07845904 -0.03260345 -0.13502312
0.05936087 0.24173018 0.057772174 -0.023371875 -0.27297917 0.044783186 0.019293167 0.0015832633
-0.03055989 -0.20988853 0.037271764 -0.07814407 -0.03931497 0.054540932 0.023480808 0.019131217
-0.0014465317 0.057220057 0.016328894 0.7252884 -0.048324976 -0.038479406 -0.069629446 0.037972793
0.023666494 0.040408216 -0.038547814 0.02355776 -0.15863973 0.15662713 -0.009462833 -0.059182778
0.030149689 0.010907188 0.014800109 -0.07198311 0.05824607 -0.03984521 0.025187127 0.046953686
0.047894783 -0.004745902 0.0085474355 -0.042911336 -0.04973854 -0.12692621 -0.041294962 0.009668581
0.014984787 -0.08588233 0.0034790635 -0.049746517 -0.01088597 0.031095656 -0.04383257 0.049849153
-0.030621074 -0.18291876 -0.021752395 -0.015648482 -0.059777617 -0.033665735 0.014943691 0.009570934
0.007104829 -0.059680857 -0.021060959 -0.0870654 0.10103485 0.017992519 -0.0059747025 -0.029683862
-0.09880636 -0.04312686 0.040623896 0.013305078 0.017881341 0.0069511235 0.021130735 -0.07920807
-0.28066358 -0.018778352 -0.014935867 -0.06524569 0.008775607 -0.07477782 -0.057429936 -0.07337889
-0.057867296 0.071882464 -0.04706078 0.013348357 -0.04646567 -0.008591348 -0.06657387 -0.03915706
0.070269085 -0.0092062205 0.05307368 0.061663598 0.022583786 0.09496045 -0.065256245 0.038070902
-0.051064707 -0.061347958 -0.30023158 -0.13824596 0.041860834 0.011337924 0.015162647 0.036148876
00000000: dcd6 e03c ee35 83bd 08d7 28bd ccb8 84bc
00000010: 684e 093d b078 6cbd 40d6 9fbc 96ac 39bd
00000020: c8dd 6abc 58e1 ed3c 54e3 043d ac8c 2cbd
00000030: fa50 77bd 05e5 c8bb f0cb 8b3c ed3b 8ebd
00000040: 245b f63c b4ad babc e2ab 1dbb 18d0 46bd
00000050: c250 82bd 1ab6 2ebd 2e25 2e3d 8775 b3bc
00000060: a094 abbb bbfe 01bc e0fa e23c 8e23 d3bd
00000070: 6c10 d03c f932 4dbb bc5a 0f3d 0090 3d3d
00000080: e875 1dbc 064c 283d 502d dc39 b27d 523d
00000090: b758 98bc 1fa8 35bd 546a 903c e039 32be
000000a0: dcf2 5bbd d6be 0bbd 0eb1 a1bd a250 0ebe
000000b0: 5c25 b8bc a47a cdbc 20af e33c d0e3 1ebc
000000c0: 40ee 2bbd 9754 03bd d5f8 103d 4cbf 22bd
000000d0: 7f82 ccbd fd8b 84bc e61b f63c a32f 8dbd
000000e0: 0f37 c5bc c4c4 c23c 786a 323c 616e 463c
000000f0: a604 243d 9752 cbbd 92e4 13bd 5994 a3bd
00000100: dc2e 7cbd 1887 e2bc 98fd dfbc d29b d03a
00000110: ea7b 9cbc 50bf 713d d7dc 87bd b1dc 0dbd
00000120: d637 c0bd 6073 76bb fa98 65bd 3a27 383d
00000130: 5e13 39bc f041 c93c 88a3 98bc 42ce 00bd
00000140: e050 73bb 3265 1cbd 2350 20bd caaa a03e
00000150: 6e5e 9ebd fedb 383d 10e6 46bd c643 113d
00000160: c4fd 28bd c9bb 903d b427 8cba 7cab 78bd
00000170: 4322 7c3a 4075 19bd 74e9 1dbb 6038 0a3d
00000180: d6d3 afbd a05d 913d d2e3 77bd 5a4b 33bd
00000190: a41c b3bb 6090 443c e229 653e 6c0e ee3c
000001a0: aa04 84bc 665f b8bc 4004 32bd df65 59be
000001b0: ec8a ccbc 30f7 6b3d 0802 9ebd 3861 443d
000001c0: 9a82 31bd c053 073d 5082 1d3c f0ec f1bc
000001d0: f0a2 9d3c 02cc 1e3d d28b ba3c 8a89 1f3d
000001e0: 5e1d dfbc aa9d 93bc 7c3a 80bd d605 033d
000001f0: b49d 103d b030 c63c 1fc3 f93b 78cf fabc
00000200: 9368 513c eb1a bfbc 5669 243d 403c 88bc
00000210: 73c9 d9bd 2b6a a93c 5f64 433d 81e9 ebbd
00000220: 808b 033d 37cd 42bc 8cf3 5fbd 89fd 8639
00000230: e426 683c 22af a0bd 328b 05bd 8043 0abe
00000240: 6224 733d 1e88 773e 84a2 6c3d 6076 bfbc
00000250: edc3 8bbe 936e 373d b40c 9e3c 8085 cf3a
00000260: bc58 fabc 05ed 56be 47aa 183d 000a a0bd
00000270: bc08 21bd 5066 5f3d d35a c03c 12b9 9c3c
00000280: 8d99 bdba 945f 6a3d 2cc4 853c 80ac 393f
00000290: 69f0 45bd 959c 1dbd e299 8ebd 5c89 1b3d
000002a0: 3ce0 c13c 1683 253d 50e4 1dbd 34fc c03c
000002b0: 7472 22be dd62 203e 000a 1bbc a469 72bd
000002c0: 7bfc f63c 10b4 323c 287c 723c e16b 93bd
000002d0: 6e93 6e3d bb34 23bd 3c55 ce3c 8252 403d
000002e0: 522d 443d 8383 9bbb 8b0a 0c3c ccc3 2fbd
000002f0: a4ba 4bbd f2f8 01be e824 29bd f868 1e3c
00000300: c182 753c 13e3 afbd 0001 643b 01c3 4bbd
00000310: 115b 32bc 51bc fe3c c889 33bd a02e 4c3d
00000320: 0cd9 fabc 0e4f 3bbe 1432 b2bc 3f31 80bc
00000330: 60d9 74bd 15e5 09bd 62d6 743c 68cf 1c3c
00000340: a0cf e83b ea73 74bd 0888 acbc 584f b2bd
00000350: 5ceb ce3d 0c65 933c 70c7 c3bb 922b f3bc
00000360: fd5a cabd caa5 30bd 3e65 263d 8bfd 593c
00000370: e47b 923c 40c6 e33b 5d1a ad3c d737 a2bd
00000380: 23b3 8fbe 0fd5 99bc 91b5 74bc 889f 85bd
00000390: 90c7 0f3c 1d25 99bd a73b 6bbd ac47 96bd
000003a0: 4206 6dbd 1d37 933d cec2 40bd 11b3 5a3c
000003b0: c952 3ebd bac2 0cbc e257 88bd 2763 20bd
000003c0: 3de9 8f3d b0d5 16bc c963 593d f892 7c3d
000003d0: a201 b93c a07a c23d 11a5 85bd 3cf0 1b3d
000003e0: 3a29 51bd ff47 7bbd f4b7 99be 5990 0dbe
000003f0: 4476 2b3d b3c2 393c c06c 783c d810 143d

l2.bias f4 [256]
0.007023268 -0.06090614 -0.058262073 -0.059736986 -0.0797545 0.0005033538 -0.06135147 0.010158393
-0.000102046615 0.0495064 -0.0894443 -0.058229182 -0.05500142 0.022694254 -0.030442638 -0.012829501
-0.067635514 0.053578384 0.061660185 -0.021317217 0.23452637 0.038158454 0.059293915 -0.0006818659
-0.059834078 -0.065997295 0.257807 0.002471466 -0.0082100555 0.005251844 -0.0022812278 0.032722555
0.00041500453 0.2880628 0.016062954 -0.06706241 -0.041446995 0.049732678 0.05302332 -0.064756535
-0.06600039 0.020106405 0.042863995 0.03132226 -0.014710317 0.035650976 0.0069370945 0.012626019
0.08511222 0.0025822967 -0.015712453 -0.012014424 0.024335742 -0.062234472 0.3596874 -0.022570096
0.036584176 0.35920516 0.05226762 0.018132364 -0.006484652 0.013893833 -0.023437774 -0.06723822
0.02305651 -0.06515028 -0.038247023 0.03857057 0.0020308942 0.38296488 -0.0091851875 0.22272201
0.023665322 -0.06809159 -0.045645695 -0.047627453 -0.007331981 -0.057563018 -0.030063335 0.03720003
-0.015698077 -0.059792597 -0.054887217 -0.00879891 -0.05086564 -0.04981864 -0.077834204 -0.04433139
0.030380294 0.064494066 -0.025315173 -0.06595441 -0.062103786 0.057803757 0.120315686 -0.062301587
-0.030289527 0.0016039833 -0.01838031 -0.029520303 0.03136246 0.009471201 0.31309545 -0.03824001
0.047144532 -0.0310964 0.014311227 -0.07049535 -0.054366443 -0.35596925 -0.051587425 0.08922552
0.00389021 -0.18352883 0.27471763 -0.012777001 0.04333551 0.029926628 -0.01601339 0.06324502
-0.0025699958 -0.07038422 0.0049210167 0.030366313 -0.0069278018 -0.08349034 0.32204023 0.016852837
-0.04831298 -0.0071251877 -0.044730198 0.04080679 -0.0314397 0.021453101 0.042272262 0.040543046
-0.0277925 0.0049868976 0.007505454 -0.0023284045 -0.040761694 -0.020944199 0.012542535 0.043791562
-0.031779736 0.01903131 -0.026859764 0.046531305 -0.12570558 0.00024971223 -0.018975848 -0.007671572
-0.02875647 0.038184084 0.39048064 0.21466178 0.034661155 -0.07238541 -0.014371892 -0.08437108
-0.040198468 0.026386391 0.025495809 0.009313522 -0.077662215 -0.022649694 0.057497717 0.023686491
0.03496294 -0.015917197 0.3821221 0.04554508 -0.039285213 -0.03107483 0.0047856607 -0.058925185
0.031090494 -0.04034677 -0.05536025 -0.029144745 -0.039718706 0.051287852 0.025371326 0.007773539
-0.023952983 -0.052603442 -0.054159228 -0.009511816 0.0143423835 0.029559385 -0.03221611 -0.053893596
0.062026195 0.08219242 -0.012962964 -0.009427932 0.05133771 -0.05305539 0.012771672 -0.04750233
0.02965403 -0.120726995 -0.008003825 0.21173765 0.025609361 0.040298034 -0.010212166 -0.04696724
0.101130165 -0.050347842 -0.048025828 0.002986692 0.043867927 -0.027609348 -0.04624106 -0.0023022827
-0.015957125 -0.034120154 0.026467452 0.05513975 0.46243408 -0.020744005 -0.005672154 -0.05101878
-0.011769437 0.009535153 -0.027033016 -0.0012987792 0.053765785 0.028440269 0.0056346185 -0.0042023924
0.029756596 0.057371806 -0.07504491 -0.018888835 -0.25383148 -0.015774464 0.025369175 0.021835238
-0.05157343 0.120026186 -0.032664474 0.03857763 -0.027256329 -0.06328458 -0.04423622 0.0357764
-0.005659703 -0.042016465 0.016372025 0.025377998 -0.03381309 -0.041733086 -0.042440925 0.4466524
00000000: 7123 e63b b778 79bd 36a4 6ebd c5ae 74bd
00000010: 5456 a3bd 80f3 033a ae4b 7bbd 636f 263c
00000020: dc01 d6b8 39c7 4a3d 932e b7bd b981 6ebd
00000030: 2b49 61bd 4de9 b93c d762 f9bc d432 52bc
00000040: 7d84 8abd 0275 5b3d 648f 7c3d 72a1 aebc
00000050: ae27 703e 0a4c 1c3d 2dde 723d 3fbf 32ba
00000060: 9414 75bd 9729 87bd 47ff 833e 52f8 213b
00000070: 7883 06bc a917 ac3b a780 15bb 1608 063d
00000080: f794 d939 f87c 933e 7596 833c 0458 89bd
00000090: 53c4 29bd 7eb4 4b3d fb2e 593d 139f 84bd
000000a0: 362b 87bd 30b6 a43c 2892 2f3d c54b 003d
000000b0: 8b03 71bc c206 123d 9150 e33b 5ddd 4e3c
000000c0: 514f ae3d c03b 293b 67b7 80bc 26d8 44bc
000000d0: c05b c73c 93e9 7ebd f228 b83e ece4 b8bc
000000e0: 4ad9 153d bde9 b73e 9216 563d 538a 943c
000000f0: 347d d4bb f6a2 633c 9300 c0bc 31b4 89bd
00000100: 02e1 bc3c 836d 85bd e9a8 1cbd 2dfc 1d3d
00000110: c018 053b f913 c43e 787d 16bc 3d11 643e
00000120: c7dd c13c 9b73 8bbd fbf6 3abd 0115 43bd
00000130: 1d41 f0bb 33c7 6bbd 6247 f6bc 0f5f 183d
00000140: 4199 80bc 15e9 74bd 6bd1 60bd 4e29 10bc
00000150: 7d58 50bd a10e 4cbd 8a67 9fbd d594 35bd
00000160: 18e0 f83c 7715 843d c461 cfbc 1b13 87bd
00000170: 8a60 7ebd a2c3 6c3d 1268 f63d f32f 7fbd
00000180: be21 f8bc c03c d23a 4e92 96bc 90d4 f1bc
00000190: ec75 003d 192d 1b3c 0c4e a03e 8fa1 1cbd
000001a0: a01a 413d e1bd febc a379 6a3c de5f 90bd
000001b0: 59af 5ebd 9a41 b6be 564d 53bd dfbb b63d
000001c0: e5f2 7e3b fbee 3bbe caa7 8c3e a056 51bc
000001d0: 9380 313d b028 f53c 832e 83bc 9b86 813d
000001e0: 606d 28bb 9a25 90bd 7b40 a13b c6c2 f83c
000001f0: 9d02 e3bb fcfc aabd 75e2 a43e f60e 8a3c
00000200: d5e3 45bd 687a e9bb 0337 37bd 0525 273d
00000210: eac6 00bd 6abe af3c ae25 2d3d 7710 263d
00000220: 19ad e3bc 2169 a33b 50f0 f53b 2598 18bb
00000230: bcf5 26bd 2b93 abbc 347f 4d3c c85e 333d
00000240: 782b 02bd 8de7 9b3c 0209 dcbc 9c97 3e3d
00000250: f7b8 00be cfeb 8239 3d73 9bbc cf61 fbbb
00000260: b092 ebbc ea66 1c3d 14ed c73e 4cd0 5b3e
00000270: dbf8 0d3d cd3e 94bd 1678 6bbc bfca acbd
00000280: 26a7 24bd 4628 d83c 96dc d03c be97 183c
00000290: 5e0d 9fbd da8b b9bc ba82 6b3d 2c0a c23c
000002a0: 4d35 0f3d c864 82bc 82a5 c33e 7a8d 3a3d
000002b0: 88e9 20bd a490 febc 08d1 9c3b 895b 71bd
000002c0: 7eb1 fe3c a842 25bd 6ec1 62bd f6c0 eebc
000002d0: 15b0 22bd 3613 523d 87d7 cf3c 2cb9 fe3b
000002e0: 0c39 c4bc b576 57bd 11d6 5dbd 73d7 1bbc
000002f0: 51fc 6a3c 8626 f23c 0af5 03bd 88bf 5cbd
00000300: 2e0f 7e3d 8054 a83d 9d62 54bc 9d77 1abc
00000310: 7e47 523d 9c50 59bd 4640 513c ce91 42bd
00000320: 02ed f23c b73f f7bd 7a22 03bc c1d1 583e
00000330: b9ca d13c 8d0f 253d ee50 27bc b860 40bd
00000340: 551d cf3d 8a39 4ebd bbb6 44bd 60bc 433b
00000350: dbae 333d 002d e2bc 4467 3dbd e5e1 16bb
00000360: 84b8 82bc 93c1 0bbd 45d2 d83c 38da 613d
00000370: 29c4 ec3e 55ef a9bc 7add b9bb 11f9 50bd
00000380: 99d4 40bc 5539 1c3c 5874 ddbc cc3b aaba
00000390: 8339 5c3d 91fb e83c 9ba2 b83b 39b4 89bb
000003a0: 1bc4 f33c b3fe 6a3d 25b1 99bd c2bc 9abc
000003b0: 33f6 81be 7339 81bc 04d3 cf3c d0df b23c
000003c0: a93e 53bd 4ad0 f53d 2fcb 05bd 9403 1e3d
000003d0: aa48 dfbc 599b 81bd 0a31 35bd 468a 123d
000003e0: 0875 b9bb 7519 2cbd a01e 863c 85e5 cf3c
000003f0: 987f 0abd 50f0 2abd 89d6 2dbd a0af e43e

l3.weight f4 [256, 256]
-0.061843224 0.031380825 -0.043960452 -0.037094522 0.00532557 0.023224533 0.021455333 -0.016520847
0.040094487 -0.061708406 -0.025474885 -0.058732994 0.032059096 0.0053560818 -0.04434 0.017759025
-0.009757861 0.045220934 0.053465836 0.032882296 -0.035737153 0.038485378 0.04964132 0.0028485432
0.04928512 0.051142715 -0.017631771 -0.055254236 0.023740381 0.062206596 0.009604797 -0.025798064
-0.049087048 -0.028768132 -0.021339983 0.05144114 -0.0467752 -0.04668589 0.014684862 -0.03915882
0.056805708 -0.031302772 0.015617629 0.052056685 0.007615756 0.0073780194 -0.028198078 0.04638893
-0.037734 0.0072457343 0.055775497 0.0019055009 -0.03435977 -0.051870234 -0.019301485 -0.04190751
0.0161056 0.016765978 -0.003171049 0.00667876 -0.05709999 -0.058411516 0.04271868 -0.020609047
0.02372057 0.059619695 0.006809391 0.00022106618 0.046761386 -0.049244136 0.00596467 0.004894255
0.048707783 0.056328453 -0.01339522 -0.037974402 -0.0062327106 -0.0057615787 0.01333765 0.05782275
-0.026465861 -0.020934299 -0.02428776 -0.023223128 0.060078323 0.04857889 0.046851046 0.042688914
-0.042780645 0.024572128 0.021018833 0.036302432 0.054624833 -0.034410745 -0.045345075 -0.038269326
-0.031322382 -0.016072176 0.057939086 0.015947536 -0.01915311 0.02350317 -0.05684355 0.045921773
0.05220688 -0.013309694 0.02365658 0.02122873 -0.0002971515 0.0061344737 -0.0073585385 0.036045067
-0.020453341 -0.060698602 -0.052237596 -0.024455039 -0.004118316 0.0121368095 0.029566363 -0.057323303
0.008446805 0.00833184 -0.023324858 -0.009178844 -0.0024770445 0.054372728 -0.051900566 -0.042778797
-0.016836435 -0.03894093 -0.012611076 -0.02453114 0.027039986 -0.02112003 0.046334088 0.048744157
0.017508138 -0.033211276 -0.025484093 0.021438926 0.060789175 -0.06086927 0.052881822 0.019728057
0.046728447 0.029526405 -0.05152463 0.0011799634 0.00076133176 0.015322179 -0.05805499 -0.038906038
0.0035392072 0.05316869 -0.0721944 -0.052415866 -0.03776388 0.0079815155 0.031341996 -0.0036160275
0.016264983 -0.06740183 0.01570186 -0.027556084 -0.03653839 -0.033467587 -0.04512181 -0.05110006
0.04658916 -0.057891257 -0.020759335 -0.034104303 -0.023498911 -0.034805443 0.052047502 -0.040472142
0.056243964 0.034320634 -0.04035449 0.05760712 -0.024130851 -0.0048327306 -0.02337844 -0.031648465
-0.051744513 0.037680157 -0.02971065 0.031040303 -0.03381128 0.019589372 -0.038107764 -0.028335892
-0.04422824 -0.00694297 -0.058662534 0.00040124048 -0.03193835 -0.016413353 -0.020244256 -0.05096326
-0.060090564 -0.022213098 -0.052433185 0.004741789 0.028906737 -0.03591685 -0.05539182 -0.039333016
-0.05786813 0.050212957 -0.047777332 0.060960993 -0.017606523 0.01236441 -0.035285898 -0.044446312
-0.060095783 0.041616596 -0.0036191344 0.028150238 -0.061147224 0.058141768 0.034763403 -0.046991803
-0.048060082 -0.047239874 -0.0066378745 -0.05236114 0.048906162 -0.015896643 -0.003611881 -0.042045765
0.05819541 -0.035565555 0.021128736 -0.052072555 -0.06269821 -0.028344536 0.007342264 -0.034501255
-0.03221545 0.0025166757 -0.016312048 -0.027767867 0.035112873 0.04415448 0.011363834 -0.06165006
-0.045779 -0.04049602 -0.0629427 -0.040028512 0.03971947 -0.027984276 -0.05052004 -0.0009001632
00000000: 524f 7dbd 2e89 003d e00f 34bd 6df0 17bd
00000010: 1e82 ae3b 6041 be3c 18c3 af3c ba56 87bc
00000020: 1e3a 243d f4c1 7cbd b5b0 d0bc 0292 70bd
00000030: 6650 033d 1282 af3b dc9d 35bd 607b 913c
00000040: 6fdf 1fbc 9639 393d fefe 5a3d 96af 063d
00000050: 1f61 12bd d8a2 1d3d b254 4b3d a0ae 3a3b
00000060: 32df 493d 067b 513d 8170 90bc 4452 62bd
00000070: 307b c23c 58cc 7e3d 705d 1d3c 7656 d3bc
00000080: 800f 49bd 25ab ebbc 30d1 aebc f2b3 523d
00000090: 5a97 3fbd b439 3fbd c798 703c 0065 20bd
000000a0: 1aad 683d 5637 00bd 15e1 7f3c 6439 553d
000000b0: 978d f93b 50c3 f13b a8ff e6bc 5202 3e3d
000000c0: f78e 1abd a06d ed3b d974 643d 00c2 f93a
000000d0: d5bc 0cbd e275 54bd 261e 9ebc 36a7 2bbd
000000e0: e4ef 833c ce58 893c 60d1 4fbb 80d9 da3b
000000f0: aee1 69bd ea40 6fbd c8f9 2e3d 4ed4 a8bc
00000100: a451 c23c c833 743d 5021 df3b 00ce 6739
00000110: de88 3f3d 38b4 49bd 4773 c33b fd5f a03b
00000120: d081 473d aab8 663d a077 5bbc 0c8b 1bbd
00000130: c43b ccbb a0cb bcbb 2986 5a3c 8cd7 6c3d
00000140: efce d8bc 687e abbc 20f7 c6bc 6e3e bebc
00000150: b014 763d a8fa 463d e2e6 3f3d 92da 2e3d
00000160: c23a 2fbd 7d4b c93c b02f ac3c dcb1 143d
00000170: 4abe 5f3d 48f2 0cbd c2bb 39bd 4cc0 1cbd
00000180: e64b 00bd cca9 83bc 8951 6d3d 68a4 823c
00000190: fce6 9cbc b889 c03c c8d4 68bd 7818 3c3d
000001a0: e2d6 553d e710 5abc 72cb c13c e0e7 ad3c
000001b0: 00cb 9bb9 b203 c93b e51f f1bb fea3 133d
000001c0: c48d a7bc 199f 78bd 17f7 55bd ef55 c8bc
000001d0: f0f2 86bb 78d9 463c 2835 f23c d7cb 6abd
000001e0: 7864 0a3c 4582 083c c613 bfbc dd62 16bc
000001f0: e955 22bb f0b5 5e3d b095 54bd d238 2fbd
00000200: 90ec 89bc 8680 1fbd b09e 4ebc 88f5 c8bc
00000210: f682 dd3c ea03 adbc d0c8 3d3d f4a7 473d
00000220: 3a6d 8f3c 8c08 08bd 04c4 d0bc b0a0 af3c
00000230: 12fe 783d 0e52 79bd 9c9a 583d bc9c a13c
00000240: 5466 3f3d 5ce1 f13c 7e0b 53bd 00a9 9a3a
00000250: 1c94 473a e009 7b3c 12cb 6dbd f05b 1fbd
00000260: 0bf2 673b 6ac7 593d a8da 93bd 05b2 56bd
00000270: 4cae 1abd e7c4 023c 7760 003d e0fa 6cbb
00000280: 243e 853c f809 8abd 30a1 803c 4cbd e1bc
00000290: 47a9 15bd 4f15 09bd a6d1 38bd 4c4e 51bd
000002a0: 46d4 3e3d 621f 6dbd 7b0f aabc f4b0 0bbd
000002b0: ca80 c0bc 2790 0ebd c32f 553d 1ec6 25bd
000002c0: 1260 663d cb93 0c3d c04a 25bd 72f5 6b3d
000002d0: 10ae c5bc e25b 9ebb 2484 bfbc d2a1 01bd
000002e0: 0ef2 53bd 8256 1a3d c063 f3bc 3c48 fe3c
000002f0: b27d 0abd e479 a03c e316 1cbd ac20 e8bc
00000300: ac28 35bd db81 e3bb 2048 70bd 965d d239
00000310: cad1 02bd 4c75 86bc 48d7 a5bc dabe 50bd
00000320: 8621 76bd 3ef8 b5bc 2ec4 56bd 0261 9b3b
00000330: d2cd ec3c 8c1d 13bd 88e2 62bd a81b 21bd
00000340: 2207 6dbd 1aac 4d3d 2ab2 43bd 3cb2 793d
00000350: 8e3b 90bc 1894 4a3c f287 10bd 560d 36bd
00000360: ff26 76bd 2a76 2a3d 002f 6dbb 549b e63c
00000370: 8375 7abd 1026 6e3d 1264 0e3d 7a7a 40bd
00000380: a6da 44bd 997e 41bd 8782 d9bb a278 56bd
00000390: d451 483d ad39 82bc 4fb5 6cbb 2e38 2cbd
000003a0: 4f5e 6e3d 30ad 11bd 2c16 ad3c 084a 55bd
000003b0: eb67 80bd cd32 e8bc 6097 f03b 3051 0dbd
000003c0: 59f4 03bd d0ee 243b d8a0 85bc 7079 e3bc
000003d0: 84d2 0f3d 54db 343d 602f 3a3c c684 7cbd
000003e0: c382 3bbd 28df 25bd 1ae8 80bd f0f4 23bd
000003f0: e2b0 223d 483f e5bc 1aee 4ebd eef8 6bba

l3.bias f4 [256]
-0.048481323 0.03689368 -0.0367246 -0.0234979 -0.006505166 -0.06418869 -0.05447948 0.02330957
0.4267423 0.053173922 -0.039367378 0.028519388 0.4569687 -0.0054454873 -0.020412391 -0.054530837
0.37630728 0.31751293 -0.008052656 -0.024533765 -0.0090775285 -0.027377376 -0.02804799 0.009712942
-0.0152528295 -0.029850844 -0.07485608 0.055296943 -0.03817243 0.029696621 0.022531448 0.3373382
0.0048671323 0.006232207 -0.063499235 -0.008322768 -0.03237498 0.016688932 -0.04145331 0.46042824
0.45412502 -0.017207222 0.031902544 0.02802509 -0.08596968 0.0015349112 0.04776554 -0.044043377
0.021191595 0.38186947 -0.065876864 0.023118438 0.00015806888 0.026742658 0.38223222 -0.06671533
0.3809655 -0.016587002 0.3956536 0.0049400614 0.050214976 0.0052528754 0.2003125 0.4468269
-0.05488328 0.008144598 -0.14212726 -0.0016913384 0.41830078 0.3938326 0.027062846 0.013185598
0.3966034 0.00856655 0.34127745 -0.033006545 -0.03324976 0.030522274 0.02093766 0.02326197
0.45746058 -0.08059116 -0.053895004 0.025473252 -0.005458476 0.12452844 0.0171775 0.04476315
-0.0709801 -0.087582424 -0.03450083 0.06123267 0.026423305 0.041978624 0.38949347 -0.0117332935
-0.05358027 0.3515831 0.027618749 0.37665826 0.3609653 -0.05311929 -0.055061355 0.025605978
-0.022989158 -0.055626262 0.014409348 -0.05586803 -0.04393907 0.0070375125 -0.018569713 0.4602358
0.042636145 0.0025534155 0.35872814 -0.020026147 0.34765774 0.46495497 0.0063206493 0.004120796
0.03484925 -0.0525992 0.4309655 0.045436632 0.014272377 -0.041801836 -0.0010129604 -0.036693014
0.033806268 -0.24120405 0.013416732 0.26807877 -0.024945512 0.20061344 0.04933983 -0.04654302
-0.052285172 0.03141968 -0.013264729 0.38503104 -0.020900033 0.00964345 -0.013002439 0.3619143
0.03860306 0.03425852 0.05816283 -0.051074684 0.02913815 -0.03348286 -0.0039875573 0.013780896
0.024947312 0.1307562 0.24980359 -0.08798034 -0.042690665 -0.048945233 0.42398214 -0.007140913
-0.052999184 -0.051684514 0.057410657 0.040527597 0.006869892 0.018656954 0.10939815 -0.047310237
0.009858799 -0.046671666 -0.06794447 -0.009281529 0.3816841 -0.041574575 0.17747255 -0.026429832
-0.04738509 0.37129048 0.03614808 0.04914435 -0.06456707 -0.05080731 0.0036554707 0.024760965
-0.04727131 0.024394438 0.05964946 -0.03518846 0.027225308 -0.044870637 0.033004083 -0.030572377
-0.07032066 0.035219833 -0.06193567 -0.060257833 -0.049694527 0.014768862 0.0598993 0.024629233
-0.011888379 -0.052865855 0.018805357 -0.023810953 -0.059435807 -0.00082945795 -0.019706527 -0.10042915
-0.060973354 -0.062230058 0.02470029 0.0040027043 -0.019879576 0.41873723 0.41227537 -0.002110646
0.05193519 0.044345047 -0.003634459 0.06404128 0.3000288 -0.057559907 0.0067894477 0.31070545
-0.030555692 -0.013922231 0.014794784 0.045094114 -0.04989465 -0.0054740934 0.017581018 0.0042069787
0.03835141 -0.008518696 -0.027983377 0.02893963 0.04596194 -0.002035803 0.38105464 0.030957982
-0.0011903793 -0.10146876 0.42974535 -0.047749463 0.036390983 0.032413602 -0.056780737 0.040380444
0.3287089 0.43754247 -0.060877483 -0.00016631975 -0.060602468 -0.04448142 -0.0040275813 -0.032342356
00000000: 5a94 46bd d41d 173d 896c 16bd ab7e c0bc
00000010: 4a29 d5bb 5c75 83bd e025 5fbd b6f3 be3c
00000020: f77d da3e e6cc 593d b03f 21bd 7ea1 e93c
00000030: cdf7 e93e 0f70 b2bb e337 a7bc ba5b 5fbd
00000040: 59ab c03e 0e91 a23e 4aef 03bc 09fb c8bc
00000050: eab9 14bc 8546 e0bc e6c4 e5bc 0823 1f3c
00000060: 01e7 79bc c289 f4bc 254e 99bd 0c7f 623d
00000070: b25a 1cbd 5446 f33c df93 b83c 98b7 ac3e
00000080: 777c 9f3b 8b37 cc3b e30b 82bd 385c 08bc
00000090: a19b 04bd 3ab7 883c f2ca 29bd 40bd eb3e
000000a0: 1383 e83e 29f6 8cbc 3eac 023d e094 e53c
000000b0: df10 b0bd 132f c93a cda5 433d d466 34bd
000000c0: ff99 ad3c 6584 c33e 73ea 86bd e162 bd3c
000000d0: 4bbf 2539 6b13 db3c f1b3 c33e 0ca2 88bd
000000e0: e90d c33e 77e1 87bc 1c93 ca3e 3de0 a13b
000000f0: 38ae 4d3d 5020 ac3b b81e 4d3e 7fc6 e43e
00000100: 4acd 60bd ec70 053c cf89 11be e6af ddba
00000110: 852b d63e 6da4 c93e e7b2 dd3c 6808 583c
00000120: 9a0f cb3e b75a 0c3c ebbb ae3e df31 07bd
00000130: e630 08bd d909 fa3c 7585 ab3c e38f be3c
00000140: 4638 ea3e fa0c a5bd 02c1 5cbd 48ad d03c
00000150: 04dd b2bb c408 ff3d d4b7 8c3c 9159 373d
00000160: 045e 91bd 6a5e b3bd be50 0dbd 1ccf 7a3d
00000170: b075 d83c c7f1 2b3d b06b c73e 003d 40bc
00000180: fc76 5bbd b302 b43e b740 e23c 5ad9 c03e
00000190: 72d0 b83e 9d93 59bd 0488 61bd a1c3 d13c
000001a0: c253 bcbc 5dd8 63bd 3015 6c3c e0d5 64bd
000001b0: 74f9 33bd ef9a e63b 831f 98bc 07a4 eb3e
000001c0: 3da3 2e3d 3457 273b 37ab b73e e00d a4bc
000001d0: 3200 b23e 940e ee3e 731d cf3b be07 873b
000001e0: 16be 0e3d 4272 57bd 83a7 dc3e c31b 3a3d
000001f0: b0d6 693c 6738 2bbd 50c5 84ba 6a4b 16bd
00000200: 7178 0a3d 32fe 76be dad1 5b3c 9f41 893e
00000210: 885a ccbc 9c6d 4d3e 9018 4a3d e5a3 3ebd
00000220: fa28 56bd ecb1 003d 4e54 59bc ca22 c53e
00000230: 8c36 abbc 90ff 1d3c 2f08 55bc d54c b93e
00000240: 3e1e 1e3d a952 0c3d 263c 6e3d b033 51bd
00000250: 21b3 ee3c 5325 09bd 0eaa 82bb 44c9 613c
00000260: 4e5e cc3c f4e4 053e 83cc 7f3e 092f b4bd
00000270: 68dc 2ebd cc7a 48bd 3014 d93e 52fe e9bb
00000280: ac15 59bd 24b3 53bd 7027 6b3d 4400 263d
00000290: d51c e13b 78d6 983c 230c e03d 61c8 41bd
000002a0: cd86 213c ca2a 3fbd 7826 8bbd 8e11 18bc
000002b0: 196c c33e 1a4a 2abd 5dbb 353e 6083 d8bc
000002c0: de16 42bd c919 be3e 0210 143d 964b 493d
000002d0: bd3b 84bd 531b 50bd 9f90 6f3b 82d7 ca3c
000002e0: 909f 41bd d8d6 c73c fe52 743d c621 10bd
000002f0: 9c07 df3c 46ca 37bd 4a2f 073d ec72 fabc
00000300: 4704 90bd ac42 103d 42b0 7dbd ebd0 76bd
00000310: 7d8c 4bbd 19f9 713c f858 753d 3fc3 c93c
00000320: 7ac7 42bc de89 58bd b10d 9a3c 300f c3bc
00000330: f672 73bd fb6f 59ba 956f a1bc ccad cdbd
00000340: 32bf 79bd f2e4 7ebd 4358 ca3c 1e29 833b
00000350: 7eda a2bc ba64 d63e c215 d33e c452 0abb
00000360: feb9 543d 27a3 353d 1b30 6ebb 1328 833d
00000370: 609d 993e f0c3 6bbd 047a de3b c914 9f3e
00000380: ee4f fabc 121a 64bc d265 723c 9bb4 383d
00000390: 555e 4cbd 0660 b3bb 1106 903c b2da 893b
000003a0: 5e16 1d3d 0092 0bbc 653d e5bc ce12 ed3c
000003b0: 9642 3c3d 1b6b 05bb 9819 c33e 989b fd3c
000003c0: 8006 9cba dace cfbd 9507 dc3e f194 43bd
000003d0: b60e 153d 20c4 043d eb92 68bd f765 253d
000003e0: 884c a83e 9105 e03e ab5a 79bd 1e66 2eb9
000003f0: 4b3a 78bd 2632 36bd cdf9 83bb 6b79 04bd

l4.weight f4 [1, 256]
0.02983927 0.06677747 0.0010119758 0.017217455 -0.046428714 -0.028366387 -0.032733332 0.015124241
0.040003423 -0.03992019 -0.056715526 0.02455986 0.06805642 -0.06419024 -0.039076567 0.022868134
0.057934456 -2.011097 -0.017992003 -0.024475953 0.020351928 -0.0018775644 0.011923954 0.031053215
0.019945923 0.043055378 -0.036296807 -0.000928503 -0.049383555 0.019467894 0.016152803 0.024183068
-0.0412116 0.046879385 -0.0044917883 -0.020869289 0.0098790815 -0.017487776 -0.080269426 0.064606376
0.05064876 -0.0050338623 0.0137963295 -0.009584017 -0.01774956 0.028284796 -0.032934926 -0.013739504
-0.020251116 0.07274272 0.28244668 0.065407924 -0.011212623 0.051593713 0.0644992 -0.032697015
0.04470293 -0.010242746 0.061920617 -0.0005063425 0.047230918 0.01046472 -0.001657724 0.13407713
-0.025548257 -0.0012760286 -0.13060997 0.019989498 0.052174453 0.050673604 0.007119596 -0.06845536
0.030231595 -0.019176915 0.052638844 -0.014881217 -0.015021042 -0.003042738 0.0035640227 -0.042034052
0.073952936 -0.0018921456 -0.023024723 0.045048833 0.0044553927 0.011115166 -0.020420097 -0.020634973
-0.03376003 -0.024585025 -0.04938823 -0.044621833 -0.031959295 -0.040664893 0.04745513 0.0038751687
-0.028700085 0.045047063 -0.03846564 0.07853106 0.1267201 0.019489074 -0.059954062 0.02909762
-0.0067647644 0.017255284 -0.0035243258 0.01016336 -0.010516897 0.006748223 0.021677127 0.060164668
-0.018413825 0.023691967 0.067028396 -0.035063982 0.04388911 0.06292912 -0.026670974 -0.038293336
-0.05004266 -0.028528567 0.040359728 -0.038173404 -0.0023522011 -0.03157497 -0.0071239336 -0.0388591
0.03300475 -0.22536081 -0.0633554 -0.09552185 0.033958517 0.0027508715 0.023828287 -0.024734803
-0.0046858615 0.0030983905 -0.040569752 0.059026293 -0.062471688 0.007411994 -0.026044564 0.054745544
-0.01015389 -0.06508443 0.0002573688 -0.014609547 -0.007357901 0.017996402 0.018249044 0.008731133
0.051799607 0.011318791 -0.0024474238 -0.017158527 0.051368296 -0.0045130905 0.0501955 -0.003924908
-0.012235852 -0.05283312 -0.004593596 -0.0181756 -0.0012993062 0.03901815 0.19717295 -0.014625544
-0.027601551 -0.039961807 -0.0045111803 -0.0053556575 0.05173634 -0.0047325506 0.034261797 0.013444116
0.003926534 0.05564544 -0.023209661 0.01997853 0.013086491 -0.070101574 -0.030793374 -0.04212441
-0.02581341 0.059867993 0.049144305 -0.008721773 -0.0086986115 -0.006552832 -0.058179922 -0.018584697
0.02316937 0.015570169 0.041326217 -0.021589719 -0.0026266726 -0.025546562 -0.0455553 -0.067043684
-0.0032130727 0.00450252 0.013588891 -0.012389547 0.022501292 0.0021365753 0.0047929985 -0.03707514
-0.011636273 0.0043726293 0.025083587 0.033459954 -0.0010277601 0.064253695 0.066615365 -0.04886219
-0.046114225 0.029788831 0.0007117926 -0.002585172 0.045991696 0.0058645657 -0.019483894 0.014434891
-0.026177272 -0.030594265 -0.019118175 0.011912144 -0.042834353 -0.013544251 -0.027308665 -0.061746504
0.058585286 0.0020435746 -0.03880002 -0.013839785 0.0011587188 -0.023905959 0.039857537 0.0011157095
-0.04056622 0.1363693 0.07948793 0.0030780726 -0.041829966 0.037402183 -0.0051370957 0.0009069969
0.043073263 0.091160215 0.0012685374 -0.0009656903 0.021502478 -0.04662519 0.006130875 -0.0023249611
00000000: 7c71 f43c a0c2 883d 46a4 843a 9f0b 8d3c
00000010: 092c 3ebd a060 e8bc 6313 06bd aacb 773c
00000020: a1da 233d 5a83 23bd 8a4e 68bd c231 c93c
00000030: 2a61 8b3d 2c76 83bd c00e 20bd f455 bb3c
00000040: ae4c 6d3d d0b5 00c0 f763 93bc cb81 c8bc
00000050: 16b9 a63c 9b18 f6ba b05c 433c 5063 fe3c
00000060: a265 a33c d65a 303d f6ab 14bd c866 73ba
00000070: 6946 4abd 227b 9f3c e252 843c 921b c63c
00000080: 7fcd 28bd 9904 403d da2f 93bb 12f6 aabc
00000090: dfdb 213c 8642 8fbc 4c64 a4bd 5950 843d
000000a0: 1375 4f3d 19f3 a4bb 000a 623c 4806 1dbc
000000b0: 8667 91bc 84b5 e73c c6e6 06bd a81b 61bc
000000c0: abe5 a5bc 23fa 943d da9c 903e 97f4 853d
000000d0: 26b5 37bc ee53 533d 2818 843d 4eed 05bd
000000e0: 6b1a 373d 31d1 27bc 79a0 7d3d 12bc 04ba
000000f0: 3575 413d 3874 2b3c fd47 d9ba 844b 093e
00000100: 944a d1bc 6a40 a7ba 9fbe 05be 04c1 a33c
00000110: e1b4 553d 208f 4f3d 804b e93b 5332 8cbd
00000120: 40a8 f73c e818 9dbc d49b 573d 59d0 73bc
00000130: d11a 76bc ac68 47bb 6192 693b e62b 2cbd
00000140: a374 973d df01 f8ba 589e bcbc 2085 383d
00000150: 8bfe 913b 631c 363c 0c48 a7bc ad0a a9bc
00000160: f547 0abd 8966 c9bc 504b 4abd 62c5 36bd
00000170: c0e7 02bd 3b90 26bd 4f60 423d 8bf6 7d3b
00000180: 711c ebbc 4583 383d 268e 1dbd e4d4 a03d
00000190: eac2 013e 8da7 9f3c 6492 75bd 225e ee3c
000001a0: f5aa ddbb f45a 8d3c 60f8 66bb 3984 263c
000001b0: 104f 2cbc 3320 dd3b 3b94 b13c 3a6f 763d
000001c0: 97d8 96bc a815 c23c 2f46 893d 409f 0fbd
000001d0: 11c5 333d fce0 803d 167d dabc 79d9 1cbd
000001e0: 88f9 4cbd beb4 e9bc 3e50 253d b75b 1cbd
000001f0: 6327 1abb c154 01bd e36f e9bb b82a 1fbd
00000200: fd2f 073d fcc4 66be 7ac0 81bd f6a0 c3bd
00000210: 1618 0b3d f747 343b 8a33 c33c a4a0 cabc
00000220: db8b 99bb 5e0e 4b3b 782c 26bd 8ec5 713d
00000230: 50e2 7fbd 50e0 f23b 695b d5bc dd3c 603d
00000240: 805c 26bc fc4a 85bd 75ef 8639 e25c 6fbc
00000250: 8c1a f1bb 316d 933c 057f 953c 070d 0f3c
00000260: d32b 543d 7372 393c f564 20bb 0a90 8cbc
00000270: 9067 523d 8ce2 93bb cc99 4d3d 849c 80bb
00000280: e278 48bc 8b67 58bd e085 96bb ffe4 94bc
00000290: 7b4d aaba 7fd1 1f3d b5e7 493e fa9f 6fbc
000002a0: a61c e2bc feae 23bd 86d2 93bb 837e afbb
000002b0: 7ce9 533d 8313 9bbb 1956 0c3d b644 5c3c
000002c0: 28aa 803b 79ec 633d 3022 bebc 04aa a33c
000002d0: b968 563c 6a91 8fbd 6342 fcbc a58a 2cbd
000002e0: a576 d3bc 2438 753d 8a4b 493d c4e5 0ebc
000002f0: 9f84 0ebc 24b9 d6bb 124e 6ebd ef3e 98bc
00000300: b1cd bd3c 061a 7f3c ae45 293d ecdc b0bc
00000310: 4124 2cbb 0647 d1bc 3298 3abd 334e 89bd
00000320: 6a92 52bb e089 933b f1a3 5e3c 87fd 4abc
00000330: a154 b83c c905 0c3b 960e 9d3b 1adc 17bd
00000340: 11a6 3ebc 4648 8f3b 187c cd3c 4e0d 093d
00000350: e8b5 86ba 7197 833d a36d 883d b823 48bd
00000360: 45e2 3cbd b507 f43c 9897 3a3a fd6b 29bb
00000370: ca61 3c3d 8b2b c03b b09c 9fbc 5280 6c3c
00000380: b871 d6bc d3a0 fabc b89d 9cbc 272b 433c
00000390: 1373 2fbd b5e8 5dbc 6cb6 dfbc e7e9 7cbd
000003a0: 20f7 6f3d 7eed 053b c5ec 1ebd 44c0 62bc
000003b0: 27e0 973a 6ed6 c3bc a841 233d 003d 923a
000003c0: c428 26bd 65a4 0b3e 91ca a23d 7db9 493b
000003d0: e655 2bbd 0833 193d 1555 a8bb 88c3 6d3a
000003e0: 976d 303d 35b2 ba3d 0d45 a63a 6126 7dba
000003f0: f725 b03c 0efa 3ebd 82e5 c83b 605e 18bb
