models/GMI_pretrained/GMI_GPM_channel_predictor_37H_nonocean.pt (torch, 545332 bytes, 7 tensors)

l1.weight f4 [256, 13]
0	0x3e1558ac	0.14584607
1	0xbb670ae4	-0.0035254294
2	0x3d513e21	0.05108464
3	0xbd732054	-0.059357002
4	0xbdd4adc0	-0.10384703
5	0xbe7f61ac	-0.24939603
6	0xbeaa419a	-0.33253175
7	0xbd18ad7a	-0.037274815
8	0xbd9db744	-0.07700971
9	0x3d33ec95	0.043926794
10	0x3e5ed7f3	0.21762066
11	0x3d95ceec	0.07314858
12	0x3ed0c04a	0.40771705
13	0x3e8908b7	0.2676446
14	0xbe7a330f	-0.2443354
15	0xbd908265	-0.07056121
16	0x3e21e346	0.15809354
17	0xbe5c49b1	-0.21512486
18	0xbdf16880	-0.1178751
19	0x3dd45d8b	0.103694044
20	0xbe823e57	-0.25438187
21	0xbd665cd0	-0.056240857
22	0x3e3aed3b	0.18254559
23	0x3d1fdab2	0.039026923
24	0xbd148a42	-0.036264665
25	0xbe3f62b3	-0.18689995
26	0x3ed50228	0.41603208
27	0xbef84b9d	-0.48495188
28	0x3ecc36ea	0.39885646
29	0xbcd44f1d	-0.02591663
30	0x3e623ebb	0.22094242
31	0xbf074845	-0.5284465
32	0x3b2e4a09	0.0026594421
33	0xbe1d5237	-0.15363394
34	0x3daff891	0.08592332
35	0x3d8ee848	0.06977898
36	0x3d0e8726	0.034796856
37	0xbe7d4a97	-0.24735485
38	0x400949a3	2.1451194
39	0x3df49fe2	0.11944558
40	0xbdfa0a90	-0.12209046
41	0x3e412f31	0.18865658
42	0xbe090eed	-0.133846
43	0x3e81e4d9	0.2536991
44	0xbeb17fdb	-0.34667858
45	0x3e969082	0.29407126
46	0xbe55a020	-0.20861864
47	0xbd4f57db	-0.050620895
48	0xbd4a09b9	-0.04932568
49	0x3d626b14	0.0552779
50	0xbc51bd1b	-0.012801434
51	0x3dca357b	0.09873482
52	0x3e1e742d	0.15474005
53	0x3db53ba9	0.0884927
54	0xbe613131	-0.21991421
55	0x3e87e305	0.2654039
56	0x3e314a66	0.17313537
57	0x3df7dbec	0.12102494
58	0xbe1fdfa4	-0.15612656
59	0x3db1aa79	0.08675093
60	0x3e5f59a7	0.21811543
61	0x3e47803e	0.19482514
62	0x3e1603e2	0.14649919
63	0xbea99525	-0.331216
64	0x3e0b39ca	0.13596264
65	0x3ec4cfb3	0.38439712
66	0xbe4ffd3d	-0.20311446
67	0xbc79f970	-0.015257224
68	0xbe472c2a	-0.19450441
69	0xbdbac5fc	-0.09119794
70	0x3de85dac	0.113459915
71	0xbda54909	-0.08070571
72	0x3dd7c849	0.10536248
73	0x3e52c659	0.20583476
74	0xbeabfe0f	-0.3359227
75	0x3e41246f	0.18861555
76	0xbde19d9a	-0.11016388
77	0x3e35497c	0.17703813
78	0xbe8596cf	-0.2609162
79	0x3d6fdd6b	0.05856077
80	0x3d213c1f	0.039363977
81	0xbe318804	-0.17337042
82	0xbc6d21c6	-0.014473384
83	0x3d9dcc1e	0.07704948
84	0xbe14c125	-0.14526804
85	0xbdfdf03f	-0.12399339
86	0x3e2a5909	0.16635527
87	0x3cf1327b	0.029443016
88	0x3e3b083a	0.18264857
89	0xbdf4935d	-0.1194217
90	0xbe7c9c02	-0.24668887
91	0x3e309879	0.17245664
92	0xbe536cd6	-0.20646986
93	0xbbf3310e	-0.0074216193
94	0x3dd602e8	0.10449773
95	0xbdd41dff	-0.10357284
96	0x3e1a7b79	0.15086164
97	0xbd203db5	-0.03912135
98	0xbe8286dc	-0.25493515
99	0xbdfa0710	-0.12208378
100	0xbdc508d0	-0.096208215
101	0x3e64faa3	0.22361235
102	0xbe0761c1	-0.13220884
103	0xbd825f10	-0.06365788
104	0x3e2c455c	0.16823334
105	0x3d2021a9	0.0390946
106	0xbdb61408	-0.088905394
107	0xbe0cdd4b	-0.13756292
108	0xbdbfae83	-0.09359457
109	0xbe7860b6	-0.24255642
110	0x3e2cae12	0.16863278
111	0x3e4d917e	0.20075032
112	0xbdf45f6f	-0.11932265
113	0xbe88a2d0	-0.26686716
114	0x3e4b913e	0.19879624
115	0xbdbcfee0	-0.09228301
116	0xbe0dd50c	-0.13850802
117	0xbe7c9427	-0.2466589
118	0x3dfd9eaf	0.12383782
119	0x3e6e4cf9	0.2327155
120	0x3d8ceb3c	0.06880805
121	0x3d10dde7	0.035367873
122	0xbe9f3056	-0.31091565
123	0xbe43e9fc	-0.19132227
124	0x3d60f981	0.054925445
125	0xbde958b2	-0.113938704
126	0xbe9ab3a4	-0.3021518
127	0xbdf0f876	-0.1176614
128	0x3d50bdbf	0.050962206
129	0x3da05b2a	0.07829888
130	0x3f0f4f34	0.5598023
131	0xbe2cb301	-0.1686516
132	0x3e054aa7	0.13016759
133	0x3bd62c19	0.0065360186
134	0xbe443f3a	-0.19164744
135	0xbe90e515	-0.28299776
136	0xbe19f347	-0.15034209
137	0xbf4be4f0	-0.79646206
138	0x3e84e6d7	0.25957367
139	0xbefd0bb4	-0.4942299
140	0x3ee4f4b5	0.44717947
141	0x3ec9b4d5	0.39395776
142	0xbf77f571	-0.9685889
143	0xbe502466	-0.20326385
144	0x3dc91fcb	0.09820517
145	0xbd9643ab	-0.073371254
146	0x3dc9dcf4	0.098565966
147	0xbd758435	-0.059940536
148	0x3e433bf8	0.19065845
149	0xbe519493	-0.20466833
150	0x3dd9644f	0.106148355
151	0xbd142afe	-0.036173813
152	0xbe8051e1	-0.2506247
153	0xbd6260a9	-0.055267964
154	0xbe08ba66	-0.13352355
155	0x3e5e1c28	0.21690428
156	0x3e54a3e3	0.20765643
157	0x3c3655f2	0.011128889
158	0x3d9e9def	0.07744967
159	0xbe8693b3	-0.2628456
160	0xbe2a98e4	-0.16659886
161	0x3e6d4838	0.2317208
162	0xbe2b8a77	-0.16752039
163	0x3de5352c	0.11191782
164	0xbe9b3c45	-0.3031942
165	0xbde1f397	-0.11032789
166	0xbdcc87c3	-0.09986832
167	0x3e215b4e	0.15757486
168	0x3e3d7855	0.18502934
169	0x3e047e27	0.12938748
170	0xbe95d30e	-0.29262584
171	0x3cc68df0	0.024237603
172	0x3db4354d	0.08799229
173	0x3db464a5	0.08808259
174	0x3b191129	0.0023356176
175	0xbece0550	-0.40238428
176	0x3e30b470	0.17256331
177	0x3da6af3e	0.081388935
178	0xbe33d257	-0.17560707
179	0xbd9739f5	-0.07384101
180	0xbd113b5a	-0.035456993
181	0xbe91957b	-0.28434357
182	0x3eeb5614	0.4596411
183	0xbf011276	-0.50418794
184	0x3ea2a1aa	0.31763965
185	0x3dc1f8ac	0.094712585
186	0xbdd26ed1	-0.10275043
187	0xbeb6cb2f	-0.35701892
188	0x3e234bdf	0.15946911
189	0x3d9b6606	0.07587819
190	0xbc67c26b	-0.014145474
191	0xbd321abc	-0.043482527
192	0xbe8611aa	-0.26185352
193	0x3e19b799	0.15011443
194	0xbeedd2fe	-0.46450037
195	0x3ccb3dcb	0.024809739
196	0x3e405efb	0.18786232
197	0x3e42edf9	0.19036092
198	0xbe8fc87f	-0.28082654
199	0xbeafaf10	-0.3431325
200	0x3e0f275a	0.13979855
201	0x3dafd7d1	0.085860856
202	0x3d2a9476	0.04164549
203	0xbe0f7af7	-0.14011751
204	0xbd9f7759	-0.07786436
205	0xbcdf57d2	-0.027263556
206	0xbe328490	-0.17433381
207	0x3d10bd16	0.035336576
208	0x3cc42e0b	0.023947736
209	0xbe364e34	-0.1780327
210	0x3e0bcbfa	0.1365203
211	0xbe84f020	-0.2596445
212	0x3e4d438a	0.20045295
213	0xbebd7c16	-0.37008733
214	0xbe0903db	-0.13380377
215	0x3e098bd3	0.13432245
216	0x3dc3677d	0.09541223
217	0x3e70258a	0.2345182
218	0x3e0b3924	0.13596016
219	0xbe97f556	-0.29679364
220	0x3c8547e0	0.016269624
221	0x3d5ced43	0.053937208
222	0xbe860c17	-0.261811
223	0xbe649124	-0.22320992
224	0xbe0d47db	-0.13796942
225	0x3e0a1ed9	0.1348833
226	0x3c83d891	0.016094478
227	0x3e1e64a7	0.15468083
228	0x3e42db7b	0.19029038
229	0xbe03bb4c	-0.12864417
230	0x3e3127ed	0.17300387
231	0xbe5cb6c7	-0.21554099
232	0xbdf059aa	-0.11735852
233	0xbcd9ad86	-0.026572
234	0x3e8699ea	0.26289302
235	0xbcc9f550	-0.024653107
236	0xbe9c8b6e	-0.30575126
237	0xbe646687	-0.22304736
238	0xbedd9795	-0.4327971
239	0x3e5f6354	0.21815234
240	0xbd284fb4	-0.041091636
241	0x3ea41259	0.32045248
242	0x3d2b4f76	0.041823827
243	0xbdbadcf1	-0.091241725
244	0x3e2cf895	0.16891702
245	0x3dc9b6db	0.0984933
246	0x3e822de0	0.25425625
247	0xbe45d69c	-0.19320148
248	0x3ddff9c5	0.10936312
249	0x3d67a164	0.0565504
250	0xbe5543eb	-0.2082669
251	0xbea885b7	-0.32914516
252	0xbca89870	-0.0205805
253	0x3e421048	0.18951523
254	0x3e4fb0f2	0.20282343
255	0xbc622673	-0.013803112

l1.bias f4 [256]
0	0xbcec35ec	-0.028834306
1	0x3d8153e3	0.06314828
2	0x3fd03012	1.626467
3	0x3e00e820	0.12588549
4	0x3e2f8768	0.17141497
5	0x3f2a5106	0.6652988
6	0x3e0ba609	0.13637556
7	0x3d35cc3f	0.044384237
8	0xbdec0440	-0.11524248
9	0x3d9ea755	0.0774676
10	0x3db72627	0.08942824
11	0xbe3b9df8	-0.18321979
12	0x3e1a1778	0.15048015
13	0xbcfa4b69	-0.030553536
14	0x3f56de65	0.839331
15	0x3e444721	0.19167759
16	0x3c59cb88	0.013293155
17	0xbc321224	-0.010868583
18	0x4001377f	2.0190122
19	0xbe948a8f	-0.29011962
20	0xbef2e659	-0.47441366
21	0xbe5ac303	-0.21363454
22	0x3e07cdae	0.13262054
23	0xbee97bff	-0.45602414
24	0xbcd5d4dc	-0.026102476
25	0xbe08c475	-0.13356192
26	0xc0363a79	-2.847319
27	0xbe0030b7	-0.12518583
28	0x3ec31bae	0.38107055
29	0x3dc4ccd6	0.09609382
30	0xbf3a9168	-0.7287812
31	0x3dbf9932	0.093553916
32	0x3e070d02	0.13188556
33	0x3e84066f	0.25786158
34	0xbf218a66	-0.63101804
35	0xbda22c7d	-0.07918642
36	0xbe2efc78	-0.17088497
37	0xbe52275e	-0.2052283
38	0x3d2218fc	0.03957461
39	0x3d99fedf	0.07519316
40	0xbe36f65b	-0.17867415
41	0x3c42bdf5	0.01188611
42	0x3dfa304a	0.12216242
43	0xbe89ea06	-0.26936358
44	0xbe5d0fc3	-0.21588044
45	0x3e8851c9	0.26624897
46	0xbd404ca3	-0.046948086
47	0xbe7a2214	-0.24427062
48	0xbb548352	-0.0032426906
49	0x3e881467	0.26578066
50	0x3e023719	0.1271633
51	0x3eb15bff	0.346405
52	0xbe054c6a	-0.13017431
53	0xbe6c9a6a	-0.2310578
54	0xbe8a4c1f	-0.270112
55	0x3de0b9ea	0.1097296
56	0xbdb0538f	-0.086096875
57	0xbd287d97	-0.041135397
58	0xbe262e53	-0.16228609
59	0xbe53849b	-0.20656054
60	0x3eaeee74	0.341663
61	0xbe306d0e	-0.17229101
62	0xbfa9fa4a	-1.3279507
63	0x3c07f7f7	0.0082988655
64	0xbd773afd	-0.06035899
65	0xbd88f1d1	-0.06686748
66	0xbe89ef6c	-0.26940477
67	0xbd98e0fe	-0.07464789
68	0x3f9a8a20	1.2073402
69	0x3dc03ddd	0.093867995
70	0x3e2d64b6	0.1693295
71	0x3f6ebba9	0.93255097
72	0xbb2f043f	-0.0026705412
73	0x3d9a8761	0.07545353
74	0xbddcd880	-0.107834816
75	0xbe50f10c	-0.20404452
76	0x3e3ab6e5	0.18233831
77	0xbdbd9d92	-0.0925857
78	0x3d0e08d7	0.0346764
79	0xbe0871c5	-0.1332465
80	0x3f10a617	0.56503433
81	0x3cf3778e	0.029720094
82	0xbe6149a2	-0.22000745
83	0xbe20b309	-0.15693296
84	0x3e46ad8a	0.19402137
85	0x3fe3b8c8	1.7790766
86	0x3e8b1e31	0.27171472
87	0x3d05614c	0.032563493
88	0xbddf7550	-0.109110475
89	0xbd12df02	-0.035857208
90	0xbe564885	-0.20926102
91	0x3e00cd39	0.12578286
92	0x3fbadcbb	1.4598612
93	0xbc8a9f5c	-0.016921692
94	0x3e423bd4	0.18968135
95	0x3e299cb3	0.16563682
96	0xbefe4797	-0.49663994
97	0xbe5975b2	-0.21236303
98	0x3d3bcb01	0.045847896
99	0xbe53cf89	-0.20684637
100	0x3ecbb14d	0.39783707
101	0xbe695cef	-0.22789358
102	0x3e8498e4	0.25897896
103	0x3d231334	0.039813235
104	0x3f14450e	0.5791787
105	0x3dff52c5	0.12466959
106	0x3cc9334f	0.024560599
107	0xc00f99e9	-2.243769
108	0x3deb6712	0.114942685
109	0x3e885f90	0.26635408
110	0xbec23c46	-0.3793661
111	0xbeb0ba7e	-0.34517282
112	0x3e34110e	0.17584631
113	0x3e5c556f	0.21516965
114	0xbe508bc5	-0.20365818
115	0x3e700f16	0.23443255
116	0x3deae7ed	0.114700176
117	0x3f22d7dc	0.63610625
118	0xbe804085	-0.25049224
119	0x3df06218	0.1173746
120	0xbe2a6edf	-0.16643856
121	0xbf8085f7	-1.0040883
122	0xbd8a7c6b	-0.06762012
123	0xbd70d1eb	-0.058793943
124	0xbe8cf16f	-0.2752795
125	0x3de46cf2	0.11153592
126	0xbd00dcc9	-0.031460557
127	0x3e2f209b	0.17102282
128	0x3e46ebec	0.19425935
129	0x3f230106	0.63673437
130	0x3e45807b	0.19287293
131	0x3e8e3cf3	0.27780876
132	0xbddae00b	-0.10687264
133	0x3b053050	0.0020322986
134	0xbe8340bc	-0.25635326
135	0xbdeb57dc	-0.11491367
136	0x3c65b6df	0.014020651
137	0x3e3cef47	0.18450652
138	0xbda6ebc4	-0.081504375
139	0x3e701c8a	0.23448387
140	0x3e11a815	0.14224274
141	0xbe1db49a	-0.15400925
142	0x3e90178c	0.28142965
143	0x3ce2a525	0.027666638
144	0x3ee7d835	0.4528214
145	0x3e3922f9	0.18079747
146	0x3e2da66c	0.16958016
147	0x3d5778a7	0.052605297
148	0xbeb04579	-0.34428003
149	0xbe926963	-0.2859603
150	0xbcba0bdf	-0.022710739
151	0xbd959149	-0.073031016
152	0x3de8bc4b	0.11364039
153	0xbdd88ad9	-0.10573358
154	0x3e058adc	0.13041252
155	0xbca93740	-0.020656228
156	0xbe672626	-0.22573146
157	0xbe88ec57	-0.26742813
158	0xbeb084bd	-0.3447627
159	0x3dff28e5	0.12458972
160	0xbe70a6c8	-0.23501122
161	0xbdbb7310	-0.09152806
162	0xbe7cdb54	-0.24693042
163	0x3eb4bcb8	0.3530023
164	0xbdb02a9e	-0.086018786
165	0x3db4a206	0.08819966
166	0xbcae714b	-0.021294257
167	0xbb6de1c4	-0.0036297897
168	0xbd9102c9	-0.07080609
169	0xbe2dd4ed	-0.16975756
170	0xbe6d0416	-0.2314609
171	0xbdb001b1	-0.085940726
172	0x3c61b459	0.013775908
173	0x3d5f0aed	0.05445378
174	0x3cdc3fac	0.02688583
175	0x3f1aa445	0.60406905
176	0x3ddc8a20	0.10768533
177	0xbe268aa5	-0.16263826
178	0xbf12dece	-0.5737122
179	0xbe4c5153	-0.19952898
180	0xbe15a332	-0.14613035
181	0xbd06092a	-0.032723583
182	0x3e664faa	0.22491327
183	0xbf5ff705	-0.87486297
184	0xbe27251b	-0.16322748
185	0xbdab92b9	-0.083775945
186	0x3e242f67	0.16033708
187	0x3db3e964	0.0878475
188	0x3ef0ada2	0.4700747
189	0x3f82fb45	1.0232931
190	0x3dd34402	0.10315706
191	0x3dca7dfb	0.0988731
192	0x3e8a0cba	0.26962835
193	0xbe7fc976	-0.24979195
194	0xbe6ba324	-0.23011452
195	0xbe9a3a5e	-0.30122656
196	0xbd02323e	-0.031786196
197	0x3d11544e	0.03548079
198	0xbe6f6336	-0.2337769
199	0xbe0a5f6b	-0.13512962
200	0x3d9ee65e	0.07758783
201	0xbefb95cc	-0.49137723
202	0x3c35ee6e	0.011104209
203	0xbe549ff1	-0.20764138
204	0x3cc6d1a0	0.024269879
205	0x3e9211e1	0.28529266
206	0xbf78b979	-0.9715801
207	0x3cf7f7d0	0.030269533
208	0xbe951a91	-0.2912183
209	0xbe3a45cd	-0.1819069
210	0x3d197def	0.037473615
211	0x3c5eceb6	0.013599088
212	0x3ef2a19a	0.47388917
213	0xbd045da7	-0.032315876
214	0xbe50ed0f	-0.2040293
215	0x3e99799d	0.29975596
216	0x3f4876d7	0.78306335
217	0x3d1c46eb	0.03815357
218	0x3e1795ca	0.14803234
219	0x3e88acd5	0.2669436
220	0x3d8c2ec4	0.06844857
221	0x3e362955	0.17789204
222	0x3df06781	0.11738492
223	0xbe575a53	-0.2103055
224	0x3d7d46bb	0.061835032
225	0x3e483fa9	0.19555534
226	0x3cc1f3e8	0.023675874
227	0x3c9f5b03	0.019452577
228	0x3e716145	0.23572262
229	0xbe7e3182	-0.24823573
230	0x3ed07af7	0.40718815
231	0xbd8cb4f4	-0.068704516
232	0x3e60b7f0	0.21945167
233	0x3f9e7e5c	1.2382312
234	0xbe04f961	-0.12985756
235	0x3e4c72f2	0.19965723
236	0x3cdc2683	0.026873833
237	0xbd4e76e3	-0.050406348
238	0xbd672b14	-0.056437567
239	0xbe70f780	-0.23531914
240	0x3da09e6c	0.078427166
241	0x3e55542b	0.20832889
242	0x3ea216ff	0.3165817
243	0xbd32ee6a	-0.0436844
244	0xbdbdbe02	-0.09264757
245	0xbf28efcd	-0.65990907
246	0x3d7a751a	0.061146833
247	0x3e8ab8de	0.27094167
248	0xbe3aa0f6	-0.18225464
249	0xbd16f926	-0.0368587
250	0x3e6daa06	0.2320939
251	0xbe4559b9	-0.19272508
252	0x3d314347	0.04327705
253	0xbd8eb55e	-0.06968187
254	0xbe72fe4a	-0.23729816
255	0x3e73f969	0.23825611

l2.weight f4 [256, 256]
0	0xbcb469aa	-0.02202304
1	0x3d34dab8	0.0441539
2	0xbc9c8dc6	-0.019110572
3	0xbe074629	-0.13210358
4	0x3dc69ecb	0.09698256
5	0x3d199f0f	0.037505206
6	0xbcdb6887	-0.026783241
7	0x3d0d3f80	0.034484386
8	0xbd408c80	-0.04700899
9	0xba4511a5	-0.0007517583
10	0xbda1fa47	-0.07909065
11	0x3ccb8984	0.024845846
12	0x3c393aa4	0.011305485
13	0xbcda28dc	-0.026630811
14	0xbd0d9ed0	-0.034575284
15	0x3d03e88e	0.032204203
16	0x3b8ed4a6	0.0043588458
17	0xbc89f264	-0.016839214
18	0x3b62ca02	0.003460527
19	0xbc6eab17	-0.014567158
20	0xbc30726f	-0.010769471
21	0x3bd0e1ba	0.006374565
22	0x3d31ccf8	0.043408364
23	0xbdc42c33	-0.09578743
24	0xbc52b7c2	-0.012861194
25	0x3d3b4737	0.045722213
26	0x3bfffa51	0.0078118225
27	0x3d2fbb34	0.04290314
28	0x3d5b2bbb	0.0535085
29	0x3d554512	0.052067824
30	0xbd8c0aa2	-0.068379655
31	0x3d0213a5	0.031757016
32	0x3c926c24	0.017873831
33	0xbd43ffc2	-0.04785133
34	0x3c9cb0be	0.019127246
35	0x3d193daf	0.03741234
36	0x3c5b62b5	0.013390233
37	0x3c302148	0.010750122
38	0x3df85b7e	0.12126826
39	0x3e22b45a	0.15889111
40	0x3d67c8fb	0.056588154
41	0x3d951cf2	0.072809115
42	0x3e10e855	0.14151128
43	0x3c74daf7	0.014944783
44	0x3c36ac78	0.011149518
45	0xbd004ea2	-0.03132499
46	0x3d060b10	0.032725394
47	0xbd57b7ae	-0.052665405
48	0x3b806e78	0.003919419
49	0xbd429828	-0.04750839
50	0x3d331028	0.04371658
51	0x3d550fae	0.052016906
52	0xbd41d2ac	-0.047320053
53	0x3cfea5cd	0.03108492
54	0x3c871c69	0.01649304
55	0x3c9e425e	0.019318756
56	0x3cd2b064	0.025718875
57	0x3d2be9d8	0.041971058
58	0x3d4bca8c	0.04975371
59	0x3dc13a30	0.094349265
60	0x3d1edcad	0.03878467
61	0x3d19f1ff	0.0375843
62	0xbe190ba2	-0.14945844
63	0x3dd305bb	0.103038274
64	0xbd249415	-0.040180285
65	0x3d8005b7	0.0625109
66	0x3cdc4831	0.026889892
67	0xbd3bc4ba	-0.04584191
68	0xbd84051d	-0.06446288
69	0x3e166719	0.14687766
70	0xbbbf3366	-0.0058349846
71	0x3cba91cf	0.022774605
72	0xbd589f1c	-0.052886114
73	0xbd13a3cc	-0.03604488
74	0x3d00a4f6	0.03140732
75	0xbd3dad54	-0.046307877
76	0xbcbafda6	-0.022826027
77	0x3cdeaabc	0.027181022
78	0xbbf3c920	-0.0074397475
79	0x3d857f1d	0.065183856
80	0x3dd1cf61	0.102446325
81	0xbcf94ba8	-0.030431584
82	0x3c10cab5	0.008837392
83	0x3d30319e	0.04301607
84	0x3ca9808c	0.020691179
85	0xbd4664e2	-0.048436053
86	0x3d87f6ac	0.06638846
87	0x3ccc7928	0.024960116
88	0xbcd96c6c	-0.026540957
89	0xbc92c1df	-0.01791471
90	0xbcbc1a30	-0.022961706
91	0x3de9d91b	0.11418363
92	0x3dacf03d	0.08444259
93	0x3cb5ae5c	0.022177868
94	0xbc866680	-0.016406298
95	0x3bd36e82	0.0064523825
96	0xbd18f09b	-0.037338834
97	0x3bfbc510	0.007683404
98	0xbbfa762f	-0.007643483
99	0xbcef9ceb	-0.029249629
100	0xbbebdb87	-0.0071978006
101	0x3c99e558	0.018786117
102	0xbb0ff200	-0.0021964312
103	0x3c2eaaad	0.010660809
104	0xbe4ba97a	-0.19888869
105	0x3cca9e98	0.024733827
106	0x3e269d6c	0.16270989
107	0xbda467e3	-0.08027627
108	0x3ad3a037	0.001614577
109	0x3ab4dbc0	0.0013798401
110	0xbd516a20	-0.0511266
111	0x3d0f0523	0.034917008
112	0x3d5249cd	0.051339913
113	0xbd448f9c	-0.04798852
114	0x3ab5d700	0.0013873279
115	0x3d6446a4	0.05573143
116	0xbbe71946	-0.0070525734
117	0xbd45d425	-0.04829802
118	0x3cb8107a	0.022468794
119	0xbc0e784e	-0.008695675
120	0xbbb0f9be	-0.0054008653
121	0xbd949a34	-0.072559744
122	0xbce896ff	-0.028392313
123	0xbc9195e3	-0.017771667
124	0xbb1e048c	-0.0024111597
125	0x3d1dca82	0.038523205
126	0x3bfefc00	0.0077815056
127	0x3d4f2594	0.050572947
128	0xbd1b1764	-0.037864104
129	0xbcc4a5ba	-0.024004806
130	0xbcfb4d8d	-0.030676628
131	0x3d9dbaa6	0.07701616
132	0x3ccaf64b	0.024775645
133	0xbd672e5c	-0.056440696
134	0x3b860e90	0.0040910915
135	0xbc79bd24	-0.015242849
136	0xbd826545	-0.06366972
137	0xbb1018e9	-0.0021987504
138	0x3d2caf1e	0.042159192
139	0xbcca5658	-0.024699375
140	0xbcbb3742	-0.022853497
141	0x3d4833de	0.04887759
142	0x3d17be3d	0.03704666
143	0x3eb33e4d	0.3500847
144	0x3d88b321	0.06674791
145	0xbce4116c	-0.027840339
146	0x3c4edb48	0.012625523
147	0xbbc486ba	-0.005997506
148	0x3d1c8111	0.038209025
149	0x3ccfaacb	0.025349995
150	0x3d3523e9	0.0442237
151	0xbc01de63	-0.007926556
152	0x3d080cd1	0.033215348
153	0xbd7e2876	-0.062050305
154	0xbd3a2f0c	-0.045455024
155	0x3c140418	0.009034179
156	0xbc4d2d02	-0.012522938
157	0xbd5ecfce	-0.054397397
158	0xbc7c4780	-0.015397906
159	0xbc126061	-0.008934111
160	0x3c1223d0	0.008919671
161	0xbd5fc47e	-0.05463075
162	0x3d6c5d96	0.057706438
163	0x3da520e5	0.08062915
164	0x3d2f669c	0.042822465
165	0x3d2f571f	0.042807695
166	0x3ba9489c	0.0051661264
167	0xbc87508e	-0.016517904
168	0x3d9148f4	0.07093993
169	0xbc8af95a	-0.016964603
170	0x3c1af9fe	0.009459017
171	0x3d1f60f6	0.03891083
172	0xbd349a92	-0.044092722
173	0x3cde9d62	0.027174655
174	0x3ab0b792	0.0013482443
175	0x3cf47a6a	0.029843528
176	0xbda9fda2	-0.0830033
177	0xbd16224d	-0.036653806
178	0xbdd4a300	-0.10382652
179	0x3de673ea	0.112525776
180	0x3da0db83	0.078543685
181	0x3c439630	0.011937663
182	0xbb991610	-0.0046718195
183	0x3d969e01	0.073543556
184	0x3da2982a	0.07939179
185	0x3bbea350	0.005817808
186	0x3c0f6333	0.008751678
187	0xbc934bca	-0.017980475
188	0x3cb8dd47	0.02256645
189	0x3cb94ad7	0.022618694
190	0xbd3fc51a	-0.04681883
191	0xbd5cebf8	-0.053935975
192	0xbd5c351e	-0.053761594
193	0xbd64a354	-0.055819824
194	0xbcb76f34	-0.022391893
195	0xbd878fab	-0.06619199
196	0x3d3f5f85	0.046721954
197	0x3c8617d2	0.01636878
198	0xbcfd6aa1	-0.030934634
199	0x3d324085	0.043518562
200	0x3d80bcff	0.06286048
201	0xbcd82bd3	-0.026388085
202	0xbd047ebe	-0.032347433
203	0xbc10dffc	-0.008842465
204	0x3d52ae24	0.051435605
205	0x3e07dce7	0.13267861
206	0xbd926a5e	-0.07149194
207	0xbe533fb2	-0.20629767
208	0x3c6ce900	0.014459848
209	0x3d5c1042	0.053726442
210	0x3d2fd407	0.042926814
211	0xbc050840	-0.008119643
212	0x3d890d99	0.06692047
213	0x3c2c9f5c	0.010536041
214	0x3c375608	0.011189945
215	0xbc1d9c3f	-0.0096197715
216	0xbd701feb	-0.05862419
217	0xbd3a82d0	-0.04553491
218	0xbd08b8c3	-0.033379328
219	0xbd2a50fa	-0.04158113
220	0x3d671323	0.056414735
221	0x3c9f2ba8	0.019429997
222	0xbc59865d	-0.013276664
223	0x3d27f1f2	0.04100222
224	0x3dd93645	0.10606054
225	0xbcf19a8c	-0.029492639
226	0x3c44a010	0.0120010525
227	0x3d633446	0.055469774
228	0xbd9a0434	-0.07520333
229	0xbaf2d594	-0.0018526786
230	0x3e402141	0.18762685
231	0x3cc72284	0.02430845
232	0x3c6c06e3	0.014405939
233	0x3c414264	0.011795614
234	0xbcff07a4	-0.031131573
235	0xbd0ad0c6	-0.033890508
236	0xbbc35910	-0.005961545
237	0x3ce10834	0.027469732
238	0xbc391a44	-0.011297766
239	0xbb999b46	-0.0046876995
240	0xbd1ba5ab	-0.03799979
241	0x3b1e1fc0	0.0024127811
242	0x3e00be11	0.12572505
243	0x3d46bec4	0.048521772
244	0x3e703beb	0.23460357
245	0xbdeb21d9	-0.11481065
246	0x3d55f6a4	0.052237168
247	0x3d69cd24	0.057080403
248	0xbb91ad70	-0.004445724
249	0x3d229113	0.039689135
250	0xbcef0380	-0.029176474
251	0x3d43f6dc	0.047842845
252	0x3cace57d	0.021105522
253	0xbd4d58da	-0.050133564
254	0x3c7c89a4	0.015413675
255	0x3d693887	0.056938674

l2.bias f4 [256]
0	0x3e7cc82a	0.24685732
1	0x3dd34f60	0.10317874
2	0xbd31c592	-0.04340131
3	0x3c9123ce	0.017717268
4	0x3c9ee50e	0.019396331
5	0xbd09c4cc	-0.033634946
6	0xbdb9eebe	-0.090787396
7	0xbd5566ff	-0.052100178
8	0xbd8d3106	-0.06894116
9	0x3cec2956	0.028828304
10	0x3d371f6e	0.044707708
11	0xbb67fcf5	-0.0035398577
12	0xbd67948c	-0.05653815
13	0x3ca83086	0.02053095
14	0xbd003109	-0.031296764
15	0xbda958b4	-0.08268872
16	0xbd81ab41	-0.06331492
17	0xbca59683	-0.020213371
18	0xbd7735be	-0.060353987
19	0x3d26d861	0.0407337
20	0xbdad4303	-0.08460047
21	0x3d169086	0.036758922
22	0x3cbb83d5	0.02289001
23	0x3cda75af	0.026667444
24	0xbd48b564	-0.049001113
25	0xbd481b22	-0.048854
26	0x3d06871f	0.032843705
27	0xbd8df41f	-0.06931328
28	0xbd797ccc	-0.06091003
29	0xbdc3c6e7	-0.09559422
30	0x3cf06cf2	0.029348824
31	0xbd98dee4	-0.07464388
32	0xbd80f8a4	-0.062974244
33	0xbd2daafd	-0.042399395
34	0xbda3375c	-0.07969543
35	0xbcfcdacd	-0.030866051
36	0x3d2a1ab1	0.04152936
37	0x3bc009e0	0.005860552
38	0x3e8e3432	0.27774197
39	0x3d0d9d88	0.03457406
40	0xbc621b5e	-0.01380047
41	0xbccb90c4	-0.024849303
42	0xbd6e6e7e	-0.058210842
43	0x3b9430ba	0.00452241
44	0xbbbe404a	-0.0058060037
45	0xbc9c9510	-0.019114047
46	0xbdd6aaec	-0.104818195
47	0x3a9e18f2	0.0012061878
48	0x3bc49cb8	0.0060001276
49	0x3d297106	0.041367553
50	0xbdceedb5	-0.10103933
51	0x3d1c5070	0.03816265
52	0x3e31773d	0.17330642
53	0xbd1ebfbd	-0.038757075
54	0x3d6bd3c3	0.057575
55	0x3f590eb0	0.84788036
56	0x3d3b6d5e	0.045758598
57	0x3e6b4af5	0.22977813
58	0xbd95d1ac	-0.07315382
59	0xbda7881e	-0.08180259
60	0xbd4e4422	-0.050357945
61	0x3d22655e	0.039647453
62	0x3ccd9309	0.025094526
63	0xbcc6f214	-0.024285354
64	0x3cad8978	0.021183714
65	0xbd976b28	-0.07393485
66	0x3d000d44	0.03126265
67	0xbbe7578b	-0.0070599965
68	0x3be71521	0.0070520793
69	0x3fd5d52e	1.6705682
70	0xbd129ba1	-0.03579295
71	0xbdd74081	-0.1051035
72	0x3e8d1b49	0.2755988
73	0xbd6a3102	-0.057175644
74	0xbce984d8	-0.028505728
75	0xbd495aff	-0.049159046
76	0x3d4dec99	0.050274465
77	0xbd74aea0	-0.059736848
78	0x3c8772ae	0.016534176
79	0x3ce7521b	0.028237393
80	0x3d33cc62	0.043896087
81	0xbcc8bd9e	-0.024504479
82	0xbca25287	-0.019814743
83	0xbc5e31bd	-0.013561663
84	0xbd4f8edd	-0.050673354
85	0xbd836bfd	-0.064170815
86	0xbd984e4e	-0.074368104
87	0xbcea5025	-0.028602669
88	0xbd6104c2	-0.054936178
89	0xbd0289fe	-0.03186988
90	0x3c66d25f	0.014088242
91	0xbd578dc7	-0.052625444
92	0xbd30cc84	-0.04316379
93	0xbdd042b1	-0.101689704
94	0xbde3cb5a	-0.111227706
95	0x3d49fc7a	0.049313046
96	0xbd7bfad4	-0.061518505
97	0xbdc3daad	-0.095631935
98	0xbca67dad	-0.020323599
99	0xbd25d460	-0.04048574
100	0xbda50e99	-0.08059425
101	0x3e7e1582	0.24812892
102	0x3d28b3e2	0.041187175
103	0x3e5cddfd	0.21569057
104	0x3b8860d6	0.0041619344
105	0x398126dd	0.00024633753
106	0x3c3b01ce	0.0114140045
107	0xbcc280aa	-0.023742992
108	0x3e8b24b3	0.27176437
109	0x3c1931e4	0.009350274
110	0x3d015fad	0.031585384
111	0xbd6686a0	-0.056280732
112	0xbc9f0d94	-0.019415654
113	0xbc95f685	-0.018306026
114	0xbda7f18c	-0.08200368
115	0x3b195c00	0.0023400784
116	0x3ca906a1	0.020633044
117	0xbc99babd	-0.018765802
118	0xbd5df463	-0.054188143
119	0x3d1b74fc	0.037953362
120	0xbd99e459	-0.07514257
121	0x3d15f95a	0.036614753
122	0x3e2cd2ae	0.16877243
123	0xbdc24135	-0.094850935
124	0xbd3a3d9e	-0.04546892
125	0xbd1689b3	-0.036752414
126	0x3ccf286e	0.025287833
127	0xbd7803cf	-0.060550507
128	0xbd8558f4	-0.06511107
129	0xbda072d1	-0.078343995
130	0x3d0a90bb	0.033829432
131	0x3c2dc9ce	0.010607196
132	0x3d5ca4ae	0.05386799
133	0x3d167970	0.036736906
134	0x3d2a3cde	0.041561954
135	0xbd2f7eab	-0.04284541
136	0xbd88962d	-0.06669269
137	0xbd26c88a	-0.040718593
138	0x3d37162a	0.04469887
139	0x3e7145a1	0.23561718
140	0x3d0090a7	0.03138795
141	0xbcbf3fb7	-0.023345811
142	0xbc73a538	-0.014870934
143	0xbd5bc0e7	-0.053650763
144	0x3d5bab11	0.05362994
145	0xbbd46879	-0.0064821807
146	0x3d45d1f8	0.048295945
147	0x3c8b0616	0.016970675
148	0xbb945a70	-0.0045273826
149	0x3d350f18	0.044203848
150	0x3d380df8	0.044935197
151	0xbd44786e	-0.047966413
152	0xbd8323f5	-0.06403343
153	0xbfb1c991	-1.3889638
154	0x3d3a0232	0.04541225
155	0xbd4a4e42	-0.04939104
156	0xbaf6825a	-0.0018807158
157	0x3c8d6dc7	0.01726426
158	0x3b48a820	0.0030617788
159	0x3e72b9d1	0.23703696
160	0xbd83e976	-0.064410135
161	0xbd9c4388	-0.07630068
162	0xbbd94897	-0.006630968
163	0xbd3c300a	-0.04594425
164	0x3d40bb2d	0.047053505
165	0xbcc2ca6e	-0.023778167
166	0xbd25287a	-0.040321805
167	0xbc992a52	-0.018696938
168	0x3bd7c494	0.0065847132
169	0xbf73581d	-0.95056325
170	0xbd3985b3	-0.04529352
171	0xbb9bc9cf	-0.004754282
172	0x3c4c147a	0.012456054
173	0xbda31d4c	-0.07964572
174	0xbcc2936a	-0.023751933
175	0x3c9ca5e6	0.019122075
176	0xbcd12f68	-0.0255353
177	0xbd8f11c7	-0.06985813
178	0xbbe9095b	-0.007111711
179	0x3decd69c	0.11564371
180	0xbd430723	-0.047614228
181	0xbd976754	-0.07392755
182	0x3e6e331b	0.23261683
183	0xbd3e3472	-0.046436734
184	0xbd8e4654	-0.06947008
185	0xbc18592e	-0.009298606
186	0xb83de742	-4.5276487e-05
187	0xbd4cc230	-0.04998988
188	0x3cd9fcc1	0.02660978
189	0xbda0735d	-0.07834504
190	0x3cdefb93	0.02721957
191	0xbd8536d3	-0.065045975
192	0x3d56cd44	0.05244185
193	0x3a97220d	0.0011530534
194	0x3d11a4e4	0.035557643
195	0xbce118e8	-0.027477697
196	0x3c7da65e	0.01548156
197	0xbb16dfa5	-0.0023021486
198	0x3cab18ea	0.020885903
199	0x3b969960	0.0045959204
200	0xbd52c1f3	-0.051454496
201	0xbd7140f4	-0.058899835
202	0x3e5df132	0.2167404
203	0xbd8b83f7	-0.0681228
204	0xbd3e4f68	-0.046462446
205	0xbd8ed79d	-0.06974719
206	0xbd8454f7	-0.06461518
207	0xbc9ec518	-0.019381091
208	0x3cac37a6	0.021022629
209	0xbda31d7a	-0.079646066
210	0xbd584e98	-0.052809328
211	0xbcf057ce	-0.029338744
212	0xbd6d9d68	-0.058011442
213	0xbd02589a	-0.03182278
214	0xbd4484fc	-0.047978386
215	0xbd8c8ad0	-0.06862414
216	0x3e814cc4	0.2525388
217	0x3c9b3037	0.018943889
218	0x3cdb79b2	0.026791427
219	0xb9e56900	-0.00043756515
220	0xbd48f40b	-0.049060863
221	0x3c1576cb	0.009122561
222	0xbc40ef92	-0.011775868
223	0x3d569985	0.0523925
224	0x3e8e7be0	0.27828884
225	0xbd18548a	-0.037189998
226	0xbb1ba255	-0.002374788
227	0xbc777fc4	-0.015106145
228	0x3ce78ed1	0.028266342
229	0x3e83e687	0.25761816
230	0xbb1c23b0	-0.0023824982
231	0x3c54cefd	0.012988803
232	0x3d7320de	0.059357516
233	0xbd6352d0	-0.055498898
234	0x3e5ee321	0.2176633
235	0x3cb4a232	0.022049997
236	0x3e1f3722	0.15548375
237	0x3ccca97c	0.02498316
238	0x3c708458	0.014679991
239	0xbcaa537b	-0.02079176
240	0xbc77197d	-0.0150817605
241	0xbbee5e42	-0.00727442
242	0x3cac0da1	0.021002593
243	0x3e99cbce	0.30038303
244	0xbda87ab8	-0.08226532
245	0x3a693ad3	0.000889701
246	0xbd469b3d	-0.04848789
247	0x3a46c899	0.0007582992
248	0x3c956282	0.018235449
249	0x3d196408	0.037448913
250	0x3d60edfc	0.05491446
251	0x3d2d1073	0.042252015
252	0xbd83cd03	-0.06435587
253	0xbcdf8aab	-0.027287802
254	0xbd317abe	-0.043329947
255	0x3d4a34c1	0.049366716

l3.weight f4 [256, 256]
0	0x3dc928b9	0.0982222
1	0x3c161e86	0.009162551
2	0x3d55155a	0.052022316
3	0x3b56cc16	0.0032775453
4	0x3d82d3fb	0.06388088
5	0x3c03e96c	0.008051258
6	0xbd05932a	-0.03261105
7	0xbd1d14ec	-0.03835003
8	0x3ba14778	0.00492185
9	0xbd154496	-0.03644236
10	0x3d00e4f9	0.031468365
11	0x3d355423	0.044269692
12	0x3d88a0c7	0.06671291
13	0xbd497d6c	-0.049191877
14	0xbc2e2f05	-0.0106313275
15	0xbd641ff6	-0.055694543
16	0xbc017212	-0.007900732
17	0x3d0569b2	0.032571502
18	0x3d646a41	0.055765394
19	0x3cc1e86d	0.0236704
20	0x3c1a9b51	0.009436444
21	0xbcf4d0c0	-0.029884696
22	0xbccfec65	-0.025381276
23	0xbcb6607c	-0.022262804
24	0xbd545a87	-0.051844146
25	0x3d47f660	0.048818946
26	0xbcb2100f	-0.021736173
27	0xbd15f653	-0.036611866
28	0xbd2d69a4	-0.042337075
29	0xbcf95c51	-0.030439528
30	0x3cb09e32	0.021559808
31	0x3cad618d	0.02116468
32	0x3b5a8bd8	0.0033347514
33	0xbc3e7caa	-0.011626402
34	0xbbb503f4	-0.005524153
35	0x3d2ef9ad	0.042718578
36	0xbca40cd2	-0.020025644
37	0x3cb62315	0.022233525
38	0xbb9760ba	-0.004619685
39	0x3b70cbba	0.0036742524
40	0xbd4d91f8	-0.050188035
41	0x3d7410d0	0.059586346
42	0xbd7f4995	-0.062326033
43	0xbcce9bd8	-0.025220796
44	0xbd1068e5	-0.035256285
45	0x3b9738f5	0.004614944
46	0x3c096c08	0.008387573
47	0xbd1fb2bc	-0.038988814
48	0x3d8b65b9	0.068065114
49	0xbd61682d	-0.05503099
50	0x3c91079d	0.017703826
51	0xbcee6094	-0.029098786
52	0x3d942f13	0.07235541
53	0xbccece69	-0.025244908
54	0x3d3fa976	0.04679247
55	0x3e03e6f5	0.12881072
56	0xbcd1fd02	-0.025633339
57	0x3b9b82e9	0.0047458303
58	0xbd00e23c	-0.031465754
59	0x3cf4bad4	0.029874243
60	0xbc822ee0	-0.015891492
61	0xbd24c33c	-0.040225253
62	0xbc43670b	-0.011926423
63	0x3d539928	0.051659733
64	0x3d6175c2	0.055043943
65	0x3d663db1	0.056211177
66	0x3c84c830	0.016208738
67	0xbca67da4	-0.020323582
68	0xbd096c6c	-0.033550665
69	0x3dd5dc6d	0.104424335
70	0xbda86ec6	-0.08224253
71	0xbcbd7c90	-0.023130685
72	0x3dd0b6dc	0.10191128
73	0xbc6e86c2	-0.014558496
74	0x3d56fe28	0.052488476
75	0xbc243966	-0.0100234505
76	0xbc9e915c	-0.019356422
77	0x3cdc9641	0.026927115
78	0x3d579c7c	0.05263947
79	0xbce016e9	-0.027354674
80	0xbcf29b1d	-0.02961498
81	0xbc9c27b3	-0.019061899
82	0x3bb96f18	0.0056589954
83	0xbd0d9e5c	-0.03457485
84	0x3d168139	0.03674433
85	0x3d899e49	0.067196436
86	0xbc8715a7	-0.016489817
87	0x3c76a2d8	0.015053473
88	0xbd4f8014	-0.050659254
89	0x3d09b4a3	0.033619534
90	0x3d144743	0.036200773
91	0xbcea1dbe	-0.028578635
92	0x3cc4b270	0.024010867
93	0xbbf0e996	-0.0073520644
94	0xbc537f7e	-0.0129088145
95	0x3d1b9aee	0.03798955
96	0xbda28002	-0.07934572
97	0xbd1a6029	-0.03768936
98	0x3d202073	0.039093446
99	0x3d0edb86	0.034877323
100	0xbd2c0a92	-0.042002268
101	0x3de1bf55	0.11022822
102	0x3d358822	0.04431928
103	0x3dc2409b	0.09484979
104	0x3d148320	0.036257863
105	0xbc2599ef	-0.010107501
106	0xbc6b6eb5	-0.014369656
107	0x3c06d602	0.008229734
108	0x3d48b6c8	0.04900244
109	0x3d436f2d	0.047713447
110	0x3d55fa8e	0.0522409
111	0x3bc61aeb	0.0060456893
112	0x3bb1fc89	0.005431716
113	0x3b04631a	0.002020067
114	0xbb8002d1	-0.0039065857
115	0x3be0e1c8	0.0068628527
116	0xbd287ad7	-0.041132774
117	0x3d5297e5	0.05141439
118	0xbd01fb23	-0.031733643
119	0xbd2b3ac5	-0.041804094
120	0x3d5a666f	0.053320345
121	0xbbb70db7	-0.0055863517
122	0x3de44017	0.11145037
123	0x3cf4c374	0.029878356
124	0xbce19d37	-0.027540786
125	0xbc04dab8	-0.008108787
126	0x3da53ee8	0.08068639
127	0x3c8698e6	0.01643033
128	0x3cd29b1f	0.025708733
129	0x3c9e302c	0.01931008
130	0xbd21e33f	-0.03952336
131	0x3d4fdc3d	0.050747145
132	0x3cfd2c38	0.030904874
133	0xbd3bae85	-0.04582073
134	0x3d62a3ca	0.055331983
135	0xbc6ce61b	-0.014459158
136	0xbcf0a5fb	-0.02937602
137	0xbc0dd73e	-0.008657275
138	0xbd5f421b	-0.054506402
139	0x3dc73765	0.097273625
140	0x3c98580a	0.018596668
141	0x3b44afa5	0.003001192
142	0xbd33eac6	-0.04392507
143	0x3cdf7347	0.027276648
144	0xbd6bc89f	-0.057564374
145	0xbb950ae5	-0.004548418
146	0x3d83df17	0.064390354
147	0x3cd85b86	0.02641083
148	0xbd3993a2	-0.04530681
149	0x3a704642	0.00091657427
150	0xbd812b13	-0.06307044
151	0xbca304a2	-0.01989967
152	0xbd645fbe	-0.05575537
153	0xbdff184e	-0.124558076
154	0x3d545500	0.051838875
155	0xbd5da3f6	-0.054111443
156	0xbd06c9ca	-0.032907285
157	0x3d5ad891	0.05342919
158	0xba8ce140	-0.0010748282
159	0x3dc47836	0.09593241
160	0xbd03638f	-0.03207737
161	0x3b1b3114	0.0023680376
162	0xbd32d8db	-0.04366384
163	0xbd118968	-0.03553143
164	0xbcc2739d	-0.02373677
165	0x3ca7b7b9	0.020473348
166	0xbc32312c	-0.010875981
167	0x3cce701e	0.025199946
168	0x3d9b3459	0.07578344
169	0x3df7236a	0.120673016
170	0x3c91a635	0.017779449
171	0x3d9fe713	0.07807746
172	0xbd1295c1	-0.035787348
173	0x3d4dc20a	0.05023388
174	0xbd2f620f	-0.042818125
175	0x3ca2e564	0.019884773
176	0xbc00df40	-0.007865727
177	0x3d1f6172	0.03891129
178	0x3cf767eb	0.03020092
179	0x3c6a30cb	0.01429386
180	0xbb6029a5	-0.003420451
181	0x3d16dc06	0.036830924
182	0x3e025dec	0.12731141
183	0x3d7c3cd0	0.061581433
184	0xbd89c0a6	-0.06726198
185	0xbc69914f	-0.014255836
186	0x3d20badc	0.039240703
187	0xbd7efc94	-0.062252596
188	0x3ca31a7b	0.019910088
189	0x3d50b7a4	0.050956383
190	0x3d158b2d	0.03650968
191	0xbca9206b	-0.02064534
192	0xbcf88ee7	-0.030341579
193	0xbd293283	-0.041307937
194	0xbd6408f5	-0.055672605
195	0x3c038ea8	0.008029617
196	0x3d34804f	0.044067677
197	0x3d434f1c	0.047682866
198	0x3c16ccde	0.009204118
199	0x3d55933c	0.052142367
200	0x3d5fae57	0.054609623
201	0x3cf8d47b	0.030374756
202	0xbd840048	-0.06445366
203	0xbd1dfc66	-0.038570784
204	0x3ce721b1	0.028214308
205	0x3c9ab8aa	0.018886883
206	0xbd287fc2	-0.041137464
207	0x3d93e62a	0.07221635
208	0x3cdcdfd4	0.026962198
209	0xbc8c362c	-0.017115675
210	0x3cd72960	0.026264846
211	0x3c7218b9	0.014776402
212	0xbb86262e	-0.004093907
213	0x3d1ea185	0.038728256
214	0xbb1206f7	-0.0022281983
215	0xbc030d83	-0.007998827
216	0x3dbb254d	0.09137974
217	0x3bfbaa5b	0.00768022
218	0xbd27efaf	-0.041000064
219	0x3c96b20f	0.018395452
220	0xbd42f872	-0.047600217
221	0xbd2b73d2	-0.0418585
222	0xbc00680e	-0.007837309
223	0x3dc7b5b8	0.09751457
224	0x3d9655a7	0.07340556
225	0x3d65480a	0.055976905
226	0xbd4b9bc8	-0.04970911
227	0xbd0f4f1a	-0.034987547
228	0x3d74ed9e	0.059796922
229	0x3dc08845	0.09400991
230	0x3d5904ed	0.052983213
231	0xbcb832bf	-0.022485135
232	0xbcf192ee	-0.029489007
233	0x3cac7777	0.021053059
234	0x3da17090	0.07882798
235	0xbdbfd4f6	-0.09366791
236	0x3d8adc38	0.06780285
237	0x3d128b32	0.03577728
238	0xbd324bf1	-0.043529455
239	0xbceb7876	-0.028743964
240	0x3b9f90bb	0.004869548
241	0xbcd0d4b2	-0.025492046
242	0xbd4b4031	-0.049621765
243	0xbe06d535	-0.1316727
244	0x3d9c2378	0.076239526
245	0x3c729c06	0.014807707
246	0xbce0a269	-0.027421193
247	0xbc8e27c4	-0.017352946
248	0x3c719280	0.014744401
249	0x3bc491f0	0.0059988424
250	0xbafa285d	-0.0019085516
251	0xbc9d8f26	-0.019233298
252	0xbd28b70f	-0.041190203
253	0x3d12e686	0.035864376
254	0x3c9940e4	0.0187077
255	0xbd33a7d2	-0.043861218

l3.bias f4 [256]
0	0x3eb1d2ca	0.34731132
1	0x3c1f0bd0	0.009707406
2	0xbc7cc728	-0.015428342
3	0x3dc6d879	0.09709258
4	0x3d1cd06e	0.03828471
5	0xbd9e2fcc	-0.0772396
6	0xbd2a3261	-0.04155195
7	0x3c32cfe8	0.0109138265
8	0x3d6b0db9	0.057386134
9	0xbd8a4575	-0.06751529
10	0x3e020a7f	0.12699316
11	0xbc331773	-0.010930884
12	0x3d143ad1	0.036188904
13	0x3df841f9	0.12121958
14	0x3eb3c8be	0.35114092
15	0xbd9d3e1c	-0.07677862
16	0x3ca101fe	0.01965427
17	0xbd83b144	-0.06430295
18	0x3d11c690	0.035589755
19	0x3eb38107	0.35059378
20	0xbd19a8c5	-0.037514467
21	0xbd144d10	-0.036206305
22	0x3c51a9fa	0.012796873
23	0x3c3e5458	0.011616789
24	0xbc9b91a9	-0.018990355
25	0x3ade10b9	0.001694224
26	0xbd630b29	-0.055430565
27	0x3c0216dc	0.00794002
28	0x3cb529e7	0.022114707
29	0x3e3cb0e0	0.18426847
30	0x3e0286c3	0.1274672
31	0x3ce7065f	0.02820128
32	0xbc020ee7	-0.007938123
33	0x3d7b2c2e	0.06132143
34	0xbc2878a5	-0.01028267
35	0x3d24969c	0.040182695
36	0xbcc2a00f	-0.023757963
37	0x3eca71bd	0.395399
38	0x3b6abb8e	0.0035817358
39	0xbd4a6d92	-0.0494209
40	0x3d8cc4a9	0.068734474
41	0xbb814456	-0.003944914
42	0x3e2f3614	0.17110473
43	0x3d2a5662	0.041586287
44	0xbd00fb2e	-0.031489544
45	0xbd3ad266	-0.045610808
46	0x3d83a241	0.06427432
47	0x3ee09cf0	0.43869734
48	0xbca67615	-0.020319978
49	0xbbd00ee8	-0.006349433
50	0xbb9b4e98	-0.0047395937
51	0x3eb40a11	0.3516393
52	0x3cf51bb0	0.029920429
53	0x3cfe15fb	0.03101634
54	0xbd2b23b9	-0.041782115
55	0x3df65ac5	0.12029032
56	0x3df5a2f6	0.11993973
57	0xbcfde472	-0.03099272
58	0x3d1ef731	0.03880996
59	0x3d16995c	0.03676735
60	0x3e8e3c54	0.27780402
61	0xbd1de4d7	-0.038548317
62	0xbd953837	-0.07286113
63	0xbd0002d6	-0.031252705
64	0xbd5bbe20	-0.053648114
65	0x3d225ed2	0.03964121
66	0xbc68e919	-0.014215731
67	0x3d653938	0.05596277
68	0xbc7a4a4b	-0.015276502
69	0x3cfc50cd	0.030800248
70	0x3dd07b71	0.101797946
71	0xbda6f0e7	-0.08151417
72	0xbd261273	-0.04054494
73	0x3e814f6a	0.252559
74	0x3d1e53e6	0.03865423
75	0xbc1c15ae	-0.009526653
76	0xbca9c354	-0.020723023
77	0x3ece88b8	0.40338683
78	0x3e46a904	0.19400412
79	0xbd811b8f	-0.063040845
80	0xbd037aab	-0.032099407
81	0xbd6fe0f6	-0.05856415
82	0x3ccfe349	0.025376933
83	0xbd81a27e	-0.06329821
84	0xbbd67548	-0.0065447427
85	0x3d45c372	0.048282094
86	0xbd6e3d9e	-0.05816423
87	0x3e180694	0.1484626
88	0x3d93ccd3	0.072168015
89	0x3d2e913a	0.042618968
90	0x3e108dbf	0.14116572
91	0xbd34454e	-0.044011407
92	0x3b9db9c9	0.004813407
93	0xbd3f94d3	-0.04677279
94	0xbd41d5ad	-0.047322918
95	0x3ce5b7f9	0.028041827
96	0xbc80b4a6	-0.01571114
97	0xbddee89b	-0.1088421
98	0xbc379e60	-0.011207193
99	0x3d754ad6	0.059885822
100	0x3dfcf519	0.12351436
101	0xbd7934f6	-0.060841523
102	0xbb875d5a	-0.0041310014
103	0x3ebbaa73	0.3665348
104	0x3bc48d92	0.005998322
105	0x3d335b80	0.043788433
106	0xbda18384	-0.07886413
107	0xbd4a5b0f	-0.049403246
108	0xbd2492f5	-0.04017921
109	0x3c8ca3fc	0.017168038
110	0x3c9c6894	0.019092835
111	0x3c99efb1	0.018791052
112	0x3d0dde98	0.03463611
113	0x3ce7c302	0.02829123
114	0xbcfaf187	-0.030632747
115	0x3eb59648	0.35466218
116	0xbd1505ad	-0.036382366
117	0xbce89121	-0.028389515
118	0xbd26566e	-0.04060977
119	0xbdb63162	-0.08896138
120	0xbd3818be	-0.04494547
121	0x3d1a549f	0.037678357
122	0xbd2e51ec	-0.042558596
123	0x3d0f7f1e	0.035033338
124	0x3cedd5b9	0.029032575
125	0xbc17f051	-0.0092736045
126	0xbd187386	-0.037219547
127	0xbd2ab30e	-0.041674666
128	0x3d54bee0	0.051939845
129	0xba7676fd	-0.0009401886
130	0xbd6e97b9	-0.058250163
131	0xbb901a60	-0.0043976754
132	0xbd097880	-0.033562183
133	0xbbc225d7	-0.005924921
134	0x3ce13f11	0.027495893
135	0xbc1612fa	-0.009159798
136	0xb9ca9a00	-0.0003864318
137	0xbd1ba826	-0.038002156
138	0x3c206515	0.009789725
139	0x3c06a78e	0.008218659
140	0xbd1299ab	-0.03579108
141	0x3d2cd0ae	0.0421912
142	0x3caa3c5f	0.02078074
143	0xbd836e37	-0.06417506
144	0x3c6e8ca1	0.014559896
145	0x3ec20e1d	0.37901393
146	0x3e979db6	0.2961251
147	0xbd26d8f4	-0.040734246
148	0x3d4043b4	0.046939567
149	0xbd67d62a	-0.056600727
150	0xbca9151a	-0.020639945
151	0xbbcc5136	-0.006235267
152	0x3c011130	0.007877633
153	0xbd1a9b23	-0.037745606
154	0xbdaef1f9	-0.08542246
155	0xbcb929a4	-0.022602864
156	0x3cb27d50	0.02178827
157	0xbd127980	-0.035760403
158	0xbd212e02	-0.039350517
159	0xbc975415	-0.01847271
160	0xbda91f47	-0.08257919
161	0x3d4921a4	0.049104348
162	0x3c345707	0.011007077
163	0x3cfb57c3	0.030681496
164	0xbd0619d6	-0.032739483
165	0xbd8b80b0	-0.068116546
166	0xbd5a5016	-0.053299032
167	0x3e4b4ffc	0.1985473
168	0x3d3d63cc	0.04623775
169	0x3c026368	0.007958271
170	0xbbf13edf	-0.007362231
171	0x3d22f686	0.039785884
172	0x3a390d95	0.0007059214
173	0xbd4a668c	-0.049414203
174	0x3cc5b581	0.0241344
175	0x3df332b9	0.11874909
176	0x3eaaad70	0.33335447
177	0xbb8d547e	-0.004313051
178	0xbcd854d4	-0.026407637
179	0x3d742858	0.059608787
180	0xbd96a2ec	-0.07355294
181	0xbc54b938	-0.012983613
182	0xbbb34ecf	-0.005472041
183	0xbd471ffa	-0.04861448
184	0x3d09a643	0.033605825
185	0x3cf9cda3	0.030493563
186	0xbd18899f	-0.03724062
187	0xbd410a10	-0.047128737
188	0x3d5e7880	0.054314137
189	0x3cefc100	0.029266834
190	0x3d1e86ad	0.038702656
191	0x3d5cd2b2	0.053911872
192	0xbd95e4c4	-0.07319024
193	0xbd6dab8c	-0.058024928
194	0x3ca80aee	0.020513024
195	0xbd269ef1	-0.040678922
196	0xbc4b2418	-0.012398742
197	0x3d5713d3	0.05250914
198	0xbc6db581	-0.014508606
199	0x3b3f924d	0.002923149
200	0xbd18a386	-0.037265323
201	0xbb0f77fc	-0.0021891585
202	0xbd53f159	-0.05174384
203	0xbd3b5e0a	-0.04574398
204	0xbcc18ac9	-0.023625748
205	0x3ed26bc4	0.41097844
206	0xbd230bf8	-0.039806336
207	0xbca19e74	-0.019728877
208	0x3c92e598	0.017931744
209	0xbd2f0d62	-0.042737372
210	0xbd549742	-0.051902063
211	0xbc1bbaa4	-0.009504948
212	0xbc0c400b	-0.008560191
213	0xbd8317e1	-0.06401039
214	0xbc8ebbb6	-0.017423492
215	0x3e9b8447	0.30374357
216	0x3ea9e597	0.33182976
217	0x3d112e24	0.035444394
218	0xbd4903b2	-0.04907579
219	0xbd59f112	-0.05320842
220	0x3e15803d	0.145997
221	0xbd29ac49	-0.04142407
222	0xbd20d3fa	-0.039264657
223	0xbd144d3c	-0.03620647
224	0x3d72746b	0.059193056
225	0x3d412136	0.047150813
226	0x3c373fbc	0.011184629
227	0xbcac8240	-0.021058202
228	0x3d3019f2	0.042993493
229	0xbc64be56	-0.013961395
230	0x3c86519b	0.016396334
231	0xbd193a24	-0.037408963
232	0xbd85daf0	-0.065359
233	0xbc3652a4	-0.0111281015
234	0xbd4354f0	-0.047688425
235	0xbca93414	-0.020654716
236	0xbd2f23ab	-0.042758625
237	0x3d343352	0.043994255
238	0x3c812138	0.01576291
239	0x3d15083b	0.036384802
240	0xbd5491ff	-0.051897045
241	0x3d7a09ee	0.061044626
242	0x3dec6379	0.115424104
243	0xbce34b00	-0.027745724
244	0x3cc66397	0.02421741
245	0x3d842df8	0.0645408
246	0xbd9a2876	-0.075272486
247	0x3e0d49cd	0.13797684
248	0x3c9779ae	0.018490639
249	0x3d48b911	0.049004618
250	0x3e0327e1	0.12808181
251	0xbd085544	-0.03328444
252	0xbca92d4e	-0.020651486
253	0xbc95ae4c	-0.018271588
254	0x3c869652	0.0164291
255	0x3c88e3b8	0.016710147

l4.weight f4 [1, 256]
0	0x3db3c007	0.08776861
1	0x3cc16804	0.023609169
2	0xbd359e48	-0.044340402
3	0xbbed49fd	-0.007241486
4	0x3c85c238	0.016327962
5	0xbcb788d0	-0.022404104
6	0xbcb7456f	-0.022371976
7	0x3c142b18	0.0090434775
8	0x3cb18cfd	0.021673674
9	0xbc13f3e2	-0.009030314
10	0x3b82c06e	0.0039902246
11	0xbc2d92ec	-0.010594111
12	0xbd2902db	-0.04126249
13	0xbcc30071	-0.023803921
14	0x3dd30a1a	0.10304661
15	0xbd017f47	-0.03161552
16	0x3791d91c	1.7386446e-05
17	0x39863b0a	0.0002560246
18	0xbcc0b850	-0.023525387
19	0x3d996bff	0.07491302
20	0x3c815c49	0.015791075
21	0xbc2ecd68	-0.01066909
22	0x3ccc4b02	0.02493811
23	0xbc437bc8	-0.011931367
24	0xbca70294	-0.020386972
25	0x3c1f7288	0.009731896
26	0xbc75d211	-0.015003697
27	0x3c95d19f	0.018288432
28	0xbcd4c23b	-0.025971523
29	0xbadae874	-0.0016701357
30	0x3b76a0af	0.0037632396
31	0xbd508e3b	-0.05091689
32	0xbc806763	-0.015674299
33	0x3d1872dc	0.037218913
34	0xbc1562f5	-0.0091178315
35	0x3d0765e8	0.03305617
36	0xbcb8fc28	-0.022581175
37	0x3db8d9ac	0.090258926
38	0xbd264390	-0.040591776
39	0xbabbe65b	-0.0014335619
40	0xbc9bf910	-0.01903966
41	0x3a5e0865	0.0008469879
42	0xbcb13ed2	-0.0216364
43	0xbd178806	-0.036994956
44	0xbd7e04a3	-0.06201614
45	0xbc2293f8	-0.009922974
46	0xbb8a136e	-0.004213742
47	0x3db61739	0.08891148
48	0xbcc7c0a2	-0.024383847
49	0xbd14a529	-0.03629032
50	0xbd73ec69	-0.05955163
51	0x3dc9f05f	0.098603
52	0xbb34e9db	-0.002760521
53	0xbb18a62d	-0.0023292408
54	0x3c83abf6	0.016073208
55	0xbb7bd64f	-0.0038427298
56	0xbb15aedb	-0.0022839818
57	0xbd464010	-0.04840094
58	0xbc58a7d4	-0.013223607
59	0xbcc334c6	-0.023828875
60	0x3d0fa265	0.03506698
61	0xbcf90c1e	-0.030401286
62	0xbc53a152	-0.01291688
63	0x3cc349ed	0.023838961
64	0xbc680d24	-0.014163289
65	0xbc45f94f	-0.012083366
66	0x3b96016c	0.004577806
67	0x3bf6cc8c	0.007531708
68	0xb9b17b6e	-0.00033852033
69	0x3b6c296b	0.003603543
70	0xbc9a1bbd	-0.018812055
71	0xbc0807fa	-0.008302683
72	0xbc471ba8	-0.01215259
73	0xbc983ffb	-0.018585196
74	0xbd1201ea	-0.035646357
75	0xbcab5649	-0.020915167
76	0xbd4abb4c	-0.049495026
77	0x3d9a4a69	0.07533724
78	0xbcf14874	-0.029453494
79	0xbcffd165	-0.031227777
80	0xbcbfeb42	-0.02342761
81	0xbd620d87	-0.055188682
82	0x3c23a96d	0.009989125
83	0xbc951b79	-0.018201577
84	0xbb7a18ba	-0.003816171
85	0xbd1b80d6	-0.037964664
86	0x3ca1e8f4	0.019764401
87	0xbc51f2c8	-0.012814231
88	0xbb116828	-0.0022187326
89	0x3c327841	0.010892929
90	0xbb86ee15	-0.004117737
91	0xbc6f80c0	-0.014618099
92	0xbd26605a	-0.04061923
93	0xbcaf1353	-0.02137152
94	0x3d338caf	0.04383534
95	0x3c7de7e0	0.015497178
96	0x39f728d4	0.0004714193
97	0x3bb34845	0.0054712617
98	0x3cb66d20	0.022268832
99	0xbd276ffc	-0.04087828
100	0xbc7c1777	-0.015386454
101	0xbcb3c715	-0.021945516
102	0xbd079d87	-0.033109214
103	0x3d875631	0.066082366
104	0xbb283fd9	-0.0025672822
105	0xbc5cbff1	-0.013473497
106	0x3b375caf	0.0027978828
107	0xbd1acca2	-0.03779281
108	0xbb6aca73	-0.0035826236
109	0xbc70d368	-0.014698841
110	0x3c0e2ee0	0.008678168
111	0xbb0e26cb	-0.0021690603
112	0x3c24b9b7	0.0100540435
113	0xbb413c2a	-0.0029485323
114	0xbcfe15be	-0.031016227
115	0x3ddf4da9	0.109034844
116	0xbbaeeb39	-0.0053380993
117	0x3c65170e	0.013982547
118	0xbc972313	-0.018449342
119	0xbc3a4f25	-0.011371409
120	0x3d024f52	0.031813927
121	0xbc19fc75	-0.009398569
122	0x3b64c606	0.003490807
123	0xbd5b7be6	-0.053584956
124	0x3bc6773d	0.006056695
125	0xbcbd9d58	-0.023146316
126	0xba2bf226	-0.0006559215
127	0xbd0e8463	-0.034794223
128	0x3cc29930	0.023754686
129	0xbcd5d091	-0.026100429
130	0x3c1d04ec	0.009583693
131	0x3ca07a1c	0.019589476
132	0x3b9fb97c	0.0048744064
133	0xbd1c7e90	-0.038206637
134	0xbcb946a0	-0.022616684
135	0xba874c31	-0.001032239
136	0x3d3f109e	0.046646707
137	0x3d59168e	0.053000025
138	0x3ca2f63f	0.01989281
139	0xbd90057b	-0.07032295
140	0xbc6ab6d4	-0.014325816
141	0x3c031c0c	0.008002292
142	0xbce6c949	-0.028172152
143	0x3d0c9116	0.034318052
144	0xbd8295d2	-0.06376232
145	0x3da88efe	0.082303986
146	0x3d8942a5	0.067021646
147	0xbab6fc99	-0.0013960778
148	0x3c97f200	0.018548012
149	0xbce0cf2c	-0.027442537
150	0xbccbd326	-0.024880957
151	0x3bcbeb01	0.006223083
152	0x3cb7271a	0.022357512
153	0xbd1a566b	-0.03768007
154	0x3aa18501	0.0012322963
155	0x3d0a4cee	0.033764772
156	0xbcfb9f95	-0.030715743
157	0x3ce73ba4	0.028226681
158	0x3b63ef2e	0.0034780013
159	0xbb532654	-0.003221889
160	0xbbd97366	-0.006636071
161	0xbce9d262	-0.028542701
162	0x3c809e4a	0.015700478
163	0xbcee9688	-0.029124513
164	0xbd32caf1	-0.04365057
165	0xbd317253	-0.04332192
166	0xbad07a40	-0.0015905574
167	0xbc150026	-0.009094274
168	0x3ccf7804	0.025325783
169	0xba8e8971	-0.0010874701
170	0xbd020e31	-0.031751815
171	0xbcea13ac	-0.028573833
172	0xbc4d6cf9	-0.012538188
173	0xba2f4900	-0.0006686598
174	0x3c112998	0.008860014
175	0x38946bb7	7.0772534e-05
176	0x3d282526	0.041051053
177	0xbbc4079b	-0.005982352
178	0x3c2c4638	0.010514788
179	0xbd70f858	-0.05883059
180	0x3c80e4f9	0.015734183
181	0x3cbbb68f	0.0229142
182	0x3c65fc0c	0.014037143
183	0x3ceda25e	0.029008087
184	0x3d288f93	0.041152548
185	0x3ba07f97	0.0048980224
186	0xbc745a56	-0.014914116
187	0xbc7f4a09	-0.015581616
188	0x388a320c	6.589675e-05
189	0xbd01b704	-0.031668678
190	0xbc6d7d8b	-0.014495264
191	0x3d51a191	0.051179472
192	0xbca785b4	-0.020449497
193	0x3ca2a4b6	0.01985393
194	0x3cd63ede	0.026153024
195	0xbcebaa16	-0.028767627
196	0x3d1e26ec	0.038611338
197	0xbcdeb606	-0.027186405
198	0xbd2892d6	-0.04115566
199	0x3c562df4	0.0130724795
200	0x3c2205aa	0.009889046
201	0xbcba5d43	-0.022749549
202	0xbaefde39	-0.001830048
203	0xbd49e7e8	-0.04929343
204	0xbc982acd	-0.018575097
205	0x3d8feca9	0.07027561
206	0xbd33fb3a	-0.04394076
207	0x3b6f839a	0.0036546947
208	0xbd2c24c5	-0.042027254
209	0xbd18afcf	-0.03727704
210	0xbcbbacf2	-0.022909615
211	0xbd82b47d	-0.06382082
212	0x3a355487	0.00069171976
213	0xbc7332a9	-0.014843621
214	0xbd472bea	-0.048625864
215	0xbddf7081	-0.1091013
216	0x3dad3a92	0.08458437
217	0x3d16ad1c	0.036786184
218	0x3c722067	0.014778233
219	0x3d20bebc	0.0392444
220	0x3b941f35	0.0045203217
221	0xbb5f01f2	-0.003402826
222	0x3abd6728	0.0014450299
223	0x3d03e8dc	0.032204494
224	0xbb0fb205	-0.0021926176
225	0x3ce7d454	0.028299488
226	0xb9b132bf	-0.0003379788
227	0xbd087b1e	-0.03332054
228	0xbc905398	-0.017617986
229	0xbd2c5510	-0.04207331
230	0xbc8922ba	-0.016740192
231	0x3ca7784e	0.020443108
232	0xbd6218e4	-0.05519952
233	0xbd61fb42	-0.05517126
234	0x3d755930	0.05989951
235	0xbbea91c2	-0.007158489
236	0x3c3fdd0d	0.011710417
237	0xbd3b99ea	-0.04580108
238	0x3b8941b0	0.0041887388
239	0x3bf3c220	0.007438913
240	0x3bb2b2ba	0.005453435
241	0x3d1d127a	0.0383477
242	0xbc5206cb	-0.012819002
243	0x3a501be9	0.0007938729
244	0xbd57c62e	-0.052679233
245	0x3de63b5f	0.11241793
246	0xba9a226d	-0.0011759527
247	0x3bec2be8	0.0072073825
248	0xbd4ff85e	-0.05077397
249	0xbbac8460	-0.005264804
250	0x3b99af27	0.0046900692
251	0xbc0fb89b	-0.008772041
252	0xbc65eea0	-0.014033943
253	0xbd1c6e43	-0.03819109
254	0xbc1b05b1	-0.009461806
255	0xbcb494d9	-0.022043632
