models/GMI_pretrained/GMI_GPM_channel_predictor_24V_ocean.pt (torch, 544272 bytes, 7 tensors)

l1.weight f4 [256, 12]
00000000: 877f 53be 118b 96bd 67c7 853e 00a7 e53b
00000010: 17f4 05be 93e1 3fbe d7d3 7b3e d9fc 823d
00000020: 4858 8cbe 18a0 3abe 0ae4 823d e643 39be
00000030: 3a89 f9bd adca 6e3e a5ac 613e c9e4 d73d
00000040: c307 ebbd 583b 41be b5e8 563e 055b 07be
00000050: 2e25 50be 26f0 5ebe 49da 41be 45e2 8fbe
00000060: a738 003e 7ea2 ed3c 326d 02bc f7a2 f7bc
00000070: 49e6 113e cc63 32be f26a 22be bf67 01be
00000080: d1d6 91bc b223 ea3c 104d 7e3c 24c7 aebd
00000090: bdda 8dbe f9c7 983d ca09 7cbe bc11 293b
000000a0: 744c 87be 692d 9cbd b810 0a3d 664c cfbd
000000b0: 5783 953d 0009 86bc 7b62 883e 06be 363e
000000c0: 5f96 3d3e 1505 983d 461f a23d 7f27 093e
000000d0: 5fde 44be d2ea 503d 9610 7fbe a940 b3bd
000000e0: db07 9cbd 368d c23d 8ef4 413e f9d9 fa3d
000000f0: c29c 3abd 6653 833e 1939 8bbe 3e57 993d
00000100: 27d0 85be 2918 473d 3f4a c4bd 8e6b 93be
00000110: 41c8 8d3e 73d6 0e3e e3c6 873e 1964 34be
00000120: 8e33 2d3e 30a4 4cbe 257b e33d 7791 26be
00000130: c002 4b3b 194d 8abe 913f bdbd 4d4a 153e
00000140: 0d4a 70be 1e17 5a3e ef0d 2dbe 35ed 5c3e
00000150: dbb2 543e 11bb a4be f1b4 7d3e 5fef d23d
00000160: 6445 95bd 0083 58be c404 cc3d 5223 813e
00000170: fb48 9a3d d2bf 863e b8b7 d83d 5de4 09be
00000180: 399a 08be 53fd 80be 1cf7 12be 5265 74be
00000190: fd9b 223e 4e1e 66be 2927 c83d ce1f 22be
000001a0: d600 43bd 8fdd b33d 0f7d ec3d 12f5 243e
000001b0: dfd9 493e 2cd9 d13d e18a 5abe 6f64 7ebe
000001c0: 284b 8dbe 0ccd c93d 51e3 87be 0e20 923e
000001d0: c3ee 483c 9ada 69bd c5f6 553e 803f 053e
000001e0: 1fd2 4ebd 1968 28be 5076 743d ab89 863d
000001f0: b5d5 893e 2d59 8cbe 1642 5fbe acb1 743d
00000200: 239e 44be ec1b 4f3e 9a89 4dbe ae40 24be
00000210: 6430 b13b 4259 1ebe f05f 813e 9a5f 073e
00000220: d26c 56be f0e2 823d 44f2 5bbe dc26 c3bd
00000230: b367 0c3e 679a 53be 00bf 1ebd d1e1 8ebe
00000240: a69e 1dbe 6754 4cbd b469 73bc fd8c 2fbe
00000250: 4461 3fbe 0dc3 84be ab57 93be 4be8 62be
00000260: 0bfa f73d 366d 7dbe 5d76 07be eebf 16be
00000270: c843 25be aed3 e13c 423c 82be f485 3c3d
00000280: 8e31 8dbd e4cb b5bd a886 e3bd 23a0 af3d
00000290: a94e 103e ab51 353e 34e6 bfbd 93ee e93d
000002a0: 44a6 bdbd 7004 b6be 2db4 1e3e 8a6e d43d
000002b0: da55 a33e f3d5 233e 8042 a73d ce73 0abe
000002c0: 2bc9 10be 9ffb 29be c62d 8f3e 5c3a 7ebe
000002d0: ad67 b0be 6ce2 4b3e 5b11 eb3d f757 a1bc
000002e0: a26f 863d 0af4 62be 7fc0 213e 2be6 1dbe
000002f0: 43cd 4f3e d14d 5b3d f9d4 1ebe 4644 ffbd
00000300: 2892 94bd e9e0 8e3e 9832 1abe b4b5 59be
00000310: 2ad0 41be d2e2 c4bd 5ff7 373e 4493 b6bd
00000320: 8ec0 7abe 8653 39be 1cb3 9c3d a21a b2bd
00000330: 0a47 eebd ccf3 82be f208 81be 5c33 433e
00000340: 1973 ee3c 1ac7 6c3d 6b71 443e e295 85be
00000350: e2b3 cebb d1f2 053d 28e3 6bbd 67dd d5bd
00000360: 9778 1ebe b309 6dbe d9b8 8b3e 1ba8 ab3e
00000370: 586b 8c3e 58c9 9cbe f99f a23e 9d04 6ebe
00000380: db60 0e3d 5317 23bd f268 0a3d 6a0d 6cbe
00000390: 54ea a43d de6b 4e3e 4abd 33be 411b c8be
000003a0: 992f 343e 4c95 7d3e 76ac 8ebd 34d3 a03d
000003b0: 8db8 80bd d81c 263e 2c42 f8bd a05b 99bd
000003c0: 9c34 0e3e 647b a5be a1dc 20be 5ab0 3bbc
000003d0: 9d71 b13d 0236 1e3e 4798 a8bd e48b 223e
000003e0: ea19 fc3d 10e2 8fbe 44a4 9b3d a1d2 55be
000003f0: 910e 2abe 4b99 693e f3d3 403e 5cc2 d3be
-0.20654117 -0.073507436 0.26128694 0.0070084333 -0.13081394 -0.18738393 0.24592529 0.06395883
-0.27411103 -0.18225133 0.06391151 -0.18092307 -0.12184377 0.23319502 0.22038515 0.10541684
-0.1147609 -0.18870294 0.20987208 -0.13218315 -0.20326683 -0.21771297 -0.18930925 -0.28102317
0.12521611 0.029008146 -0.0079606045 -0.030229075 0.14248003 -0.17420882 -0.15861109 -0.12637232
-0.017802628 0.028581474 0.015521303 -0.08534077 -0.27705947 0.07460017 -0.24613109 0.0025797924
-0.26425517 -0.07625849 0.03370735 -0.10121994 0.07300442 -0.016361713 0.26637635 0.17845926
0.18514393 0.07422844 0.07916121 0.13393973 -0.19225453 0.051005192 -0.24908671 -0.08752567
-0.07618686 0.0949959 0.18940946 0.12248606 -0.045559652 0.25649565 -0.27192 0.07487343
-0.2613537 0.048607025 -0.09584474 -0.28792995 0.27691844 0.13948993 0.26518926 -0.17616309
0.16914198 -0.19984508 0.11107472 -0.16266428 0.003097698 -0.27011946 -0.0924064 0.14579125
-0.23465748 0.21297881 -0.16899846 0.21574862 0.20771353 -0.3217397 0.24776055 0.10299563
-0.07288626 -0.21143723 0.099618465 0.2522226 0.07533451 0.26318222 0.105819166 -0.1346602
-0.13340081 -0.2519327 -0.14352077 -0.23866776 0.15879817 -0.22472498 0.09773094 -0.15832445
-0.04760822 0.08782493 0.115472905 0.16109112 0.19712017 0.102465004 -0.2134204 -0.24843
-0.27596402 0.09853563 -0.26540616 0.2854008 0.0122639565 -0.05709324 0.20894916 0.13012505
-0.050493356 -0.1644596 0.059683144 0.06569227 0.26920858 -0.27411786 -0.21802554 0.059739754
-0.1920095 0.20225495 -0.20072022 -0.16040298 0.00540738 -0.15463737 0.25268507 0.13220063
-0.20939949 0.06390941 -0.21479136 -0.09528896 0.13711433 -0.20664369 -0.03875637 -0.2790666
-0.15392551 -0.04988518 -0.014856745 -0.17143627 -0.18689448 -0.25930062 -0.28777823 -0.22158925
0.12108239 -0.24748692 -0.13228746 -0.14721653 -0.16139138 0.027566757 -0.25436598 0.046026185
-0.068942174 -0.0887678 -0.11109668 0.085754655 0.14092506 0.17706935 -0.0937008 0.114224575
-0.09260228 -0.3555026 0.15498419 0.10372646 0.31901437 0.15999584 0.08166981 -0.13520738
-0.1413924 -0.16599892 0.2796461 -0.2482695 -0.34454098 0.19910592 0.1147792 -0.019695265
0.06564261 -0.22163406 0.15796088 -0.15419833 0.20293145 0.05354101 -0.1551093 -0.12464194
-0.072544396 0.27905968 -0.15058362 -0.2126072 -0.18927065 -0.09613575 0.17965458 -0.089148074
-0.24487516 -0.18098268 0.0765135 -0.08696486 -0.116346434 -0.25576627 -0.25202137 0.19062561
0.029107617 0.057807066 0.1918389 -0.26090914 -0.006308065 0.03270227 -0.05758968 -0.1044262
-0.15475689 -0.23148231 0.27289465 0.33526692 0.27425647 -0.30622363 0.31762674 -0.23243947
0.034760337 -0.039817166 0.03379149 -0.23051992 0.08052507 0.20158336 -0.17552677 -0.39083293
0.17596282 0.24763983 -0.06966488 0.07852784 -0.062852 0.1622194 -0.12121996 -0.07488179
0.13887256 -0.32320702 -0.15709163 -0.01145562 0.08664248 0.1545029 -0.082321696 0.15873677
0.1230963 -0.2810216 0.075996906 -0.2088113 -0.16607119 0.22812383 0.18830852 -0.41359222

l1.bias f4 [256]
00000000: 4dad 20be 2d2b 7dbe 313b 10bd 3a50 d73d
00000010: 77ea 203c 1b30 e2bd 2e2c 703e 4bd6 7d3e
00000020: ea41 04be e5f3 34be 5d81 013d 8654 8dbe
00000030: b890 8abe d0e2 8a3d 1413 2fbe 711f 28be
00000040: 0c7a a33d 25a1 623e c660 7e3e 70bd 773e
00000050: a911 0fbe 037a ec3d 4972 50be bb23 90be
00000060: 8d0a 2abe de49 64be 7243 e2be 1e24 f8bb
00000070: 77fb d4be 55e6 693e 8637 61be 417f e8bd
00000080: f113 fd3d 1498 323e fcd2 103e e610 723e
00000090: c94b 57bd b45e 7b37 4fe7 a03b b8e0 57be
000000a0: 8da0 37be 4b4c 5a3d 03d1 c3bd 9dba 4fbe
000000b0: 553c 97bd c899 5cbe b5f9 19be cdfc 753e
000000c0: 78ef 13be 9a56 863d e034 f33c 9a82 52bd
000000d0: b9f7 8ebe 23cc 54be b83a 46be c1cf 2cbe
000000e0: 7cf3 6ebe f338 633e 2ea8 c73d 4f30 8f3c
000000f0: 743e 403e 3553 af3c c98f 47be eff5 c5bd
00000100: 4031 b9bc 7df7 873e 3563 6c3e 11d2 7f3e
00000110: e93b 413d d88b 74bd f5b6 80be 9ce1 e13d
00000120: 99f5 823e 77fb 263e 8ba7 8ebe cb0b 71be
00000130: 4daa cf3c 2b3a 013a 4fa2 9a3b 9929 a2bc
00000140: 6128 4a3d c69d 87bd 0819 6dbe 8e5a d3bd
00000150: 0317 3cba 2a9e cc3d 71a1 843e 892d f63b
00000160: 6905 85be e909 363e b394 df3c 8c6e 35bd
00000170: c3e8 8cbe 6413 0f3c 003a 8e3d 2088 2cbe
00000180: aa95 cc3c 42b3 88be 3942 863e 9b85 7f3d
00000190: 6ff3 08be e1e4 dc3d 0a72 18bd 9b04 853d
000001a0: c334 833d 7f18 9a3e 9bd6 ecbc 441c 583d
000001b0: 1680 063e 25b7 7bbe e676 79be d0ef 0e3e
000001c0: 4787 7c3e 80be 0bbe 132f 33be 6141 30be
000001d0: 13d7 84be bb64 97bc 0dd5 db3d 4bd4 d73d
000001e0: ea89 e23d 405a 26be a8a2 173e 9961 083e
000001f0: 884c 55bd 9015 26be 66ae 273c 1698 2ebe
00000200: 1c56 9cbe d5f5 863e e4b7 213e ac4e 3c3e
00000210: 6e02 5abc b74c 5e3e 5ec6 cfbd 5024 f6bd
00000220: ed6d e53d b55f de3d 981d 033e a4a2 093d
00000230: 3288 a83d 6880 373e 33e7 83be 74d6 a23e
00000240: 2175 df3d f058 25be 9766 8e3d 5526 56be
00000250: fb43 673e 9aad c43d 993f 8c3d 10bc 703e
00000260: 1d4c 40bc 6075 3dbe 42b3 acbd eb6f 143e
00000270: c157 783e 8df8 83bc aad0 5fbe fc85 b4be
00000280: dd52 e4bc 08ce ffbc 4f2e 5e3e 1049 293e
00000290: dd19 6fbe 578c 2d3e b810 37be 6791 8f3d
000002a0: dac4 cbbc 2b36 87bd 64af e2bd 0b3b 8ebe
000002b0: 7a87 713c e238 b13d 9ce8 63be 99bc 98bc
000002c0: 97c0 13be d8ab d9bd 7bf7 85be 1a82 4b3d
000002d0: 1384 3c3e 86ef 4e3e a8ae 94be 7f0f 2c3e
000002e0: a603 8ebe cb8f c4bd c718 1dbd e2b0 dd3d
000002f0: ebdc 763d e81f 623e 8496 9dbe 0d27 03be
00000300: a179 a03c cd7a 433e cdd7 6d3e 25b0 813e
00000310: 4747 89be dffa 84bd 7060 76be ff23 013d
00000320: 3e30 3f3d 52ec f73d ea1d c5bd 1c97 11be
00000330: 4e32 803e 7b23 8cbe 431d 673e b308 46be
00000340: 88c3 173e a976 bc3d 6ce9 d7bd 4859 563e
00000350: 0f13 20be 13f3 97bd 8e04 56bd 9816 3f3c
00000360: ce88 0bbf 8a79 943d bfd6 2a3e cd90 90bd
00000370: a38c f9bd c24e 7ab9 75e2 5abe aa98 4a3e
00000380: dedf b1bd d5c0 8abd 8497 21be 8a25 d2bd
00000390: 4e7a 99be a9bc 7fbd 4526 053d 2cab 763b
000003a0: 6ebe 01be 98a7 e6bd df39 1abd 9ebc 05bf
000003b0: 247f c73d 18a2 cabd f965 1cbe 57f9 5d3d
000003c0: c56c 283d 25bc 163e 3cc3 4c3e afb5 f93d
000003d0: 202e df3d 9826 b3bd c6a4 89be 789e 36be
000003e0: 2324 193e bfc5 523e 420c 803e 0dc1 5cbe
000003f0: c8e6 9a3d 54f5 2f3e e671 2d3e 33d2 a4be
-0.15691109 -0.24723502 -0.0352127 0.10513349 0.009821526 -0.11044332 0.23454353 0.24788778
-0.12915769 -0.17671163 0.03161751 -0.2760355 -0.27063537 0.06781542 -0.17097121 -0.16418244
0.07982263 0.22131784 0.24841604 0.24193358 -0.1397158 0.115467094 -0.20356096 -0.2815226
-0.16605587 -0.22293803 -0.44192082 -0.007572665 -0.41598102 0.22841771 -0.21993837 -0.11352397
0.12357319 0.17440826 0.14142984 0.23639259 -0.05256251 1.4982816e-05 0.0049103866 -0.21081817
-0.17932339 0.053295415 -0.0956135 -0.20286031 -0.07384554 -0.21543038 -0.15036662 0.24022217
-0.14446819 0.06559487 0.029688299 -0.051394083 -0.27923372 -0.20780997 -0.19358337 -0.16876127
-0.2333507 0.22189693 0.097488746 0.01747909 0.18773824 0.02140198 -0.19488443 -0.09666049
-0.022606492 0.26556006 0.2308472 0.24982478 0.047176275 -0.059703678 -0.25139585 0.1102936
0.25578 0.16306864 -0.278622 -0.23539655 0.02534976 0.0004929627 0.0047190557 -0.019795226
0.049354915 -0.0662189 -0.2315408 -0.10320006 -0.000717506 0.09991105 0.2590442 0.0075127524
-0.2598069 0.17777218 0.027292585 -0.04429488 -0.27521333 0.00873265 0.06944656 -0.16848803
0.02497371 -0.26699263 0.262224 0.062383275 -0.13374113 0.10785843 -0.03721813 0.06495019
0.06406548 0.30096814 -0.028910926 0.05276133 0.13134798 -0.24581583 -0.24361762 0.13958669
0.24660979 -0.13646889 -0.17498426 -0.1721244 -0.2594534 -0.01848065 0.107339956 0.105385385
0.11061461 -0.16245365 0.14808142 0.1331848 -0.05207494 -0.16219163 0.010234451 -0.17050204
-0.30534446 0.2635943 0.15792805 0.18389386 -0.013306243 0.21708952 -0.101452574 -0.12018645
0.11202607 0.108580984 0.12804258 0.03360237 0.08229102 0.17920077 -0.25762329 0.3180424
0.109110124 -0.16147208 0.06953161 -0.2091306 0.22584526 0.09603424 0.06848068 0.2350924
-0.011736897 -0.18501806 -0.08432628 0.14495818 0.24252225 -0.01610973 -0.21856943 -0.35258472
-0.027871544 -0.031226173 0.21697353 0.16531777 -0.2334971 0.16948067 -0.17877471 0.07010155
-0.02487414 -0.066021286 -0.11068609 -0.2777942 0.014741773 0.08653428 -0.22256702 -0.018644618
-0.14428936 -0.1062848 -0.26165375 0.04968462 0.18409757 0.20208558 -0.29039502 0.16802786
-0.2773716 -0.09597739 -0.038353708 0.10824753 0.060269278 0.22082484 -0.30778897 -0.12807865
0.019589247 0.19089814 0.23226853 0.253297 -0.26812193 -0.06493162 -0.24060225 0.03152847
0.046676867 0.121056214 -0.09624846 -0.142178 0.2503838 -0.2737082 0.22569756 -0.19339256
0.14820683 0.0920232 -0.105425686 0.20932496 -0.1563227 -0.074194096 -0.052250437 0.011663102
-0.5450562 0.07249744 0.16683482 -0.070588686 -0.121850275 -0.00023871197 -0.21375449 0.19784799
-0.086852774 -0.06775061 -0.15780455 -0.10261066 -0.29976124 -0.06243578 0.0325072 0.0037638647
-0.126703 -0.11262435 -0.037652846 -0.5224093 0.09741047 -0.09894198 -0.15273274 0.054192867
0.041119356 0.14720209 0.19996351 0.121928565 0.108974695 -0.087475955 -0.26883525 -0.17833889
0.14955191 0.20583247 0.25009352 -0.21558018 0.07563549 0.17183429 0.1693798 -0.3219162

l2.weight f4 [256, 256]
00000000: a64d 2a3d 0892 543d e629 26bd 5c42 f6bc
00000010: b7da 533d a552 fabc 6102 4ebd 67ce b3bb
00000020: 2bf0 9abc e279 e43c 5cad bfbc ac38 05bd
00000030: d866 783d 61f9 1bbc 7b2d 8ebd e46b 8f3c
00000040: 44b0 7bbd 908f 273c 74f2 6d3e 8c31 b7bd
00000050: a02b 5bbd 5dd0 fa3c fea7 7ebd d1bd f0be
00000060: 484f 2bbd a6d8 9b3c e97e af3c 703c 3dbc
00000070: a47d 683c 04e8 2e3d 0000 e5b7 3025 c237
00000080: be9a 44bd 720d c7bd dcca e8bc 2c61 cf3c
00000090: 588b ac3d 6b6e 1c3d df45 8dbd d6ad 023d
000000a0: e682 343d af28 4dbd 4c56 963c 4446 a33c
000000b0: c230 4abd 5781 0c3b b613 c83c 9776 ac3b
000000c0: bca2 9c3d fd2d 70bd c04e e9bb 2906 273d
000000d0: 040b c73c bc2a b03c 98dd d9bc 1eca 0a3d
000000e0: a775 d83c bd26 0fbd 9ec0 273e ccfd 543c
000000f0: fa47 683d 0437 04bd f7ac f13c 5ad2 353d
00000100: 1d18 c538 6499 5f3c 79a2 743d 2805 6dbc
00000110: 8832 53bd 41c4 80bc 5d08 b13c f475 91bc
00000120: 0b54 78bd 2a72 363e c81d 6fbc 4c71 c53c
00000130: d936 ccbc 12fe 613d 68bf 9e3c 7394 543d
00000140: f053 de3b 3bdb 023d cbb8 1cbd e738 233d
00000150: 5cf5 65bd 79dd 2d3b 5875 4e3d c06f c9bb
00000160: 47f5 6f3c 70c2 86bb f08e 6f3d 76bb 88bd
00000170: 9814 f9bc 7014 b8bc c46d c83c 406d b13a
00000180: da92 9ebb 0242 7d3d e6b3 8bbd a85a 2dbd
00000190: a294 32bd 4eca 6f3d 79c7 543c d63d 6cbd
000001a0: 9e81 063d a7e6 93ba 3cdd 9bbd 209a 51bc
000001b0: eaa6 363d 5c69 4d3d 6482 0b3c 8b1b 4bbe
000001c0: da02 15bb 001e 88bc 0037 993c 18fd 83bd
000001d0: 6a92 573d d625 46bd 2bd0 85bd 2874 8f3c
000001e0: 308f fa3c ac40 013d c4bc d13b 4084 aabb
000001f0: ead6 3fbd b0aa 203c 27b3 5ebb 6cf0 41bd
00000200: 95cc 8ebc ccb9 f3bc 1c68 5abd 7607 253d
00000210: 9c1a 2d3d 7fee 13bc 3ad4 e3bc 589c 23bc
00000220: a79d 8c3c 423d e7bc 0029 ff3c 30a0 5bbd
00000230: dddb 123c 460d 48bd 824d 39bd d2b4 14bd
00000240: d4ff 993c 4bec 70bd 67dc 703d 48d8 13bd
00000250: bdc5 46bd 47a1 9ebd 1262 6dbd 0053 e6bd
00000260: f08a 403c 59d2 ddbc 2bb6 7abd 5a15 8f3c
00000270: 1cc1 b5bc 1a6e 25bd 8c2f 15bd bf5d a3ba
00000280: efe2 f23c 3bf8 fb3c d2f9 363d ca1d 93bc
00000290: 16f3 1f3e 8003 303b a4fa 4bbd 3852 3abe
000002a0: 421e 68be b222 12bd 4c76 b7bc 09d5 40bd
000002b0: 49f4 aaba 2adf 55bd 7efe 71bd 6440 fabc
000002c0: 80e9 ecba bca9 89bd f39b 5d3b fcd4 0cbd
000002d0: 51bf cdbc 100e 75bc a01a acbc fa4c 77bd
000002e0: 1e2e 62bd f057 e23b bc6e a8bc dc98 a53c
000002f0: f8e5 9d3c a72b 14bd a3fd b23b eca0 0b3d
00000300: 8592 1abc 2020 303c 887d 5b3c ab6e 25bd
00000310: 9e31 423d 69e4 803c 98d1 193d 8ac3 843c
00000320: e45e 8b3c 9a76 77bd 48d3 99bc 6199 97bd
00000330: e6e7 6ebc a130 08bd 9a41 30bc 9b77 7f3c
00000340: 9b91 98bc 0692 e8bb 2c21 3fbd 6212 4b3d
00000350: 2a57 6f3d 7253 09bb f045 e7bb 5ad3 e5bc
00000360: 7765 0d3d 5df7 e53c 83e4 f3bc 6695 203d
00000370: 3a31 a6bc 30f0 9bbd ba41 193d aa08 05bd
00000380: b81d e4bc 8a55 103c e812 5dbd 6684 123d
00000390: 426f 9fbc 3c3f 01bd 0d85 a7bc 79ff 5bbc
000003a0: f921 81bb 02c4 4ebd cc04 aa3b e168 b2bc
000003b0: f2bf 0bbd ff38 0b3e dd62 f73c 5045 063d
000003c0: 1a5a 0abd 205b d33b 4002 bbbc 0792 13bd
000003d0: b871 dabc 1fad 113d 7e21 773d e504 87bc
000003e0: 9658 24bd fec6 4cbd 1ec1 ae3c 4cef 0a3d
000003f0: 504f c23b 8c00 0bbd a44c d13c 244e 59bb
0.041577958 0.05189708 -0.0405673 -0.03006094 0.051722255 -0.030556986 -0.050295237 -0.0054872516
-0.01891335 0.02789015 -0.023398094 -0.03252475 0.060644954 -0.009519906 -0.069422685 0.017507501
-0.061447397 0.010227099 0.2323702 -0.08944997 -0.0535084 0.030616933 -0.06217193 -0.47019818
-0.041823655 0.019024204 0.02142282 -0.011550054 0.014190111 0.042701736 -2.7298927e-05 2.3143919e-05
-0.047999136 -0.09719361 -0.028417043 0.02531489 0.08425015 0.03819124 -0.068980925 0.031904064
0.044070147 -0.050087627 0.018351696 0.019930966 -0.049362905 0.0021439397 0.024423461 0.0052631604
0.076482266 -0.058637608 -0.0071199834 0.04077736 0.024297245 0.021504752 -0.026594922 0.03388416
0.026423289 -0.034949053 0.16382071 0.012999963 0.056709267 -0.03227903 0.029501421 0.04439006
9.3981835e-05 0.013647411 0.05972526 -0.014466561 -0.051561862 -0.015718581 0.021610433 -0.01775644
-0.060627025 0.17816988 -0.014594503 0.024101876 -0.024928497 0.05517394 0.019378379 0.051899385
0.0067849085 0.031947356 -0.03826217 0.03984919 -0.056142196 0.0026529713 0.050404876 -0.006147355
0.014645881 -0.004112534 0.058485925 -0.0667638 -0.030405328 -0.022470683 0.024466403 0.0013536587
-0.0048392834 0.061830528 -0.06821422 -0.042322785 -0.04359878 0.058542542 0.012987011 -0.05767616
0.032838456 -0.001128395 -0.076105565 -0.012793094 0.044592775 0.050149307 0.008514974 -0.19834726
-0.0022737295 -0.016615868 0.018702984 -0.06444758 0.052629866 -0.048375927 -0.065338455 0.017511442
0.030585855 0.031555817 0.0064006764 -0.0052037537 -0.046835817 0.00980632 -0.0033981295 -0.047348425
-0.017431537 -0.02975168 -0.053321943 0.04029032 0.042261705 -0.00902903 -0.027811158 -0.009986006
0.017165018 -0.028227452 0.03114748 -0.053619564 0.008963552 -0.048840784 -0.045239933 -0.036305256
0.018798746 -0.058819097 0.058803942 -0.036094934 -0.04852842 -0.07745605 -0.057954855 -0.112463
0.011751875 -0.02707784 -0.061208885 0.017466236 -0.022186808 -0.040388204 -0.036422297 -0.0012463852
0.029649226 0.030758014 0.04467184 -0.01795854 0.15620074 0.0026857555 -0.049799576 -0.18195426
-0.22667792 -0.03567762 -0.022395276 -0.047078166 -0.0013042773 -0.05221478 -0.059080593 -0.030548282
-0.001807496 -0.067218274 0.0033814877 -0.034382805 -0.02511564 -0.014956966 -0.02100879 -0.060376145
-0.055219762 0.0069074556 -0.020560615 0.02021449 0.019274697 -0.036174443 0.0054623648 0.034089014
-0.009434347 0.010749847 0.013396628 -0.040388744 0.0474106 0.015733914 0.0375534 0.016206522
0.01701302 -0.06041584 -0.018777505 -0.074023016 -0.014581656 -0.0332495 -0.010757828 0.015592481
-0.018624118 -0.0070974855 -0.046662495 0.049578078 0.058432736 -0.0020954278 -0.0070578977 -0.028054882
0.034520593 0.028072054 -0.029772049 0.039204977 -0.020287145 -0.076141715 0.037416197 -0.032478966
-0.027846202 0.008809457 -0.05397311 0.035770796 -0.019462232 -0.031554446 -0.020449186 -0.013427609
-0.0039408174 -0.050479896 0.00518856 -0.021778526 -0.0341186 0.13595961 0.030198509 0.032780945
-0.033777334 0.006450072 -0.022828221 -0.036027934 -0.026665553 0.03556549 0.060334675 -0.016481826
-0.040123545 -0.04999446 0.02133232 0.033919618 0.005929865 -0.03393607 0.02554924 -0.0033158148

l2.bias f4 [256]
00000000: 84c7 5c3b c8ec 40bd 45ec 083b d45f e83b
00000010: 69a0 9f3c 1a3b 07bd 2320 27bd 62a4 5dbd
00000020: 0fff 34bd 0968 833d 71bb ef3d 3694 8abd
00000030: 3cf1 97bb a87f 183d b6fb 0c3c 33f6 0d3d
00000040: ed14 5f3d c092 08bb 63b5 a93c 01b7 583d
00000050: 4123 5ebd 7559 093d 8e61 4cbd 43f9 c4bc
00000060: 5920 9abd 6f3e 84bc 46a8 febc b91e 8e3b
00000070: 7e04 053d 5273 133d 111d 6fbb 98f7 75bd
00000080: 5072 89bb 1585 bcbd 68e5 1e3d 2c3c 26bd
00000090: 0547 3939 09e1 2f3d 0ba7 253d 0415 07bd
000000a0: 706f ff3c 58ae bcbd 1a70 9b3d f4ee 10bc
000000b0: 8c31 01bd 324a 4b3d e4af 083d 00e2 f23a
000000c0: adb8 86bd 5987 2f3c 4f14 56bd a0f7 75bb
000000d0: 1867 66bc b4f3 c03c e254 573d b648 4a3c
000000e0: 3183 f93c 70e8 24bc bf81 48bc 8879 2f3c
000000f0: 7723 6d3c b59c cdbb 586b 7d3c e0dd acbd
00000100: b880 6e3c 5adc 28bc fe61 c63c 090d 74bd
00000110: f1ad 583d 0bbd d9bc e8a4 8dba ca0d 133d
00000120: 0428 1fbd 7a8f 81bc acf0 193d 7214 0fbd
00000130: ff18 dabc 80cb debc 7cb5 4fbd b747 4fbd
00000140: 6a7c a7bc 7bfb 4bbc 6781 943a f7e4 c9bc
00000150: 6cfe 1ebd 2fb9 21bd c335 683b 98d7 9fbd
00000160: a08a 7c3c 86e0 2c3d 1273 31bd 5eb2 4cbd
00000170: d0f5 c4bc 5321 d73c 345a e3bc 2d91 c9bd
00000180: de02 19bd 0fc2 96bd faf3 db3b 4743 07bd
00000190: 9320 583d 5b45 5fbb 03dc 6b3d d843 7c3c
000001a0: fe3b 32bd 2cb2 6f3d 2280 78bd 65ca a93d
000001b0: b02e bebb 91b2 4fbe 4a39 a83d 73cc 393d
000001c0: 5d43 afbc 4d44 d0bc c239 1abd d927 82bd
000001d0: 5608 123d 197b 1c3d 3571 0ebb 4edd 8cba
000001e0: 0435 56bc a44c 85bd b500 173c 0005 bfb9
000001f0: 7a41 34be bb26 5a3d f23f 14bd 693d 83bd
00000200: c998 e5bc b0de 96bd 778e 623c 0cee 9ebc
00000210: 49c2 93bd b567 b83c be1e 29bd 3b58 38bc
00000220: c790 39bd dfc8 75bd 11ff 90bc fd24 443d
00000230: 343d 0c3c 8a76 49bd 4e7c ef3c 0161 5a3d
00000240: cc99 fd3c 23c4 cebc 0744 72bd e2b2 df3c
00000250: cd75 e1bc 57ee 9a3c 92e2 69bd e120 173d
00000260: 5019 e83c a4a9 bb3d 231a c1bb b731 0cbd
00000270: 27e8 a3bd 1642 323d 570b 323d 18c3 813c
00000280: 5b13 3fbd b23c eb3d f94b 81bd bccc 69bd
00000290: 174e da3c 7766 6abd 6793 a6bd a12c 103d
000002a0: 48a8 b23c 6d98 153d 37c5 943d e741 3abd
000002b0: 4c52 89bd 1358 f5bb b459 e03b 8ff3 3cbb
000002c0: 2d60 9e3c f3e6 023d ef79 2c3d c07a 8d3c
000002d0: 5788 b8bd 6212 27bd a66c 4c3d 7269 203d
000002e0: 1605 85bd eef7 973a 1a7c bbbc 52e1 8bbc
000002f0: 36a5 27be 89ec 4b3d a501 87bd b00e 4abd
00000300: 1de4 2f3d 4a9a 403c 1f85 3d3b d708 7ebd
00000310: 00df 98bb 1305 e0bb d3a6 57bc e55b 3f3d
00000320: b400 bebb 79d3 043d 2988 acbd 70ab 4abd
00000330: 0094 a93d fdca 17bd c205 95bd feaf 423d
00000340: 38ca 71bd 6ed7 76bd 3999 8cbd 1bd3 d2bb
00000350: a88f 4dbc ad1d 31bd 614c eaba 621c 5ebd
00000360: d648 5ebd c8cc 413d bf2b 9dbc f351 503d
00000370: 25f9 21bd 05c2 9ebb 8650 f33c 8844 33bd
00000380: b9c3 bebd af48 37bd 3ec6 d2bb 9a11 193d
00000390: ad7c 12bc dc59 c2bc 2e34 c5bb 4037 b0bb
000003a0: 2c2c 6ebd fc11 8bbc 5641 afbd 4a57 7bbd
000003b0: 117d 84bc 6618 463d 9ef6 71bd ac35 bb3d
000003c0: 9823 443c 06e2 8fbd b8e6 5a3d de5e 37bc
000003d0: 306f fb3b 5397 6dbd 2454 9e3d 98cf b2bc
000003e0: 2aa2 c33b a7e1 253d a31f 133d d0fb 1e3d
000003f0: 16de e33b 5d00 56bd 3092 443d 2026 58bc
0.0033688257 -0.047100812 0.002089278 0.0070915017 0.01948567 -0.033015348 -0.040802132 -0.054111846
-0.044188555 0.064163275 0.117056735 -0.0676655 -0.0046369117 0.037231117 0.008604934 0.034658622
0.054463316 -0.0020839423 0.020716375 0.0529089 -0.05423284 0.03353258 -0.049897723 -0.024044638
-0.07525701 -0.016143052 -0.031086098 0.0043371585 0.032474987 0.03599865 -0.003648583 -0.060050577
-0.0041945353 -0.09205071 0.038792998 -0.040584728 0.00017669432 0.04293922 0.040442508 -0.032979026
0.031181067 -0.09212941 0.07589741 -0.008846033 -0.031541392 0.049631305 0.033370867 0.0018530488
-0.06578193 0.010713422 -0.05226546 -0.003753163 -0.014062665 0.023553707 0.052571185 0.012346437
0.030458065 -0.010065183 -0.012237965 0.010710128 0.0144737875 -0.0062747844 0.015467487 -0.08440757
0.014557056 -0.010306442 0.024216648 -0.059582744 0.05290026 -0.0265794 -0.0010806592 0.035901822
-0.03885652 -0.015815485 0.03758304 -0.034931608 -0.026623247 -0.027196646 -0.050710186 -0.050605502
-0.020445067 -0.012450094 0.0011330069 -0.024645312 -0.038816854 -0.039483245 0.0035432435 -0.07804793
0.01541391 0.04220631 -0.04332263 -0.04997479 -0.024042994 0.026261007 -0.027752973 -0.09842143
-0.03735625 -0.073612325 0.006712434 -0.033023145 0.05276544 -0.0034068439 0.057582866 0.015397035
-0.043514244 0.058519527 -0.060669072 0.08290557 -0.0058039054 -0.20282961 0.08214052 0.045360994
-0.021394426 -0.025423193 -0.03765274 -0.063552566 0.03565248 0.038203333 -0.0021734957 -0.0010747106
-0.013074163 -0.06508759 0.009216477 -0.00036434084 -0.17603102 0.053259593 -0.036193796 -0.064081974
-0.028026955 -0.07366693 0.013827912 -0.019400619 -0.07214791 0.022510389 -0.041289084 -0.0112515045
-0.045304086 -0.06000602 -0.01769975 0.047886837 0.008559514 -0.049185313 0.029234078 0.053315166
0.030957125 -0.02524001 -0.059146907 0.027306978 -0.027521992 0.018912477 -0.05710084 0.03689659
0.028332382 0.09163216 -0.0058930083 -0.0342271 -0.08003264 0.043520056 0.043467846 0.015840098
-0.04664932 0.11486186 -0.06313319 -0.057080016 0.026648564 -0.057226624 -0.081335835 0.03519881
0.021808758 0.036522318 0.07264178 -0.045473006 -0.0670515 -0.007487306 0.006846631 -0.0028831696
0.01933297 0.03195853 0.042108472 0.017270446 -0.0901038 -0.040789016 0.049908303 0.03916306
-0.06495111 0.0011594275 -0.022886325 -0.017075215 -0.16371617 0.049786124 -0.065921105 -0.049330413
0.042942155 0.011755535 0.0028918458 -0.06202015 -0.0046652555 -0.0068365424 -0.013162333 0.046718497
-0.0057984237 0.03242824 -0.08424408 -0.0494799 0.08280182 -0.03705882 -0.07276489 0.04753112
-0.05903074 -0.060264044 -0.068651624 -0.006433857 -0.012546457 -0.04324119 -0.0017875546 -0.054226287
-0.05426868 0.047314435 -0.019185899 0.050859403 -0.039544243 -0.0048449063 0.029701483 -0.04376653
-0.09314675 -0.04474705 -0.0064323237 0.0373703 -0.008940858 -0.023724489 -0.006018183 -0.00537768
-0.058147594 -0.016976349 -0.08557384 -0.061362542 -0.016172918 0.048363112 -0.059073083 0.091410965
0.011971377 -0.070255324 0.053442687 -0.011192052 0.0076731667 -0.058005642 0.07730892 -0.021827504
0.005970259 0.040498402 0.035918843 0.038814366 0.006953965 -0.05224644 0.047990978 -0.013192683

l3.weight f4 [256, 256]
00000000: 972e 2e3d 74c2 dd3c 3c87 073d ff82 393d
00000010: 4e4d 94bb 61c3 52bc 889d 04bd 0464 6c3c
00000020: 70dd 523d b9b3 b7b9 d9bb 49bd 3371 453d
00000030: 96f3 0abb f2e5 60bd 57c4 05bd 9cca dfbb
00000040: 5af3 3e3d 60b4 bc3b 74c2 aebc 9188 b439
00000050: a938 bc3c e08d 5cbb 12a9 5cbd 9106 79bd
00000060: ed55 b03c ccad f7bc de78 03bd d129 593c
00000070: e85c 6cbd 701c 223d 6b61 92bc 15dd b43b
00000080: e0c1 9cbb d11c 0c3d e816 413c fc38 45bd
00000090: 988c 85ba bbca 983c 8d5b 1fbc 921f 233d
000000a0: a601 513d 28b4 3f3d a947 8abd 85f2 dcbb
000000b0: aefc 1abd de43 573c 4f5e 43bd e806 a93c
000000c0: c49f 9cba 1aa7 debc fe17 513d d057 2cbc
000000d0: 9ce6 ad3a b4a6 05bd b739 bfbc a29e 0dbd
000000e0: 04c8 20bd 56a9 1d3d 8a09 0f3d 8083 2dbb
000000f0: 730c e7bc 6943 20bd f4da 053d bc56 92bd
00000100: c2e2 1abd 9839 e4bc b463 be3c 1f1b 2ebd
00000110: 539a 68bd 8679 8fbc ae9b 21bd 33d7 3b3d
00000120: d0fc 7f3d 00a7 5aba f4d9 623d 2bda a53c
00000130: 5ffb 043d 1858 d03c 7613 ba3c 15a9 683d
00000140: 608c 5abc 96a5 b4bc eff1 84bb c467 203d
00000150: a09d 4d3b 4f23 c9bc d9f7 4ebc 28ab 503c
00000160: b9ad ba3c 9c28 573d d862 c1bc 0025 4c3a
00000170: 93b3 f3bc 644a 8bbc e28c 453d 8e7d 65bc
00000180: 2b99 4c3d 0560 4a3d 6036 453c 358c aa3c
00000190: 2006 9d3b d051 67bc bba8 17bb d51a e93b
000001a0: a7d7 4abd 573e 62bd adbd 57bd a0c1 393d
000001b0: 2afd 5bbd 1f54 dcbc f299 e23c c915 8bbd
000001c0: a433 243d d910 c13b e676 163c 24ee 0ebc
000001d0: 2033 01bd 6012 5dbb 4f41 5abd 8e74 163d
000001e0: b55d 3cbb 6463 da3b 69ba a4ba 300c cf3b
000001f0: 1566 5c3c 1f53 22bd 4f51 7abd 4ceb 3c3d
00000200: 0673 dc3c a6bb 40bd 9b40 d2bc 8869 623c
00000210: f8c3 7a3c 8a02 13bb 4e4a 583d 607b aa3c
00000220: aa1c 71bd b896 44bc 310f 90bd e86f 75bc
00000230: 253c 113d 18e6 803d 5967 bd3c a938 f83c
00000240: dee8 733d b8a7 7dbc 98ae 83bd d4fb 7e3d
00000250: 11af 33bd 505b 763d 89ba 20bd a3a8 82bd
00000260: 0492 5c3d 62cf cfbc 0076 cd3a 4648 b53c
00000270: 604f b43c 2a79 163d 27da 0ebd a819 da3c
00000280: 9ff1 01bd 0895 743c e8e9 213b 0022 6fba
00000290: fde7 3cbc d707 9bbb 2e58 8fbd 5a14 633c
000002a0: d12f 813c 73a3 51bd 49b1 e13a b5a7 44bd
000002b0: b844 923c 5609 5ebc 081d 4ebd 6289 43bd
000002c0: d807 3bbc 0b4c 16bd 68fb 4f3c 5722 533c
000002d0: 0c94 5abd 70e2 a5bc 8529 333d 16d3 72bd
000002e0: fb21 1f3d 0075 43bd b5c4 0c3d 9f66 57bd
000002f0: 6e4f 18bd e4aa a0bc f510 153b 7c01 2bbd
00000300: 1b8c 0b3d 642d 8cbd dbfc 353d 849f acbc
00000310: c23e e63b 20e2 683b 1f1c 843c a9db 86bd
00000320: 5f3b 1c3c 643c df3c 2531 cdbc e487 403d
00000330: cddf 6bbc 7aff bd3c 79bb 833c 8c1d e6bc
00000340: 40ea 533d 4c11 afbc 8c7b 203d db18 b13c
00000350: 125d 343d 49a0 ecbc 17c9 2ebd 0ad4 68bd
00000360: ed64 183d f4d5 e03b c51a e73b 866f 5ebd
00000370: 40b5 b33c 0d8e af3a 4a60 133d a487 673d
00000380: 77da 15bd 884e c63c fcbf 093d 7814 72bc
00000390: 3bd7 0e3d a626 693d 717b 4e3d 401a 6fbc
000003a0: 0336 0a3c 70d7 8c3c 2a82 ffbc 23e2 e73c
000003b0: b518 9d3c 71b4 fb3c 74ae 723d da6f a6bc
000003c0: 0406 6ebd 04b8 443d d0e3 db3c 8992 7bbd
000003d0: 98c0 cb3c 00ca 20bc 13f8 93bb d193 8bbd
000003e0: 0278 58bd ffdc b23c afe5 84bd fac5 793d
000003f0: 641f 7c3d 4886 75bd 9989 6b3c 2441 b6b8
0.0425249 0.027070262 0.033087954 0.045290943 -0.004525817 -0.012863965 -0.032376796 0.014428142
0.05148071 -0.00035038384 -0.04925141 0.04820366 -0.0021202317 -0.054906793 -0.032657947 -0.006829573
0.046618797 0.005758807 -0.021332957 0.00034434025 0.022976236 -0.00336539 -0.053872176 -0.060797278
0.021525348 -0.03023424 -0.03209769 0.013254599 -0.05770579 0.0395779 -0.017868718 0.005519519
-0.004783854 0.03420717 0.011785246 -0.048150048 -0.0010188995 0.018651357 -0.009726417 0.03982503
0.051026963 0.04680267 -0.06751949 -0.006742778 -0.03783863 0.013138739 -0.04769736 0.020633176
-0.0011949469 -0.02717929 0.05104827 -0.010518983 0.001326758 -0.032629684 -0.02334295 -0.034575112
-0.03925325 0.03849157 0.034921207 -0.0026476085 -0.028204178 -0.039126787 0.032679513 -0.071454495
-0.03781391 -0.027859494 0.023240902 -0.042506333 -0.0567878 -0.017514002 -0.03945511 0.045859527
0.06249696 -0.0008340925 0.055383638 0.020245632 0.03246629 0.025432631 0.022714358 0.056801874
-0.013339132 -0.022051614 -0.004057161 0.03916146 0.003137447 -0.02455297 -0.012632334 0.012736119
0.022787916 0.052528962 -0.023606703 0.0007787496 -0.029748714 -0.017003246 0.04823006 -0.014006985
0.04995076 0.049407978 0.01203689 0.020818809 0.00479199 -0.014118627 -0.0023141343 0.0071137943
-0.04952207 -0.055235233 -0.052671123 0.04535067 -0.053708233 -0.02689558 0.027661297 -0.067912646
0.04008831 0.005891901 0.009183621 -0.008723769 -0.031542897 -0.0033732876 -0.05328494 0.03673225
-0.0028742377 0.0066646803 -0.0012567762 0.0063185915 0.013452073 -0.03963005 -0.0611127 0.046122834
0.026910316 -0.047053955 -0.025665572 0.013819106 0.015305512 -0.0022431933 0.052805237 0.020810783
-0.058865227 -0.011998825 -0.070341475 -0.014980294 0.03545775 0.06293887 0.023120569 0.030300455
0.05954825 -0.015481882 -0.064297855 0.06225188 -0.04386813 0.060145676 -0.039240394 -0.06379821
0.05385019 -0.025367443 0.0015675426 0.02212919 0.022010505 0.036736645 -0.034876015 0.026623562
-0.03172457 0.01492811 0.002470607 -0.0009122193 -0.01152992 -0.004731159 -0.06999241 0.013859833
0.015769871 -0.051181268 0.0017218973 -0.0480115 0.017855033 -0.013552031 -0.050320655 -0.04773844
-0.011415444 -0.036693614 0.012694217 0.012886605 -0.053363845 -0.020249575 0.043740768 -0.05928334
0.038850766 -0.047719 0.034367282 -0.0525881 -0.037185125 -0.019612737 0.0022745703 -0.041749462
0.03406916 -0.06844595 0.044430595 -0.021072157 0.0070265243 0.0035535172 0.01612669 -0.065848656
0.00953564 0.027250476 -0.025047848 0.047004595 -0.01439662 0.02319311 0.016080605 -0.02809026
0.05173707 -0.021370552 0.039180323 0.021618297 0.04403407 -0.028885024 -0.042672243 -0.05684284
0.037205625 0.0068614427 0.0070527517 -0.054305576 0.021937013 0.0013393775 0.0359805 0.05652584
-0.036585297 0.024207368 0.033630356 -0.014775388 0.03487323 0.056921624 0.05041069 -0.014593661
0.008435729 0.017192572 -0.031189997 0.028306073 0.01917682 0.03072569 0.059248403 -0.020317007
-0.058111206 0.048027053 0.026842028 -0.061419044 0.02487211 -0.009813786 -0.0045156567 -0.06815303
-0.052848823 0.021833895 -0.06489121 0.06097982 0.061553374 -0.059942514 0.014376068 -8.69057e-05

l3.bias f4 [256]
00000000: 56d5 81bd 7d39 c33c 5c27 393d 9104 143e
00000010: 84f1 ed3d e85e 58bd 27ff 89bc f376 b8bc
00000020: e236 193d fc46 033e 9179 573d 06f8 c23c
00000030: d866 9ebc 2394 10bd 0e51 1e3d ade6 653d
00000040: 4006 adbb 8b30 e03c 7d16 d1bc 9ade 12bd
00000050: a51a 303d 6c0b 17bd 2e61 273b aebd bd3d
00000060: f617 66bd 7ca9 0bbc 76ea 853d e9dc 8bbc
00000070: 2d57 44bc f636 1d3d 5115 36bd 34ce 5b3d
00000080: 3054 1bbd 0180 4dbd 233e 60bd 2997 debb
00000090: 98f1 843c 3571 4b3d bedf 073d e151 2a3d
000000a0: cc01 02bc 50d2 d0bc 353a 08bd 7ab7 17bd
000000b0: b59e 8cbd 9b93 fcbc 0be5 533d 2d16 ae3c
000000c0: 0c41 153d f22e 2d3d bb7e 433c 7e27 413d
000000d0: ee09 5f3c 67f5 d83c 1a38 3ebd 81eb 25bd
000000e0: 10c7 50bc 3c3a 8ebc bc28 c73d d263 d9bc
000000f0: ff6a 85bb b76a 5b3c 8eef fe3d 6f63 d53c
00000100: 801b 213d 2d1e 0a3d 47c8 39bc 765e 933d
00000110: 8e7f bb3c fcac f73b 9439 19bd 4c57 f73c
00000120: 4f25 4f3d 2cd1 98bc a39c 85bd 2b38 73bb
00000130: cf5f 4ebd c08a f7ba 00c7 ad3c ec9e 19bd
00000140: 93fb 833c 4d06 8f3c a7d8 c33b baef 64bc
00000150: 512b 5a3c 2a57 a33b e32b 86bd 6b4a 7d3d
00000160: daf0 823d a6fd 253d 1d96 83bb efeb a53d
00000170: ddb0 ebbc 0b0d 273d e1e9 0c3d 45ad 21bc
00000180: ab2a 963d 66ef 92bc 4466 4abc 691f 01bc
00000190: 2729 e8bc 6589 4f3c 6e76 02bd e2a3 ed3b
000001a0: 6f10 38bd c029 303c 92cc 7d3d 4bed dc3c
000001b0: 6298 243d 5351 07bd d589 8dbd 1df6 543d
000001c0: 079a 7ebd f26b 923d 2879 9bbc 2845 2fbd
000001d0: f283 7fbd dad7 3b3c 9bf7 963d 87dd 8dbd
000001e0: c494 5abd 0d5b a8bc ca6b 383d 5840 943d
000001f0: 75cf fabc 1370 5bbd ce1e 99bc 290b 46bd
00000200: 14f4 6cbd d599 a63c 4293 7fbd 1fa9 4fbd
00000210: 08ff 783d d3b1 9abd 3091 6f3c 2988 78bd
00000220: 2f63 873c 8ecb 87bd c5ec 05bd 68e9 0ebd
00000230: 2cfa 24bd 922a 8b3d 140c 813d 4a86 b33c
00000240: c088 faba 849a 933d 7bee 8abc 3985 58bc
00000250: 68cc 863d 7c9f f33c 15f9 04bd 46bd aa3d
00000260: d616 c83b b498 9a3c 4064 433d cbf9 bd3d
00000270: 93cc 033e bb78 1bbd a24f 51bd e5ac 173b
00000280: ea23 8c3d d30b dd3c d855 81bc b2da 0d3d
00000290: 46d5 dbbc eb5f f43c 28e0 42bd 0719 c63c
000002a0: c035 44bd 011c e83c e555 a1bb 70b7 0d3e
000002b0: 8992 82bc d2d1 98bd e318 65bc f5f0 ceba
000002c0: b194 29bd 85b6 50bd ddfc 24bd 4cc5 413d
000002d0: acf6 7a3d 6cec c13c 14e9 55bd 0181 eb3c
000002e0: 7725 c6bc a801 77bd 9f4e c2bc f863 1dbb
000002f0: 00f4 27bd 4d55 a73b 4e3c 9f3c aa09 d43c
00000300: 47ae 21bb 90fa 91bb d23b 743d 8823 1b3d
00000310: 01ec 483d 708f 8fbc 1d44 fdbc 403a 17bc
00000320: 018d c1bc c083 85ba a280 833d 03fb 5a3d
00000330: 4e1b a03c 9e16 3abd d2a9 2f3d d82f 74be
00000340: 4a1d 523d db2e 273d 0099 62bb b2bc 4c3d
00000350: bce9 4bbd b887 8abd 2d44 d13c 513b 7c3d
00000360: deb4 073c 1eb6 0abc c3f5 c6bc 9714 f13c
00000370: 9621 603c 1622 ac3b b89b 3cbd ac56 303d
00000380: 42c4 8ebb 64ce 093e 8d3b a93d 421a 003d
00000390: 6631 533d cd10 65bd 720b 55bd 0673 c9bc
000003a0: fa96 8cbd 1148 923d ee1b 8b3c 38ee 1bbd
000003b0: 8044 6abd 5b32 40bd b8ca 12bd abf3 1f3d
000003c0: 8351 5dbd 2328 d03c 21fd 533c 92cf 7fbc
000003d0: 1051 6ebd b77a 39bc 3881 8abc dc7c 6cbd
000003e0: f69d e6bb 7a7c 1ebd 5204 7c3d f141 71bd
000003f0: 2d1a f13c 9806 e43c 9af6 1b3b 4701 26bc
-0.06339519 0.023831123 0.04520355 0.14454867 0.11618331 -0.052824885 -0.016845299 -0.022517657
0.037405856 0.12820047 0.05260617 0.023799907 -0.01933615 -0.035297524 0.03865152 0.056128193
-0.005280286 0.027366897 -0.025523419 -0.03585682 0.04299416 -0.036876127 0.0025540101 0.09264694
-0.056175195 -0.008524295 0.065388605 -0.017073112 -0.011983675 0.038382493 -0.044453923 0.053663447
-0.037922084 -0.050170902 -0.05474676 -0.006792922 0.016228482 0.04966851 0.03317236 0.041581992
-0.007934999 -0.02549091 -0.033258636 -0.03704021 -0.068662085 -0.030832103 0.051732104 0.021250809
0.036438987 0.0422811 0.01193207 0.047156803 0.013613207 0.026484204 -0.04644022 -0.040507797
-0.012742773 -0.017361753 0.09724566 -0.026536856 -0.004071593 0.013392142 0.12448035 0.02604839
0.039332867 0.033720184 -0.011339254 0.07195751 0.022887971 0.007558463 -0.037408426 0.030192994
0.05057269 -0.018654428 -0.06524017 -0.0037112336 -0.05038434 -0.0018885955 0.021213055 -0.037505075
0.01611117 0.01745906 0.0059767547 -0.013973171 0.0133159915 0.004984756 -0.065513395 0.06183855
0.06393595 0.0405251 -0.0040156976 0.081016414 -0.028770858 0.040783923 0.03440273 -0.009867971
0.07332357 -0.01793642 -0.012353484 -0.007881024 -0.028339935 0.012667035 -0.031851225 0.0072522024
-0.044937547 0.0107521415 0.06196267 0.026968619 0.040184386 -0.03303654 -0.06911055 0.051992524
-0.06215861 0.07149495 -0.01897867 -0.042790562 -0.062381692 0.011465037 0.07371446 -0.069270186
-0.05336453 -0.020551229 0.04502467 0.07238835 -0.030616501 -0.05357368 -0.018691447 -0.048350487
-0.05784996 0.020337025 -0.062396295 -0.050698396 0.06079009 -0.075534485 0.014622018 -0.060676727
0.016526787 -0.06630622 -0.032696504 -0.034890562 -0.040277645 0.06795229 0.06301132 0.02191462
-0.0019114241 0.07207206 -0.01695942 -0.0132153565 0.06581956 0.029739134 -0.032464106 0.08336882
0.006106238 0.018871643 0.047703028 0.0927616 0.12871008 -0.037956934 -0.051101334 0.0023143825
0.068427876 0.026983177 -0.015788004 0.034632392 -0.026835095 0.029830894 -0.047577053 0.024181856
-0.047902822 0.028333666 -0.0049235695 0.13839507 -0.015939014 -0.07461895 -0.013982984 -0.0015788364
-0.04140157 -0.050955314 -0.04028021 0.047307298 0.0612704 0.023672305 -0.052224234 0.028748037
-0.024187787 -0.060304314 -0.02371913 -0.0024015885 -0.04100418 0.005106604 0.019437935 0.025883514
-0.0024670528 -0.004454918 0.05962736 0.037875682 0.049053196 -0.017524451 -0.030916268 -0.0092301965
-0.023626806 -0.0010186359 0.06421019 0.05346204 0.01954427 -0.045431726 0.042886563 -0.23846376
0.051297463 0.04081617 -0.0034576058 0.04998464 -0.049783453 -0.067641675 0.025545204 0.061580006
0.008282868 -0.008466272 -0.02428711 0.029428763 0.0136798825 0.005253087 -0.046046942 0.043051407
-0.004356892 0.13457638 0.082633115 0.03127504 0.051560782 -0.055924226 -0.05201287 -0.02459098
-0.06864734 0.07142652 0.016981091 -0.03806898 -0.057194233 -0.046923023 -0.03583786 0.03905074
-0.054032814 0.025409764 0.012938769 -0.015613453 -0.058182776 -0.011320761 -0.01690732 -0.057736263
-0.0070378734 -0.03869293 0.061527558 -0.058900777 0.029431427 0.027835175 0.002379811 -0.0101321405

l4.weight f4 [1, 256]
00000000: fc4b 1dbd 7084 54bd f0f2 a0bc 6cb7 993d
00000010: 1d30 593d 283f 433d 815d 0c3d cbe7 ccbc
00000020: 06a8 423d 016b ad3c 8145 88bc 7246 953b
00000030: e86e 3d3d 8985 353c edf6 5fbd d201 913a
00000040: 3813 843c f8c5 c0bc b4c8 763d 0e7b 22bd
00000050: 792a f13c c08d 533b fed6 5ebc 02d7 8a3d
00000060: c13c 2bbc da8e a9bc 0d78 143d ea69 64bd
00000070: d9b7 a63c d3a4 2dbd 5d8d 0abb ee37 45bd
00000080: 0d9e 93bc 6786 353b 76ec 7e3b ed2d 1cbd
00000090: b00e b23b cc13 ae3b 8ee6 6e3c 3018 63bd
000000a0: 7b8e a5b9 64c7 88bc b5a1 b1bb 86ad b1ba
000000b0: 8eb6 9fbc b4a7 d2bc 7079 04bd f68c d5ba
000000c0: 2cdf f0b8 52d1 9fbb 71c5 e5bc cbf3 ee3c
000000d0: b2d1 4dbd 0bf2 c8bc f5f8 1d3c 875b aabc
000000e0: bcb9 e4bc 499d a3bc bf34 223d dc02 9bbc
000000f0: 1a9d 5abd 1acd bd3b cccb 623d b1c5 bfbc
00000100: d6cb 433d 8c89 213d b540 84bc 7ad8 ad3b
00000110: d24d 533b 7693 ff3c 9c08 d1bb 443a 303d
00000120: c7fa 2dbb 081d 403d 7197 3b3b 9665 3ebd
00000130: d26d 493b 0033 523a 0d97 513a 5830 56bb
00000140: 04c7 8a3c 18bc 633d fe98 a2bc 05db 353c
00000150: 0106 e83c 1935 193c f1ed 33bc fd1c 8a3d
00000160: 49d2 81bb 42ca 723b cc61 a7bb 385e 8d3d
00000170: 0fd5 d3bc 41d4 213b 0406 923d b0ee 2ebd
00000180: a4b3 84bb e461 1abd f4b7 58bc 5219 abbc
00000190: ca73 1cbd 827b 473d 63e9 85bb 721e 63bc
000001a0: cc4d 7fbb a2d5 8abc 7213 a93d dda1 9e3b
000001b0: df19 993c 1b17 28ba 1951 44bb 2220 693c
000001c0: d9ce c9ba 3cbf 593d 50b2 0bbd 064e e83b
000001d0: 7805 3cbc c6bf 56bb 8933 73bb 4cc3 443c
000001e0: 20f8 8b3b b65b 5bbd 12bf 13bd cac3 dcba
000001f0: f2aa f5b9 22ad e6bb c5b9 1fbd 2c36 4f3c
00000200: 66f2 a4bc 9cf1 43bd a2fe d6bc f339 d8ba
00000210: 3ff2 1a3d 934e 51bd 1a9b 72bd add4 7e3b
00000220: 281f c3bc 49ae 253c 8c3f 0bbd 9aa3 9c3c
00000230: 95d5 5bbc f8db 933b 606c 653d d3b4 0cbd
00000240: 7ec0 713d 342c 06ba cbd4 97bc bab4 21bd
00000250: 1ece 6b3d a882 7d3d 7504 50bd 801b b439
00000260: e7ca 58bd 94ff 93bc c02e ae3c db38 6f3d
00000270: f2b6 e03c 4c40 8dbc 4003 30bc 0f00 28bd
00000280: b76b 0cbb 7dfd 84bc 3adf 66bd bf04 5f3d
00000290: cb33 5dbb 06ec 763d b28d 02bd 5405 d43c
000002a0: 13d1 bf3b 5227 56bd 557e 113b 018a 493d
000002b0: 33e5 60bb a7cb c43b c98d febb 18a8 6ebd
000002c0: 5f48 a2ba f2a8 813b cf25 1f3b bc66 3bbd
000002d0: dddc 9f3c b58b 62bd 05ab 063d 95de eebb
000002e0: 8a6c 76bc 402e 13bb 04a8 583c 5424 14bd
000002f0: 5e78 23bd 20e0 e53c 0546 933b 96c7 3f3d
00000300: 8c9f 4c3b 08d0 14bd 36de 213d 06d1 febc
00000310: 59b8 f6bc 3020 733c 8497 bc3b 56f3 bbbb
00000320: 868d dc3a 3874 bbbc da45 d0bb ff56 4a3d
00000330: 503a 50bd 88ec 573d 3a07 a1bb f033 70bd
00000340: dfa5 a3bb f987 5c3c 049a 2e3d 0619 993a
00000350: cfd4 ebbb 74f0 2b3d 2624 d33c 2caf f3ba
00000360: f9da 0fbd e6bb fbbc b956 a53b 90ae 8a3c
00000370: 2a91 7fbb d2cb 2bbc 2baf 1cba d098 f6bc
00000380: af31 c7bc 3cc3 4b3d ccb2 413b 8433 96bc
00000390: 60ef 06bb 1120 bc3b e387 bd3a 3af4 d43b
000003a0: 93b1 603c b363 3f3b 633b 19bd 9137 11bc
000003b0: 041d 2ebd 3c80 d63b bd1b 9cb9 4819 3dbd
000003c0: 2165 b03b 1e78 cf3c a94b 1e38 ba50 433d
000003d0: aad2 71bb 8bab 58bd ce13 67bc d083 43bd
000003e0: bf99 cabb 3408 8fbb 4013 4d3d d18f 86bc
000003f0: c251 26bc 10f6 f43b 6aa2 093c 0af6 a3bc
-0.038402542 -0.051884115 -0.019647092 0.07505688 0.0530244 0.047667652 0.03426886 -0.025012871
0.04752352 0.021169188 -0.016634705 0.004555517 0.046248347 0.011079201 -0.054678846 0.0011063165
0.016122445 -0.023531899 0.06025 -0.039668135 0.029439198 0.0032280535 -0.013601063 0.06779291
-0.010451497 -0.020698 0.0362473 -0.05576507 0.020351337 -0.042393517 -0.0021141388 -0.04814904
-0.0180197 0.0027698518 0.0038898266 -0.038129736 0.00543388 0.0053124186 0.014581336 -0.05544299
-0.0003157741 -0.01669664 -0.0054208883 -0.0013555742 -0.019496229 -0.025714733 -0.032342374 -0.001629262
-0.00011485661 -0.004877248 -0.028048249 0.029168984 -0.05024881 -0.024529478 0.0096418755 -0.020795597
-0.027920596 -0.01997246 0.039601084 -0.018922262 -0.05337248 0.0057922723 0.055370137 -0.023409696
0.047801815 0.039437816 -0.016144136 0.005305347 0.003224243 0.031198245 -0.0063792 0.043024316
-0.002654718 0.046902686 0.0028624202 -0.0464836 0.0030735624 0.0008018464 0.00079952256 -0.0032682624
0.016940601 0.055599302 -0.019848343 0.011099582 0.028323175 0.009351038 -0.010982023 0.0674381
-0.0039618355 0.0037046825 -0.005108094 0.069027364 -0.02585843 0.0024693164 0.07130054 -0.0427081
-0.004049735 -0.037691012 -0.013227452 -0.020886097 -0.038196363 0.04870177 -0.0040866598 -0.013862239
-0.0038956283 -0.016947571 0.08255662 0.004841073 0.018689094 -0.00064121344 -0.0029955565 0.0142288525
-0.0015396728 0.05316089 -0.0341056 0.0070893792 -0.011475913 -0.0032768114 -0.0037109575 0.012009453
0.004271522 -0.05355426 -0.03607089 -0.0016843018 -0.00046857406 -0.007039682 -0.038995523 0.012647193
-0.020135116 -0.04783784 -0.026244465 -0.0016496762 0.03782868 -0.051100325 -0.059229948 0.003888409
-0.023818567 0.010112354 -0.03399615 0.01912098 -0.013417621 0.0045123063 0.056011558 -0.034352135
0.059021465 -0.0005118281 -0.018534085 -0.039478995 0.057569616 0.06189218 -0.0507855 0.00034352764
-0.052927878 -0.018066205 0.021262527 0.05840383 0.027430985 -0.017242573 -0.010742962 -0.04101568
-0.0021426508 -0.016234154 -0.05636523 0.054447886 -0.0033752795 0.060283683 -0.031873412 0.025881447
0.005853781 -0.052283593 0.0022200544 0.049203876 -0.00343163 0.0060057226 -0.007768367 -0.058265775
-0.0012381187 0.0039569074 0.002428401 -0.045752272 0.019514496 -0.055309016 0.03287794 -0.0072897174
-0.015040526 -0.0022457987 0.013223652 -0.036167458 -0.039909713 0.028060973 0.004494431 0.0468212
0.0031223027 -0.036331207 0.039518557 -0.03110553 -0.0301172 0.014839217 0.0057553668 -0.005735795
0.0016826845 -0.022882566 -0.006355983 0.049399372 -0.05083686 0.05271581 -0.0049141916 -0.05864328
-0.0049941386 0.013460153 0.04262735 0.0011680431 -0.0071969996 0.04197736 0.025774073 -0.0018591634
-0.035120938 -0.030729245 0.0050457385 0.016928941 -0.0038996437 -0.010485606 -0.000597703 -0.030102164
-0.024315683 0.049746737 0.0029556034 -0.018335111 -0.0020589456 0.0057411273 0.0014460053 0.0064988406
0.013714212 0.0029203712 -0.03741015 -0.008863346 -0.04250814 0.0065460484 -0.00029775305 -0.04616669
0.0053831493 0.025325831 3.77406e-05 0.04768441 -0.0036899247 -0.05289797 -0.014103843 -0.047733128
-0.0061828787 -0.0043649916 0.050067186 -0.016425999 -0.0101513285 0.007475622 0.008400539 -0.020014782
