models/GMI_pretrained/GMI_GPM_channel_predictor_37V_nonocean.pt (torch, 545332 bytes, 7 tensors)

l1.weight f4 [256, 13]
-0.2766339 0.012195808 0.11539057 -0.0205207 -0.25061002 0.209191 -0.21687457 0.087501846
-0.09160463 0.02726341 -0.21364166 -0.0882732 -0.13813071 -0.04030027 0.14794272 -0.06644963
0.021782506 0.14341258 -0.26705626 -0.26053575 -0.22012956 -0.14116146 -0.21396661 0.0747856
0.13560246 -0.09417698 0.13611116 -0.1164159 0.046066746 -0.04845971 0.11837933 -0.037619226
-0.31920403 0.16243061 0.07217419 -0.17277434 0.06629115 -0.2860647 -0.05492214 -0.26891014
0.059832092 -0.012411732 -0.0007442499 -0.054709516 -0.21503918 0.2145902 0.15711515 -0.13607655
0.017362015 -0.28494862 0.054932248 -0.71908635 0.027985632 0.083124936 -0.2545405 0.0507824
0.057666752 -0.20871595 -0.08825167 -0.037568428 -0.057996187 -0.13057746 -0.09500764 -0.16384873
0.11032295 0.07374865 -0.24745232 0.054245193 0.2605185 0.02059863 -0.24611844 0.005586738
-0.12339548 0.06777806 -0.06538428 -0.19901513 0.16149843 0.13632779 0.0501499 -0.14536797
0.3555006 0.20591478 -0.60426193 -0.45578143 0.24588084 0.07053741 -0.1806105 -0.112549216
0.2024215 0.2653356 1.4435135 0.21884708 0.0996974 0.098538704 -0.38890117 0.11473833
-0.17185965 -0.18059747 0.0269177 -0.13380691 0.063498765 0.022457076 -0.21461831 -0.33678386
0.3928707 0.20836134 0.036920227 -0.42149347 -0.3201281 0.15584596 0.286867 -0.3001781
0.21850148 -0.22659805 -0.285855 0.23648371 -0.13200109 -0.2733067 -0.08433127 -0.12403994
0.19234145 0.16770592 0.06774929 -0.25684255 0.067417905 -0.14827774 -0.15738295 0.16254298
-0.18392663 0.22352159 -0.023771951 -0.18278937 0.2662421 -0.21477605 -0.045951825 -0.13272999
-0.08980212 -0.12475672 0.20284255 0.18617666 0.04142374 -0.20973438 -0.25627342 -0.017108629
-0.16333893 -0.11462583 0.007078891 -0.16798837 0.0015502112 0.14051935 0.12627015 -0.25399384
0.0061917854 -0.22978793 0.20935756 -0.21454643 0.07346552 0.06600789 -0.19396326 -0.029095365
0.36384153 -0.474605 0.12027599 0.13792652 -0.038911365 -0.05852687 0.048674446 0.012775368
-3.0532632 0.013702211 -0.13635619 -0.1745026 0.2612349 0.11442547 0.05739835 -0.21735947
-0.18911363 -0.12925273 -0.07098464 -0.13842866 -0.0853408 0.16698092 0.28348657 -0.19018126
-0.1675112 0.065738454 -0.27767912 0.26352948 -0.112319864 -0.17022216 -0.12560153 0.016222918
0.103737764 0.1542832 -0.012019513 0.1453391 -0.045879245 0.16159669 0.15604906 -0.41852766
-0.18024144 -0.23024099 0.37682614 -0.15685497 -0.19412759 0.27910662 0.121195585 -0.15508746
-0.40197986 -0.09244649 0.10705165 -0.21556535 0.09466316 0.2729355 -0.11736291 -0.022837142
0.09696632 0.070330426 0.027846297 -0.08240482 0.0031458382 -0.2175135 0.08498875 -0.18460582
0.19998796 0.2148661 -0.17059273 -0.2563493 -0.16610737 0.029575782 -0.17209668 -0.03592984
0.075332485 -0.02383527 -0.2687924 0.20884109 -0.25180215 -0.16671741 0.19456282 0.1430896
-0.072751746 -0.0099422205 -0.1833699 -0.1607652 -0.20303889 0.02955158 -0.12627931 0.08511621
-0.09775783 -0.27404583 -0.23594987 0.25324208 0.11882836 -0.016655505 -0.16527545 -0.06057181
00000000: f5a2 8dbe edd0 473c e451 ec3d 071b a8bc
00000010: f54f 80be 2a36 563e 5e14 5ebe 2b34 b33d
00000020: 359b bbbd 8457 df3c e1c4 5abe 94c8 b4bd
00000030: 2372 0dbe e511 25bd 4c7e 173e be16 88bd
00000040: 3a71 b23c bfda 123e 99bb 88be f164 85be
00000050: a569 61be a18c 10be 101a 5bbe 3129 993d
00000060: 5fdb 0a3e dcdf c0bd b960 0b3e 766b eebd
00000070: 7cb0 3c3d b07d 46bd dd70 f23d 9e16 1abd
00000080: b66e a3be 3654 263e 10d0 933d c2eb 30be
00000090: a8c3 873d 1377 92be 0af6 60bd 97ae 89be
000000a0: 7f12 753d 945a 4bbc c419 43ba 1617 60bd
000000b0: 3b33 5cbe 89bd 5b3e cbe2 203e a757 0bbe
000000c0: c93a 8e3c c9e4 91be a300 613d 0b16 38bf
000000d0: 2042 e53c 683d aa3d 2253 82be 3501 503d
000000e0: f933 6c3d a2b9 55be 4bbd b4bd 5ae1 19bd
000000f0: 698d 6dbd 19b6 05be 5e93 c2bd f6c7 27be
00000100: 00f1 e13d 8809 973d 2464 7dbe 3530 5e3d
00000110: ae62 853e 75be a83c 7906 7cbe f510 b73b
00000120: c5b6 fcbd 39cf 8a3d 32e8 85bd 9fca 4bbe
00000130: d85f 253e 8399 0b3e fb69 4d3d 57db 14be
00000140: 2d04 b63e 53db 523e e9b0 1abf 2f5c e9be
00000150: 30c8 7b3e eb75 903d f5f1 38be 3480 e6bd
00000160: 9547 4f3e 11da 873e 0dc5 b83f 7319 603e
00000170: 272e cc3d a9ce c93d 0e1e c7be eefb ea3d
00000180: fafb 2fbe 8bee 38be 8282 dc3c ae04 09be
00000190: a40b 823d e7f7 b73c e7c4 5bbe ef6e acbe
000001a0: 5926 c93e ad5c 553e aa39 173d fecd d7be
000001b0: d5e7 a3be 1596 1f3e 3be0 923e f2b0 99be
000001c0: dabe 5f3e 5209 68be 965b 92be c928 723e
000001d0: 4b2b 07be dbee 8bbe dfb5 acbd a708 febd
000001e0: 28f5 443e 1abb 2b3e 24c0 8a3d de80 83be
000001f0: 6612 8a3d 1fd6 17be ff28 21be ab71 263e
00000200: 4357 3cbe d8e2 643e 65bd c2bc 232d 3bbe
00000210: e250 883e 41ee 5bbe fb37 3cbd 5fea 07be
00000220: 2dea b7bd 7480 ffbd f5b5 4f3e 18a5 3e3e
00000230: f1ab 293d 9cc4 56be 4536 83be 6527 8cbc
00000240: 5242 27be f2c0 eabd 0bf6 e73b 2505 2cbe
00000250: 7530 cb3a 4ee4 0f3e f64c 013e 7b0b 82be
00000260: 76e4 ca3b 874d 6bbe d461 563e 0fb2 5bbe
00000270: 1775 963d 252f 873d 4e9e 46be 6759 eebc
00000280: 7049 ba3e 6dff f2be 4253 f63d 9c3c 0d3e
00000290: 8661 1fbd dfb9 6fbd db5e 473d c74f 513c
000002a0: aa68 43c0 3d7f 603c f5a0 0bbe cfb0 32be
000002b0: 95c0 853e e757 ea3d 881a 6b3d 7b93 5ebe
000002c0: 01a7 41be d45a 04be 6560 91bd 3ec0 0dbe
000002d0: 28c7 aebd 0cfd 2a3e 2725 913e e0be 42be
000002e0: 0e88 2bbe e2a1 863d f52b 8ebe 56ed 863e
000002f0: f507 e6bd b84e 2ebe b09d 00be ede5 843c
00000300: 7774 d43d 6afc 1d3e 7eed 44bc c6d3 143e
00000310: e0eb 3bbd 9a79 253e 53cb 1f3e 4249 d6be
00000320: 3691 38be 4bc4 6bbe 5bef c03e 979e 20be
00000330: 62c9 46be 10e7 8e3e 6435 f83d 3fcf 1ebe
00000340: 4ed0 cdbe 9654 bdbd e53d db3d 2abd 5cbe
00000350: c2de c13d 34be 8b3e f75b f0bd f514 bbbc
00000360: 4796 c63d 6609 903d eb1d e43c dcc3 a8bd
00000370: 682a 4e3b dcbb 5ebe 950e ae3d 4f09 3dbe
00000380: a5c9 4c3e dc05 5c3e dcaf 2ebe 3740 83be
00000390: 0d18 2abe e948 f23c 1d3a 30be 2b2b 13bd
000003a0: eb47 9a3d 2f42 c3bc 289f 89be 70da 553e
000003b0: 36ec 80be f8b7 2abe 7a3b 473e 1586 123e
000003c0: defe 94bd b2e4 22bc 52c5 3bbe a29f 24be
000003d0: 6de9 4fbe 2816 f23c 5d4f 01be 6851 ae3d
000003e0: 4235 c8bd bc4f 8cbe d89c 71be f2a8 813e
000003f0: 495c f33d 2071 88bc f83d 29be 251a 78bd

l1.bias f4 [256]
0.21649213 -0.11954348 0.06338127 -0.36502427 -0.13246584 -0.129094 0.76230067 -0.15168491
0.63138574 -0.15428422 -0.22859257 0.15463425 -0.68495035 0.10237302 0.68438244 1.049561
0.10332981 0.11985255 -0.13893387 -0.061294228 -0.2545753 -0.13319406 -0.08615558 0.3771939
2.8883498 0.234878 -0.258518 0.44929132 0.8150166 -0.2635672 -0.24399395 -0.28333804
-0.055811938 0.7532839 0.39486763 0.1464773 -0.2125344 1.1694758 -0.14881761 0.31013852
0.21573238 0.05325199 0.08941615 0.11635775 -0.15578033 -0.61395586 -0.14081416 0.18985201
0.040766634 0.27568498 0.05608541 0.035465706 0.081862375 -0.020542357 0.040583186 0.032885425
-0.05099103 -0.24424858 1.1709511 0.14579788 -0.124432065 0.11907397 0.14136901 -0.050526585
-0.27616435 0.040155653 -0.7054715 0.26913652 -0.104197785 0.134237 -0.54671335 0.1982675
-0.047132146 -0.08541539 1.1311352 1.6705235 0.12641864 0.60889316 0.19256406 1.880734
0.17659804 0.19145314 0.19434613 -0.57095885 -0.13677007 0.37628832 0.25806507 -0.22110409
0.44770458 -0.12160143 0.2942451 0.059769277 0.1818356 -0.051651597 0.7390834 2.297447
-0.17851585 -0.07299204 0.54249686 0.7269028 0.91414124 -0.17396492 -0.11371522 -0.23521815
-0.073873 0.15455575 0.5987762 0.22921817 0.24442641 0.07919296 1.4458174 -0.17405733
0.024020223 -0.17917742 -0.15059137 -0.23619227 -0.13514236 -0.15196355 -0.089143895 -0.2538692
0.01776093 -0.24068789 0.072619095 -0.06907398 0.19593836 0.13157631 -0.29787344 1.0292907
0.16392472 0.3682957 0.22781387 0.022656154 -0.10324473 0.07955439 0.0056054187 0.5613369
0.07602881 -0.10645584 -0.1336022 0.06861522 -0.24701084 0.16114704 0.07154054 -0.3743191
0.05778171 -0.27346647 -0.17206593 0.2028502 -0.3025858 -0.060906798 0.21644846 0.45239708
-0.15197852 -0.22968313 -0.4636082 -0.5129907 -0.1835108 1.4967533 -2.151912 -0.3322832
0.04031776 -0.12030117 0.061907057 -0.5664347 0.937304 -0.4690742 0.33310443 0.5524821
0.30159417 -0.015200944 0.09494709 -1.027626 0.20311615 0.20728876 0.13429077 -0.06807906
0.095835276 -0.20846786 0.16643423 -1.6187869 -0.044772074 -0.29251677 0.0057824487 -0.22007339
0.63868374 -0.25764138 -0.27172792 1.2613362 -2.6337864 2.533413 0.0419925 -0.0077440524
0.21903476 0.18830244 -0.1224278 -0.06260059 -1.0430313 0.30229124 -0.14394207 -0.031689946
-0.04298582 1.1335303 -1.0401791 -0.1576198 -0.22635724 -0.14074147 0.2688032 1.3025379
0.12162081 0.13816096 1.2151048 -1.9188708 0.06383533 -0.04148219 -0.36762863 0.280732
0.19745779 -0.62043554 -0.15969327 0.20170325 -0.39748782 -0.23722221 0.19295497 0.0546383
-0.15974842 -0.14216958 -0.07524915 -0.11988726 0.23010908 0.28703874 0.035623573 0.10083783
-0.21297729 -0.14602558 0.012361702 1.0682055 0.025206942 0.036480166 -1.1540605 -0.04107694
0.10917043 0.024005806 -0.018589094 0.27010068 -0.24460743 -0.21800266 0.9374238 0.090735205
0.12926273 -0.24989294 -0.07412451 0.17133872 -0.24077411 0.21248126 -0.016484225 1.3822916
00000000: 1db0 5d3e 36d3 f4bd 0ace 813d 76e4 babe
00000010: 20a5 07be 3831 04be 2326 433f 4a53 1bbe
00000020: 7fa2 213f affc 1dbe 2c14 6abe 7158 1e3e
00000030: e858 2fbf f2a8 d13d b033 2f3f 0458 863f
00000040: 949e d33d 4175 f53d ae44 0ebe a80f 7bbd
00000050: b257 82be 0664 08be 5672 b0bd 8f1f c13e
00000060: b9da 3840 dc83 703e 795c 84be 8309 e63e
00000070: eea4 503f 48f2 86be 8dd9 79be af11 91be
00000080: 0f9b 64bd 37d7 403f 172c ca3e 25fe 153e
00000090: 9ea2 59be 62b1 953f a563 18be 7aca 9e3e
000000a0: f3e8 5c3e c21e 5a3d d01f b73d f94c ee3d
000000b0: e184 1fbe 362c 1dbf 9631 10be 9168 423e
000000c0: eafa 263d 9526 8d3e d1b9 653d 7d44 113d
000000d0: 76a7 a73d 7248 a8bc 8e3a 263d deb2 063d
000000e0: f8db 50bd 4d1c 7abe bae1 953f 0a4c 153e
000000f0: 3dd6 febd 0edd f33d 0ac3 103e f7f4 4ebd
00000100: 6a65 8dbe 417a 243d c899 34bf 43cc 893e
00000110: a665 d5bd 6d75 093e 68f5 0bbf a306 4b3e
00000120: a30d 41bd 44ee aebd 0ac9 903f b7d3 d53f
00000130: e373 013e 6ce0 1b3f 832f 453e e4bb f03f
00000140: 1ed6 343e 4b0c 443e ac02 473e 5c2a 12bf
00000150: 740d 0cbe dda8 c03e 1b21 843e 1c69 62be
00000160: 8939 e53e 2c0a f9bd 4ba7 963e a1d0 743d
00000170: 1d33 3a3e a090 53bd 9234 3d3f 5f09 1340
00000180: dccc 36be da7c 95bd 13e1 0a3f 4d16 3a3f
00000190: 2905 6a3f dc23 32be 86e3 e8bd 07dd 70be
000001a0: ba4a 97bd dd43 1e3e 6649 193f 2bb8 6a3e
000001b0: eb4a 7a3e eb2f a23d 8b10 b93f 163c 32be
000001c0: 0fc6 c43c 497a 37be a034 1abe 63dc 71be
000001d0: c262 0abe 559c 1bbe 1391 b6bd 25fb 81be
000001e0: 5f7f 913c e376 76be 52b9 943d a976 8dbd
000001f0: 11a4 483e f1bb 063e de82 98be ccbf 833f
00000200: e2db 273e 4191 bc3e 0a48 693e 6699 b93c
00000210: f971 d3bd 69ed a23d a9ad b73b c6b3 0f3f
00000220: feb4 9b3d 8505 dabd 04cf 08be 2386 8c3d
00000230: 69f0 7cbe bb03 253e d983 923d c1a6 bfbe
00000240: 84ac 6c3d cc03 8cbe 0d32 30be f6b7 4f3e
00000250: 87ec 9abe 6879 79bd aaa4 5d3e 97a0 e73e
00000260: 42a0 1bbe 0e32 6bbe 0e5e edbe 5c53 03bf
00000270: 41ea 3bbe 9d95 bf3f edb8 09c0 0621 aabe
00000280: 3c24 253d 7660 f6bd 4192 7d3d dd01 11bf
00000290: 28f3 6f3f 7e2a f0be aa8c aa3e 786f 0d3f
000002a0: 8d6a 9a3e 610d 79bc 9f73 c23d 4089 83bf
000002b0: aefd 4f3e 8143 543e 8583 093e 096d 8bbd
000002c0: 4945 c43d 9978 55be bc6d 2a3e 6934 cfbf
000002d0: ec62 37bd c2c4 95be b27a bd3b eb5a 61be
000002e0: c780 233f 92e9 83be ec1f 8bbe 7773 a13f
000002f0: f58f 28c0 7023 2240 5400 2c3d d2c1 fdbb
00000300: a64a 603e 5bd2 403e 6dbb fabd bd34 80bd
00000310: 0d82 85bf ebc5 9a3e 8d65 13be 51cd 01bd
00000320: e611 30bd 8517 913f 9724 85bf 1667 21be
00000330: 31ca 67be 881e 10be 93a0 893e 90b9 a63f
00000340: 5514 f93d 117a 0d3e 8e88 9b3f 8f9d f5bf
00000350: 19bc 823d 3be9 29bd d239 bcbe 1bbc 8f3e
00000360: 6032 4a3e ddd4 1ebf a286 23be 4c8b 4e3e
00000370: 8683 cbbe 61ea 72be fd95 453e 69cc 5f3d
00000380: 1795 23be e794 11be 3a1c 9abd 7487 f5bd
00000390: b7a1 6b3e bef6 923e 06ea 113d 1084 ce3d
000003a0: b816 5abe bb87 15be bc88 4a3c f5ba 883f
000003b0: ca7e ce3c 3a6c 153d 41b8 93bf 4b40 28bd
000003c0: bf94 df3d d3a7 c43c 2848 98bc a34a 8a3e
000003d0: 5f7a 7abe 173c 5fbe 02fb 6f3f 61d3 b93d
000003e0: 735d 043e efe3 7fbe 97ce 97bd 6b73 2f3e
000003f0: 7d8d 76be b094 593e ed09 87bc eeee b03f

l2.weight f4 [256, 256]
0.0037907436 -0.024344295 -0.057146564 0.0018719471 0.010416865 0.022313483 -0.015088373 -0.014128947
0.060872894 0.043132924 -0.025762096 -0.037826546 0.047673073 0.052929543 0.04006515 -0.04411285
0.012964532 -0.02641999 -0.058988124 -0.03065908 0.03613645 0.06279493 0.034456234 0.064780556
-0.036629964 -0.00035249442 0.014534064 -0.012178684 -0.06805888 -0.038769342 -0.0146001205 -0.02019569
-0.07865436 0.050682228 -0.07396172 0.0190875 -0.0013275609 -0.058895417 -0.051562592 0.001592475
0.022838324 -0.02199363 -0.012658492 -0.04167885 -0.015280345 -0.02176267 0.050325096 -0.03173562
0.28318942 -0.046057053 -0.045421544 0.022155344 -0.022931129 -0.036272764 -0.054429412 -0.05404713
0.04317975 -0.057707455 -0.024102503 -0.033602275 0.06214408 0.06126515 0.03442222 -0.023220431
-0.05339362 0.14666343 0.0992908 0.048106723 0.039327383 0.053112872 -0.03773215 0.008680962
0.011906326 0.036285363 0.09852375 0.06649406 0.038919605 -0.0128163695 0.0070537683 0.042838357
0.011215672 0.060885746 0.03729918 0.047527447 -0.037050977 0.03491693 -0.005089015 0.039805345
0.011038219 -0.044060327 0.0574345 -0.0058557317 0.039622232 -0.057708092 -0.065836266 0.04930258
0.008322039 -0.057545006 0.0008219339 0.10082863 -0.068202935 -0.050836507 0.04585611 0.048773214
-0.009461962 0.037729494 -0.06758807 0.04343068 -0.027082361 -0.032495767 0.00421422 0.057932228
-0.033423334 0.025060615 -0.0028157905 0.005401256 0.024992226 -0.059879094 -0.0585992 -0.03591869
0.024995219 -0.044518612 0.05772499 -0.020008728 -0.05223646 -0.04153555 -0.006641146 0.06909964
0.3339518 -0.012349441 -0.07084721 0.0019753093 -0.031810272 0.019703047 -0.01615239 -0.0005651038
-0.045366507 -0.021412708 0.059296302 -0.04048918 -0.11200943 -0.052195 0.060531586 -0.010279597
-0.042293273 -0.013154133 0.14724866 -0.015071048 0.103670865 0.0029044077 -0.0381383 0.14137512
-0.0057385787 0.006650641 -0.0252993 -0.024338461 0.13676728 -0.033059712 0.04571589 -0.028358698
-0.053624764 7.1329254e-05 0.026776081 -0.1070147 -0.030637866 0.0025323767 -0.00046041806 0.044890564
0.05187687 0.001292415 0.025517533 -0.026494395 -0.03407719 0.0036800103 0.057315715 0.06053193
0.009475147 -0.027594514 0.049863245 -0.12564889 -0.006656702 -0.03819815 0.009171163 0.06845796
0.05299079 0.027271427 0.014328554 -0.27357522 -0.040204924 0.025095783 0.015302792 0.013655364
-0.00263931 -0.022169828 0.0053763106 -0.010777133 0.096044384 -0.0059500416 -0.011956222 -0.020254755
-0.036798783 0.06460247 0.07451061 0.08917683 0.06044391 0.0446373 0.03494221 -0.045031697
-0.013691939 0.008666217 -0.013272079 0.035957433 0.09635328 -0.04897952 0.032086063 0.13514543
-0.024877232 0.09988823 0.06139926 0.16097884 0.079596184 -0.016113916 -0.064277016 -0.003077157
-0.026041722 -0.008261897 0.0113409255 0.024678297 -0.060313374 0.074381106 0.014895302 0.0505405
0.03019282 -0.008589125 0.04987959 0.068536006 0.019764505 0.08404889 0.07278731 0.0009067246
-0.05241617 -0.042153455 0.12888706 -0.026956007 0.03330764 0.056205846 0.11501495 0.023939112
0.014540508 -0.054809988 -0.013964251 -0.05759711 -0.060723208 -0.046507955 -0.030603673 0.12488218
00000000: 206e 783b b06d c7bc 8412 6abd 1f5c f53a
00000010: 80ab 2a3c c4ca b63c 3935 77bc 197d 67bc
00000020: db55 793d 26ac 303d 080b d3bc 02f0 1abd
00000030: d744 433d a6cc 583d 5b1b 243d adaf 34bd
00000040: 3069 543c bc6e d8bc 889d 71bd c028 fbbc
00000050: d003 143d a19a 803d fb21 0d3d abab 843d
00000060: 4d09 16bd 00cf b8b9 4820 6e3c 1a89 47bc
00000070: 7462 8bbd 9acc 1ebd 5835 6fbc 6f71 a5bc
00000080: 8915 a1bd 2b98 4f3d 3e79 97bd 645d 9c3c
00000090: 8d01 aeba 523c 71bd 4c33 53bd 98ba d03a
000000a0: 7017 bb3c fc2b b4bc 9065 4fbc 71b7 2abd
000000b0: 6a5a 7abc a047 b2bc b021 4e3d 36fd 01bd
000000c0: 34fe 903e 52a6 3cbd f10b 3abd 207f b53c
000000d0: 10da bbbc c092 14bd 60f1 5ebd 8660 5dbd
000000e0: 40dd 303d a75e 6cbd 9d72 c5bc 8aa2 09bd
000000f0: ca8a 7e3d 2af1 7a3d 50fe 0c3d c638 bebc
00000100: 45b3 5abd f02e 163e fa58 cb3d 8e0b 453d
00000110: c015 213d e28c 593d 078d 1abd 983a 0e3c
00000120: c012 433c f69f 143d d2c6 c93d 0a2e 883d
00000130: 2a6a 1f3d c0fb 51bc 4c23 e73b 4677 2f3d
00000140: f0c1 373c 5563 793d 06c7 183d 24ac 423d
00000150: c4c2 17bd 0e05 0f3d c0c1 a6bb ee0a 233d
00000160: a5d9 343c 9a78 34bd 7040 6b3d 70e1 bfbb
00000170: ec4a 223d 525f 6cbd 2ad5 86bd 81f1 493d
00000180: 2959 083c 50b4 6bbd 0d77 573a 3e7f ce3d
00000190: fbad 8bbd f139 50bd 9ed3 3b3d 6cc6 473d
000001a0: 5806 1bbc 3e8a 1a3d 9d6b 8abd 5ee4 313d
000001b0: d4db ddbc 481a 05bd 7117 8a3b 584a 6d3d
000001c0: e8e6 08bd eb4b cd3c 2089 38bb 05fd b03b
000001d0: 7fbc cc3c c843 75bd b705 70bd 7a1f 13bd
000001e0: c6c2 cc3c 2659 36bd 0a71 6c3d 58e9 a3bc
000001f0: e6f5 55bd 2e21 2abd f89d d9bb 1d84 8d3d
00000200: bbfb aa3e 4f55 4abc 5818 91bd 3174 013b
00000210: 7d4b 02bd 4968 a13c 0452 84bc 7923 14ba
00000220: 3bd2 39bd b469 afbc aee0 723d fbd7 25bd
00000230: 3365 e5bd 6dca 55bd f8ef 773d c16b 28bc
00000240: b63b 2dbd 6f84 57bc 5ac8 163e 8fec 76bc
00000250: 6451 d43d e057 3e3b e836 1cbd a4c4 103e
00000260: b00a bcbb 9fed d93b 7a40 cfbc 7461 c7bc
00000270: b90c 0c3e 9f69 07bd 9640 3b3d 8050 e8bc
00000280: a4a5 5bbd 9a96 9538 8359 db3c 862a dbbd
00000290: 43fc fabc 3bf6 253b 4464 f1b9 2bdf 373d
000002a0: d77c 543d 4066 a93a 250a d13c c60a d9bc
000002b0: 8694 0bbd 542c 713b e2c3 6a3d 54f0 773d
000002c0: a63d 1b3c e40d e2bc 673d 4c3d 1aaa 00be
000002d0: 7720 dabb aa75 1cbd a542 163c b033 8c3d
000002e0: df0c 593d 5468 df3c 50c2 6a3c 0d12 8cbe
000002f0: ebad 24bd ac95 cd3c 90b8 7a3c bfba 5f3c
00000300: 46f8 2cbb 809d b5bc c32b b03b 9292 30bc
00000310: ebb2 c43d 91f8 c2bb 08e4 43bc 4ded a5bc
00000320: 52ba 16bd 4d4e 843d 0599 983d 58a2 b63d
00000330: 0994 773d 9ad5 363d 901f 0f3d 2873 38bd
00000340: 2854 60bc c0fc 0d3c 2273 59bc 1a48 133d
00000350: de54 c53d c09e 48bd ad6c 033d 9063 0a3e
00000360: 56cb cbbc 3392 cc3d ca7d 7b3d a3d7 243e
00000370: 5303 a33d 5501 84bc aba3 83bd 21aa 49bb
00000380: 7355 d5bc e85c 07bc 4acf 393c 242a ca3c
00000390: 280b 77bd 1f55 983d 6d0b 743c 8e03 4f3d
000003a0: ef56 f73c 67b9 0cbc 8a4e 4c3d 9b5c 8c3d
000003b0: 2ce9 a13c d321 ac3d 8311 953d 42b1 6d3a
000003c0: 56b2 56bd 1aa9 2cbd f8fa 033e d8d2 dcbc
000003d0: 986d 083d 1a38 663d f58c eb3d f51b c43c
000003e0: 503b 6e3c 7080 60bd 50ca 64bc f2ea 6bbd
000003f0: e6b8 78bd 207f 3ebd 8eb4 fabc 3ac2 ff3d

l2.bias f4 [256]
0.41576177 0.030682927 0.045572978 0.02247255 -0.034768254 -0.08418129 -0.06095279 0.026040552
0.01374525 0.0571286 0.02787529 0.011974902 -0.031393405 0.034333035 0.15506206 0.04792708
-0.029929012 0.004383278 0.017335668 -0.03078356 0.028720878 0.016781488 -0.0015467585 -0.003337069
-0.043248057 0.0144032305 -0.0148538975 -0.07770737 -0.033478327 -0.014280596 -0.040879305 0.055119686
-0.12056881 0.13127273 -0.06613787 0.056611784 0.027939428 -0.062048003 -0.06468165 -0.009172078
-0.03307647 0.02498819 0.36269742 -0.20795389 0.049222223 -1.2250555 0.024076624 0.06196034
-0.06897116 0.38169414 0.023961464 0.013303326 0.030762188 0.009281264 -0.06295571 0.020538189
-0.051113077 -0.052522708 0.013277966 0.098553486 0.02004996 0.0596069 -0.016937934 0.24471104
0.0039403713 0.030175848 -0.002545885 0.3475034 0.0016488056 0.039980773 -0.047892053 -0.038014136
-0.029385509 0.018320903 -0.050511736 0.038620688 -0.04732352 -0.044062212 -0.056202196 -0.041379914
0.000117954776 0.29384273 -0.07224526 -0.039715745 -0.034086965 0.051494054 -0.060803495 -0.21514918
-0.086781494 -0.024781175 0.0017711557 -0.011641724 -0.031033438 0.031440936 0.3296978 0.0077221473
0.026417159 0.055092532 0.03379677 -0.048419952 -0.042067308 0.022043552 0.0062392876 -0.0119529795
-0.05483012 -0.07967233 0.03192451 0.002040846 -0.0271201 -0.080969065 -0.057338186 0.04264794
-0.09023186 -0.04260266 -0.07874907 0.07345684 0.012028253 0.026268382 -0.006985423 -0.05635965
-0.030177236 0.049570683 -0.019589819 0.016996711 0.041270155 -0.025093744 0.0034961472 -0.010337037
-0.08350482 0.044792328 -0.0024461322 0.037028346 -0.028148055 -0.05125808 0.09247143 -0.08357946
0.039438136 0.004776179 0.2984056 -0.03409379 -0.045078646 0.036166478 0.020239526 -0.017730404
-0.04752551 0.029782243 0.26853228 0.010843272 -0.061912347 0.6751435 0.026411142 -0.05996611
-0.04884608 0.012803825 -0.0648113 -0.010896707 0.010427783 -0.08854653 -0.05676735 0.047484312
-0.041004475 0.021279112 0.04533683 -0.069717735 -0.093672544 -0.07298888 -0.017267486 0.8700438
0.034356777 -0.043737475 0.014137335 -0.055350665 0.020584926 0.022022128 0.023923282 0.030775273
0.0067253946 -0.05853739 0.21416378 0.009167565 -0.030763553 -0.034098968 -0.045464575 0.01694154
-0.024840346 0.052171487 -0.11542884 -0.03153487 0.31009176 0.043518648 -0.00017493218 -0.05905203
-0.0486866 0.0036136862 -0.030639807 0.050706677 0.010562428 0.4387851 0.015906857 -0.056189522
-0.009258255 0.02003008 -0.01058783 0.014651327 0.015795907 -0.023068016 -0.024477374 0.028163392
-0.05656349 0.022492751 0.060439702 -0.035662666 0.05909511 0.011953834 -0.022416282 -0.0025447947
-0.009700817 0.038978722 -0.04843301 0.021472251 -0.027059706 0.006812813 -0.0037206202 -0.026959267
-0.015697995 -0.06918268 -0.00088917126 -0.05248574 0.14203216 -0.001135941 -0.025789116 -0.026318632
-0.030479928 -0.053886406 0.03221813 -0.038010865 -0.098608114 -1.7139821 0.7947622 0.03237619
-0.06400302 -0.043122664 0.025587244 -0.04954707 -0.021161327 -0.04321894 0.02603705 0.02400186
0.02312789 -0.045736603 -0.06632319 -0.04602837 -0.06318523 0.06265697 -0.0015633572 0.394853
00000000: bade d43e c35a fb3c bbaa 3a3d 5a18 b83c
00000010: 2869 0ebd 3d67 acbd a2a9 79bd ff52 d53c
00000020: c233 613c aeff 693d b85a e43c 6132 443c
00000030: 5f96 00bd cca0 0c3d 97c8 1e3e 304f 443d
00000040: b02d f5bc 9aa1 8f3b 8803 8e3c ce2d fcbc
00000050: 0c48 eb3c 5579 893c 9abc caba bab2 5abb
00000060: e024 31bd 87fb 6b3c c35d 73bc 0b25 9fbd
00000070: 9220 09bd 29f9 69bc 0f71 27bd 2ec5 613d
00000080: c8ec f6bd 5c6c 063e 4b73 87bd c2e1 673d
00000090: 3ae1 e43c 0c26 7ebd d077 84bd 7c46 16bc
000000a0: 317b 07bd 08b4 cc3c 7ab3 b93e ddf1 54be
000000b0: 3e9d 493d 9ece 9cbf 573c c53c 20ca 7d3d
000000c0: c040 8dbd 6a6d c33e d54a c43c 32f6 593c
000000d0: fc00 fc3c 7110 183c ecee 80bd b43f a83c
000000e0: f25b 51bd 0d22 57bd d38b 593c 69d6 c93d
000000f0: d03f a43c 5d26 743d 6cc1 8abc 8895 7a3e
00000100: 3b1e 813b 5733 f73c ddd8 26bb f7eb b13e
00000110: bc1c d83a e1c2 233d 752a 44bd b6b4 1bbd
00000120: e1b9 f0bc b815 963c 65e5 4ebd ba30 1e3d
00000130: 4fd6 41bd 947a 34bd 4634 66bd fc7d 29bd
00000140: 7d5e f738 8e72 963e 53f5 93bd faac 22bd
00000150: c69e 0bbd 6eeb 523d 160d 79bd 1150 5cbe
00000160: 7fba b1bd e401 cbbc 2026 e83a eebc 3ebc
00000170: d639 febc 36c8 003d 26ce a83e 110a fd3b
00000180: cc68 d83c b5a8 613d 7b6e 0a3d 0054 46bd
00000190: c54e 2cbd ae94 b43c f072 cc3b 6ed6 43bc
000001a0: 8c95 60bd 3f2b a3bd 46c3 023d b7bf 053b
000001b0: f92a debc 1cd3 a5bd 72db 6abd 9baf 2e3d
000001c0: 7bcb b8bd 2080 2ebd 3147 a1bd 8a70 963d
000001d0: 2612 453c ca30 d73c fae5 e4bb 60d9 66bd
000001e0: 4036 f7bc a10a 4b3d d47a a0bc b03c 8b3c
000001f0: e50a 293d 6591 cdbc 9e1f 653b ad5c 29bc
00000200: 9304 abbd 2978 373d 4a4f 20bb 09ab 173d
00000210: c096 e6bc fef3 51bd a961 bd3d b52b abbd
00000220: e289 213d 7e81 9c3b 9ec8 983e eea5 0bbd
00000230: 63a4 38bd 4d23 143d 5dcd a53c 5a3f 91bc
00000240: 1caa 42bd e4f9 f33c 107d 893e fba7 313c
00000250: cd97 7dbd 34d6 2c3f 2e5c d83c 069f 75bd
00000260: d412 48bd 22c7 513c c9bb 84bd 1a88 32bc
00000270: 4bd9 2a3c e257 b5bd e184 68bd e97e 423d
00000280: 4ff4 27bd 8851 ae3c 1db3 393d 2cc8 8ebd
00000290: 64d7 bfbd 327b 95bd 8b74 8dbc 31bb 5e3f
000002a0: b1b9 0c3d 1126 33bd 48a0 673c 61b7 62bd
000002b0: b8a1 a83c c067 b43c c2fa c33c 6d1c fc3c
000002c0: b360 dc3b e7c4 6fbd c04d 5b3e 8e33 163c
000002d0: d903 fcbc 5cab 0bbd 1039 3abd fcc8 8a3c
000002e0: fb7d cbbc c5b1 553d f565 ecbd b52a 01bd
000002f0: 59c4 9e3e 9c40 323d 006e 37b9 8be0 71bd
00000300: 9a6b 47bd 98d3 6c3b 5500 fbbc ceb1 4f3d
00000310: 090e 2d3c 71a8 e03e 194f 823c fc26 66bd
00000320: f0af 17bc 1f16 a43c 9478 2dbc 1f0c 703c
00000330: 6b66 813c 23f9 bcbc c684 c8bc eab6 e63c
00000340: 1eaf 67bd b842 b83c 9f8f 773d 0413 12bd
00000350: b70d 723d 04da 433c 5aa2 b7bc 92c6 26bb
00000360: 2df0 1ebc 27a8 1f3d b161 46bd 93e6 af3c
00000370: 51ac ddbc 053e df3b a6d5 73bb aed9 dcbc
00000380: 1599 80bc a6af 8dbd 4617 69ba 4afb 56bd
00000390: e170 113e dbe3 94ba b243 d3bc 2c9a d7bc
000003a0: 0bb1 f9bc feb7 5cbd 28f7 033d 48b1 1bbd
000003b0: 0df3 c9bd c463 dbbf 8975 4b3f e59c 043d
000003c0: 0414 83bd 64a1 30bd 579c d13c def1 4abd
000003d0: 855a adbc 5806 31bd a74b d53c 8c9f c43c
000003e0: b376 bd3c 4e56 3bbd 74d4 87bd 3e88 3cbd
000003f0: 4267 81bd 4c52 803d 90e9 ccba 2c2a ca3e

l3.weight f4 [256, 256]
-0.026208596 -0.04191406 -0.069009416 -0.017306693 -0.03799343 -0.0025328398 0.04268857 0.011520691
0.050579704 0.0065137297 0.0066745654 0.008563645 0.015796252 0.033428036 0.0016637669 -0.029454112
-0.014819533 0.008963369 -0.03408201 0.04472555 -0.014693402 -0.012036957 0.0613437 0.027275763
-0.054583363 0.05490943 0.025595263 -0.039193336 0.049837664 -0.052534334 0.01627013 0.00064381247
-0.060182363 0.024275046 0.061444573 -0.016155645 -0.036598966 0.06011451 -0.061457194 0.02320999
0.03315585 0.05596322 0.013710187 -0.0029727048 -0.03034234 -0.060750276 0.04834956 -0.026684232
0.023258425 -0.03937097 -0.05232335 0.021472827 0.007601097 0.017790705 0.04859049 -0.009659559
0.008262932 -0.050174855 -0.021888122 -0.047045495 0.039686255 -0.018361008 0.019846566 -0.03913996
-0.0019335225 -0.060849875 -0.02568751 -0.035802387 0.060307734 -0.05928547 0.05947011 0.044532955
-0.0011892095 0.019180655 -0.037487336 0.0037146136 0.015845604 -0.045025624 -0.041929014 -0.04420051
0.057516664 0.042015914 -0.024762742 -0.029295594 -0.018489003 -0.040767536 -0.030830264 0.03235271
0.0051898286 -0.012159079 0.030791953 0.02031298 -0.028152704 0.056294426 0.027278703 0.032137536
-0.0017609522 0.035604917 -0.048639372 -0.009952746 0.0329946 0.053604193 0.058531873 -0.03051871
0.0049372986 -0.0061285347 0.041853942 -0.014172122 0.020681992 0.06143067 -0.047822647 -0.035797074
0.0013100728 -0.012717616 0.013693698 0.03031013 0.010863937 -0.00868994 -0.03716732 -0.041927032
-0.026329823 -0.046542324 0.027320176 0.03972674 -0.06379866 -0.0076150894 0.033947222 0.01733651
-0.02009347 0.049724378 0.0015976205 0.05568981 0.051802874 0.04324817 -0.024382664 0.008999832
0.032435752 -0.0134862065 -0.0058693904 0.001141049 0.0026725903 -0.006928794 0.04561717 -0.014577897
-0.023921914 0.057181567 -0.064641505 0.021709383 -0.0006393343 0.05693561 -0.045416683 -0.009330004
0.052912638 0.01108443 0.0028125867 -0.010820597 0.028098173 -0.03925266 0.041027628 0.02408725
0.055029705 -0.010991029 -0.01311136 -0.034327663 0.008389987 -0.04403109 -0.036039405 -0.010079192
0.06249942 0.013970315 -0.0059904456 -0.001534611 -0.06040536 -0.030850977 -0.03304463 -0.061959945
-0.053981185 -0.037789255 -0.033635784 0.05488375 0.015497267 0.03868974 -0.02037312 -0.026029745
0.019867457 -0.010580055 -0.04086148 0.03464973 -0.00913317 0.033439063 0.057275638 -0.051198922
-0.021108419 -0.019258045 -0.0091530755 -0.037387237 -0.050853543 -0.06880431 0.05004292 -0.05025968
-0.03327985 0.0006733164 -0.023864672 0.03256809 -0.04370556 -0.026272215 -0.028183535 -0.053821303
-0.026296206 0.04380145 0.00431633 0.06040191 -0.044350024 0.012750018 0.021602646 -0.05957713
-0.060347483 -0.043353662 -0.026821464 -0.05594237 0.005723916 0.022231013 -0.014941707 -0.04386223
-0.018806718 -0.044745386 0.05810988 0.01895599 0.060905155 -0.019970305 -0.035621315 0.024685182
-0.017458752 0.008983165 -0.04554124 0.033750467 0.020878486 0.052674063 0.013813408 -0.062108137
-0.04722459 0.017969757 0.037031285 0.058829933 -0.0056814626 -0.055830278 0.0058823302 -0.005979143
0.049742967 -0.061903175 -0.017003357 -0.049732983 -0.043929756 0.048814654 -0.026816048 -0.02105768
00000000: 69b3 d6bc 14ae 2bbd cf54 8dbd c4c6 8dbc
00000010: 009f 1bbd 00fe 25bb 36da 2e3d 48c1 3c3c
00000020: aa2c 4f3d 2071 d53b 50b6 da3b 884e 0c3c
00000030: 2467 813c d6eb 083d c112 da3a c049 f1bc
00000040: a0cd 72bc 18db 123c 9499 0bbd 2332 373d
00000050: 98bc 70bc a836 45bc 8843 7b3d 6c71 df3c
00000060: ce92 5fbd b6e8 603d 28ad d13c 3189 20bd
00000070: 9422 4c3d 3e2e 57bd f048 853c 86c5 283a
00000080: c881 76bd 76dc c63c 4ead 7b3d d858 84bc
00000090: cce8 15bd a23a 763d 8aba 7bbd e022 be3c
000000a0: 6ece 073d b039 653d b1a0 603c b6d1 42bb
000000b0: 8090 f8bc 48d5 78bd 300a 463d e498 dabc
000000c0: 7488 be3c 7443 21bd 0251 56bd c8e7 af3c
000000d0: a012 f93b d0bd 913c d206 473d 2043 1ebc
000000e0: 4061 073c 2684 4dbd b84e b3bc c7b2 40bd
000000f0: 0e8e 223d d369 96bc 4495 a23c 3951 20bd
00000100: 406e fdba b83d 79bd 9d6e d2bc 86a5 12bd
00000110: 3e05 773d 52d5 72bd ee96 733d 3068 363d
00000120: 40df 9bba c020 9d3c 528c 19bd e070 733b
00000130: a4ce 813c ca6c 38bd c2bd 2bbd 980b 35bd
00000140: 9896 6b3d e118 2c3d 3cdb cabc 50fd efbc
00000150: 4076 97bc dcfb 26bd c08f fcbc 4684 043d
00000160: 700f aa3b e036 47bc 683f fc3c 6867 a63c
00000170: 80a0 e6bc fc94 663d 9677 df3c a6a2 033d
00000180: c0cf e6ba 76d6 113d 143a 47bd d810 23bc
00000190: 5825 073d 1290 5b3d 1ebf 6f3d 6002 fabc
000001a0: 10c9 a13b e0d1 c8bb 0a6f 2b3d 3032 68bc
000001b0: 486d a93c ba9e 7b3d aee1 43bd f49f 12bd
000001c0: c0b6 ab3a 8c5d 50bc 885b 603c f34c f83c
000001d0: a8fe 313c 4060 0ebc c23c 18bd aebb 2bbd
000001e0: a4b1 d7bc 2aa3 3ebd 90ce df3c 82b8 223d
000001f0: dfa8 82bd 0088 f9bb 3e0c 0b3d 4c05 8e3c
00000200: 109b a4bc caab 4b3d 4067 d13a 001b 643d
00000210: 402f 543d fe24 313d 27be c7bc 0874 133c
00000220: 5adb 043d 40f5 5cbc 0454 c0bb 408f 953a
00000230: a026 2f3b f00a e3bb 12d9 3a3d 22d8 6ebc
00000240: e4f7 c3bc 3837 6a3d c462 84bd e0d7 b13c
00000250: 0099 27ba 5035 693d d806 3abd e0dc 18bc
00000260: ecba 583d 789b 353c 6053 383b e048 31bc
00000270: 242e e63c 66c7 20bd 960c 283d a052 c53c
00000280: d466 613d b813 34bc 08d1 56bc 2a9b 0cbd
00000290: 2876 093c f259 34bd 0e9e 13bd 3223 25bc
000002a0: 64ff 7f3d c0e3 643c 804b c4bb 0025 c9ba
000002b0: 9c6b 77bd 30bb fcbc ce59 07bd b6c9 7dbd
000002c0: 601b 5dbd e8c8 1abd adc5 09bd c8cd 603d
000002d0: 40e8 7d3c 2279 1e3d 88e5 a6bc 553c d5bc
000002e0: 14c1 a23c f857 2dbc 5e5e 27bd e0ec 0d3d
000002f0: 4ba3 15bc 66f7 083d dc99 6a3d f6b5 51bd
00000300: 90eb acbc 0cc3 9dbc c8f6 15bc 5c23 19bd
00000310: ce4b 50bd 46e9 8cbd cef9 4c3d 18dd 4dbd
00000320: 7450 08bd 8081 303a d87f c3bc 1e66 053d
00000330: 9a04 33bd d438 d7bc 28e1 e6bc ba73 5cbd
00000340: 246b d7bc 2669 333d 0070 8d3b fe67 773d
00000350: 5fa8 35bd 74e5 503c 08f8 b03c 2607 74bd
00000360: ec2e 77bd 9c93 31bd b0b8 dbbc d423 65bd
00000370: b08f bb3b d01d b63c 10ce 74bc e2a8 33bd
00000380: 8c10 9abc f046 37bd a004 6e3d 9849 9b3c
00000390: af77 793d c498 a3bc a8e7 11bd 9438 ca3c
000003a0: a805 8fbc 202e 133c 7489 3abd ee3d 0a3d
000003b0: 5c09 ab3c c2c0 573d a251 623c 1a65 7ebd
000003c0: 926e 41bd 5035 933c 1eae 173d a8f7 703d
000003d0: 902b babb 4aae 64bd 90c0 c03b b0ec c3bb
000003e0: 48bf 4b3d 2f8e 7dbd a04a 8bbc d0b4 4bbd
000003f0: b0ef 33bd e0f1 473d 54ad dbbc 2881 acbc

l3.bias f4 [256]
-0.0522387 -0.0147442045 0.025213 0.0054904073 -0.037101574 -0.047612 0.054557875 0.038246468
0.016492885 -0.029042685 -0.00084772566 -0.04172788 -0.022161294 -0.04931671 -0.10199874 0.06091834
-0.0640733 -0.04075049 -0.065752745 0.0038007284 -0.022310577 0.036781937 -0.009331673 0.114804976
-0.08016468 -0.05707005 -0.020320104 -0.03975716 0.054402627 -0.022692643 -0.04581933 -0.024829112
0.5253311 0.024937725 0.46952733 0.42346945 0.0031565577 -0.012566706 -0.037265047 0.2072841
-0.0042803437 0.05471635 0.09186675 0.4690008 0.41839677 0.00024344772 -0.0015958059 0.051442996
-0.06463543 0.037360188 0.48183575 -0.015365079 -0.030894462 -0.019704401 -0.0061342856 -0.0060688825
0.3006818 0.5224335 -0.05543439 -0.011374283 0.05885268 -0.052113563 0.5310916 0.4611243
-0.056543212 0.010098084 0.051617563 -0.009151394 0.051733654 0.002358065 -0.0017050611 0.009661632
0.033385172 0.074180365 0.43499514 0.032379225 -0.020153983 0.29898104 0.41982993 -0.023493871
0.06199693 -0.01714013 0.018499175 -0.046461396 -0.044609852 -0.04894851 -0.03197252 0.011563107
0.0026772693 0.0010681376 0.007582459 0.047166362 0.006477294 -0.058824275 0.00954659 0.23456468
0.004471603 0.018801581 -0.0626619 0.3517765 -0.05371552 0.004972477 0.05655389 -0.058821738
0.0025758245 0.03733839 -0.036163196 0.4342287 0.081360266 -0.03881801 0.070280924 -0.04517667
0.03255096 0.0055610174 0.023105038 -0.021905333 -0.07058744 -0.06715316 0.38134578 0.0033246607
0.00087770267 0.22348696 0.037103157 0.0015089203 0.029734772 -0.0140201645 -0.031514235 0.0509835
0.012088279 -0.03642543 0.43594688 0.050454196 0.24085553 0.025840998 0.071017645 0.0069842506
0.008628901 -0.013732316 -0.061700203 -0.01700613 -0.043404598 0.40803114 -0.01222455 -0.04531613
0.05943366 -0.040353507 0.048973702 0.0016789627 -0.03645208 0.0060368534 -0.082790695 0.028559525
-0.07695687 0.41083112 -0.060442746 0.026218303 -0.006057779 -0.032358885 0.112707905 0.04982635
-0.037963957 0.463007 0.039971482 0.08700993 -0.039725214 0.017081143 0.37684 0.04965153
-0.028140377 0.035904888 0.51056576 -0.063355155 -0.022267127 0.027991699 -0.021149453 0.04391541
0.20272796 -0.05984461 0.03138496 -0.02594232 -0.031028122 -0.066850886 -0.061078165 -0.73597366
0.38534102 0.014916261 0.020598372 -0.0056504183 -0.04469412 0.5374289 0.03100288 0.04648888
0.004229084 0.018537285 -0.025277594 -0.034910522 -0.051231563 0.014027294 0.041705187 0.18871805
0.046745475 -0.051206976 0.017491201 0.03405924 -0.054796048 -0.03661752 -0.05357543 0.03494298
0.10685729 -0.034411043 0.023808112 0.04524178 0.49041706 -0.007276554 -0.0659615 -0.0756254
-0.048755895 0.009265967 0.017575493 0.48096845 0.02144245 0.0052035814 0.024816386 0.0003089828
0.07169919 0.024998298 -0.049340427 -0.039478384 -0.037830964 0.040348276 -0.013412876 -0.08220279
-0.027114876 0.033517864 0.034128763 -0.04819127 0.24542542 0.03436603 -0.034826703 -0.062375855
0.023689887 -0.05005365 0.0024802107 0.039219923 -0.051848937 0.01547464 -0.045268558 -0.049434476
0.47875518 -0.00960021 0.018789224 -0.023609554 -0.021696936 0.05760961 -0.037604544 0.017511075
00000000: 3ff8 55bd ad91 71bc 7e8b ce3c e0e8 b33b
00000010: d2f7 17bd cd04 43bd 1478 5f3d 54a8 1c3d
00000020: 161c 873c edea edbc e839 5eba daea 2abd
00000030: 9a8b b5bc 5200 4abd b7e4 d0bd 8285 793d
00000040: dd38 83bd fce9 26bd 60a9 86bd a415 793b
00000050: acc4 b6bc a8a8 163d e0e3 18bc df1e eb3d
00000060: 612d a4bd 49c2 69bd 5976 a6bc 67d8 22bd
00000070: 4ad5 5e3d ece5 b9bc 0dad 3bbd 6c66 cbbc
00000080: 197c 063f 334a cc3c e365 f03e fdd0 d83e
00000090: 40de 4e3b 96e4 4dbc 3ca3 18bd 4842 543e
000000a0: 2042 8cbb 401e 603d a224 bc3d df20 f03e
000000b0: 1a38 d63e 0046 7f39 5c2a d1ba e4b5 523d
000000c0: 955f 84bd ff06 193d 2db3 f63e d0bd 7bbc
000000d0: 6216 fdbc 206b a1bc 1e02 c9bb 7add c6bb
000000e0: f7f2 993e 34be 053f 2c0f 63bd 335b 3abc
000000f0: 820f 713d 0875 55bd 9ef5 073f 7c18 ec3e
00000100: db99 67bd 6f72 253c f06c 533d baef 15bc
00000110: abe6 533d c489 1a3b 5b7c dfba d24b 1e3c
00000120: e4be 083d e0eb 973d afb7 de3e 14a0 043d
00000130: f719 a5bc 0b14 993e f3f3 d63e 3876 c0bc
00000140: 7ef0 7d3d 7569 8cbc 958b 973c 4e4e 3ebd
00000150: d2b8 36bd 3c7e 48bd 9ef5 02bd 3073 3d3c
00000160: 2075 2f3b c000 8c3a 4776 f83b 8431 413d
00000170: 7b3f d43b b9f1 70bd 4d69 1c3c b931 703e
00000180: 8686 923b c605 9a3c e254 80bd 0d1c b43e
00000190: ce04 5cbd 29f0 a23b 0da5 673d 10ef 70bd
000001a0: 2acf 283b 24f0 183d dc1f 14bd 3953 de3e
000001b0: 36a0 a63d a2ff 1ebd 72ef 8f3d 2c0b 39bd
000001c0: 2854 053d 3239 b63b c746 bd3c d072 b3bc
000001d0: 2690 90bd 9987 89bd c13f c33e 8de2 593b
000001e0: a115 663a c4d9 643e 7bf9 173d f7c6 c53a
000001f0: 5696 f33c d5b4 65bc 1215 01bd 13d4 503d
00000200: eb0d 463c d532 15bd 6e34 df3e 0fa9 4e3d
00000210: d5a2 763e 80b0 d33c b371 913d 24dc e43b
00000220: 3c60 0d3c 82fd 60bc 5ab9 7cbd 7150 8bbc
00000230: 05c9 31bd 75e9 d03e 7b49 48bc 689d 39bd
00000240: b670 733d b849 25bd a698 483d a410 dc3a
00000250: c74e 15bd ccd0 c53b 2b8e a9bd aaf5 e93c
00000260: 909b 9dbd 7558 d23e d092 77bd c4c7 d63c
00000270: 5580 c6bb c08a 04bd 67d3 e63d b716 4c3d
00000280: 1880 1bbd 410f ed3e 23b9 233d 4332 b23d
00000290: e8b6 22bd c1ed 8b3c 2cf1 c03e 675f 4b3d
000002a0: a686 e6bc 0111 133d 70b4 023f 59c0 81bd
000002b0: 8d69 b6bc d94e e53c 9e41 adbc a5e0 333d
000002c0: eb97 4f3e 9f1f 75bd 848d 003d fd84 d4bc
000002d0: b02e febc 1ee9 88bd 192d 7abd c568 3cbf
000002e0: 6b4b c53e 5563 743c ebbd a83c 2527 b9bb
000002f0: 2e11 37bd f194 093f c0f9 fd3c 206b 3e3d
00000300: 2194 8a3b 81db 973c f512 cfbc 56fe 0ebd
00000310: 30d8 51bd bcd2 653c 0fd3 2a3d 4e3f 413e
00000320: 2f78 3f3d 68be 51bd b549 8f3c b481 0b3d
00000330: d271 60bd 41fc 15bd e971 5bbd 5f20 0f3d
00000340: ffd7 da3d 98f2 0cbd 3b09 c33c 724f 393d
00000350: f217 fb3e 2970 eebb d316 87bd 7de1 9abd
00000360: 43b4 47bd 48d0 173c 7bfa 8f3c 7f41 f63e
00000370: 14a8 af3c ce82 aa3b bc4b cb3c f8fe a139
00000380: 06d7 923d 3bc9 cc3c 3019 4abd 16b4 21bd
00000390: a4f4 1abd 3c44 253d aec1 5bbc f059 a8bd
000003a0: 0420 debc 074a 093d 9aca 0b3d 3664 45bd
000003b0: cd50 7b3e 65c3 0c3d 72a6 0ebd d37d 7fbd
000003c0: 4b11 c23c 0e05 4dbd 088b 223b 12a5 203d
000003d0: 8d5f 54bd 5889 7d3c 866b 39bd ce7b 4abd
000003e0: 661f f53e 334a 1dbc dceb 993c d368 c1bc
000003f0: c6bd b1bc 0ef8 6b3d 3907 1abd 6373 8f3c

l4.weight f4 [1, 256]
0.008595601 0.0102493055 -0.040896643 0.020776123 0.02810127 0.019147465 -0.049388304 -0.0040962305
-0.004381613 0.0008458405 -0.03513403 -0.018540705 -0.02367197 0.042722724 -0.012452321 0.04257215
-0.027202386 -0.045545153 -0.019087395 -0.03355999 0.02423641 0.0012983342 0.0035502315 -0.0006506944
-0.014678596 -0.0007292891 0.04192794 -0.05429634 0.023650475 -0.046116885 0.020437479 -0.03625272
0.08358064 -0.0251087 0.045378458 0.06010392 0.01171878 0.050254475 0.051979426 -0.016463386
-0.03402169 0.042731844 0.021342644 0.09986008 0.07596106 -0.04192792 0.00530611 0.0050760303
-0.02014624 -0.04573156 0.0528098 0.0030637803 0.032678235 0.0112494305 -0.051531438 0.025888659
-0.017809253 0.10812034 -0.052830614 -0.005809618 0.022712491 0.02663409 0.08942397 0.0485711
-0.0040030004 -0.016495347 0.022511102 -0.0077225547 -0.021829946 0.011882128 0.010934354 -0.0481185
0.017450549 -0.0065170135 0.09604313 0.016787317 0.014514822 0.06264485 0.053060215 0.03685086
0.018830925 0.016202977 -0.03435043 -0.017150627 -0.02726174 0.028119877 0.015052028 0.06154471
-0.024554573 0.0014352128 0.028506856 0.0012498867 -0.03775886 -0.017334 0.0018930209 0.00033783793
-0.039603505 -0.036498703 0.032327592 0.064672895 -0.02696465 0.0011960989 0.0076875715 -0.0329765
-0.00091987074 -0.040803336 -0.021392193 0.035836726 0.0066700173 0.04873301 0.011647738 -0.031251747
0.012920335 -0.021560723 -0.049041077 -0.027271748 0.0289417 -0.011326049 0.037731744 -0.0040372517
-0.01473605 0.002503572 -0.032589328 -0.007873809 -0.000875493 -0.036517307 0.017344538 0.0074947285
-0.053037036 0.00013276453 0.069333136 -0.0013412933 0.0019549355 0.05656348 -0.004077181 -0.018780295
0.02035334 0.023132477 -0.018436061 -0.015363251 -0.020393124 0.021189544 -0.004042381 -0.017173218
0.024088785 -0.017285 -0.023054304 -0.020004565 -0.0014159979 -0.07198796 -0.031514872 -0.0024216862
-0.0037943947 0.0352725 -0.04596939 -0.009189683 0.019629369 0.0016318187 -0.01243544 0.0041567334
0.004406084 0.09727203 -0.02868992 0.012251402 0.028665448 -0.0047869785 0.007890431 -0.037294976
-0.0047738594 -0.024717584 0.07913891 0.019569697 -0.037512492 -0.02285175 0.016294591 -0.0062394454
0.0151439635 -0.001862035 -0.02250672 -0.033307154 -0.04007175 -0.033730168 -0.013946743 0.100203075
0.03668575 -0.05224651 -0.020134816 -0.032965954 -0.006050028 0.10068193 0.058465168 0.019512525
0.015830187 -0.01046049 -0.00022266713 0.026144633 0.058257688 -0.0110418685 0.029997265 0.00161685
0.022669377 0.018098503 -0.027538767 -0.049438994 -0.004722509 -0.022817537 -0.012647215 -0.04285441
0.0038939829 0.051043183 0.032858245 0.030087942 0.072973974 -0.007560819 -0.025288967 -0.0052614226
0.03071443 -0.030905483 0.009185985 0.071585216 0.045670535 0.0067979647 -0.03266379 -0.0037292712
0.02688861 -0.034471903 -0.031409405 -0.05289437 -0.03895896 0.0063126907 0.0011761553 0.0011772256
-0.0074480264 -0.023361253 -0.015573576 -0.046592183 -0.08391042 0.0018152377 0.0018579521 -0.05373092
-0.03103328 0.0143783325 0.017117549 0.046001967 0.014109784 0.022687605 0.01904374 -0.029810833
0.09217081 -0.036384255 -0.017001811 -0.038328227 -0.0032084216 0.021392848 -0.0025996654 -0.017404398
00000000: 90d4 0c3c b4ec 273c 3d83 27bd b032 aa3c
00000010: a234 e63c 25db 9c3c 644b 4abd ac39 86bb
00000020: a293 8fbb 65bb 5d3a b3e8 0fbd ade2 97bc
00000030: b8eb c1bc 06fe 2e3d d204 4cbc 2260 2e3d
00000040: 8ad7 debc 8e8d 3abd 2b5d 9cbc 3376 09bd
00000050: 708b c63c de2c aa3a 00ab 683b 5d93 2aba
00000060: 7e7e 70bc c32d 3fba a2bc 2b3d d765 5ebd
00000070: a4be c13c 0fe5 3cbd 806c a73c bb7d 14bd
00000080: 542c ab3d c3b0 cdbc c3de 393d 872f 763d
00000090: 2000 403c a3d7 4d3d 61e8 543d 39de 86bc
000000a0: 545a 0bbd 9607 2f3d c5d6 ae3c 7183 cc3d
000000b0: 7991 9b3d 9cbc 2bbd e0de ad3b d454 a63b
000000c0: ba09 a5bc 0451 3bbd 174f 583d b4c9 483b
000000d0: 9dd9 053d 884f 383c a112 53bd 7414 d43c
000000e0: b6e4 91bc 326e dd3d ea64 58bd 9c5e bebb
000000f0: 8c0f ba3c bc2f da3c ea23 b73d 7df2 463d
00000100: 9a2b 83bb 4021 87bc 3469 b83c 7c0d fdbb
00000110: b7d4 b2bc 42ad 423c 0126 333c e717 45bd
00000120: 74f4 8e3c ac8c d5bb 43b2 c43d 8e85 893c
00000130: 93cf 6d3c f14b 803d ab55 593d edf0 163d
00000140: 5043 9a3c 1bbc 843c 09b3 0cbd 797f 8cbc
00000150: 0354 dfbc a85b e63c c89c 763c 4e16 7c3d
00000160: ac26 c9bc c01d bc3a 3687 e93c 3dd3 a33a
00000170: 09a9 1abd 0800 8ebc 3e1f f83a d71f b139
00000180: 4937 22bd aa7f 15bd f069 043d 3973 843d
00000190: f8e4 dcbc 6bc6 9c3a 06e8 fb3b 5e12 07bd
000001a0: 7b23 71ba 6621 27bd ae3e afbc 88c9 123d
000001b0: 2990 da3b 449c 473d 27d6 3e3c d501 00bd
000001c0: d0af 533c 1da0 b0bc 4cdf 48bd 0069 dfbc
000001d0: 2517 ed3c e590 39bc 9a8c 1a3d ec4a 84bb
000001e0: 796f 71bc f812 243b 637c 05bd 2601 01bc
000001f0: 5781 65ba 2c93 15bd 2216 8e3c 5796 f53b
00000200: 5d3d 59bd b536 0b39 88fe 8d3d 56ce afba
00000210: 601e 003b 1caf 673d e099 85bb 22d9 99bc
00000220: 0cbc a63c 5280 bd3c 3907 97bc 25b6 7bbc
00000230: 7b0f a7bc b295 ad3c f375 84bb d9ae 8cbc
00000240: d855 c53c 4699 8dbc 61dc bcbc 9de0 a3bc
00000250: 0199 b9ba 6c6e 93bd bd15 01bd 27b5 1ebb
00000260: 61ab 78bb e679 103d 664a 3cbd 5390 16bc
00000270: c5cd a03c c0e2 d53a 04be 4bbc 3535 883b
00000280: e960 903b 8f36 c73d 2007 ebbc 1bba 483c
00000290: cdd3 ea3c 16dc 9cbb de46 013c 9ec2 18bd
000002a0: 096e 9cbb 887c cabc 9513 a23d a150 a03c
000002b0: b3a6 19bd 9833 bbbc 3c7c 853c 4374 ccbb
000002c0: 631e 783c 870f f4ba 0360 b8bc 156d 08bd
000002d0: 4622 24bd a528 0abd e180 64bc 4537 cd3d
000002e0: cc43 163d 7000 56bd c5f1 a4bc 4f07 07bd
000002f0: 503f c6bb 5432 ce3d 2c79 6f3d bbd8 9f3c
00000300: 4fae 813c 7a62 2bbc c17b 69b9 452d d63c
00000310: 9d9f 6e3d f4e8 34bc d3bc f53c 7cec d33a
00000320: 21b5 b93c 5043 943c fb98 e1bc 8b80 4abd
00000330: 47bf 9abb d8eb babc 4436 4fbc 1b88 2fbd
00000340: 3132 7f3b a812 513d 5e96 063d fd7a f63c
00000350: 6173 953d bfc0 f7bb cf2a cfbc 0368 acbb
00000360: d49c fb3c 7f2d fdbc d080 163c 459b 923d
00000370: 0711 3b3d 76c1 de3b 77ca 05bd ca66 74bb
00000380: 8145 dc3c 6932 0dbd 26a7 00bd c4a7 58bd
00000390: 6e93 1fbd b0da ce3b 3929 9a3a 234d 9a3a
000003a0: 930e f4bb 1960 bfbc 5028 7fbc 72d7 3ebd
000003b0: 3ad9 abbd 45ed ed3a 8786 f33a f414 5cbd
000003c0: 8139 febc 1993 6b3c 1a3a 8c3c 8f6c 3c3d
000003d0: b92c 673c 5bdb b93c 9e01 9c3c d935 f4bc
000003e0: 0dc4 bc3d a807 15bd 6247 8bbc 0ffe 1cbd
000003f0: 6244 52bb 0e40 af3c 265f 2abb ab93 8ebc
