models/GMI_pretrained/GMI_GPM_channel_predictor_183+-7V_nonocean.pt (torch, 545380 bytes, 7 tensors)

l1.weight f4 [256, 13]
0.26245084 -0.03174408 -0.11336044 0.038794033 0.10831936 -0.06690641 -0.39684224 0.11672646
-0.21586788 -0.17028335 0.31272405 0.2184729 -1.2151754 0.18470013 -0.29955152 0.036620528
0.11445633 0.026398994 -0.12959877 -0.14466973 0.03164444 -0.2800071 0.2528228 0.11288666
0.18997979 -0.193186 -0.01410178 0.13463645 -0.064706154 -0.25454098 0.22753005 0.1742961
0.12072375 -0.07321701 -0.063216336 0.11062696 -0.021734558 0.30207768 -0.08538706 -0.18178856
0.023905855 0.24210624 -0.14004105 -0.19820428 -0.09485024 0.00031738298 0.060061127 0.015042608
-0.26117694 0.20051052 0.18137765 -0.20441203 -0.072193295 0.23550402 -0.21988547 -0.08034511
0.22742808 -0.15588562 0.2160078 -0.20592889 -0.021088539 -0.20066233 -0.0040680305 -0.25634003
0.19534042 -0.22024237 -0.24584587 0.07501919 -0.08969975 0.007127394 -0.08736437 -0.0608131
-0.19841906 -0.14684841 -0.26917964 0.09476129 0.07271835 -0.10842059 0.11554769 0.03054287
-0.078975625 0.14754334 -0.34652397 -0.07388512 -0.09736464 -0.033890415 -0.36708632 -0.0066925893
0.17455648 0.10487215 -0.082398176 0.09293408 0.054834314 0.12348752 -0.29522592 -0.21713343
-0.21780306 -0.012568785 0.05423383 -0.12165169 0.15438852 -0.09908158 0.05166758 0.14034604
0.23340146 -0.1968765 -0.14448589 -0.13066468 0.010698001 -0.046854716 0.1823354 -0.20386466
0.20714961 -0.19762437 -0.045841776 0.036354993 0.2492801 0.18175784 -0.30586523 -0.16509594
-0.27737594 0.20826901 0.12334883 0.20587727 -0.15728286 -0.064530894 -0.2032693 0.24712668
0.27310088 -0.2159955 0.3783291 0.0014598916 0.23298219 0.22055072 0.108541206 -0.09580431
-0.33210492 0.046856802 0.16451661 -0.31347242 -0.14878221 -0.26487434 0.17997427 0.04258467
-0.25694373 -0.075993575 0.059590507 -0.27699256 0.13322149 -0.22790337 -0.15142936 -0.1641184
-0.04229183 -0.11412066 0.13084103 -0.2362584 -0.108948916 0.083195776 -0.06634239 0.13933165
0.24570017 -0.16195503 -0.22346002 0.081101544 -0.049168855 -0.06471676 -0.28817672 0.100798436
-0.2520776 -0.022525504 0.07910859 0.15635423 0.11773015 -0.037100784 0.058414336 0.037972018
-0.0015521983 -0.12717183 0.25202444 -0.019827995 0.09559403 0.08356674 -0.27692768 -0.17825142
0.24772505 -0.07142669 0.18977386 -0.08915905 -0.23567426 0.17310275 -0.19482473 -0.27106354
0.024291204 0.0175438 0.039314568 -0.24594095 0.11338707 0.0930255 0.023512116 -0.011996672
0.22651426 -0.23669818 -0.17505692 0.16489434 -0.25141227 -0.062172867 0.16011252 -0.2404781
0.12832057 -0.10649396 -0.23865487 -0.23845628 -0.2224661 0.12960625 -0.14613786 -0.21356955
-0.1674758 -0.25070027 0.2142034 0.21149296 0.18509166 0.14131854 0.28163943 -0.1114133
-0.11403056 -0.10140901 0.062355854 -0.16329359 0.12108829 -0.22164777 0.2155502 0.22331989
0.36608866 0.02605772 -0.16655862 0.11174256 -0.15388617 -0.24838284 -0.18190536 -0.18428032
0.044569854 0.034753602 -0.19308 -0.21783897 0.26833564 -0.043821577 0.18859431 -0.063911185
-0.07558539 0.10164407 0.101217315 -0.3801272 0.1954915 0.11585531 -0.066072024 -0.31029153
00000000: f55f 863e 1506 02bd 8529 e8bd 7ee6 1e3d
00000010: 8ad6 dd3d 3a06 89bd e82e cbbe 480e ef3d
00000020: 780c 5dbe c25e 2ebe 5e1d a03e 5cb7 5f3e
00000030: de8a 9bbf 0822 3d3e d15e 99be 68ff 153d
00000040: 1568 ea3d b442 d83c 8ab5 04be 4d24 14be
00000050: 9a9d 013d 175d 8fbe fd71 813e 1f31 e73d
00000060: 108a 423e 8dd2 45be 270b 67bc 23de 093e
00000070: a984 84bd 3253 82be a3fd 683e ad7a 323e
00000080: 033e f73d cdf2 95bd 9177 81bd 6390 e23d
00000090: ac0c b2bc eda9 9a3e 69df aebd c826 3abe
000000a0: 36d6 c33c b3ea 773e ec66 0fbe 10f6 4abe
000000b0: d840 c2bd 6c66 a639 a802 763d 4575 763c
000000c0: fcb8 85be a152 4d3e 10bb 393e 6351 51be
000000d0: 14da 93bd f727 713e a829 61be fa8b a4bd
000000e0: e8e2 683e 7ba0 1fbe 2631 5d3e 06df 52be
000000f0: dfc1 acbc 6d7a 4dbe 1d4d 85bb 003f 83be
00000100: 5207 483e 3787 61be 05bf 7bbe a9a3 993d
00000110: 81b4 b7bd ea8c e93b 17ec b2bd 2817 79bd
00000120: 5e2e 4bbe 6e5f 16be ead1 89be 3512 c23d
00000130: 5ced 943d 9d0b debd 44a4 ec3d 0a35 fa3c
00000140: f9bd a1bd 9a15 173e 976b b1be 1551 97bd
00000150: 1d67 c7bd add0 0abd bdf2 bbbe 824d dbbb
00000160: efbe 323e 36c7 d63d 60c0 a8bd 3954 be3d
00000170: f299 603d 06e7 fc3d da27 97be 3a58 5ebe
00000180: c407 5fbe 4eed 4dbc 4b24 5e3d 8524 f9bd
00000190: 0618 1e3e 49eb cabd 62a1 533d dfb6 0f3e
000001a0: cb00 6f3e fe99 49be 1cf4 13be f6cc 05be
000001b0: ab46 2f3c bbea 3fbd 22b6 3a3e e6c1 50be
000001c0: 071f 543e 0b5e 4abe 96c4 3bbd f9e8 143d
000001d0: 4843 7f3e ba1e 3a3e 5e9a 9cbe e90e 29be
000001e0: 3804 8ebe 7944 553e 509e fc3d 7ed1 523e
000001f0: c20e 21be c628 84bd d425 50be c70e 7d3e
00000200: e1d3 8b3e ed2d 5dbe 5ab4 c13e d559 bf3a
00000210: e292 6e3e 0cd8 613e da4a de3d 0d35 c4bd
00000220: a809 aabe ebec 3f3d 0b77 283e 757f a0be
00000230: 5d5a 18be 9c9d 87be 2d4b 383e 436d 2e3d
00000240: 218e 83be 85a2 9bbd 2d15 743d f8d1 8dbe
00000250: 376b 083e 805f 69be 4c10 1bbe a70e 28be
00000260: 333a 2dbd 18b8 e9bd 31fb 053e b9ed 71be
00000270: 9c20 dfbd 8c62 aa3d 85de 87bd f5ac 0e3e
00000280: d398 7b3e 8ad7 25be b4d2 64be 9118 a63d
00000290: 4865 49bd 388a 84bd e68b 93be 696f ce3d
000002a0: 5110 81be 6887 b8bc af03 a23d 531b 203e
000002b0: 811c f13d fef6 17bd df43 6f3d 8c88 1b3d
000002c0: 2273 cbba 5539 02be 5909 813e 526e a2bc
000002d0: cec6 c33d 0a25 ab3d 77c9 8dbe 8a87 36be
000002e0: a3ab 7d3e 2848 92bd 1454 423e 0599 b6bd
000002f0: 9854 71be d941 313e 2280 47be d7c8 8abe
00000300: 59fe c63c 04b8 8f3c 5008 213d f2d7 7bbe
00000310: 7b37 e83d 2784 be3d 7b9c c03c b08d 44bc
00000320: 5bf3 673e 0261 72be 1f42 33be 10da 283e
00000330: 1cb9 80be faa8 7ebd 89f4 233e e43f 76be
00000340: 7866 033e 8119 dabd f161 74be e22d 74be
00000350: 27ce 63be 80b7 043e 2aa5 15be fab1 5abe
00000360: c77e 2bbe c95b 80be 2358 5b3e 9c91 583e
00000370: ab88 3d3e cfb5 103e 0b33 903e a82c e4bd
00000380: db88 e9bd 87af cfbd da68 7f3d 6f36 27be
00000390: 23fd f73d a2f7 62be 31b9 5c3e f8ad 643e
000003a0: f96f bb3e 0077 d53c 588e 2abe 49d9 e43d
000003b0: 5694 1dbe 1258 7ebe 6645 3abe fbb3 3cbe
000003c0: e18e 363d cb59 0e3d c3b6 45be 2e11 5fbe
000003d0: 4a63 893e 417e 33bd de1e 413e dee3 82bd
000003e0: 83cc 9abd c42a d03d 064b cf3d 08a0 c2be
000003f0: ec2e 483e 8c45 ed3d c550 87bd 88de 9ebe

l1.bias f4 [256]
-5.8592477 0.25412443 0.6481521 -0.11474801 0.14105026 -0.13498317 0.4195131 0.30144024
-0.053130515 -0.032760017 -3.1860402 0.04184109 0.19116949 0.59911287 -0.20556961 0.0121601
-0.16919355 0.517917 0.118105315 2.1937828 0.42813328 -0.19747858 0.2518771 0.35554096
-1.3901984e-05 -3.9824033 6.4427104 -7.667571 0.16092175 0.09795363 -0.049169723 0.24712917
0.09274668 5.364155 -0.060741615 -0.21093248 0.064344354 -0.26092905 0.39624098 -2.969764
-0.2531433 -0.0805092 -0.17983563 -0.04567152 0.5534695 -0.22255269 -1.4260507 0.14920041
0.65573776 -0.070130385 -0.2507614 -0.21957642 -0.37339604 0.23068352 -0.2783181 -2.3316574
0.09409252 -0.39481577 -0.16370754 -0.27716202 -2.9907782 -0.13876747 -0.50820166 -0.22674578
-2.7046967 0.011548109 0.07877228 0.0305265 0.15308625 -0.2142693 -0.057143074 0.4428833
-0.023932772 -0.3364332 -0.22999634 -0.08648182 0.23899408 -0.030822923 0.33610624 -0.016611464
0.22861448 -0.022054182 -0.17855859 0.26169226 0.14928088 0.22159001 0.44384986 -0.22627671
-0.18522336 -4.366619 -0.22126837 3.7842197 -2.3662045 -0.38844845 -0.059715074 4.751012
1.1036286 -0.19796793 2.2294867 -0.27030724 0.14200516 -0.23586172 0.4265625 -0.51368445
-0.042591933 0.088985585 -1.6744237 1.2362056 3.8978658 -2.6201477 7.187838 0.84491944
-0.17346033 -0.1650213 5.675966 -0.08355267 3.113549 0.21764638 0.28950238 -0.03912333
-0.025984578 -5.4738164 -0.06779695 0.22146681 0.15918075 0.5745097 -0.1601394 0.39757043
8.970647 0.18237397 0.30643764 0.6273038 -0.60874355 -0.10775993 -0.48400432 -0.23137432
0.13639258 0.052257262 -0.17471921 -1.032841 0.0036961231 0.20065136 0.20602639 0.19908395
0.4459516 -1.0572673 0.16852392 0.20766959 -0.021919066 0.2653966 2.5786803 0.19442119
4.2072678 -1.0368025 0.38758186 -0.024949284 -0.26321957 -4.693559 -0.13325956 -0.068676695
0.02349534 0.5843445 -1.4042068 3.7966697 -0.88898236 -0.27730992 -0.15042546 -4.0389304
-0.10976541 -0.0832207 0.009658396 -2.2249746 -0.24978662 3.0198143 0.21456689 -0.14473188
6.697393 0.5257439 0.13490628 1.6434503 0.18504165 -0.83211094 3.0976925 -0.13302611
0.18060048 -0.042748015 -0.38825756 -0.0074865874 0.0992035 -0.353042 0.03085068 -4.1947556
0.5313173 0.14442687 0.24196385 -4.424475 2.950593 -1.4421077 0.62707543 0.6102729
-0.75290704 -0.0851293 -0.2552067 1.9341615 -0.1566925 -0.059121016 2.2766683 -0.05005724
0.4578374 -0.6088881 0.26267952 -0.089076094 0.05180457 2.1784601 0.32266563 -2.8518696
-0.23436123 0.033125527 -1.7385925 0.004285919 -0.2574368 -2.4895787 0.35407692 -6.7125278
-0.06444801 0.026824463 0.15992957 0.20379321 -0.8371917 0.122907445 -2.1839554 0.8872639
-0.02444257 0.39985153 1.8561049 0.12165834 7.622713 -0.009863018 1.4481232 0.07768626
-0.3712101 0.3760211 -4.1396194 -0.25436988 -0.13131295 0.48534665 0.047855195 0.1809708
-0.5118579 7.228729 -0.81307817 -0.086398765 -0.061556548 -0.16768229 0.0028901137 4.755879
00000000: f57e bbc0 991c 823e 4ced 253f 0101 ebbd
00000010: 7b6f 103e 0739 0abe 6cca d63e 6056 9a3e
00000020: 629f 59bd 5e2f 06bd 15e8 4bc0 9061 2b3d
00000030: efc1 433e 765f 193f d780 52be 283b 473c
00000040: 1341 2dbe 3596 043f 33e1 f13d f066 0c40
00000050: 4934 db3e d337 4abe 09f6 803e 7709 b63e
00000060: 913c 69b7 b2df 7ec0 af2a ce40 be5c f5c0
00000070: acc8 243e ea9b c83d 3166 49bd 6e0f 7d3e
00000080: f9f1 bd3d 28a7 ab40 33cc 78bd affe 57be
00000090: f9c6 833d 7e98 85be 19e0 ca3e 9d10 3ec0
000000a0: 009c 81be 02e2 a4bd d526 38be 0f12 3bbd
000000b0: 2db0 0d3f dae4 63be d488 b6bf fec7 183e
000000c0: 6ede 273f 85a0 8fbd cc63 80be a4d8 60be
000000d0: c42d bfbe 4d38 6c3e b67f 8ebe e039 15c0
000000e0: 94b3 c03d 4b25 cabe f3a2 27be 2ee8 8dbe
000000f0: e968 3fc0 0f19 0ebe 8119 02bf 0c30 68be
00000100: c019 2dc0 4834 3d3c 5c53 a13d b612 fa3c
00000110: a4c2 1c3e 6969 5bbe db0e 6abd 9ac1 e23e
00000120: a90e c4bc f940 acbe 2984 6bbe 611d b1bd
00000130: ddba 743e 5b80 fcbc 1e16 ac3e c414 88bc
00000140: ea19 6a3e f9aa b4bc 10d8 36be 87fc 853e
00000150: 16dd 183e 7ee8 623e 4a40 e33e 15b5 67be
00000160: 31ab 3dbe 58bb 8bc0 2d94 62be a830 7240
00000170: e56f 17c0 b7e2 c6be cb97 74bd 4a08 9840
00000180: b443 8d3f 1bb8 4abe e9af 0e40 b665 8abe
00000190: cd69 113e bc85 71be 6666 da3e d380 03bf
000001a0: e174 2ebd 133e b63d 8453 d6bf fc3b 9e3f
000001b0: a276 7940 80b0 27c0 c502 e640 a44c 583f
000001c0: 969f 31be 58fb 28be 83a1 b540 aa1d abbd
000001d0: 6344 4740 b1de 5e3e a839 943e c93f 20bd
000001e0: 9cdd d4bc 8129 afc0 21d9 8abd 32c8 623e
000001f0: 4700 233e 1113 133f 95fb 23be 5a8e cb3e
00000200: c587 0f41 3ec0 3a3e 65e5 9c3e fb96 203f
00000210: 9ed6 1bbf 3db1 dcbd 6acf f7be 64ed 6cbe
00000220: 7faa 0b3e b60b 563d 98e9 32be 2234 84bf
00000230: a83a 723b 8d77 4d3e 95f8 523e aadc 4b3e
00000240: c553 e43e 8954 87bf 8991 2c3e 56a7 543e
00000250: 9d8f b3bc 10e2 873e 1909 2540 5916 473e
00000260: f0a1 8640 f2b5 84bf 2171 c63e 7162 ccbc
00000270: b7c4 86be a331 96c0 3275 08be 5ea6 8cbd
00000280: 4d79 c03c 9a97 153f 0cbd b3bf a3fc 7240
00000290: 5994 63bf 91fb 8dbe 2209 1abe eb3e 81c0
000002a0: b0cc e0bd 9d6f aabd 403e 1e3c fc65 0ec0
000002b0: 10c8 7fbe a344 4140 6cb7 5b3e 9834 14be
000002c0: 0b51 d640 2797 063f df24 0a3e 945c d23f
000002d0: 8f7b 3d3e 3905 55bf 9840 4640 ff37 08be
000002e0: 55ef 383e 8b18 2fbd b2c9 c6be 0c52 f5bb
000002f0: 342b cb3d ecc1 b4be 91ba fc3c 703b 86c0
00000300: 6904 083f a3e4 133e 5fc5 773e 4d95 8dc0
00000310: 84d6 3c40 fc96 b8bf 0488 203f d83a 1c3f
00000320: 84be 40bf 4558 aebd 74aa 82be 9b92 f73f
00000330: 0074 20be e128 72bd efb4 1140 d208 4dbd
00000340: aa69 ea3e 17e0 1bbf ee7d 863e 876d b6bd
00000350: 0731 543d e46b 0b40 6e34 a53e 0885 36c0
00000360: 64fc 6fbe a2ae 073d 338a debf e570 8c3b
00000370: c2ce 83be 4255 1fc0 9249 b53e 07cd d6c0
00000380: 51fd 83bd fabe db3c 94c4 233e 2baf 503e
00000390: 3252 56bf e6b6 fb3d edc5 0bc0 ba23 633f
000003a0: c93b c8bc 57b9 cc3e d894 ed3f 0228 f93d
000003b0: 44ed f340 7f98 21bc 1a5c b93f f919 9f3d
000003c0: 400f bebe d685 c03e c377 84c0 c53c 82be
000003d0: e776 06be 5b7f f83e cf03 443d 6950 393e
000003e0: 1f09 03bf bf51 e740 e425 50bf d6f1 b0bd
000003f0: b822 7cbd e8b4 2bbe 1068 3d3b 2930 9840

l2.weight f4 [256, 256]
0.03419353 0.04235352 -0.081830345 -0.008475772 0.025750285 0.044170797 -0.025120303 -0.038512222
-0.04700671 -0.028899152 -0.028605966 0.05452776 -0.04703001 0.022050459 0.056867458 -0.011102505
-0.013566121 -0.015298262 0.012658387 0.05479154 -0.047438465 0.043406602 0.034758434 -0.046050563
0.021499526 -0.038140006 -0.072220325 -0.073898196 -0.015685542 0.011578292 -0.009803951 0.0039606197
-0.053224996 0.009363799 -0.03639929 0.04056131 -0.03278203 0.019509401 -0.021951564 0.010696277
-0.0067046136 0.028194012 0.057611883 0.013825737 0.023125099 -0.019769222 -0.04134764 0.00039887428
-0.04959175 -0.0370673 0.04422468 -0.052684523 -0.021007657 0.030406613 0.0022100336 0.05987829
0.037811436 0.033879757 -0.045934148 0.034937665 0.003103122 -0.015862532 -0.058908056 -0.04344812
0.049653523 0.04862483 0.026589904 -0.05726791 -0.05950343 -0.035535857 0.023945466 0.00935174
0.014935717 -0.03865557 0.012647279 -0.029457554 0.03207103 -0.009156561 0.0407025 -0.05330374
-0.060568415 0.035731167 0.00081416965 0.020754807 -0.041072413 0.052229874 0.03571242 0.04179064
-0.058193363 0.013802677 -0.029665507 0.018243924 0.0037520155 0.040711 0.060188107 0.03508151
0.048336122 -0.05317229 0.018103756 0.008004035 0.055532105 0.061344758 -0.076768935 -0.0063580466
-0.032694682 0.025778612 -0.057541654 0.04178313 -0.03625746 -0.019780569 -0.01834435 -0.051510233
-0.051145725 0.043388866 -0.0042660153 0.03155516 -0.013399608 -0.057439014 0.011772995 -0.026393756
0.0022758096 -0.046960227 0.009144777 0.050162435 -0.058855087 -0.033723727 0.02131012 -0.025916649
0.009131129 -0.032296494 0.05092245 -0.025870005 0.018622383 0.029638335 -0.029897613 -0.05980725
-0.06573858 0.051191114 -0.055766575 -0.06369913 0.04480926 -0.0148298815 -0.0051342547 0.028977416
0.013374456 0.03276231 -0.04012703 0.061604574 0.059743904 0.038035214 -0.0070943106 -0.008462378
0.00082825864 -0.021636851 0.04503245 -0.0015830398 -0.06012921 -0.00831973 0.016768463 0.056418657
0.018663222 0.008671142 0.037445355 -0.059610605 0.04441022 0.04930816 0.031517066 0.02619064
-0.05072356 0.024527712 0.042313837 -0.047288842 -0.041652083 -0.017929025 -0.0589683 0.00010775775
-0.024138767 -0.045834508 -0.025325414 -0.04814467 -0.0456678 0.014417423 -0.03257414 0.05369728
-0.05038838 -0.03156127 0.032524504 0.0020582601 0.037266344 0.05004291 0.0063550323 0.05056793
-0.025730385 0.0023434758 0.028402105 -0.033342287 0.045214646 -0.077764064 -0.054488048 0.046668548
0.022085084 -0.05307454 -0.008222245 -0.055314466 0.04830356 0.01495602 0.00962786 0.032249857
-0.043454263 0.014499538 -0.032392055 0.006648779 0.040046677 -0.016412698 0.0054878606 -0.05066622
-0.043189712 -0.0014264435 0.029673005 -0.0030976832 0.012228966 -0.014389656 -0.028559977 0.022694642
-0.03210421 0.013666312 -0.050638825 -0.020370536 -0.0426519 -0.039774843 -0.0535101 0.0046147206
-0.03760309 -0.08307646 0.0057572946 0.032882042 -0.076273695 0.02755836 0.028129146 -0.01518023
-0.04027436 0.027536381 0.003455966 -0.022850916 0.047301523 -0.011127574 -0.030143246 -0.05728787
-0.04096923 -0.06801864 -0.047786184 -0.0031773 0.029734492 0.026341893 0.0036317871 -0.05986722
00000000: 840e 0c3d e27a 2d3d ab96 a7bd f7dd 0abc
00000010: 43f2 d23c 70ec 343d 18c9 cdbc febe 1dbd
00000020: 1c8a 40bd eabd ecbc 0f57 eabc 8058 5f3d
00000030: 8aa2 40bd 2aa3 b43c daed 683d 48e7 35bc
00000040: 7044 5ebc 90a5 7abc 2065 4f3c 186d 603d
00000050: d64e 42bd 1fcb 313d dc5e 0e3d 849f 3cbd
00000060: c61f b03c b238 1cbd 40e8 93bd f057 97bd
00000070: f77e 80bc e0b2 3d3c c0a0 20bc 16c8 813b
00000080: 7402 5abd 9f6a 193c 6c17 15bd 9e23 263d
00000090: 7346 06bd 2ed2 9f3c c4d3 b3bc 703f 2f3c
000000a0: 60b2 dbbb 21f7 e63c 70fa 6b3d 5885 623c
000000b0: d970 bd3c 10f3 a1bc 255c 29bd 0020 d139
000000c0: b820 4bbd e2d3 17bd f024 353d bacb 57bd
000000d0: 4018 acbc 4a17 f93c 36d6 103b f042 753d
000000e0: 2ae0 1a3d 80c5 0a3d 7225 3cbd cc1a 0f3d
000000f0: c05d 4b3b 24f2 81bc 9349 71bd a8f6 31bd
00000100: 7e61 4b3d d42a 473d 12d3 d93c c291 6abd
00000110: deb9 73bd 0c8e 11bd 4829 c43c 0a38 193c
00000120: f0b4 743c 4e55 1ebd 8836 4f3c f850 f1bc
00000130: ea5c 033d 6705 16bc aab7 263d 0655 5abd
00000140: 9616 78bd d85a 123d 006e 553a fc05 aa3c
00000150: 8c3b 28bd feee 553d 3047 123d aa2c 2b3d
00000160: 2a5c 6ebd a024 623c 1405 f3bc 4874 953c
00000170: 60e4 753b 94c0 263d ce87 763d a1b1 0f3d
00000180: 19fc 453d 30cb 59bd 544e 943c 5b23 033c
00000190: a275 633d a444 7b3d 0839 9dbd 2957 d0bb
000001a0: dcea 05bd ab2d d33c ccb0 6bbd ca24 2b3d
000001b0: b482 14bd dc0a a2bc e446 96bc 65fc 52bd
000001c0: 2e7e 51bd 86b8 313d eec9 8bbb fc3f 013d
000001d0: 088a 5bbc 2c45 6bbd 85e3 403c b837 d8bc
000001e0: c025 153b 5e59 40bd fad3 153c 2077 4d3d
000001f0: 0812 71bd e421 0abd 9092 ae3c 274f d4bc
00000200: bb9a 153c 5449 04bd 0f94 503d 55ed d3bc
00000210: f88d 983c 18cc f23c d7eb f4bc 72f8 74bd
00000220: f3a1 86bd c6ad 513d 7e6b 64bd b174 82bd
00000230: ea89 373d 08f9 72bc 403d a8bb 0c62 ed3c
00000240: 8920 5b3c c631 063d 3e5c 24bd 1455 7c3d
00000250: 06b6 743d d0ca 1b3d 6477 e8bb c9a5 0abc
00000260: 7f1f 593a c43f b1bc f273 383d 007e cfba
00000270: 0c4a 76bd 7a4f 08bc 045e 893c 4017 673d
00000280: 9de3 983c 6811 0e3c 4d60 193d 402a 74bd
00000290: 7ee7 353d 5af7 493d 0a18 013d c18d d63c
000002a0: 82c3 4fbd 57ee c83c 4651 2d3d f2b1 41bd
000002b0: 609b 2abd e4df 92bc bf88 71bd 00fc e138
000002c0: aabe c5bc f7bc 3bbd 3e77 cfbc 5833 45bd
000002d0: 290e 3bbd 0e37 6c3c 766c 05bd aef1 5b3d
000002e0: 0c64 4ebd 6446 01bd 6a38 053d e0e3 063b
000002f0: 98a4 183d cbf9 4c3d e03d d03b 5120 4f3d
00000300: 87c8 d2bc 0095 193b 88ab e83c ec91 08bd
00000310: fe32 393d c442 9fbd dc2e 5fbd 8527 3f3d
00000320: c7eb b43c b064 59bd 98b6 06bc 6c91 62bd
00000330: f4d9 453d 180a 753c 2cbe 1d3c 6d18 043d
00000340: 19fd 31bd 788f 6d3c 88ad 04bd 00de d93b
00000350: fc07 243d ec73 86bc 83d3 b33b 6287 4fbd
00000360: b2e7 30bd 80f7 baba cd14 f33c 8002 4bbb
00000370: 005c 483c 97c2 6bbc 9df6 e9bc 1dea b93c
00000380: b47f 03bd abe8 5f3c a86a 4fbd 1ce0 a6bc
00000390: c2b3 2ebd f2ea 22bd 682d 5bbd 1537 973b
000003a0: b305 1abd fe23 aabd b0a7 bc3b 52af 063d
000003b0: 6235 9cbd 12c2 e13c 186f e63c 80b6 78bc
000003c0: baf6 24bd fa93 e13c 7d7d 623b d831 bbbc
000003d0: 3ebf 413d 6e50 36bc f8ee f6bc b0a6 6abd
000003e0: 5acf 27bd 5b4d 8bbd 72bb 43bd 403a 50bb
000003f0: c095 f33c f4ca d73c 4703 6e3b 5537 75bd

l2.bias f4 [256]
0.011630558 -1.2703478 -0.044625424 0.0131203 -0.060412798 0.021561189 0.045764938 0.6032069
-0.014979913 -0.03349342 -0.07356029 -0.09554503 -0.058799393 -0.041127283 -0.0012492356 -0.058330387
-0.055864703 -0.08079055 -0.014872122 -0.05597846 0.6867287 0.04153544 -0.016431803 0.7304003
-0.012574228 0.6981872 -0.016672334 -0.04482757 -0.028525228 0.010168323 0.033778198 0.02162545
0.036810726 1.691525 -0.109315805 0.7149624 -0.06070707 -0.06181685 0.012058817 0.84026164
-0.0016941999 -0.07865035 0.13864897 -0.08908383 0.02442154 0.7652817 -0.054690514 0.0002976658
-0.046506885 -0.03351528 0.023006586 -0.07674231 -0.028743386 -0.013358086 0.025896613 0.012474957
-0.053721145 -0.06751759 3.900983 -0.06383823 -0.0067500845 0.042791188 0.0668512 0.107732415
-0.01350315 0.054108918 -0.47182003 -0.013624246 -0.06289444 -0.053404037 -0.08107768 0.003928393
0.0068696206 0.07278654 -0.00037548586 0.055072907 -0.06979546 -0.050153058 0.9292646 0.06399636
-0.010159733 -0.021928648 0.7095345 -0.05883142 0.009113229 -0.008125577 -0.07919292 8.2365346e-05
-0.044203207 -0.06140551 -0.058979552 0.012009376 -0.08049032 0.009679815 0.032878693 -0.19728613
-0.058551233 0.016922327 0.052829444 -0.040691495 0.04012956 -0.011045665 -0.05139222 -0.015619157
-0.0040439395 0.03214865 0.042054813 -0.015469034 -0.0041026454 0.032559067 0.0001700869 0.0019699312
0.040774807 -0.015109813 -0.03625323 -0.010847248 -0.055928864 -0.020042052 0.01762373 -0.024076704
0.8008191 0.0067443545 -0.04777692 -0.08434309 0.0632611 -0.059707906 0.035878338 -0.08960796
-0.017619126 0.01358907 0.014828205 0.12717554 -0.0039173486 0.0097419415 -0.028986676 0.026966896
-0.0010075602 -0.06356742 -0.067722455 -0.04401106 -0.025528036 0.055594094 -0.044149473 0.044324327
0.0142872725 0.011045974 -0.030336006 0.6385123 0.0056524407 0.008395723 -0.061270326 -0.011748895
-0.0769363 -0.04748167 -0.016312132 -0.010489165 -0.08725652 0.037126597 -0.04640543 -5.6246074e-05
-0.06065246 0.021790165 -0.018712869 0.06171026 0.0149912 -0.011876529 -0.120139666 -0.06304534
-0.0273987 0.019955523 0.020017345 -0.05041389 -0.04596176 -0.011485063 0.027058054 0.0045708804
0.035909392 2.9786785 -0.058980647 -0.074621834 -0.0034546321 -0.4565678 0.7197033 -0.012797389
-0.01548813 0.007025492 -0.041677956 0.0036380817 -2.7649426 -0.04023215 -0.012094832 0.03567091
0.02343447 -0.012308704 0.020733358 -0.058172654 -0.016003719 -0.09619113 0.0011718266 -0.044425208
-0.027098145 -0.005896305 -0.0734503 0.7184543 -0.05230218 -0.030196672 0.029630937 -0.014619861
5.470236 -0.078236036 -0.058410928 0.6493621 0.030604258 -0.005201162 -0.10935883 -0.032287516
-0.04460975 -0.03712726 -0.047291122 0.04992492 -0.0776855 0.042275805 -0.0004486933 0.0076641464
0.032559726 -0.003891053 0.0034640655 0.6668138 0.023240529 0.036559224 -0.013933556 0.07049415
0.026677763 -0.009970327 0.029636186 -0.030428912 -0.10208788 -0.008652423 -0.020658476 0.057391245
-0.030496402 0.045846637 0.012213117 -0.017795717 -0.01535622 1.9033185 0.72055393 -0.012277852
0.020844601 0.05073417 0.025540397 0.01967739 -0.06821108 1.2659432 -0.0147206085 0.026455397
00000000: 198e 3e3c c29a a2bf 26c9 36bd 87f6 563c
00000010: 6973 77bd 17a1 b03c 0474 3b3d c46b 1a3f
00000020: 4f6e 75bc 6530 09bd c7a6 96bd 1dad c3bd
00000030: a2d7 70bd 1575 28bd 64bd a3ba d8eb 6ebd
00000040: 63d2 64bd 8475 a5bd 33aa 73bc ab49 65bd
00000050: 74cd 2f3f 1121 2a3d fd9b 86bc 84fb 3a3f
00000060: 2304 4ebc 65bc 323f 6b94 88bc 1d9d 37bd
00000070: bdad e9bc 0a99 263c 025b 0a3d db27 b13c
00000080: d8c6 163d e483 d83f f7e0 dfbd c707 373f
00000090: faa7 78bd aa33 7dbd 5892 453c 631b 573f
000000a0: ea0f deba 6f13 a1bd fff9 0d3e 9571 b6bd
000000b0: ae0f c83c 80e9 433f 2903 60bd 0710 9c39
000000c0: 017e 3ebd 5147 09bd 4f78 bc3c 122b 9dbd
000000d0: 4077 ebbc e0db 5abc 2225 d43c c363 4c3c
000000e0: b40a 5cbd aa46 8abd b5a9 7940 9ebd 82bd
000000f0: d02f ddbb d045 2f3d 48e9 883d d0a2 dc3d
00000100: 513c 5dbc 50a1 5d3d 6592 f1be 3b38 5fbc
00000110: cdce 80bd 31be 5abd 0e0c a6bd c0b9 803b
00000120: 8e1a e13b 1c11 953d dcdc c4b9 2194 613d
00000130: ecf0 8ebd 4b6d 4dbd 49e4 6d3f 8610 833d
00000140: 0275 26bc b5a3 b3bc 0ea4 353f 37f9 70bd
00000150: a74f 153c 2421 05bc e62f a2bd 8fbb ac38
00000160: 6c0e 35bd 5884 7bbd 8b94 71bd f9c2 443c
00000170: 1cd8 a4bd 1698 1e3c cfab 063d 6005 4abe
00000180: 6bd3 6fbd b1a0 8a3c b063 583d 20ac 26bd
00000190: e55e 243d e0f8 34bc a680 52bd 7ee7 7fbc
000001a0: 0683 84bb 4eae 033d ab41 2c3d d571 7dbc
000001b0: 7c6f 86bb a85c 053d 5b59 3239 f619 013b
000001c0: 7c03 273d 268f 77bc 447e 14bd a8b8 31bc
000001d0: aa15 65bd 3b2f a4bc a45f 903c 823c c5bc
000001e0: 7b02 4d3f bfff dc3b bbb1 43bd 12bc acbd
000001f0: 098f 813d 4790 74bd 2af5 123d 6184 b7bd
00000200: fc55 90bc b1a4 5e3c 00f2 723c 4e3a 023e
00000210: 1a5d 80bb aa9c 1f3c 7775 edbc aee9 dc3c
00000220: 1c10 84ba a32f 82bd 12b2 8abd f144 34bd
00000230: 2c20 d1bc a2b6 633d 14d6 34bd 6d8d 353d
00000240: 2a15 6a3c 2cfa 343c 3783 f8bc 8b75 233f
00000250: 1c38 b93b 378e 093c 98f6 7abd 707e 40bc
00000260: c790 9dbd 247c 42bd 05a1 85bc bfda 2bbc
00000270: 8cb3 b2bd 0f12 183d 9f13 3ebd c3e9 6bb8
00000280: b76e 78bd 4a81 b23c bb4b 99bc e6c3 7c3d
00000290: a69d 753c c695 42bc c90b f6bd ea1d 81bd
000002a0: 3d73 e0bc c479 a33c 6afb a33c cc7e 4ebd
000002b0: 6642 3cbd d82b 3cbc daa8 dd3c 53c7 953b
000002c0: ba15 133d aba2 3e40 b195 71bd 55d3 98bd
000002d0: 1c67 62bb 41c3 e9be 7a3e 383f 24ac 51bc
000002e0: edc1 7dbc 1936 e63b 81b6 2abd e26c 6e3b
000002f0: d2f4 30c0 78ca 24bd 6729 46bc a91b 123d
00000300: a5f9 bf3c 72aa 49bc 01d9 a93c 7346 6ebd
00000310: 3b1a 83bc dbff c4bd fa97 993a 35f7 35bd
00000320: eefc ddbc cb35 c1bb 1c6d 96bd 9fec 373f
00000330: d03a 56bd 035f f7bc 94bc f23c 2488 6fbc
00000340: 2c0c af40 373a a0bd 4c40 6fbd 983c 263f
00000350: c8b5 fa3c 826e aabb 86f7 dfbd ea3f 04bd
00000360: b7b8 36bd c112 18bd 56b4 41bd 137e 4c3d
00000370: 9319 9fbd 6529 2d3d 983e ebb9 8523 fb3b
00000380: 595d 053d 0901 7fbb 6005 633b 4fb4 2a3f
00000390: ec62 be3c 20bf 153d 9249 64bc 3d5f 903d
000003a0: 538b da3c 955a 23bc 96c7 f23c 0e46 f9bc
000003b0: 7313 d1bd e4c2 0dbc f73b a9bc 1513 6b3d
000003c0: 97d3 f9bc afc9 3b3d 8719 483c 53c8 91bc
000003d0: a898 7bbc f19f f33f 3976 383f 0b29 49bc
000003e0: 4cc2 aa3c a2ce 4f3d 183a d13c 7a32 a13c
000003f0: 40b2 8bbd 6d0a a23f b52e 71bc fdb8 d83c

l3.weight f4 [256, 256]
-0.026059533 -0.048852593 -0.06421142 -0.06610662 -0.032597385 0.03712167 0.033423834 0.0031769923
0.005926069 0.027051717 -0.04579042 -0.04446757 0.03553953 -0.03763677 0.029815957 -0.016757606
0.0487126 -0.06263587 0.015080558 0.061105452 0.0026992904 -0.012746505 0.000915695 -0.06985632
-0.06809999 -0.040903583 0.02878553 -0.061877057 -0.03266942 0.0063879006 0.053169042 0.013670025
0.027280442 0.00062848494 0.019485164 -0.07171592 0.016061332 -0.016554661 -0.041385487 -0.0029437796
0.0057575367 0.057024263 -0.060841627 -0.028015014 0.01636625 -0.087672666 0.035420276 -0.005520287
-0.0023997005 -0.062224373 -0.046819486 0.0010109582 0.05322873 -0.011951417 -0.028737675 -0.045712724
-0.030567208 0.031681657 0.014838905 0.049515948 0.045960717 -0.0423469 0.016853381 -0.061095685
-0.0572173 0.05304777 -0.028749486 -0.0475403 0.05318743 -0.048032396 0.029998831 -0.00687436
-0.035839975 0.0066994997 -0.061121404 -0.05614733 -0.062970206 -0.022819918 -0.036875542 0.051370345
0.02546474 0.041577674 -0.04051251 -0.0114149675 0.021771716 0.0069559664 -0.020517189 -0.022807902
0.044411115 -0.038326003 -0.0075429874 -0.0063856887 -0.022215292 -0.057541437 0.030818498 -0.057867303
0.038439386 0.004896315 0.018884197 -0.038544588 0.058039308 -0.011813961 0.056597263 -0.03061029
-0.0151967555 0.055412997 -0.025166309 0.023217175 -0.051464953 -0.058183007 0.047707938 -0.049030587
0.011730619 -0.053156376 -0.051245667 -0.05012472 0.04539226 0.024855372 -0.058568045 0.023692295
0.0068601416 -0.00972344 0.05590829 0.062468145 0.026053164 -0.039269723 0.025671784 -0.024807576
-0.027577786 0.022515595 0.03835892 0.039927363 0.020446151 -0.030664694 0.030361451 2.4433404e-05
0.03383652 0.04137496 -0.007060513 0.039635003 -0.037136033 -0.04383153 -0.012115449 0.043964885
0.023769002 -0.00096002826 0.024800332 -0.019626506 -0.031470135 0.021500444 -0.026046596 0.034672506
0.019808369 0.030741118 -0.0453974 0.003719367 -0.04164873 -0.008034731 0.047106758 0.026498213
0.034165725 0.00032953548 -0.053759724 0.0025613948 0.04300207 0.048811354 -0.023220558 -0.002069883
0.04343205 -0.0060765417 -0.020331629 -0.0098984465 -0.05199854 -0.013693243 0.02553088 0.009166755
-0.042055726 0.027776139 -0.0052234423 0.0099581545 -0.048300624 0.022941899 -0.020005286 0.0023048264
0.014861503 0.023521286 0.05425425 0.026846524 -0.0028700242 -0.033408165 -0.059960954 0.020270381
-0.04562533 0.04837081 -0.007207145 -0.049011886 -0.037035853 -0.032258995 -0.063328385 -0.054809302
0.055916987 -0.0020605177 0.03000129 -0.011538544 -0.041973494 0.04473926 -0.0111084655 0.0494278
0.01928847 0.019522393 -0.061856814 -0.10045637 0.054243013 -0.013537347 -0.010638319 -0.018027399
0.009821482 -0.0667205 0.04435157 0.029596284 0.039593406 -0.014904335 -0.036470093 -8.7034474e-05
0.049198307 0.018604234 0.046101138 -0.08063994 0.005815536 -0.059342094 0.005656302 -0.0404519
0.025337592 -0.012398437 0.04734684 -0.027267912 -0.058856994 -0.05556719 -0.058445364 -0.015784077
0.029278602 0.02184719 0.0082888445 0.045095332 0.043879233 -0.06301434 0.012224813 -0.052513413
-0.040994555 -0.014069334 0.04243543 -0.024841977 0.0006678744 0.009417452 -0.06084186 -0.029954594
00000000: cd7a d5bc a819 48bd 4781 83bd e862 87bd
00000010: d684 05bd e40c 183d 6ee7 083d 1635 503b
00000020: 782f c23b 909b dd3c bc8e 3bbd a023 36bd
00000030: e691 113d 0429 1abd 9840 f43c 3f47 89bc
00000040: dd86 473d 3c47 80bd 7214 773c b649 7a3d
00000050: 94e6 303b b8d6 50bc 400b 703a d510 8fbd
00000060: 0278 8bbd 848a 27bd a2cf eb3c cc72 7dbd
00000070: 5fd0 05bd 9851 d13b c8c7 593d 3ef8 5f3c
00000080: 3c7b df3c e9c0 243a 5a9f 9f3c ccdf 92bd
00000090: 0e93 833c a49d 87bc d483 29bd 6dec 40bb
000000a0: b8a9 bc3b 4692 693d 1235 79bd be7f e5bc
000000b0: 8412 863c ba8d b3bd da14 113d 86e3 b4bb
000000c0: 4b44 1dbb fcde 7ebd cac5 3fbd 2182 843a
000000d0: 5e06 5a3d e0cf 43bc 466b ebbc 443d 3bbd
000000e0: 1568 fabc a0c4 013d e11e 733c 3cd1 4a3d
000000f0: 4e41 3c3d f173 2dbd 1a10 8a3c 783f 7abd
00000100: b05c 6abd 9e48 593d 0b84 ebbc 9eb9 42bd
00000110: 10db 593d 9ebd 44bd 1cc0 f53c 5042 e1bb
00000120: f0cc 12bd 7a87 db3b 705a 7abd befa 65bd
00000130: 86f6 80bd d6f0 babc cf0a 17bd b669 523d
00000140: 6e9b d03c 5a4d 2a3d 72f0 25bd d805 3bbc
00000150: 995a b23c e0ee e33b aa13 a8bc a3d7 babc
00000160: 6ee8 353d bafb 1cbd 2a2b f7bb 0a3f d1bb
00000170: d8fc b5bc 92b0 6bbd 1377 fc3c 4406 6dbd
00000180: 9e72 1d3d 4471 a03b 08b3 9a3c eee0 1dbd
00000190: a0ba 6d3d 588f 41bc 88d2 673d 6ec2 fabc
000001a0: d0fb 78bc bdf8 623d 9329 cebc f231 be3c
000001b0: eacc 52bd 4e51 6ebd 6669 433d 4cd4 48bd
000001c0: c831 403c 80ba 59bd fae6 51bd 944f 4dbd
000001d0: 3ced 393d 7e9d cb3c 0ce5 6fbd 5816 c23c
000001e0: 0acb e03b 104f 1fbc 1700 653d 99de 7f3d
000001f0: 726d d53c 4ad9 20bd a24d d23c 4239 cbbc
00000200: cfea e1bc a072 b83c 3e1e 1d3d e08a 233d
00000210: b07e a73c 8634 fbbc 94b8 f83c 56f6 cc37
00000220: 2a98 0a3d ca78 293d e05b e7bb 5058 223d
00000230: f41b 18bd b188 33bd e07f 46bc 8614 343d
00000240: 36b7 c23c 68aa 7bba 112a cb3c c4c7 a0bc
00000250: d4e6 00bd b321 b03c ac5f d5bc c204 0e3d
00000260: 2945 a23c ccd4 fb3c a0f2 39bd a0c0 733b
00000270: dc97 2abd 1ba4 03bc 04f3 403d c812 d93c
00000280: 5cf1 0b3d 81c5 ac39 2833 5cbd 13dd 273b
00000290: f022 303d 6aee 473d 0a39 bebc e0a6 07bb
000002a0: cee5 313d ba1d c7bb 848e a6bc 182d 22bc
000002b0: 6cfc 54bd a059 60bc 2326 d13c 2830 163c
000002c0: a042 2cbd c98a e33c 6929 abbb 8727 233c
000002d0: e0d6 45bd a6f0 bb3c 20e2 a3bc 920c 173b
000002e0: a97d 733c b6af c03c b439 5e3d 3eed db3c
000002f0: 0417 3cbb 00d7 08bd 9e99 75bd 120e a63c
00000300: a0e1 3abd 7820 463d ea29 ecbb b0c0 48bd
00000310: e8b2 17bd 0222 04bd 50b2 81bd b87f 60bd
00000320: 3609 653d c009 07bb 44c5 f53c 290c 3dbc
00000330: 66ec 2bbd 8440 373d 4800 36bc ce74 4a3d
00000340: da02 9e3c 6ded 9f3c 925d 7dbd 12bc cdbd
00000350: ec2d 5e3d c0cb 5dbc 584c 2ebc 32ae 93bc
00000360: 48ea 203c c2a4 88bd fea9 353d e873 f23c
00000370: b22c 223d 5031 74bc aa61 15bd 4786 b6b8
00000380: 2a84 493d e867 983c 8cd4 3c3d 8e26 a5bd
00000390: 4090 be3b b210 73bd 8058 b93b e4b0 25bd
000003a0: c890 cf3c d022 4bbc c3ee 413d f560 dfbc
000003b0: 0814 71bd 6c9a 63bd 6864 6fbd 9c4d 81bc
000003c0: aed9 ef3c e1f8 b23c efcd 073c e2b5 383d
000003d0: b6ba 333d aa0d 81bd 954a 483c 4e18 57bd
000003e0: e8e9 27bd 1083 66bc c6d0 2d3d 6781 cbbc
000003f0: 4b14 2f3a a84b 1a3c 5035 79bd 5663 f5bc

l3.bias f4 [256]
0.010961122 -0.06525094 0.80052453 0.4996441 -0.07404369 0.23808919 0.030673541 -0.055558685
-0.020701496 -0.066467136 -0.03148443 -0.048183 0.008193053 -0.1639361 -0.024734216 -0.083695136
-0.065811306 -0.055296272 -0.5085681 0.049631815 -0.036645323 -0.06750171 -0.042144887 -0.018194202
-0.008921734 0.031340893 -1.8123947 -0.0006477825 0.029902091 0.56680995 -0.06329254 0.83855075
-0.016576206 0.21299021 0.28716087 -0.000108148684 -0.015152238 0.004065532 -0.018552216 0.0067266296
-0.024526902 0.05260435 -0.019283745 0.8451463 -0.008268163 0.05143353 -0.076509036 -0.018680856
-0.02446249 -0.033643603 -0.027043805 -0.091537185 0.020615354 0.020827955 -0.023965813 -0.014511468
-0.0770001 -0.03483988 -0.0088487 -0.040250544 0.022420468 -0.193685 0.02738191 0.24982771
0.0044585443 -0.02495267 0.04452536 -0.04911734 -0.06612998 0.6263148 -0.03558311 0.010668731
-2.5419824 0.022401461 -0.02403886 -0.015946837 0.05856112 -0.08571777 0.035466637 -0.019606521
0.027551027 -0.046090018 -0.101321995 0.06463282 -0.026312487 -0.03656572 1.0264267 -0.032201484
-0.06989831 -0.022913696 -0.05051631 0.7782562 0.8647389 0.0013554661 -0.0014399961 -0.016074125
0.031181652 0.34682465 -0.18244618 0.0077392776 -0.025851572 -0.026921242 -0.01470782 -0.062455937
0.7481379 -0.044792127 -0.039580647 0.047922432 0.13094208 -0.03488368 -0.030796226 0.007196952
0.004283975 0.15420191 -0.07915148 -0.14611204 0.16751671 0.0286928 -0.024950344 -0.034813643
0.86468554 -0.06301564 -0.009504135 -0.04251092 -0.017568987 0.4820412 -0.0048517645 -0.044864375
0.043585673 -0.084446944 -0.04043065 -0.007209309 0.033943597 -0.092104 -0.0583756 -0.061540347
-0.036252484 -0.09466625 -0.036590744 -0.082292646 -0.040852465 -0.044775613 -0.06816346 -0.043581735
0.03223218 -0.123354405 0.44706962 0.057682917 -0.08548969 -0.055454858 -0.08772728 0.012719993
-0.173192 0.055555496 -0.05953978 0.010500495 -0.14910609 0.2796817 -0.033658225 -0.02365683
-0.027271604 -0.07890587 -0.10766971 0.01751084 0.6823939 0.03223717 -0.036063317 -0.018519519
-0.049972672 0.01237782 0.051022828 0.0019785697 -0.027725155 -0.01913161 -0.00659206 -0.048868157
-0.03242358 -0.16687517 -0.10255513 0.559495 -0.09339935 -0.06454223 -0.051564135 -0.06401598
-0.15841804 -0.058507867 -0.047044802 -0.081606895 0.035025522 -0.100468375 -0.06427355 0.7507512
-0.058145575 -0.016926294 -0.07015695 -0.0047717113 -0.040665403 -0.071351625 -0.072971776 -0.020342585
0.7842919 0.054964643 -0.06266877 -0.077953614 0.10296548 -0.083827645 -0.0611655 -0.01434094
0.037065607 0.26088405 0.8774177 0.048426066 0.050377533 -0.061639883 -0.0034995042 -0.06609946
0.0027508952 -0.030634891 -0.10916066 0.7833668 0.9253184 0.7513376 -0.031176252 0.11570147
-0.06288486 -0.015946759 0.037069317 0.044142753 0.004070316 -1.3089763 -0.03174121 0.01042598
-0.058352202 -0.018281069 0.01105274 -0.059836246 -0.023001753 -0.12602118 0.8054989 -0.0061708093
-0.019647833 -0.01894314 -0.012977716 -0.13189489 0.72744524 -0.07797417 0.02691779 0.11305293
-0.029904585 -0.036260013 -0.076511785 -0.049864624 0.058213178 -0.03708798 -0.081068434 -0.014720847
00000000: 4796 333c 49a2 85bd 2def 4c3f 5ad1 ff3e
00000010: 38a4 97bd a7cd 733e 1447 fb3c 8191 63bd
00000020: 2f96 a9bc ec1f 88bd d1f5 00bd 8a5b 45bd
00000030: 283c 063c ddde 27be 699f cabc 5b68 abbd
00000040: 14c8 86bd 587e 62bd 8531 02bf bb4a 4b3d
00000050: 6819 16bd 563e 8abd 1ea0 2cbd 020c 95bc
00000060: 772c 12bc 4f5f 003d 8dfc e7bf f3cf 29ba
00000070: 3bf5 f43c 751a 113f 859f 81bd 43ab 563f
00000080: d3ca 87bc 1b1a 5a3e c006 933e e2cd e2b8
00000090: 1841 78bc 2738 853b d1fa 97bc 0f6b dc3b
000000a0: a4ec c8bc a977 573d f2f8 9dbc 825b 583f
000000b0: 3077 07bc f7ab 523d c5b0 9cbd 9808 99bc
000000c0: 8f65 c8bc e0cd 09bd f88a ddbc d977 bbbd
000000d0: 88e1 a83c 639f aa3c f453 c4bc 82c1 6dbc
000000e0: 3ab2 9dbd 43b4 0ebd 23fa 10bc c1dd 24bd
000000f0: 21ab b73c 5c55 46be 0750 e03c d6d2 7f3e
00000100: fb18 923b 8b69 ccbc 3960 363d 442f 49bd
00000110: 286f 87bd 2b56 203f 98bf 11bd e7cb 2e3c
00000120: d7af 22c0 4583 b73c 25ed c4bc f1a2 82bc
00000130: c9dd 6f3d cc8c afbd 7745 113d db9d a0bc
00000140: b1b2 e13c e3c8 3cbd e881 cfbd 365e 843d
00000150: 498d d7bc f0c5 15bd f361 833f b4e5 03bd
00000160: d826 8fbd 81b5 bbbc 31ea 4ebd cc3b 473f
00000170: 875f 5d3f e5a9 b13a 40be bcba e2ad 83bc
00000180: aa70 ff3c 0093 b13e 2cd3 3abe c499 fd3b
00000190: adc6 d3bc f089 dcbc 11f9 70bc ccd1 7fbd
000001a0: f785 3f3f f377 37bd 511f 22bd 504a 443d
000001b0: ae15 063e 31e2 0ebd 5e48 fcbc 69d4 eb3b
000001c0: 9660 8c3b 1be7 1d3e 2c1a a2bd 659e 15be
000001d0: 8089 2b3e 2a0d eb3c aa64 ccbc c098 0ebd
000001e0: 085c 5d3f 580e 81bd 3bb7 1bbc ee1f 2ebd
000001f0: d6ec 8fbc 1bce f63e 8dfb 9ebb b5c3 37bd
00000200: e486 323d 85f2 acbd 9c9a 25bd 113c ecbb
00000210: 7108 0b3d 06a1 bcbd 411b 6fbd bb11 7cbd
00000220: 7c7d 14bd 61e0 c1bd 2de0 15bd 0c89 a8bd
00000230: ea54 27bd a266 37bd 4999 8bbd c382 32bd
00000240: e405 043d 3ca1 fcbd 4fe6 e43e ec44 6c3d
00000250: 3815 afbd a224 63bd 5caa b3bd 8467 503c
00000260: 3e59 31be 298e 633d fcdf 73bd 450a 2c3c
00000270: 44af 18be 7132 8f3e 35dd 09bd f8cb c1bc
00000280: b368 dfbc 6799 a1bd f081 dcbd e572 8f3c
00000290: 5eb1 2e3f 1f0b 043d 21b7 13bd 3fb6 97bc
000002a0: 25b0 4cbd 57cc 4a3c 50fd 503d e4aa 013b
000002b0: dd1f e3bc e5b9 9cbc 3502 d8bb fa29 48bd
000002c0: 96ce 04bd 53e1 2abe 6d08 d2bd 103b 0f3f
000002d0: 2948 bfbd b72e 84bd ea34 53bd cf1a 83bd
000002e0: 5738 22be f2a5 6fbd 0db2 40bd 8421 a7bd
000002f0: ec76 0f3d 5dc2 cdbd daa1 83bd 3b31 403f
00000300: 0e2a 6ebd 03a9 8abc 72ae 8fbd 045c 9cbb
00000310: c490 26bd cd20 92bd 3a72 95bd 7ea5 a6bc
00000320: 5bc7 483f 9b22 613d 7c58 80bd 25a6 9fbd
00000330: 91df d23d d4ad abbd ad88 7abd 43f6 6abc
00000340: 1bd2 173d 9892 853e 729e 603f 695a 463d
00000350: ac58 4e3d 1a7a 7cbd f057 65bb 275f 87bd
00000360: 5d48 343b 06f6 fabc a08f dfbd ba8a 483f
00000370: abe1 6c3f a957 403f 5765 ffbc e4f4 ec3d
00000380: c7c9 80bd c7a2 82bc ffd5 173d 08cf 343d
00000390: 4960 853b 898c a7bf 1203 02bd bbd1 2a3c
000003a0: b802 6fbd 2ec2 95bc 8d16 353c da16 75bd
000003b0: 2c6e bcbc b20b 01be 2d35 4e3f 8034 cabb
000003c0: 7ef4 a0bc a52e 9bbc 7ca0 54bc 740f 07be
000003d0: da39 3a3f ecb0 9fbd b282 dc3c 4b88 e73d
000003e0: 76fa f4bc 6185 14bd 36b2 9cbd d93e 4cbd
000003f0: f170 6e3d 91e9 17bd 3507 a6bd b52f 71bc

l4.weight f4 [1, 256]
0.013107004 0.003383011 0.05863648 -0.0012020136 0.023267007 0.019072294 -0.029622905 -0.03217905
-0.05909898 -0.0013253484 0.00383293 0.07964884 0.020830391 -0.013302183 -0.010533847 -0.0049238396
-0.043562625 -0.02312082 0.06983782 -0.0063005076 -0.010040199 -0.11397392 -0.0013476714 -0.053744186
0.008856643 -0.013853975 0.055926383 -0.04832914 -0.052019797 -0.011769774 -0.036692016 0.08407499
-0.002531406 -0.016116232 -0.028392725 -0.061090086 0.022070896 0.0003478086 -0.0041872705 0.02054308
-0.005794819 0.0225656 0.00148654 0.07204767 -0.00853146 0.0028559328 -0.010388243 -0.03143787
-0.033276286 -0.034160882 -0.020271875 -0.02434639 0.0404713 -0.039337393 -0.0048413947 -0.016325187
0.0073298183 0.010673254 -0.024270287 -0.001077472 -0.008631496 -0.007718452 -0.0075188023 -0.00010803862
0.009484126 -0.024632623 -0.003932486 0.014734832 -0.020696368 0.036484048 -0.021339733 -0.01846986
0.04708201 0.002717322 -0.005144363 0.012783306 -0.00017560838 0.005515705 -0.028088458 0.013580317
-0.03576025 -0.027151842 0.017376602 0.030242901 0.014409866 0.025438642 -0.08365815 0.011308229
0.012003327 0.003251065 0.0007048423 0.052335814 0.09145971 0.010328364 -0.033456743 0.007913346
-0.0073039997 0.0027311684 -0.010520636 0.006900923 -0.008544968 0.006535348 -0.016126573 -0.02583188
0.060573272 -0.010448255 0.025621762 -0.0030297844 0.0143867275 0.015397036 0.008872632 -0.0075408565
0.026342906 0.023450937 -0.031601924 -0.0034509741 -0.00413169 -0.031993106 0.017716065 -0.029953782
0.093786776 -0.010809598 0.0023565427 -0.00591304 -0.04101387 -0.002347854 0.016250784 -0.0005304358
-0.000920275 -0.004970048 -0.047422476 0.024031933 -0.0030219315 0.025591815 -0.02212958 0.020990828
-0.06325126 -0.048820216 0.047405973 -0.010298938 -0.010620943 0.020044127 -0.021060633 0.005589575
-0.045307845 0.0045421785 -0.01823211 -0.005167326 -0.009340802 -0.0389804 -0.0016784943 -1.2281734e-05
-0.00933252 0.0072197244 0.007844189 -0.0011001417 0.0096072005 0.0149606 0.013975404 -0.02176943
-0.026396934 0.0019926513 0.005268093 -0.027993724 -0.04373946 -0.001156565 -0.019306364 0.011573172
-0.011414543 -0.004551943 0.005992844 0.007876211 -0.03277522 -0.0072732856 -0.0023461736 -0.022594541
-0.02978625 0.032159332 -0.007187572 -0.002274071 -0.014458543 0.022487069 -0.0015843266 -0.0117850145
-0.026704717 -0.00928042 -0.01388809 0.027009685 -0.00681598 0.015672915 -0.019812869 0.08935773
-0.05055296 0.0035886443 0.0036119802 0.029373016 0.019100748 -0.016523011 0.022362739 -0.090399235
0.083859935 -0.017100606 0.006825774 0.008168273 0.032615736 -0.020735502 -0.005302984 -0.008874793
-0.020354671 -1.8832248e-05 0.12140198 -0.015326162 -0.0096584875 -0.028775008 0.026991982 0.025298176
-0.011280468 0.00033528806 0.0103226835 0.07428748 0.13840061 0.060714416 -0.001506052 -0.01953812
0.027843054 -0.012641874 -0.015097351 0.033202656 -0.013906597 0.063037984 -0.0143755125 -0.060143717
-0.004419572 -0.049307596 -0.00020540469 0.0117672095 0.0017634938 -0.0031743776 0.05643392 -0.014562211
0.08613843 -0.00838901 0.026625168 0.015927061 0.056300297 -0.03044765 -0.035544213 -0.012995962
-0.011678928 -0.0036012798 -0.03408143 -0.05751809 -0.013502619 0.00485916 -0.030734329 -0.024494141
00000000: c2be 563c 82b5 5d3b ce2c 703d e28c 9dba
00000010: 739a be3c 803d 9c3c bcab f2bc 2ece 03bd
00000020: c611 72bd 50b7 adba e531 7b3b ee1e a33d
00000030: 7fa4 aa3c 66f1 59bc 2896 2cbc 2958 a1bb
00000040: b96e 32bd e067 bdbc 2207 8f3d 7d74 cebb
00000050: a67f 24bc 296b e9bd 59a4 b0ba dd22 5cbd
00000060: 741b 113c c8fb 62bc 1013 653d c7f4 45bd
00000070: b612 55bd 03d6 40bc 5e4a 16bd 822f ac3d
00000080: f2e5 25bb 3006 84bc dc97 e8bc 9939 7abd
00000090: 06ce b43c 145a b639 5f35 89bb f649 a83c
000000a0: 77e2 bdbb 7edb b83c 01d8 c23a bb8d 933d
000000b0: 89c7 0bbc 9a2a 3b3b 7333 2abc ffc4 00bd
000000c0: b74c 08bd 48ec 0bbd 3411 a6bc 1572 c7bc
000000d0: 3cc5 253d 3f20 21bd 90a4 9ebb 66bc 85bc
000000e0: f92e f03b dfde 2e3c 7bd2 c6bc f639 8dba
000000f0: 1e6b 0dbc 11eb fcbb 4960 f6bb cb92 e2b8
00000100: 4f63 1b3c 5bca c9bc 15dc 80bb 5d6a 713c
00000110: 6e8b a9bc 4c70 153d aad0 aebc 1b4e 97bc
00000120: 11d9 403d 1915 323b 0b92 a8bb 1271 513c
00000130: 8423 38b9 16bd b43b c419 e6bc fa7f 5e3c
00000140: 5779 12bd 8a6d debc 6059 8e3c f6bf f73c
00000150: 5c17 6c3c b364 d03c f754 abbd 2646 393c
00000160: 9aa9 443c d20f 553b 2bc5 383a 145e 563d
00000170: 3a4f bb3d 4c38 293c f009 09bd fba6 013c
00000180: 6456 efbb 67fd 323b bf5e 2cbc 2321 e23b
00000190: 3200 0cbc 7926 d63b e01b 84bc 619d d3bc
000001a0: ae1b 783d 282f 2bbc bbe4 d13c 598f 46bb
000001b0: 4fb6 6b3c da43 7c3c 845e 113c 4a19 f7bb
000001c0: 14cd d73c 2e1c c03c 0571 01bd bd29 62bb
000001d0: 2163 87bb 340b 03bd 4821 913c a261 f5bc
000001e0: 4813 c03d bd1a 31bc 3a70 1a3b 2dc2 c1bb
000001f0: 29fe 27bd 74de 19bb 5d20 853c f20c 0bba
00000200: 9c3e 71ba c9db a2bb 123e 42bd 9ede c43c
00000210: 990b 46bb eda5 d13c 1849 b5bc f5f4 ab3c
00000220: e089 81bd b5f7 47bd c42c 423d e0bc 28bc
00000230: 7703 2ebc 9533 a43c 5987 acbc c128 b73b
00000240: b894 39bd 8ed6 943b 825b 95bc ac52 a9bb
00000250: 2a0a 19bc e9a9 1fbd ec00 dcba a50d 4eb7
00000260: 6de7 18bc 7093 ec3b ea84 003c a132 90ba
00000270: 8567 1d3c 4e1d 753c 18f9 643c ce55 b2bc
00000280: 623e d8bc 2497 023b f89f ac3b 1853 e5bc
00000290: 2628 33bd e297 97ba 6128 9ebc 679d 3d3c
000002a0: 1004 3bbc 7728 95bb 9e5f c43b 390b 013c
000002b0: 4f3f 06bd be54 eebb 43c2 19bb 3018 b9bc
000002c0: 4b02 f4bc 81b9 033d b985 ebbb 9508 15bb
000002d0: 86e3 6cbc cd36 b83c 2ea9 cfba ef15 41bc
000002e0: dac3 dabc e70c 18bc df8a 63bc 6a43 dd3c
000002f0: 9658 dfbb 7c64 803c 994e a2bc 2f01 b73d
00000300: 9f10 4fbd 762f 6b3b f9b6 6c3b ae9f f03c
00000310: 2c79 9c3c 445b 87bc 1032 b73c 3c23 b9bd
00000320: c2be ab3d 9216 8cbc beaa df3b 38d4 053c
00000330: 1498 053d 80dd a9bc a7c4 adbb 9467 11bc
00000340: d7be a6bc f2f9 9db7 9aa1 f83d 951a 7bbc
00000350: a23e 1ebc 91b9 ebbc 4a1e dd3c 1f3e cf3c
00000360: b6d1 38bc 9ac9 af39 7920 293c 0924 983d
00000370: e4b8 0d3e aeaf 783d b866 c5ba 680e a0bc
00000380: 1e17 e43c dd1f 4fbc e15a 77bc 82ff 073d
00000390: 7fd8 63bc 0f1a 813d 4587 6bbc 4259 76bd
000003a0: 0fd2 90bb c3f6 49bd e761 57b9 41cb 403c
000003b0: 0825 e73a 3809 50bb 4127 673d 5796 6ebc
000003c0: 5869 b03d 0f72 09bc 061d da3c 7879 823c
000003d0: 249b 663d 5a6d f9bc cf96 11bd 04ed 54bc
000003e0: f958 3fbc 7303 6cbb f898 0bbd 1798 6bbd
000003f0: 173a 5dbc 9739 9f3b 8fc6 fbbc f0a7 c8bc
