models/GMI_pretrained/GMI_GPM_channel_predictor_166H_nonocean.pt (torch, 545344 bytes, 7 tensors)

l1.weight f4 [256, 13]
-0.17696302 0.070634246 0.17598866 -0.18552123 -0.15750936 -0.11731069 -0.2626893 0.20929018
-0.24604002 0.2251895 0.10581141 -0.21816362 -0.18158273 -0.09288516 0.09469947 0.22284104
-0.0577344 -0.38635483 -0.01811764 -0.2197707 0.28878492 0.29766876 -0.14382868 -0.12479119
-0.11127574 0.033727508 0.048226137 -0.27049097 -0.03477743 0.1860965 -0.24510819 -0.11197694
0.18503736 -0.011705068 0.24284548 -0.14418495 -0.066903085 0.07275995 -0.031933825 -0.3385506
0.040683728 -0.18676482 0.11430032 0.032498844 -0.311531 0.39669132 -0.28525457 -0.03460137
0.2942593 0.29217386 0.0017533358 0.32696372 -0.03398247 -0.017576208 0.079243585 0.026642004
-0.124365784 0.19878261 -0.2269007 -0.08455755 -0.2025801 -0.031260174 0.051397808 0.14526685
-0.13090828 0.06976387 -0.20616378 0.03553368 0.21363197 -0.113978796 0.18405326 -0.037835047
-0.2610912 -0.04630475 -0.25694305 0.21473558 -0.19185308 -0.1641544 -0.36003205 0.037351985
-0.11516927 0.14414851 -0.34305507 0.095277205 0.045857128 -0.40386698 0.1200105 0.083209574
0.18143004 0.09751067 -0.38874677 -0.1989729 -0.16347268 0.09808344 0.1313099 -0.23722115
-0.16778462 -0.15073673 0.18519066 -0.07435582 0.20449017 -0.09051913 0.16347678 -0.047334444
-0.05658152 0.031238023 -0.24322525 0.09140492 0.22374648 0.3932802 0.4036256 -0.44680232
-0.69459116 0.12980157 -0.24399213 0.39676377 0.08105204 0.09658513 -0.01836736 -0.0484041
-0.24144192 -0.1296777 -0.2613014 -0.25350267 -0.1109443 -0.19021587 0.17181684 0.25038627
-0.26217204 -0.18830462 0.13677008 -0.23609231 0.24486503 -0.19269942 0.19913633 -0.35438702
-0.27008137 0.1795627 0.29681247 0.1979089 0.058199037 -0.2541472 -0.13242933 0.094915695
-0.22089946 0.03023555 -0.059246223 -0.2725447 0.26165113 -0.2504245 -0.25142184 -0.072245486
-0.11061232 0.20145217 0.18442976 -0.07893437 -0.023394365 -0.13542706 -0.3231356 -0.0034792637
0.2441606 -0.38053256 0.12724964 0.10753561 0.21408625 -0.251722 0.17848639 -0.022990253
-0.04605727 0.012994813 0.04334005 0.05227 0.12758534 -0.07164609 -0.009319703 -0.23349985
-0.27055058 -0.23542346 -0.21342534 0.023036726 0.09394369 0.06452937 -0.005210202 0.14124613
0.118043356 0.01764481 -0.14346601 -0.36490387 -0.29831213 0.09151017 0.11736102 0.086927235
-0.15183659 0.16943423 0.06030022 -0.20004691 -0.17672215 0.20020813 0.18647212 -0.24145292
0.0083234375 0.15235703 -0.22285971 -0.050052773 -0.024722608 -0.06470712 0.12764771 0.13353753
-0.14195698 -0.117301464 -0.114703394 -0.07692918 0.04292938 0.0682813 -0.00080782117 0.10074617
-0.07624039 0.11788618 0.013673347 -0.10539555 0.03316626 0.14720929 0.16000749 -0.24425247
-0.11487026 -0.08681931 -0.13730873 0.067687094 0.20133877 0.041045237 0.1760381 -0.286565
-0.0272406 -0.23339465 0.09226564 -0.07550828 0.16380015 0.074459635 -0.24444792 0.13981797
-0.20674942 -0.11226676 -0.05812478 0.17640612 0.016403193 -0.2567328 -0.14398454 0.02860741
-0.16636537 -0.05691385 -0.21874215 -0.21950556 0.12170776 -0.0016712208 -0.08159737 -0.07900532
00000000: cb35 35be b0a8 903d 5f36 343e 47f9 3dbe
00000010: 224a 21be 9640 f0bd 367f 86be 2a50 563e
00000020: eaf1 7bbe 1498 663e a7b3 d83d 4966 5fbe
00000030: d3f0 39be 933a bebd ccf1 c13d 7130 643e
00000040: e87a 6cbd 4dd0 c5be 726b 94bc 920b 61be
00000050: 9edb 933e 0a68 983e d347 13be 8692 ffbd
00000060: 89e4 e3bd db25 0a3d c588 453d cb7d 8abe
00000070: c772 0ebd 1590 3e3e a4fd 7abe 2a54 e5bd
00000080: 6f7a 3d3e 9dc6 3fbc 7cac 783e 38a5 13be
00000090: 7c04 89bd 2b03 953d 0bcd 02bd 8156 adbe
000000a0: fba3 263d 473f 3fbe 4916 ea3d 821d 053d
000000b0: fe80 9fbe 201b cb3e e30c 92be 2bba 0dbd
000000c0: 28a9 963e d097 953e 30d0 e53a ca67 a73e
000000d0: 3431 0bbd fbfb 8fbc 764a a23d 5540 da3c
000000e0: 7db3 febd ab8d 4b3e a858 68be 822c adbd
000000f0: 2871 4fbe ab0a 00bd 8286 523d d5c0 143e
00000100: d20c 06be 5ce0 8e3d 991c 53be c48b 113d
00000110: 57c2 5a3e b76d e9bd 7578 3c3e ecf8 1abd
00000120: bfad 85be 0daa 3dbd 0a8e 83be a5e3 5b3e
00000130: 2275 44be 1718 28be 1f56 b8be 65fe 183d
00000140: dedd ebbd ab9b 133e eaa4 afbe b220 c33d
00000150: afd4 3b3d a7c7 cebe 11c8 f53d c869 aa3d
00000160: ccc8 393e adb3 c73d d109 c7be 8dbf 4bbe
00000170: 6265 27be f8df c83d 1a76 063e 1aea 72be
00000180: bbcf 2bbe bb5a 1abe 9fa2 3d3e dd47 98bd
00000190: df65 513e 1862 b9bd 7566 273e c3e1 41bd
000001a0: 06c2 67bd e2e6 ff3c 0a10 79be 8132 bb3d
000001b0: cc1d 653e 065c c93e 04a8 ce3e 46c3 e4be
000001c0: bad0 31bf b4ea 043e 13d9 79be 9f24 cb3e
000001d0: 9dfe a53d 6dce c53d 2577 96bc 6143 46bd
000001e0: 8d3c 77be 3bca 04be 4cc9 85be 1acb 81be
000001f0: c436 e3bd f3c7 42be c1f0 2f3e a132 803e
00000200: 6a3b 86be edd2 40be 750d 0c3e 2fc2 71be
00000210: e6bd 7a3e ff52 45be 65ea 4b3e 3772 b5be
00000220: 1b48 8abe 49df 373e cef7 973e a1a8 4a3e
00000230: 1d62 6e3d 951f 82be 8e9b 07be 2963 c23d
00000240: 7833 62be 8bb0 f73c 2bac 72bd fb8a 8bbe
00000250: 23f7 853e a437 80be 5dba 80be 71f5 93bd
00000260: b688 e2bd 7a49 4e3e 28db 3c3e 58a8 a1bd
00000270: 8aa5 bfbc 64ad 0abe 0872 a5be 5c04 64bb
00000280: 3c05 7a3e 2ad5 c2be bb4d 023e a13b dc3d
00000290: 6d39 5b3e b5e1 80be 23c5 363e 0e56 bcbc
000002a0: 8ca6 3cbd 32e8 543c 5685 313d 1119 563d
000002b0: bba5 023e 2fbb 92bd abb1 18bc 961a 6fbe
000002c0: 9b85 8abe d912 71be 2c8c 5abe 84b7 bc3c
000002d0: 8d65 c03d f927 843d 58ba aabb d3a2 103e
000002e0: b7c0 f13d d98b 903c c1e8 12be aed4 babe
000002f0: 5ebc 98be af69 bb3d f95a f03d e806 b23d
00000300: 0d7b 1bbe 2b80 2d3e 5dfd 763d 19d9 4cbe
00000310: a7f6 34be 5c03 4d3e 8cf2 3e3e 6f3f 77be
00000320: 075f 083c 7b03 1c3e 5635 64be 2304 4dbd
00000330: 1187 cabc 2b85 84bd 15b6 023e 10be 083e
00000340: 2c5d 11be c03b f0bd 9de9 eabd 0c8d 9dbd
00000350: b8d6 2f3d 11d7 8b3d f6c3 53ba 0254 ce3d
00000360: ec23 9cbd 4f6e f13d 2d06 603c 9fd9 d7bd
00000370: 58d9 073d 08be 163e 01d9 233e 521d 7abe
00000380: 1941 ebbd 53ce b1bd a99a 0cbe 889f 8a3d
00000390: c02b 4e3e 0d1f 283d 5543 343e a6b8 92be
000003a0: ae27 dfbc 02ff 6ebe c5f5 bc3d 16a4 9abd
000003b0: 3abb 273e 4b7e 983d 8e50 7abe 712c 0f3e
000003c0: 1fb6 53be 1dec e5bd 4014 6ebd cea3 343e
000003d0: fd5f 863c 7b72 83be af70 13be 165a ea3c
000003e0: af5b 2abe 7f1e 69bd f1fd 5fbe 11c6 60be
000003f0: eb41 f93d dd0c dbba 861c a7bd 8bcd a1bd

l1.bias f4 [256]
0.008450332 -0.2121701 -0.269786 -1.2249959 -0.2598148 -0.24650723 -0.838958 -0.960664
-1.3097457 -0.2278085 -0.23153867 -0.21379395 0.035339814 -0.047780607 -0.64612186 0.11193191
0.21586685 -0.10439349 -0.56112266 -0.21636444 0.707822 -0.01645283 -0.040280603 2.0733035
-1.0974394 -0.20379956 -0.039286442 0.24231772 -3.769184 -0.38307968 -0.12629284 0.27472633
-0.37967995 -0.30004725 -0.07412752 -0.25294095 2.0679915 0.5140368 0.21815261 0.08375339
0.035000846 -0.062767185 -0.07952184 0.2115476 -0.12108208 -0.14367232 0.12484267 0.15865746
-0.13694943 0.13615647 0.7658387 -1.0933924 1.1875135 -0.009776544 0.09042199 -0.12969208
2.2947316 0.14211076 -0.36320972 2.6178274 0.082286604 -0.044568032 -1.5215605 0.23486912
-0.2999718 0.13056143 0.14144306 0.22865726 -0.14534461 -0.21681643 -0.42152843 0.26967427
0.20513774 -0.29293123 -0.07023262 1.3073533 0.9556021 -0.9797233 -0.04397089 0.177494
1.1875132 0.16348487 -0.14537829 0.020520436 -0.1265833 -0.1746446 0.08390102 0.08602958
-0.14594954 -0.20064387 -0.056815255 -0.23536964 0.019210294 -1.2467431 1.6259809 -0.04894276
-0.26331365 -0.2432562 0.17810048 -0.5643115 0.2129702 -0.44013512 -0.08910744 0.27867067
-0.27123752 1.0362604 -0.12263997 -0.022287372 0.20632362 0.07692333 0.16126335 -0.16775714
-0.31053033 0.12851132 -0.23225123 -0.10843801 -0.18663079 0.11463129 -0.14447354 -1.2322872
0.25903538 0.83610475 0.24519289 -0.3441529 0.22959332 -0.036266167 -0.15271886 0.013941039
-0.24298777 0.02468444 -1.4215673 -0.12784758 0.14383297 -2.0156457 1.4854374 -0.08128282
0.09076193 -0.090472035 -0.23322679 0.16227391 -0.78407925 -0.12107375 1.2022918 -1.2352376
0.093653806 -0.27368292 -0.14904001 -0.06644308 0.17422533 -0.21273062 2.0542054 0.10196118
-0.32886463 0.09134135 0.09202122 -0.19492929 2.0362334 -0.09150111 -0.2307213 2.3609855
3.0710924 -0.13552873 -0.012343863 -0.49538788 0.32726303 0.040166833 -0.6271348 0.19984348
0.041379467 0.121065155 0.040861342 1.1843666 -0.30954632 -0.3076868 0.512412 -0.24759543
-0.14632748 0.59123135 -0.37078577 -0.5853165 -1.1733595 -0.462379 -0.021031024 -2.8521416
-1.035907 -0.24232492 -0.13841748 -0.026209008 0.22463432 -0.19379763 0.25912994 2.2845197
0.16835909 -0.018372964 -0.09922863 -0.05666217 -3.4879475 0.24099812 -2.7032895 0.15696046
-0.3819093 -0.789401 1.1202811 -0.023290956 -0.02974308 -0.25087023 -0.94483244 0.08659185
0.13613266 0.12894337 -1.8723252 -0.116938666 -0.37644568 -0.14701594 0.7967565 -1.4976306
0.045738593 0.21436001 -0.031652186 0.17850536 0.2520203 -0.12065455 -0.2573497 -0.24636436
0.27255118 -0.81244326 -1.3058875 -0.17986904 0.07973505 -1.1032562 0.033219773 0.113087386
-0.2468281 0.019463828 0.19725005 0.13086338 -0.19164164 -0.06581615 -1.0213723 0.26462013
0.07738668 -0.01695056 0.12884915 0.19957352 -0.213568 -0.6884547 0.092181444 -0.7694327
0.037180364 -0.06734655 0.09935033 -0.84965694 -0.26050425 -0.20662563 0.1425007 0.046812844
00000000: 4373 0a3c 1e43 59be 6421 8abe aacc 9cbf
00000010: 7206 85be 646c 7cbe f4c5 56bf 13ee 75bf
00000020: bfa5 a7bf a246 69be 7918 6dbe cdec 5abe
00000030: 7bc0 103d 99b5 43bd 3e68 25bf 8f3c e53d
00000040: 330c 5d3e 41cc d5bd bca5 0fbf a48e 5dbe
00000050: d333 353f 16c8 86bc 46fd 24bd 01b1 0440
00000060: e578 8cbf d5b0 50be d2ea 20bd 2322 783e
00000070: 503a 71c0 0523 c4be e952 01be eea8 8c3e
00000080: 6965 c2be cb9f 99be 2bd0 97bd 7a81 81be
00000090: f959 0440 ea97 033f 6663 5f3e e686 ab3d
000000a0: 0c5d 0f3d 158c 80bd 59dc a2bd ef9f 583e
000000b0: e2f9 f7bd d61e 13be 84ad ff3d 1a77 223e
000000c0: 793c 0cbe 9a6c 0b3e 010e 443f 48f4 8bbf
000000d0: 7100 983f cc2d 20bc 2a2f b93d 00ce 04be
000000e0: e2dc 1240 7c85 113e a0f6 b9be 7c8a 2740
000000f0: e185 a83d f88c 36bd 7fc2 c2bf 8881 703e
00000100: e795 99be e5b1 053e 73d6 103e 2125 6a3e
00000110: 38d5 14be 2005 5ebe 93d2 d7be bf12 8a3e
00000120: a10f 523e 15fb 95be 1fd6 8fbd 5a57 a73f
00000130: 57a2 743f 25cf 7abf d21a 34bd fdc0 353e
00000140: 6f00 983f 9468 273e 0cde 14be 791a a83c
00000150: 0d9f 01be 09d6 32be 4cd4 ab3d 4730 b03d
00000160: cc73 15be 9675 4dbe 1db7 68bd bd04 71be
00000170: e85e 9d3c 4795 9fbf 2420 d03f 3478 48bd
00000180: 0cd1 86be 2718 79be f95f 363e b876 10bf
00000190: dc14 5a3e 6459 e1be f67d b6bd ecad 8e3e
000001a0: a5df 8abe 2ea4 843f aa2a fbbd 0294 b6bc
000001b0: 8046 533e fb89 9d3d 3822 253e 87c8 2bbe
000001c0: d5fd 9ebe 7998 033e 44d3 6dbe bf14 debd
000001d0: 241c 3fbe cfc3 ea3d dff0 13be 96bb 9dbf
000001e0: 49a0 843e f60a 563f d813 7b3e cf34 b0be
000001f0: 831a 6b3e d58b 14bd 5562 1cbe f568 643c
00000200: c9d1 78be 0637 ca3c ebf5 b5bf 7aea 02be
00000210: f348 133e 5700 01c0 d022 be3f 9b77 a6bd
00000220: 64e1 b93d 6749 b9bd 01d3 6ebe 222b 263e
00000230: 6bb9 48bf 84f5 f7bd b3e4 993f 441c 9ebf
00000240: 91cd bf3d 2b20 8cbe f29d 18be 4f13 88bd
00000250: 2068 323e 0ed6 59be 1a78 0340 06d1 d03d
00000260: f260 a8be 2c11 bb3d 9f75 bc3d 8b9b 47be
00000270: a651 0240 ef64 bbbd 3442 6cbe 631a 1740
00000280: c78c 4440 0bc8 0abe ea3d 4abc 7ba3 fdbe
00000290: 058f a73e fa85 243d e88b 20bf c5a3 4c3e
000002a0: 847d 293d 02f1 f73d 395e 273d 5399 973f
000002b0: db7c 9ebe 2089 9dbe 6f2d 033f a889 7dbe
000002c0: dfd6 15be f05a 173f a2d7 bdbe 4dd7 15bf
000002d0: a530 96bf f1bc ecbe 4149 acbc 7d89 36c0
000002e0: 9a98 84bf 0624 78be 50bd 0dbe 46b4 d6bc
000002f0: 8a06 663e e372 46be aeac 843e 9235 1240
00000300: 5366 2c3e e682 96bc 6138 cbbd 9716 68bd
00000310: 883a 5fc0 36c8 763e b202 2dc0 3eba 203e
00000320: 9e89 c3be 2f16 4abf 5f65 8f3f adcc bebc
00000330: c2a7 f3bc 1072 80be 8ae0 71bf 1157 b13d
00000340: 5c66 0b3e bb09 043e 5aa8 efbf 8a7d efbd
00000350: 7dbd c0be 598b 16be 3cf8 4b3f 5cb2 bfbf
00000360: 6458 3b3d 3181 5b3e b9a5 01bd 1cca 363e
00000370: ce08 813e bc19 f7bd 57c3 83be f046 7cbe
00000380: d48b 8b3e 48fc 4fbf 5227 a7bf 972f 38be
00000390: 214c a33d 8037 8dbf 7511 083d 5c9a e73d
000003a0: 81c0 7cbe 9b72 9f3c ebfb 493e 0d01 063e
000003b0: b53d 44be 9eca 86bd 54bc 82bf 4a7c 873e
000003c0: e87c 9e3d e7db 8abc 08f1 033e 005d 4c3e
000003d0: 92b1 5abe 913e 30bf a0c9 bc3d 8bf9 44bf
000003e0: 704a 183d fdec 89bd 3078 cb3d 1e83 59bf
000003f0: d060 85be ab95 53be b4eb 113e d3be 3f3d

l2.weight f4 [256, 256]
0.042957358 -0.036610097 -0.0094719585 -0.005276335 -0.025020177 -0.023531944 0.03642217 -0.059413664
-0.006699849 0.05531165 -0.010335353 -0.06055358 0.05286882 -0.02045659 0.018434066 0.030837089
-0.04206644 0.036661606 0.0068699354 0.03574972 -0.003364032 -0.030016296 0.013447872 0.046234764
-0.04938216 -0.014099464 -0.030123819 -0.056010887 -0.06619203 0.010332206 -0.0034415647 0.034517076
0.02316764 0.03635907 -0.034301877 -0.03356557 -0.04767193 -0.06576456 0.01822073 -0.06117352
-0.008955337 -0.032196514 -0.016137853 0.04972271 -0.027714245 0.0547098 -0.030774787 -0.002318643
0.055111982 -0.0043527856 -0.056371983 0.038056005 -0.02891316 0.00033521652 -0.039110865 -0.005245514
-0.00829824 -0.038930744 0.012649045 -0.030222857 -0.016090542 0.025330635 -0.044738945 0.022699505
0.018466946 0.05152166 0.057721004 -0.057755463 -0.020114198 -0.010348959 0.028534679 0.030518867
-0.026011325 -0.04003559 -0.044172782 -0.026004834 0.011952993 0.021322077 0.040550575 0.036566157
0.0015193953 0.003322363 0.04939998 -0.0320073 0.044578537 -0.050756857 0.062314823 0.003921569
0.03421918 0.025131889 -0.037015736 -0.034807608 -0.06176372 -0.112333834 -0.04615368 0.002188228
0.025829509 -0.0040883645 -0.054659914 -0.02109852 0.03987121 0.008987381 0.010601118 -0.019477233
0.032834105 -0.04594021 0.018057011 -0.062120527 0.013437629 0.0007355362 -0.026228309 -0.0014823079
-0.013686425 0.055806216 -0.06504136 -0.058122285 0.039131664 -0.013371706 0.024860166 -0.028125925
-0.018236782 -0.06885161 -0.04259842 0.014334011 0.030064285 -0.013059033 -0.02586803 0.0052749556
-0.02326367 -0.046802662 -0.06328406 0.053742204 0.05115097 -0.043857675 -0.06573473 0.05293104
0.030949086 -0.025908582 0.040779687 -0.04279465 -0.0004022684 -0.049747407 0.013916815 0.021284387
-0.008826375 -0.019889146 -0.029104166 0.018035023 0.0005423799 -0.032119505 0.010960601 -0.048602868
-0.031959407 -0.022076681 0.024155311 -0.06379595 -0.047687825 0.05408907 -0.04553634 -0.07578433
0.028431064 0.028994188 0.019002855 0.011139971 0.019353982 -0.041662946 -0.06677505 0.004309442
0.035149597 -0.049772307 0.0031853989 -0.045681167 0.021531366 0.027813854 -0.032199297 0.013663858
0.03816454 -0.028332626 -0.018876541 -0.07097051 -0.01980173 -0.04236243 0.061278656 0.05463968
-3.7090293e-05 -0.031831734 -0.020077437 0.022347338 -0.025833726 -0.033230714 0.047606982 -0.026406739
-0.033158597 -0.046954617 0.030028671 -0.061178118 -0.06510363 0.007924318 0.03129512 -0.0631356
0.03993726 -0.046815224 -0.056567114 -0.05213989 0.061346322 0.0582178 0.0022726492 -0.04684828
-0.015436634 0.05048524 0.019388832 0.01809676 -0.060766764 -0.013260998 0.050325036 0.013244234
-0.028962864 0.009823076 0.06219303 0.0025981069 0.0001943964 -0.021099487 0.034241125 0.04010286
0.055111773 -0.051282384 -0.035104122 -0.053558074 0.010088339 -0.030322442 -0.048564963 -0.020966604
-0.026950717 -0.053657584 -0.0382528 0.004042119 -0.0047206357 0.046853974 0.038207356 -0.060119763
-0.01479052 -0.07201147 0.056417063 -0.009943262 -0.011652023 0.0033532886 -0.05598709 -0.009218021
-0.008506082 0.030697538 -0.02158492 -0.01220574 0.021320155 -0.05714743 -0.02628573 -0.051884316
00000000: 0ef4 2f3d 78f4 15bd 4630 1bbc 1be5 acbb
00000010: 1df7 ccbc 10c6 c0bc 6a2f 153d be5b 73bd
00000020: 688a dbbb 788e 623d 9d55 29bc 0807 78bd
00000030: fa8c 583d 9494 a7bc 0a03 973c 109e fc3c
00000040: dc4d 2cbd 7b2a 163d 321d e13b 4c6e 123d
00000050: 1777 5cbb bce4 f5bc 7754 5c3c aa60 3d3d
00000060: f344 4abd 7001 67bc 3ac6 f6bc ac6b 65bd
00000070: b08f 87bd 6a48 293c e08b 61bb c761 0d3d
00000080: 10ca bd3c 40ed 143d 2080 0cbd 0d7c 09bd
00000090: a443 43bd 92af 86bd a443 953c 1691 7abd
000000a0: 68b9 12bc 7ee0 03bd 8833 84bc 0aaa 4b3d
000000b0: fc08 e3bc 6217 603d 681b fcbc 60f4 17bb
000000c0: 1abd 613d d0a1 8ebb 4fe6 66bd 9de0 1b3d
000000d0: 4bdb ecbc 00c0 af39 b732 20bd 90e2 abbb
000000e0: 57f5 07bc d875 1fbd f13d 4f3c ed95 f7bc
000000f0: 50d0 83bc 3182 cf3c 2f40 37bd 50f4 b93c
00000100: fe47 973c 6008 533d dc6c 6c3d fe90 6cbd
00000110: 88c6 a4bc ae8e 29bc 8fc1 e93c b402 fa3c
00000120: b415 d5bc 5cfc 23bd 85ee 34bd 1708 d5bc
00000130: 7dd6 433c a3ab ae3c 5c18 263d 65c6 153d
00000140: 7226 c73a 00bc 593b a257 4a3d 161a 03bd
00000150: fc97 363d 6ce6 4fbd d43d 7f3d 8180 803b
00000160: 6929 0c3d 64e1 cd3c d09d 17bd 6c92 0ebd
00000170: f4fb 7cbd 480f e6bd a40b 3dbd 6068 0f3b
00000180: 6898 d33c b0f7 85bb 13e3 5fbd ced6 acbc
00000190: fe4f 233d cf3f 133c 50b0 2d3c b88e 9fbc
000001a0: 0e7d 063d cd2b 3cbd 4cec 933c 1872 7ebd
000001b0: 8029 5c3c 00d1 403a c0dc d6bc 004a c2ba
000001c0: 073d 60bc 0f95 643d 6834 85bd a211 6ebd
000001d0: 8648 203d 0015 5bbc 8ca7 cb3c 5768 e6bc
000001e0: 4e65 95bc 1302 8dbd ae7b 2ebd 33d9 6a3c
000001f0: 6049 f63c 8ef5 55bc 31e9 d3bc 89d9 ac3b
00000200: 7493 bebc 26b4 3fbd 139b 81bd c920 5c3d
00000210: ae83 513d 1ba4 33bd ee9f 86bd 38ce 583d
00000220: f088 fd3c 3c3e d4bc 9a08 273d 7149 2fbd
00000230: 8de7 d2b9 f0c3 4bbd 5a03 643c 985c ae3c
00000240: 809c 10bc 90ee a2bc dc6b eebc 2fbe 933c
00000250: 802e 0e3a be8f 03bd 1894 333c cd13 47bd
00000260: dee7 02bd 28da b4bc 5ce1 c53c 73a7 82bd
00000270: 4f54 43bd 808c 5d3d 5084 3abd d134 9bbd
00000280: 43e8 e83c 3885 ed3c e0ab 9b3c 6d84 363c
00000290: 3e8c 9e3c c4a6 2abd 5bc1 88bd 3836 8d3b
000002a0: 06f9 0f3d 0cde 4bbd 20c2 503b 2d1c 3bbd
000002b0: 8c62 b03c e1d9 e33c 69e3 03bd 60de 5f3c
000002c0: 6c52 1c3d d319 e8bc faa2 9abc fd58 91bd
000002d0: 3d37 a2bc 3a84 2dbd 54ff 7a3d dbcd 5f3d
000002e0: 6691 1bb8 fe61 02bd 7079 a4bc c411 b73c
000002f0: 40a1 d3bc ee1c 08bd 8aff 423d f252 d8bc
00000300: 4fd1 07bd 7c53 40bd b0fe f53c e895 7abd
00000310: 0d55 85bd 00d5 013c 502f 003d 3d4d 81bd
00000320: 4195 233d 52c1 3fbd ebb2 67bd a390 55bd
00000330: 4846 7b3d ca75 6e3d baf0 143b fbe3 3fbd
00000340: f0e9 7cbc 9cc9 4e3d 54d5 9e3c a83f 943c
00000350: 92e6 78bd a844 59bc a021 4e3d 58fe 583c
00000360: 8743 edbc f8f0 203c 1ebe 7e3d 0045 2a3b
00000370: e3d6 4b39 d5d8 acbc 6c40 0c3d e642 243d
00000380: e2bc 613d 7a0d 52bd 57c9 0fbd b65f 5bbd
00000390: 9049 253c c566 f8bc 0eec 46bd 28c2 abbc
000003a0: c0c7 dcbc 0ec8 5bbd f8ae 1cbd c073 843b
000003b0: 90af 9abb f4e9 3f3d 517f 1c3d 2440 76bd
000003c0: f053 72bc c07a 93bd 9415 673d 10e9 22bc
000003d0: 20e8 3ebc d9c2 5b3b b852 65bd 2f07 17bc
000003e0: 185d 0bbc 6779 fb3c dcd2 b0bc 96fa 47bc
000003f0: 9ba7 ae3c 6c13 6abd 2c55 d7bc a684 54bd

l2.bias f4 [256]
-0.00580264 -0.83463585 -0.14152083 -0.8317289 0.036650497 -0.061348837 -0.005077361 0.044492014
-0.029016525 -0.032206036 -0.03374413 -0.07319291 -0.043105245 -0.0066775163 0.007658448 0.0123996865
-0.031169059 -0.01116765 -0.12241302 -2.6474783 2.7177882 -0.039684806 0.026205884 -2.3852763
-0.07671804 0.101407126 -0.083128594 -0.11859254 -0.03905631 -0.014679496 -1.5902227 -0.13214155
-0.16546822 -0.042962942 0.05167561 -0.1804684 -0.10799779 -0.007620931 -0.1169581 -0.008832979
-0.14992104 -0.17160937 0.047877185 -0.07889726 -0.099645354 -0.12654524 -0.05484639 -0.19918405
-0.088682964 -0.04851289 -0.07769208 -0.08179869 0.0071235183 0.04648941 -0.20549016 -0.02717008
-0.014194384 -0.7303104 -1.0802408 -0.27389392 -0.14781442 -0.035974465 -0.2071535 1.1444486
-0.060146008 -0.05662647 -0.04833478 -0.83684313 -0.055935603 -0.23787756 -0.01538602 -0.018426914
1.3449297 -0.06640884 0.26579064 0.023952587 -0.025382178 -0.07063783 -0.8984731 -0.025321206
-0.040462684 -0.056171805 -0.81974363 -0.047869474 -0.15305617 -0.023172705 -0.024180586 -0.06843542
-0.0718162 -0.06090825 0.01550018 -0.0037027025 -0.3993453 -0.09995539 0.05367863 -0.08725009
0.038432177 0.84915286 -0.12348449 -0.055657316 -0.061774522 0.046899695 -0.063167155 -0.84019315
0.008662 -0.10328657 0.025489286 -0.07331714 -0.72937894 0.034779597 0.0477268 -0.039967824
0.0016629373 0.045283917 -0.0014642049 0.089465715 -0.07631379 -0.014233155 -0.011984577 0.029085074
-0.8376158 -0.047875095 0.029179605 -0.06795605 -1.323068 0.028441338 -0.085591085 -0.031826265
-0.27666453 -1.591384 -0.85547787 -0.048289802 -0.0739424 -1.0642892 -0.03969018 -0.7669442
-0.087047815 0.024641447 -0.87713337 0.9298997 0.048026655 -0.094659194 -0.056829374 0.040990338
-0.02071019 -0.05641781 -0.00075386587 -0.07128334 -0.09648907 -0.052647486 -0.16341256 0.011528689
0.041753463 -0.9088668 -0.14009398 0.0028977464 0.009700467 -0.010563493 -0.050149914 -0.004981436
-0.085024744 -0.06586999 0.017269075 -0.029850384 0.040169057 -0.007923026 -0.04108913 0.014606466
0.0064274315 -0.05726762 0.020231517 0.04320674 -0.022546366 -0.17117281 -0.084191374 -0.059083514
-0.057133667 -0.15785523 -0.047855534 0.02536296 -0.04894327 -0.20380457 0.7555899 0.055348016
-0.79371023 -0.82615334 -0.018527819 -0.10929246 0.01917664 -0.034614094 0.053520434 -0.17403056
0.020446233 -0.020092148 0.046132814 -0.059571274 -0.060544323 -0.036931187 -0.14080326 0.0071401526
-0.24495238 -0.11293249 -0.06832073 -0.047342528 0.004884012 -0.85609174 -0.185498 -0.031516872
-0.8024386 -0.046666253 0.0056961924 0.5130657 -0.07130011 0.021126736 -0.8274609 0.043441527
-0.064000584 0.024471158 -0.08997569 -0.7945472 -0.052064072 -0.62710106 -4.3524942 -0.06500078
-0.06426111 -0.70907795 -0.054394666 -0.013795128 0.0012187429 0.0119675975 -0.056134455 0.01323162
-0.085197516 -0.08800895 -0.0026221282 0.03279813 0.28578404 -0.069437765 0.02439077 -0.009837987
-0.8954558 0.053443976 -0.026449366 0.02600087 -0.050408345 0.0043206643 -0.034485362 0.013880593
-0.06651014 -0.10601346 -0.07115241 -0.021071661 -0.03738163 -0.039498623 -0.15469669 0.044389747
00000000: 1324 bebb b2aa 55bf d6ea 10be 2fec 54bf
00000010: d51e 163d eb48 7bbd fe5f a6bb 423d 363d
00000020: 10b4 edbc 7aea 03bd 4937 0abd 2ae6 95bd
00000030: 208f 30bd 11cf dabb b8f3 fa3b 0e28 4b3c
00000040: 4156 ffbc 85f8 36bc adb3 fabd 4970 29c0
00000050: 3ef0 2d40 898c 22bd b9ad d63c 5ea8 18c0
00000060: 591e 9dbd 8aae cf3d 533f aabd a5e0 f2bd
00000070: 82f9 1fbd 4582 70bc 6b8c cbbf 1d50 07be
00000080: 8070 29be e9f9 2fbd cea9 533d b5cc 38be
00000090: f22d ddbd 01b9 f9bb ba87 efbd 33b8 10bc
000000a0: e784 19be 5eba 2fbe de1a 443d e394 a1bd
000000b0: dd12 ccbd 1395 01be 9ca6 60bd e7f6 4bbe
000000c0: 6a9f b5bd 74b5 46bd 061d 9fbd 1286 a7bd
000000d0: 676c e93b ae6b 3e3d 036c 52be ca93 debc
000000e0: 908f 68bc 9ff5 3abf 5545 8abf d33b 8cbe
000000f0: aa5c 17be f659 13bd 0c20 54be 4b7d 923f
00000100: a95b 76bd 28f1 67bd b1fa 45bd 5a3b 56bf
00000110: bb1c 65bd 2d96 73be a515 7cbc 0af4 96bc
00000120: a826 ac3f 5c01 88bd b615 883e 3738 c43c
00000130: 49ee cfbc 91aa 90bd 5502 66bf 6b6e cfbc
00000140: 33bc 25bd 6814 66bd b8da 51bf c812 44bd
00000150: c2ba 1cbe afd4 bdbc 5d16 c6bc df27 8cbd
00000160: 5f14 93bd ee7a 79bd 78f4 7d3c 0aa9 72bb
00000170: fd76 ccbe 69b5 ccbd 20de 5b3d 2db0 b2bd
00000180: 0f6b 1d3d 1562 593f 70e5 fcbd edf8 63bd
00000190: 4807 7dbd e519 403d c85d 81bd e616 57bf
000001a0: 10eb 0d3c e987 d3bd e8ce d03c 4c27 96bd
000001b0: 94b8 3abf 0d75 0e3d 2d7d 433d 4db5 23bd
000001c0: ebf6 d93a a17b 393d 90ea bfba cd39 b73d
000001d0: 684a 9cbd 2e32 69bc f65a 44bc d243 ee3c
000001e0: fd6d 56bf ad18 44bd 110a ef3c 8b2c 8bbd
000001f0: 4b5a a9bf cffd e83c 614a afbd 425c 02bd
00000200: f9a6 8dbe 79b2 cbbf 9900 5bbf 87cb 45bd
00000210: 1d6f 97bd a13a 88bf 2c92 22bd 7556 44bf
00000220: 2046 b2bd dcdc c93c d08b 60bf e80d 6e3f
00000230: 99b7 443d aedc c1bd ebc5 68bd 7ce5 273d
00000240: 6ba8 a9bc 5d16 67bd 159f 45ba 00fd 91bd
00000250: 109c c5bd e4a4 57bd 9f55 27be d4e2 3c3c
00000260: ae05 2b3d 7fab 68bf cc74 0fbe 1ee8 3d3b
00000270: b5ee 1e3c 8012 2dbc ff69 4dbd 503b a3bb
00000280: 7421 aebd d8e6 86bd e077 8d3c cb88 f4bc
00000290: 4f88 243d 94cf 01bc 134d 28bd f54f 6f3c
000002a0: 349d d23b 7491 6abd 91bc a53c 8df9 303d
000002b0: 28b3 b8bc ed47 2fbe 876c acbd 8e01 72bd
000002c0: fe04 6abd cda4 21be 2a04 44bd fbc5 cf3c
000002d0: bd78 48bd 25b2 50be 576e 413f 9ab4 623d
000002e0: 9830 4bbf c97e 53bf a7c7 97bc bad4 dfbd
000002f0: 5418 9d3c 82c7 0dbd 3e38 5b3d 1135 32be
00000300: dc7e a73c 4a98 a4bc c3f5 3c3d 0201 74bd
00000310: 53fd 77bd 2845 17bd bb2e 10be f1f7 e93b
00000320: ccd4 7abe 2649 e7bd bdeb 8bbd 3dea 41bd
00000330: 100a a03b d428 5bbf 30f3 3dbe d617 01bd
00000340: 9e6c 4dbf 1d25 3fbd 20a7 ba3b 4658 033f
00000350: cb05 92bd fa11 ad3c 7ad4 53bf beef 313d
00000360: bd12 83bd bd77 c83c 2d45 b8bd 7267 4bbf
00000370: 2341 55bd b289 20bf a247 8bc0 211f 85bd
00000380: 549b 83bd 2286 35bf f1cc 5ebd f604 62bc
00000390: 3abe 9f3a be13 443c 3eed 65bd 70c9 583c
000003a0: 097c aebd 093e b4bd 03d8 2bbb 5557 063d
000003b0: 4952 923e 6335 8ebd 27cf c73c 822f 21bc
000003c0: 973c 65bf 12e8 5a3d 57ac d8bc c7ff d43c
000003d0: fb78 4ebd 5c94 8d3b 8640 0dbd 6d6b 633c
000003e0: 7836 88bd 961d d9bd 5bb8 91bd 7a9e acbc
000003f0: 7b1d 19bd 4fc9 21bd cf68 1ebe 06d2 353d

l3.weight f4 [256, 256]
0.014475373 -0.06803079 0.052783154 -0.07924306 0.022838436 -0.060084566 -0.05533509 0.043591876
0.0427557 -0.022713698 0.043492094 0.020916056 -0.060801625 0.05517246 -0.02824757 -0.0031980574
-0.028509118 -0.022052169 -0.06279741 -0.05206145 -0.0332496 0.021398908 0.045825534 -0.004124518
-0.032816283 0.036072418 -0.032778893 -0.024993885 0.044221304 -0.0202275 -0.07267015 0.007970076
0.0112716155 0.03815513 0.03223393 -0.06335832 -0.0041953507 0.024722416 0.046473302 0.010003581
-0.08843689 -0.026703695 -0.06200224 -0.035624795 0.0061316276 -0.03245133 -0.029433057 -0.047174007
-0.058995355 0.042161983 -0.006688608 0.0026518255 0.044918913 0.03859707 -0.06690852 -0.04294786
0.057471886 0.024126805 -0.07360842 0.0156024955 -0.0661868 0.023588412 0.012948638 0.04739802
-0.0482084 -0.045317695 -0.059030086 -0.08140005 0.03934797 -0.040612943 -0.011399575 -0.058304198
0.011311317 -0.03655918 0.05094643 -0.032339446 -0.03914255 0.040877014 -0.023287648 -0.009449793
0.004264203 -0.007026679 -0.035495374 -0.057909545 -0.065483086 -0.0058318316 0.008807725 -0.015421566
0.014111284 0.02518179 -0.012772717 0.060661487 -0.0021485463 0.047090475 0.019783497 -0.010023751
0.009474039 -0.02978597 -0.05698747 -0.056503132 0.027188286 -0.051114112 0.048625343 0.024046687
-0.023416243 0.023862664 -0.009278796 -0.012454055 0.006861904 0.028087491 -0.017608434 0.044042494
0.040760316 -0.022387125 -0.037023246 -0.06613707 0.059450395 0.010980811 0.04069429 0.05132807
-0.027623571 0.04152488 -0.013425108 0.034698695 0.010200378 -0.031249054 -0.007531692 -0.05292935
-0.03912699 -0.0668206 -0.013628268 -0.0126375565 0.025476554 -0.015156771 -0.000636667 -0.053228322
-0.010825219 0.026783708 -0.09037463 -0.05175046 0.014493231 -0.022216266 -0.046125457 0.040380903
-0.05535061 0.04922777 0.0168683 0.002244419 0.02208519 0.041835245 -0.03909805 0.010725508
-0.044379283 -0.036910307 0.039468024 -0.02430293 0.057668023 0.004306175 -0.031519774 -0.007093072
0.037719443 0.046733048 0.050018884 -0.036488 -0.006592435 -0.007623278 0.054057643 -0.008525066
-0.0024088472 0.039836064 0.008791894 0.052814506 0.044064343 0.009346393 0.02678315 0.046417564
-0.042171296 0.025909612 -0.038759604 0.028110467 0.046523094 0.016301017 -0.07742328 0.0018075779
-0.0051975474 -0.054233678 0.007874787 0.030363828 -0.04325258 -0.06141012 0.008513761 -0.028803375
0.055409312 -0.023059145 0.037767954 0.033833817 0.03539125 -0.020694561 -0.070190966 -0.030245915
0.02294829 -0.054152865 -0.047366317 -0.047917277 -0.01995115 -0.01431394 -0.03468252 -0.009613395
-0.01751584 -0.0114114955 0.00791949 -0.06977018 0.052354205 -0.014738906 -0.026140897 0.026658406
-0.06538941 -0.01403521 0.008882406 -0.032624416 -0.047816835 -0.025762444 0.053959683 -0.039231166
0.036105223 -0.03185857 -0.011587064 -0.026878681 -0.006264239 0.009002352 -0.014656462 0.010221621
0.014152646 -0.060178168 -0.04541096 -0.044515774 0.00036284328 -0.0160857 -0.0136603415 -0.006600587
0.018502822 -0.06214691 0.0039844066 0.064864166 -0.027798656 0.015900994 -0.06952706 1.0212328e-05
-0.03388952 -0.04428922 -0.0066606104 -0.010078664 -0.013101725 -0.04678224 -0.061929848 -0.06068196
00000000: 1d2a 6d3c ba53 8bbd 2633 583d 2f4a a2bd
00000010: ac17 bb3c 3c1b 76bd 0ca7 62bd 658d 323d
00000020: 9a20 2f3d 1412 babc c424 323d 2658 ab3c
00000030: 200b 79bd 84fc 613d 7367 e7bc 8096 51bb
00000040: f48b e9bc c0a6 b4bc ee9b 80bd 633e 55bd
00000050: bc30 08bd c34c af3c 8eb3 3b3d f726 87bb
00000060: 5e6a 06bd acc0 133d 2943 06bd fabf ccbc
00000070: 6621 353d 24b4 a5bc 16d4 94bd ec94 023c
00000080: 95ac 383c 8e48 1c3d ba07 043d 02c2 81bd
00000090: 2779 89bb aa86 ca3c ca5a 3e3d 0fe6 233c
000000a0: 661e b5bd b5c1 dabc 10f6 7dbd 4eeb 11bd
000000b0: d2eb c83b b0eb 04bd 981d f1bc 8839 41bd
000000c0: 1da5 71bd 0bb2 2c3d 1c2c dbbb 40ca 2d3b
000000d0: e5fc 373d f617 1e3d 5607 89bd 18ea 2fbd
000000e0: a467 6b3d 94a5 c53c 03c0 96bd 9ca1 7f3c
000000f0: f28c 87bd 7c3c c13c 8626 543c 6d24 423d
00000100: 2c76 45bd 0c9f 39bd 88c9 71bd 12b5 a6bd
00000110: 562b 213d c259 26bd 48c5 3abc 62d0 6ebd
00000120: 1a53 393c 14bf 15bd 34ad 503d 5e76 04bd
00000130: f053 20bd a86e 273d bdc5 bebc 4ed3 1abc
00000140: baba 8b3b 0e40 e6bb 9963 11bd 8f32 6dbd
00000150: ff1b 86bd f318 bfbb 474e 103c bcaa 7cbc
00000160: 0433 673c 0b4a ce3c a844 51bc 2e78 783d
00000170: a0ce 0cbb f1e1 403d 0011 a23c a93a 24bc
00000180: 0039 1b3c b501 f4bc b16b 69bd d46f 67bd
00000190: f8b9 de3c 085d 51bd 5e2b 473d 8ffd c43c
000001a0: 6cd3 bfbc a27b c33c 1706 18bc 180c 4cbc
000001b0: d3d9 e03b bd17 e63c 903f 90bc e765 343d
000001c0: 4af4 263d 3465 b7bc b0a5 17bd df72 87bd
000001d0: 4282 733d dce8 333c 0eaf 263d 623d 523d
000001e0: d44a e2bc fe15 2a3d fcf4 5bbc 3820 0e3d
000001f0: 7c1f 273c 04fe ffbc 69cc f6bb 72cc 58bd
00000200: 9f43 20bd 3dd9 88bd 1949 5fbc c10d 4fbc
00000210: 35b4 d03c 1b54 78bc 00e6 26ba f105 5abd
00000220: 425c 31bc 8269 db3c 5616 b9bd 4af8 53bd
00000230: 0475 6d3c e3fe b5bc 0cee 3cbd 7266 253d
00000240: 52b7 62bd 0fa3 493d 642f 8a3c 1a17 133b
00000250: 00ec b43c 6f5b 2b3d 4725 20bd 0bba 2f3c
00000260: 0dc7 35bd 432f 17bd 39a9 213d f016 c7bc
00000270: 4e35 6c3d d01a 8d3b e11a 01bd 006d e8bb
00000280: b47f 1a3d 276b 3f3d 9ae0 4c3d 7174 15bd
00000290: 5a05 d8bb b1cc f9bb 8c6b 5d3d b8ac 0bbc
000002a0: c0dd 1dbb 242b 233d e00b 103c 0654 583d
000002b0: d07c 343d 9d21 193c 5668 db3c 5820 3e3d
000002c0: cfbb 2cbd 6540 d43c 64c2 1ebd ec47 e63c
000002d0: 008f 3e3d b689 853c 1990 9ebd 40ec ec3a
000002e0: 3050 aabb 2224 5ebd 4005 013c 90bd f83c
000002f0: 9e29 31bd 2e89 7bbd 4d7d 0b3c 0ef5 ebbc
00000300: e0f4 623d 88e6 bcbc 92b2 1a3d 5495 0a3d
00000310: 6af6 103d a487 a9bc 48c0 8fbd 48c6 f7bc
00000320: 0dfe bb3c 65cf 5dbd 2f03 42bd e844 44bd
00000330: 9870 a3bc 0485 6abc 420f 0ebd 8081 1dbc
00000340: 617d 8fbc 48f7 3abc c0c0 013c abe3 8ebd
00000350: 5d71 563d 747b 71bc 6f25 d6bc bb62 da3c
00000360: e2ea 85bd f0f3 65bc 8387 113c 2ea1 05bd
00000370: 96db 43bd c30b d3bc d404 5d3d dcb0 20bd
00000380: 12e3 133d 227e 02bd abd7 3dbc ae30 dcbc
00000390: 3f44 cdbb 9a7e 133c a821 70bc 9678 273c
000003a0: 80e0 673c 627d 76bd d800 3abd 2c56 36bd
000003b0: 003c be39 28c6 83bc a0cf 5fbc bd49 d8bb
000003c0: 3b93 973c c28d 7ebd a08f 823b 81d7 843d
000003d0: 02ba e3bc cd42 823c 3464 8ebd 9d55 2b37
000003e0: bdcf 0abd 9d68 35bd 4041 dabb fb20 25bc
000003f0: 9ea8 56bc bc9e 3fbd 27aa 7dbd a68d 78bd

l3.bias f4 [256]
-0.02029966 -0.06202458 0.006462045 -0.07043922 -0.025544263 -0.037284013 -0.022900812 0.0262276
0.056074258 0.00044993492 -0.0008749297 -0.049379043 0.051534772 -0.06425211 -0.02657293 0.004114333
-0.06281822 -0.11280799 -0.053036373 -0.046577416 -0.028084291 -0.013979275 -0.6082939 -0.07306947
-0.08134839 -0.053108796 -0.0033946158 0.010896214 -0.011682863 -0.05978267 -0.7465799 -0.023990411
-0.012900507 0.009487093 0.012002215 -0.5884437 -0.021420766 -0.00015177701 0.022424731 0.00086266926
-0.076298304 0.011802302 -0.0076195453 0.045274854 -0.6783745 0.039598964 -0.684203 0.05015213
-0.009109836 -0.0013295943 -0.013285695 -0.004734786 -0.7026142 -0.048926882 -0.030544434 -0.55838567
-0.1544821 0.011621654 -0.06837268 -0.090555005 -0.054619353 -0.035625964 -0.05773805 -0.010357225
-0.03516932 -0.08026931 0.018164022 0.027020503 -0.22065806 -0.6575658 -0.010275212 -0.23191257
-0.10873976 -0.051125456 -0.010277495 -0.056225404 0.055111896 -0.03945991 -0.67690676 -0.045475394
-0.059143066 -0.112073265 -0.051737513 0.05000849 -0.6346406 0.02601998 -0.6354892 -0.121421576
-0.06609706 -0.097428046 0.010951492 -0.73767686 -0.05324449 0.010950243 -0.023193963 0.050611835
-0.026328705 -0.08950291 0.0064244755 -0.048939694 -0.021234866 0.04278001 -0.025313895 -0.66141707
-0.086724244 -0.3740227 -0.13775696 -0.034329876 0.02003465 -0.07559276 -0.013979988 -0.035909902
-0.0076784217 -0.025474956 0.0035772647 -0.05958442 -0.46369833 -0.0018231742 -0.012104227 -0.028682247
0.011830907 -0.043118574 -0.01294326 0.029382577 0.001176288 -0.72190684 -0.05497944 -0.18185773
-0.08113371 0.006898919 -0.0010488735 1.5502461 -0.6540011 -0.23269618 -0.0058960263 -0.08119262
0.0034601209 -0.0075488365 0.0008607677 -0.014651485 -0.10870709 -0.031360105 0.18707228 -0.046126805
-0.689356 0.0261092 -0.40683836 -0.015460485 -0.70878834 -0.090025894 -0.4896278 -0.082779236
-0.0927464 0.0032032968 -0.06314519 -0.025508946 -0.05765733 0.037110448 0.030290702 -0.055735942
-0.13799244 -0.04206955 -0.020823553 -0.018063262 -0.7098333 -0.5832322 0.038035866 -0.6647395
-0.031401306 -0.071676284 -0.047367148 -0.72284186 0.016428296 -0.4011488 -0.00392245 -0.051325165
-0.26076263 0.01192515 -0.05219977 0.024705881 -0.039752033 -0.04999847 0.019897355 0.048803415
0.0027624173 -0.0534474 -0.032439828 -0.52129084 0.035421334 0.034329165 -0.045835465 0.031350184
-0.0665876 -0.042506956 -0.10289138 -0.059685275 -0.3574315 -0.6569711 -0.018181235 -0.06556183
-0.0062152 -0.056109935 -0.009746868 -0.04494538 -0.03491028 -0.051665705 -0.06646064 -0.07938161
-0.051998805 -0.034131993 -0.6501712 -0.06994035 -0.039520204 -0.07633361 0.05480318 -0.28219074
-0.011744119 -0.07907721 -0.0034536615 -0.033218026 -0.08439952 0.030127427 -0.0041597863 -0.32680407
-0.7445281 -0.08090985 -0.74066585 -0.048560128 -0.014217372 0.02357214 0.039646585 -0.013397044
-0.06287267 -0.04949708 -0.05023314 -0.060947046 -0.060535587 -0.05671401 0.015866138 -0.5339434
-0.005696393 -0.6452545 -0.009043296 0.009228107 -0.70941657 -0.06210124 -0.0640693 -0.01812366
-0.678462 0.006722382 -0.6473095 0.031110259 0.0020945794 -0.051361285 -0.06628991 -0.10540353
00000000: 794b a6bc 7c0d 7ebd 90bf d33b 7042 90bd
00000010: 3442 d1bc 1fb7 18bd 7c9a bbbc 44db d63c
00000020: 1fae 653d 3ee5 eb39 8a5b 65ba ae41 4abd
00000030: 2016 533d 9c96 83bd 79af d9bc 87d1 863b
00000040: d7a6 80bd e007 e7bd ab3c 59bd f6c7 3ebd
00000050: 0711 e6bc 5409 65bc 26b9 1bbf 72a5 95bd
00000060: fc99 a6bd 9c88 59bd 3478 5ebb 0986 323c
00000070: 7b69 3fbc acde 74bd dc1f 3fbf 8a87 c4bc
00000080: a65c 53bc c16f 1b3c f0a4 443c 3fa4 16bf
00000090: 9a7a afbc 5526 1fb9 12b4 b73c c124 623a
000000a0: 4942 9cbd 715e 413c 61ad f9bb 2072 393d
000000b0: f4a9 2dbf 8632 223d ee27 2fbf 526c 4d3d
000000c0: 6c41 15bc c845 aeba 3eac 59bc 4426 9bbb
000000d0: 86de 33bf 8e67 48bd 5238 fabc 5df2 0ebf
000000e0: 8e30 1ebe c068 3e3c fa06 8cbd e774 b9bd
000000f0: 8bb8 5fbd 88ec 11bd bc7e 6cbd 5ab1 29bc
00000100: b40d 10bd 3c64 a4bd b7cc 943c 1a5a dd3c
00000110: 30f4 61be 3b56 28bf 5d59 28bc 7d7a 6dbe
00000120: f4b2 debd ed68 51bd f062 28bc 9c4c 66bd
00000130: 03bd 613d b7a0 21bd c349 2dbf 6844 3abd
00000140: 0040 72bd ab86 e5bd b7ea 53bd b4d5 4c3d
00000150: ce77 22bf da27 d53c 6caf 22bf e0ab f8bd
00000160: e55d 87bd 5b88 c7bd e36d 333c 64d8 3cbf
00000170: e516 5abd a668 333c 4401 bebc 5b4e 4f3d
00000180: 4caf d7bc 4d4d b7bd 6884 d23b fd74 48bd
00000190: bef4 adbc 173a 2f3d 165f cfbc a152 29bf
000001a0: 7b9c b1bd e77f bfbe 2910 0dbe 7c9d 0cbd
000001b0: b51f a43c 61d0 9abd 520c 65bc 4316 13bd
000001c0: 459b fbbb dbb0 d0bc 8b70 6a3b cb0e 74bd
000001d0: de69 edbe 93f7 eeba cf50 46bc 08f7 eabc
000001e0: 6cd6 413c 1a9d 30bd f80f 54bc bbb3 f03c
000001f0: ad2d 9a3a e3ce 38bf 1f32 61bd ea38 3abe
00000200: 6e29 a6bd 5410 e23b 5b7a 89ba 776e c63f
00000210: 9e6c 27bf e847 6ebe 7433 c1bb 5148 a6bd
00000220: 32c3 623b 3b5c f7bb 24a5 613a c80c 70bc
00000230: d3a1 debd 7473 00bd e08f 3f3e 76ef 3cbd
00000240: a379 30bf f6e2 d53c 1e4d d0be f94d 7dbc
00000250: 2773 35bf 7f5f b8bd 7fb0 fabe 2988 a9bd
00000260: d3f1 bdbd 67ee 513b 4452 81bd 23f8 d0bc
00000270: 182a 6cbd 2001 183d 3524 f83c 5f4b 64bd
00000280: e44d 0dbe 1f51 2cbd 2896 aabc 68f9 93bc
00000290: a3b7 35bf b54e 15bf 7fcb 1b3d 5e2c 2abf
000002a0: a89e 00bd 04cb 92bd 0e04 42bd 2a0c 39bf
000002b0: a294 863c 6063 cdbe e587 80bb 563a 52bd
000002c0: ae82 85be b461 433c 6dcf 55bd fd63 ca3c
000002d0: 07d3 22bd 32cb 4cbd c7ff a23c 17e6 473d
000002e0: ac09 353b a9eb 5abd a0df 04bd 5173 05bf
000002f0: f615 113d bd9c 0c3d f8bd 3bbd 0d69 003d
00000300: 145f 88bd c61b 2ebd b7b8 d2bd 8c78 74bd
00000310: 4301 b7be 422f 28bf d0f0 94bc 4845 86bd
00000320: e0a8 cbbb 88d3 65bd 54b1 1fbc a618 38bd
00000330: 15fe 0ebd 6b9f 53bd 841c 88bd d392 a2bd
00000340: b3fc 54bd fdcd 0bbd 9f71 26bf e33c 8fbd
00000350: f0df 21bd cc54 9cbd 4d79 603d 4e7b 90be
00000360: 686a 40bc 3bf3 a1bd d356 62bb a00f 08bd
00000370: a8d9 acbd cbcd f63c d14e 88bb dd52 a7be
00000380: 6599 3ebf 10b4 a5bd 479c 3dbf fce6 46bd
00000390: fbef 68bc 5c1a c13c 7564 223d 467f 5bbc
000003a0: 63c3 80bd 73bd 4abd 44c1 4dbd 9ca3 79bd
000003b0: 2af4 77bd f34c 68bd b4f9 813c 84b0 08bf
000003c0: cfa8 babb 662f 25bf 552a 14bc 7c31 173c
000003d0: 539c 35bf df5d 7ebd c436 83bd 1278 94bc
000003e0: b0af 2dbf 6d47 dc3b 13b6 25bf f1da fe3c
000003f0: 3645 093b 3660 52bd 01c3 87bd cedd d7bd

l4.weight f4 [1, 256]
-0.03184693 0.0057607773 0.006388874 0.0023267814 -0.026259892 -0.0010311191 -0.019723106 0.05613728
-0.030587371 -0.016684305 -0.014970229 -0.026510384 0.041347697 -0.026706541 -0.0107042845 0.024567304
-0.010908862 -0.0003225377 -0.029016046 0.008264127 0.0068225227 0.025465837 0.0014843277 -0.022448245
0.012819198 -0.014229091 -0.03625997 -0.022272894 -0.001017483 -0.040691543 0.06764028 -0.010137117
-0.014855281 -0.010933373 0.019374348 -0.006503996 -0.04282221 0.043417756 0.010996084 0.0036006544
0.017785016 -0.07075969 -0.021905452 0.011848726 0.008177642 0.005759153 0.07515842 -0.03226902
-0.0034238098 0.006989546 0.0030937837 0.042142775 0.111582585 0.048663244 -0.044527404 0.0031932986
0.013401427 -0.004669139 -0.017393712 -0.033631142 0.024105271 0.0061224992 0.0078582335 0.013262182
0.02336184 -0.011229485 -0.0050525325 -0.010676668 0.0032902781 0.085971676 -0.010875827 0.00074322516
0.005877091 0.026427727 0.0073212073 0.0032984947 -0.041904505 -0.018179849 0.08193899 0.017353056
-0.014272699 0.036867104 -0.03156576 0.005206167 0.069417305 -0.003781341 0.07163729 0.006616554
-0.04821138 0.0215034 0.0037676499 0.08147798 -0.0017363392 -0.013685998 -0.004826602 -0.01882337
-0.021731094 -0.07431935 -0.04727437 -0.008472801 -0.019987412 -0.020797819 -0.033245347 0.072384946
0.016737973 0.023551142 -0.042352762 -3.6652487e-05 0.0019491967 -0.01355471 -0.038588054 0.050769154
-0.009887052 -0.043503676 -0.0020809437 -0.0056639193 0.013304524 -0.0059281993 0.0060003167 0.0074765473
0.04278984 -0.032498382 -0.011284492 -0.021802142 0.04198838 0.11225802 -0.047412466 -0.022371858
-0.011434776 0.0030675067 -0.06886021 -0.11856336 0.07763731 0.013907902 -0.03490045 0.024504423
0.012427236 -0.0060243974 0.034062583 -0.008770808 -0.029802872 0.016796954 0.060950395 0.0035580155
0.041711424 -0.014850107 0.01314265 0.0032199004 0.00065961474 0.00014067603 0.0036784515 0.01513558
-0.012754026 0.012616217 0.008498972 -0.07035469 -0.03401773 -0.025938556 0.035027463 0.008597241
0.0031516687 -0.06428856 -0.03047479 -0.015390551 0.04349086 0.0048294016 0.0021653038 0.0756915
0.008093726 0.017757842 0.005844581 0.040144917 -0.044433326 0.015890418 0.0008230955 -0.070271224
-0.0031308404 -0.008487607 -0.0072715315 -0.007944061 -0.01706972 -0.03180785 0.004414341 -0.016637472
0.05514998 -0.00027034502 -0.0031980777 -0.0019294767 -0.00820403 0.02693656 -0.04156249 0.034291066
-0.05728421 -0.0054595494 -0.00020820594 0.010965768 0.06461695 0.039048094 -0.012525573 -0.0329795
-0.036812387 0.05124714 -0.03082615 0.0024568737 0.012220178 -0.041700948 0.009393102 -0.035230037
0.013035191 0.0007056612 0.05795545 -0.02783634 0.0050047124 -0.034616012 0.007791137 0.003473952
0.011306458 0.0033912829 -0.044341963 -0.017110873 -0.021972373 -0.0051121665 -0.011765527 0.015380281
0.0864511 -0.020396704 0.05829397 -0.036714062 0.028620156 0.010716337 -0.007439141 -0.0014268206
-0.013675831 -0.014070435 -0.021208553 -0.0034924026 -0.0027974637 -0.029398888 0.038447738 0.01577479
-0.031081889 -0.015412139 -0.03337912 -0.011747518 0.10276033 0.0008522235 0.01648703 0.0111551145
0.103458054 -0.021699209 0.04841106 -0.018110141 -0.04038008 -0.036372058 -0.009115077 0.006826455
00000000: ed71 02bd e7c4 bc3b c259 d13b ea7c 183b
00000010: fc1e d7bc 9e26 87ba 5a92 a1bc 34f0 653d
00000020: 5e92 fabc 86ad 88bc b145 75bc 4e2c d9bc
00000030: 345c 293d adc7 dabc 0661 2fbc 5f41 c93c
00000040: 15bb 32bc 471a a9b9 0fb3 edbc 4366 073c
00000050: 788f df3b bb9d d03c c68d c23a 62e5 b7bc
00000060: 9d07 523c 2221 69bc 5685 14bd a575 b6bc
00000070: 105d 85ba 2dac 26bd fd86 8a3d 2616 26bc
00000080: 9163 73bc e421 33bc f4b6 9e3c 791f d5bb
00000090: 5766 2fbd d1d6 313d eb28 343c f5f8 6b3b
000000a0: e2b1 913c 75ea 90bd 1073 b3bc 2921 423c
000000b0: 84fb 053c 47b7 bc3b a8ec 993d 852c 04bd
000000c0: ff61 60bb 9008 e53b 14c1 4a3b e79d 2c3d
000000d0: 6985 e43d 1c53 473d 5e62 36bd a946 513b
000000e0: a991 5b3c 94ff 98bb 427d 8ebc cfc0 09bd
000000f0: 6b78 c53c 3f9f c83b d2bf 003c 9f49 593c
00000100: 5461 bf3c e0fb 37bc b78f a5bb 31ed 2ebc
00000110: b5a1 573b eb11 b03d 8630 32bc ffd4 423a
00000120: 9d94 c03b f67e d83c bde6 ef3b 8f2b 583b
00000130: 0fa4 2bbd e8ed 94bc a1cf a73d ff27 8e3c
00000140: 0ad8 69bc f601 173d 194b 01bd 7f98 aa3b
00000150: a92a 8e3d 60d0 77bb 92b6 923d aecf d83b
00000160: 4c79 45bd e627 b03c adea 763b eddd a63d
00000170: e095 e3ba 3c3b 60bc 7928 9ebb 7833 9abc
00000180: 6805 b2bc be34 98bd c5a2 41bd 81d1 0abc
00000190: a4bc a3bc 3060 aabc 462c 08bd 8f3e 943d
000001a0: 131e 893c 53ee c03c 177a 2dbd 4fbb 19b8
000001b0: 307c ff3a 9314 5ebc 820e 1ebd 51f3 4f3d
000001c0: 4dfd 21bc e930 32bd 7160 08bb 6698 b9bb
000001d0: 38fb 593c 5741 c2bb 4e9e c43b d3fd f43b
000001e0: 6644 2f3d 061d 05bd 97e2 38bc 689a b2bc
000001f0: 02fc 2b3d 88e7 e53d 9333 42bd 3045 b7bc
00000200: ed58 3bbc 3908 493b 9506 8dbd 59d1 f2bd
00000210: 4f00 9f3d f8dd 633c c6f3 0ebd 80bd c83c
00000220: 9b9b 4b3c 4f68 c5bb 3585 0b3d 6fb3 0fbc
00000230: 2725 f4bc c499 893c 1fa7 793d 982d 693b
00000240: 99d9 2a3d dd4d 73bc 4554 573c f704 533b
00000250: ffe9 2c3a 6f82 1339 2d12 713b 39fb 773c
00000260: 43f6 50bc 40b4 4e3c 463f 0b3c 1f16 90bd
00000270: 2d56 0bbd 187d d4bc f578 0f3d 71db 0c3c
00000280: 3a8c 4e3b b8a9 83bd 44a6 f9bc a628 7cbc
00000290: 7923 323d f53f 9e3b c5e7 0d3b 2504 9b3d
000002a0: 8c9b 043c e578 913c e683 bf3b ff6e 243d
000002b0: b8ff 35bd 9f2c 823c 01c5 573a 5cea 8fbd
000002c0: c92e 4dbb 9b0f 0bbc 0746 eebb cf27 02bc
000002d0: ccd5 8bbc f348 02bd 2da6 903b 4f4b 88bc
000002e0: f2e4 613d 18bd 8db9 d796 51bb 7fe6 fcba
000002f0: 326a 06bc 10aa dc3c 6e3d 2abd ca74 0c3d
00000300: d9a2 6abd 05e6 b2bb db51 5ab9 c4a9 333c
00000310: e455 843d e5f0 1f3d 1038 4dbc 8315 07bd
00000320: 96c8 16bd 85e8 513d 1f87 fcbc 8003 213b
00000330: 2437 483c 9dce 2abd 86e5 193c 5f4d 10bd
00000340: 8e91 553c 1ffc 383a b262 6d3d 0909 e4bc
00000350: 92fe a33b 85c9 0dbd cb4c ff3b 3eab 633b
00000360: b93e 393c 4940 5e3b eb9f 35bd 1a2c 8cbc
00000370: 68ff b3bc f683 a7bb 32c4 40bc 93fd 7b3c
00000380: 460d b13d fd16 a7bc a8c5 6e3d 7c61 16bd
00000390: d174 ea3c 9393 2f3c 0ac4 f3bb 2804 bbba
000003a0: 9810 60bc af87 66bc 8fbd adbc cbe0 64bb
000003b0: a755 37bb f0d5 f0bc 607b 1d3d 223a 813c
000003c0: 729f febc 3283 7cbc 8bb8 08bd a978 40bc
000003d0: 0274 d23d c067 5f3a cf0f 873c f1c3 363c
000003e0: d1e1 d33d 8ac2 b1bc ad4a 463d b85b 94bc
000003f0: 9565 25bd defa 14bd 6757 15bc 74b0 df3b
