models/GMI_pretrained/GMI_GPM_channel_predictor_24V_nonocean.pt (torch, 545332 bytes, 7 tensors)

l1.weight f4 [256, 13]
00000000: 0e49 d33d cf93 05be bb05 2a3e 5d8b d43d
00000010: 34eb 513e 761c 003e 6e1f 363e d2e2 07bd
00000020: b0c0 3fbe b906 7ebe 871c 2e3d a731 303d
00000030: c2bf 1a3e 171a 31be 27be 56be 1226 a23e
00000040: 912e 543e da8d 8e3e ac40 09be 51ee 8b3d
00000050: 5b1b b23d cf8e acbe 6b62 27be 09d9 123e
00000060: 34c4 37bd 0a48 f33c f56a 77be 78c3 91bc
00000070: 0ac9 663d 5269 513c 5bad 523d 56ee 35bd
00000080: 70a3 12be c8e7 e73d 281d 98be a02d 563e
00000090: ff31 56bd fc82 683e 7831 b03d a6b7 2abe
000000a0: 113c 6f3e 7012 eb3d 7ed2 18be 6e6c b1bd
000000b0: e63a 53be 43bb 7cbc 71f3 6d3d e8bb 27be
000000c0: a95a 75be 3797 5abe fb4a dc3d ff11 f8bd
000000d0: 6760 573d 0c34 9fbd 967e 1e3e 0947 203e
000000e0: eb83 743e d049 09be 8d49 243d e95c 44be
000000f0: 2490 13be ec9f ac3d bd91 57be 0250 103e
00000100: a421 3ebe d08e 0c3d 2801 95bd 89d9 29be
00000110: 798c 033d 3ac9 4fbe c39f ad3d 7d88 413e
00000120: 50f5 a6bb 2108 54be 9be8 7c3b 369c 4cbe
00000130: 4314 32be 9cbb c6bd 06ca 2f3d 4db6 5c3d
00000140: a079 23be c581 133e 4758 6bbe 52ee d33c
00000150: 0e6f f3bc 682b a83c f8d0 da3d 4338 0e3d
00000160: 8677 52be f547 593d 0aa8 9fbd b6fe 643e
00000170: 7079 afbe ab59 983d 7944 09be d268 183f
00000180: 45a0 84be 7ec7 afbd c468 8c3e 8c2b 05be
00000190: 6970 04bf 8a6a 6e3e 4984 14bd c433 62be
000001a0: 42ef fe3c da7a 563d f1ef 13be 999b c73d
000001b0: d66f 54be 17db 90be ea6e bb3e edd9 683e
000001c0: af07 01be 4e50 9b3d 75b3 133e 6765 67be
000001d0: cf15 833b d52a 183a 75c1 a6be 4629 99be
000001e0: 57b2 85bf cbe1 713e 53ff 373e 6149 8e3e
000001f0: 9c8b cbbc 67ac a83e b4c9 373e c98b 4abe
00000200: 5d4a 63bc c97e b5be b74f 86bd 05d9 50bd
00000210: 859d 68be eb8b 9bbc b334 47be 5fdf e7bd
00000220: 9a73 763e 4e88 513d 462c 94bc 8e83 5d3c
00000230: bafd 59be 54c8 0cbd 3fce 6b3e d99f 353e
00000240: 639f 75be 84ae 053e 866a 11be 7a20 54be
00000250: cf25 8fbe 8d3b 4a3d 4801 583e b26e 0e3e
00000260: cd3b 42be a6e6 26bc c9ed 193d 5a3d c4bd
00000270: 646b 7d3e 1d80 ce3c 3960 47be d5cf f73d
00000280: 2d69 72be 5f34 80be 93f6 7a3d b6c3 b33d
00000290: 42a8 67bd 0825 04bd 4685 403d d2ef 8cbc
000002a0: beba 5fbe 0dfc 513d 5103 1b3e bdbe 4abe
000002b0: 5ae9 263e ac27 88bd 17f7 a63c 98f4 92be
000002c0: 5d86 2cbe f410 94bd 3eac 97bb f7f4 143d
000002d0: b6b2 64be 41ad 6e3e e66d a43d 80cf 19bc
000002e0: c256 c6be 207b afbe db04 6cbe 9d62 fb3e
000002f0: 41b2 4a3e 1f05 993d b60e 383d 8ba3 be3c
00000300: df4f b03d 2e82 0cbd 87bf 82bc b5e4 7c3c
00000310: 1695 38be abc1 b8bd 8760 89be a649 39be
00000320: 208a b9bd 1388 5b3e c7ea 643e 5312 e2bd
00000330: cb5b 483e 4bcf be3a 8536 89be a61a 8f3d
00000340: 47c4 203e 64be a8bd a9d9 783d aae5 b7be
00000350: 7683 823e 7fde 98be c7cb 3ebe 4834 7a3d
00000360: 4cc8 be3c 9706 be3e 21b8 34bc 6bcd c3bd
00000370: ec6b e43e 2bb6 82be f6a1 243e 9e34 cf3e
00000380: 6ddc 9a3c 509a 83be 48f2 83be fa30 7ebe
00000390: e200 533c 82f1 313e 3c45 9a3e 9a4b dd3d
000003a0: 634a 16be 05b7 873c 8220 3a3e 7263 1dbd
000003b0: ab6c 9fbe 95e0 06be 4a20 be39 f19a 103e
000003c0: 7212 ba3d f872 523d 80db 223b 4197 05bd
000003d0: f71f c8bd 3e4d a0be db96 d13d f57b 713e
000003e0: 8ab9 11be fb0c 663e e55f 24be e61f 113c
000003f0: d1de a4be a798 81bc 203f 633e f585 783d
0.103166685 -0.13044666 0.16603749 0.10378144 0.20499879 0.12510857 0.17785427 -0.033175297
-0.18725848 -0.24807252 0.042507675 0.043016102 0.15112212 -0.17295109 -0.20970975 0.3166967
0.20720889 0.278426 -0.13403577 0.068325646 0.08696624 -0.33702704 -0.16346137 0.14340605
-0.04486485 0.029697437 -0.24161895 -0.017793402 0.05634407 0.012781458 0.051434856 -0.044416748
-0.14320159 0.11323506 -0.29709744 0.20915842 -0.052293774 0.22706217 0.086031854 -0.16671619
0.23362757 0.11478126 -0.14924046 -0.086632594 -0.20627937 -0.015425506 0.058093492 -0.16380274
-0.23960365 -0.21346746 0.10756489 -0.121128075 0.05258217 -0.07773599 0.15477976 0.15652098
0.23878448 -0.13407063 0.040109206 -0.19176067 -0.14410454 0.0842894 -0.21051688 0.1409302
-0.1856752 0.034315884 -0.07275611 -0.1658689 0.032116387 -0.20291606 0.08477738 0.18899722
-0.0050951615 -0.20706226 0.0038590792 -0.19981465 -0.17390542 -0.097037524 0.042917274 0.053884793
-0.15964365 0.14404972 -0.22982894 0.025870476 -0.029716041 0.02052851 0.10684389 0.034721624
-0.20553407 0.05304714 -0.07795723 0.2236279 -0.34272337 0.07438978 -0.13405026 0.59534943
-0.25903526 -0.08582972 0.2742368 -0.13004893 -0.51734024 0.23282829 -0.03625897 -0.2209006
0.031119946 0.052363254 -0.14446999 0.09746475 -0.20745787 -0.28292152 0.36608058 0.22739382
-0.12600587 0.07583676 0.14423926 -0.22597276 0.0040004025 0.00058047223 -0.3256947 -0.29914302
-1.044505 0.2362129 0.17968492 0.2779036 -0.024846844 0.32944033 0.17948037 -0.19779886
-0.01387271 -0.35448292 -0.06558173 -0.050988216 -0.22716339 -0.018987617 -0.19453697 -0.113219015
0.24067536 0.05115538 -0.018087517 0.013520135 -0.21288195 -0.034370735 0.23027895 0.17736758
-0.23986582 0.13054854 -0.14200792 -0.20715514 -0.27958533 0.0493732 0.21094239 0.13909414
-0.18968125 -0.010186827 0.037580285 -0.095820144 0.24747998 0.025207574 -0.194703 0.12100188
-0.23672934 -0.25039956 0.061270308 0.08777563 -0.056556948 -0.03226188 0.0470021 -0.017204199
-0.2184858 0.051265765 0.15137984 -0.19799323 0.16299954 -0.06648192 0.020381493 -0.28702235
-0.1684813 -0.07229796 -0.004628687 0.03636643 -0.22333798 0.23308279 0.08028774 -0.009387851
-0.38738066 -0.34273624 -0.23048727 0.49098673 0.19794561 0.0747168 0.044935904 0.023271343
0.08608984 -0.034303837 -0.015960468 0.015435387 -0.18025622 -0.09021314 -0.26831457 -0.18094501
-0.090595484 0.21438627 0.22355185 -0.11038651 0.19566266 0.0014557628 -0.26799408 0.06987505
0.15699874 -0.08239439 0.060754452 -0.35917407 0.25490922 -0.2985725 -0.18632422 0.061085016
0.023288868 0.37114403 -0.011030228 -0.09560665 0.44613588 -0.25529608 0.16077408 0.4046983
0.018903935 -0.2570367 -0.25770783 -0.2482337 0.012878628 0.17377284 0.30130947 0.108054355
-0.14676814 0.016566763 0.18176463 -0.038424917 -0.31137595 -0.13171609 0.0003626368 0.14121605
0.090855494 0.051379174 0.002485007 -0.03261495 -0.09771722 -0.3130893 0.102338515 0.23582442
-0.14230934 0.22465889 -0.16052206 0.008857703 -0.32201245 -0.01581986 0.22192049 0.060674626

l1.bias f4 [256]
00000000: b7d7 973d a681 f1be f5c6 343e bd02 083d
00000010: 9ec2 ccbe 7aea 723e 61aa 313e 958c 063f
00000020: b66f a5bf ec53 8e3e 7a0b b13d 6eaf 5a3d
00000030: 05e6 12be 125d 98be 9c9a 723f d25b 333d
00000040: e0c8 20bc ea6a 1dbf 78a0 92be b0bf dfbd
00000050: 2425 b2be 3e27 f0be e77b 213e d07b eb3c
00000060: 4704 66be 02c4 3fbe 0757 8ebd 626d 283e
00000070: 81ac 073f aab0 62bf c9aa d63b f5f1 03bc
00000080: c563 33bc e911 42be c5df 81bc 9155 5d3e
00000090: f11b 09c0 e800 52be be31 e2bd 4e8d 43bd
000000a0: ad39 57be b75b 223e d36d 563f a79d dc3e
000000b0: a900 833f de80 03be bc5e c0be 60f1 8b3f
000000c0: 4ca8 c43d d6db f1be 725c bf3e 495d 9fbf
000000d0: 14e2 88be 72ba 5fbe ce21 403e 6c8f 1a3e
000000e0: 5a69 56be b3c4 f0bd 2baa 483d 0336 293f
000000f0: 4794 5c3d 0130 5bbe 9898 94be 3c83 bbbc
00000100: 87e0 94bd 317c 20be 7868 153f 4c9e 8b3e
00000110: af67 67be 8ac2 3b3e f858 43be 1864 e63e
00000120: 95e9 85be 931a 00be d849 0740 8ecc 20be
00000130: 35a0 57bd 7bdd d2bc aa8e 0dbe a233 1b3e
00000140: aa51 31c0 ccdf 94bf ef18 7b40 ee23 d3bd
00000150: c044 c93d bee5 8fbd 0934 a9be 9c92 833d
00000160: 7af5 60be 8f60 253c 92d3 af3e 8e5e 063e
00000170: 0e4f 7a3e 4ce0 93bf 31d3 92bd dc42 87be
00000180: 3bd8 563b 7319 d23d a726 343f ec56 c2bd
00000190: a466 3abd 3cf7 07bc 4f75 823e afb8 2d40
000001a0: d2d4 66bf af10 5c3f 4502 23be 056d d3bd
000001b0: 5926 1ebf 6244 d53d 98f4 3a40 e6df 303c
000001c0: a0b8 7c3c a85d aebd b113 8c3e 2543 dbbe
000001d0: 6b2a 583e 9267 bf3f 55e8 20bd df8a a4be
000001e0: deb2 4dbe e008 1bbd f948 873e 0f1b 1bbe
000001f0: 3828 85bd 29a6 3e3e 60ca 88bd 60b9 8e3d
00000200: 1d23 d1bd 4a75 d7bd 1a71 13bf 796b cbbf
00000210: abad abba 7222 cb3f d6ed cebd 49a3 803e
00000220: b35f c5bd 09f9 acbe be50 273d 9d29 4dbc
00000230: 0f00 7dbe 6b68 8bbe 366f a23e 71d3 12be
00000240: ec0c 293e 8cee 593d e9ae 8c3e 2f33 dfbc
00000250: e34e d23e 070f 7e3e 24d3 153e 807e a23d
00000260: f77c 36be a0f8 833e 28d2 85be c9d6 3d3f
00000270: 0239 63be 85a9 d6bd a3bf a0bd dc17 14be
00000280: 19e4 dc3d fcb3 85be 3f0e 4cbd cbe9 9d3e
00000290: a240 0fbf ff7f 8d3e 89b9 5a3e dcd0 67bd
000002a0: 76f3 4c3e 5632 88be 619f 8fbe c3c6 e03e
000002b0: 6120 6ebe 2466 cb3d b86a f93b f6d7 54be
000002c0: 4b73 46be ad13 97bf c765 843e 3256 c6be
000002d0: 9f69 703f c88f c7bd ed8d 1a3e bce9 01be
000002e0: 37c0 a6bd 80ab d4be b65f c93e 8a73 5fbe
000002f0: 71e1 083e eed6 85be f0fe 223e fb00 c0bd
00000300: 551e 67be cc71 3ebe eed7 903f 8110 803d
00000310: 8198 933d 3202 d2bd 3b7d 19be cc8d b6bf
00000320: da26 a43d 42d8 313e 110f 21c0 b796 debb
00000330: fd4c d1bb a238 393d 9358 82be b0dc 5d3e
00000340: fc14 d63d 1446 a4be 2141 bd3f bd64 bcbf
00000350: 05be 883c 2af0 843f 6a06 2f3e e01c 8c3d
00000360: 2fc5 363e ca44 98be d17c aabd 1f01 e8bb
00000370: 49bd c73f 0387 66be a09f 59be ae18 aebf
00000380: 26b4 33be 3334 453e 0bf1 c33f 6d77 57bf
00000390: ed70 46be 5f7e 82be 7994 a9be c858 53be
000003a0: d4e0 44be a773 09be 7476 c73d 9631 cbbe
000003b0: 4145 59be 000d 873e df57 f83d 5778 d3be
000003c0: 1fb9 1c3e 9f0f 5f3e 2df6 ea3b 6f3a c6bd
000003d0: 5466 43bc 3b6e b7bd 8a3f 11be 99a6 883e
000003e0: 8809 f5bd 55bc 593d 1e44 ff3c da8d 933d
000003f0: 544f f13f 785e 86bc 169b df3d f5a4 8ebe
0.07414191 -0.47169226 0.17654021 0.033205736 -0.3999223 0.23722258 0.1735015 0.5255826
-1.2924716 0.27798402 0.08644767 0.05338996 -0.14345558 -0.29758507 0.94767165 0.04378874
-0.009813517 -0.6149126 -0.28638053 -0.10925233 -0.3479396 -0.4690494 0.15769921 0.028745562
-0.22462569 -0.18727115 -0.06950193 0.16447976 0.52997595 -0.8855082 0.006551121 -0.0080532925
-0.01094908 -0.18952145 -0.015853772 0.21614672 -2.1423304 -0.20508158 -0.11044644 -0.04774218
-0.21018095 0.15855299 0.8376133 0.4308903 1.0234576 -0.12842128 -0.37572277 1.0933037
0.096024126 -0.47238034 0.37375218 -1.2450343 -0.26734984 -0.21848467 0.18762895 0.15093774
-0.20938626 -0.117562674 0.04899041 0.6609804 0.053852346 -0.21405031 -0.2902267 -0.022889726
-0.07269388 -0.15672375 0.5836253 0.27269208 -0.22598146 0.1833593 -0.19076908 0.4499824
-0.2615477 -0.12510137 2.113882 -0.15703031 -0.05264302 -0.025740376 -0.13823953 0.15156415
-2.7706094 -1.1630797 3.9233968 -0.103095874 0.09827566 -0.07026242 -0.33047512 0.06424448
-0.21968642 0.010093822 0.34341103 0.13122007 0.2444422 -1.1552825 -0.07169188 -0.26418197
0.0032782692 0.1025876 0.7037148 -0.09489235 -0.045508042 -0.008298691 0.25480124 2.7143972
-0.9016849 0.8596296 -0.15918835 -0.10323528 -0.61777264 0.104134336 2.9211788 0.010795569
0.015424877 -0.08513957 0.27358773 -0.42824665 0.21109931 1.4953482 -0.03928407 -0.321372
-0.20087764 -0.03785026 0.2642286 -0.15147041 -0.06501812 0.18618073 -0.06679225 0.06968951
-0.102117755 -0.10520418 -0.57594454 -1.5892173 -0.0013098022 1.5869887 -0.10103957 0.25124577
-0.09637394 -0.3378375 0.040848486 -0.012522128 -0.24707054 -0.27228102 0.31725472 -0.14338471
0.16508836 0.05320601 0.27477196 -0.027246086 0.4107581 0.2481042 0.14631325 0.07934284
-0.17821108 0.25775623 -0.261369 0.7415586 -0.22189716 -0.10481552 -0.07849052 -0.14462227
0.10785694 -0.2611388 -0.049818274 0.30842432 -0.55957997 0.27636716 0.21359839 -0.05659567
0.20014748 -0.26600903 -0.28051284 0.43901643 -0.23254539 0.09931591 0.007611599 -0.20785508
-0.19379918 -1.180288 0.258589 -0.38737637 0.93911165 -0.09744221 0.15093203 -0.12686819
-0.08142131 -0.41537094 0.39330834 -0.21821418 0.13367249 -0.2614054 0.15917563 -0.09375187
-0.22570165 -0.18598098 1.1315897 0.06253148 0.07206822 -0.10254325 -0.14989178 -1.4262023
0.08015223 0.17367652 -2.5165446 -0.006792869 -0.0063873515 0.045220025 -0.25458202 0.21666217
0.10453221 -0.32084715 1.4785501 -1.4718243 0.01669217 1.0385792 0.1709229 0.06841445
0.17848657 -0.29739982 -0.08324588 -0.007080212 1.560464 -0.2251244 -0.21252298 -1.3601282
-0.1754919 0.19258194 1.5307935 -0.84166604 -0.19379015 -0.25487038 -0.33121088 -0.20639336
-0.1922639 -0.13423024 0.0973939 -0.3968627 -0.21217825 0.26377106 0.12126135 -0.4130275
0.15304993 0.21783303 0.0071704597 -0.09679114 -0.011926252 -0.08956572 -0.14184394 0.26689604
-0.119647086 0.053158123 0.03116041 0.072047904 1.8852334 -0.016402468 0.10918252 -0.27860227

l2.weight f4 [256, 256]
00000000: 8c3a 313d 853d d03c cfcb 453d 7009 fb3b
00000010: 1520 863d 20c0 0c3d 5b76 623d 8b75 f2bb
00000020: 4f22 a73e 8f17 cf3c 3a35 60bd e58c 4b3d
00000030: 5ed7 f1bc 5d37 d4bb dbd8 ecbd 8527 3c3d
00000040: eae5 023d 01d8 773d 63e4 683c a929 c2bc
00000050: ca72 70bd 98ed 29bd 9610 ac3c 641c 1d3d
00000060: a841 9cbc ba24 82bc 0a91 d6b8 c0e7 263d
00000070: b6e0 113e 5f4e ed3c 1bf4 ad3c 5146 a6bc
00000080: a45e 653d 5663 87bc e5ad 4b3b 1859 7b3d
00000090: dfad 1c3e c981 4fbc 21cd f83c 5aa5 71bd
000000a0: f085 ef3b 93ab dfbc 3a8a 1f3b 7065 c23d
000000b0: 9e88 ae3d 4073 6c3c 5b8e 113d cb5f 8f3d
000000c0: d068 34bc ba19 7a3d ddfb 8cbc 7396 07be
000000d0: 9ed5 603d b0c5 8abb da13 643d 6e75 0bbd
000000e0: 7004 bb3b ad8d 3e3d 44bb 2b3c 6bbe 63bd
000000f0: 44c1 363d 6fe8 59bc 4f71 073e 2371 a3bc
00000100: b9c2 eabc c4a5 8dbc 9540 d0bd 0a26 76bd
00000110: 423d 67bd baa6 023d 993c 143d 8af9 77be
00000120: 865b 403d d865 88bc a8eb debd fc21 04bd
00000130: 1319 383c aedf 193d 3aa7 c73c 1044 613d
00000140: 1d39 d7bc 1126 99bc efe0 30bd 8029 7a3c
00000150: 90c6 1fbd 8b62 003d 4de6 42bc e88f 03bd
00000160: f02d 3fbc 7bf6 05bd 9e7e 8f3c defd 563d
00000170: 34ab 783d 516a 033d ff2d 023e 6f10 f73c
00000180: f9b9 37bc be1c 843d 8573 3bbd 7027 8bbc
00000190: 41bd 933c 3af6 623c c8a7 b1bc e78d 9bbc
000001a0: ec49 00be fbfc 9c3d d426 71bd 5616 a23c
000001b0: 67e4 a63c 681d c93c b757 c3bd 6aff 06bd
000001c0: 5891 17bd 357e 353e 7bdb e5bc 9a2a ba3d
000001d0: 1162 4abc 2041 7c3a 5ae8 9c3c 089d 33bd
000001e0: c656 1dbd c1a0 bfba 609b a03c a1ea 373a
000001f0: 5944 8d3c 4866 863d 2dd6 6fbd 76ca 0dbd
00000200: 20c6 f1ba a492 c9bc 84b4 70be 6e7a c63d
00000210: 8ec1 ae3d 8d41 46bd 428e 3d3d ceb3 1e3d
00000220: f47a d83c 89e6 07bd fe09 f53d 0420 453d
00000230: 3cdc b8bc 2927 37bd 6dca 1f3e 1dd4 4cbd
00000240: 8e72 763d 2104 febd a092 9dbc bc8a 083d
00000250: 6087 24be 46d1 e8bc f39a 6a3d d4c8 c53b
00000260: 9c61 3fbd f356 eabc a8e0 ab3d aec5 1d3c
00000270: fcc5 a5bc b865 dbbc fb47 8fbc 0042 01bc
00000280: 947d bfbc 3d53 55bc de3f ca3d 82fa 66bd
00000290: 126b 833d ead4 3d3d e2c9 313d a175 123e
000002a0: f88b 223c 9468 19bd afa0 2abd 8ab2 f5bb
000002b0: 80ab 903d 6cce f7bc 1970 fa3d 658e 813c
000002c0: 7404 79bd 4cf5 9abd b4a9 8ebc 9837 07bc
000002d0: 5531 29bd a471 513d fe2c 053d 3b1d bbbc
000002e0: f4af 4a3d 0a12 87bd 19d0 cabc 7f68 3cbd
000002f0: 7e7f 0c3d 28cd f83c d905 65bd 6439 503d
00000300: 60ea 6abc 806d 3eba 75f7 0bbd 04bb f2bc
00000310: 9091 873c c03b d7bb 52c9 c33c bc3f 7b3e
00000320: 739d fbbc be87 7ebd 7227 c13c 505f e03c
00000330: 4055 b13a 2cc1 a13c 3a9b 96bb 10fc 98bb
00000340: 63f7 f73b 9c9c a53c ca94 54bd 21a4 3ebd
00000350: 9411 4c3d 257d 26bd 86f3 033d 8817 7abc
00000360: 8e5c 153e 111e a93b a02b d3bd cef7 58bd
00000370: 8246 303e a242 14bd 7e6f 6bbd 8b5e 17bc
00000380: 8471 38bd 9f8e 19be 9a5b 47bd 9300 febc
00000390: 7c82 e73c 8e2d b83c f7e3 1c3d 10e6 223d
000003a0: f5f3 be3c 9ea6 5f3d 5675 b1be 1991 6cbb
000003b0: 7acc 56bd d04b 853b 62f6 763d 661a c2bc
000003c0: 8ba3 6bbd 8297 373d 9522 dbbc 700d 073c
000003d0: 0260 a73c 50ae e5bc 80a3 fb3c eb04 1abd
000003e0: 5877 9d3d b05c 85bc cab9 f23b 7844 793d
000003f0: 39ab 05bd 876a fe3c 1035 5a3c 0c97 4ebd
0.043268725 0.02541996 0.04829007 0.007661037 0.06549088 0.034362912 0.055288654 -0.007399266
0.32643363 0.025279788 -0.05473826 0.049694914 -0.02952164 -0.0064763264 -0.115647994 0.045936126
0.031957544 0.06050873 0.014214608 -0.023701506 -0.05870322 -0.041486353 0.021004003 0.038357154
-0.019074276 -0.015886653 -0.00010231331 0.040748358 0.14245877 0.028968034 0.021234563 -0.020297201
0.05599846 -0.01652686 0.003107899 0.061364263 0.15300702 -0.012665221 0.03037125 -0.058995582
0.0073096678 -0.027303493 0.0024343864 0.09492004 0.085221514 0.014431775 0.03553615 0.07000693
-0.011011317 0.06105969 -0.017209942 -0.13240986 0.05489122 -0.004234992 0.055682994 -0.034047537
0.005707316 0.04652183 0.010481659 -0.05560152 0.044617906 -0.013300045 0.13226818 -0.019951409
-0.028657304 -0.017290957 -0.10168568 -0.06009487 -0.056454904 0.031897284 0.036190603 -0.24216285
0.046962284 -0.016650125 -0.108847916 -0.032258973 0.011236447 0.037566833 0.024371732 0.05499655
-0.02627235 -0.01869491 -0.043183263 0.015268683 -0.039007723 0.031343978 -0.011895728 -0.03211966
-0.011668667 -0.032705765 0.01751643 0.0524882 0.060710147 0.032083813 0.12712859 0.030159203
-0.011213773 0.06450795 -0.045764465 -0.016986579 0.01803458 0.01385265 -0.02168645 -0.018988563
-0.12528199 0.0766544 -0.05887492 0.019786041 0.020372583 0.024550155 -0.09538215 -0.032958426
-0.037003845 0.17723925 -0.028058758 0.09090157 -0.012352482 0.00096227415 0.019153763 -0.04385093
-0.03841283 -0.0014620052 0.019605339 0.00070158584 0.017244505 0.06562477 -0.058553863 -0.03461691
-0.0018445887 -0.024606057 -0.23506361 0.0969132 0.085330114 -0.048402358 0.046278246 0.038745694
0.026425816 -0.03317884 0.119647965 0.048126236 -0.022565953 -0.04471508 0.15604563 -0.050006974
0.06016784 -0.12403131 -0.019234955 0.033335432 -0.16067266 -0.028420102 0.057276677 0.0060359035
-0.046723947 -0.028605914 0.08392459 0.00962965 -0.020236008 -0.026781902 -0.017490378 -0.007889271
-0.02337531 -0.013020334 0.09875463 -0.056391247 0.064169064 0.04634563 0.04340542 0.14302684
0.009921066 -0.03745325 -0.041657146 -0.00749809 0.07063961 -0.030249797 0.12228412 0.01581497
-0.060795262 -0.07566318 -0.017414905 -0.008253001 -0.041306812 0.051133767 0.03251361 -0.022841087
0.04948421 -0.065952376 -0.024757432 -0.045998093 0.034301274 0.030371264 -0.05591378 0.050835982
-0.014338106 -0.00072642416 -0.03417154 -0.029630192 0.016548902 -0.006568402 0.023899708 0.24536031
-0.030714726 -0.062141173 0.02357838 0.027389199 0.0013529435 0.019745432 -0.004596141 -0.00466872
0.0075673326 0.020216279 -0.05189971 -0.046543244 0.04982145 -0.04064669 0.032214664 -0.015264399
0.14586088 0.005161055 -0.10311055 -0.0529707 0.17214397 -0.03619636 -0.057479374 -0.009238849
-0.045030132 -0.14995812 -0.048671342 -0.031006133 0.028260462 0.02248266 0.03830334 0.039770186
0.023309687 0.054602258 -0.34659833 -0.0036097227 -0.052441098 0.0040678754 0.060293563 -0.023694228
-0.057529014 0.044822223 -0.026749888 0.00824295 0.020431522 -0.02803722 0.030717611 -0.037602346
0.07688779 -0.016279548 0.0074074017 0.060856313 -0.032633994 0.031056656 0.013318315 -0.05043702

l2.bias f4 [256]
00000000: ac0e b5bc ba5c 24bd 42c2 83bd 9b1c c43b
00000010: 4fe1 56bd ddac eabc 76d4 9cbc 9677 e4bc
00000020: 7bf9 073d 86ec f3bb 9924 c73c 131f 06bd
00000030: 9967 59bc 75f1 dcbc ffed 8abd 95ca 79bb
00000040: 7957 55bd ac55 5cbd b5d9 babc 9da6 30bd
00000050: 3848 8fbb 7cde dcbc 35f7 90bd 503e a5bc
00000060: 3c6f f43c 7e25 e2bd f526 e2bc ca8b 97bd
00000070: 2de8 2cbc 596c 16bd 1f4e dd3c 0fdf 78bd
00000080: e2df eb3a 1fc5 69bd 2c44 e03b c222 193c
00000090: 7ecc f8bc 76a2 743d 8092 ccba 66ce d6bd
000000a0: d6a0 853c 36be 223d 1880 43bd ff7d 143f
000000b0: a64d 2d3b 14d9 97bd 40d7 04bb 3513 a93c
000000c0: b163 ae3c 4cfe 78bd cc08 e33c 63f9 89bc
000000d0: 6571 14bd 0b60 2abc e7d3 b4bc 50d3 d53b
000000e0: ca97 8abd 6218 013d c084 ba3c c4ff 4fbd
000000f0: b4ae 4e3d b479 33bd 4f0d 80bd abb8 b73b
00000100: ecde 1c3d 9c51 aabd be9f 973c fc9d 883c
00000110: fddb f43c 9ae5 a3bc f9c2 673b d6ba c6bd
00000120: 1179 14bd b90e bfbd cd98 1dbd 0b98 58ba
00000130: 5041 b73b daeb 86bd c6e1 7fbd 4d7f 4ebc
00000140: 5df0 83bc a018 33bb f0ba bc3b 723e 7dbd
00000150: 0b06 d73c 1461 eabc 6f77 6cbc a3ef cf3c
00000160: e9d5 bcbb f2a5 45bd a84f 40bd f2e3 17bd
00000170: 6c9f d3bd 4464 7fbc d49a dabc ad10 19bd
00000180: 896a 08bb ebd0 9b3c afdd a4bc 32aa 02be
00000190: 767d 393d 5f55 933c 6f9e 50bd 5d6b 6fbd
000001a0: 1888 63bc d7e2 783d 59d5 99bd e619 9dbd
000001b0: 827a b8ba 40d9 073d 2896 37bd 389b 22bc
000001c0: f4e3 57bd 66f1 3abd 2efe 31bd 0bd0 7e3f
000001d0: 6013 a43c 3b66 37bc 86ea c3bc e188 01bd
000001e0: 12d0 8e3c 5f2e 06bc 0771 c8bd eb2b ccbd
000001f0: d086 383d 4e88 40bd 7014 53bd a3fc a5bd
00000200: 2590 45bb dd81 98bc 25bd 69bd a608 4d3d
00000210: ef34 9a3b 2a31 963c 46da 7a3d a9f7 773d
00000220: 6f28 98bb 9c99 6bbd 4c76 f4bd 4201 4dbd
00000230: eebf a8bb b6c6 533b 6e17 43bd c1bb 0dbc
00000240: 6171 8d3c a680 23bc 2458 f83c b186 953d
00000250: 8342 82bd b519 3e3e 79b5 6fbd f89f f33c
00000260: 9289 293d 5316 29bd 4898 3ebd f60d 87bd
00000270: 483e 423c 6854 9cbd 0562 1e3d 9ffc 5cbc
00000280: 02af c63c ca73 0c3d f313 0d3d 115f c6bc
00000290: ba63 6ebd cca5 2bbd 5dd7 9f3c d766 27ba
000002a0: 3c6e 0d3d e47a a53b 4efd 80bd 641b 07bd
000002b0: 1ad1 d9bd ee5b f9bc c073 fa3a 5678 1d3b
000002c0: 5c4b ccbd 11a4 973c 922d 413b e654 6dbd
000002d0: 6ee5 5e3d d4e8 a63c bad6 4fbd 296e 02bc
000002e0: 1e11 95bb 0aa4 54bd 3ca4 a63c 50f0 dd3c
000002f0: 2b0d 77bd 8530 c43c cab2 58bd 5e3f 053d
00000300: 1392 b8bd fbfe 003d c794 b5bc ba7b 9ebc
00000310: 4dcc 24bc 1448 2c3d 9ebe 02be d037 09bb
00000320: d04c a4bd c6f8 53bd 0edc 9dbd 8601 24bd
00000330: 4c9a 54bd eafd af3d 8197 e7bc 19b0 5ebc
00000340: 53d9 13bc 503e 9a3c 9b85 2bbd dfcc c3bd
00000350: 99d2 2fbd 3d12 2dbb 09fc fdbc 4c9f 343d
00000360: 4128 a2bd ba72 95bc 04da c7bd d4af 69bc
00000370: 40c7 093d 4c77 8bbc 8000 393d 209e 083d
00000380: 7a29 413d b3d6 93bc ccb2 c2bc 9c1f a23c
00000390: bb23 fb3c bb05 cb3c db68 9cbc 74b6 713d
000003a0: f5c9 4ebc 6cf6 89bd f666 1d3d b9c3 273d
000003b0: c378 bebd 61e7 17bd 19d2 423c 7a51 d1bd
000003c0: 74d4 dabd a040 953c c741 f4bf c630 f4bc
000003d0: 0204 a4bd f029 00bd af32 24bf 1f49 823d
000003e0: 2312 17bb 04bd 763b 46d5 023d 4b0b b2bd
000003f0: 6b7b 62bd e7a7 78bc 6dc3 c3bd 3475 643f
-0.022101723 -0.040127493 -0.06433536 0.0059848554 -0.052460965 -0.02864688 -0.019144278 -0.027889054
0.033196907 -0.0074439673 0.024309443 -0.03274448 -0.0132693285 -0.026970604 -0.067836754 -0.0038115133
-0.052085374 -0.05379264 -0.022808889 -0.043127645 -0.004372623 -0.026961558 -0.07078401 -0.020171314
0.029838197 -0.11042307 -0.027606467 -0.073997095 -0.010553402 -0.036724422 0.02701479 -0.0607596
0.00179958 -0.057072755 0.006844064 0.009346666 -0.030370947 0.059725247 -0.0015607625 -0.10488586
0.016312044 0.03973218 -0.04772958 0.58004755 0.0026443987 -0.07414451 -0.00202699 0.020639041
0.021287771 -0.06078939 0.027714156 -0.01684255 -0.036240954 -0.010398875 -0.0220737 0.0065254346
-0.06767233 0.031517394 0.022768378 -0.050781026 0.05045958 -0.043817237 -0.062525384 0.005606731
0.038298532 -0.08316347 0.018508788 0.016676895 0.029890055 -0.020006943 0.0035364015 -0.09703605
-0.03624827 -0.0932898 -0.0384758 -0.0008262402 0.0055925027 -0.06587954 -0.062471174 -0.012603593
-0.016105825 -0.002732791 0.0057595894 -0.06182713 0.026247999 -0.028610744 -0.014432772 0.025382822
-0.0057628048 -0.04825396 -0.046950966 -0.03708262 -0.10333142 -0.01558787 -0.026685156 -0.03736942
-0.0020815453 0.019020518 -0.020125238 -0.12760237 0.045285664 0.017985044 -0.050932344 -0.058452
-0.013887428 0.060763206 -0.07511396 -0.07670955 -0.0014074596 0.03316617 -0.044820935 -0.009924702
-0.052707627 -0.04564037 -0.043455295 0.995362 0.02002877 -0.011193807 -0.02391554 -0.03162468
0.0174332 -0.008189767 -0.09787183 -0.09969314 0.045050442 -0.04700499 -0.051533163 -0.08104827
-0.0030145731 -0.018616611 -0.057065148 0.050057076 0.004706017 0.01833399 0.061243318 0.06053892
-0.004643492 -0.05751954 -0.11936626 -0.050050028 -0.005149833 0.0032314486 -0.047629766 -0.008650721
0.017265977 -0.009979403 0.030315466 0.07301081 -0.06360342 0.18564494 -0.058522675 0.029739365
0.041390963 -0.041281056 -0.046531945 -0.0659446 0.011855669 -0.07633287 0.038667697 -0.013487964
0.024253372 0.034290113 0.034442853 -0.024215253 -0.058200575 -0.041906163 0.019511873 -0.0006385869
0.034528956 0.00505005 -0.06298314 -0.032985106 -0.10635586 -0.030439343 0.0019107983 0.0024028025
-0.09975311 0.01851085 0.0029476625 -0.057942294 0.05441802 0.020374693 -0.05074189 -0.007960835
-0.0045491597 -0.051914252 0.020341985 0.027092129 -0.060315292 0.023948917 -0.05290488 0.032531135
-0.090122364 0.03149317 -0.02216567 -0.019346107 -0.010058475 0.042060927 -0.12768027 -0.0020937808
-0.08022463 -0.05175092 -0.07707988 -0.040040515 -0.05190496 0.08593352 -0.028270485 -0.01359179
-0.009023982 0.018828541 -0.041875463 -0.095605604 -0.04292545 -0.0026408576 -0.031003969 0.04409723
-0.07917834 -0.018243182 -0.0975838 -0.014263112 0.033637285 -0.017024659 0.045166492 0.033353925
0.047158696 -0.018046713 -0.023766898 0.019790463 0.030656686 0.024783006 -0.019092968 0.05901189
-0.0126213925 -0.06736454 0.03842827 0.04095814 -0.09300377 -0.037085894 0.0118909115 -0.102206185
-0.106850535 0.018219292 -1.9082574 -0.029808413 -0.08008577 -0.031289995 -0.6413984 0.06361603
-0.0023051582 0.0037649283 0.031941675 -0.0869356 -0.05529348 -0.01517675 -0.09558759 0.8924134

l3.weight f4 [256, 256]
00000000: b6c3 72bd 8294 10bd 30c0 59bd 44cc 483d
00000010: d81b 683c cefa 6d3d 7c92 3c3d 8015 583a
00000020: 3068 643d f0ff 52bd a803 c6bc dc11 4abd
00000030: 244b cc3c d417 c1bc d2ee 3b3d 748a 973c
00000040: f8d7 253c 9c1a 2ebd 3cc9 74bd c0ab 5abd
00000050: f61f 103d 00b4 3bbd 32db 023d 0089 f8b9
00000060: 603b df3b faa4 4f3d 0ee5 61bd fea0 6f3d
00000070: 006c 4739 3e92 793d c875 59bd 7091 3a3c
00000080: 50e3 35bc 4013 e5ba 58d6 003d d0e2 c33c
00000090: dacf 1c3d 749f 0b3d e08a dfbc 5084 1bbc
000000a0: d8a7 893c f4cc 533d 785a 25bc 9093 43bd
000000b0: de67 43bd 66a5 4b3d c2b2 3fbd 1a97 483d
000000c0: 1050 66bd 6c41 963c c857 d13c e056 dd3b
000000d0: 6025 40bc d4b2 c83c ec74 4abd 7eaa 013d
000000e0: a62d 683d 3c96 a63c d062 ed3b ac69 453d
000000f0: acd5 db3c 5eff 7abd d8a0 ef3c e0fd ef3c
00000100: 2a7c 443d e880 61bc 88fd e3bc 3027 bcbb
00000110: 901f 093c b089 7b3c 4219 54bd 449a 8ebc
00000120: 0864 2fbc e81d 773c 5ea5 493d 2c13 fb3c
00000130: 3e01 09bd 7013 963c e226 33bd 9e7b 753d
00000140: e6bc 38bd 2844 633c 6ca6 92bc 8206 1fbd
00000150: 1217 15bd 106e a93b 3679 3abd f0d3 bb3b
00000160: 8cc7 9abc 7460 8fbc c020 1b3d 14c1 d03c
00000170: 7aac 203d a4ab ac3c 5814 2d3c 9294 48bd
00000180: 4cb6 66bd 0409 bebc c837 d23c 94c2 2dbd
00000190: 24c7 83bc ce80 4a3d 980d 723c c233 563d
000001a0: 0068 6d3d 2a8e 153d 267b 37bd a829 efbc
000001b0: 48f9 0a3d a014 543c eebc 07bd c0c2 f7bb
000001c0: 3cca cbbc 86db 77bd 5055 863c 5a43 7ebd
000001d0: 024f 783d 0027 05bc 188c 0fbc c051 1bbd
000001e0: 109f 3b3c f06a c03b 4c58 3abd 6e8e 36bd
000001f0: 3c06 05bd 6874 6b3c 50d2 4c3c e844 723c
00000200: 8075 59bb 9a6e 2dbd 100f 42bc 4049 673c
00000210: ccc7 22bd 90b8 7dbc 2040 ca3c 64a7 67bd
00000220: 068f 063d 2437 dabc a47f 56bd e09b 453d
00000230: de96 4a3d 266c 523d e882 333c b09a efbb
00000240: 2c4b 353d c09a d23a b655 5abd 9ce8 67bd
00000250: c4f1 cd3c a85b 0c3c 7866 20bc b2ca 783d
00000260: 7057 2d3c d8bb 7abd 7c67 19bd 00e0 22bb
00000270: fcaa 853c 96ca 1f3d 8ce7 9ebc f8fe bbbc
00000280: 4e78 763d 6050 d23b c085 be3c 48b9 403d
00000290: e2fc 68bd 9c94 773d 30a8 5e3d ec47 863c
000002a0: 280c 06bd 4c45 2a3d b05e 5d3c 7471 be3c
000002b0: de1b 263d c05a a8bc 2693 31bd 0a53 383d
000002c0: 0cf6 81bc c23a 4e3d 1024 df3b fe39 0dbd
000002d0: c864 77bc 9c42 4e3d 1863 43bd 02e3 43bd
000002e0: 3c2c 763d a033 983b feb0 04bd 0c68 453d
000002f0: fec2 2abd 6045 07bb aea3 093d ccfc bb3c
00000300: 2645 073d e891 453d 445a a3bc 7078 6d3c
00000310: 90e6 bdbc 6a57 5fbd 10c2 b5bc 087d 0c3d
00000320: 7ec7 503d b069 cf3b ec87 b63c 00da 033d
00000330: 34e0 b13c ba5b 3cbd 585a b23c d017 bc3b
00000340: c87b ae3c 9ca9 76bd 38dd 573d 10a7 483c
00000350: a01e 5bbd 1ede 5a3d a8fe eabc 5834 383c
00000360: 1077 003d ec48 b4bc 889d 6dbc 52b4 3dbd
00000370: d6a1 173d d678 753d 5c99 303d 4030 dabc
00000380: 8432 783d 3240 21bd de28 193d a4bc dc3c
00000390: 20a6 efbb c884 49bd e89d 48bd 84a6 783d
000003a0: b0f5 7c3c c6f3 4d3d 782f c7bc c06a eebb
000003b0: 3494 a8bc 4084 d6bc 140b d9bc f033 3ebc
000003c0: 98ca 1bbd ee32 393d 486f 70bd 548b 6abd
000003d0: 30f8 693c 9474 8bbc 1ab1 0abd fe64 1c3d
000003e0: 00a8 07ba d280 0f3d a01d b83c f046 933c
000003f0: 1ac3 3dbd d6f8 4a3d 2a64 0c3d e059 0e3b
-0.059268676 -0.035297878 -0.0531618 0.049022928 0.014166795 0.058100514 0.046038136 0.000824295
0.055763423 -0.051513612 -0.024171665 -0.04933344 0.024938174 -0.023570932 0.045882054 0.018498637
0.010122292 -0.042505845 -0.059762225 -0.05338645 0.03518673 -0.04582596 0.031947322 -0.0004740432
0.006812498 0.050694443 -0.055150084 0.058503143 0.00019018352 0.060930483 -0.05309084 0.011387214
-0.011101559 -0.001747705 0.031454414 0.023911864 0.03828416 0.034087613 -0.0272879 -0.009491995
0.016803667 0.05170913 -0.01009237 -0.04774815 -0.047706477 0.049718283 -0.046801336 0.048972227
-0.056228697 0.018341742 0.025554553 0.006754741 -0.011727661 0.024499334 -0.04942791 0.031656735
0.05668416 0.02033531 0.0072444454 0.04819648 0.026835285 -0.061278693 0.029251501 0.029295862
0.047969975 -0.013763644 -0.027830854 -0.005741976 0.0083693415 0.0153526515 -0.0517819 -0.017407544
-0.010705002 0.015082814 0.049229972 0.03064879 -0.03344845 0.018319815 -0.043738253 0.059932344
-0.045102023 0.01387123 -0.017901622 -0.038824566 -0.036398955 0.005170591 -0.045525752 0.005732052
-0.01889398 -0.017502047 0.03787303 0.025482692 0.039226986 0.021077938 0.010563932 -0.048969813
-0.056326196 -0.023197658 0.025661364 -0.042421892 -0.016086169 0.049439244 0.014773749 0.052295454
0.05796051 0.03651253 -0.044795178 -0.029194668 0.03392914 0.0129443705 -0.03313916 -0.007561058
-0.024876706 -0.06051209 0.016398102 -0.06207595 0.060622223 -0.008126974 -0.008761428 -0.03791976
0.011451498 0.005872123 -0.045494363 -0.044569425 -0.03247665 0.014371015 0.012501314 0.014786936
-0.0033181608 -0.042341806 -0.0118444115 0.014116585 -0.039741322 -0.015485898 0.02468878 -0.05655612
0.03285124 -0.026637621 -0.05236782 0.048244357 0.049460284 0.05137267 0.010956503 -0.0073121414
0.044261143 0.0016067848 -0.053304397 -0.056618318 0.025139697 0.008566774 -0.009790055 0.06074018
0.010579929 -0.061214298 -0.037452206 -0.0024852753 0.016316883 0.03901156 -0.01939752 -0.022948727
0.060173325 0.006418273 0.023257136 0.047051698 -0.056881793 0.06044446 0.054359615 0.016391717
-0.032726437 0.041569993 0.013511345 0.023247458 0.04055392 -0.020551085 -0.043353222 0.045001067
-0.015864395 0.050349005 0.006809719 -0.034479134 -0.015099712 0.050356492 -0.047701925 -0.047823913
0.06010078 0.004644826 -0.032395355 0.04819493 -0.041689865 -0.0020640716 0.033603363 0.022947691
0.03302493 0.04823485 -0.019940503 0.014494047 -0.02318123 -0.054526724 -0.022187263 0.034298927
0.0509715 0.0063297376 0.02228161 0.032190323 0.021713354 -0.045985915 0.021771595 0.0057401434
0.021299258 -0.060220346 0.052701205 0.012246862 -0.053496003 0.053434484 -0.028685883 0.0112429485
0.031363547 -0.022007428 -0.01450289 -0.046314545 0.037019573 0.05992969 0.043115005 -0.026634336
0.06059505 -0.039367862 0.03739249 0.02694542 -0.007313505 -0.049198896 -0.048978716 0.060705677
0.015439436 0.05028131 -0.024314627 -0.007275909 -0.020578481 -0.026186109 -0.02649454 -0.011609063
-0.038035005 0.045214586 -0.058699876 -0.05726178 0.014280364 -0.017023362 -0.033860303 0.03818225
-0.0005174875 0.035034962 0.022475064 0.017978162 -0.04632864 0.049553715 0.03427521 0.002172105

l3.bias f4 [256]
00000000: b49e 803c 2abb 7ebd d210 bf3c 1451 4abd
00000010: 1058 063d 02bc 373d de1a 3c3d 6698 833d
00000020: da6a 133c 3700 3e3d 19eb 70bc 088f dbbb
00000030: 304a 063d daed 833c 8f2e 11bb 3ccc a43c
00000040: f637 3bbb 26cd fd3c efdb 8d3d b45b 06bd
00000050: 398e 4f3d a310 a5bc b31d 90bd 946e babc
00000060: c6b0 32bd a941 56bd a47d d83c a646 89bd
00000070: 5c57 e3bc 6921 37bd b80a 8fbd f8b7 29bd
00000080: dbe8 e7bc dc5d 83bd 4c14 61bd da24 1d3e
00000090: 40a9 4f3d f80e 6fbc 8b1f 4abd 719a a23c
000000a0: 615c f2bc c742 b6bc 172f b1bc 562b 9bbc
000000b0: d0bf e83c 07ea 0e3e c3c5 bf3b 4105 dabc
000000c0: 5383 09bc 8270 ec3d 47fe 84bd a856 50bb
000000d0: 4102 51bd da4c 333d 1654 133e 39ac 633c
000000e0: 0237 febc 8baf 9a3b ab2f 5dbd 19eb c9bb
000000f0: 7f1a 58bd acf3 cd3c b638 3fbd 12bc bfba
00000100: 60b2 2ebd 6271 0bbd 07f9 c7bc af35 1fbc
00000110: f6af bfbc 9803 56bd bcbe 8a3c ef07 ed3c
00000120: 1cda 2e3c c1ac 4b3e 488e 383d d2c7 de3c
00000130: 4912 ee3c a258 393d ee1c 51bd a222 9d3c
00000140: 1093 a8bb 63bf 14bd 8821 70bd e76b 1bbd
00000150: fea8 a739 ed35 b2bc c3e1 683c 0e9c 713c
00000160: 4aee 6dbc 3447 92bc 2811 e23c ef18 ecbc
00000170: 6487 1bbd 86e0 5fbd e833 143d 3db1 253d
00000180: e179 c43d 58ce 42bd 9dc2 283d 62bf 6dbd
00000190: 66dc 033d b099 733c 1849 7bbd 7e68 3c3d
000001a0: a20f 33bd a83a 48bd ba7f fe3c adc3 45bd
000001b0: ff41 86bd 52b5 f33c dc1a 0e3d f1bc 8fbd
000001c0: 6e5a 5bbd 130f cab9 b3e2 3b3c 63f7 94bc
000001d0: 2294 38bd fd90 313d 5612 87bd d1aa c4bc
000001e0: 00ef 5f3d 85b9 49bc 8e5f f7bc 5727 5f3d
000001f0: 7a9e 89bc ee4e 243d 3398 8eb9 8aaf 2a3e
00000200: 5c66 0c3d 3efb bf3b 14c2 a1bb dfe6 7fbd
00000210: 3f83 463d 22d1 30bd b1d0 6bbd ba8a 27bb
00000220: e002 c63b dc0e b73c 4d2f 08ba 0cc7 c13c
00000230: a5f3 b5bd 3bb6 7a3c f5d0 1d3d 2b23 f23c
00000240: 6b18 62bd 6fdd 0bbd 4d67 5ebc 54cc 6c3c
00000250: c963 3d3d 8ebd ca3c 31d9 00bc 77fe 00bd
00000260: 19be 4cbd 474b 70bd 00c8 1e39 8a51 e3bc
00000270: 122f d3bc 95d5 643d b01a 0abd 2047 6c3b
00000280: 25f7 93bd 0cd4 a73c 0a6f 06bd cafb 51bd
00000290: 6eed 183e 30d9 67bd 2924 b73a 9e7d 4c3d
000002a0: 8c13 13bd 5123 7dbc 81f8 443d 4819 1e3d
000002b0: dd65 86bc 200d 83bb c7ad 96bd 02ad 1fbc
000002c0: 905a 59bd f8d2 61bd 40b7 2a3d 75cb b9bd
000002d0: 531d 2ebd 19a3 da3d 76e4 193d c8eb 9fbd
000002e0: fe8a 26bb 6401 97bc bd71 2f3d 60fc 293d
000002f0: e3b7 3abc c252 eb3b 6af2 c3bc b508 913b
00000300: f6b9 183d f524 1c3e 5558 ee3c 4586 063d
00000310: 66b9 47bd 5ada 513d cce6 a6bc 2d93 68bd
00000320: 5da8 e63b 01da a13c 0dcb 59bb b9bb 223e
00000330: c1fd de3c ef99 d3bc fd79 8cbd 7dd7 d2bc
00000340: 2280 76bd b0b1 42bd d6e6 1f3c 37f6 c9bc
00000350: 87ad 953c 4c2d 1ab9 0206 97bc 7eea c33c
00000360: 4c6d 3fbc 0fdf aabc c601 75bd 18ab 893c
00000370: a4b4 7e3c 7ac9 8cbd 5002 5f3c 3706 52bc
00000380: 0627 693c 7d6f 9cbd 23d8 b03d 698f aebc
00000390: 1ae7 fa3d 9c27 80bc 9007 533d aa0f 3ebd
000003a0: 076c 0dbd 5749 ff3c 6668 183e 1430 b23b
000003b0: a0b8 d4bc 20b3 03bd 4d70 99bc 3dbc ec3a
000003c0: 521e 5d3d 0682 0e3d 9343 56bd f474 5bbd
000003d0: 93f5 643d 4b1d 103d f370 89bd 3a35 8c3c
000003e0: ad75 0cbd 264a 4a3c 03ed 89bc 74aa 59bd
000003f0: 52eb 113e e063 683d 213d aabd 3e98 e9bb
0.015700676 -0.062190212 0.02332345 -0.04939373 0.032798827 0.044857033 0.04592406 0.06425552
0.008997643 0.046386924 -0.014704489 -0.0067004003 0.032785594 0.016104627 -0.0022152995 0.020116918
-0.002856729 0.030981611 0.06926715 -0.0328023 0.050672743 -0.020149535 -0.07036915 -0.022757806
-0.043625616 -0.052308712 0.026427098 -0.06702928 -0.027751617 -0.044709597 -0.06984466 -0.041435212
-0.028309276 -0.06414387 -0.054950997 0.15346089 0.05069852 -0.014590971 -0.049346488 0.019849034
-0.029585065 -0.022248639 -0.0216289 -0.018941563 0.028411776 0.13956462 0.0058524325 -0.026613833
-0.008393127 0.11544897 -0.06493812 -0.0031789932 -0.05102754 0.043774463 0.14387545 0.013896042
-0.03103209 0.0047206334 -0.054000538 -0.006162059 -0.052759644 0.025140606 -0.046684943 -0.0014628193
-0.04265058 -0.034043677 -0.024410738 -0.009717389 -0.023399334 -0.05224952 0.016936652 0.028934447
0.0106721185 0.19890119 0.045057565 0.027194891 0.029061453 0.045250542 -0.05105298 0.019181553
-0.0051444843 -0.036315333 -0.058625728 -0.0379447 0.0003197863 -0.02175423 0.014213982 0.014746679
-0.014522145 -0.017856218 0.027596071 -0.028820483 -0.037970915 -0.05465748 0.036182314 0.04045223
0.09593559 -0.047560066 0.041201223 -0.058043845 0.03219261 0.014868185 -0.061349005 0.04599809
-0.04371608 -0.048884064 0.031066764 -0.048282314 -0.065555565 0.029749546 0.034693584 -0.070184596
-0.053553037 -0.00038539674 0.0114676235 -0.01818437 -0.045063145 0.043351162 -0.06595294 -0.024007233
0.054671288 -0.012312298 -0.030196931 0.054480877 -0.0167992 0.040114336 -0.00027197748 0.16668525
0.034277305 0.005858808 -0.004936466 -0.062476035 0.04846501 -0.043168195 -0.05757207 -0.0025564865
0.006042823 0.022345953 -0.00051950366 0.023654483 -0.08884362 0.015302236 0.038529355 0.029557785
-0.055199068 -0.034146722 -0.0135744335 0.0144530125 0.04623774 0.02474859 -0.0078642825 -0.031492677
-0.04998598 -0.05866554 0.0001514256 -0.027748842 -0.02577928 0.05586775 -0.033716857 0.0036053136
-0.072248735 0.020486854 -0.03282074 -0.051265515 0.14934322 -0.05660361 0.0013972569 0.049924485
-0.035907313 -0.015450315 0.048088554 0.03859833 -0.016405994 -0.0039993674 -0.07357364 -0.009745838
-0.053064883 -0.055132836 0.041678667 -0.090720095 -0.042508435 0.1067564 0.037571393 -0.078086436
-0.0025412436 -0.01843328 0.04283308 0.04150045 -0.011396381 0.0071814964 -0.023919303 0.004426087
0.03728672 0.15248473 0.029094854 0.032842893 -0.048760794 0.051233627 -0.020373724 -0.056780983
0.0070391134 0.019757273 -0.00332326 0.15891923 0.027220609 -0.025830237 -0.06859205 -0.025737518
-0.06018079 -0.047532737 0.009759625 -0.024653537 0.01827122 -0.00014703459 -0.018435482 0.023915526
-0.011683773 -0.020858316 -0.059816144 0.016805217 0.015545998 -0.06874366 0.013611391 -0.012818865
0.014230495 -0.07638452 0.08634975 -0.021308618 0.122511104 -0.015643887 0.051520884 -0.046401657
-0.03452685 0.0311629 0.14883575 0.0054378603 -0.025966942 -0.03215325 -0.018730307 0.001806147
0.053983994 0.03479197 -0.052310538 -0.053578332 0.05589826 0.035184186 -0.067109965 0.017115224
-0.034291912 0.01234678 -0.016836649 -0.053141072 0.14249924 0.056735873 -0.08312441 -0.0071287444

l4.weight f4 [1, 256]
00000000: 00bc 693d fc5d 2c3d 6128 4dbd fc1c 9a3c
00000010: b028 d5bc 3a5d 2cbd 560a 6ebd 4df5 f3ba
00000020: 99a8 efbc 8d79 d6bc 21d6 0cbc b3d9 12bd
00000030: 4d74 28bb 5c1f 053c 6cb8 d5bc 8650 59bc
00000040: c73b 903c 3222 35bd 493e 8fba 085c 2cbb
00000050: a67b 8c3a 06d3 9b3c ce90 d5bc 882e 72bc
00000060: a48f 49bd ba58 6abb 3b37 cc3c cffc 6dbc
00000070: fd74 bfba 6d71 f7bc d6cb 14bd 330c 9b3c
00000080: 74cd 7bbd af89 50bd 6c80 0d3d 2883 ad3d
00000090: 74c1 1c3d 8f42 693c 7ec6 dc38 2be6 183c
000000a0: e3c1 40bd e140 d4bc 39ea 0ebc 3e07 583b
000000b0: 4c37 e9ba 44eb 993d c8c0 9b3a a4e1 ea39
000000c0: 1153 b8bc 83a2 ba3d ce43 58bd 71f4 febc
000000d0: 856d 9d3b c1a6 a83b e6c3 a43d c900 ee3c
000000e0: bcbc 9aba 7042 29bb dadb 7dbc a899 04bd
000000f0: 8cc7 133c 72c7 2e3c 8b6f c6ba ba2d c03c
00000100: 8216 79ba 45a5 5c3d 70cc 82bc cfc8 cbbb
00000110: 7428 963c e8ca 10bd df8a 23bc 3bc5 30bc
00000120: 4d4a 46bd f755 bc3d 6108 66ba 6e47 0cbc
00000130: be95 7e3c 48d3 7bbc 9863 b9bc e011 3cbb
00000140: 0071 313b 09d0 8d3c 1c1b 45bd 31ff 133c
00000150: 3251 8fbb 05aa 03bd 1f99 ffbc 18fa 423c
00000160: 74e2 a53c 61ba 2abd b86b bc3c 6909 863b
00000170: f172 4b3c a4b6 e53c 2156 10bc 11d0 453d
00000180: 3758 c53d aea2 32bc d623 acbc 4f91 eb3c
00000190: fc9d 5a3d e98d 903b 8eb9 023b 5bd0 913c
000001a0: 6ed1 29bc 561f 41bd d710 4cbc 890a 4cbd
000001b0: 5a78 df3c 644e 08bc 829a da3c 8eab 25bd
000001c0: b679 b83c d8a0 09b9 92b0 3cbd 5141 79bb
000001d0: 899a c9bb 6efc 29bd ac06 a8bc f90f 26bd
000001e0: 2498 82bb eaf9 d4bc b7d2 923c 03b9 1d3d
000001f0: 2f66 19bd e454 09bd e5c0 d43c c029 663d
00000200: 5e40 5bbd b19b 82bc 6f2e b43c 26bf 39bb
00000210: 1027 0ebd f3b9 20bc 87f0 d3bc 11c1 043c
00000220: 988a 083d 2f80 9abc 4ad6 d6bc c8c5 373c
00000230: 0624 c13c 2a6c 18bd 5ee2 62bc 1e74 243d
00000240: 56fb 9aba f50a ffbc c27c bcbb b0de c5bb
00000250: e6f3 8ebb 50e3 97bc d770 6bbb 5037 8a3b
00000260: 90fc 7ebc 03f0 c83c 3015 84bc be58 3bbd
00000270: 6d64 7b3c d155 13bb 28e4 58bd d097 dd3c
00000280: ceaa 2ebd bccd 963c a9a1 3d3c d045 72bd
00000290: deba bb3d 79ee 8c3c 99cb a2bc 2852 1b3b
000002a0: 513d d73c b791 533d 5cc0 d1bc c45d 0abc
000002b0: be66 36bc dc82 9fbc f704 f8bb fd5c d6bc
000002c0: 90b5 f7bc 2490 693c 023f f73b 56a4 e13c
000002d0: f7ac c9bc 5470 b03d 6ac9 ccbc 0eb4 023d
000002e0: 6f59 7cbc b00e 123c 980a 06bd a397 3239
000002f0: 1c15 3abd 98ba 2e3d c68e 3c3a 2472 8c3b
00000300: e13a 10bb 2d4d 593d b5af 223b 91f7 42bc
00000310: e81b 7dbc 5aaa cfbc 01c1 96bc d0a6 693d
00000320: 2c9a f63c 0d65 313d b9f0 673a b8e0 6a3d
00000330: 9fa8 6cbc db61 46bd 3f85 45bd 93ba 413d
00000340: 6523 16bd ffc5 c13c 4edc e5bc 6375 bd3c
00000350: ba54 32bb 5b53 183b 61d9 c8b8 7bab 66bd
00000360: 5b97 36bd 664b ca3b 44b2 c039 c078 633b
00000370: 5f76 8bbc eeb3 d7bc 7043 b33b 702a 88b8
00000380: 3ea2 18bc 57f9 133d f96c b73d cd80 61bd
00000390: 3765 9f3d 9ca4 85bc 4222 44bc 5b74 003c
000003a0: 0286 09bb 1d86 013d 7d5e 693d 4754 9f3b
000003b0: d980 313d 9fc7 093d 0bd0 b7bc f2f6 59bc
000003c0: f737 3b3d 28da 3fbc a2b2 033b b622 7a3c
000003d0: 89ca b93c db5f beba b52a 97bd f687 3e3d
000003e0: afc5 b6bb ac04 75bd 66b3 afb7 2e34 923b
000003f0: 234a 5cbd 0026 74bb 60df 82bc 2076 d1bb
0.057064056 0.042081818 -0.050087336 0.018812649 -0.026020378 -0.042081095 -0.058115326 -0.0018612534
-0.029255198 -0.026181007 -0.008595974 -0.035852145 -0.0025704086 0.008125152 -0.026088916 -0.013263827
0.017606629 -0.044222064 -0.0010928597 -0.0026299972 0.0010718002 0.019021522 -0.026070025 -0.014781602
-0.049209252 -0.0035758452 0.02492868 -0.014525606 -0.0014607009 -0.030205453 -0.036327206 0.018926715
-0.061475232 -0.050912555 0.0345463 0.08472282 0.03827043 0.01423706 0.000105273895 0.00933222
-0.047059905 -0.025909843 -0.008722835 0.00329633 -0.0017792969 0.075155765 0.0011883015 0.00044800073
-0.022500547 0.09113028 -0.05279904 -0.031122418 0.0048043155 0.0051468317 0.08045177 0.029053109
-0.0011805515 -0.0025826953 -0.015494311 -0.0323731 0.009019744 0.010667669 -0.0015139444 0.023459304
-0.000950195 0.05386855 -0.015966624 -0.0062190066 0.018329836 -0.035349756 -0.00998184 -0.010789211
-0.048410702 0.09196084 -0.0008775052 -0.008561952 0.015538631 -0.015370198 -0.022630498 -0.0028697178
0.002707541 0.017311113 -0.048121557 0.00903301 -0.004373693 -0.032144565 -0.031200944 0.011900447
0.020249583 -0.04168165 0.023000583 0.0040904772 0.012417541 0.028041191 -0.008809597 0.04829413
0.09635966 -0.010903044 -0.021013182 0.028755812 0.053373322 0.0044114483 0.0019947025 0.017799547
-0.010364873 -0.047149025 -0.012455187 -0.049814735 0.027279068 -0.008319471 0.026685003 -0.04044681
0.022518974 -0.00013125257 -0.046066828 -0.0038033316 -0.006152455 -0.0415005 -0.020510994 -0.040542576
-0.0039854217 -0.025998075 0.017922742 0.03850652 -0.037450965 -0.033528224 0.025970886 0.05619216
-0.053528182 -0.01594338 0.021994798 -0.0028342693 -0.03470522 -0.009809959 -0.025871528 0.008102671
0.0333353 -0.01885995 -0.026225228 0.011216588 0.023576748 -0.03721253 -0.013847915 0.0401498
-0.0011824172 -0.031133154 -0.005752177 -0.0060385093 -0.004362571 -0.018541008 -0.0035925412 0.0042180195
-0.015563145 0.024528509 -0.016123384 -0.045738928 0.015343768 -0.002248157 -0.05295196 0.027049929
-0.04264336 0.018408649 0.011574187 -0.05914861 0.091665015 0.017203556 -0.019872474 0.0023700092
0.026274355 0.051652636 -0.02560442 -0.008445207 -0.011132894 -0.019471578 -0.007568951 -0.026167387
-0.030237943 0.014255557 0.007545353 0.027544182 -0.024618609 0.08615175 -0.024998385 0.031909995
-0.015402182 0.008914635 -0.032724947 0.00017031892 -0.045430288 0.04265842 0.0007192906 0.0042860676
-0.002200775 0.053052116 0.0024823968 -0.011899845 -0.015448548 -0.025349785 -0.018402578 0.05704385
0.030102812 0.04330926 0.0008847821 0.057343215 -0.014444499 -0.048433166 -0.048222777 0.04729707
-0.03665485 0.023653982 -0.028059151 0.023127263 -0.0027211145 0.0023243043 -9.577233e-05 -0.05631588
-0.044577938 0.006173539 0.00036753912 0.0034709424 -0.017024217 -0.026330914 0.0054706857 -6.49289e-05
-0.009316025 0.03612646 0.08956332 -0.055054475 0.07782977 -0.016313843 -0.011971058 0.007840241
-0.0020984416 0.03162204 0.056974877 0.0048623416 0.04333577 0.03363764 -0.02243807 -0.013303505
0.04570767 -0.011709727 0.0020095487 0.015267065 0.022679584 -0.0014524417 -0.073811926 0.04651638
-0.005577765 -0.05981891 -2.0945165e-05 0.0044617867 -0.05378164 -0.0037254095 -0.015975654 -0.0063922554
