models/GMI_pretrained/GMI_GPM_channel_predictor_166H_ocean.pt (torch, 544284 bytes, 7 tensors)

l1.weight f4 [256, 12]
0	0xbe3d5ba1	-0.18491985
1	0x3e97f66f	0.296802
2	0x3d8119e0	0.063037634
3	0x3e4d3c93	0.20042638
4	0xbd817a55	-0.06322161
5	0x3e86f016	0.26355046
6	0x3c0c286f	0.008554562
7	0xbda43429	-0.08017761
8	0x3e184dfe	0.14873502
9	0x3e7fd4bd	0.24983497
10	0xbe6ea4bb	-0.23305027
11	0xbe4b991d	-0.19882627
12	0x3e78237e	0.24232289
13	0xbe1fa22a	-0.15589204
14	0x3cceffaf	0.025268404
15	0xbdd37898	-0.10325736
16	0xbe61340d	-0.21992512
17	0x3e144bcf	0.14482044
18	0xbee55d16	-0.4479758
19	0xbbce606c	-0.0062981155
20	0xbd6b333c	-0.057421908
21	0x3bbbbc5a	0.0057292404
22	0x3e4efc3b	0.20213406
23	0x3da11f5a	0.07867308
24	0xbe94b734	-0.29046023
25	0x3e77b119	0.24188651
26	0x3c2ef4f5	0.0106785195
27	0xbca82716	-0.02052645
28	0x3e570c43	0.21000771
29	0xbdf818c1	-0.121140964
30	0x3d821419	0.063514896
31	0x3e4a433f	0.19752215
32	0xbe885a49	-0.26631382
33	0xbd24e865	-0.04026069
34	0x3ce531aa	0.027977783
35	0xbe375fff	-0.17907713
36	0xbe0e0fcc	-0.13873214
37	0x3de8abd7	0.11360901
38	0xbe84b290	-0.25917482
39	0xbe85d797	-0.26141044
40	0x3db5f232	0.08884086
41	0xbd709297	-0.05873355
42	0xbe0742e3	-0.13209109
43	0xbc821298	-0.015878007
44	0x3e1e3486	0.15449724
45	0x3e659b22	0.2242246
46	0x3de41730	0.11137235
47	0x3e8314a0	0.25601673
48	0x3e180190	0.14844346
49	0xbcf77187	-0.030205501
50	0x3e79d780	0.24398613
51	0xbea2ab1e	-0.31771177
52	0xbe60a57c	-0.21938127
53	0x3c5133d2	0.012768703
54	0xbe9c47f0	-0.30523634
55	0x3e3d1ea2	0.18468717
56	0x3e945d8b	0.28977618
57	0xbe08332c	-0.1330077
58	0xbe08c32d	-0.13355704
59	0x3dabcd96	0.08388822
60	0xbda27060	-0.0793159
61	0xbdc5befe	-0.096555695
62	0xbd052e8e	-0.0325151
63	0xbdda6b41	-0.10664988
64	0x3dbb1678	0.09135145
65	0x3e82fba0	0.255826
66	0xbe4de5c5	-0.20107181
67	0x3e57be99	0.21068801
68	0xbe5ccf03	-0.21563344
69	0xbe75c894	-0.24002296
70	0xbe0722df	-0.13196896
71	0xbda7f56c	-0.082011074
72	0x3de9b018	0.1141054
73	0xbe804e8a	-0.2505992
74	0xbe9318ba	-0.28729802
75	0xbc5f3436	-0.013623288
76	0xbc4f0b5a	-0.012636984
77	0xbe2272a1	-0.1586404
78	0xbe48f296	-0.19623789
79	0xbcd9cc72	-0.026586745
80	0xbc0ab2c1	-0.00846547
81	0xbdb68e08	-0.08913809
82	0x3e81e7bc	0.25372112
83	0xbe76c5d9	-0.2409891
84	0xbe9dd639	-0.308275
85	0xbdd9db03	-0.10637476
86	0x3dfa46f0	0.122205615
87	0xbe945697	-0.28972313
88	0x3e3b728a	0.18305412
89	0xba1ee167	-0.0006060809
90	0xbe896c00	-0.2684021
91	0xbd8b0b98	-0.06789321
92	0xbb913452	-0.004431286
93	0x3c5f53b9	0.013630801
94	0x3dcfadd3	0.10140576
95	0x3d9f515e	0.077791914
96	0x3e1084ee	0.14113209
97	0x3db433de	0.087989554
98	0x3d91985d	0.07109139
99	0xbda559c2	-0.080737606
100	0xbde237ee	-0.11045824
101	0xbdd0be94	-0.101926
102	0x3e69cbcd	0.2283165
103	0xbe1ecf53	-0.15508775
104	0xbe3ebac5	-0.18625934
105	0xbe0a309a	-0.13495103
106	0xbde12099	-0.10992546
107	0xbe28b234	-0.16474229
108	0xbde81632	-0.113323584
109	0xbdd88dee	-0.10573946
110	0xbd386665	-0.045019526
111	0xbe622dfd	-0.22087856
112	0xbe1c73fa	-0.15278617
113	0x3d90c1a0	0.07068181
114	0xbe5b823b	-0.21436398
115	0xbd7f77bf	-0.06237006
116	0xbe4383d0	-0.19093251
117	0xbdf544a5	-0.119759835
118	0x3dc1b58d	0.09458456
119	0xbe6d82be	-0.23194405
120	0xbdd2afef	-0.10287463
121	0xbe90128d	-0.28139153
122	0x3e8295b6	0.25504845
123	0xbe82f921	-0.25580695
124	0x3cf1bed3	0.029509937
125	0x3e86729b	0.26259312
126	0xbe3ea58c	-0.18617839
127	0xbb593407	-0.0033142583
128	0x3e3f0c51	0.18657042
129	0xbdfd7fd4	-0.12377897
130	0xbe73aee7	-0.23797189
131	0xbdb054ba	-0.0860991
132	0xbe3bbc42	-0.18333533
133	0xbd2858ac	-0.04110019
134	0x3e13d124	0.1443525
135	0x3e7548a2	0.23953488
136	0xbe11476f	-0.14187406
137	0xbe8eb138	-0.27869582
138	0xbdd25616	-0.10270326
139	0xbde36520	-0.111032724
140	0x3e0a79d4	0.13523036
141	0xbe83797b	-0.2567862
142	0xbca03868	-0.019558147
143	0xbc2be47b	-0.010491486
144	0xbe67317a	-0.22577468
145	0x39d4a653	0.00040559712
146	0x3d02ca1a	0.03193102
147	0xbe82b22f	-0.25526568
148	0xbdbc3ba1	-0.09191061
149	0x3dd14c77	0.10219663
150	0x3cc4e677	0.024035675
151	0x3e4e407f	0.20141791
152	0x3e31fa43	0.17380624
153	0xbdfa4828	-0.12220794
154	0xbe9581fc	-0.29200733
155	0x3e462955	0.19351704
156	0x3e2f4b5c	0.17118591
157	0x3ef09766	0.46990508
158	0xbd9f7bb0	-0.077872634
159	0x3c2fcd4d	0.0107301
160	0xbdb389fc	-0.08766553
161	0xbda7a189	-0.08185107
162	0xbee1dd0e	-0.44113964
163	0xbe189c08	-0.14903271
164	0xbe704c20	-0.2346654
165	0xbd70e934	-0.05881615
166	0xbda41f7d	-0.080138184
167	0x3e88dc57	0.26730606
168	0x3dfab9a9	0.12242443
169	0xbe9cf4e2	-0.3065558
170	0x3e529cc9	0.20567621
171	0xbd7f7ace	-0.062372975
172	0x3d422381	0.04739714
173	0xbcb7ded6	-0.022445124
174	0xbdbf0f31	-0.093290694
175	0x3e3c28ff	0.18375014
176	0xbe089ada	-0.13340321
177	0xbe316cd2	-0.17326668
178	0x3e1ae31e	0.15125701
179	0xbe8a7468	-0.27041936
180	0xbeb5eb5e	-0.35531133
181	0x3df9a8c2	0.12190391
182	0x3d848cc9	0.06472165
183	0x3daf923b	0.08572813
184	0x3dd8e4f4	0.10590544
185	0x3c36952a	0.011143962
186	0x3e10adb2	0.1412876
187	0xbe427f44	-0.1899386
188	0xbec41430	-0.38296652
189	0x3de6ab46	0.112631366
190	0xbd4414d0	-0.04787141
191	0x3d2b83eb	0.041873854
192	0x3dc5799c	0.09642336
193	0x3e179185	0.14801605
194	0xbe53ca32	-0.206826
195	0xbe715e15	-0.23571046
196	0x3e3aaca1	0.18229915
197	0xbe998d14	-0.29990447
198	0xbc33fcb3	-0.010985541
199	0xbded0e0f	-0.11574947
200	0x3e831d5e	0.25608343
201	0x3dc3b47f	0.09555911
202	0x3e2be141	0.16785146
203	0xbd8f44d1	-0.069955476
204	0xbe7156ec	-0.23568314
205	0x3e0354b3	0.12825279
206	0xbe88565a	-0.2662838
207	0xbe242b23	-0.1603208
208	0x3e80f233	0.25184783
209	0x3e48a910	0.19595742
210	0x3e52f6e2	0.20601991
211	0x3c2f0b69	0.010683873
212	0xbdd00e3e	-0.101589665
213	0x3e6019dd	0.21884866
214	0x3e7c6ad8	0.24650133
215	0xbc113720	-0.0088632405
216	0xbdd77c4d	-0.10521755
217	0xbd131205	-0.035905857
218	0x3db9621e	0.090519175
219	0xbe7d51e5	-0.24738272
220	0xbd836f57	-0.06417721
221	0xbdcadf05	-0.09905819
222	0x3d7fea76	0.06247946
223	0xbe8fb745	-0.2806951
224	0xbe873f17	-0.2641532
225	0xbe02458e	-0.12721846
226	0xbde9c084	-0.114136726
227	0x3dbe78e9	0.093004055
228	0x3e829d13	0.25510463
229	0x3e5d3326	0.21601543
230	0xbd815358	-0.06314725
231	0x3e37f5eb	0.17964904
232	0xbd628ccc	-0.055310056
233	0x3d86464d	0.065563776
234	0x3e22a5e2	0.15883592
235	0xbe4393e8	-0.1909939
236	0xbe83123f	-0.25599858
237	0x3d485698	0.048910707
238	0x3e6d3a2a	0.23166719
239	0x3e73fbd1	0.23826529
240	0xbe40ed77	-0.18840586
241	0xbccaaaee	-0.024739709
242	0xbde97166	-0.11398582
243	0xbe044a08	-0.12918866
244	0x3e627d82	0.2211819
245	0xbcc91b0b	-0.024549028
246	0xbe2f9856	-0.17147955
247	0xbe8c76b4	-0.27434313
248	0x3dbcd1c9	0.09219701
249	0x3c811b92	0.015760217
250	0x3dd26951	0.10273994
251	0xbb3152be	-0.0027057375
252	0xbd91ea1c	-0.07124731
253	0xbe8a2105	-0.26978317
254	0x3d4c3fb1	0.04986543
255	0x3db90722	0.090345636

l1.bias f4 [256]
0	0xbe83e008	-0.2575686
1	0xbe773fc6	-0.24145421
2	0x3d40b43c	0.047046885
3	0x3d15e9ad	0.036599804
4	0x3e5918d6	0.2120088
5	0xbdf726b7	-0.12067931
6	0xbe1497de	-0.14511058
7	0xbec326b0	-0.38115454
8	0xbe58addd	-0.21160074
9	0xbdda7ede	-0.10668729
10	0xbe1064a5	-0.14100893
11	0xbe2d1b65	-0.16904981
12	0xbe586f4d	-0.21136208
13	0xbe229e9f	-0.15880822
14	0x3e53eee5	0.206966
15	0x3dafa42c	0.08576235
16	0x3c44c1dc	0.01200911
17	0xbe8884f8	-0.26663947
18	0xbd94107d	-0.072297074
19	0xbe4229cd	-0.18961258
20	0x3e8d82ac	0.27638757
21	0xbe7ba268	-0.24573672
22	0xbe625d53	-0.22105913
23	0x3e4d3212	0.20038632
24	0x3e2b79dc	0.16745704
25	0x3e12b8e9	0.1432835
26	0xbde9567c	-0.11393449
27	0x3ed1ee62	0.41002184
28	0xbf0e8696	-0.5567411
29	0xbe394387	-0.18092166
30	0x3d56da6d	0.0524544
31	0xbe20bf81	-0.15698053
32	0x3cc92bfc	0.024557106
33	0xbe732138	-0.2374314
34	0x3e18e641	0.14931585
35	0x3c8f15ac	0.017466389
36	0x3e6da04d	0.23205681
37	0xbdce6b11	-0.10079015
38	0x3e12fa65	0.1435333
39	0x3e6d9ef8	0.23205173
40	0x3e491eb2	0.19640616
41	0xbcafb561	-0.021448793
42	0xbdc73a7d	-0.09727953
43	0xbe7241db	-0.23657934
44	0xbe865ccc	-0.26242673
45	0x3d764a1d	0.060129274
46	0xbe472a28	-0.19449675
47	0xbe3a15f4	-0.18172437
48	0xbe92b641	-0.28654674
49	0xbed0fdff	-0.40818784
50	0xbeb4a30e	-0.3528065
51	0xbf08383d	-0.5321081
52	0xbd149f0f	-0.036284503
53	0x3e829be9	0.25509575
54	0x3cefc690	0.029269487
55	0xbe815068	-0.25256658
56	0x3d849a89	0.06474788
57	0x3eac48a2	0.33649164
58	0x3f27c7da	0.65539324
59	0xbcc6bb75	-0.024259308
60	0xbf1b2f8d	-0.6061943
61	0x3eb86d6a	0.36020976
62	0x3c27fdb9	0.010253363
63	0xbebc3e20	-0.36766148
64	0xbd7adde9	-0.061246786
65	0x3ccf1f8f	0.025283603
66	0x3e2e3ad8	0.17014635
67	0xbcb05e98	-0.02152948
68	0xbdc39e82	-0.09551717
69	0xbec84e94	-0.3912245
70	0xbe15b408	-0.14619458
71	0x3d02f737	0.031974044
72	0xbe8823b1	-0.2658973
73	0x3d2ab90b	0.041680377
74	0xbc3532eb	-0.011059503
75	0xbe747985	-0.23874481
76	0x3e4d52aa	0.20051065
77	0x3d7fdbf0	0.062465608
78	0x3dd4a112	0.10382284
79	0xbd572f9f	-0.05253565
80	0xbdacdfc1	-0.08441115
81	0xbe72d300	-0.23713303
82	0xbe509201	-0.20368196
83	0xbce7fbe2	-0.02831835
84	0xbe75f42d	-0.24018927
85	0x3e4b7551	0.19868971
86	0xbde84b98	-0.11342543
87	0xbd68f708	-0.056876212
88	0xbf09de3b	-0.5385472
89	0xbe52fdc9	-0.20604624
90	0x3e8d9d82	0.2765923
91	0xbddd9dd2	-0.108211175
92	0xbd185cbf	-0.037197825
93	0x3e8e884a	0.27838355
94	0x3e878ed4	0.26476157
95	0x3e4e2e49	0.20134844
96	0x3e867b02	0.26265723
97	0xbdf0ea77	-0.117634706
98	0x3e8ba5d0	0.27274942
99	0x3e6e2358	0.2325567
100	0x3e1535ea	0.14571348
101	0xbec4c7b1	-0.38433602
102	0x3e838768	0.25689244
103	0xbe76b84c	-0.24093741
104	0xbe1edee7	-0.15514718
105	0xbdd1ec14	-0.102501065
106	0x3e0df6b0	0.13863635
107	0xbe5e779c	-0.21725315
108	0xbe3dd871	-0.18539597
109	0xbda53975	-0.080676
110	0xbe18c8d0	-0.14920354
111	0xbe90b885	-0.28265777
112	0x3e59f08a	0.21283165
113	0xbec911f6	-0.39271516
114	0xbe3d1c01	-0.18467714
115	0xbe3f090f	-0.186558
116	0xbc097524	-0.008389745
117	0x3a44561b	0.00074896374
118	0xbefd17bb	-0.49432167
119	0xbe0950c8	-0.13409722
120	0xbe9005be	-0.2812938
121	0x3e3b176e	0.18270656
122	0xbe7b0e3b	-0.24517147
123	0xbd721e76	-0.05911108
124	0x3e1aa8a2	0.15103391
125	0xbcf55216	-0.029946368
126	0x3e1995f3	0.14998607
127	0xbe89f95d	-0.26948062
128	0x3d757e16	0.059934698
129	0xbcd9fe90	-0.026610643
130	0x3dafdb0d	0.085867025
131	0xbe55d05d	-0.20880266
132	0xbeb6fda2	-0.3574038
133	0xbd9f8ab2	-0.07790126
134	0xbeb429db	-0.35188183
135	0xbef65a09	-0.48115566
136	0x3ea0b5bb	0.3138865
137	0xbec82e56	-0.39097852
138	0xbe391f03	-0.18078236
139	0xbdfec181	-0.12439252
140	0xbe487dc5	-0.19579227
141	0x3e14d37f	0.14533804
142	0xbdd4e55d	-0.1039531
143	0x3e56ee6c	0.20989388
144	0xbdf757b3	-0.12077274
145	0x3e076c60	0.13224936
146	0x3e015794	0.12631065
147	0xbdfcba78	-0.123402536
148	0x3df2163b	0.118206464
149	0xbdd7b2d8	-0.105321586
150	0x3de81a58	0.1133315
151	0xbe428844	-0.18997294
152	0xbdadb4d2	-0.08481754
153	0xbe48cc33	-0.19609146
154	0x3ed684c5	0.4189817
155	0x3e5c06fc	0.2148704
156	0xbe043616	-0.12911257
157	0xbdbc5a79	-0.09196944
158	0x3d83e984	0.06441024
159	0xbe8a3806	-0.26995867
160	0xbea6ee3d	-0.32603636
161	0xbcbc321b	-0.02297311
162	0xbef05ec2	-0.46947294
163	0xbe9c6b4a	-0.30550605
164	0xbe62427c	-0.22095674
165	0x3e01f45c	0.12690872
166	0xbba85a0b	-0.005137687
167	0x3ec8cf6e	0.39220756
168	0xbe21d54e	-0.15804026
169	0x3e69c7e5	0.2283016
170	0xbd99058e	-0.074717626
171	0xbd1fad5f	-0.0389837
172	0x3e42b097	0.19012676
173	0xbcdb6580	-0.026781797
174	0x3cb8670b	0.022510072
175	0x3e4d7f53	0.20068102
176	0x3e02dc5a	0.1277937
177	0x3d7a806d	0.061157633
178	0x3f127edf	0.5722484
179	0x3d6a0d47	0.05714157
180	0xbedb5202	-0.42836004
181	0xbe09c930	-0.13455653
182	0x3db1f2a6	0.0868886
183	0x3ec8a33b	0.39187035
184	0x3df6c361	0.12048984
185	0x3c27a475	0.010232081
186	0xbeacbfb9	-0.33740023
187	0x3e0a2b3c	0.13493055
188	0xbe362e2c	-0.1779105
189	0xbe0462e7	-0.12928353
190	0xbe2358d4	-0.15951854
191	0xbe7575e8	-0.23970759
192	0xbe6f1fea	-0.23352018
193	0xbe37f4f7	-0.1796454
194	0x3dd3e57c	0.10346505
195	0xbe51699b	-0.20450442
196	0x3d1c2552	0.03812153
197	0xbe3854df	-0.18001126
198	0x3e12b13e	0.14325425
199	0xbc58ff7f	-0.013244509
200	0xbda210f8	-0.07913393
201	0x3c91f95e	0.017819103
202	0x3d97f3be	0.07419537
203	0xbe733077	-0.23748957
204	0xbcd3179b	-0.025768092
205	0xbca2294a	-0.019795079
206	0x3de1dfde	0.110290274
207	0xbd0cd45a	-0.0343822
208	0x3e0c25c6	0.13686284
209	0x3e899fc1	0.26879695
210	0xbe9a9ced	-0.3019785
211	0xbdc892ef	-0.0979365
212	0xbeac6e4d	-0.33677903
213	0xbe7b133d	-0.24519058
214	0xbe816a52	-0.25276428
215	0x3ded675c	0.1159198
216	0xbe28021c	-0.16407055
217	0x3ed754b7	0.4205682
218	0x3ec3c483	0.38235864
219	0xbe90d8f2	-0.28290516
220	0x3c3a63d5	0.011376341
221	0xbe2b1d82	-0.16710475
222	0xbd83fca4	-0.06444672
223	0xbe99e3fa	-0.30056745
224	0x3e4a9782	0.19784358
225	0x3e8c09d9	0.27351263
226	0xbe73ba05	-0.2380143
227	0x3e82d379	0.25551966
228	0x3e62a130	0.221318
229	0xbb7cd5a5	-0.003857949
230	0xbe5031fc	-0.20331568
231	0xbe2f7fe8	-0.17138636
232	0x3edfa9de	0.43684286
233	0x3e3d32df	0.18476437
234	0xbe9644cb	-0.2934936
235	0x3dec393c	0.11534354
236	0xbe7cd109	-0.24689116
237	0xbe6b21d1	-0.22962119
238	0xbdf92254	-0.12164751
239	0xbe80e64b	-0.251757
240	0xbe07b0cc	-0.13251036
241	0xbf375cd6	-0.7162603
242	0xbe367bf7	-0.17820726
243	0x3e11692c	0.14200276
244	0x3c7ea123	0.015541348
245	0x3e0a6af7	0.13517366
246	0x3e0935af	0.13399385
247	0xbd0008e1	-0.031258468
248	0x3e821eae	0.25414032
249	0xbe0085e2	-0.12551072
250	0xbec5ad31	-0.38608697
251	0xbdc2c957	-0.09511059
252	0xbf191e87	-0.59812206
253	0x3f042a28	0.51626825
254	0xbe3c4b8f	-0.18388198
255	0xbec6645e	-0.3874845

l2.weight f4 [256, 256]
0	0x3ca060b8	0.01957737
1	0xbd71fddb	-0.059079986
2	0xbcfc83bb	-0.030824533
3	0xbd5c500d	-0.05378728
4	0x3b197cc3	0.002342031
5	0x3d7cba80	0.061701298
6	0xbce74834	-0.028232671
7	0x3d165918	0.03670606
8	0x3c1e21d0	0.009651616
9	0x3d7a669a	0.061133005
10	0xbd08f868	-0.033440024
11	0xbc9bdb70	-0.019025534
12	0x3d121b05	0.0356703
13	0x3d1ee7e6	0.038795374
14	0xbd086c8b	-0.03330664
15	0xbbce735e	-0.006300374
16	0x3cd65bd5	0.026166836
17	0xbd17f3b6	-0.037097655
18	0x3d42bab6	0.047541343
19	0xbc2456b5	-0.010030438
20	0xbc6ebc90	-0.014571324
21	0xbcc0b3dc	-0.023523264
22	0xbcc19345	-0.023629794
23	0xbc96508c	-0.018348955
24	0x3c9366f6	0.017993432
25	0x3d3452c6	0.04402425
26	0xbcfde2b7	-0.030991895
27	0x3d2f48b4	0.042793944
28	0xbd665244	-0.0562308
29	0xbb280fc0	-0.0025644153
30	0x3d23b33a	0.039965846
31	0xbd6b47fa	-0.05744169
32	0x3d2749a0	0.0408417
33	0xbd30d336	-0.043170176
34	0xbd2bc8a0	-0.041939378
35	0x3bd81be9	0.006595124
36	0x3d1fe542	0.039036997
37	0x39ed4700	0.00045257062
38	0xbb9caa50	-0.004781045
39	0x3cbcbed4	0.023040213
40	0xbd0ee7c8	-0.034889013
41	0x3d1b5544	0.037923113
42	0x3adb4747	0.0016729616
43	0xbc35cce0	-0.011096209
44	0x3b91a815	0.004445086
45	0xbc028ab8	-0.007967643
46	0xbd8a001a	-0.067383006
47	0x3d4de1e2	0.050264247
48	0xbcd80508	-0.026369587
49	0x3cc290f2	0.023750756
50	0x3c5fcecd	0.013660145
51	0x3d0fc073	0.035095643
52	0x3d10a200	0.035310745
53	0x3bcdd980	0.0062820315
54	0xbcf5ea44	-0.030018933
55	0x3d624e22	0.055250295
56	0x3cbdd228	0.0231715
57	0xbcece5ed	-0.02891823
58	0x3caebc64	0.021330066
59	0x3c1b9a58	0.009497248
60	0x3d432f82	0.04765273
61	0xbd13b273	-0.036058854
62	0xb8d578c3	-0.00010179125
63	0x3d603d14	0.05474575
64	0xbb586ee6	-0.0033025085
65	0x3a9d3980	0.0011995286
66	0xbd6cce81	-0.057814125
67	0x3ccf8244	0.02533067
68	0x3d11748c	0.03551154
69	0x3d3c4dbb	0.045972567
70	0x3d29694e	0.041360192
71	0xbc6367ae	-0.0138797
72	0xbba34f2a	-0.0049838023
73	0x3c44fb5e	0.012022821
74	0xbd1f2cd2	-0.038861103
75	0xbd22e898	-0.0397726
76	0xbd6820d6	-0.05667194
77	0x3c15137f	0.0090988865
78	0xbd63831a	-0.05554495
79	0xbd38f922	-0.045159467
80	0xbd0eb326	-0.034838818
81	0xbd343a72	-0.04400105
82	0x3d2eed40	0.042706728
83	0x3c02a3da	0.007973636
84	0xbcf57eef	-0.029967753
85	0x3d035f8f	0.032073554
86	0x3c0aea2c	0.0084786825
87	0x3d483478	0.048878163
88	0xbd5223fd	-0.051303852
89	0xbc9280d9	-0.017883705
90	0xbd5fbbc8	-0.05462244
91	0x3d5efceb	0.05444042
92	0xbd18ffcd	-0.037353326
93	0xbd6e9698	-0.058249086
94	0x3d1e8402	0.03870011
95	0x3c773601	0.015088559
96	0xba785300	-0.0009472817
97	0x3d6764b3	0.05649252
98	0x3cc71814	0.024303474
99	0x3cfb91c4	0.030709155
100	0x3d6624ab	0.056187313
101	0x3cc78cdc	0.02435916
102	0x3c1e0888	0.009645589
103	0x3c84d33d	0.016214008
104	0x3d05d4eb	0.032673758
105	0x3cee7439	0.029108154
106	0x3d6f3d6a	0.05840818
107	0xbba2e1d1	-0.004970767
108	0xbacc4000	-0.0015583038
109	0xbcd9ee93	-0.026603019
110	0xbc30e6aa	-0.010797182
111	0xbd0cdeab	-0.03439204
112	0xbcfc075c	-0.030765228
113	0xbb6cc653	-0.0036128953
114	0x3d07dbb6	0.033168517
115	0xbd3e4d14	-0.046460226
116	0xbccb326a	-0.024804313
117	0x3c90dc9f	0.017683325
118	0x3ca574fa	0.02019738
119	0x3d2816e5	0.04103746
120	0xbcf59150	-0.029976517
121	0x3bfd7da0	0.007735923
122	0xbc9a35d0	-0.018824488
123	0xbbcf864c	-0.006333148
124	0xbd02bb84	-0.03191711
125	0xbce70b1c	-0.02820354
126	0xbd1f4fd8	-0.038894504
127	0x3d31a2d2	0.04336817
128	0x3d261326	0.040545605
129	0x3d16069a	0.03662739
130	0xbd64af8a	-0.05583147
131	0x3d5f2e93	0.054487776
132	0x3cf7e036	0.03025828
133	0x3c096101	0.008384944
134	0x3c7a3a43	0.01527268
135	0xbc840c5d	-0.016119177
136	0x3be369c4	0.0069400985
137	0xbd18c08c	-0.037293002
138	0xba64c600	-0.0008727014
139	0xbcc71214	-0.024300613
140	0x3d1fc420	0.0390054
141	0x3cb8f24e	0.022576477
142	0xbac8f970	-0.0015333127
143	0x3b94af06	0.004537466
144	0xbc52edcd	-0.012874079
145	0xbc2e1c90	-0.010626927
146	0x3d03079e	0.031989686
147	0xbc86fe51	-0.01647869
148	0x3d322cca	0.043499745
149	0x3d1295e4	0.035787478
150	0xbc96fd3d	-0.0184313
151	0xbc453738	-0.012037091
152	0xbc282f08	-0.010265119
153	0x3d59345c	0.05302845
154	0xbd28c325	-0.04120173
155	0x3c829070	0.015938014
156	0x3d48bda0	0.049008965
157	0x3c3240e0	0.010879725
158	0x3d36c688	0.044622928
159	0xbd0f5a26	-0.03499808
160	0x3cb194b6	0.021677356
161	0xbd28a540	-0.04117322
162	0xbc809fb7	-0.015701158
163	0x3d2117ce	0.039329343
164	0xbd35c548	-0.044377595
165	0xbbd1b320	-0.006399527
166	0xbcd6e1b8	-0.026230678
167	0x3d153be1	0.036434058
168	0x3c0959bb	0.00838321
169	0xbd3f22a2	-0.046663888
170	0x3991a90d	0.00027782508
171	0xbc819794	-0.015819348
172	0x3d16a99e	0.036782853
173	0x3d2fcf2c	0.042922184
174	0x3d389443	0.04506327
175	0xbc9d504c	-0.019203328
176	0xbd0f0cfd	-0.034924496
177	0x3d40cb74	0.047069028
178	0xbd0b9d5c	-0.034085616
179	0xbcde4607	-0.027133001
180	0x3aca2088	0.0015421072
181	0xbc8651b8	-0.016396388
182	0xbc9f8390	-0.019471914
183	0xbcfbf4f7	-0.030756457
184	0xbd6aa5ed	-0.057287145
185	0x3cec3602	0.028834347
186	0xbd491069	-0.049087916
187	0x3d2ea006	0.04263308
188	0xbd759409	-0.05995563
189	0x3bd8d69f	0.0066173817
190	0xbd104495	-0.035221655
191	0x3d32d758	0.0436624
192	0x3d7100e0	0.058838725
193	0x3ba2c540	0.0049673617
194	0x3cf20344	0.029542573
195	0xbcc2a6e2	-0.023761217
196	0x3c1cd1f9	0.009571546
197	0xbbc45a40	-0.005992204
198	0xbd3d1f42	-0.046172388
199	0x3cb089a5	0.021550009
200	0x3c22d940	0.009939492
201	0xbd1b0fc8	-0.037856847
202	0x3d583f5a	0.05279479
203	0xbcfff454	-0.031244434
204	0x3b8f129f	0.0043662335
205	0x3d4034f2	0.046925493
206	0x3d18f83a	0.037346102
207	0x3a44d533	0.0007508576
208	0x3cbf66b8	0.02336441
209	0xbcfa1180	-0.030525923
210	0x3d26ba05	0.040704746
211	0xbc93ef0c	-0.018058322
212	0xbd65be4a	-0.056089677
213	0x3cbbb400	0.02291298
214	0xbd82b863	-0.06382825
215	0x3d2a4e48	0.04157856
216	0xbc27e3e6	-0.010247206
217	0xbd2efd02	-0.042721756
218	0xbd270919	-0.04078016
219	0xbbd911ba	-0.0066244276
220	0x3d7cf67c	0.061758503
221	0xbcd8d52d	-0.026468838
222	0x3d1e1822	0.038597234
223	0xbcd90a1c	-0.026494078
224	0xbc5a3ca8	-0.013320126
225	0xbc80e8f8	-0.015736088
226	0x3cc9b476	0.024622183
227	0xb80ea000	-3.400445e-05
228	0xbc82ae64	-0.015952297
229	0xbbbc237a	-0.005741534
230	0xbd7cdee5	-0.061736006
231	0xbc05d299	-0.008167886
232	0x3cc869b4	0.024464466
233	0xbd4b02fa	-0.049563386
234	0x3cd9d35b	0.02659004
235	0x3cb34346	0.021882664
236	0xbd023e74	-0.03179784
237	0xbc0e440c	-0.008683216
238	0xbd04b812	-0.032402106
239	0x3d5b57eb	0.053550642
240	0x3b9e76ad	0.0048359246
241	0x3d5d2b0f	0.053996142
242	0xbd0719bb	-0.032983523
243	0xbd6839ac	-0.056695625
244	0xbd7323c4	-0.05936028
245	0xbc99d2bd	-0.018777246
246	0xbc8c9649	-0.017161505
247	0x3d30779d	0.043082822
248	0x3ccce338	0.02501069
249	0x3aba0e40	0.0014194921
250	0xbd8843b1	-0.06653536
251	0x3d2b50cb	0.041825097
252	0x3cec0edd	0.028815681
253	0xbd40e2ec	-0.04709141
254	0x3d506482	0.0508771
255	0xbd12799a	-0.0357605

l2.bias f4 [256]
0	0x3c8b5f94	0.017013349
1	0xbc5ce298	-0.013481759
2	0xbcc90bb1	-0.024541708
3	0x3d4f2b6e	0.050578527
4	0xbd90bfa4	-0.070678025
5	0xbd831fc7	-0.064025454
6	0x3c6d5bff	0.014487266
7	0xbc9d8f62	-0.01923341
8	0xbd553874	-0.05205579
9	0xbd1c6877	-0.038185563
10	0x3cfe3bb3	0.031034326
11	0xbd4f91bd	-0.050676096
12	0xbc6cfad6	-0.014464101
13	0xbd90715c	-0.070528716
14	0x3cd587a8	0.026065663
15	0x3cbd7404	0.02312661
16	0x3d0fecb9	0.035137866
17	0xbc2d3454	-0.010571558
18	0xbd860cd8	-0.065454185
19	0xbe809d73	-0.25120124
20	0xbd3ed1df	-0.046586867
21	0x3d1aa843	0.037758123
22	0xbeb8c314	-0.36086333
23	0x3ccf59c8	0.025311366
24	0xbdcbf85b	-0.099594794
25	0xbc1af93c	-0.009458836
26	0xbc8a4500	-0.016878605
27	0xbdf7ba54	-0.12096086
28	0xbdac69d6	-0.08418624
29	0xbd87113b	-0.06595083
30	0x3d567516	0.052357756
31	0x3b928a50	0.0044720545
32	0xbcec778a	-0.028865594
33	0xbcbe84b3	-0.023256635
34	0x3d2e926c	0.042620108
35	0x3c9972ac	0.018731438
36	0xbdc3861b	-0.09547063
37	0xbe5496f0	-0.20760703
38	0xbc4a025f	-0.012329667
39	0xbda88421	-0.082283266
40	0xbd808dff	-0.062770836
41	0xbd2dc2e3	-0.042422187
42	0xbe02e6ac	-0.12783307
43	0xbc8ad551	-0.01694742
44	0xbdc0b23f	-0.09408998
45	0xbdc9b26d	-0.09848485
46	0xbbe2aed0	-0.006917812
47	0xbd8ffabd	-0.070302464
48	0x3caafa07	0.020871175
49	0x3cac028b	0.020997306
50	0xbd75e1a6	-0.06002965
51	0xbd07fb67	-0.03319874
52	0xbda3397f	-0.07969951
53	0xbd889d89	-0.066706724
54	0xbd357493	-0.044300627
55	0x3d08856a	0.03333036
56	0xbc700c9f	-0.014651447
57	0x3c6324ca	0.013863752
58	0x3c6ca326	0.0144431945
59	0xbd499bbe	-0.049220793
60	0xbd0e68c0	-0.034767866
61	0xbc9addcb	-0.018904587
62	0xbd4180bc	-0.04724191
63	0x3d6b3186	0.057420276
64	0x3d718016	0.058960043
65	0xbc48d527	-0.012257851
66	0x3c9d83c0	0.019227862
67	0xbcd74c27	-0.02628143
68	0xbd075e10	-0.03304869
69	0xbd38414f	-0.044984158
70	0xbc6dbff8	-0.014511101
71	0x3caab25d	0.020837003
72	0x3d04c0d3	0.032410454
73	0xbd282207	-0.041048076
74	0xbe086183	-0.13318448
75	0x3d5c59d7	0.053796615
76	0x3d5168d9	0.05112538
77	0xbd0db4a0	-0.034596086
78	0x3cc23691	0.02370766
79	0xbdfaba41	-0.12242556
80	0xbaae4124	-0.001329456
81	0xbd0d0baa	-0.03443495
82	0xbd661ff4	-0.056182817
83	0xbde0962b	-0.10966142
84	0x3ca4ef6f	0.020133702
85	0xbb2286a3	-0.0024799488
86	0xbccf4cb3	-0.025305128
87	0x3c988dc4	0.018622287
88	0x3d0e613a	0.03476069
89	0xbc0cd5eb	-0.008595924
90	0xbd4b378a	-0.049613513
91	0xbc5e6469	-0.013573744
92	0x3d5fcdd2	0.054639645
93	0x3cf268bb	0.029590955
94	0xbe17b692	-0.14815739
95	0xbc9068d4	-0.017628111
96	0x3c006240	0.007835925
97	0xbd435f46	-0.04769828
98	0xbdf4acff	-0.11947059
99	0xbda4f662	-0.08054806
100	0xbe03f573	-0.128866
101	0x39c63f50	0.00037812674
102	0xbd5a1b8f	-0.05324894
103	0x3d7f35f0	0.0623073
104	0x3cafc39a	0.021455575
105	0x3d499c32	0.049221225
106	0xbcd64d0f	-0.026159791
107	0xbcefee69	-0.029288488
108	0x3c295a25	0.010336434
109	0xbc8745b4	-0.01651273
110	0xbc61bea5	-0.013778363
111	0xbdc395ae	-0.095500335
112	0x3c323800	0.010877609
113	0xbd73729a	-0.059435464
114	0xbd157b18	-0.036494344
115	0xbd0d4ae5	-0.034495253
116	0x3d246dfd	0.040143955
117	0xbdcc3b81	-0.09972287
118	0x3d22cffb	0.039749127
119	0x3b8ecab4	0.00435766
120	0xbd25060e	-0.040288977
121	0xbd839a70	-0.06425941
122	0xbd8992bb	-0.0671744
123	0xbd480cb9	-0.04884026
124	0xbc71ec8b	-0.014765869
125	0xbb901615	-0.0043971636
126	0xbec708ad	-0.38873807
127	0xbc140be9	-0.009036043
128	0xbd93ef00	-0.0722332
129	0xbc752b6c	-0.014963966
130	0x3c86601a	0.016403247
131	0xbda2871a	-0.07935925
132	0x3d3d8898	0.046272844
133	0xbd63b807	-0.055595424
134	0xbd787bb4	-0.060664847
135	0xbc9da2ec	-0.019242726
136	0xbe1cb746	-0.15304288
137	0xbda043b9	-0.07825417
138	0xbe02eaa4	-0.12784821
139	0x3c14bd90	0.009078398
140	0x3d0c73de	0.034290187
141	0xbd45026d	-0.048098017
142	0xbdfb6c7e	-0.122765526
143	0xbd01b2f1	-0.031664792
144	0xbd6d9fef	-0.058013853
145	0x3d3909ca	0.04517535
146	0xbd01372b	-0.031546753
147	0x3d4785e2	0.048711665
148	0x3b3cf304	0.0028831372
149	0xbd29c8c2	-0.041451223
150	0xbdb2d9d9	-0.087329574
151	0x3c891014	0.0167313
152	0x3d01223e	0.031526797
153	0x3bac8be5	0.0052657
154	0xbd113811	-0.03545386
155	0xbce69ca4	-0.028150864
156	0xbb495836	-0.0030722744
157	0xbd76f734	-0.060294345
158	0xbc7eba04	-0.015547279
159	0xbd050a45	-0.032480497
160	0xbd5cb8f9	-0.05388734
161	0x3c5122df	0.012764662
162	0xbd3dfa1c	-0.0463811
163	0xbdce52f3	-0.10074415
164	0xbd823152	-0.06357063
165	0xbc97eb48	-0.018544808
166	0x3d200d75	0.039075334
167	0xbdd60564	-0.10450247
168	0xbd70ecfa	-0.05881975
169	0x3ca19c50	0.019727856
170	0x3d350fd8	0.044204563
171	0x3d3b3cad	0.04571216
172	0xbca4adbf	-0.02010238
173	0xbd6fc1e2	-0.05853451
174	0xbc64a7a8	-0.013955988
175	0x3d4f34f3	0.050587606
176	0xbba31ab6	-0.0049775494
177	0xbda13bbe	-0.07872723
178	0xbd7e0c03	-0.062023174
179	0x3c6c8fda	0.014438594
180	0xbcf7dc81	-0.030256512
181	0x3d124374	0.03570886
182	0xbd6604e1	-0.056156997
183	0x3d22a047	0.039703634
184	0xbd09a02c	-0.033600017
185	0x3d224703	0.039618503
186	0xbdab7d58	-0.08373517
187	0x3d236463	0.039890658
188	0xbcb39ffa	-0.021926869
189	0x3c0d790d	0.008634818
190	0x3d2b405a	0.041809417
191	0x3cee3acf	0.029080776
192	0x3cb77277	0.022393448
193	0x3d28e7e7	0.041236784
194	0xbd811aa5	-0.0630391
195	0xbcfce98d	-0.030873084
196	0xbd87c30b	-0.06628998
197	0x3d04323d	0.032274473
198	0xbcfcf317	-0.030877633
199	0x3cbf344a	0.023340363
200	0xb905cdc7	-0.00012760526
201	0xbc3192a0	-0.010838181
202	0xbd6cad99	-0.057782743
203	0xbdfc0b95	-0.123068966
204	0x3c209100	0.009800196
205	0xbd0ea9cc	-0.0348299
206	0xbd966164	-0.073427945
207	0xbda26010	-0.07928479
208	0xbc01f66c	-0.007932287
209	0xbb394c20	-0.0028274134
210	0xbddf777f	-0.10911464
211	0x3c475af2	0.012167679
212	0x3cf2223c	0.02955734
213	0xbcdffc24	-0.02734191
214	0xbc4d1fa6	-0.012519753
215	0xbd5b5282	-0.053545482
216	0xbd5bf45d	-0.05369984
217	0xbcf0277f	-0.029315708
218	0xbd4417c0	-0.047874212
219	0xbc9e0e65	-0.019293973
220	0xbd234aa3	-0.0398661
221	0xbc6c9eab	-0.014442126
222	0xbd1b7424	-0.037952557
223	0xbc80146b	-0.015634736
224	0xbd2910eb	-0.0412759
225	0xbbbcc5a0	-0.0057608634
226	0xbe1b58bd	-0.1517057
227	0xbc0156c8	-0.007894225
228	0x3d31cf08	0.04341033
229	0xbd7d9d3f	-0.06191754
230	0xbca3e28c	-0.020005487
231	0xbbff23dd	-0.0077862577
232	0x3d5c84d7	0.053837623
233	0xbc48b779	-0.012250775
234	0x3d2025c8	0.03909853
235	0xbd9bf13a	-0.0761437
236	0xbd6a4538	-0.05719492
237	0xbd3d399e	-0.046197526
238	0x3cc57967	0.02410574
239	0xbd0a4cac	-0.033764526
240	0x3d019f90	0.03164631
241	0xbd0f1751	-0.034934346
242	0xbd5e3bb5	-0.05425616
243	0x3d086fa0	0.03330958
244	0xbca348a3	-0.019932097
245	0xbd08ce60	-0.03339994
246	0x3a09d746	0.00052582135
247	0xbd7976b3	-0.060904216
248	0xbd8f1044	-0.06985524
249	0x3d3e4f11	0.046462122
250	0x3c5fab8b	0.013651739
251	0xbd596b84	-0.05308105
252	0x3d05e57e	0.032689564
253	0x3d1d7879	0.03844497
254	0xbc42008d	-0.011840952
255	0xbc940296	-0.01806764

l3.weight f4 [256, 256]
0	0x3d2c1b8a	0.04201845
1	0xbc4d5e00	-0.012534618
2	0xbd675c12	-0.05648429
3	0x3d5e8f5c	0.054335937
4	0xbbf44470	-0.0074544474
5	0x3d438e6a	0.04774324
6	0x3d0e87ec	0.034797594
7	0xba91d7a2	-0.0011126886
8	0xbce60e10	-0.028082877
9	0xbd6ff901	-0.058587078
10	0x3d1cf024	0.038314953
11	0xbd3a5f94	-0.045501307
12	0xbc5783c8	-0.013153978
13	0xbd6abf10	-0.057311118
14	0xbd3ce31a	-0.04611502
15	0x3d4f1ab4	0.050562575
16	0xbd1ad6f0	-0.037802637
17	0xbcfead14	-0.03108839
18	0xbd70107a	-0.058609463
19	0xbc831c41	-0.016004683
20	0x3c7832a0	0.015148789
21	0xbd3f41da	-0.04669366
22	0x3d434cf8	0.047680825
23	0x3818f000	3.646314e-05
24	0x3d7c11a0	0.061540246
25	0xbd3083da	-0.043094493
26	0x3b292660	0.0025810227
27	0xbae6ff37	-0.0017623667
28	0x3bfbb560	0.0076815337
29	0xbd4bbce2	-0.04974068
30	0xbd74fec8	-0.05981329
31	0xbd3784c0	-0.044804335
32	0xbd0f81ec	-0.035036013
33	0xbd51522e	-0.051103763
34	0xbc85a1e8	-0.016312554
35	0xbd5a9b58	-0.053370804
36	0x3d264893	0.040596556
37	0x3d5377da	0.05162797
38	0x3d3949e2	0.045236476
39	0x3d00c922	0.031441815
40	0x3d1db478	0.038502187
41	0x3d180428	0.03711334
42	0xbd46f953	-0.048577618
43	0x3ca90b60	0.020635307
44	0xbd60b6b4	-0.05486174
45	0x3c721515	0.014775534
46	0x3d0f9b9c	0.03506051
47	0x3cea19c4	0.02857674
48	0xbd647ede	-0.055785052
49	0x3d1660a4	0.036713257
50	0xbbc68e4d	-0.006059444
51	0xbc50b3f0	-0.012738213
52	0xbd021085	-0.031754036
53	0xbd3d24d8	-0.046177715
54	0xbd59fcf4	-0.05321975
55	0x3d67cd4c	0.05659227
56	0x3d6d2d5e	0.057904594
57	0x3d69c808	0.05707553
58	0x3b9ef650	0.00485114
59	0x3bde2ae0	0.0067800134
60	0xbc436e60	-0.011928171
61	0xbd7681e2	-0.06018246
62	0xbbbfb9d0	-0.005851008
63	0x3d234802	0.039863594
64	0x3d703488	0.058643848
65	0x3ce60484	0.028078325
66	0x3d06aeea	0.032881655
67	0xbc6435ee	-0.013928873
68	0xbd1f39d4	-0.03887351
69	0xbc5b6b60	-0.013392299
70	0x3bdad790	0.006678529
71	0x3d428838	0.04749319
72	0xbcb5e1b4	-0.02220235
73	0x3ce3d5bc	0.027811877
74	0xbd5cbe8b	-0.053892653
75	0xbd2e25b8	-0.04251644
76	0x3d47b884	0.048759952
77	0xbcf441d8	-0.029816553
78	0xbd0d4716	-0.03449162
79	0xbba96dca	-0.0051705586
80	0xbd0edfc0	-0.034881353
81	0xbd7ae1ed	-0.061250616
82	0x3c0bd188	0.008533843
83	0x3d69b557	0.057057705
84	0xbd31df6c	-0.043425962
85	0xbab67ec0	-0.0013923272
86	0x3cf43f8c	0.029815458
87	0x3cfde7b8	0.030994281
88	0xbcd56e48	-0.026053563
89	0x3d372d2e	0.04472082
90	0xbd33e302	-0.043917663
91	0x3d790d6c	0.060803816
92	0x3cb9fcec	0.02270361
93	0xbd238b48	-0.03992775
94	0x3d1d681c	0.038429365
95	0x3b9b1330	0.004732512
96	0x3d3646d6	0.04450115
97	0xbce6027c	-0.028077357
98	0x3d41ecde	0.047345035
99	0xbbaa4c80	-0.005197108
100	0x3d5dc1d5	0.05413993
101	0xbcfbbc74	-0.03072951
102	0xbbaf9b10	-0.005359061
103	0x3d285ac6	0.041102193
104	0xbc54a4f8	-0.012978785
105	0xbcda0d8c	-0.026617788
106	0xbd7a2f4a	-0.061080255
107	0x3cf540fc	0.029938214
108	0x3cae6cf8	0.021292195
109	0x3ccf610c	0.02531483
110	0x3a19b000	0.0005862713
111	0x3c473568	0.012158729
112	0x3b6a2900	0.0035730004
113	0xbc694388	-0.014237292
114	0xbcf2d464	-0.029642291
115	0xbd392544	-0.045201555
116	0xbd7aa2b8	-0.061190337
117	0xbb3a1a02	-0.002839685
118	0xbca38f18	-0.019965693
119	0x3bd1dca0	0.0064044744
120	0xbccea9a0	-0.025227368
121	0xbc82a120	-0.015945971
122	0xbba538a0	-0.0050421506
123	0x3c406fe1	0.011745424
124	0xbd137268	-0.03599778
125	0x3d5282d4	0.0513943
126	0x3d592b5a	0.05301986
127	0xbc88b178	-0.016686186
128	0x3c23fc29	0.01000885
129	0xbc20de48	-0.009818621
130	0x3b2a7300	0.0026008487
131	0x3c9d2380	0.019181967
132	0xbd23ede2	-0.040021785
133	0xbd3b4ac8	-0.045725614
134	0x3cbcec3c	0.023061864
135	0x3d5a86de	0.053351276
136	0xbd530a72	-0.051523633
137	0x3d366f16	0.044539534
138	0x3c4979a2	0.012297066
139	0x3c810850	0.015751034
140	0x3d1e7fca	0.038696088
141	0x3d6239ac	0.05523078
142	0xbd12f80a	-0.03588108
143	0xbd6de786	-0.058082126
144	0xbac31dc0	-0.0014886186
145	0x3d2190ac	0.03944461
146	0xbd27453e	-0.04083752
147	0xb8e1b400	-0.00010762364
148	0xbc499a98	-0.012304924
149	0x3cc64ec4	0.02420748
150	0xbcb7814d	-0.022400523
151	0xbd08a950	-0.033364594
152	0xbbb87700	-0.0056294203
153	0xbd58f060	-0.052963614
154	0x3d1b1310	0.037859976
155	0xbd36c4da	-0.044621326
156	0xbcf0c0b0	-0.029388756
157	0xbca60084	-0.020263918
158	0xbd54345b	-0.051807743
159	0xbd009fde	-0.03140246
160	0x3d54e7e8	0.051978976
161	0x3d060110	0.032715857
162	0xbc2e3b10	-0.010634199
163	0x3d62eb17	0.05539998
164	0xbd210e06	-0.039320014
165	0xbd48d4b6	-0.049030982
166	0x3d0636a0	0.03276694
167	0x3ccbb7f4	0.02486799
168	0x3d3ac0e6	0.04559412
169	0xbd12bc62	-0.035824187
170	0xbb03c180	-0.0020104349
171	0xbc4dcff9	-0.012561792
172	0xbcf20dd4	-0.02954761
173	0xbbae0af0	-0.0053113624
174	0x3d387d7a	0.04504154
175	0xbd0a8b16	-0.03382405
176	0xbca0036c	-0.019532882
177	0x3d14ba14	0.03631027
178	0xbcd07470	-0.025446147
179	0x3d255c76	0.04037138
180	0x3d1a227c	0.037630543
181	0x39711400	0.00022991002
182	0x3d52a242	0.051424272
183	0xbd7d3d00	-0.061825752
184	0x3d3f7500	0.04674244
185	0xbbd01040	-0.0063495934
186	0xbd28de26	-0.041227482
187	0xbc9c0254	-0.019044079
188	0xb9192400	-0.00014604628
189	0xbd0e1790	-0.03469044
190	0xbd3750fe	-0.044754975
191	0xbd4a7f5e	-0.049437873
192	0x3c8b21bc	0.01698386
193	0x3cf5cef4	0.03000591
194	0x3c82c6b7	0.015963895
195	0xbd0ec348	-0.034854203
196	0x3d7dceca	0.061964788
197	0xbc42e7a0	-0.011896044
198	0xbb4b5140	-0.003102377
199	0xbc0fa030	-0.008766219
200	0xbd5c9dda	-0.053861476
201	0x3b23ed80	0.0025013387
202	0x3d21061c	0.039312467
203	0x3cfaa994	0.03059844
204	0xbd58017e	-0.052735798
205	0xbcfbbfd8	-0.030731127
206	0xbbf33b20	-0.0074228197
207	0xbcd1e48c	-0.025621675
208	0xbc497c18	-0.012297653
209	0xbb912ed0	-0.0044306293
210	0x3c81d3f8	0.015848145
211	0x3d4ed480	0.050495625
212	0x3d53a0c2	0.051666982
213	0x3b680160	0.003540121
214	0xbc49b3b8	-0.012310915
215	0xbcceb3e4	-0.025232263
216	0xbd56424e	-0.052309327
217	0x3d4836d8	0.048880428
218	0xbcfab4d0	-0.030603796
219	0xbbc9ee50	-0.0061624423
220	0xbc8a4b08	-0.01688148
221	0xbd7ece80	-0.062208652
222	0x3d319118	0.043351263
223	0xbd4301d8	-0.04760918
224	0xbd574144	-0.052552477
225	0x3adb2640	0.0016719773
226	0xbc296bb7	-0.010340623
227	0xbd2a9b6e	-0.041652136
228	0xbd7b043c	-0.061283335
229	0xbae45d00	-0.0017422736
230	0xbcae5750	-0.021281868
231	0xbb029500	-0.0019925237
232	0xbd31e05e	-0.043426864
233	0xbd3592b6	-0.044329368
234	0x3d0704b4	0.03296347
235	0xbd379d82	-0.044827946
236	0xba048b80	-0.00050561875
237	0x3cda228c	0.026627801
238	0x3bf535b0	0.0074832067
239	0xbc2d8948	-0.010591812
240	0x3d4da37a	0.05020473
241	0x3d2b9f50	0.04189998
242	0x3d45bea0	0.048277497
243	0x3d1bd76a	0.03804723
244	0xbbda41a0	-0.006660655
245	0x3ce944e0	0.028475225
246	0x3cf3aa48	0.029744282
247	0xbd336886	-0.043800853
248	0x3d60f3d8	0.054920048
249	0x3d7bf652	0.061514206
250	0xbd56fd4c	-0.052487656
251	0xbc5434d0	-0.012952045
252	0x3d09b8aa	0.033623375
253	0x3ce19b5c	0.027539901
254	0xbd082eb8	-0.03324768
255	0x3d6e7294	0.05821474

l3.bias f4 [256]
0	0x3d490950	0.049081147
1	0xbc05026c	-0.008118253
2	0x3d088960	0.033334136
3	0xbd2e47dd	-0.042549003
4	0xbcb2e78f	-0.021838931
5	0xbd6bc783	-0.057563316
6	0xbd5d8b61	-0.054088
7	0xbd582cd6	-0.052777134
8	0x3be68734	0.0070351604
9	0xbaa594ac	-0.0012632809
10	0x3c173257	0.009228311
11	0xbcd93497	-0.026514335
12	0xbdb5e23c	-0.088810414
13	0x3c4aec6d	0.01238547
14	0x3c2e7d56	0.01065
15	0xbd85478e	-0.065077886
16	0x3d2a5b42	0.041590936
17	0x3d3a76a1	0.04552329
18	0x3bffd653	0.007807532
19	0xbd963107	-0.0733357
20	0xbd599346	-0.053118967
21	0xbba9d791	-0.005183168
22	0xbd9bf73d	-0.07615516
23	0xbd55e470	-0.052219808
24	0xbd6a8840	-0.057258844
25	0x3c47b35a	0.012188757
26	0x3d40cbc1	0.047069315
27	0x3af89b04	0.0018967097
28	0x3cd6febf	0.02624452
29	0xbd71fa0d	-0.059076358
30	0x3c5033b3	0.012707639
31	0x3b3bf4f2	0.0028679934
32	0xbb909a44	-0.004412921
33	0x3cf7eb9c	0.030263714
34	0x3d17eeb5	0.037092883
35	0xbca9046f	-0.020631997
36	0xbc94531d	-0.018106038
37	0x3cf57cbc	0.029966705
38	0x3d589afa	0.052882172
39	0x3d3dd8c6	0.04634931
40	0xbd3ba6a2	-0.04581321
41	0xbd157b68	-0.036494642
42	0xbc69af33	-0.014262962
43	0xbd9c9777	-0.07646077
44	0x3c956def	0.018240897
45	0xbcc63474	-0.024194933
46	0x3c6a0d8f	0.014285459
47	0x3bec9006	0.0072193174
48	0x3c0524a7	0.008126414
49	0xbd193deb	-0.037412565
50	0xbd348fb0	-0.044082344
51	0x3c5a5707	0.013326413
52	0x3bc1af90	0.0059108213
53	0x3cf4852c	0.029848658
54	0xbd94fcb4	-0.07274762
55	0xbc5c5590	-0.013448134
56	0xbd91676a	-0.07099803
57	0xbdaad8b3	-0.08342113
58	0xbd362948	-0.044472963
59	0x3c02ae21	0.007976086
60	0x3cb85a36	0.022503953
61	0xba187264	-0.00058153854
62	0x3d4e98e9	0.050438795
63	0x3bd02433	0.0063519715
64	0x3c50ffe6	0.012756323
65	0x3d3d02fb	0.04614542
66	0x3d1f076a	0.03882543
67	0xbc82b194	-0.015953816
68	0x3d666de1	0.056257132
69	0xbca7e563	-0.020495122
70	0xbd35d021	-0.04438794
71	0x3d12127d	0.035662163
72	0xbc9f33a6	-0.019433808
73	0xbc9d8726	-0.019229483
74	0x3b15f80d	0.0022883445
75	0xb9ee738f	-0.00045480995
76	0x3d33bc5e	0.043880813
77	0x3d39434f	0.045230206
78	0xbbc9de5f	-0.006160542
79	0xbd213206	-0.039354347
80	0x3d3ff5d4	0.0468653
81	0xbb2436e9	-0.0025057143
82	0xbd956cac	-0.07296118
83	0xbd965d95	-0.07342068
84	0xbd274eaf	-0.040846523
85	0x3bc2d3b0	0.0059456453
86	0xba21d900	-0.0006173998
87	0xbdaf3d75	-0.08556644
88	0xbd042d96	-0.032270037
89	0xbd2cdd2a	-0.042203106
90	0xbb41fb15	-0.002959912
91	0xbd6da316	-0.05801686
92	0xbc7c33d8	-0.01539322
93	0xbd953af7	-0.07286637
94	0xbd6474b2	-0.05577535
95	0x3cd03d48	0.025419846
96	0xbd1f9a62	-0.03896559
97	0xbc50fc34	-0.012755442
98	0x3c852a33	0.016255474
99	0xbb0b5cf4	-0.0021265121
100	0x3d4db47c	0.05022095
101	0x3d2cb4e8	0.042164713
102	0xbcbed38c	-0.023294233
103	0xbd6365c6	-0.05551698
104	0x3c747ab1	0.01492183
105	0xbce222f7	-0.027604563
106	0x3b740d0a	0.0037239217
107	0xbd83ddbf	-0.06438779
108	0x3d371c4f	0.04470473
109	0x3d1f9f51	0.038970295
110	0xbccbfedb	-0.024901798
111	0xbcc3cb8b	-0.023900768
112	0xbdb217ba	-0.08695932
113	0xbd2fadd1	-0.042890374
114	0xbd148e59	-0.036268566
115	0xbd900f01	-0.07034112
116	0xbcd5882d	-0.02606591
117	0xbd587440	-0.05284524
118	0xbd462dc9	-0.048383508
119	0x3ca49334	0.020089723
120	0x3c18fb08	0.009337194
121	0xbda6fcbe	-0.081536755
122	0xbd180c49	-0.03712109
123	0xbc9b442e	-0.018953409
124	0xbce36ff3	-0.027763342
125	0x3c749014	0.014926929
126	0x3d59d95c	0.053185806
127	0x3c35db57	0.011099658
128	0xbd225e9a	-0.039641
129	0xbd579190	-0.052629054
130	0x3d002344	0.031283632
131	0x3bc3a122	0.0059701363
132	0xbd2879a3	-0.041131627
133	0x3ca2f47c	0.01989197
134	0xbd4508c9	-0.04810408
135	0xbca46443	-0.02006734
136	0x3d601974	0.054711774
137	0x3c9dd0d4	0.019264616
138	0xbcc22940	-0.02370131
139	0x3d57336d	0.052539278
140	0x3c326a84	0.010889653
141	0xbb47319e	-0.0030394564
142	0x3dad4f26	0.08462362
143	0xbd5a1808	-0.053245574
144	0xbd2eb2d4	-0.042651013
145	0x3b98f6e0	0.0046681017
146	0x3d1e3d00	0.038632393
147	0x3cf67837	0.03008662
148	0xbd111fd6	-0.03543075
149	0xbc9dd3a1	-0.019265952
150	0x3d1563cd	0.03647213
151	0xbcaa10cc	-0.020759962
152	0xbd8f46fb	-0.0699596
153	0xbc617573	-0.013760912
154	0xbdc44517	-0.0958349
155	0x3e2bc259	0.16773356
156	0x3d1f1741	0.038840536
157	0x3a3250ba	0.00068021903
158	0xbd64b066	-0.05583229
159	0xbd26c7a5	-0.04071774
160	0xbdac965f	-0.084271185
161	0x3d1e2a40	0.03861451
162	0xbd793ac7	-0.06084707
163	0xbc6446d8	-0.013932906
164	0xbd46e3b0	-0.048556983
165	0xbd966891	-0.07344163
166	0x3cfd4053	0.030914461
167	0x3d40c908	0.04706672
168	0x3d2b6457	0.04184374
169	0x3d11a9a1	0.03556216
170	0x3d31ed7d	0.043439377
171	0x3cffe00d	0.031234765
172	0x3cb4fd00	0.022093296
173	0xbcc6c65b	-0.024264505
174	0xbd497d01	-0.04919148
175	0xbd2c049c	-0.041996583
176	0x3c822ea1	0.015891375
177	0xbe170ae5	-0.1475025
178	0x3d2803bf	0.041019198
179	0x3c5093fb	0.012730594
180	0xbce1e973	-0.027577138
181	0xbc8cde9a	-0.017195988
182	0xbd6b256c	-0.057408735
183	0x3b61d6c6	0.003446029
184	0x3a7ddf1b	0.00096844294
185	0xbd5ced42	-0.053937204
186	0xbba131fe	-0.0049192896
187	0x3d0ea000	0.034820557
188	0xbd32ebec	-0.043682024
189	0xbd1e15bf	-0.038594957
190	0xbcdc7d01	-0.026915075
191	0x3d0ce74d	0.034400273
192	0x3cc508db	0.024052074
193	0xbd8b4ce9	-0.06801779
194	0xbd1eb623	-0.038747918
195	0xbd504120	-0.050843358
196	0xbdae42fa	-0.085088685
197	0xbd79d071	-0.0609898
198	0xbd8ba712	-0.068189755
199	0x3d35eb31	0.04441375
200	0xbd23f07e	-0.040024273
201	0xbd719be5	-0.058986563
202	0x3cf277bc	0.02959811
203	0xbca1b2d8	-0.0197386
204	0xbd1914e6	-0.037373446
205	0xbd6a083d	-0.057136763
206	0xbd21ca27	-0.039499428
207	0x3d2f6a4f	0.042825993
208	0xbd5ea132	-0.054352947
209	0xbc274025	-0.010208164
210	0xbd0099f0	-0.031396806
211	0x3d235c41	0.039882902
212	0xbd9a7313	-0.0754148
213	0xbdaa3a7a	-0.08311935
214	0x3d271de4	0.04079999
215	0x3c7e108c	0.015506875
216	0x3cca0461	0.024660291
217	0xbbfde06a	-0.0077476995
218	0xbd0e9c34	-0.034816936
219	0x3d086dc8	0.03330782
220	0xbd98db98	-0.07463759
221	0xbcdf852b	-0.02728518
222	0xbd7fa9da	-0.062417842
223	0x3cb0e5c6	0.02159394
224	0xbcf4b883	-0.029873138
225	0xbd49da18	-0.049280256
226	0xbca74104	-0.020416744
227	0xbd2570fe	-0.04039096
228	0xbbd2953e	-0.0064264825
229	0xbc4b98ab	-0.012426536
230	0xbd2f0d50	-0.042737305
231	0xbd3a0c47	-0.045421865
232	0xbd067f46	-0.03283622
233	0xbc07448b	-0.008256088
234	0x3d0d753a	0.034535624
235	0xbd8b8cfc	-0.06814
236	0xbd5e9f6c	-0.054351255
237	0x3bb7ac36	0.005605246
238	0xbb8ad61f	-0.004236951
239	0xbcd85321	-0.026406826
240	0xbd11e2a9	-0.03561655
241	0xbcbf7956	-0.023373287
242	0xbd26b218	-0.040697187
243	0xbd318d98	-0.043347925
244	0xbda2db62	-0.07952
245	0xbceab070	-0.028648585
246	0xbd8198d5	-0.063279785
247	0xbad142f5	-0.0015965389
248	0xbd9220cb	-0.07135161
249	0xbd4001de	-0.04687678
250	0x3d1536d8	0.036429256
251	0x3d56cdee	0.052442484
252	0x3ce3aea5	0.027793238
253	0x3d52e76a	0.051490225
254	0x3c994bee	0.018712964
255	0xbdb2f94e	-0.08738957

l4.weight f4 [1, 256]
0	0xbd5a8f74	-0.053359464
1	0x3cc8fe5e	0.024535354
2	0x3a8024ec	0.0009776629
3	0x3d3ac69b	0.04559956
4	0x3c949de5	0.018141696
5	0x3d33fa7e	0.04394006
6	0xbba114c3	-0.004915805
7	0x3cbbbca1	0.022917094
8	0x3bed55d5	0.007242898
9	0xbd215258	-0.03938517
10	0xbc18e399	-0.009331607
11	0x3d84ac95	0.0647823
12	0x3d5be925	0.05368914
13	0x3ca27814	0.019832648
14	0x3942fe14	0.00018595933
15	0xbc30c9d3	-0.010790306
16	0xbce542ee	-0.027986016
17	0xbbca6917	-0.0061770785
18	0xbbf07d8c	-0.007339185
19	0xbd10c54b	-0.035344403
20	0xbc8d7962	-0.017269794
21	0x3b9105b0	0.004425727
22	0x3d14f907	0.036370303
23	0x3b553740	0.0032534152
24	0x3c768110	0.015045419
25	0x3ba61f04	0.0050696153
26	0xbd36c27d	-0.044619072
27	0xb99d2e91	-0.00029980068
28	0xbcadeb48	-0.021230355
29	0x3b251598	0.0025189873
30	0xbc498c53	-0.012301522
31	0x3b3509b5	0.0027624194
32	0xbc17462e	-0.009233041
33	0xbca532ba	-0.02016579
34	0xbc8ce37d	-0.017198319
35	0xbca9b485	-0.020715961
36	0x3d4b2e40	0.049604654
37	0xbd1becba	-0.038067557
38	0x3c0b00f0	0.00848411
39	0x3bcfc1c2	0.0063402364
40	0xb9648b2a	-0.00021795617
41	0xbcaa8abb	-0.020818105
42	0xbc884040	-0.0166322
43	0x3d308ba6	0.04310193
44	0x3bade58f	0.0053069065
45	0x3d64e8cc	0.055886075
46	0xbc357da9	-0.011077323
47	0xbd1d6a42	-0.038431413
48	0xbd24fc84	-0.04027988
49	0xbd6fd29a	-0.058550455
50	0x3d442f2c	0.04789655
51	0xbb3472f7	-0.0027534345
52	0xbd75069a	-0.05982075
53	0xbca61c81	-0.020277264
54	0xbb8e0f73	-0.004335338
55	0xbd368092	-0.044556208
56	0xbc28a88a	-0.010294089
57	0x3d3afc46	0.045650743
58	0x3e16140e	0.14656088
59	0xbbafd94a	-0.005366479
60	0xbcb174a5	-0.021662066
61	0x3af31571	0.0018545819
62	0xbc9d853e	-0.019228574
63	0x3c477d65	0.0121758925
64	0x3d4b3d0b	0.049618762
65	0x3c93fed3	0.018065846
66	0x3a3aa489	0.00071198546
67	0xbd4a5870	-0.049400747
68	0xbbbe76a9	-0.0058124852
69	0x3bdda262	0.0067637423
70	0x3d1df269	0.03856126
71	0x3b275079	0.0025530143
72	0x3c058bc5	0.008150999
73	0xbd50b2dd	-0.050951827
74	0xbbab864a	-0.0052345144
75	0x3cb025fe	0.021502491
76	0xbc1d37fd	-0.009595868
77	0xbcade652	-0.02122799
78	0xbd1b87fc	-0.03797148
79	0xbd85fb10	-0.06542027
80	0x3a318d56	0.0006773075
81	0xbbe3f777	-0.0069569903
82	0xbc9256b7	-0.017863614
83	0xbb5b4ae4	-0.0033461386
84	0x3cdc930c	0.026925586
85	0x3d6efa18	0.058343977
86	0x3c8c1c28	0.01710327
87	0x3ceb40a2	0.028717343
88	0x3b9491c2	0.0045339772
89	0x3c2655f8	0.0101523325
90	0x3997e184	0.00028968987
91	0xbbb252f5	-0.005442018
92	0x3d4ce81a	0.050026037
93	0x3d2a393e	0.041558497
94	0xbcc113b8	-0.023568973
95	0xbb0c580c	-0.0021414785
96	0xbc9dbe7d	-0.019255871
97	0xbcabf3f1	-0.020990344
98	0x3b31a90a	0.0027108812
99	0x3c2f6145	0.010704343
100	0xbc8fb50b	-0.017542383
101	0xbc0b4a28	-0.008501567
102	0xbcdbbd2a	-0.026823599
103	0x3c9f58a0	0.01945144
104	0x3acc36bd	0.0015580278
105	0xbd206892	-0.039162226
106	0xbb1049bd	-0.0022016608
107	0xbd05bbd3	-0.032649826
108	0xbd10484f	-0.03522521
109	0x3ce2490a	0.027622718
110	0x3aeb26c4	0.001794063
111	0xbc3c9472	-0.0115100015
112	0xba929851	-0.001118431
113	0x3d44d552	0.048055
114	0xbd065993	-0.03280027
115	0x3c675ad3	0.014120775
116	0x3be24dc1	0.0069062416
117	0x3aa278f6	0.0012395668
118	0x3d4faf3c	0.050704226
119	0xbb5a3bf2	-0.003329989
120	0x3c80e228	0.01573284
121	0xbaaa306d	-0.0012984403
122	0xbd322632	-0.043493457
123	0xbba10722	-0.0049141804
124	0x3d3ab77d	0.045585144
125	0xbb47442c	-0.0030405624
126	0xba1bc77e	-0.00059425074
127	0x3d4bbb5e	0.049739234
128	0x3d20ad86	0.039227985
129	0x3c4d3e1b	0.012527014
130	0xbcbbf808	-0.022945419
131	0xbb629ed2	-0.0034579528
132	0xbc54b81d	-0.012983349
133	0x3c8a9540	0.016916871
134	0x3d2d476a	0.042304434
135	0xbc76d733	-0.015065956
136	0xbaad89a7	-0.0013239876
137	0xbced6c24	-0.02898223
138	0x3d121301	0.035662655
139	0x3a25c0b3	0.0006322965
140	0xbb9f8099	-0.004867625
141	0xbc973ae9	-0.018460708
142	0x3dd24888	0.102677405
143	0x3d58da25	0.052942414
144	0x3c46c518	0.012131952
145	0x3d04841b	0.032352548
146	0xbc4c744f	-0.012478902
147	0x3c3479b7	0.011015347
148	0xbc22a23e	-0.009926377
149	0x3c8ce909	0.017200964
150	0x3d90aed1	0.070645936
151	0x3bfeae23	0.0077722236
152	0xbb0cd94b	-0.0021491821
153	0x3d1c7d7a	0.0382056
154	0x3cef292e	0.02919444
155	0xbe347153	-0.17621355
156	0xbcdc01fc	-0.026856415
157	0x3c3ef962	0.011656137
158	0xbc948498	-0.018129632
159	0x3d0104bd	0.03149866
160	0xbc772f65	-0.015086983
161	0x3c9f3db4	0.019438602
162	0xbd4d12c8	-0.05006674
163	0x3cbf53cb	0.023355385
164	0x3c8ac92b	0.016941627
165	0xba752e70	-0.0009352928
166	0xbc262585	-0.010140781
167	0xbc39a9e0	-0.011332005
168	0x3d2db572	0.042409368
169	0xbca9eb8a	-0.020742197
170	0xbd49da69	-0.049280558
171	0xbc4eb5d3	-0.012616592
172	0x3acfd572	0.0015856458
173	0xbd26eb85	-0.040751953
174	0xbd55bd39	-0.05218241
175	0xbb63c28e	-0.0034753415
176	0xbd216166	-0.039399527
177	0x3a1e88a8	0.0006047585
178	0x3d4e1369	0.05031148
179	0x3c840c4d	0.016119147
180	0xbb55593a	-0.0032554404
181	0x3d48b7e9	0.049003515
182	0x3cfd39b9	0.030911313
183	0x3cfd4586	0.03091694
184	0x3a3b3f35	0.00071429025
185	0x3a8f81a9	0.0010948676
186	0x3b09f8e5	0.0021052894
187	0xbd11a702	-0.03555966
188	0xbb8ba6e6	-0.004261839
189	0xbd017470	-0.031605184
190	0xbd526648	-0.051367074
191	0x3b26eb3f	0.0025469807
192	0xbe854a87	-0.26033422
193	0x3c7beee5	0.015376781
194	0x3ad7ad33	0.0016454816
195	0xbd1d2644	-0.03836657
196	0x3d31d362	0.04341448
197	0xba928c31	-0.0011180696
198	0xbd5b499a	-0.05353699
199	0x3bc7cff3	0.0060977875
200	0x39515c88	0.00019966264
201	0xbd13cf61	-0.036086444
202	0xbcd2520a	-0.025673885
203	0x3d92670b	0.0714856
204	0xbc3b3033	-0.011425066
205	0x3ad6748a	0.0016361636
206	0xbc831a6b	-0.016003808
207	0xbc8fb7cd	-0.017543698
208	0xbc2a6504	-0.010400061
209	0xbc71dedd	-0.014762607
210	0xbd66af64	-0.05631961
211	0xb9ee6957	-0.00045473382
212	0xbc0452ee	-0.008076413
213	0xbbf2c5fe	-0.0074088564
214	0x3d26dfbf	0.040740725
215	0x3cd6a105	0.026199827
216	0x3c44aaf5	0.01200365
217	0xbd5beb63	-0.05369128
218	0xbd091250	-0.03346473
219	0xbb6fd560	-0.0036595687
220	0xbc8dadc4	-0.017294772
221	0xbcf0fd03	-0.02941752
222	0xbc471f99	-0.01215353
223	0x3d39de06	0.045377754
224	0x3c3062f8	0.0107657835
225	0x3989fa04	0.00026316952
226	0x3b4b88bc	0.0031056842
227	0xbb8c0e9a	-0.0042742016
228	0x3cc47fe6	0.023986768
229	0xbb024fd9	-0.0019884019
230	0xbcb25f91	-0.021774085
231	0xbc5523b6	-0.013009002
232	0x3d38be5f	0.045103427
233	0x3c36635d	0.0111320885
234	0xbb4818b5	-0.0030532305
235	0x3d188579	0.037236664
236	0xbbc63221	-0.0060484563
237	0xbc8933f8	-0.016748413
238	0x3b1cebcc	0.0023944257
239	0x3d3393f4	0.04384227
240	0xbb32eca5	-0.0027301696
241	0x3c8f97fd	0.017528528
242	0x3d29c256	0.0414451
243	0xbd2cf6eb	-0.042227667
244	0x3d8bbbeb	0.06822952
245	0xbdb2410d	-0.08703814
246	0x3d41e185	0.047334213
247	0x3cf87042	0.030326966
248	0x3d3743c3	0.044742357
249	0x3c07ceb0	0.008289024
250	0x3ce35198	0.027748868
251	0xbd3d7a06	-0.04625895
252	0x3bbaf39d	0.0057053105
253	0xbd21d7da	-0.039512493
254	0x3cca58c7	0.024700535
255	0x3d7c1f04	0.061553016
