models/GMI_pretrained/GMI_GPM_channel_predictor_89H_nonocean.pt (torch, 545332 bytes, 7 tensors)

l1.weight f4 [256, 13]
-0.07896105 -0.23862575 0.02056261 0.018198404 0.15272135 -0.027027601 0.33656725 0.37437502
-0.26897585 0.27435887 0.21188289 -0.1438522 -0.14425181 0.2261248 -0.27154106 -0.24333237
-0.13938868 0.02121548 -0.27276513 0.15150113 0.1875204 -0.27282995 -0.15021007 -0.03774158
-0.024758084 0.27349287 -0.17475004 0.07183109 -0.23702453 0.14647022 -0.13436128 0.35586122
-0.39042637 -0.33731788 0.1768879 0.30246246 0.2193304 0.007864387 0.06947774 -0.06454297
-0.08849598 -0.19880101 -0.1229211 0.028385889 -0.10173243 -0.27326563 -0.10721522 -0.25437367
-0.11778603 -0.0067443955 -0.14942932 0.22748168 -0.07411869 -0.25336117 -0.024071636 -0.019152334
-0.05180242 -0.014556717 -0.07881591 -0.26786408 0.13603562 -0.095202975 0.07716912 -0.1146657
-0.11356875 0.012964666 0.15484004 0.041303232 -0.24437025 -0.072094806 0.21555665 0.027951704
-0.12956797 -0.31772804 -0.4277253 -0.16585343 0.0763827 -0.25682846 -0.1712342 -0.2287349
-0.010399875 0.15054311 -0.14380728 -0.2536812 -0.24388099 -0.02017222 0.111957505 0.044201203
-0.11523388 -0.27264225 0.0025668233 -0.29250214 0.06760055 0.03508276 -0.32657292 0.3805193
-0.38918504 0.38727698 0.028224166 0.07690208 -0.1436805 0.120366625 0.09764134 0.113814004
-0.3087671 0.17249084 -0.016775178 0.38002747 0.098599955 -0.14939657 -0.5753062 -0.11523617
-0.1089427 -0.003832259 0.0069319955 0.5941326 -0.26343432 -0.1078971 -0.063308045 -0.17863405
0.11959384 -0.13651767 0.19716989 -0.08018434 0.19550131 -0.20725186 0.10135578 -0.1400727
-0.03220546 -0.033005115 -0.27656287 0.15439282 -0.17923234 0.031289093 -0.110809565 -0.26249832
-0.076394364 0.26400793 0.031259764 0.19428034 -0.25585854 0.23216885 -0.26352897 -0.17208718
0.24075685 0.04399794 -0.1482445 0.03125319 0.30960503 -0.4038189 -0.08154478 0.30512035
-0.3054274 0.1099263 0.085958384 -0.080788374 -0.02207315 -0.07547728 0.23442754 -0.09306728
0.18673807 -0.0038029447 -0.024325969 -0.16281292 0.05036983 -0.262782 -0.25724292 -0.28296813
-0.17778438 0.17374274 -0.024178063 -0.14476655 -0.008203652 -0.2641631 -0.19264978 0.071218394
-0.04670795 -0.14191325 -0.16038802 -0.20797376 0.22461888 -0.25444502 0.23726398 0.15130392
-0.08638644 -0.14799662 -0.19449022 0.25330934 -0.25257754 -0.16418058 -0.2718667 -0.02768271
0.051409204 -0.091567 0.08198345 0.17244886 0.067582875 0.25324842 -0.011831927 0.11586181
-0.37219873 -0.06819595 0.4033124 -0.30058107 -0.09917041 0.12764214 -0.049699105 -0.21507898
-0.26581872 -0.07417957 0.22163142 -0.27277055 -0.12407918 -0.21271363 -0.25227317 -0.021004774
0.23070431 -0.05171283 0.07165044 0.21138392 0.018429404 -0.3165142 -0.04129758 0.13346316
-0.037143443 -0.3085875 0.27710852 0.11735498 -0.12100752 0.001064265 -0.24840032 0.20648083
0.09265018 -0.6425268 -0.05384986 -0.010603045 -0.015207061 -0.10743069 -0.21274976 -0.24280545
-0.11025752 0.1466354 -0.27059802 0.18095316 -0.08899264 -0.23791806 -0.2548359 -0.15908416
-0.25859386 0.05579557 0.06800616 -0.11238666 0.07364735 0.10227995 -0.19231886 -0.2333801
00000000: 55b6 a1bd 4f5a 74be eb72 a83c d214 953c
00000010: fc62 1c3e fd68 ddbc 8b52 ac3e 15ae bf3e
00000020: 34b7 89be c478 8c3e d4f7 583e fe4d 13be
00000030: bfb6 13be 428d 673e 6e07 8bbe 1f2c 79be
00000040: e8bb 0ebe 16cc ad3c dfa7 8bbe 1d23 1b3e
00000050: 5905 403e 5eb0 8bbe abd0 19be ea96 1abd
00000060: 77d1 cabc 4207 8c3e adf1 32be 2e1c 933d
00000070: 8fb6 72be 4afc 153e 0196 09be 7133 b63e
00000080: f7e5 c7be eeb4 acbe 1a22 353e 5cdc 9a3e
00000090: 2698 603e a1d9 003c 584a 8e3d 1b2f 84bd
000000a0: 613d b5bd 7e92 4bbe 0fbe fbbd 8689 e83c
000000b0: 1859 d0bd 79e9 8bbe a793 dbbd 443d 82be
000000c0: cd39 f1bd 1700 ddbb 0004 19be f5f0 683e
000000d0: 8acb 97bd 8eb8 81be e131 c5bc 5be5 9cbc
000000e0: c62e 54bd 4c7f 6ebc 3c6a a1bd 7b25 89be
000000f0: ec4c 0b3e c7f9 c2bd d80a 9e3d dad5 eabd
00000100: bc96 e8bd c069 543c 638e 1e3e 942d 293d
00000110: 323c 7abe 71a6 93bd e2ba 5c3e f9fa e43c
00000120: 77ad 04be 40ad a2be cffe dabe 7bd5 29be
00000130: 886e 9c3d 057f 83be 0558 2fbe 7b39 6abe
00000140: 3d64 2abc f927 1a3e 3742 13be 81e2 81be
00000150: f0bb 79be 3640 a5bc fa49 e53d 520c 353d
00000160: beff ebbd c497 8bbe 2638 283b d7c2 95be
00000170: 2872 8a3d f1b2 0f3d 9134 a7be 6dd3 c23e
00000180: 4343 c7be 2b49 c63e 5e36 e73c d67e 9d3d
00000190: fb20 13be c782 f63d 2ff8 c73d 5117 e93d
000001a0: b916 9ebe 70a1 303e 196c 89bc f692 c23e
000001b0: c6ee c93d 6afb 18be 4447 13bf f100 ecbd
000001c0: 5a1d dfbd a326 7bbb cb25 e33b 1319 183f
000001d0: dde0 86be 28f9 dcbd a6a7 81bd d8eb 36be
000001e0: 9ded f43d 4acb 0bbe e7e6 493e b037 a4bd
000001f0: 7f31 483e d539 54be 9f93 cf3d 386f 0fbe
00000200: dfe9 03bd 5f30 07bd a699 8dbe 2719 1e3e
00000210: af88 37be fe28 003d 20f0 e2bd 2e66 86be
00000220: a674 9cbd 0c2c 873e 3d0a 003d 6df1 463e
00000230: e4ff 82be acbd 6d3e 45ed 86be 9f37 30be
00000240: f788 763e 2f37 343d 68cd 17be 5803 003d
00000250: 8d84 9e3e 5ac1 cebe f300 a7bd bc38 9c3e
00000260: fb60 9cbe 0a21 e13d f30a b03d 6074 a5bd
00000270: c0d2 b4bc d593 9abd c60d 703e 0f9a bebd
00000280: 4438 3f3e d33a 79bb 4147 c7bc 6eb8 26be
00000290: 9850 4e3d 5d8b 86be 58b5 83be 33e1 90be
000002a0: 1c0d 36be 9ee9 313e 1311 c6bc af3d 14be
000002b0: 9c68 06bc 6340 87be fc45 45be f3da 913d
000002c0: d650 3fbd b551 11be c23c 24be 13f7 54be
000002d0: 7e02 663e 9e46 82be 54f5 723e 6aef 1a3e
000002e0: 60eb b0bd 6d8c 17be 7228 47be c3b1 813e
000002f0: d851 81be f41e 28be 1d32 8bbe dac6 e2bc
00000300: 7592 523d 7b87 bbbd f0e6 a73d 6f96 303e
00000310: e468 8a3d c7a9 813e b3da 41bc f548 ed3d
00000320: d590 bebe 51aa 8bbd f77e ce3e c3e5 99be
00000330: db19 cbbd 9fb4 023e 4a91 4bbd aa3d 5cbe
00000340: 6419 88be 75eb 97bd 59f3 623e 95a8 8bbe
00000350: 3a1d febd 9ad1 59be f329 81be 3412 acbc
00000360: c03d 6c3e d5d0 53bd 77bd 923d 0775 583e
00000370: 43f9 963c 260e a2be a727 29bd 91aa 083e
00000380: b923 18bd 2eff 9dbe 2be1 8d3e cf57 f03d
00000390: cad2 f7bd cf7e 8b3a a75c 7ebe b66f 533e
000003a0: 61bf bd3d a37c 24bf ac91 5cbd 65b8 2dbc
000003b0: 0927 79bc 9f04 dcbd 13db 59be fea1 78be
000003c0: b2ce e1bd 9727 163e d38b 8abe c94b 393e
000003d0: c641 b6bd cba0 73be da79 82be f5e6 22be
000003e0: 6a66 84be e589 643d d046 8b3d fa2a e6bd
000003f0: 6cd4 963d 2778 d13d 3cef 44be 31fb 6ebe

l1.bias f4 [256]
0.04353406 -0.1828123 0.17793252 -0.0354052 -0.14892565 -0.14603938 0.27441427 -0.15909182
0.20801665 0.011213681 0.08201231 -0.2707719 0.1786802 -0.21228087 -0.1357935 0.057613447
-0.14383455 0.8071098 -0.10980515 0.17548141 0.47918245 0.010223915 -0.56911063 -0.27395532
-0.24061994 -0.14507274 -0.26263788 1.2550162 0.21816762 1.7190082 -0.4885666 -0.14475396
0.3804943 0.19255146 -0.11555836 0.5880841 -0.7187431 -1.4995395 -0.21129197 -0.21587399
-1.5016024 -0.080918685 -0.12460581 0.05215305 -0.07772418 1.3063612 -0.19828182 -0.17830096
0.22998087 -0.20535834 0.7183199 0.097561106 -0.23415889 -0.25437587 0.05878773 -0.5699295
-0.2471374 0.011212719 0.06690166 0.2456919 0.37781745 -0.11635629 -0.1697527 1.2187417
-0.42637086 0.18404491 0.048635576 -0.20278446 0.17710125 0.60219204 0.11598528 -0.2502421
-0.11543516 -1.0241001 -0.21941064 -0.23991928 0.1357661 -0.2456262 0.38011473 -1.145815
0.25503677 -0.17960298 -0.32242367 -0.16938673 -0.2043216 0.16721392 0.9445148 -0.083764866
0.039948717 0.09584185 1.5880756 1.1766406 0.12461639 1.9731336 0.24635394 0.2769195
-0.5565431 -0.03645145 -0.07317228 0.14969738 -0.07889321 -0.23474342 0.07088592 -0.033402294
0.15187746 0.023632726 -0.051851347 -0.104819715 -0.26065868 -0.095181026 0.19151554 -0.3225843
0.104965895 2.2984333 -0.27035198 -0.24557988 -0.24147831 0.058446445 0.20552488 0.10900173
0.17713793 0.04677893 -0.974587 0.10923859 0.07975601 -0.088259146 0.028939491 -0.0105027445
0.12099082 -0.08338661 0.15436536 0.95436776 0.016381217 -0.2503338 0.5660237 0.17970634
0.23152906 0.097255014 0.27416456 0.025285136 -0.499264 -0.0025985057 -0.04463456 -0.014249167
-0.2230148 -0.30249518 0.04812654 -0.21831237 0.6733943 -0.16731082 -0.015227894 0.35878876
0.7137667 -0.09250355 0.33911058 0.013837272 -0.3983053 0.08601856 -0.23393 0.7298153
-0.27185333 -0.05683215 -0.22052482 -0.041776583 0.5852409 -0.006264859 -0.16703026 -0.24048965
-0.07496427 0.6310859 -0.3239599 -0.18519332 -1.0295118 -0.2628323 0.08634495 -0.16462408
-0.49233538 0.017185513 -0.21236822 2.6188414 0.1494031 1.5598396 0.17740206 0.8503486
-0.6466344 -1.1538509 -0.09472492 -0.052719682 0.7766806 -1.2959808 -1.0691961 0.06880236
-0.356982 0.18425159 0.24286877 0.15105525 0.8117501 -0.08843471 -0.36526912 -0.23469569
-0.004888998 -0.12400671 0.36981463 -0.19208607 -0.22443551 0.39819533 -1.2162504 0.14990188
0.16461705 -0.33142793 -0.017090907 1.6443076 -0.38714433 -0.18914163 -0.18457766 -0.15341583
0.1471346 0.21839568 0.59831464 -0.21751925 0.20323873 0.91919696 0.20984991 -0.27408
-0.064336695 -0.022851886 -0.7637687 0.19992977 -0.08906777 -0.06439598 -0.0146035 0.070845485
-0.7069078 0.2143828 1.3562223 -0.05027239 1.1930116 -0.19571391 -0.20902264 -0.14974551
0.25248182 0.03253475 -0.54006314 -0.018204685 1.2053008 -0.3627043 -0.3090056 0.2232659
0.5050515 0.00103227 -0.021014227 -0.16102064 -0.17107533 -0.13322893 0.14956544 0.994102
00000000: c550 323d 2633 3bbe f133 363e 0b05 11bd
00000010: f77f 18be 598b 15be 0780 8c3e f7e8 22be
00000020: 5102 553e 96b9 373c 12f6 a73d 9da2 8abe
00000030: f1f7 363e 2860 59be 740d 0bbe 14fc 6b3d
00000040: 5d49 13be bf9e 4e3f 86e1 e0bd 66b1 333e
00000050: 6757 f53e 3582 273c 3cb1 11bf df43 8cbe
00000060: 1365 76be f38d 14be 7978 86be 5fa4 a03f
00000070: 5567 5f3e 7608 dc3f 6725 fabe 623a 14be
00000080: 26d0 c23e 362c 453e dda9 ecbd ae8c 163f
00000090: 8cff 37bf e9f0 bfbf ec5c 58be 120e 5dbe
000000a0: 8234 c0bf b2b8 a5bd 5531 ffbd 709e 553d
000000b0: db2d 9fbd d836 a73f 640a 4bbe 8794 36be
000000c0: 1b80 6b3e 7549 52be d0e3 373f 1ece c73d
000000d0: 59c7 6fbe 8e3d 82be 67cb 703d e6e6 11bf
000000e0: 9611 7dbe 8db5 373c bd03 893d a896 7b3e
000000f0: 4a71 c13e 354c eebd a7d3 2dbe baff 9b3f
00000100: 484d dabe 4576 3c3e 1936 473d bba6 4fbe
00000110: 085a 353e 4229 1a3f b189 ed3d bc1f 80be
00000120: 4569 ecbd b615 83bf 2fad 60be 66ad 75be
00000130: 4506 0b3e 6f85 7bbe 669e c23e 11aa 92bf
00000140: 2e94 823e d8e9 37be b714 a5be b773 2dbe
00000150: ae39 51be 203a 2b3e b9cb 713f ea8c abbd
00000160: 44a1 233d bb48 c43d 1046 cb3f 299c 963f
00000170: e136 ff3d a48f fc3f 3544 7c3e 65c8 8d3e
00000180: 9c79 0ebf 1e4e 15bd 59db 95bd 454a 193e
00000190: c392 a1bd 9460 70be a32c 913d d8d0 08bd
000001a0: c485 1b3e 6b99 c13c 1462 54bd b8ab d6bd
000001b0: 0e75 85be 45ee c2bd a61c 443e c529 a5be
000001c0: 5cf8 d63d 8819 1340 936b 8abe 4b79 7bbe
000001d0: 1746 77be 8a65 6f3d 1d75 523e 4d3c df3d
000001e0: a563 353e 439b 3f3d 897e 79bf 7bb8 df3d
000001f0: 1e57 a33d 36c1 b4bd 8312 ed3c b413 2cbc
00000200: 09ca f73d 99c6 aabd f411 1e3e 7251 743f
00000210: e731 863c c02b 80be eee6 103f f004 383e
00000220: f415 6d3e a32d c73d 4c5f 8c3e c622 cf3c
00000230: 889f ffbe b14b 2abb bad2 36bd 5775 69bc
00000240: fe5d 64be a6e0 9abe 5620 453d 478d 5fbe
00000250: 9263 2c3f 8753 2bbe 6b7e 79bc 29b3 b73e
00000260: 6ab9 363f 8072 bdbd e79f ad3e bab5 623c
00000270: acee cbbe 802a b03d 598b 6fbe 2dd5 3a3f
00000280: 5c30 8bbe d4c8 68bd 42d1 61be ec1d 2bbd
00000290: 59d2 153f 7249 cdbb fb09 2bbe eb42 76be
000002a0: de86 99bd d88e 213f 12de a5be 51a3 3dbe
000002b0: 0bc7 83bf f591 86be 9fd5 b03d 3793 28be
000002c0: 6213 fcbe a2c8 8c3c 0e77 59be 199b 2740
000002d0: 20fd 183e d3a8 c73f e3a8 353e 72b0 593f
000002e0: d589 25bf 63b1 93bf 24ff c1bd 98f0 57bd
000002f0: 8ad4 463f b3e2 a5bf 6bdb 88bf 40e8 8c3d
00000300: 58c6 b6be 73ac 3c3e 97b2 783e 3aae 1a3e
00000310: dbce 4f3f 421d b5bd 8e04 bbbe 1154 70be
00000320: e333 a0bb 3bf7 fdbd 5858 bd3e 36b2 44be
00000330: 6cd2 65be 42e0 cb3e 18ae 9bbf e17f 193e
00000340: 5f91 283e ecb0 a9be 3b02 8cbc ac78 d23f
00000350: c837 c6be 58ae 41be ed01 3dbe 0a19 1dbe
00000360: 74aa 163e 1ea3 5f3e 262b 193f 5ebd 5ebe
00000370: d01d 503e 7e50 6b3f e5e2 563e 3754 8cbe
00000380: f5c2 83bd e133 bbbc 5886 43bf 64ba 4c3e
00000390: 2a69 b6bd 0ae2 83bd 8543 6fbc 7017 913d
000003a0: e9f7 34bf 2a87 5b3e b198 ad3f 6cea 4dbd
000003b0: 9bb4 983f 3a69 48be 080a 56be e356 19be
000003c0: 4c45 813e 2843 053d 9441 0abf fe21 95bc
000003d0: 4c47 9a3f 61b4 b9be fb35 9ebe d19f 643e
000003e0: 0e4b 013f 3c4d 873a 0726 acbc 98e2 24be
000003f0: 5f2e 2fbe 2a6d 08be af27 193e 787d 7e3f

l2.weight f4 [256, 256]
-0.0489689 0.035300277 0.02149156 0.017180368 -0.018265337 0.04074083 -0.026453264 -0.0048824814
0.04193846 0.0035795495 0.031912953 -0.047194652 -0.055893086 -0.056744985 -0.010438174 -0.070892334
-0.0164583 -0.0008620377 -0.051602222 -0.0032107905 0.000626986 0.025113657 0.028077526 0.008735227
0.04691857 -0.030536704 0.04834996 -0.054812353 -0.015902713 -0.033152826 -0.018633226 0.04002647
-0.07619224 0.027169354 0.024961941 -0.02749012 -0.017386328 0.00840302 0.058109775 -0.013697296
-0.06819618 -0.05174768 -0.001448296 -0.031473354 0.0049959496 -0.058875762 -0.05170898 0.015209556
-0.01809781 -0.0016646112 -0.044911914 0.034440048 -0.034183078 0.040839307 -0.053790793 -0.0020786126
-0.00640205 -0.04978056 -0.05890521 -0.007815413 -0.07058746 0.024629058 0.015201405 -0.0034586648
-0.039688047 -0.01606188 0.004805531 -0.01191437 -0.04148498 0.022194173 0.05269512 0.029993944
-0.04090413 0.008688646 0.007853054 -0.05432222 -0.009334822 0.029097058 0.028394498 0.021832183
-0.04311899 -0.023402281 -0.027799089 -0.051916853 -0.03170261 0.024329029 -0.0634758 0.03302106
-0.021745287 0.01862254 -0.023862155 -0.038924593 0.01974652 -0.0023295586 -0.057931826 0.024865597
0.032670185 0.0451497 0.0013462252 -0.029818194 0.02649495 0.059606448 -0.016830869 -0.017072788
0.0219081 -0.030762777 -0.036612283 -0.0061345696 0.04707315 0.025777906 0.004741445 0.018960318
-0.045624368 0.03928729 -0.040190943 0.0289293 -0.038238876 0.012979912 -0.032685604 0.013422914
-0.022958472 -0.050176173 -0.053214002 0.02782251 -0.06596012 -0.0159977 -0.05668162 0.039273575
0.04433322 0.028192827 -0.04170213 0.02136785 -0.012307681 0.020235624 -0.05366869 0.013873875
0.043323502 0.010003533 -0.050760083 -0.045332357 0.0141794495 -0.011722244 -0.0623649 0.022751682
0.02700632 -0.055624966 -0.053084366 0.015843606 -0.014492673 -0.015487255 0.023299506 0.030302731
-0.029328875 -0.02587526 -0.045820042 0.061885253 -0.063916646 0.024154102 -0.0055054277 -0.013093475
-0.024273586 -0.048840426 -0.027565762 -0.056872055 0.024117894 -0.024155416 0.027913198 -0.039764762
-0.06642027 -0.049448106 -0.019484678 -0.058673084 -0.0019110296 0.03987094 0.025698848 0.010738108
-0.025684401 0.011080301 0.031169571 -0.0010478378 -0.042038172 0.020149313 -0.029157914 -0.014549423
0.03221714 0.012410135 -0.042367987 -0.04855671 -0.0095506 -0.044921838 -0.058905225 -0.0019813091
-0.018579762 0.0045976266 -0.028237894 -0.030548707 -0.041176263 0.035117984 -0.002014421 0.047129825
-0.008659001 -0.009118937 0.012231863 -0.062830925 -0.037449215 0.015533826 0.020222908 -0.0077385167
0.04144486 -0.037763588 -0.0017393082 0.001984903 0.041420348 -0.05376726 -0.028757758 0.013375387
-0.022924498 0.058052525 0.047642235 -0.038892195 -0.0066719535 -0.048986543 -0.0027613614 0.04062102
-0.019230865 0.029795393 -0.020348398 -0.061546654 0.054357506 0.054285906 0.05162686 -0.004768183
-0.017367 -0.025642581 -0.03959809 -0.00062243774 0.036702447 0.04549834 -0.034122847 -0.041728877
0.02080306 0.05564063 -0.0013186275 0.048841175 -0.047867905 0.04117371 -0.06234478 0.021704838
0.042997763 0.00041563064 0.043207802 -0.032877862 0.046307735 0.009605616 0.040811762 -0.041482568
00000000: 9d93 48bd 0697 103d 110f b03c d8bd 8c3c
00000010: 30a1 95bc dbdf 263d 84b4 d8bc 39fd 9fbb
00000020: aac7 2b3d e096 6a3b 28b7 023d 2e4f 41bd
00000030: 26f0 64bd 6e6d 68bd e004 2bbc 0030 91bd
00000040: 8fd3 86bc 5ffa 61ba da5c 53bd 206c 52bb
00000050: 515c 243a 28bb cd3c d702 e63c 331e 0f3c
00000060: b02d 403d 1c28 fabc 9c0a 463d eb82 60bd
00000070: 6846 82bc 42cb 07bd b5a4 98bc ccf2 233d
00000080: ad0a 9cbd 4492 de3c fc7c cc3c f632 e1bc
00000090: c66d 8ebc d2ac 093c 8404 6e3d a06a 60bc
000000a0: 70aa 8bbd 60f5 53bd c0d4 bdba 34ea 00bd
000000b0: 10b5 a33b b627 71bd cccc 53bd 8031 793c
000000c0: dc41 94bc 152f daba 8ef5 37bd 0211 0d3d
000000d0: 8e03 0cbd 1e47 273d bc53 5cbd 5539 08bb
000000e0: 4ac8 d1bb b3e6 4bbd 9746 71bd 380c 00bc
000000f0: 2990 90bd e1c2 c93c 500f 793c c4aa 62bb
00000100: ef8f 22bd 3494 83bc b777 9d3b 7d34 43bc
00000110: 28ec 29bd 8ed0 b53c d7d6 573d dcb5 f53c
00000120: 178b 27bd d35a 0e3c 19aa 003c fa80 5ebd
00000130: 15f1 18bc f45c ee3c 949b e83c 68d9 b23c
00000140: 8a9d 30bd 24b6 bfbc eaba e3bc c4a6 54bd
00000150: 99da 01bd ac4d c73c 9aff 81bd 1741 073d
00000160: 2c23 b2bc 4c8e 983c 917a c3bc 656f 1fbd
00000170: 74c3 a13c 82ab 18bb ec49 6dbd f0b2 cb3c
00000180: 2cd1 053d e4ee 383d d273 b03a 4945 f4bc
00000190: f00b d93c e425 743d e4e0 89bc 3bdc 8bbc
000001a0: 9e78 b33c 3802 fcbc c3f6 15bd 8004 c9bb
000001b0: c6cf 403d 302c d33c 205e 9b3b ab52 9b3c
000001c0: 9ee0 3abd b6eb 203d 429f 24bd 24fd ec3c
000001d0: 5ea0 1cbd b2a9 543c 57e1 05bd c8eb 5b3c
000001e0: 6813 bcbc 8885 4dbd edf6 59bd 08ec e33c
000001f0: 1916 87bd 9c0d 83bc fd2a 68bd 54dd 203d
00000200: c096 353d a5f4 e63c dacf 2abd a10b af3c
00000210: 28a6 49bc 2ec5 a53c b3d3 5bbd 404f 633c
00000220: fc73 313d dce5 233c cee9 4fbd 6cae 39bd
00000230: ec50 683c a80e 40bc 5672 7fbd bc61 ba3c
00000240: 5c3c dd3c 01d7 63bd fe6e 59bd 73ca 813c
00000250: ad72 6dbc 41be 7dbc 9bde be3c 6f3d f83c
00000260: 1c43 f0bc 5af8 d3bc ccad 3bbd 647b 7d3d
00000270: bbe6 82bd d3de c53c e066 b4bb 0486 56bc
00000280: 66d9 c6bc e60c 48bd 98d1 e1bc acf2 68bd
00000290: e492 c53c 94e1 c5bc 38aa e43c 60e0 22bd
000002a0: 5a07 88bd 198a 4abd 559e 9fbc 3053 70bd
000002b0: 837b faba b64f 233d 6486 d23c e4ee 2f3c
000002c0: 1868 d2bc 278a 353c 5457 ff3c 9a57 89ba
000002d0: 3830 2cbd 2c10 a53c 94dc eebc b460 6ebc
000002e0: 1ff6 033d e153 4b3c 0e8a 2dbd 67e3 46bd
000002f0: 1f7a 1cbc f6ff 37bd 9b46 71bd dad8 01bb
00000300: 9634 98bc b0a7 963b 2853 e7bc 4841 fabc
00000310: 71a8 28bd e0d7 0f3d 6004 04bb 340b 413d
00000320: 7cde 0dbc 9867 15bc 2768 483c 80ad 80bd
00000330: 5964 19bd 9781 7e3c 83aa a53c 6293 fdbb
00000340: 16c2 293d fead 1abd 80f9 e3ba 2515 023b
00000350: 62a8 293d 0f3b 5cbd 6495 ebbc 7024 5b3c
00000360: 28cc bbbc 7cc8 6d3d 8124 433d 6c4d 1fbd
00000370: 67a0 dabb 1da6 48bd f5f7 34bb 3a62 263d
00000380: 0c8a 9dbc 7815 f43c afb1 a6bc 5818 7cbd
00000390: faa5 5e3d e65a 5e3d b076 533d 6b3e 9cbb
000003a0: 3d45 8ebc 6410 d2bc 9b31 22bd 172b 23ba
000003b0: 4e55 163d 785c 3a3d 66c4 0bbd e6eb 2abd
000003c0: 2e6b aa3c 6ee7 633d ccd5 acba af0d 483d
000003d0: 2311 44bd c4a5 283d 3d5d 7fbd 58ce b13c
000003e0: 6c1e 303d 00e9 d939 aafa 303d f0aa 06bd
000003f0: 2ead 3d3d e060 1d3c 3c2a 273d a0e9 29bd

l2.bias f4 [256]
-0.0044762413 -0.08449095 0.01736352 -0.096690595 0.023908634 -0.022537917 -0.0069583147 -1.0857793
-0.022449661 -1.1779108 0.010409821 -0.025725603 -0.058869217 -0.05803387 -0.009778847 -0.051324684
-0.047885597 0.03459505 -0.04652615 -0.027855657 -0.08870197 0.015241323 -0.006211217 0.031560395
-0.085887164 0.0054425234 0.014633172 -0.06409776 -0.04874551 0.03852403 -0.0034144134 -0.04167027
-0.013104316 -0.090545535 -0.031203467 0.0124077 -0.07907538 0.015426828 -0.09152224 1.0269645
-0.049917426 -0.062618785 -0.0078969225 -0.05994559 0.039389864 0.019149609 -0.03062325 0.09770447
0.032855425 0.020256177 -0.09193893 -0.04569933 0.044416245 0.02630997 -0.061598703 -0.01695075
-0.036266696 0.01168938 0.041766014 -0.033463463 0.04773597 -0.0106901135 0.040516566 -0.060575392
-0.047128033 -0.020235887 0.0147208655 0.11340435 -0.0031841234 0.037132517 0.01753239 -0.0006205855
0.030124044 -0.026039325 -0.01479249 -0.040754586 -0.026090095 0.00993335 -0.3381751 0.026665129
0.054839015 -0.010214267 -0.006614236 0.68340266 -0.017275147 0.015338502 0.015733782 -0.025973616
0.008161721 -0.033609554 -0.9230403 -0.0031149338 0.04677696 -0.028358968 -0.041462913 -0.031518523
-0.028977582 -0.0357725 0.005195232 0.0029518774 -0.025136894 -0.030432196 0.00078180915 0.027123204
-0.014801342 -0.027797235 -0.045124874 -0.028468786 -0.012655995 0.02406404 -0.053972658 0.001385139
-0.0058475165 -0.07799774 -0.04094562 0.008808517 -0.055477712 -0.015702602 -0.03198015 -0.018367173
-0.0197379 -0.048895378 0.015855864 0.015680762 -0.049463626 -0.013557006 0.01929938 -0.015517177
-0.027359493 -0.014919829 -0.044880856 0.037882924 -0.08248534 -1.0408359 0.003502925 0.025506478
0.22515741 -0.015328787 0.009923202 1.5952555 0.020108433 -0.046151258 -0.011392735 1.6202652
-0.10036089 -0.05494 -0.7775165 -0.036515206 -0.040872447 0.032483403 -0.030828109 -0.020591032
0.042178467 -0.021629846 -0.013871192 -0.033728894 -0.037250284 -0.0055901986 -0.030687468 0.45681024
-0.0071768537 -0.055103 -0.059302043 0.017240899 -0.05764515 0.017389249 -0.03020745 0.0031358297
0.011149254 -0.14952722 -0.063191935 0.026889091 -0.018180028 -0.07118423 -0.030952983 -0.06392452
-0.03501356 0.920134 -0.045578416 -0.059414674 0.119470134 0.003055473 0.039350297 -0.046006363
-0.0139415385 -0.00160648 -0.08674717 -0.039856724 -0.05082782 0.018906463 -0.06623889 0.03290106
-0.06461467 -0.056174245 -0.061001997 0.0016073748 -1.368978 -0.013770607 -0.06858315 0.010607925
0.04756691 0.029299382 -0.0053183394 -0.004471011 0.03805293 -0.02679497 -0.014764137 0.3016282
0.0102720875 -1.1910906 -0.03505352 -0.107081756 0.0068412237 0.03710388 -0.031647813 -0.004879917
-0.0051581576 -0.043968774 -0.0010343634 0.02566784 0.030671071 -0.08605433 -0.020048527 -0.024144745
0.3385475 0.05475763 -0.010758528 0.0046925847 -0.0464936 0.6832865 -0.11157523 0.0877522
-0.026790721 0.036777567 -0.06658104 0.0310729 -0.023694828 -0.04182246 -0.064376235 1.8123845
-0.03468114 -0.001204376 -0.06669885 -0.07870431 -0.021582616 -0.057009745 0.046498466 -0.05907525
-0.06877095 -0.20468847 0.013335704 -0.0044015604 0.025841104 -0.025625357 0.008553503 -0.034780286
00000000: 6fad 92bb 9709 adbd f13d 8e3c b805 c6bd
00000010: 0adc c33c 70a1 b8bc 9302 e4bb d1fa 8abf
00000020: 5ae8 b7bc c8c5 96bf f48d 2a3c 80be d2bc
00000030: d920 71bd ecb4 6dbd 7537 20bc d539 52bd
00000040: b023 44bd 8ab3 0d3d 3492 3ebd 8c31 e4bc
00000050: 61a9 b5bd beb6 793c 7787 cbbb 7945 013d
00000060: 9ce5 afbd 3257 b23b f9bf 6f3c b045 83bd
00000070: 5fa9 47bd 60cb 1d3d 5ac4 5fbb 72ae 2abd
00000080: 7cb3 56bc f06f b9bd 6a9e ffbc aa49 4b3c
00000090: 46f2 a1bd cec0 7c3c 0370 bbbd 9373 833f
000000a0: 3776 4cbd 473e 80bd 1862 01bc 8289 75bd
000000b0: 4457 213d a4df 9c3c 9cdd fabc 4819 c83d
000000c0: 6993 063d 48f0 a53c 7a4a bcbd 382f 3bbd
000000d0: cfed 353d 0288 d73c ec4e 7cbd 4ddc 8abc
000000e0: 638c 14bd d084 3f3c d712 2b3d fc10 09bd
000000f0: cb86 433d 9625 2fbc b3f4 253d e71d 78bd
00000100: 5309 41bd bbc5 a5bc c92f 713c 8a40 e83d
00000110: baac 50bb 4418 183d 16a0 8f3c caae 22ba
00000120: b3c6 f63c 6c50 d5bc 335c 72bc 48ee 26bd
00000130: e5ba d5bc 7dbf 223c 4925 adbe d470 da3c
00000140: e09e 603d be59 27bc 3cbc d8bb 7af3 2e3f
00000150: 9c84 8dbc 574e 7b3c 22e4 803c 9fc6 d4bc
00000160: bdb8 053c 2caa 09bd 5e4c 6cbf eb23 4cbb
00000170: 3399 3f3d 1151 e8bc 04d5 29bd 9119 01bd
00000180: 6562 edbc 2f86 12bd c43c aa3b 4974 413b
00000190: e3eb cdbc f14c f9bc 53f2 4c3a 7b31 de3c
000001a0: 5481 72bc 07b7 e3bc dcd4 38bd 5f37 e9bc
000001b0: 175b 4fbc f321 c53c 6f12 5dbd 8d8d b53a
000001c0: 869c bfbb 47bd 9fbd 98b6 27bd 9951 103c
000001d0: 993c 63bd bea2 80bc 9efd 02bd c176 96bc
000001e0: 60b1 a1bc 8546 48bd 28e4 813c f174 803c
000001f0: 5f9a 4abd 341e 5ebc bc19 9e3c c23b 7ebc
00000200: 0421 e0bc 4c72 74bc fdd4 37bd 202b 1b3d
00000210: 13ee a8bd 1c3a 85bf 5491 653b f6f2 d03c
00000220: aa8f 663e 9825 7bbc ed94 223c 5531 cc3f
00000230: 71ba a43c 1a09 3dbd 98a8 3abc da64 cf3f
00000240: 038a cdbd c408 61bd 520b 47bf f890 15bd
00000250: de69 27bd 510d 053d 3b8b fcbc 86ae a8bc
00000260: 54c3 2c3d 1331 b1bc ff43 63bc 4f27 0abd
00000270: c193 18bd fc2d b7bb 4964 fbbc 08e3 e93e
00000280: d02b ebbb afb3 61bd b3e6 72bd c93c 8d3c
00000290: 521d 6cbd e673 8e3c 9d75 f7bc 7e82 4d3b
000002a0: 5cab 363c aa1d 19be c66a 81bd 8346 dc3c
000002b0: 48ee 94bc 0ac9 91bd 1c91 fdbc dcea 82bd
000002c0: 616a 0fbd e78d 6b3f 6fb0 3abd cd5c 73bd
000002d0: c2ac f43d 553e 483b c72d 213d 2b71 3cbd
000002e0: 0d6b 64bc 8690 d2ba 80a8 b1bd ce40 23bd
000002f0: d530 50bd bae1 9a3c 41a8 87bd 43c3 063d
00000300: b254 84bd f716 66bd 3bdd 79bd 8cae d23a
00000310: ac3a afbf 1d9e 61bc 5375 8cbd ddcc 2d3c
00000320: 85d5 423d 4205 f03c 7745 aebb 8f81 92bb
00000330: 64dd 1b3d 2081 dbbc 47e5 71bc 036f 9a3e
00000340: 424c 283c a875 98bf 4894 0fbd ae4d dbbd
00000350: 582c e03b 3dfa 173d 23a1 01bd b6e7 9fbb
00000360: c305 a9bb 9a18 34bd 7a93 87ba 5d45 d23c
00000370: e641 fb3c 413d b0bd cf3c a4bc 33cb c5bc
00000380: 1956 ad3e 8949 603d 8944 30bc 41c4 993b
00000390: 1370 3ebd ddeb 2e3f 8e81 e4bd 6db7 b33d
000003a0: 3778 dbbc 13a4 163d a45b 88bd 988c fe3c
000003b0: a81b c2bc 074e 2bbd b0d7 83bd 37fc e73f
000003c0: d00d 0ebd 27dc 9dba 6899 88bd ba2f a1bd
000003d0: 07ce b0bc 0d83 69bd 2d75 3e3d e4f8 71bd
000003e0: c9d7 8cbd db99 51be ff7d 5a3c f73a 90bb
000003f0: b9b0 d33c 45ec d1bc fe23 0c3c c675 0ebd

l3.weight f4 [256, 256]
-0.022059642 -0.02039574 -0.061971135 0.019821644 0.017626755 -0.02064009 0.050892778 -0.059444636
0.024911195 -0.003968415 -0.0075201886 -0.023148932 -0.009421311 -0.037510097 0.031544246 0.043623313
0.019222423 0.03703957 0.0053781196 0.03605757 0.052440673 -0.05616627 -0.0007795617 -0.003939688
-0.016792655 -0.044657208 0.0060425475 -0.039759107 0.0005556494 -0.026078798 -0.022399778 0.035135552
0.006651625 0.022602826 0.027472198 -0.061613135 0.04829123 -0.04924383 0.04381503 0.0040068263
-0.028516203 -0.0351431 0.04136227 -0.019717164 -0.030851692 -0.0020695627 0.05890941 0.01479432
-0.021377036 -0.052371792 0.0155765265 -0.047887422 0.040164046 -0.041821525 -0.027282022 -0.029038966
0.011631012 0.02675528 -0.048283935 0.014339268 -0.041545242 -0.0008752328 0.04543004 0.05469712
-0.0123457685 -0.045177244 -0.016658157 0.004063768 -0.060121324 0.003675431 -0.031746373 -0.011371188
-0.02889141 -0.03822451 0.053017586 -0.015438065 0.006552778 -0.0012932569 0.029192671 -0.07578716
0.031608984 -0.04638227 -0.013255678 -0.047972247 -0.057665795 -0.043550707 -0.014314741 0.012878932
0.03600464 -0.050120786 -0.026508935 -0.061961003 -0.04658281 -0.058617353 -0.028271966 -0.017881162
0.024899952 0.055733234 -0.0291074 -0.0067126155 -0.03999868 0.038111575 -0.053495802 0.0032293275
-0.04591815 -0.018193327 -0.033330917 0.023021825 0.04063405 0.029023752 -0.0015656278 -0.012159012
-0.028211817 0.024488127 0.060121804 0.027980842 0.028561383 0.038290054 -0.016476113 -0.05503933
-0.012722112 0.021410398 0.0135780275 0.011411124 -0.018654354 -0.05231674 0.0051518306 -0.017665984
-0.013310336 -0.02588819 -0.03405758 -0.038929634 -0.044254605 -0.021814184 -0.0512402 -0.03314372
-0.0005922628 0.0054907277 -0.020351533 -0.021781433 0.0035984144 0.002490051 -0.02784992 0.028392196
-0.0406259 -0.049049705 0.041273914 -0.040081915 0.029704615 0.05946067 0.040581584 -0.058658727
0.036390748 0.036607184 0.05466167 0.054688282 -0.0040270314 -0.019867219 0.044436485 0.06122455
0.03972359 -0.0038488135 -0.020340174 -0.038772278 -0.009434901 -0.016109362 -0.053491466 -0.010613352
0.025017336 0.038769715 -0.049537588 -0.046612985 0.0017905906 -0.036951743 0.034870453 -0.043376565
-0.012942225 0.013680705 0.013428949 -0.045119256 -0.048505697 0.05440946 0.057006165 -0.02222319
0.0355682 -0.037303217 0.062177822 0.029645786 -0.026831903 -0.055484205 -0.020165816 -0.036229134
-0.03453006 0.015951194 -0.05594587 0.036465615 -0.058308102 -0.04144662 0.023530647 0.033356696
0.0072932765 0.01978354 -0.05477295 -0.060064353 0.051563904 0.024505012 -0.033006497 -0.06582902
-0.05535502 -0.05719558 0.030597128 -0.0524024 -0.0014767721 -0.021828033 0.047653392 -0.033933163
-0.036514986 -0.05432739 0.02921293 0.032953948 -0.02071648 -0.045042746 -0.03562948 -0.05236037
-0.02405268 0.01110854 0.040344328 0.034664646 0.0068790093 -0.06384527 -0.06403928 -0.03641089
-0.051151678 -0.06089551 -0.04206136 -0.01922553 0.0096389875 -0.028654493 -0.04484613 -0.014120308
0.010150887 0.044953123 -0.05479437 -0.013390325 -0.0028512105 0.019680046 0.062372565 -0.00027174503
-0.005437061 0.035596974 0.013971537 -0.040366553 0.03429515 -0.0045388374 -0.04153113 -0.03537678
00000000: 6cb6 b4bc f814 a7bc 72d5 7dbd 0061 a23c
00000010: fc65 903c 6815 a9bc f274 503d 387c 73bd
00000020: 9012 cc3c 7a09 82bb ea6b f6bb d4a2 bdbc
00000030: d85b 1abc 30a4 19bd 8a34 013d 5cae 323d
00000040: 5878 9d3c ceb6 173d f03a b03b 1ab1 133d
00000050: 08cc 563d 9a0e 66bd 805b 4cba 8018 81bb
00000060: c090 89bc 7aea 36bd 9000 c63b 72da 22bd
00000070: 00a9 113a 34a3 d5bc bd7f b7bc 4cea 0f3d
00000080: e0f5 d93b 9029 b93c 600d e13c 0e5e 7cbd
00000090: 06cd 453d e6b3 49bd 6477 333d b24b 833b
000000a0: d09a e9bc 36f2 0fbd 7c6b 293d e485 a1bc
000000b0: b0bc fcbc 80a1 07bb fe4a 713d e063 723c
000000c0: e51e afbc ce83 56bd b034 7f3c 9a25 44bd
000000d0: 0e83 243d 0c4d 2bbd 8c7e dfbc 20e3 edbc
000000e0: 0090 3e3c e42d db3c 60c5 45bd 40ef 6a3c
000000f0: 582b 2abd e16f 65ba da14 3a3d 160a 603d
00000100: e845 4abc c60b 39bd b076 88bc 5b29 853b
00000110: c741 76bd 80df 703b 7c08 02bd 384e 3abc
00000120: aead ecbc 4e91 1cbd f828 593d f0ef 7cbc
00000130: b0b8 d63b 8082 a9ba 7825 ef3c 4c36 9bbd
00000140: 6c78 013d 56fb 3dbd 582e 59bc 8c7e 44bd
00000150: f832 6cbd 3a62 32bd 6088 6abc 2802 533c
00000160: 9a79 133d 744b 4dbd 4429 d9bc d2ca 7dbd
00000170: 9ecd 3ebd c018 70bd 9c9a e7bc 847b 92bc
00000180: fcfa cb3c 8848 643d a472 eebc 80f5 dbbb
00000190: a8d5 23bd e21a 1c3d 6a1e 5bbd 20a3 533b
000001a0: ac14 3cbd 2c0a 95bc 0086 08bd 4498 bc3c
000001b0: e46f 263d 38c3 ed3c c035 cdba 9836 47bc
000001c0: 781c e7bc 539b c83c 4842 763d 1438 e53c
000001d0: 90f9 e93c 08d6 1c3d eaf8 86bc ec70 61bd
000001e0: 6870 50bc dc64 af3c 6076 5e3c b9f5 3a3c
000001f0: 04d1 98bc 144a 56bd b0d0 a83b 41b8 90bc
00000200: 9813 5abc 7813 d4bc f67f 0bbd ae74 1fbd
00000210: 5144 35bd a9b3 b2bc 3ee1 51bd b6c1 07bd
00000220: 1542 1bba 90eb b33b 42b8 a6bc fa6e b2bc
00000230: 60d3 6b3b 2030 233b 8425 e4bc c096 e83c
00000240: 5867 26bd 58e8 48bd d60e 293d ef2c 24bd
00000250: 1857 f33c 088d 733d e038 263d 2244 70bd
00000260: 770e 153d 6af1 153d eae4 5f3d d200 603d
00000270: 30f5 83bb 94c0 a2bc 0803 363d 98c6 7a3d
00000280: 34b5 223d 603c 7cbb 70a0 a6bc aecf 1ebd
00000290: d894 1abc c8f7 83bc de19 5bbd a0e3 2dbc
000002a0: 28f1 cc3c fecc 1e3d ede7 4abd 42ed 3ebd
000002b0: 40b2 ea3a b65a 17bd 52d4 0e3d a0ab 31bd
000002c0: a00b 54bc 0925 603c 1805 5c3c f8ce 38bd
000002d0: e9ad 46bd 74dc 5e3d 4c7f 693d 680d b6bc
000002e0: f6af 113d 42cb 18bd 2cae 7e3d b8db f23c
000002f0: 94ce dbbc 6843 63bd c832 a5bc 0065 14bd
00000300: 646f 0dbd 14ac 823c 7f27 65bd f85c 153d
00000310: 7ad4 6ebd eec3 29bd 58c3 c03c 08a1 083d
00000320: 70fc ee3b 1711 a23c 9a59 60bd 0a06 76bd
00000330: ac34 533d bcbe c83c d231 07bd 5ed1 86bd
00000340: f2bb 62bd ea45 6abd d4a6 fa3c e6a3 56bd
00000350: 4090 c1ba b4d0 b2bc 3430 433d 80fd 0abd
00000360: bd90 15bd 6686 5ebd f44f ef3c b8fa 063d
00000370: 9cb5 a9bc be7e 38bd 38f0 11bd d477 56bd
00000380: 200a c5bc 9800 363c 1840 253d 84fc 0d3d
00000390: 5069 e13b 4fc1 82bd 0727 83bd 9623 15bd
000003a0: 6c84 51bd 926d 79bd 8848 2cbd dc7e 9dbc
000003b0: d8ec 1d3c d4bc eabc 93b0 37bd dd58 67bc
000003c0: e84f 263c c420 383d 1070 60bd 1863 5bbc
000003d0: 60db 3abb 0c38 a13c 607a 7f3d 0079 8eb9
000003e0: 6029 b2bb 22ce 113d e0e8 643c 6657 25bd
000003f0: 1279 0c3d 87ba 94bb 8c1c 2abd 3ee7 10bd

l3.bias f4 [256]
-0.021300612 0.18436113 0.07694295 -0.04563396 -0.0049125506 0.13117687 0.02067149 0.026890516
-0.027365439 -0.05186315 0.0549632 0.08163868 0.030765751 -0.017473618 0.017306041 0.031088077
0.008089663 0.02309493 -0.04409704 -0.0368807 0.28730473 -0.066796616 -0.0655774 0.043681763
0.05301326 0.06507506 0.20199041 -0.0013099695 0.16333856 -0.09462317 -0.072241515 -0.11069679
0.17003457 -0.12430848 -0.020049606 -0.054412007 -1.6766742 0.011674456 -0.04879474 -0.068027295
-0.018690566 -0.022763997 4.7437385e-05 0.047041815 -0.048692208 0.053665824 0.04597763 0.0069534187
-0.09251276 0.043847334 -0.05611973 0.006340751 -0.031131838 -0.043925326 0.046979535 0.049606018
-0.073189154 0.08012575 -0.0458509 0.059215363 0.009897707 -0.0069725937 -0.07690179 -0.08320531
-0.013421026 -0.119040646 0.1138957 0.14978096 -0.060246304 0.014314137 -0.04188283 0.04010316
-0.006244787 0.5091165 -0.047494132 -0.07419606 -0.013722692 0.047616992 -0.022202788 -0.054975327
0.16943097 0.01129714 0.18014397 -0.01851193 0.020540256 -0.006702078 0.13995679 -0.004663947
-0.025464898 -0.06909567 -0.005291317 -0.021184316 0.25460744 -0.0606758 0.0027183774 -0.026424265
-0.0051487074 -0.0745092 -0.012273726 0.087302424 -0.00880316 -0.063942686 0.0012104685 -0.03517104
-0.0023306936 0.014125576 -0.022257173 -0.03912601 0.037646294 0.027537776 -0.002068782 -0.076200984
-0.07037422 -0.022398654 -0.12497522 -0.077473834 0.13620159 -0.053435598 -0.050994053 0.13379025
-0.010015603 -0.06940201 -0.03210132 -0.06165243 0.20061743 -0.014215705 -0.07250648 0.14775355
-0.076750696 -0.03287158 -0.043175627 -0.0110095125 -0.015089996 -0.004294598 -0.072491586 -0.028908301
-0.023656925 -0.048930373 -0.006771087 7.75002e-05 -0.05115946 0.0069725504 -0.048253935 -0.001896313
-0.08648059 0.19721709 -0.03928623 -0.056904264 0.14158538 -0.0011883705 -0.08257058 -0.04516252
-0.060114864 -0.037796825 -0.045810368 0.00032847712 0.10297148 0.025979172 0.11914351 -0.03353029
0.035316255 0.02522076 0.012366754 0.004735956 -0.053311322 0.12812015 -0.085126795 -0.055376504
0.027689708 0.027934141 0.17779219 -0.0023594801 -0.029347157 0.18972121 0.12331034 0.053635404
0.13993001 -0.045299143 0.1104358 -0.03516577 -0.058682315 0.0021176836 0.0018660703 0.035115875
0.08995333 -0.012915285 0.63073885 -0.06999384 0.016293786 -0.012318514 0.06054847 -1.4973364
0.07591293 -0.06457238 -0.044444147 0.036900997 0.097140364 -0.006731807 -0.026892167 -0.033797946
0.15663293 -0.05306959 -0.009253614 0.0155696925 0.17467959 0.02996359 0.09585275 0.1508598
0.04477448 -0.030589633 -0.0065380894 -0.050884355 -0.06936457 -0.040331908 -0.027581753 -0.022986935
-0.016796112 4.130506e-05 -0.11665174 0.014992373 -0.027190054 -0.0059311823 -0.033403732 -0.043840453
-0.02229769 0.17525652 -0.027000677 -0.030708572 -0.04237698 -0.008684146 -0.051030423 -0.02324568
0.0018510246 0.041267153 -0.04148472 -0.07105071 -0.055329245 -0.033407617 0.19500573 0.011772534
0.026863359 -0.23724462 0.16542107 0.035474382 -0.056315046 -0.021671824 -0.004500702 0.71000004
0.007920928 -0.0062353075 0.029706957 -0.06331263 0.13260566 0.016480668 -0.029728202 0.17819361
00000000: 9f7e aebc 2ac9 3c3e 4494 9d3d adea 3abd
00000010: 76f9 a0bb 3b53 063e 4257 a93c 8049 dc3c
00000020: 7c2d e0bc 746e 54bd 1821 613d 2e32 a73d
00000030: 7508 fc3c d524 8fbc 66c5 8d3c 6cac fe3c
00000040: 828a 043c 9431 bd3c 199f 34bd 3810 17bd
00000050: 9b19 933e aacc 88bd 724d 86bd a6eb 323d
00000060: 6f24 593d 1346 853d 93d6 4e3e 48b3 abba
00000070: 3942 273e cbc9 c1bd 5cf3 93bd 00b5 e2bd
00000080: 8b1d 2e3e 7295 febd 123f a4bc 20df 5ebd
00000090: 439d d6bf 3846 3f3c fedc 47bd e551 8bbd
000000a0: f51c 99bc 907b babc 81f7 4638 ebae 403d
000000b0: 7b71 47bd b2d0 5b3d 0a53 3c3d 81d9 e33b
000000c0: 5477 bdbd 4399 333d cddd 65bd 13c6 cf3b
000000d0: 3208 ffbc 0beb 33bd 9d6d 403d ae2f 4b3d
000000e0: 32e4 95bd f818 a43d 27ce 3bbd cf8b 723d
000000f0: fe29 223c 5b7a e4bb b07e 9dbd 8c67 aabd
00000100: dde3 5bbc 95cb f3bd 2642 e93d 2e60 193e
00000110: d4c4 76bd d885 6a3c 558d 2bbd 3643 243d
00000120: 12a1 ccbb 7555 023f 3589 42bd 1bf4 97bd
00000130: 24d5 60bc 090a 433d 9fe2 b5bc cf2d 61bd
00000140: 507f 2d3e a417 393c a977 383e 55a6 97bc
00000150: 0a44 a83c 1b9d dbbb d550 0f3e 06d4 98bb
00000160: c39b d0bc 0882 8dbd c962 adbb bb8a adbc
00000170: e85b 823e 3087 78bd ce26 323b b377 d8bc
00000180: 7db6 a8bb 4898 98bd bd17 49bc 9dcb b23d
00000190: 213b 10bc 62f4 82bd 95a8 9e3a 820f 10bd
000001a0: 8dbe 18bb f66e 673c ad54 b6bc 9842 20bd
000001b0: 0033 1a3d e796 e13c 6794 07bb 430f 9cbd
000001c0: 5c20 90bd 627d b7bc 02f3 ffbd 9aaa 9ebd
000001d0: 6e78 0b3e 49df 5abd 24df 50bd 5000 093e
000001e0: 7c18 24bc a422 8ebd ac7c 03bd 4287 7cbd
000001f0: a86e 4d3e fde8 68bc 477e 94bd b54c 173e
00000200: 782f 9dbd 5aa4 06bd edd8 30bd 3e61 34bc
00000210: 083c 77bc b3b9 8cbb 7876 94bd 1ad1 ecbc
00000220: 2bcc c1bc 376b 48bd ffdf ddbb 9a87 a238
00000230: 958c 51bd fe79 e43b eba5 45bd b58d f8ba
00000240: bc1c b1bd 47f3 493e 99ea 20bd 7214 69bd
00000250: c2fb 103e 19c3 9bba c41a a9bd 56fc 38bd
00000260: 013b 76bd d8d0 1abd a7a3 3bbd 7437 ac39
00000270: b6e2 d23d 46d2 d43c 8301 f43d 0f57 09bd
00000280: c7a7 103d c49b ce3c ed9d 4a3c 1430 9b3b
00000290: f95c 5abd ee31 033e f556 aebd 79d2 62bd
000002a0: 87d5 e23c 24d6 e43c 280f 363e 82a1 1abb
000002b0: 7369 f0bc 4746 423e 228a fc3d ccb0 5b3d
000002c0: d049 0f3e 988b 39bd 2a2c e23d fc09 10bd
000002d0: de5c 70bd d6c8 0a3b ee96 f43a aad5 0f3d
000002e0: 7439 b83d a29a 53bc 1a78 213f ee58 8fbd
000002f0: 8c7a 853c 98d3 49bc ac01 783d b8a8 bfbf
00000300: 3d78 9b3d 863e 84bd 110b 36bd 8025 173d
00000310: 87f1 c63d 7d96 dcbb f64c dcbc b76f 0abd
00000320: 6264 203e 805f 59bd 789c 17bc 0618 7f3c
00000330: 35df 323e 3476 f53c 724e c43d fe7a 1a3e
00000340: 7265 373d 1c97 fabc 783d d6bb 1d6c 50bd
00000350: 030f 8ebd 1233 25bd 21f3 e1bc 194f bcbc
00000360: 0098 89bc f83e 2d38 1ce7 eebd 92a2 753c
00000370: adbd debc 5d5a c2bb 5ad2 08bd 0c92 33bd
00000380: a5a9 b6bc 7276 333e 8630 ddbc 8b90 fbbc
00000390: 7c93 2dbd f347 0ebc 4705 51bd b96d bebc
000003a0: 149e f23a bf07 293d e2eb 29bd 0983 91bd
000003b0: eba0 62bd 6dd6 08bd 95af 473e 96e1 403c
000003c0: 8c10 dc3c 41f0 72be 2464 293e 964d 113d
000003d0: 9baa 66bd 1c89 b1bc a07a 93bb 90c2 353f
000003e0: c8c6 013c 8d51 ccbb 015c f33c 0daa 81bd
000003f0: c7c9 073e 7702 873c 8f88 f3bc 6378 363e

l4.weight f4 [1, 256]
0.0066534914 0.09308242 0.08437926 -0.04833521 0.006534363 0.04207595 -0.055030018 -0.050345823
-0.009374648 -0.011022815 -0.03346638 -0.39638785 -0.026744934 0.0021098282 -0.0074611683 -0.0073563964
-0.034586217 0.0009208857 0.00017596233 0.0038302948 -0.08955648 0.031348277 0.01595994 -0.048279263
0.008201356 0.04296342 0.09496522 0.0011112512 0.09488641 -0.0013884656 -0.0060625477 0.016326826
0.08272287 -0.013354444 0.004251925 -0.0117737185 0.10323359 0.018642968 -0.034987226 0.060068328
0.004212908 -0.059558786 0.033446528 -0.028286625 0.03294948 0.0055760927 0.0059078634 -0.0020896795
-0.010298798 -0.03108518 -0.015465486 -0.00066382566 -0.05978505 -0.009772653 0.00056453544 -0.039992984
-0.0049742633 -0.1172774 -0.03258965 0.05273862 -0.003173552 -0.016130488 -0.0037212637 -0.018528776
-0.011981544 0.02415588 0.056022104 0.05471884 -0.03518767 -0.017942108 -0.0032977804 0.010776304
-0.015551719 -0.06464526 0.023701208 -0.008373987 -0.0036247796 -0.011747146 0.03537293 -0.023916865
0.07708531 -0.013602548 0.100915164 -0.03921211 -0.024872225 -0.024318231 0.11054855 0.043843016
-0.005369769 -0.004431386 -0.0458099 -0.0014883864 0.068749934 -0.030315438 -0.009829875 0.0034950322
-0.028873097 0.021089543 0.030072475 -0.10642421 -0.13244137 -0.008002333 -0.009083417 -0.020033691
-0.007837099 -0.002567221 -0.023880692 -0.01895645 -0.031898893 -0.021466838 -0.04758357 0.026967758
-0.0041530603 -0.021947615 0.020154824 -0.013938011 0.0758218 -0.008922691 -0.057608727 0.097476974
0.013960053 -0.002705958 -0.046240855 -0.0070303627 0.07021004 -0.008028396 -0.016406214 0.093046315
0.0064951926 0.032396603 0.04083715 -0.043877326 0.045489285 -0.028195454 -0.014499605 0.03071715
0.0038306464 0.02299826 0.00994328 0.040566158 -0.007840833 -0.022459792 -0.00860057 -0.016509756
0.005261982 0.07592819 -0.027353985 -0.052128892 0.07890891 0.0044712443 0.049604323 0.010966203
-0.019004919 0.008900926 0.007747618 -0.0056709833 0.06743277 -0.02202461 0.04293813 0.08970308
-0.02005414 -0.051790025 -0.030838361 -0.027343828 -0.0127529595 0.117152736 0.011889363 0.024490278
-0.036156517 0.049741074 0.116642386 0.009522629 0.016569275 0.096712105 0.112139046 -0.0011691533
0.113494866 0.008765054 0.125939 0.020934306 0.008068967 -0.008421368 0.0031411976 -0.048316836
0.083511725 -0.0069164853 0.06816208 -0.09194639 -0.01814585 0.0026073013 -0.025804587 0.1306882
0.06255767 -0.011997708 0.042112257 -0.0017726535 0.078287706 -0.0012118773 0.011312876 -0.0030481357
0.07787657 -0.03290246 -0.02286671 -0.009644279 0.08233485 -0.04132975 0.092765115 0.09287197
-0.045342628 -0.003423202 0.012461651 0.0066133873 -0.043568242 -0.03561197 -0.020455921 0.022090204
-0.0027241725 -0.0017681977 -0.008573841 0.00086394465 -0.013042844 -0.020029666 -0.03349425 0.017880915
-0.039116602 0.09336693 -0.038283348 -0.014345906 0.05412998 0.0050279386 0.33380324 -0.0146845095
-0.044557925 0.0315704 0.07022328 0.03447238 -0.030837847 -0.030970678 0.092001796 0.12727188
-0.015811907 0.039079443 0.10417117 -0.008051624 -0.0040807235 0.022574877 -0.019347223 -0.084670864
-0.011937067 0.045853626 0.00089982135 -0.030538676 0.04790043 0.013161149 -0.011390364 0.105717674
00000000: 8805 da3b ffa1 be3d 09cf ac3d 24fb 45bd
00000010: 361e d63b d557 2c3d 2867 61bd 6c37 4ebd
00000020: 2098 19bc 0999 34bc 0b14 09bd 59f3 cabe
00000030: 3118 dbbc 0b45 0a3b d17c f4bb ed0d f1bb
00000040: 47aa 0dbd 9867 713a 8782 3839 af05 7b3b
00000050: 6369 b7bd 0d67 003d 6cbe 823c 7ac0 45bd
00000060: fb5e 063c 69fa 2f3d 207d c23d 67a7 913a
00000070: ce53 c23d 2dfd b5ba 56a8 c6bb d6bf 853c
00000080: 9c6a a93d 99cc 5abc bb53 8b3b 8ee6 40bc
00000090: 226c d33d 23b9 983c c44e 0fbd 350a 763d
000000a0: 6f0c 8a3b eaf3 73bd 3aff 083d 5ab9 e7bc
000000b0: 09f6 063d a8b7 b63b c096 c13b 01f3 08bb
000000c0: 4abc 28bc 59a6 febc f362 7dbc 9604 2eba
000000d0: 2be1 74bd 7a1d 20bc 55fd 133a afcf 23bd
000000e0: 25ff a2bb 222f f0bd ba7c 05bd 7404 583d
000000f0: 5efb 4fbb 1624 84bc 72e0 73bb a9c9 97bc
00000100: 3d4e 44bc 8de2 c53c 6f77 653d dd20 603d
00000110: f220 10bd 54fb 92bc 931f 58bb 188f 303c
00000120: a3cc 7ebc bc64 84bd 0929 c23c 0c33 09bc
00000130: b68d 6dbb 1a77 40bc 35e3 103d 4ded c3bc
00000140: e7de 9d3d 39dd 5ebc 9cac ce3d e19c 20bd
00000150: d6c0 cbbc 0737 c7bc 4767 e23d bc94 333d
00000160: e3f4 afbb 2935 91bb 29a3 3bbd f615 c3ba
00000170: c4cc 8c3d 1558 f8bc 7c0d 21bc e90c 653b
00000180: 4687 ecbc fac3 ac3c 8d5a f63c f0f4 d9bd
00000190: b69e 07be 381c 03bc 9dd2 14bc b21d a4bc
000001a0: 2d67 00bc d23e 28bb 71a1 c3bc 8f4a 9bbc
000001b0: 6aa8 02bd 39db afbc fde6 42bd 7deb dc3c
000001c0: 6516 88bb 7ccb b3bc bb1b a53c 415c 64bc
000001d0: 7648 9b3d 7b30 12bc 21f7 6bbd 02a2 c73d
000001e0: b5b8 643c 7156 31bb 0d67 3dbd f55e e6bb
000001f0: 48ca 8f3d 8989 03bc 5366 86bc 118f be3d
00000200: a0d5 d43b 4db2 043d db44 273d b6b8 33bd
00000210: f952 3a3d 27fa e6bc c08f 6dbc 88a2 fb3c
00000220: 950b 7b3b d966 bc3c 24e9 223c b328 263d
00000230: d676 00bc 99fd b7bc 68e9 0cbc 783f 87bc
00000240: b46c ac3b 3d80 9b3d 7715 e0bc 1b85 55bd
00000250: ff9a a13d 8483 923b e72d 4b3d 97ab 333c
00000260: 34b0 9bbc 31d5 113c bbdf fd3b a8d3 b9bb
00000270: 311a 8a3d f46c b4bc e5df 2f3d 40b6 b73d
00000280: 9448 a4bc c721 54bd bba0 fcbc 2a00 e0bc
00000290: caf1 50bc c6ed ef3d 9acb 423c d69f c83c
000002a0: db18 14bd 4cbd 4b3d 34e2 ee3d cd04 1c3c
000002b0: 4abc 873c ff10 c63d 28a9 e53d 463e 99ba
000002c0: ff6f e83d 4d9b 0f3c 27f6 003e 6c7e ab3c
000002d0: b333 043c c7f9 09bc 8ddc 4d3b e0e7 45bd
000002e0: 3208 ab3d afa3 e2bb 9098 8b3d 644e bcbd
000002f0: 9ba6 94bc 42df 2a3b 2464 d3bc 21d3 053e
00000300: 3c1e 803d 0992 44bc e77d 2c3d 6258 e8ba
00000310: 4e55 a03d dbd7 9eba a459 393c 3bc3 47bb
00000320: c07d 9f3d bbc4 06bd f752 bbbc 0a03 1ebc
00000330: 2d9f a83d 6249 29bd a3fb bd3d a933 be3d
00000340: 31b9 39bd cd57 60bb f42b 4c3c 1db5 d83b
00000350: 9d74 32bd dbdd 11bd 2d93 a7bc 84f6 b43c
00000360: 0888 32bb dfc2 e7ba 4c79 0cbc 587a 623a
00000370: a7b1 55bc 4115 a4bc 4431 09bd ff7a 923c
00000380: bb38 20bd 2937 bf3d 00cf 1cbd 170b 6bbc
00000390: 66b7 5d3d 68c1 a43b 42e8 aa3e 4c97 70bc
000003a0: 5f82 36bd f74f 013d 39d1 8f3d e932 0d3d
000003b0: a79f fcbc 38b6 fdbc 706b bc3d 8f53 023e
000003c0: f987 81bc c411 203d b257 d53d f5ea 03bc
000003d0: 97b7 85bb f3ee b83c 117e 9ebc eb67 adbd
000003e0: b093 43bc 03d1 3b3d fde1 6b3a 3f2c fabc
000003f0: 3e33 443d dca1 573c a69e 3abc 8282 d83d
