models/GMI_pretrained/GMI_GPM_channel_predictor_89V_nonocean.pt (torch, 545332 bytes, 7 tensors)

l1.weight f4 [256, 13]
0	0x3e4e7928	0.20163405
1	0x3cc0f54f	0.023554472
2	0x3e9f4303	0.31105813
3	0xbe2b74be	-0.16743752
4	0xbcc69927	-0.02424295
5	0xbf19810b	-0.5996253
6	0xbdc500d3	-0.09619298
7	0x3ed3e6b5	0.41386953
8	0xbdb9fb2d	-0.09081111
9	0xbdcb767c	-0.099347085
10	0xbe28238c	-0.1641981
11	0x3ea06c82	0.31332785
12	0x3e6ce4c6	0.23134145
13	0xbdae53bd	-0.085120656
14	0x3e8bc806	0.27301043
15	0x3d2c626c	0.04208605
16	0x3da1bc5b	0.07897254
17	0xbe9505ec	-0.2910608
18	0x3e3fe1e7	0.18738519
19	0x3debac78	0.11507505
20	0xbf0bf045	-0.546635
21	0x3da9e971	0.082964785
22	0x3d32f73a	0.043692805
23	0xbc884dfb	-0.016638746
24	0x3e1a599c	0.15073246
25	0x3ec07b7c	0.3759421
26	0xbe6bca30	-0.23026347
27	0x3ddd5772	0.108076945
28	0xbd2129c3	-0.039346468
29	0x3dac8fa7	0.08425837
30	0x3e5bcfd3	0.21465997
31	0x3e5f7bd8	0.21824586
32	0xbe8712c2	-0.263815
33	0xbe8c5a47	-0.27412626
34	0xbd0785ce	-0.03308659
35	0xbc59f946	-0.01330406
36	0xbe8b24fb	-0.2717665
37	0x3e522b3f	0.2052431
38	0xbe000e82	-0.12505534
39	0xbe7c23f2	-0.24623087
40	0x3d4a39df	0.049371596
41	0xbe399b80	-0.18125725
42	0xbe4ed867	-0.20199738
43	0x3cf15420	0.02945906
44	0x3e42061e	0.18947646
45	0x3e46a692	0.19399479
46	0x3d92b978	0.071642816
47	0x3db9dfd9	0.09075899
48	0x3dc413eb	0.095741116
49	0x3d320d9f	0.04347002
50	0xbe981749	-0.29705265
51	0xbeafcc0a	-0.34335357
52	0xbcd6a69d	-0.026202494
53	0x3c836651	0.01604
54	0x3e34263b	0.17592709
55	0x3d8daa83	0.06917288
56	0x3e03bbff	0.12864684
57	0xbed4849a	-0.41507417
58	0x3be16a9f	0.0068791653
59	0xbe6ab8e1	-0.22922088
60	0xbe3ac015	-0.18237336
61	0x3e7334e7	0.2375065
62	0x3dbffa1b	0.09373876
63	0x3e067241	0.13129522
64	0xbd27a8d6	-0.0409325
65	0xbd249a44	-0.04018618
66	0x3c708f92	0.014682667
67	0x3cef1cd3	0.02918855
68	0x3d5a2dd3	0.053266358
69	0xbe6460e8	-0.22302592
70	0x3e9387e1	0.28814605
71	0x3d5b0509	0.0534716
72	0x3e5fe7f2	0.21865824
73	0x3e486ca1	0.19572689
74	0xbea2f57c	-0.31827915
75	0xbc295469	-0.010335066
76	0x3e3d7362	0.18501046
77	0xbe47f2d8	-0.19526231
78	0xbd8c94ed	-0.06864343
79	0x3e314115	0.17309983
80	0x3e16c9ad	0.1472537
81	0x3dba81cb	0.09106787
82	0xbe274566	-0.16335067
83	0x3e103256	0.14081702
84	0xbdba923f	-0.091099255
85	0x3e9b9f78	0.30395103
86	0x3e8ea953	0.2786356
87	0xbb572aa6	-0.0032831817
88	0xbe79f6d0	-0.24410558
89	0xbe7b2547	-0.24525939
90	0xbe9c2ca7	-0.30502817
91	0xbe2f5ea0	-0.1712594
92	0x3da83a9c	0.08214304
93	0xbe7f7a11	-0.24948908
94	0xbe417746	-0.18893155
95	0xbe3192e9	-0.17341198
96	0xbe697fbe	-0.22802636
97	0x3e17c80e	0.14822409
98	0x3d8ec75d	0.06971619
99	0xbda75982	-0.08171369
100	0xbe816ac4	-0.25276768
101	0xbe212b59	-0.15739192
102	0x3e8d12d6	0.27553433
103	0xbb8031ba	-0.003912178
104	0xbdc7fc08	-0.09764868
105	0xbe10612d	-0.1409957
106	0x3e88bc65	0.26706234
107	0xbdaf21d1	-0.08551372
108	0xbd9dca1f	-0.07704567
109	0x3dea6536	0.11445086
110	0xbd3cc8c4	-0.046089903
111	0x3c4ee365	0.012627457
112	0x3e1ad7e2	0.15121415
113	0xbe6f43d3	-0.23365717
114	0xbe167819	-0.14694251
115	0x3c4b31ae	0.012401981
116	0x3e090619	0.13381232
117	0xbdc3f4e7	-0.09568196
118	0xbe161a9d	-0.1465859
119	0xbde02313	-0.1094419
120	0x3d77cbb0	0.060496986
121	0x3d633c9f	0.055477735
122	0xbc9a8022	-0.018859927
123	0xbdab4e83	-0.08364584
124	0x3e2a08d1	0.16604926
125	0xbd99c56d	-0.07508359
126	0xbe5d135e	-0.21589419
127	0xbdec1b45	-0.11528639
128	0xbdd5ead0	-0.104451776
129	0xbe12c50d	-0.14332981
130	0x3e5bd7d5	0.21469052
131	0x3dab5614	0.083660275
132	0x3e480c39	0.19535913
133	0x3d33bdd2	0.0438822
134	0x3de8f269	0.11374361
135	0xbed77b4a	-0.4208625
136	0xbeae48e7	-0.34039995
137	0x3ecfd4d6	0.40592068
138	0xbe6e22b8	-0.23255432
139	0x3e61ab18	0.22037923
140	0x3db7ccac	0.08974585
141	0xbeb1a4bc	-0.34695995
142	0x3d551795	0.052024443
143	0xbe8b6198	-0.27222896
144	0xbe84ff09	-0.25975826
145	0xbbd943ca	-0.0066303955
146	0x3e4237f6	0.1896666
147	0xbe802042	-0.2502461
148	0x3e67d1ce	0.22638628
149	0xbe0e5613	-0.13900022
150	0xbe803459	-0.25039938
151	0x3d032ba5	0.032024045
152	0xbdd411dc	-0.10354969
153	0xbe4686e1	-0.1938739
154	0xbe8bc4d5	-0.27298608
155	0xbe731c00	-0.2374115
156	0x3d395f55	0.04525693
157	0x3d2a691a	0.04160414
158	0x3e16d20b	0.14728563
159	0xbeae16f6	-0.34001893
160	0x3e4320c3	0.19055466
161	0x3eacf6d8	0.33782077
162	0xbe9ab059	-0.30212668
163	0xbdf70fc5	-0.12063555
164	0xbeff0b50	-0.49813318
165	0x3edd3c01	0.43209842
166	0xbd8ad9c1	-0.067798145
167	0x3d9f98ea	0.07792838
168	0x39a00ce9	0.00030527197
169	0x3e3ddb1c	0.18540615
170	0x3e452627	0.19252835
171	0x3dc0dc27	0.09416991
172	0x3e107700	0.14107895
173	0xbde557ad	-0.111983635
174	0xbeab8c10	-0.33505297
175	0xbe20d353	-0.15705614
176	0x3ee4acb1	0.44663003
177	0xbeadc6ad	-0.3394064
178	0x3b9bb9fc	0.0047523957
179	0x3d3eb03c	0.04655479
180	0xbe4b2783	-0.19839291
181	0x3cf15cca	0.02946319
182	0xbe07ed2f	-0.13274072
183	0x3e6786d8	0.22610033
184	0xbdb76658	-0.089550674
185	0xbe3c026b	-0.18360297
186	0x3dc7b48d	0.09751234
187	0xbe3332d7	-0.17499863
188	0x3dd4eba6	0.10396509
189	0xbe7994d4	-0.2437318
190	0x3d8b33ad	0.06796966
191	0xbdc3b2a6	-0.09555559
192	0xbe2465ba	-0.1605443
193	0xbdc90ca8	-0.09816867
194	0x3e1dc477	0.15406977
195	0xbe20dced	-0.15709276
196	0x3ca93148	0.020653382
197	0xbe3443fd	-0.1760406
198	0xbd12a93b	-0.035805922
199	0xbe553fee	-0.20825168
200	0xbcfc43dc	-0.030794077
201	0x3e01e5ac	0.12685269
202	0xbe277aaf	-0.16355394
203	0x3c1ca36a	0.009560445
204	0xbe806033	-0.25073394
205	0xbd1f08b5	-0.038826663
206	0x3e829bc2	0.2550946
207	0xbc27912f	-0.010227486
208	0x3df9470a	0.12171753
209	0xbe9d3458	-0.30703998
210	0x3e099502	0.13435748
211	0xbd9e654b	-0.07734164
212	0x3dda34d8	0.106546104
213	0x3de72e51	0.11288131
214	0xbd2e5a46	-0.04256656
215	0xbe0e19eb	-0.13877074
216	0xbe97120d	-0.2950596
217	0x3d96753a	0.07346578
218	0xbe8abfbf	-0.27099416
219	0x3d2df062	0.042465575
220	0x3d2a989f	0.041649457
221	0xbe4fcfe9	-0.20294155
222	0xbe012474	-0.12611562
223	0xbe144bac	-0.14481992
224	0xbe7a8903	-0.24466328
225	0xbe716b89	-0.23576178
226	0x3d5e2d66	0.054242514
227	0xbd29bb31	-0.041438285
228	0xbd22344d	-0.03960066
229	0x3d30ace7	0.043133643
230	0x3e86f3bc	0.2635783
231	0xbe589681	-0.21151163
232	0x3e752466	0.23939666
233	0x3d81ea5e	0.0634353
234	0xbdfa25e7	-0.122142605
235	0x3e511c31	0.2042091
236	0x3e449213	0.19196348
237	0xbe832d07	-0.2562029
238	0xbd19b5e9	-0.037527
239	0xbe6fb951	-0.23410536
240	0xbe3c22c1	-0.18372633
241	0xbe5754ba	-0.21028414
242	0x3cad5804	0.021160133
243	0xbe78dd39	-0.2430314
244	0x3d2cc746	0.04218223
245	0xbe7177de	-0.23580882
246	0xbe372072	-0.1788347
247	0x3e10dde3	0.14147143
248	0x3eb40ecf	0.35167548
249	0x3de083fc	0.10962674
250	0xbad43102	-0.0016188922
251	0x3db7066c	0.08936772
252	0x3eaf028c	0.3418163
253	0x3d26e212	0.04074294
254	0xbf23d4ef	-0.63996786
255	0xbcdd763b	-0.027033916

l1.bias f4 [256]
0	0xbf181b1c	-0.59416366
1	0xbdfc0f35	-0.12307588
2	0x3e08bb46	0.13352689
3	0x3daf6c43	0.08565571
4	0x3f5ea242	0.86966336
5	0x3da6a341	0.08136607
6	0xbd95588e	-0.07292281
7	0xbdb967a2	-0.090529695
8	0xbdf1b300	-0.1180172
9	0xbdeb41c7	-0.114871554
10	0x3f9bccd1	1.217188
11	0x3e55d345	0.20881374
12	0x3eb3f609	0.35148647
13	0x3e87976c	0.26482713
14	0xbe18adf4	-0.14910108
15	0xbdb337f2	-0.08750905
16	0xbd8fde07	-0.0702477
17	0xbe74e754	-0.2391637
18	0xbe1fe5ff	-0.1561508
19	0x3f3165c9	0.69295937
20	0xbe83791e	-0.25678343
21	0xbdc763ab	-0.09735807
22	0xbded5646	-0.11588721
23	0x3e31ab2c	0.17350453
24	0x3db10b19	0.08644695
25	0x3c2720b8	0.010200672
26	0xbfb1ee2b	-1.3900808
27	0xbe896a46	-0.26838893
28	0xbed944ed	-0.424354
29	0x3e422bf3	0.18962078
30	0x3ddca65e	0.107739195
31	0xbc8625e8	-0.016375497
32	0x3da6a4d3	0.081369065
33	0x3e66ab49	0.22526278
34	0xbe95375c	-0.29143798
35	0x3da4d169	0.08047754
36	0x3d35f12b	0.04441945
37	0xbeac2c9e	-0.3362779
38	0x3e06e44c	0.13173026
39	0xbe4d202e	-0.20031807
40	0x3db2650a	0.08710678
41	0xbe0aedce	-0.13567278
42	0x3dc6d4e7	0.09708577
43	0x3e69a9a2	0.22818616
44	0xbdce79f2	-0.10081853
45	0xbe88d4ce	-0.26724857
46	0x3d85e7aa	0.06538327
47	0x3fc96712	1.573458
48	0x3d3c2ce3	0.045941245
49	0x3e22e54b	0.15907781
50	0xbe42e4cc	-0.19032592
51	0xbe4936aa	-0.19649759
52	0xbec43c77	-0.3832738
53	0xbd566901	-0.052346233
54	0x3d04e15e	0.03244149
55	0xbe763e17	-0.24047123
56	0x3dcfb880	0.101426125
57	0xbe7f0426	-0.24903926
58	0xbd246bdd	-0.04014193
59	0x3df9bae7	0.12193852
60	0xbe076d23	-0.13225226
61	0x3f6bbd7a	0.92085993
62	0xbd15cd53	-0.036572766
63	0xbeb58f31	-0.3546081
64	0x3ee7c9f3	0.45271263
65	0x3dddb5bf	0.10825681
66	0xbe86f4b2	-0.26358563
67	0xbe85f1a5	-0.26160923
68	0xbd895c82	-0.067070976
69	0x3d9bff00	0.07616997
70	0xbdda1fbf	-0.10650586
71	0x3d8900e1	0.06689621
72	0x3db08205	0.08618549
73	0xbe7ee3f3	-0.24891643
74	0x3daefd08	0.08544356
75	0x3e1163d0	0.14198232
76	0x3e47dc05	0.19517525
77	0x3e43e70d	0.19131108
78	0xbdd1c882	-0.10243322
79	0x3cd23380	0.025659323
80	0xbea35456	-0.3190028
81	0xbe994995	-0.2993895
82	0xbe65915a	-0.22418728
83	0x3e4af95e	0.19821689
84	0x3e763798	0.24044645
85	0x3e84da1f	0.25947663
86	0x3d5a79de	0.053338878
87	0x3e4a45ee	0.19753239
88	0x3e586861	0.21133567
89	0x3b8d299a	0.004307938
90	0x3da55580	0.080729485
91	0x3c4d4968	0.012529708
92	0x3d9215c8	0.07133061
93	0x3f0f36e6	0.55943143
94	0xbe19b1aa	-0.1500918
95	0xbdcb417b	-0.09924599
96	0x3e3e9d4e	0.18614694
97	0x3dda8156	0.106692
98	0x3ebd71b8	0.37000823
99	0x3e201d77	0.1563624
100	0xbc43cedf	-0.011951177
101	0xbfa03a95	-1.2517878
102	0xbe0620f0	-0.13098502
103	0x3e88993c	0.2667941
104	0x3eb42af9	0.35189036
105	0xbf81ee01	-1.0150758
106	0x3fb9c2ae	1.4512537
107	0x3c7d9a88	0.015478738
108	0xbd649688	-0.05580762
109	0x3de2267d	0.11042497
110	0xbd87f5fb	-0.06638714
111	0x3e033b19	0.12815513
112	0xbe8a43e3	-0.27004918
113	0xbe67f0d5	-0.22650464
114	0xbd44e55b	-0.048070293
115	0xbe223e78	-0.15844142
116	0xbf5a1dff	-0.8520202
117	0x3e580c0b	0.21098344
118	0xbea4e8be	-0.32208818
119	0x3e219e6e	0.15783092
120	0xbf025d00	-0.50923157
121	0x3e7f4a32	0.24930647
122	0xbc2c0cb7	-0.010501078
123	0xbe3b28b4	-0.18277246
124	0x3f0e0857	0.55481476
125	0x3e547020	0.20745897
126	0x3de80e38	0.11330837
127	0x3e364d5c	0.17802948
128	0xbdb09267	-0.08621674
129	0x3e73ef44	0.23821741
130	0x3e37119b	0.1787781
131	0x3e4fae1b	0.2028126
132	0xbe93abbf	-0.2884197
133	0x3e590af3	0.21195583
134	0xbb26e992	-0.0025468809
135	0x3eb196e3	0.3468543
136	0x3cac9b12	0.021070037
137	0xbe1380bf	-0.14404581
138	0x3db85af3	0.09001722
139	0xbe5cae05	-0.21550758
140	0x3e8a63b1	0.27029184
141	0x3e32266d	0.17397471
142	0x3e40dea7	0.18834935
143	0x3f59ac38	0.8502841
144	0x3cdcb3d3	0.026941216
145	0xbe20e77b	-0.15713303
146	0x3da1cb03	0.079000495
147	0x3d993b15	0.07481972
148	0xbd9a23e2	-0.07526375
149	0x3e3bb37a	0.18330184
150	0x3e3afdba	0.18260852
151	0xbdc52538	-0.096262395
152	0xbe69951c	-0.22810787
153	0xbe6fcfaf	-0.23419069
154	0x3fcf9c8c	1.6219649
155	0xbe6a1c43	-0.22862343
156	0xbdd78fea	-0.10525496
157	0xbde3d82f	-0.11125218
158	0x3e444841	0.19168188
159	0xbe390d0b	-0.18071382
160	0xbe6d921c	-0.23200268
161	0x3e8400dc	0.25781906
162	0x3dd64703	0.10462763
163	0xbe8bae39	-0.2728136
164	0x3da4af27	0.0804122
165	0xbd2d8808	-0.042366058
166	0x3e4708e8	0.19436991
167	0x3de3a1aa	0.11114819
168	0x3c4e6853	0.012598115
169	0x3e41d452	0.1892865
170	0x3e85d1e6	0.26136702
171	0xbc97808d	-0.018493915
172	0xbe9e812a	-0.3095792
173	0x3eece592	0.46268898
174	0x3ee1d668	0.4410889
175	0x3f18dcc1	0.59711844
176	0xbe332934	-0.17496186
177	0xbe47640e	-0.19471762
178	0xbe3c23aa	-0.1837298
179	0xbe65f9c4	-0.2245856
180	0x3d28811e	0.04113876
181	0xbe4ab2ca	-0.19794765
182	0x3db6284a	0.08894403
183	0xbe7d10ea	-0.24713483
184	0xbede8642	-0.43461806
185	0x3c83a41a	0.01606946
186	0xbe6f3e92	-0.23363712
187	0x3e39859b	0.18117373
188	0x3e2e9048	0.17047226
189	0xbd905e19	-0.07049198
190	0x3d6d2ad0	0.057902157
191	0xbe507d3c	-0.20360273
192	0x3e05b322	0.13056615
193	0x3dc7f611	0.0976373
194	0xbd35c33c	-0.044375643
195	0x3dd92459	0.10602636
196	0x3e7c7a26	0.24655971
197	0xbda9797d	-0.08275125
198	0xbe499a92	-0.1968787
199	0x3cadf397	0.021234317
200	0xbc99a8ff	-0.018757341
201	0x3facf877	1.3513325
202	0xbd88fa7b	-0.066884
203	0xbdef2380	-0.11676693
204	0x3dab9b18	0.08379191
205	0x3fe4c5d8	1.7872877
206	0x3e23472f	0.15945123
207	0xbbb0cc7c	-0.00539547
208	0x3e103bf7	0.14085375
209	0x3e5a5522	0.21321538
210	0xbe8aa1bf	-0.27076527
211	0xbda90f9c	-0.082549304
212	0x3d43b736	0.047782145
213	0x3d7b3bad	0.061336208
214	0xbda966d7	-0.08271568
215	0x3e388a9f	0.1802163
216	0xbe269729	-0.162686
217	0xbe7aaffb	-0.24481194
218	0xbdc6fb14	-0.09715858
219	0x3e2209d5	0.15824063
220	0x3e23f654	0.16011935
221	0x3e283a5c	0.16428512
222	0xbe01599a	-0.12631837
223	0xbd511d05	-0.051053066
224	0x3e707823	0.23483329
225	0xbeed1783	-0.46307
226	0x3e990f01	0.2989426
227	0x3e75af8e	0.2399275
228	0x40022bd2	2.0339246
229	0x3d63d031	0.05561847
230	0xbe78f1ce	-0.24310991
231	0xbe04d524	-0.12971932
232	0xbe432e85	-0.19060715
233	0xbf8a29ba	-1.0793984
234	0x3f5853b0	0.84502697
235	0x3f29fe5b	0.6640374
236	0xbf4b4d3c	-0.79414725
237	0xbdbad7af	-0.0912317
238	0x3fe33229	1.7749683
239	0xbdc32005	-0.095275916
240	0x3cb00ec6	0.02149142
241	0x3f15093b	0.5821721
242	0x3d08ca66	0.033396147
243	0xbe540b79	-0.20707501
244	0xbdaeea47	-0.085407786
245	0x3d39f8a3	0.045403134
246	0x3ea1975f	0.315608
247	0x3e38b87f	0.1803913
248	0xbc48be57	-0.012252412
249	0xbec93e9f	-0.3930559
250	0xbe4e39bf	-0.20139216
251	0xbd1d284b	-0.038368504
252	0xbe83b6a4	-0.2572528
253	0x3e92bc6a	0.28659374
254	0xbdcb31fb	-0.099216424
255	0x3fa3d401	1.2799073

l2.weight f4 [256, 256]
0	0xbd7d4b33	-0.061839294
1	0x3b8992a0	0.0041983873
2	0x3bea836e	0.007156781
3	0xbd69f75c	-0.057120666
4	0xbca11d16	-0.01966719
5	0xbd49a9b4	-0.049234107
6	0x3c577275	0.013149847
7	0xbd7fcbe4	-0.062450305
8	0x3c7c27e0	0.015390366
9	0xbbbd8310	-0.005783446
10	0x3ba0b7f1	0.00490474
11	0xbd54da38	-0.051965922
12	0xbd2d8de9	-0.042371664
13	0x3cc2f220	0.023797095
14	0x3d1b10b4	0.037857726
15	0xbd13140c	-0.03590779
16	0x3c40499c	0.0117363
17	0x3d098cba	0.033581473
18	0x3c351188	0.011051543
19	0x3ca1df7d	0.019759888
20	0x3c1f9a95	0.009741445
21	0x3cb9fc88	0.022703424
22	0xbd1e0520	-0.038579106
23	0x3d2978d6	0.041375004
24	0xbd4a5dbc	-0.0494058
25	0xbd116d4e	-0.03550463
26	0xbd188bb5	-0.03724261
27	0xbc24b06b	-0.010051827
28	0xbd595273	-0.053057145
29	0xbd587672	-0.052847333
30	0xbd58b84e	-0.05291014
31	0x3d1a2400	0.03763199
32	0xbd69e003	-0.0570984
33	0xbcd4c0d0	-0.025970846
34	0xbd007cb2	-0.03136892
35	0x3d223196	0.03959807
36	0xbcb3e126	-0.021957945
37	0x3d218cab	0.039440792
38	0xbd1adb86	-0.03780701
39	0xbd31157a	-0.043233372
40	0x3d1fc72e	0.039008312
41	0x3bd5ee26	0.0065286336
42	0x3d627794	0.05528982
43	0xbb310820	-0.00270129
44	0x3d7030aa	0.05864016
45	0x3c67fc6e	0.014159305
46	0x3c2f1e40	0.0106883645
47	0x3d6f8dbb	0.058484774
48	0xbd4b30fe	-0.04960727
49	0x3d7d05b4	0.061773017
50	0xbd2026ba	-0.039099433
51	0x3c6f1490	0.014592305
52	0xbc82e217	-0.015976949
53	0x3c00a830	0.007852599
54	0x3d427665	0.04747619
55	0x3b19b0e0	0.0023451373
56	0xbd1a43a1	-0.037662152
57	0xbd4d35ba	-0.050100066
58	0x3d4b39bc	0.049615607
59	0x3d3bba2e	0.04583185
60	0xbd5bb3b6	-0.053638183
61	0x3d325b8c	0.043544337
62	0xbd0457de	-0.03231036
63	0x3d15bbfd	0.036556233
64	0x399e92ba	0.00030245428
65	0x3ccc3b10	0.024930507
66	0x3a435080	0.0007450655
67	0x3d2eecea	0.042706408
68	0xbd428bb6	-0.04749652
69	0xbcc2a173	-0.023758626
70	0x3d1e82be	0.038698904
71	0xbd557ada	-0.052119114
72	0xbd5bee4e	-0.053694062
73	0xbd53bba6	-0.051692627
74	0x3ce024d0	0.027361304
75	0xbd083490	-0.033253253
76	0xbbb11bc0	-0.0054049194
77	0xbcdb4e50	-0.02677074
78	0xbd81f660	-0.063458204
79	0xbc37555e	-0.011189787
80	0x3d051d7a	0.032498814
81	0x3cb29e33	0.02180395
82	0x3cc44304	0.023957737
83	0xbae4de40	-0.0017461255
84	0xbb170f61	-0.0023049938
85	0x3c877a74	0.016537882
86	0x3d48b650	0.04900199
87	0xbd3cf246	-0.046129487
88	0x3d1df8cc	0.03856735
89	0xbd5e8a1c	-0.05433093
90	0x3d4bbcb3	0.049740504
91	0xbd6417d4	-0.055686787
92	0x3c527d80	0.012847304
93	0x3d7630f6	0.060105287
94	0xbc9e5f84	-0.019332655
95	0x3ccf381c	0.02529531
96	0x3d4c91aa	0.049943604
97	0x3ba23859	0.004950565
98	0x3ae7afc0	0.0017676279
99	0x3d2ddfd1	0.042449776
100	0xbb6d31e0	-0.0036193058
101	0x3d1b7d28	0.037961155
102	0x3d580e6c	0.05274813
103	0x3c9a0304	0.018800266
104	0xbb3c425d	-0.002872608
105	0x3bb03930	0.005377911
106	0xbcfe66fb	-0.031054964
107	0x3ccfb890	0.025356561
108	0x3ccf2b92	0.02528933
109	0xbd370c02	-0.044689186
110	0x3d1d62f2	0.03842444
111	0xbd15b339	-0.036547873
112	0xbd20baee	-0.03924077
113	0x3c0eb4df	0.008710115
114	0xbd4b2aa8	-0.049601227
115	0xbceadf84	-0.028671034
116	0x3cd7e83d	0.026355857
117	0xbd63fcb1	-0.055660907
118	0x3d663439	0.056202147
119	0x3d504d0a	0.05085472
120	0xbba3cd99	-0.0049988744
121	0xbd0afa54	-0.033930138
122	0x3d0618cd	0.032738496
123	0xbca8f683	-0.020625358
124	0xba14358d	-0.00056537316
125	0xbcbfcee8	-0.02341409
126	0x3d3eb211	0.046556536
127	0x3d3c9631	0.04604167
128	0xbacf4385	-0.0015812969
129	0xbd557a71	-0.052118722
130	0x3c708e90	0.014682427
131	0xbd0975d0	-0.03355962
132	0xbc28b743	-0.010297599
133	0xbd5dc69c	-0.054144487
134	0xbce00437	-0.02734576
135	0x3d22a34f	0.039706524
136	0x3c9a87c8	0.018863574
137	0xbc0fa968	-0.008768417
138	0xbd1d54c2	-0.03841091
139	0xbc5d9a30	-0.013525531
140	0xbd0f90b9	-0.035050128
141	0xbd53ea7d	-0.051737297
142	0xbd02b7b8	-0.03191349
143	0x3d028f89	0.031875167
144	0x3ba3fb60	0.0050043315
145	0x3d4a8b50	0.049449265
146	0x3cdba6f0	0.026813
147	0xbd4773da	-0.04869447
148	0x3d5d7e98	0.054075807
149	0xbb6282a0	-0.0034562722
150	0xbd10546b	-0.035236757
151	0xbd3dbbc5	-0.04632165
152	0x3cc983a4	0.024598904
153	0xbc8d25a1	-0.017229857
154	0xbc97a684	-0.018512018
155	0xbd224b46	-0.039622568
156	0xbce98a14	-0.028508224
157	0x3d1ffdfc	0.039060578
158	0xbd140f7e	-0.036147587
159	0x3c46fc6e	0.012145145
160	0x3d23c842	0.039985903
161	0xbced3030	-0.028953642
162	0xbd77d15a	-0.060502388
163	0xb9bd0900	-0.00036055595
164	0xbd52a2cc	-0.051424786
165	0x3cb95920	0.022625506
166	0x3d750864	0.059822455
167	0x3bc72950	0.006077923
168	0xbc46b1e8	-0.012127377
169	0xbbb4a9f2	-0.005513423
170	0xbd271b1c	-0.040797338
171	0xbcd3b144	-0.025841363
172	0xbd0ebe65	-0.034849543
173	0xbd2f8760	-0.042853713
174	0x3ce7c207	0.028290762
175	0xbd86efe7	-0.065887265
176	0x3d7f32b6	0.06230422
177	0x3d5184de	0.051152103
178	0xbd48a8ec	-0.04898922
179	0xbd02d9ca	-0.03194598
180	0xbd4dd347	-0.050250318
181	0xbcd0e5dc	-0.02550023
182	0x3d20c6a8	0.039251953
183	0x3cdba0d8	0.026810095
184	0x3d59e765	0.05319919
185	0xbd0e5023	-0.034744393
186	0x3cba8170	0.022766799
187	0xbcacb374	-0.021081664
188	0xbb1ba1a0	-0.002374746
189	0x3c3e2350	0.011605099
190	0x3d19fd4d	0.037595082
191	0xbd7ad1f6	-0.06123539
192	0xbcfb1850	-0.030651242
193	0xbd55f354	-0.05223401
194	0x3d516ab8	0.051127166
195	0x3c9c950e	0.019114044
196	0xbcdac924	-0.02670724
197	0xbd062563	-0.0327505
198	0x3ccc2932	0.024921987
199	0xbd2b1fc0	-0.041778326
200	0x3c74f390	0.014950648
201	0xbbeedc80	-0.0072894692
202	0xbbe6f230	-0.007047914
203	0x3d4c2ff7	0.04985043
204	0x3d3a98d6	0.045555912
205	0xbd161480	-0.036640644
206	0x3d352062	0.044220336
207	0x3d041f1c	0.03225623
208	0x3cbc1ce8	0.022963002
209	0xbcad0199	-0.021118926
210	0xbc6ec83e	-0.014574109
211	0xbd74b5d4	-0.059743717
212	0x3d561927	0.05227008
213	0xbcb0600f	-0.02153018
214	0x3ccfe9ed	0.0253801
215	0x3d545958	0.051843017
216	0xbd14bbd0	-0.036311924
217	0xbc8dbee3	-0.017302936
218	0xbb82f36d	-0.003996304
219	0xbd7b00c9	-0.061280046
220	0x3d7497d8	0.059715122
221	0x3cba22fe	0.022721764
222	0x3c7374bb	0.014859374
223	0xbbd74d99	-0.0065705297
224	0xbca840f8	-0.020538792
225	0xbd2afe42	-0.041746385
226	0x3d711d8d	0.058866072
227	0x3c8e7d89	0.017393844
228	0xbbb4d88e	-0.0055189794
229	0xbcebf5f6	-0.028803807
230	0xbd797af3	-0.06090827
231	0xbd1fbabf	-0.038996454
232	0xbd4f0042	-0.050537355
233	0xbd771478	-0.060322255
234	0xbd365338	-0.044512957
235	0x3d45bc84	0.048275486
236	0x3d202e4a	0.039106645
237	0xbd20449f	-0.039127942
238	0xbd6b53d8	-0.057453007
239	0xbc1abb5c	-0.009444084
240	0xbcf76c00	-0.030202866
241	0x3c4bda68	0.012442209
242	0xbc98f1d4	-0.01867
243	0xbd3d11a5	-0.046159405
244	0x3cee9090	0.029121667
245	0xbce55670	-0.027995318
246	0xbce4c46d	-0.027925694
247	0x3d7bccfc	0.061474785
248	0x3d0a945e	0.0338329
249	0xbceadb31	-0.028668972
250	0x3bc8e5da	0.006130916
251	0x3d1edac4	0.03878285
252	0x3c2858a0	0.010275036
253	0x3d44aec2	0.048018225
254	0x3c778a78	0.015108697
255	0x3d1b11b8	0.037858695

l2.bias f4 [256]
0	0x3bc92861	0.0061388467
1	0xbc869573	-0.016428685
2	0xbd750c2e	-0.05982607
3	0xbd4353eb	-0.047687452
4	0xbce6eaa4	-0.028188057
5	0xbdae0bfd	-0.0849838
6	0xbdb02c33	-0.0860218
7	0xbd7bf3ee	-0.061511926
8	0x3c65f2ce	0.01403494
9	0xbd4661ed	-0.048433233
10	0xbd71b3dc	-0.059009418
11	0xbe039984	-0.1285153
12	0x3baeec8a	0.0053382562
13	0x3c4cf697	0.0125099635
14	0x3c267758	0.01016029
15	0xbd9d6540	-0.076853275
16	0xbd29d199	-0.041459654
17	0xbd024dd8	-0.03181252
18	0xbc3e7360	-0.011624187
19	0x3c635a69	0.013876536
20	0x3d3675e3	0.04454602
21	0xba0f04a3	-0.0005455708
22	0x3e9229ca	0.28547508
23	0x3ce96a27	0.028493
24	0xbdc28d1c	-0.09499571
25	0x3ce3edd7	0.027823372
26	0x3c99785c	0.01873415
27	0xbafa0140	-0.0019073859
28	0xbc228be0	-0.009921044
29	0xbd1d334d	-0.038379002
30	0x3d66233e	0.056185953
31	0x3d227ed4	0.039671734
32	0xbd6ba666	-0.057531737
33	0x3d32ef88	0.043685466
34	0xbd0dace9	-0.034588728
35	0xbc9f2767	-0.019427968
36	0xbd78e861	-0.06076849
37	0x3d28ccbf	0.041210886
38	0xbd40669f	-0.046972867
39	0xbd63bbf8	-0.055599183
40	0x3b8973c8	0.0041947104
41	0x3d4a2985	0.049356002
42	0x3bd6191f	0.0065337564
43	0xbd5f850b	-0.05457024
44	0x3d017ccd	0.03161316
45	0x3e2845e0	0.16432905
46	0xbd367b99	-0.044551466
47	0xbd07a93c	-0.03312038
48	0xbd267359	-0.040637348
49	0xbd035814	-0.03206642
50	0xbd40e2ef	-0.04709142
51	0xbcfd4c43	-0.030920153
52	0x3c7dcbc9	0.015490481
53	0xbcc52f79	-0.024070488
54	0x3ef05ceb	0.4694589
55	0xbb0653c6	-0.002049671
56	0x3be7f4f8	0.007078763
57	0xbc1f4f1b	-0.00972345
58	0xbd31253f	-0.04324841
59	0xbd92533a	-0.071447805
60	0xbd356c6a	-0.044292845
61	0xbc5e9fc0	-0.013587892
62	0x3c787f58	0.01516708
63	0xbd1a11a5	-0.037614483
64	0x3d011b9b	0.031520467
65	0xbc269f8b	-0.010169874
66	0xbdafaaed	-0.085775234
67	0xbc94f37c	-0.018182509
68	0xbc190b66	-0.0093410965
69	0xbd480ffa	-0.04884336
70	0xbdc17149	-0.094454356
71	0x3cf52288	0.029923692
72	0x3c385deb	0.011252861
73	0xbd8b9897	-0.068162136
74	0xbd25365e	-0.04033505
75	0xbc3954c8	-0.011311717
76	0xbd8fb56b	-0.070170246
77	0x3d1ca51b	0.038243394
78	0xbbdb8c02	-0.00670004
79	0x3d1ffc43	0.039058935
80	0xbd672f66	-0.056441687
81	0x3b4a701e	0.003088958
82	0xbddb9264	-0.10721281
83	0xbe15bd14	-0.14622909
84	0xbd067336	-0.032824717
85	0xbda83b73	-0.08214464
86	0xbb903dba	-0.0044018896
87	0xbd652416	-0.055942617
88	0xbb76d517	-0.0037663633
89	0x3c04af09	0.008098372
90	0xbd967424	-0.07346371
91	0xbd8ef3dc	-0.06980106
92	0xbbf4c2ec	-0.0074695256
93	0x3abd1c8d	0.0014428064
94	0xbd6d3ca0	-0.057919145
95	0xbd88b79e	-0.06675647
96	0xbd69bb2f	-0.057063278
97	0xbdc1e5a1	-0.09467626
98	0xbdb20be6	-0.08693676
99	0xbd2ef9aa	-0.042718567
100	0xbf6367f8	-0.8883052
101	0xbd852828	-0.065018
102	0xbc0829b8	-0.008310728
103	0xbe0adc08	-0.13560498
104	0xbd19a5b5	-0.037511546
105	0x3d0e95e1	0.034810904
106	0xbda4b994	-0.08043209
107	0x3b8358dd	0.004008396
108	0x3d5f4a29	0.054514084
109	0xbd907128	-0.07052833
110	0x3d4772d4	0.048693493
111	0xbd1bcae4	-0.03803529
112	0xbde92d89	-0.11385638
113	0xbd5828e8	-0.052773386
114	0xbd2559a9	-0.04036871
115	0x3cde308e	0.027122762
116	0x3bf3c914	0.007439742
117	0xbd95608e	-0.07293807
118	0x3c2c3ae5	0.010512088
119	0xbb9acdd9	-0.004724246
120	0x3fb6a690	1.4269581
121	0x3ff4a6b6	1.9113376
122	0xbcbf731e	-0.023370322
123	0x3c0d30b2	0.008617567
124	0xbd7652fb	-0.06013773
125	0xbbf7b843	-0.0075598075
126	0xbd9967f6	-0.07490532
127	0xbd2cf8eb	-0.042229574
128	0xbc33e52c	-0.010979932
129	0xbdb85ac3	-0.090016864
130	0xbd00b533	-0.031422805
131	0xbc920af9	-0.017827498
132	0xbf88881b	-1.0666536
133	0xbd5516ef	-0.052023824
134	0x3b6f3612	0.0036500734
135	0x3b357eb5	0.0027693931
136	0xbd867198	-0.06564635
137	0x3d1c9e4e	0.03823691
138	0xbc7a555e	-0.015279142
139	0xbc920b80	-0.01782775
140	0xbd2e1e48	-0.042509347
141	0xbd7adab9	-0.061243746
142	0xbd43cab0	-0.04780072
143	0xbc80dbbe	-0.015729781
144	0xba60f798	-0.0008581816
145	0xbc9fbfd0	-0.019500643
146	0x3de1689c	0.11006281
147	0xbc79c56c	-0.015244823
148	0xbd1949b1	-0.037423793
149	0xbd3d8387	-0.046268012
150	0x3d232e90	0.039839327
151	0xbd2d75c3	-0.042348634
152	0x3cb8a3d7	0.022539062
153	0xbcefd498	-0.029276177
154	0xbc6dd602	-0.0145163555
155	0xbd2fb24c	-0.042894647
156	0x3ca86201	0.020554544
157	0x3c093e07	0.008376605
158	0xbceb7bba	-0.02874552
159	0xbcf2afcc	-0.029624842
160	0xbd62e1dd	-0.05539118
161	0xbd55edd3	-0.05222876
162	0x3c987d6e	0.018614497
163	0xbd5f864e	-0.054571442
164	0xbd65b625	-0.05608191
165	0x3a63c029	0.0008687997
166	0xbc597d68	-0.013274528
167	0xbd5cf3da	-0.053943492
168	0x3c6edc93	0.014578956
169	0x3c2e5c02	0.010642054
170	0xbd807bd3	-0.062736176
171	0xbd96ce5a	-0.07363577
172	0xbc1f0381	-0.009705425
173	0xbc910ae6	-0.017705392
174	0xbd84b1a6	-0.06479196
175	0x3e260f17	0.16216694
176	0x3d1f8b40	0.03895116
177	0xbd9113b7	-0.070838384
178	0xbd439bc1	-0.04775596
179	0xbdcb7695	-0.09934727
180	0xbce2d1dd	-0.027687961
181	0xbdb345e4	-0.08753565
182	0x3c2954cd	0.0103351595
183	0xbd4129fb	-0.047159176
184	0x3d120ca2	0.03565658
185	0x3ccbe1e9	0.024887996
186	0x3a59f743	0.0008314738
187	0xbc91ab50	-0.017781883
188	0x3c384777	0.011247507
189	0x3e0ae177	0.1356257
190	0xbd782abe	-0.060587637
191	0x3b7a20ac	0.0038166447
192	0xbd4f554e	-0.050618462
193	0xbd45b6bf	-0.048269983
194	0x3d0a6d4e	0.033795647
195	0xbd34b82d	-0.044120956
196	0x3bb5d3d8	0.0055489354
197	0x3cc129b6	0.02357946
198	0xbc88da41	-0.016705634
199	0xbbaadfaa	-0.005214651
200	0xbda1e359	-0.07904691
201	0xbd87c2a2	-0.0662892
202	0xbdbfcc0e	-0.09365092
203	0xbd0aae0d	-0.033857394
204	0xbd83d0d8	-0.06436318
205	0x3d4dcd3e	0.050244562
206	0xbc42af9d	-0.01188269
207	0x3cb8f795	0.022578994
208	0x3e79b7ff	0.24386595
209	0xbdb03a9c	-0.08604929
210	0xbccda6ba	-0.025103915
211	0xbd3c8db3	-0.046033572
212	0x3cb95263	0.022622293
213	0x3d10e513	0.035374712
214	0xbd646fb2	-0.055770583
215	0xbab4ac99	-0.0013784348
216	0x3b288d4b	0.0025718983
217	0xbd5a138f	-0.05324131
218	0xbcf99fdf	-0.03047174
219	0xbd079d17	-0.033108797
220	0xbcfcc127	-0.030853821
221	0xbccef414	-0.02526287
222	0xbc8e9857	-0.017406626
223	0x3b6f5fdf	0.003652565
224	0xbb0a40d1	-0.0021095762
225	0x3cba547c	0.022745363
226	0x3d38c9d6	0.04511436
227	0xbd594a75	-0.053049523
228	0x3d15eb56	0.036601387
229	0xbcc5a262	-0.024125282
230	0xbd5c3274	-0.053759053
231	0xbdbad4f5	-0.091226496
232	0xbcf38783	-0.029727703
233	0xbc48aaf7	-0.012247792
234	0x3c8a0b14	0.016850986
235	0xbd970ff8	-0.07376093
236	0xbd1880ac	-0.037232086
237	0x3d0fda87	0.035120513
238	0xba82c52d	-0.0009976976
239	0x3d384b51	0.044993702
240	0x3cfb1409	0.030649202
241	0x3cfe69b4	0.031056263
242	0xbd5d80de	-0.054077975
243	0xbd7cbf05	-0.061705608
244	0x3d4a6ab0	0.04941815
245	0xbd931371	-0.071814425
246	0xbd9c7245	-0.07638983
247	0x3c5176b7	0.0127846515
248	0x3c48edf9	0.012263768
249	0xbce4aca5	-0.027914355
250	0x3d05e3d1	0.032687966
251	0x3c2f8908	0.010713823
252	0xbbb5ace6	-0.0055442927
253	0xbd4723ee	-0.04861825
254	0xbd03505b	-0.032059055
255	0x3cb96ad7	0.022633953

l3.weight f4 [256, 256]
0	0x3d174514	0.036931112
1	0xbc4c06a9	-0.01245276
2	0xbd54b251	-0.05192787
3	0x3d1b8f0d	0.03797822
4	0x3cf0ae3a	0.029379953
5	0xbd733cd7	-0.059384193
6	0xbbbcf44e	-0.005766428
7	0xbca4d6f7	-0.020122034
8	0xbce9001f	-0.02844244
9	0x3d4d8880	0.050179005
10	0xbd146670	-0.036230505
11	0x3d088636	0.03333112
12	0xbd466eda	-0.04844556
13	0x3d370e04	0.0446911
14	0x3cfa51ea	0.030556638
15	0x3c5e51c8	0.013569303
16	0xbd395dfc	-0.045255646
17	0xbd170a0b	-0.036874812
18	0xbce4510c	-0.027870677
19	0xbb867247	-0.0041029784
20	0x3adf1ae0	0.0017021559
21	0x3c814785	0.015781173
22	0x3ce85f4d	0.028365755
23	0xbc8472cb	-0.016168019
24	0xbd4e64b5	-0.05038901
25	0x3d1ca460	0.038242698
26	0xbd1ec232	-0.038759418
27	0x3d7eea6e	0.06223529
28	0xbd60962f	-0.054830726
29	0xbd3fcb72	-0.04682488
30	0xbd54c196	-0.05194243
31	0xbbf8a470	-0.007587962
32	0xbc0dca3c	-0.008654173
33	0x3ca80aec	0.02051302
34	0xbd3f6148	-0.046723634
35	0xbc805a52	-0.015668068
36	0x3cdd1794	0.026988782
37	0xbcc501a8	-0.024048641
38	0x3b518f8c	0.003197643
39	0xbd65a27c	-0.05606316
40	0xbd1933f5	-0.037403066
41	0x3d2396fb	0.039938908
42	0x3ca4fe29	0.020140724
43	0x3c9b98a8	0.01899369
44	0xbd33be84	-0.04388286
45	0xbcacc98e	-0.021092203
46	0x3d03a56a	0.032140173
47	0x3cde337e	0.027124163
48	0xbbd710f0	-0.0065632984
49	0x3cbbc8fc	0.022922985
50	0x3ca20a54	0.019780315
51	0x3bfc0f77	0.0076922732
52	0x3cab58ad	0.020916307
53	0x3cdb0ca1	0.02673942
54	0xbd5d28ed	-0.053994108
55	0x3d3ad5fe	0.045614235
56	0x3c8a244c	0.01686301
57	0x3d172874	0.036903813
58	0xbbefad7d	-0.0073143826
59	0x3d0de8ce	0.034645848
60	0xbbbea540	-0.005818039
61	0xbba62d40	-0.005071312
62	0x3d6c2a46	0.057657503
63	0x3d38334b	0.04497079
64	0xbcdc156a	-0.02686568
65	0x3cea948e	0.02863529
66	0x3d6fd96c	0.05855696
67	0xbccb7849	-0.02483763
68	0xbb731b1b	-0.0037095014
69	0x3d46b672	0.048513837
70	0xbd2aebe6	-0.041728877
71	0xbd8a8914	-0.06764427
72	0xbcdc3897	-0.026882453
73	0x3cc77a58	0.02435033
74	0x3cf57b00	0.029965878
75	0x3d2647b0	0.04059571
76	0xbd2ed808	-0.042686492
77	0x3b62794f	0.003455717
78	0xbb3cba20	-0.0028797463
79	0xbcfc8bee	-0.030828442
80	0x3cd10e14	0.025519408
81	0xbd89e971	-0.067339785
82	0xbc778383	-0.015107038
83	0xbd7a6c3f	-0.061138388
84	0xbbe69940	-0.007037312
85	0xbb04e794	-0.0020279633
86	0xbcfd12ba	-0.030892719
87	0x3c8993cc	0.016794108
88	0x3d1e73a7	0.038684513
89	0x3cd8af60	0.026450813
90	0xbd857245	-0.06515936
91	0xbd722bda	-0.05912385
92	0x3d3180e4	0.04333581
93	0x3cf79ae8	0.030225232
94	0x3b3d1637	0.0028852352
95	0x3c9c3038	0.019065961
96	0x3d093e2c	0.033506557
97	0xbd5a896b	-0.05335371
98	0xbca51fd0	-0.020156771
99	0x3b859b94	0.0040773842
100	0x3cdafc78	0.026731715
101	0x3d2fd18b	0.042924445
102	0xbd3a307e	-0.045456402
103	0xbc9438bb	-0.018093457
104	0x3d14a9fe	0.03629493
105	0xbc253310	-0.010082975
106	0x3cf622d4	0.030045904
107	0x3a773900	0.0009430796
108	0xbd42c576	-0.047551595
109	0xbd50689a	-0.050881006
110	0x3d34ad00	0.0441103
111	0xbc713665	-0.014722441
112	0xbcac97fe	-0.02106857
113	0xbc85768c	-0.01629188
114	0xbca97948	-0.020687714
115	0x3b336599	0.002737379
116	0xbd388daa	-0.045056976
117	0xbd9368b8	-0.07197708
118	0x3d5279ac	0.051385567
119	0xbb9b82a0	-0.0047457963
120	0xbc263d54	-0.010146458
121	0x3bba8189	0.0056917113
122	0xbb91b676	-0.0044468
123	0xbd0b3696	-0.033987604
124	0x3d06ee70	0.032942235
125	0x3d381a8d	0.044947196
126	0x3d3ad3f8	0.045612305
127	0x3cadef54	0.021232285
128	0xbd0cee44	-0.034406915
129	0x3d4fabe6	0.050701044
130	0x3d4bb2f2	0.049731202
131	0xbc539a35	-0.012915184
132	0x3d26feec	0.040770456
133	0xbd56a1ca	-0.052400388
134	0x3d695dce	0.056974225
135	0x3cc6d768	0.024272636
136	0xbd0e6323	-0.034762513
137	0xbca95d70	-0.020674437
138	0x3cd218a6	0.025646519
139	0xbd84b5aa	-0.06479962
140	0xbbf4c0f5	-0.0074692913
141	0x3d4c2403	0.04983903
142	0x3bcc6796	0.0062379343
143	0xbb92447e	-0.0044637313
144	0xbca02aea	-0.019551713
145	0x3c0da773	0.00864588
146	0xbb4c982e	-0.0031218636
147	0x3d02fcaf	0.03197926
148	0xbce9adcc	-0.028525256
149	0xbd5d621e	-0.05404865
150	0x3cae315c	0.02126377
151	0x3c670af8	0.014101736
152	0x3c250478	0.010071866
153	0xbd293f8e	-0.041320376
154	0x3c116528	0.008874215
155	0x3d05958c	0.032613322
156	0x3d1137d3	0.03545363
157	0xbbfa6924	-0.0076419283
158	0xba12349b	-0.0005577297
159	0x3d0b5d1e	0.03402435
160	0x3c9009f9	0.01758288
161	0xbc380f0c	-0.011234056
162	0x3c9388cc	0.018009566
163	0xbcecf5b4	-0.028925754
164	0x3d483ea0	0.04888785
165	0x3ce52716	0.02797274
166	0xbc0f0cb0	-0.008731052
167	0x3c9d5f5f	0.019210516
168	0xbd88d541	-0.066813
169	0x3d329553	0.043599438
170	0xbbff5492	-0.007792064
171	0xbd6ed192	-0.05830533
172	0xbd60f6b1	-0.054922763
173	0x3c80424a	0.01565661
174	0x3d2ed5ba	0.042684294
175	0xbd5d52ef	-0.05403417
176	0xbd7e844c	-0.062137887
177	0x3c96bc88	0.018400446
178	0x3c35eabe	0.01110333
179	0x3d399b04	0.04531385
180	0xbacef88a	-0.0015790623
181	0x3d548f72	0.051894613
182	0x3c656a00	0.014002323
183	0x3d124d60	0.03571832
184	0x3d172d8e	0.03690868
185	0xbcf439c4	-0.029812701
186	0x3d58a85e	0.052894942
187	0x3cb2b8fc	0.021816723
188	0x3c4c32a8	0.012463249
189	0xbc961a84	-0.01832319
190	0x3d0d0966	0.03443279
191	0xbd3ae378	-0.045627087
192	0xbd2891ae	-0.041154556
193	0x3cd73c70	0.026273936
194	0xbd842d86	-0.064539954
195	0xbca8d611	-0.020609887
196	0xbd68737c	-0.05675076
197	0xbd163dce	-0.036680035
198	0x3ceba5ff	0.028765677
199	0xbd5038fa	-0.050835587
200	0xbd207068	-0.0391697
201	0x3ca7f2f6	0.020501595
202	0x3bbf6752	0.005841174
203	0x3d121730	0.035666645
204	0xbd119eb4	-0.03555174
205	0x3c7aeca5	0.0153152095
206	0x3c6f220c	0.01459552
207	0x3d2fac56	0.04288896
208	0xbc740057	-0.014892659
209	0x3c67a18a	0.014137635
210	0xbd5259be	-0.051355116
211	0x3d469179	0.048478577
212	0xbc214d9c	-0.009845164
213	0x3cd2fa64	0.025754161
214	0x3d3662e0	0.04452789
215	0xbcf5c69f	-0.030001936
216	0x3ca05f48	0.019576684
217	0xbb2f88e0	-0.0026784465
218	0x3d21c9f9	0.039499257
219	0x3d3d9e13	0.04629333
220	0xbd3c3249	-0.045946393
221	0x3d3dc5b0	0.046331108
222	0x3c5624c8	0.013070293
223	0x3cb93198	0.022606656
224	0x3ce3a1af	0.027787058
225	0x3d67f97c	0.05663441
226	0x3d3720b2	0.044708915
227	0xbd82848c	-0.063729376
228	0xbc9bc5e0	-0.019015253
229	0xbc3834a6	-0.011243021
230	0x3cc0b4d8	0.023523733
231	0xbcb629c0	-0.022236705
232	0xbca71477	-0.0203955
233	0x3b60041a	0.0034182132
234	0xbc050bcb	-0.008120487
235	0x3a500a80	0.0007936135
236	0xbd8a0264	-0.06738737
237	0x3d0ed342	0.03486944
238	0xbc76ecc3	-0.015071097
239	0xbd848339	-0.06470341
240	0xbd7d17a1	-0.061790112
241	0x3d23bba1	0.03997386
242	0xbcd3f026	-0.025871348
243	0xbb41aaf0	-0.002955135
244	0x3bd02c49	0.0063529355
245	0x3c5ed20b	0.013599883
246	0xbd47d0b7	-0.04878303
247	0xbccea400	-0.025224686
248	0x3d49d2a1	0.049273137
249	0xbbcfd416	-0.0063424213
250	0x3c3321f2	0.010933386
251	0x3c3861a2	0.011253746
252	0xbb06055d	-0.0020449974
253	0xbd7594ec	-0.059956476
254	0xbd3781f9	-0.044801686
255	0xbd8b5631	-0.06803549

l3.bias f4 [256]
0	0xbccf1f08	-0.025283352
1	0xbe0d1374	-0.13776952
2	0x3d306935	0.043069083
3	0x3cf35c44	0.029707082
4	0x3c8c93eb	0.017160377
5	0x3dd34cb8	0.10317367
6	0x3bcaa908	0.006184701
7	0xbca88b06	-0.020574104
8	0xbcc5033d	-0.024049396
9	0xbd2c15cb	-0.04201297
10	0xbdb2d612	-0.08732237
11	0x3e36d5cf	0.17854999
12	0x3b7aa712	0.0038246554
13	0xbab0c594	-0.0013486617
14	0xb967532a	-0.00022060858
15	0x3d248f44	0.04017569
16	0xbd79e01c	-0.061004743
17	0xbbb981a8	-0.005661208
18	0xbe27ddea	-0.16393247
19	0xbd33acfb	-0.04386614
20	0x3e1022bc	0.1407575
21	0xbe15e298	-0.1463722
22	0xbf90c7f5	-1.1311022
23	0xbfc6773a	-1.5505135
24	0xbc5d329c	-0.013500836
25	0xbd4a3f79	-0.04937694
26	0x3c9bf081	0.01903558
27	0xbd4f7554	-0.050649002
28	0xbd3a68c6	-0.045510076
29	0x3e3ff12f	0.18744348
30	0x3d06c030	0.032898128
31	0x3cd23fd4	0.025665201
32	0xbda0e035	-0.07855264
33	0x3e09c5a4	0.134543
34	0xbdfd670c	-0.1237317
35	0x3e02e2ac	0.12781781
36	0x3dc48e77	0.095974855
37	0xbdd0bd69	-0.10192377
38	0x3cb28def	0.021796195
39	0xbd69b6a4	-0.057058945
40	0x3d0524d6	0.032505833
41	0xbca725ae	-0.02040371
42	0xbd233eca	-0.039854802
43	0xbddc13c0	-0.107459545
44	0x3e2e2852	0.17007568
45	0xbd9e4cec	-0.077295154
46	0xbd10d9d7	-0.035364
47	0xbda234a2	-0.07920195
48	0xbc5d8033	-0.013519335
49	0xbdecd2e5	-0.115636624
50	0x3d94b1a0	0.07260442
51	0xbd8ed0bc	-0.06973407
52	0xbd846462	-0.06464459
53	0x3cab38de	0.02090114
54	0xbd053180	-0.03251791
55	0xbf7cbd53	-0.98726386
56	0x3e630c7f	0.22172736
57	0x3b8cb82d	0.0042944164
58	0xbd941c8d	-0.07232008
59	0xbd14e32f	-0.03634947
60	0xbb80096d	-0.0039073736
61	0xbd665927	-0.056237366
62	0x3e1b7c7c	0.15184206
63	0xbd50950d	-0.050923396
64	0xbe4ca244	-0.19983774
65	0xbd612ad4	-0.054972485
66	0xbd6dbebd	-0.05804323
67	0x3b038ace	0.0020071748
68	0xbe810c05	-0.25204483
69	0x3dd87e2c	0.105709404
70	0x3d3e1212	0.046403952
71	0x3ee7efae	0.4530005
72	0x3e131740	0.14364338
73	0x3dd98ec9	0.10622937
74	0x3b9c3cec	0.0047680046
75	0x3e29166b	0.16512458
76	0xbc2d760a	-0.010587225
77	0x3c9b1ffd	0.018936152
78	0x3e68ace1	0.22722198
79	0x3b077fc6	0.0020675524
80	0x3e5f50ce	0.21808168
81	0xbcfbafb6	-0.030723434
82	0xbd1f4269	-0.038881693
83	0xbd86f613	-0.06589904
84	0xbc2d4384	-0.010575179
85	0xbe090015	-0.13378938
86	0xbd319729	-0.04335705
87	0x3e0c061c	0.13674206
88	0x3c78a3db	0.015175785
89	0xbde7a811	-0.11311353
90	0x3c61a4e2	0.013772221
91	0x3e2eccfd	0.17070384
92	0x3cb16ed3	0.02165929
93	0xbd6f7860	-0.058464408
94	0xbe442d35	-0.1915787
95	0xbb2e1d2a	-0.0026567676
96	0xbd9c8ed4	-0.0764443
97	0xbd9aa348	-0.07550675
98	0xbc2881cc	-0.010284852
99	0x3cab4b8b	0.020910045
100	0x3cf1a4e9	0.02949758
101	0xbdb0264a	-0.08601053
102	0x3c62cac0	0.013842285
103	0xbc9381c0	-0.018006206
104	0x3df67da5	0.120356835
105	0x3e616f98	0.22015226
106	0xbda370bf	-0.07980489
107	0x3a9ac02a	0.0011806537
108	0xbd049fd8	-0.032379
109	0x3e24b06c	0.16082925
110	0xbd03b39b	-0.032153707
111	0x3d3eadb5	0.04655238
112	0xbd8143bf	-0.0631175
113	0x3e2bb0ef	0.16766714
114	0xbd0ba2e8	-0.034090906
115	0x3c259a01	0.010107518
116	0x3c214b43	0.009844604
117	0x3e655aa6	0.22397861
118	0x3b162c2b	0.002291451
119	0xbd848002	-0.06469728
120	0x3e65f0f9	0.22455205
121	0xbd425531	-0.047444526
122	0x3d1887b1	0.03723878
123	0xbc9f24f5	-0.019426802
124	0xbd8d940a	-0.06913002
125	0xbcdbe5e7	-0.026843024
126	0xbd87d37e	-0.06632136
127	0xbd65e142	-0.056123026
128	0xbd43e776	-0.04782816
129	0xbde99e09	-0.11407096
130	0xbc16fb00	-0.0092151165
131	0x3e095b66	0.13413772
132	0x3c2e7e0f	0.010650172
133	0xbd9d6d64	-0.0768688
134	0xbcc96bce	-0.024587538
135	0x3bd3a1e0	0.006458506
136	0x3c5ebc3d	0.013594684
137	0x3d2eabf4	0.042644456
138	0xbd008f58	-0.031386703
139	0xbdadac4d	-0.084801294
140	0x3e00053a	0.12501994
141	0xbd62737d	-0.05528592
142	0xbd6df390	-0.058093607
143	0xbb4b7b20	-0.003104873
144	0x3d3062bd	0.043062914
145	0xbd665725	-0.05623545
146	0xbd98005a	-0.07421942
147	0xbf0b3bac	-0.5438793
148	0x3de9a7e0	0.11408973
149	0xbd50f32a	-0.05101315
150	0xbc59d6ba	-0.013295824
151	0xbde8f3be	-0.11374615
152	0x3ccbdd2d	0.024885738
153	0xbcf8b414	-0.030359305
154	0xbcab960a	-0.020945568
155	0x3e4711de	0.1944041
156	0xbd9010c0	-0.07034445
157	0x3c4a61c1	0.012352408
158	0xbef4255e	-0.4768476
159	0xbc033185	-0.008007412
160	0xbb6572ce	-0.0035011056
161	0x3ebc09e3	0.36726293
162	0x3d5f7e57	0.054563846
163	0xbd8bd009	-0.06826789
164	0xbbf5da65	-0.0075028413
165	0x3df11e64	0.11773375
166	0x3e1af801	0.15133668
167	0xbd0231cd	-0.031785775
168	0x3c773c3e	0.015090046
169	0xbd4c3985	-0.049859542
170	0xbc60be58	-0.0137172565
171	0x3cd32d7d	0.025778526
172	0xbd631906	-0.055443786
173	0x3d99ead7	0.07515495
174	0xbd4b85f2	-0.049688287
175	0x3d887a96	0.066640064
176	0xbcc028e1	-0.023456993
177	0xbd522040	-0.051300287
178	0x3d213a8a	0.039362468
179	0xbd28eca7	-0.041241314
180	0xbd2b4e43	-0.041822683
181	0x3d08cb74	0.033397153
182	0xbdb65c19	-0.08904285
183	0x3ec07db7	0.37595913
184	0x3e3d9918	0.18515432
185	0xbe30f845	-0.17282207
186	0xbd6addf3	-0.057340574
187	0xbc520ef2	-0.012820946
188	0xbc226cda	-0.009913648
189	0x3e30a596	0.17250666
190	0x3d2bcf6e	0.041945867
191	0x3c178004	0.00924683
192	0xbd4c4b6f	-0.049876627
193	0xbd9af75c	-0.07566711
194	0xbde75ecf	-0.1129738
195	0xbddebc23	-0.10875728
196	0x3b32dd0c	0.0027292399
197	0x3e13276b	0.14370506
198	0xbd39cb14	-0.045359686
199	0x3e47f745	0.1952792
200	0xbd830b52	-0.063986436
201	0x3e2ee85e	0.17080829
202	0xbd41d108	-0.04731849
203	0xbc2aba42	-0.010420384
204	0x3c68e936	0.014215758
205	0x3c8419fc	0.016125672
206	0xbd0e67ba	-0.03476689
207	0xbda66a48	-0.0812574
208	0xbbae6d9b	-0.0053231246
209	0x3df63e9a	0.12023659
210	0xbdaaad5c	-0.08333847
211	0x3cf17d8b	0.029478809
212	0x3dd98f19	0.10622997
213	0xbcc89efe	-0.024489876
214	0x3e2fb5ed	0.17159243
215	0xbc97ab8b	-0.018514415
216	0x3e47d027	0.19512998
217	0x3dfbfbdd	0.123038985
218	0xbd2b1205	-0.04176523
219	0x3d0211a1	0.031755093
220	0xbdd13cd9	-0.10216684
221	0x3b54e349	0.0032484105
222	0x3dad28bb	0.08455034
223	0x3b894a13	0.0041897385
224	0xbd827f95	-0.063719906
225	0xbdd1b6a1	-0.10239912
226	0xbc94a16b	-0.018143376
227	0x3f2edcc5	0.6830562
228	0xbd89f926	-0.067369744
229	0x3d636519	0.055516336
230	0xbd85dd35	-0.065363325
231	0x3c5fa5ca	0.013650367
232	0xbd48025e	-0.048830383
233	0x3dd88ddd	0.10573933
234	0xbcb9b4f2	-0.02266929
235	0xbcf9b446	-0.030481469
236	0x3d40de5d	0.047087062
237	0x3c555f80	0.013023257
238	0xbdc07009	-0.09396369
239	0x3e189225	0.148995
240	0x3dc8a587	0.09797197
241	0xbd39c9b7	-0.045358386
242	0x3d01d78b	0.0316997
243	0xbd64226d	-0.055696893
244	0xbd8cb2a5	-0.06870011
245	0xbdb94660	-0.09046626
246	0xbd3cbb31	-0.046076957
247	0xbd852508	-0.06501204
248	0xbdfb87d7	-0.12281769
249	0x3c6a5685	0.014302854
250	0x3d30e50d	0.04318719
251	0x3d3db8bf	0.046318766
252	0xbd0e5ef3	-0.03475852
253	0xbdbbb455	-0.09165255
254	0xbc6d4561	-0.014481873
255	0x3d087b6e	0.033320837

l4.weight f4 [1, 256]
0	0xbd2fb3fe	-0.042896263
1	0xbc6b2a46	-0.0143533405
2	0xbc62cd9b	-0.0138429655
3	0xbb7b9e77	-0.0038394013
4	0xbbaa8071	-0.0052032997
5	0x3d2fa75b	0.042884212
6	0x3caa568b	0.02079322
7	0x3b1b528b	0.0023700322
8	0xbd2c79a9	-0.04210821
9	0xbc8109e4	-0.015751787
10	0xbc59ad19	-0.013285899
11	0x3da1015d	0.07861588
12	0xbcd64c17	-0.02615933
13	0xbd28f58e	-0.041249804
14	0xbc4ee891	-0.01262869
15	0x3cf5b97b	0.02999567
16	0x3d693150	0.056931794
17	0x3be32aee	0.006932608
18	0x3e195e46	0.14977369
19	0xbd0bf7a2	-0.034171708
20	0x3db83780	0.08994961
21	0xbd906b53	-0.070517205
22	0x3e09ad80	0.13445091
23	0xbd6d6385	-0.057956237
24	0xbb2b205e	-0.0026111822
25	0x3b9badb7	0.004750933
26	0xbc94e135	-0.018173793
27	0xbc9450f1	-0.018105002
28	0xbd1c47ec	-0.038154528
29	0x3d9205aa	0.071299866
30	0xbc9911db	-0.018685272
31	0x3bd2c658	0.006432336
32	0x3accbc2c	0.0015620044
33	0x3d0333e0	0.032031894
34	0xbbfba7f0	-0.007679932
35	0x3d964f25	0.07339314
36	0x3d148426	0.03625884
37	0x3dbade2a	0.09124406
38	0xbcb71410	-0.022348434
39	0x3bbd1edf	0.0057715024
40	0x3d09cdd8	0.033643574
41	0xbc7ac04b	-0.015304635
42	0xb8b8edb6	-8.818081e-05
43	0xbb441313	-0.0029918596
44	0x3de39155	0.11111704
45	0x3daef4d6	0.085427925
46	0xbb9ff259	-0.004881185
47	0x3d6d8fcf	0.057998475
48	0x3c8912c4	0.016732581
49	0xbb867017	-0.0041027176
50	0x3d5d04be	0.0539596
51	0x3d9ba2a5	0.07599381
52	0xbc81ec42	-0.015859727
53	0xbcadf9b9	-0.021237241
54	0xbcdb5d75	-0.026777962
55	0xbd7a4542	-0.061101206
56	0x3da4636c	0.08026776
57	0xbbb07fba	-0.00538632
58	0xbbd1f1c6	-0.0064069955
59	0xbc7a5f23	-0.015281471
60	0xbc9882c1	-0.018617036
61	0xbc9d474a	-0.019199032
62	0x3ddf14cc	0.108926386
63	0x3d63b2cc	0.055590436
64	0x3d4b994c	0.049706742
65	0x3c3e03d8	0.011597596
66	0xbaa03405	-0.0012222534
67	0x3d134f30	0.03596419
68	0x3e0f6781	0.14004327
69	0x3db93017	0.090423755
70	0xbb9f8b3b	-0.0048688925
71	0xbd3bf656	-0.04588922
72	0x3d8fb939	0.0701775
73	0x3da4fc2a	0.08055909
74	0xbc5508ce	-0.0130025875
75	0x3d8c3c5b	0.068474494
76	0xbd1ddac4	-0.03853871
77	0xbcbe7b2b	-0.02325209
78	0x3dc1bc13	0.094597004
79	0x3d590f55	0.052993137
80	0x3dc30abf	0.09523534
81	0xbd34a905	-0.044106502
82	0xbc0cee51	-0.008601741
83	0xbc08561f	-0.008321314
84	0xbd1b1d1f	-0.03786957
85	0xbda11302	-0.078649536
86	0xbc4f1c5a	-0.012641037
87	0x3dd0c7d0	0.10194361
88	0xbcfc06da	-0.030764986
89	0x3c181e7f	0.009284615
90	0xbc7862cc	-0.015160274
91	0x3dce4f81	0.10073758
92	0x3cb07f11	0.021544965
93	0xbd7fe9d9	-0.062478874
94	0x3d259f54	0.04043515
95	0xbcc3896b	-0.023869237
96	0x3e0ffe77	0.14061914
97	0xbc395cd1	-0.011313633
98	0xbba0eb75	-0.004910881
99	0xbd1ec2fa	-0.038760163
100	0x3c35d9ed	0.011099321
101	0xbbd83a7d	-0.006598769
102	0x3cb1056b	0.021609029
103	0xbcc85a90	-0.024457246
104	0x3d371a5e	0.04470288
105	0x3db2f9ed	0.08739076
106	0x3dc07ef0	0.093992114
107	0x3b66926d	0.0035182491
108	0xbd591086	-0.052994274
109	0x3d53be41	0.051695112
110	0xbbf2107e	-0.00738722
111	0xbc15c7cb	-0.009141873
112	0xbb373783	-0.0027956672
113	0x3dc04131	0.09387434
114	0x3d4b8b9b	0.049693685
115	0x3c19cc22	0.009387048
116	0x38aece60	8.335407e-05
117	0x3de3d361	0.11124302
118	0xbc8c2771	-0.01710865
119	0xbc008e72	-0.007846462
120	0x3dc7e495	0.097603954
121	0xbd2677dd	-0.040641654
122	0xbd218764	-0.03943576
123	0xbcfc462b	-0.030795177
124	0xbd2c3b13	-0.042048525
125	0xbc7ab295	-0.015301366
126	0xbc0f7efd	-0.008758304
127	0x3c377e7e	0.011199592
128	0x3c903835	0.017604927
129	0xbbb55ff9	-0.0055351225
130	0x3ce35ab3	0.02775321
131	0x3dcbba9b	0.099477015
132	0xbd18c428	-0.037296444
133	0xbb5b338e	-0.0033447477
134	0xbc9ec16a	-0.019379336
135	0xbb799620	-0.0038083866
136	0x3a47be02	0.0007619561
137	0xbc7f9ad6	-0.015600881
138	0x3df207bc	0.118178815
139	0xbc6ab101	-0.014324428
140	0x3d9a2a79	0.07527632
141	0xbbca1c68	-0.006167937
142	0xbb200e10	-0.0024422444
143	0xbb4a3322	-0.0030853231
144	0xbc3cbdbc	-0.011519846
145	0xb94428b1	-0.00018707175
146	0x3cb635d9	0.022242473
147	0xbd4b7d7c	-0.049680218
148	0x3d8310e9	0.0639971
149	0x3afa0310	0.0019074399
150	0xbd40e66e	-0.047094755
151	0x3b5da0b7	0.0033817717
152	0x3a068674	0.00051317294
153	0x3a97dc03	0.0011585954
154	0xbcbd3100	-0.023094654
155	0x3d871b54	0.06597009
156	0x3a11c85f	0.00055611687
157	0x3cb5bda5	0.022185156
158	0x3d9ac1c5	0.0755649
159	0xbd29f24e	-0.041490845
160	0x3bb7405f	0.0055923904
161	0x3d9fa1ef	0.07794558
162	0x3d8e5352	0.06949486
163	0xbcd5f68b	-0.026118537
164	0x3d83fa08	0.06444174
165	0xbd33bdbe	-0.043882124
166	0x3d9754e9	0.07389242
167	0x3baa5f80	0.005199373
168	0xbbd5aedb	-0.0065210885
169	0x3a829fee	0.0009965876
170	0xbd163981	-0.036675934
171	0xbd56ef2f	-0.052474197
172	0x3d8589db	0.065204345
173	0x3d469965	0.048486132
174	0x3b2d9c4e	0.002649087
175	0xbd802c6c	-0.06258473
176	0xb9d6e8f4	-0.00040990824
177	0xbbcb4806	-0.006203654
178	0xbccc97c6	-0.024974715
179	0xbb5c9020	-0.003365524
180	0xbc8e60db	-0.017380169
181	0xba8f8899	-0.0010950743
182	0x3c688bb6	0.014193466
183	0x3ddc4e1c	0.10757086
184	0x3d9fa90c	0.07795915
185	0x3c2dc6e7	0.010606504
186	0xbc88da8e	-0.016705777
187	0x3ac717a9	0.0015189546
188	0xbc6ab1c5	-0.01432461
189	0x3d6b7fe2	0.057495005
190	0x3c4c650b	0.012475262
191	0x3bb50dbe	0.00552532
192	0x3d54896c	0.05188887
193	0xbd9c4a05	-0.076313056
194	0x3dd620cb	0.104554735
195	0xbc40b4f6	-0.011761894
196	0xbce8781b	-0.028377583
197	0x3d811f2a	0.06304772
198	0x3d4eef3a	0.050521113
199	0x3d8dc4ff	0.0692234
200	0xbcd19a5a	-0.025586296
201	0x3d65286e	0.05594676
202	0xbc92a2c5	-0.01789988
203	0x3b088842	0.002083317
204	0x3bed8bd0	0.007249333
205	0xbcacdcd9	-0.021101402
206	0xbcca84a1	-0.024721446
207	0xbc8326c7	-0.016009701
208	0xbd1b3a48	-0.03789738
209	0x3d7f28a3	0.062294614
210	0xb9f820a5	-0.00047326568
211	0x3d40a94c	0.047036454
212	0x3d926d5f	0.07149767
213	0xbc775747	-0.015096492
214	0x3dd44cfc	0.10366246
215	0xbbf8ada7	-0.0075890603
216	0x3d6f8565	0.058476824
217	0x3d395cc1	0.045254473
218	0xbb721a2c	-0.003694187
219	0x3b380a13	0.0028082177
220	0x3cc91516	0.024546187
221	0xbcdf9ee2	-0.02729744
222	0xbd75bd1f	-0.059994813
223	0xbd312e53	-0.04325707
224	0x3d1a98a5	0.03774323
225	0xbbbc5417	-0.005747329
226	0xbd43ed27	-0.047833588
227	0x3d8fb12f	0.07016217
228	0xbd35905a	-0.044327118
229	0xbd3b7a89	-0.045771156
230	0x3cbba9b3	0.022908067
231	0x3d937b31	0.07201231
232	0xbc3e7bbd	-0.011626181
233	0x3d4ceb30	0.05002898
234	0xbb9e1ea5	-0.0048254305
235	0x3d18f4af	0.037342723
236	0xbcc77ad0	-0.024350554
237	0xbb4f512f	-0.0031634083
238	0x3d701868	0.058617026
239	0x3d86ad9f	0.06576084
240	0x3d0f2cd0	0.034954846
241	0x3c4dfca6	0.012572443
242	0x3bd99166	0.0066396473
243	0x3cb06790	0.021533757
244	0xbc75c7a3	-0.01500121
245	0x3a9bb5b5	0.0011879714
246	0xbce37dd6	-0.027769964
247	0x3cc135c3	0.023585206
248	0xbbed5f44	-0.0072440226
249	0xbc6ecd0a	-0.014575252
250	0xbc38d151	-0.011280374
251	0xbce6bd8f	-0.02816656
252	0xbbab8733	-0.005234623
253	0x3e6e2178	0.23254955
254	0xbd148fe5	-0.03627004
255	0x3cfeafd4	0.0310897
