models/GMI_pretrained/GMI_GPM_channel_predictor_10H_nonocean.pt (torch, 545332 bytes, 7 tensors)

l1.weight f4 [256, 13]
0	0xbe1b0ffa	-0.15142813
1	0xbe3b9d2f	-0.1832168
2	0xbe710bca	-0.23539653
3	0xbe742e80	-0.23845863
4	0xbc3d691e	-0.011560706
5	0x3d0bb85a	0.03411136
6	0xbe650cb7	-0.22368132
7	0x3e8569d8	0.26057315
8	0xbe3c5ec4	-0.18395525
9	0x3e897810	0.26849413
10	0xba8f13f7	-0.0010915984
11	0x3e7b9283	0.24567609
12	0x3dd38982	0.10328962
13	0x3b8a9ab4	0.004229868
14	0x3e1e98d2	0.15487984
15	0xbe5fb7ba	-0.2184743
16	0x3e1e2eaf	0.15447496
17	0xbdae90d5	-0.08523718
18	0xbd898fe2	-0.067168966
19	0xbdb96903	-0.090532325
20	0x3e668ef5	0.22515471
21	0xbcfe1c4e	-0.031019356
22	0xbe3da515	-0.18520005
23	0xbe8e357f	-0.2777519
24	0x3dc9124a	0.098179415
25	0x3e4d5613	0.20052366
26	0x3ea63230	0.32460165
27	0xbedfee0d	-0.43736306
28	0xbcda833f	-0.026673911
29	0xbe32c904	-0.17459494
30	0x3e3633fd	0.1779327
31	0x3e65a07d	0.22424503
32	0x3eb64fac	0.3560766
33	0xbe3b2a62	-0.18277887
34	0x3e01446c	0.12623757
35	0xbd3f04e3	-0.04663552
36	0xbdbf5689	-0.09342677
37	0xbe663c2a	-0.22483888
38	0x3e94f3ea	0.29092342
39	0xbe9a9d1e	-0.30197996
40	0x3e8e5dad	0.27805844
41	0x3e783927	0.24240552
42	0xbcec59c2	-0.028851394
43	0x3e66bccc	0.22532958
44	0xbeb6424b	-0.35597453
45	0xbe882596	-0.26591176
46	0xbe45dedf	-0.193233
47	0xbe8b71fb	-0.27235398
48	0x3e3edaf2	0.18638209
49	0xbdf430ff	-0.11923408
50	0xbe93804b	-0.28808817
51	0xbf1ac48e	-0.6045617
52	0x3db44534	0.08802262
53	0xbde50b2c	-0.111837715
54	0xbd7137f7	-0.058891263
55	0x3e821b88	0.2541163
56	0xbcff3855	-0.03115479
57	0xbe255501	-0.16145708
58	0xbe6849b5	-0.22684367
59	0xbcd66019	-0.02616887
60	0xbe3060fc	-0.17224497
61	0x3e29d378	0.16584575
62	0xbc487fef	-0.012237533
63	0xbe3f8273	-0.18702106
64	0x3c3c44ca	0.01149101
65	0xbe0fa2b2	-0.14026907
66	0xbe46b94e	-0.19406626
67	0x3e6588f8	0.2241553
68	0x3e7ab343	0.24482445
69	0xbc5d3dcd	-0.013503504
70	0x3c2cc1d5	0.01054426
71	0xbe20abe3	-0.1569057
72	0xbd22ceaf	-0.03974789
73	0xbe81a611	-0.2532201
74	0x3d9f7e4d	0.07787762
75	0xbe8d7b4e	-0.27633137
76	0x3dc55a75	0.09636394
77	0xbe25d1c2	-0.16193298
78	0xbdb20424	-0.08692196
79	0x3e1d78e0	0.15378141
80	0xbbe4a3ab	-0.0069775186
81	0xbe91bdc7	-0.284651
82	0xbe1e8dc0	-0.15483761
83	0x3e071e98	0.13195264
84	0x3d9f2a68	0.0777176
85	0xbd202149	-0.039094243
86	0xbe60437b	-0.21900742
87	0x3dafbbec	0.08580765
88	0xbcd687b7	-0.02618776
89	0x3e6b3cd2	0.2297242
90	0x3d4d9693	0.050192427
91	0xbdd558ff	-0.10417365
92	0x3df40158	0.11914319
93	0x3d9f38ac	0.07774481
94	0xbe5dcf3d	-0.21661086
95	0xbe72ba91	-0.23703982
96	0xbe8bd770	-0.27312803
97	0xbe86700b	-0.26257357
98	0xbd177be3	-0.036983382
99	0xbe8c3eab	-0.27391562
100	0x3e43f4e5	0.19136389
101	0x3e2724dd	0.16322656
102	0xbc5772ac	-0.0131498985
103	0x3e2e12f5	0.16999419
104	0xbe6bbe38	-0.23021781
105	0xbe0b88db	-0.13626425
106	0x3d89ef47	0.06735092
107	0xbd85b907	-0.06529432
108	0xbda7c80c	-0.08192453
109	0x3dbcfd01	0.09227944
110	0xbe170d78	-0.14751232
111	0x3d36fe8c	0.04467635
112	0x3d7dbc3a	0.061947085
113	0xbce2d905	-0.027691374
114	0xbde7e602	-0.113231674
115	0xbe536dda	-0.20647374
116	0xbe34b5ca	-0.17647472
117	0xbe6dec05	-0.23234566
118	0x3d046a02	0.03232766
119	0xbe1e43ab	-0.15455501
120	0x3e38092d	0.1797225
121	0xbcf60944	-0.030033715
122	0x3e32c60a	0.17458358
123	0x3e09c0af	0.13452409
124	0xbe3649ee	-0.1780164
125	0x3dbba336	0.091619894
126	0x3caae468	0.020860866
127	0xbe756315	-0.23963578
128	0xbe3e710e	-0.18597814
129	0x3e502c05	0.20329292
130	0xbe268c2a	-0.16264406
131	0x3e22d48d	0.15901394
132	0xbde030c4	-0.10946801
133	0xbe89e7aa	-0.26934558
134	0xbdc82da2	-0.09774329
135	0x3e3d1578	0.18465221
136	0xbb84ca86	-0.004052463
137	0xbcf17e72	-0.02947924
138	0x3e7c3605	0.24629982
139	0xbe29f8ff	-0.1659889
140	0xbe67b7a1	-0.22628643
141	0x3e4d67aa	0.20059076
142	0x3dfd349e	0.123635516
143	0x3dfd6ee1	0.12374664
144	0x3c8e7498	0.01738958
145	0x3e34d86c	0.17660683
146	0xbe883d0a	-0.2660907
147	0xbd0ab579	-0.033864472
148	0xbdf9f9cd	-0.12205849
149	0xbe011ff3	-0.12609844
150	0xbdfc2a41	-0.12312747
151	0xbdddd630	-0.10831869
152	0x3d3a67fa	0.045509316
153	0x3dac6e34	0.08419457
154	0xbd4718b6	-0.04860755
155	0xbe14bd10	-0.14525247
156	0xbe3339d6	-0.17502531
157	0x3ee7cc7a	0.4527319
158	0xbe6b1be3	-0.22959857
159	0xbd589a29	-0.052881394
160	0x3e7663a1	0.24061443
161	0xbddedb46	-0.10881667
162	0xbe56e020	-0.20983934
163	0xbd185f48	-0.037200242
164	0x3e6e1fc8	0.23254311
165	0x3c9e63c0	0.019334674
166	0xbe5a52e5	-0.21320684
167	0x3d97d60f	0.07413875
168	0xbd3c4928	-0.045968205
169	0x3d64c2e7	0.055849936
170	0x3d69bccb	0.057064813
171	0x3e0e4958	0.13895166
172	0xbe2dd285	-0.16974838
173	0x3d715ba3	0.058925282
174	0x3dad7fa8	0.08471614
175	0xbe17a9a7	-0.14810811
176	0xbed40186	-0.41407412
177	0x3e0a1096	0.1348289
178	0xbe8104b1	-0.25198892
179	0x3cb0e314	0.021592654
180	0xbea0209a	-0.31274873
181	0xbe7c5474	-0.24641591
182	0x3e63f443	0.22261147
183	0xbeacadfd	-0.33726493
184	0xbd585229	-0.05281273
185	0x3e3c973b	0.18417065
186	0xbe7c1f24	-0.24621254
187	0xbde9c1aa	-0.114138916
188	0xbe51a142	-0.20471671
189	0xbde2f225	-0.11081342
190	0x3d838ab3	0.06422939
191	0x3dcb2c66	0.09920578
192	0x3e17aa3a	0.1481103
193	0x3dc31134	0.095247656
194	0xbe0c073d	-0.13674636
195	0xbe07518d	-0.13214703
196	0x3e866e6f	0.2625613
197	0xbe3993a4	-0.18122727
198	0xbe3c3eeb	-0.18383376
199	0x3d9b06a7	0.07569628
200	0xbd98fa97	-0.07469671
201	0xbe8c7e40	-0.2744007
202	0x3e337bc2	0.17527679
203	0x3c1836d9	0.00929042
204	0x3e66e6d7	0.22548996
205	0x3e276bbb	0.1634969
206	0xbe876b7c	-0.26449192
207	0xbc89aadf	-0.01680511
208	0x3df5262b	0.119701706
209	0xbd0ee396	-0.03488501
210	0x3ed482a0	0.4150591
211	0xbe19a45d	-0.15004106
212	0xbe992613	-0.2991186
213	0xbe1ce395	-0.1532119
214	0x3e27500a	0.16339126
215	0xbdf152aa	-0.11783345
216	0x3e5139b8	0.20432174
217	0x3e33f9b1	0.17575718
218	0xbe7a9640	-0.24471378
219	0xbda29868	-0.079392254
220	0x3e32db3a	0.17466441
221	0x3ec9990e	0.39374584
222	0xbe9ddd76	-0.30833024
223	0xbe8409a3	-0.25788602
224	0x3eaac6a9	0.3335469
225	0x3ebefbfc	0.37301624
226	0xbeb2b29e	-0.349019
227	0x3de37a75	0.11107341
228	0xbe1f9107	-0.15582667
229	0x3e70800b	0.23486345
230	0xba5f9ecf	-0.0008530439
231	0xbebe0c4f	-0.37118766
232	0xbd30750c	-0.043080375
233	0x3d593a3d	0.053034056
234	0xbe4340af	-0.19067644
235	0xbde809ff	-0.113300316
236	0x3e0233f8	0.12715137
237	0x3e1d189f	0.15341423
238	0xbd4292dd	-0.04750334
239	0xbe5c4df0	-0.21514106
240	0xbd501b3f	-0.050807234
241	0x3e13b932	0.14426115
242	0x3d3e4bb6	0.046458922
243	0xbe44eb37	-0.19230352
244	0x3dc95646	0.098309085
245	0xbddab113	-0.106783055
246	0xbe7c8397	-0.24659573
247	0xbe278614	-0.1635974
248	0xbdcb0a7b	-0.09914108
249	0xbe198100	-0.14990616
250	0x3d7f3300	0.062304497
251	0x3c540116	0.012939712
252	0xbdbcfea5	-0.09228257
253	0xbe173f55	-0.14770253
254	0x3dbd3c34	0.092399985
255	0xbe790099	-0.24316634

l1.bias f4 [256]
0	0xbddbf1b1	-0.10739458
1	0xbe950b9e	-0.29110426
2	0xbda1f18e	-0.07907401
3	0xbc6a56d2	-0.014302926
4	0x3dfa2fbf	0.12216138
5	0x3daf5b8f	0.08562385
6	0xbd846dc4	-0.06466249
7	0xbe700fa9	-0.23443474
8	0xbe42679d	-0.18984838
9	0x3e23f8bf	0.16012858
10	0xbe13bfa7	-0.14428578
11	0x3ec10fb5	0.37707296
12	0xbf531a56	-0.8246206
13	0x3d9aca7d	0.07558153
14	0x3ebddb85	0.37081543
15	0xbe7f71e9	-0.24945797
16	0x3f336c27	0.700869
17	0xbfed19b1	-1.8523465
18	0xbe354f73	-0.17706089
19	0xbe2cda06	-0.16880044
20	0x3f1041a7	0.5635018
21	0x3f059a75	0.5218881
22	0x3e1121fe	0.14173123
23	0x3f222e9b	0.63352364
24	0xbd55ad1a	-0.052167036
25	0x3e45ecca	0.19328609
26	0x3f79a7fb	0.9752194
27	0xbdcf4a0d	-0.10121546
28	0xbe804abe	-0.25057024
29	0xbd077b8a	-0.0330768
30	0x3c092fc2	0.008373203
31	0xbeb3da45	-0.35127464
32	0xbca2184e	-0.01978698
33	0xbd99ff4a	-0.07519396
34	0x3c2cf4c6	0.010556405
35	0xc02d55b3	-2.7083557
36	0x3d98ff19	0.07470531
37	0xbe356032	-0.17712477
38	0x3e413090	0.18866181
39	0x3e7e0471	0.24806382
40	0xbcc5a70a	-0.024127502
41	0x3ede15cd	0.43376008
42	0x3e0334bc	0.12813085
43	0x3e091f8b	0.13390939
44	0x3e0bcbda	0.13651982
45	0xbf689176	-0.90846956
46	0x3e364ea8	0.17803442
47	0x3e16a152	0.14709976
48	0xbe4989c5	-0.19681461
49	0xbf845848	-1.0339441
50	0xbd1f808f	-0.038940962
51	0x3e471c0f	0.19444297
52	0x3eea2b48	0.45736146
53	0xbe29113a	-0.16510478
54	0xbdb68ecf	-0.08913957
55	0xbe957627	-0.29191706
56	0xbe390f9a	-0.18072358
57	0xbda9c8f5	-0.08290283
58	0x3e6baeaa	0.23015848
59	0x3e5e39bb	0.2170171
60	0xbc2632ed	-0.010143978
61	0xc00f9534	-2.2434816
62	0x3d9da386	0.07697205
63	0xbe5623c6	-0.20912084
64	0x3eafd544	0.34342396
65	0xbd3002f9	-0.042971585
66	0xbddf946d	-0.10916982
67	0x3e4e13ff	0.20124815
68	0x3e3bdb7e	0.18345448
69	0x3f973625	1.1813399
70	0xbf9b5045	-1.2133871
71	0xbd7654eb	-0.060139578
72	0xbece2375	-0.40261427
73	0x3d85fe95	0.06542698
74	0x3f02400b	0.5087897
75	0xbf29f3a0	-0.6638737
76	0xbd9fb304	-0.077978164
77	0x3f3a9654	0.7288563
78	0xbdc116c1	-0.09428168
79	0x39e18779	0.0004301628
80	0x3e422d2c	0.18962544
81	0xbe85c726	-0.261285
82	0xbdbdd478	-0.09269041
83	0x3f22bdd7	0.6357092
84	0x3e36fa3b	0.17868893
85	0x3e662440	0.22474766
86	0xbe46a5d7	-0.193992
87	0x3db0d6f9	0.08634753
88	0x3eb20424	0.34768784
89	0xbe63a19f	-0.22229622
90	0xbd624020	-0.055236936
91	0x3e841b20	0.25801945
92	0xbdb4b828	-0.088241875
93	0x3ec703e8	0.38870168
94	0xbe44ab97	-0.19206081
95	0x3d7151ee	0.058916025
96	0x3dad4c48	0.08461815
97	0x3d12005c	0.035644874
98	0xbdc1a0fb	-0.09454533
99	0xbec5b830	-0.38617086
100	0xbdb3c1c5	-0.08777193
101	0x3e44678b	0.19180124
102	0x3e4f2b77	0.20231424
103	0xbe5817bc	-0.21102804
104	0xbd37f10e	-0.044907622
105	0x3ef6049d	0.48050395
106	0xbf54dac6	-0.8314632
107	0x3d918309	0.07105071
108	0x3e9934a9	0.2992299
109	0xbbbd01b8	-0.005768027
110	0x3e2834e0	0.1642642
111	0x3e2296b5	0.15877803
112	0xc02d0c6a	-2.7038827
113	0x3e1b9d81	0.15196802
114	0xbe0714fd	-0.131916
115	0xbd5b4b3b	-0.053538542
116	0xbe82bb5c	-0.2553357
117	0x3d25333f	0.040332075
118	0x3eb22486	0.3479349
119	0xbe5ff9c8	-0.21872628
120	0x3e0b3861	0.13595726
121	0xbe836a20	-0.25666904
122	0xbe801843	-0.2501851
123	0x3e87c858	0.26520038
124	0xbf40f644	-0.7537577
125	0xbf826a76	-1.0188739
126	0xbe023f01	-0.12719347
127	0x3e30292a	0.17203203
128	0x3c08793d	0.008329687
129	0x3edfa209	0.4367831
130	0xbe813e19	-0.2524269
131	0x3e5ba2b3	0.21448784
132	0x3f0dd491	0.55402476
133	0x3e6f107e	0.23346135
134	0xbf36d5a7	-0.7141976
135	0x3e6fff8d	0.23437329
136	0x3ee84afe	0.45369714
137	0x3d89e29c	0.067326754
138	0x3de033b1	0.10947359
139	0xbe1f3a94	-0.1554969
140	0xbff9739c	-1.9488406
141	0xbdaf2506	-0.085519835
142	0x3e11e409	0.14247145
143	0xbf251aff	-0.6449432
144	0xbeb0884b	-0.34478983
145	0xbd04ebed	-0.03245156
146	0x3f4e9491	0.80695444
147	0x3ef6ce1f	0.48204133
148	0x3e53b278	0.20673549
149	0x3ab480bf	0.001377128
150	0x3dbfa2a3	0.09357192
151	0x3fb15a46	1.3855674
152	0x3e3b5a15	0.18296082
153	0x3cc4b7e9	0.024013476
154	0x3dacf68b	0.08445462
155	0x3f1f27fb	0.6217038
156	0x3e72dd1f	0.23717164
157	0x3cc36a5e	0.02385443
158	0x3f070322	0.52739155
159	0xbc13a9d4	-0.009012658
160	0xbf1055be	-0.5638083
161	0xbd9d688c	-0.07685956
162	0xbd5c1383	-0.053729545
163	0x3e2aeff6	0.166931
164	0xbe266f7d	-0.16253467
165	0x3e00206d	0.1251237
166	0xbf972ecd	-1.1811157
167	0xbe3653df	-0.17805432
168	0x3e89cb2f	0.2691283
169	0x3fd83c3f	1.6893386
170	0x3d95aba0	0.073081255
171	0xbe867a04	-0.26264966
172	0xbc97250b	-0.01845028
173	0xc0243a47	-2.566057
174	0x3e0c0c71	0.13676621
175	0xbe265716	-0.16244158
176	0xbe0f7364	-0.14008862
177	0x3d179836	0.037010394
178	0x3e807565	0.25089565
179	0x3e6d4fde	0.23174998
180	0x3f5bb1ab	0.85817975
181	0xbd2f7b6f	-0.042842325
182	0x3ca3ecf9	0.020010458
183	0xbdd06f64	-0.10177496
184	0x3d1a6fcc	0.037704274
185	0x3e73c8cb	0.23807065
186	0xbd981fe2	-0.07427956
187	0x3d876051	0.06610168
188	0xbeb8e046	-0.36108607
189	0xc00014dc	-2.0012732
190	0x3d913ae2	0.07091309
191	0x3f30dc93	0.6908657
192	0x3e1b815a	0.15186062
193	0x3f009b4a	0.5023695
194	0xbee74e00	-0.45176697
195	0xbe1f993b	-0.15585797
196	0xbe92c901	-0.2866898
197	0x3f1958eb	0.59901303
198	0xbd063773	-0.032767724
199	0x3dc5a0ae	0.09649788
200	0x3f5c4dbc	0.86056113
201	0x3f25c5bc	0.64754844
202	0xbe7982a3	-0.2436624
203	0x3e8bd9e6	0.2731468
204	0x3dbc3fb0	0.09191835
205	0xbe709376	-0.23493752
206	0x3f9b6982	1.2141573
207	0x3fea4bc2	1.830437
208	0x3e0eb966	0.13937911
209	0xbe85ff40	-0.26171303
210	0x3e82ea4d	0.25569382
211	0x3f289a0b	0.6586005
212	0x3e2908d4	0.16507274
213	0x3cb26072	0.021774504
214	0x3c62487d	0.013811228
215	0xbee5e4d0	-0.44901133
216	0xbf03694d	-0.5133255
217	0x3e8399f1	0.25703385
218	0xbe706fd7	-0.23480164
219	0x3df126ff	0.11775016
220	0xbe1a5ff0	-0.1507566
221	0x3c7cdf51	0.015434102
222	0x3d4ea534	0.05045052
223	0x3f61f275	0.88260585
224	0x3d95e087	0.07318216
225	0xbe8bdae1	-0.2731543
226	0x3e36addb	0.17839758
227	0xbe4f3031	-0.20233227
228	0x3de00fbf	0.10940503
229	0xbd4e44b5	-0.050358493
230	0xbda12ac2	-0.078694835
231	0xbebeb812	-0.3724981
232	0x3e013972	0.1261957
233	0x3f2d0a08	0.6759343
234	0xbd0ed0f3	-0.03486724
235	0x3ee8e7f0	0.45489454
236	0xbe7f670f	-0.24941657
237	0x3e0c7505	0.13716514
238	0xbdba75c9	-0.09104497
239	0xbf043fde	-0.51659954
240	0xbdfd9973	-0.12382784
241	0xbdf84182	-0.121218696
242	0x3f8baacb	1.0911497
243	0x3f19a08e	0.6001061
244	0xbe71556f	-0.23567747
245	0x3e5d931d	0.2163815
246	0xbe7fb932	-0.2497299
247	0x3f8d47a7	1.1037492
248	0x3e0c9755	0.13729604
249	0x3ce1a03b	0.027542224
250	0x3f0be033	0.54638976
251	0x3e5107b2	0.20413092
252	0xbef43d67	-0.47703096
253	0xbc6e0f38	-0.014529996
254	0x3e2e4692	0.17019108
255	0xbe248b53	-0.16068773

l2.weight f4 [256, 256]
0	0xbc715820	-0.014730483
1	0x3b929d63	0.0044743284
2	0xbe2f0df4	-0.17095166
3	0x3dee17b1	0.116256125
4	0xbc8b28f4	-0.016987301
5	0xbac14ac0	-0.0014747009
6	0xbd1706a7	-0.03687158
7	0xbd10e58e	-0.03537517
8	0x3d7c8168	0.06164685
9	0x3a6d85be	0.00090607617
10	0x3ccf7750	0.025325447
11	0x3bd48640	0.0064857304
12	0xbdc57b35	-0.096426405
13	0xbd15d4eb	-0.036580008
14	0xbbbc5e1a	-0.0057485225
15	0xbd2e7ac7	-0.04259756
16	0x3ea06a72	0.3133121
17	0xbf1ca05d	-0.61182195
18	0x3d6f691a	0.058449842
19	0xbcb6e5d3	-0.022326386
20	0xbe38a95e	-0.18033358
21	0xbc01fabf	-0.007933318
22	0x3cdf2218	0.027237937
23	0x3df2d4a2	0.11856963
24	0xbd40f190	-0.047105372
25	0xbdac884f	-0.08424436
26	0x3eb66ba2	0.35628992
27	0x3dc5d604	0.09659961
28	0xbcddd180	-0.027077436
29	0x3c170097	0.009216449
30	0xbe21622a	-0.15760103
31	0xbcfad8de	-0.030620988
32	0xbe24bfc5	-0.1608878
33	0x3d4dc4b6	0.050236426
34	0x3d248e80	0.04017496
35	0xbf0c24b4	-0.54743505
36	0x3df770d9	0.12082071
37	0xbcdf72d4	-0.027276434
38	0xbdbea026	-0.0930789
39	0xbc156150	-0.009117439
40	0xbd58e7c3	-0.0529554
41	0x3c021a6d	0.007940871
42	0x3d194d00	0.03742695
43	0x3e750f6b	0.23931663
44	0x3c29dc81	0.010367514
45	0xbc032195	-0.008003612
46	0x3c88fd4c	0.016722344
47	0xbd2b25e8	-0.041784197
48	0x3e897c6b	0.26852736
49	0x3f252369	0.64507157
50	0xbe653868	-0.22384799
51	0xbcfba02c	-0.030716024
52	0xbd3241bc	-0.04351972
53	0xbd3ec030	-0.046570003
54	0x3d41cf0a	0.04731659
55	0xbc0258c4	-0.007955734
56	0xbcc4248c	-0.023943208
57	0xbd0e9f40	-0.03481984
58	0xbbd38c30	-0.0064559206
59	0xba117a85	-0.0005549568
60	0xbd612ebd	-0.054976214
61	0xbeab18f1	-0.33417466
62	0xbc7d85cb	-0.015473793
63	0xb9b59100	-0.00034631044
64	0xbed00835	-0.4063126
65	0xbd2b4ec0	-0.04182315
66	0xbd35f694	-0.04442461
67	0xbc73b559	-0.01487478
68	0xbcbd0aa0	-0.023076355
69	0xbeb18330	-0.346704
70	0xbde68b1e	-0.11257003
71	0xbad28490	-0.0016061235
72	0xbe379cbf	-0.17930888
73	0x3d4fce2e	0.050733738
74	0xbdc4e3e5	-0.0961378
75	0xbec6698d	-0.38752404
76	0xbc9edeb0	-0.019393295
77	0xbe1f3eaf	-0.15551256
78	0xbbaf60d4	-0.005352119
79	0xbca0b773	-0.019618725
80	0x3d1d5c42	0.038418062
81	0x3cc94998	0.024571225
82	0xbd5272fc	-0.05137919
83	0x3d5ab69f	0.053396817
84	0xbd4e367f	-0.05034494
85	0x3c340218	0.010986827
86	0xbbdff400	-0.006834507
87	0xbcdbce78	-0.02683185
88	0xbcbea0cb	-0.023270031
89	0xbad93380	-0.0016571134
90	0x3e04720b	0.12934129
91	0x3d301b48	0.042994767
92	0x3bc602d6	0.0060428185
93	0x3d053d62	0.032529242
94	0x3c76e110	0.0150683075
95	0xbd1cb864	-0.038261786
96	0x3d3b5c40	0.045742273
97	0x3d1f5658	0.038900703
98	0x3d01f54c	0.031728074
99	0x3d4c3dba	0.049863555
100	0xbe50c4c1	-0.20387556
101	0x3d0e5103	0.034745228
102	0xbc7c52e8	-0.015400626
103	0x38f0d9cd	0.0001148466
104	0xbbe8c508	-0.007103566
105	0x3ba28d66	0.0049607037
106	0x3e55df6b	0.20886008
107	0x3cdbbae9	0.026822524
108	0x3e0d8bbd	0.13822837
109	0x3e537428	0.20649779
110	0xbd2e5a96	-0.04256686
111	0xbc575281	-0.013142229
112	0x3e8c690b	0.2742389
113	0x3c83da28	0.016095236
114	0xbc89b16c	-0.016808234
115	0x3c637448	0.013882704
116	0x3c1937d7	0.009351692
117	0xbd56c4fa	-0.052433945
118	0xbc94dbe3	-0.018171256
119	0xbd283dea	-0.04107467
120	0xbc7874a6	-0.01516453
121	0x3cc9a793	0.024616038
122	0xbc995b9c	-0.01872044
123	0x3d188465	0.037235636
124	0xbcfa9e82	-0.03059316
125	0xbed92828	-0.4241345
126	0x3dc6115f	0.09671282
127	0xbd672f69	-0.0564417
128	0xbc566840	-0.013086379
129	0xbdd90de8	-0.105983555
130	0xbc30dd00	-0.010794878
131	0x3e30a348	0.17249787
132	0xbdf1824b	-0.117924295
133	0xbd789ba0	-0.06069529
134	0xbe12e7f8	-0.14346302
135	0x3c7f2791	0.015573398
136	0x3f2e0dfd	0.67990094
137	0x3d105d31	0.035245124
138	0x3e85a29f	0.26100633
139	0x3ddcfe5a	0.10790701
140	0xbb84ada0	-0.004049018
141	0xbd43ef86	-0.04783585
142	0xbcb5770c	-0.022151493
143	0xbdb4affb	-0.08822628
144	0xbd89fb6e	-0.067374095
145	0xbd730b44	-0.059336916
146	0x3ce1fcc0	0.02758634
147	0xbd841238	-0.064487875
148	0x3d5648e4	0.052315608
149	0xbd4c0930	-0.04981345
150	0xc01a2ef5	-2.409116
151	0x3fa16cac	1.2611289
152	0x3c4a6303	0.012352708
153	0x3e63acbb	0.2223386
154	0xbd4b82ea	-0.049685396
155	0x3dcfa32e	0.10138546
156	0x3d3c883f	0.046028372
157	0xbd31a924	-0.043374196
158	0xbec205a9	-0.37894943
159	0x3c8235fc	0.015894882
160	0x3e1e8e41	0.15483953
161	0x3c25a048	0.010109015
162	0xbd40594c	-0.04696016
163	0xbd19ebd2	-0.03757841
164	0xbcf41661	-0.029795827
165	0x3ca5f87e	0.020260092
166	0xbea6f502	-0.326088
167	0x3d2f15bc	0.042745337
168	0xbd1b9fb0	-0.037994087
169	0xc00d65e1	-2.2093432
170	0x3e7990d5	0.24371655
171	0xbe4bbd78	-0.19896495
172	0xbd010c16	-0.031505667
173	0x3de96d65	0.113978185
174	0xbd287366	-0.041125678
175	0x3c82dcd9	0.015974449
176	0x3c160628	0.009156741
177	0x3ba09b10	0.0049012974
178	0xbd0ed2a8	-0.034868866
179	0x3d5bb806	0.053642295
180	0x3f1f0787	0.6212086
181	0x3c3c0bc8	0.011477418
182	0x3dce6bb7	0.10079139
183	0x3c464c75	0.01210319
184	0x3bb566de	0.0055359444
185	0xbcff2811	-0.031147035
186	0xbd139825	-0.03603377
187	0x3d6b815c	0.057496414
188	0x3e06f93b	0.13181011
189	0xbd8f70ee	-0.070039615
190	0x3d28d6ac	0.041220352
191	0x3cd30e0a	0.02576353
192	0xbd654bb0	-0.055980384
193	0x3e5b6dd9	0.21428622
194	0xbdb09764	-0.086226255
195	0xbd0075a3	-0.031362187
196	0x3df6e70f	0.1205579
197	0x3da4d3fc	0.08048245
198	0xbd58673e	-0.052832834
199	0xbd16f4d4	-0.03685458
200	0x3ec72353	0.38894138
201	0xbe203568	-0.15645373
202	0x3c01ee5d	0.007930365
203	0xbd640040	-0.0556643
204	0x3e36ad2d	0.17839499
205	0x3d286e98	0.041121095
206	0x3fa29e3f	1.2704543
207	0xbe5891c7	-0.2114936
208	0x3d9a0393	0.07520213
209	0x3d173024	0.036911145
210	0xbd72034c	-0.059085175
211	0x3e17ed9a	0.14836732
212	0x3d54a0d9	0.05191121
213	0x3c55697f	0.0130256405
214	0xbe0f0c8d	-0.13969631
215	0xbd7c69aa	-0.061624207
216	0x3d8e5d28	0.06951362
217	0xbd058546	-0.032597803
218	0xbcc162ac	-0.02360662
219	0x3d11f4f0	0.03563398
220	0xbd72f176	-0.059312306
221	0xbc895414	-0.016763724
222	0xbd7c0ab6	-0.061533652
223	0x3daa5673	0.0831727
224	0x3cd33a34	0.02578459
225	0x3c5ad833	0.01335721
226	0x3c2a4778	0.010393016
227	0x3cace758	0.021106407
228	0x3c54a6e8	0.012979247
229	0x3cc257ca	0.023723502
230	0xbc8fc0c4	-0.017547973
231	0xbea648f8	-0.32477546
232	0x3d30d9f8	0.04317662
233	0xbe1a3395	-0.1505874
234	0x3d59b126	0.053147458
235	0xbd7fc7c2	-0.062446363
236	0x3cac695c	0.021046333
237	0xbcff0442	-0.03112996
238	0xbdbeac23	-0.09310176
239	0xbf4530fc	-0.7702787
240	0xbe699972	-0.22812441
241	0x3c087ce8	0.008330561
242	0x3ef647de	0.48101705
243	0xbee6a117	-0.45044777
244	0xbd12d9ac	-0.03585212
245	0x3d8a3d1f	0.06749939
246	0xbd6576b4	-0.056021407
247	0x3eabcfa2	0.3355685
248	0xbc632c3b	-0.013865526
249	0x3b1802f7	0.0023195127
250	0xbe2d1cc4	-0.16905504
251	0x3c8ced98	0.017203137
252	0xbcd770e8	-0.026298955
253	0xbd348c1e	-0.04407894
254	0xbd6f061e	-0.058355443
255	0xbd4e0c70	-0.05030483

l2.bias f4 [256]
0	0x3ee0629d	0.43825236
1	0x3cef025c	0.02917593
2	0xbdb46ba2	-0.08809592
3	0xbd4c35ec	-0.04985611
4	0x3e8f41ca	0.2797988
5	0xbdb08da7	-0.08620768
6	0xbd473788	-0.048636943
7	0x3ea38099	0.3193405
8	0xbd6d7d28	-0.057980686
9	0xbd1a9c7d	-0.037746895
10	0x3ce17f3a	0.027526487
11	0x3e53d101	0.20685197
12	0xbd2b7efa	-0.04186914
13	0xba4feead	-0.0007931989
14	0x3ca7e022	0.020492617
15	0x3d268731	0.040656272
16	0xbd25c595	-0.040471632
17	0xbd436e29	-0.04771248
18	0xbb73ad6a	-0.003718222
19	0x3cc211be	0.0236901
20	0x3c39c3d6	0.011338195
21	0x3cddf9a7	0.027096583
22	0x3a68a269	0.00088742987
23	0xbdf38a55	-0.11891619
24	0xbd753137	-0.059861388
25	0x3f1f921c	0.6233232
26	0x3d314f68	0.04328862
27	0x3d1e4a34	0.038644984
28	0xbc1a8960	-0.009432167
29	0xbb9add05	-0.0047260546
30	0x3d5e5d10	0.05428797
31	0x3f143bd7	0.5790381
32	0xbb5e39a9	-0.003390888
33	0xbc233107	-0.0099604195
34	0xbd0baba6	-0.034099244
35	0xbd95829e	-0.07300304
36	0xbdc6b43f	-0.09702348
37	0x3da9bb88	0.08287722
38	0xbcaf298f	-0.021382121
39	0x3f11dd51	0.5697833
40	0xbd8a711c	-0.06759855
41	0xbd967bfc	-0.07347867
42	0xbbee8b42	-0.0072797844
43	0x3e59269c	0.21206135
44	0xbcb8e38b	-0.022569438
45	0xbd1ef9ea	-0.038812555
46	0x3e4d70b4	0.20062524
47	0xbda740f0	-0.08166683
48	0xbd0037f1	-0.03130335
49	0x3f12a575	0.5728372
50	0x3c49cfca	0.012317607
51	0xbcc5e824	-0.024158545
52	0xbd72d390	-0.059283793
53	0x3b9bc550	0.004753746
54	0xbfcd8e27	-1.6059006
55	0x3c15820c	0.009125244
56	0xbb678fc0	-0.0035333484
57	0x3cf6468a	0.030062933
58	0xbd36144f	-0.04445296
59	0xbd422ee9	-0.04740802
60	0xbd2b8a36	-0.041879855
61	0xbe99ceeb	-0.30040678
62	0x3cf8749d	0.030329043
63	0xbdc8376c	-0.09776196
64	0x3ba7ccee	0.005120865
65	0xbce86772	-0.02836964
66	0xbf8b3488	-1.0875406
67	0x3d7f0ec0	0.062269926
68	0xbd4221ff	-0.047395702
69	0x3d1703e3	0.03686894
70	0xbe1e85e4	-0.15480763
71	0x3f0e7017	0.55639786
72	0xbca610e1	-0.02027172
73	0xbcf0d07b	-0.029396286
74	0xbf261a79	-0.64884144
75	0xbd0bd729	-0.03414074
76	0x3f17bcb4	0.59272313
77	0xbd75fb6f	-0.06005424
78	0x3ca54adb	0.020177295
79	0xbd7cc139	-0.06170771
80	0x3b3aaf07	0.0028485672
81	0xbd570e6a	-0.05250398
82	0x3ebd5877	0.36981556
83	0xbd52bb65	-0.051448245
84	0xbbc3138d	-0.0059532584
85	0xbd8c0f86	-0.06838898
86	0xbd8a9c4c	-0.067680925
87	0xbd550899	-0.052010152
88	0x3af67e70	0.0018805992
89	0xbd145bf4	-0.036220506
90	0xbd8cf0ad	-0.06881843
91	0x3f047338	0.5173831
92	0xbd48e445	-0.04904582
93	0xbcf276f3	-0.029597735
94	0xbd860789	-0.06544406
95	0xbbf94869	-0.007607509
96	0x3ccd225a	0.025040794
97	0xbd4ffc61	-0.050777797
98	0x3ebe13d0	0.3712449
99	0x3f2041f1	0.6260062
100	0xbd84c0ef	-0.06482112
101	0xbcf80658	-0.030276462
102	0xbd0ba737	-0.034095015
103	0xbd543ee8	-0.051817805
104	0xbd8dd707	-0.06925779
105	0x3d2b81ae	0.04187172
106	0x3ea4a165	0.32154384
107	0x3caa3e50	0.020781666
108	0x3cebeeed	0.028800452
109	0xbbb7aef0	-0.005605571
110	0xbcf4856d	-0.029848779
111	0x3ab4f357	0.0013805431
112	0x3edd79b9	0.4325693
113	0x3db2a560	0.08722949
114	0xbb4b0a2a	-0.00309814
115	0xbb2294e4	-0.0024807984
116	0x3d1af56f	0.03783172
117	0xbc0751db	-0.008259262
118	0xbbec878b	-0.0072183064
119	0x3f04c33a	0.5186039
120	0x3bf4134f	0.007448591
121	0xbd2b63c7	-0.041843202
122	0xbd54f001	-0.051986698
123	0x3caa9a59	0.020825552
124	0xbc559817	-0.013036749
125	0xbd86dad3	-0.06584706
126	0xbbad96d2	-0.00529752
127	0x3c70915a	0.014683092
128	0x3ca62ae8	0.020284131
129	0x3c2bd33e	0.010487376
130	0xbd918b96	-0.07106702
131	0x3effd799	0.49969175
132	0xbd1171b0	-0.03550881
133	0xbd0675a5	-0.03282704
134	0xbbde18c1	-0.0067778532
135	0x3f0fc14e	0.56154335
136	0xbd867705	-0.0656567
137	0x3f83a592	1.0284903
138	0xbb8b69c1	-0.00425455
139	0xbd5465a2	-0.051854737
140	0x3f1d202f	0.61377233
141	0x3c5d6c96	0.013514658
142	0x3cb2b091	0.021812709
143	0xbce81b10	-0.028333217
144	0xbd0584bb	-0.032597285
145	0xbc259c33	-0.010108042
146	0x3c8f28e0	0.017475545
147	0xbc967100	-0.01836443
148	0x3b132427	0.0022451968
149	0x3ce1d96f	0.0275695
150	0xbcf541ae	-0.029938545
151	0xbdaa7194	-0.083224446
152	0x3c51b03e	0.012798367
153	0x3b81fc2c	0.003966829
154	0x3c9a1038	0.018806562
155	0xbd56fd1f	-0.05248749
156	0x3e0c1fd8	0.13684022
157	0xbc1242c2	-0.008927049
158	0x3cfd1693	0.030894553
159	0x3cc0263c	0.023455732
160	0x3c734e64	0.014850233
161	0xbb161e3f	-0.0022906212
162	0x3ef3b01b	0.47595295
163	0x3e01fbea	0.12693754
164	0xbd3b0a00	-0.045663834
165	0xbd802508	-0.06257063
166	0xbcc89c42	-0.024488572
167	0xbd61e153	-0.055146527
168	0xbd34e383	-0.044162285
169	0xbb5cb01a	-0.00336743
170	0x3ce89da3	0.02839548
171	0x3c138268	0.009003259
172	0xbdd71fb4	-0.10504094
173	0x3f04682d	0.5172146
174	0xbcde4e7b	-0.027137032
175	0x3cacb30b	0.021081468
176	0xbd3d763a	-0.046255328
177	0xbd44997c	-0.047997937
178	0x3b2662b1	0.0025388415
179	0xbd313656	-0.04326471
180	0xbd07ac86	-0.033123516
181	0x3d3403a3	0.04394878
182	0x3f1b455a	0.606527
183	0xbd1a358d	-0.037648726
184	0xbd48983b	-0.048973303
185	0xbd6e0dbb	-0.058118563
186	0x3bb6d5a8	0.005579669
187	0x3d228bab	0.03968398
188	0xbc04b1c8	-0.008099027
189	0xbf656ee5	-0.89622337
190	0xbd3122bd	-0.04324602
191	0xbd9bc121	-0.07605196
192	0xbdbe3c76	-0.09288876
193	0x3d288bbc	0.041148886
194	0xbc2c19f5	-0.0105042355
195	0x3cf110f7	0.029427035
196	0xbd99cfe2	-0.075103536
197	0x3b15979f	0.002282597
198	0xba3eaad3	-0.00072733796
199	0xbcc87212	-0.024468455
200	0xbd6a667d	-0.057226647
201	0xbc961c07	-0.018323911
202	0x3bf17795	0.0073689916
203	0xbda47d3e	-0.080317006
204	0xbd41879d	-0.04724847
205	0xbd43a729	-0.04776684
206	0xbd4dc382	-0.05023528
207	0x3ebf9fad	0.3742651
208	0xbdbd61c3	-0.09247162
209	0xbcea38de	-0.02859157
210	0x3df4c0a0	0.11950803
211	0x3c4c2893	0.0124608455
212	0xbd783a88	-0.060602695
213	0x3aab1395	0.00130521
214	0x3f18bfd6	0.5966772
215	0x3f809125	1.0044295
216	0x3b8f12c0	0.004366249
217	0x3c87bad1	0.016568573
218	0xbd253f51	-0.040343586
219	0xbc40edd7	-0.011775455
220	0xbcd9cdd7	-0.02658741
221	0x3d930256	0.0717818
222	0x3d442799	0.047889326
223	0xbce1925d	-0.027535612
224	0x3d4c5f2d	0.049895454
225	0xbdba0f4e	-0.090849504
226	0x3ccf3ee5	0.025298545
227	0x3cc2eff3	0.023796057
228	0xbcf326c5	-0.029681573
229	0xbd764dfe	-0.060132973
230	0x3f12c53a	0.57332194
231	0x3ca34288	0.019929186
232	0x3c98a789	0.018634574
233	0xbd883a67	-0.06651764
234	0xbd95c3c1	-0.07312728
235	0x3f14d6bd	0.58140165
236	0xba3b016b	-0.0007133695
237	0xbc2cd534	-0.010548878
238	0xbd4a719f	-0.049424764
239	0x3fc73e0b	1.5565809
240	0x3d12b79c	0.035819635
241	0xbf3c45a5	-0.7354377
242	0x3c90cb9d	0.017675215
243	0xbd86311f	-0.06552338
244	0xbd112f9f	-0.035445806
245	0xbd0dd4e8	-0.03462687
246	0xbd40eadc	-0.04709898
247	0xbd9098fe	-0.07060431
248	0xbc93d7e4	-0.01804728
249	0x3fbe74ba	1.4879372
250	0xbcdf0423	-0.027223652
251	0x3ce39f6c	0.02778598
252	0x3cb68292	0.022279058
253	0x3e1e853c	0.15480512
254	0x3e418cc6	0.18901357
255	0x3d0eea66	0.03489151

l3.weight f4 [256, 256]
0	0x3b58caf2	0.003307995
1	0x3d15d9c4	0.03658463
2	0xbd2fa35a	-0.042880394
3	0xbcdaee00	-0.026724815
4	0xbd2384b7	-0.03992149
5	0xbc8bfc44	-0.017088063
6	0xbd3cc13c	-0.04608272
7	0xbd571289	-0.05250791
8	0xbc9104b5	-0.01770244
9	0x3d333e34	0.043760493
10	0x3d4e32f6	0.05034157
11	0xbaf5a678	-0.0018741628
12	0x3cd1fe14	0.02563385
13	0xbd2fa252	-0.04287941
14	0x3b2714a0	0.0025494471
15	0x3cca0814	0.024662055
16	0xbcabeae2	-0.020986024
17	0xbcd15dfa	-0.025557507
18	0xbd815b8f	-0.063162915
19	0x3c6cf608	0.014462955
20	0x3d50a080	0.050934315
21	0x3c8bfc7a	0.017088164
22	0x3d0645fd	0.03278159
23	0x3c3084e4	0.010773871
24	0xbc9791c8	-0.018502131
25	0xbbf802b7	-0.007568683
26	0xbc6a2e28	-0.014293231
27	0xbd423483	-0.04741336
28	0xbd3d6d66	-0.04624691
29	0xbb1fb053	-0.0024366572
30	0xbd5a7e1c	-0.053342924
31	0x3c0aefa0	0.008479983
32	0xbbab2e21	-0.005224005
33	0xbd547b12	-0.05187518
34	0x3c957e64	0.018248744
35	0xbcc6885c	-0.024234943
36	0xbcd34591	-0.025790008
37	0x3d348c3f	0.04407906
38	0xbcc797ed	-0.024364436
39	0xbe0f5923	-0.13998847
40	0xbcd9367a	-0.026515234
41	0x3d754f16	0.059889875
42	0x3c304ec2	0.010760965
43	0xbd29912d	-0.041398216
44	0xbc0d64c5	-0.008629982
45	0x3c3b8e59	0.011447513
46	0x3d05d47c	0.032673344
47	0xbd0bb36f	-0.034106668
48	0x3d782af1	0.060587827
49	0xbcad8dbf	-0.021185754
50	0x3d4bb510	0.04973322
51	0xbc1fcf38	-0.009753995
52	0x3b1b59c8	0.0023704637
53	0xbd49e4d8	-0.049290508
54	0xbd20bfca	-0.039245404
55	0xbb36e551	-0.002790768
56	0x3d039ba9	0.03213087
57	0x3d33a688	0.04385999
58	0xbd50b791	-0.050956313
59	0x3d7de7c2	0.0619886
60	0xbceb1d4d	-0.028700495
61	0xbcbd4b99	-0.023107337
62	0x3d06c5dc	0.032903537
63	0xbcce00cb	-0.025146862
64	0x3d491f37	0.049102034
65	0xbd2beaca	-0.04197196
66	0xbd8284bd	-0.06372974
67	0xbbccde7f	-0.0062521095
68	0x3ce72408	0.028215423
69	0x3ca98674	0.020693995
70	0xbe4dda74	-0.20102865
71	0xbc8c6ad1	-0.017140778
72	0xbd928913	-0.07155051
73	0x3c86a1a4	0.016434498
74	0xbe2a423b	-0.16626827
75	0x3b6e181b	0.0036330286
76	0xbd8ccc47	-0.068749
77	0x3cad1e49	0.021132605
78	0xbd889c6e	-0.066704616
79	0xbd09cb3f	-0.033641096
80	0x3c6818c2	0.014166059
81	0xbb5cee00	-0.0033711195
82	0xbc85dcd6	-0.016340654
83	0x3d399b02	0.045313843
84	0xbd3751f8	-0.044755906
85	0x3d470025	0.048584122
86	0xbd10f845	-0.03539302
87	0xbd011813	-0.0315171
88	0x3b913e70	0.004432492
89	0xbd45d23c	-0.0482962
90	0x3d782e3c	0.060590968
91	0xbd85339c	-0.06503984
92	0xbb829f8c	-0.0039863046
93	0xbbcea110	-0.0063058212
94	0xba757f0c	-0.000936494
95	0x3d7c3548	0.06157425
96	0xbc2a7f00	-0.010406256
97	0xbc728fff	-0.014804839
98	0x3e2d7368	0.16938555
99	0x3d3877e6	0.04503622
100	0x3cdf75d7	0.02727787
101	0xbd3695ed	-0.044576574
102	0x3d05d73a	0.03267596
103	0xbc2cb9d0	-0.010542348
104	0xbd4bd051	-0.049759213
105	0xbd47cce8	-0.0487794
106	0x3d42c459	0.047550533
107	0x3d1f279a	0.038856126
108	0xbc48bdea	-0.01225231
109	0x3d0074ab	0.031361263
110	0xbd067757	-0.032828655
111	0x3c785788	0.015157588
112	0x3cc46414	0.023973502
113	0xbd782f9b	-0.060592275
114	0x3cab4135	0.020905117
115	0xbd8e376c	-0.06944165
116	0x3bea425d	0.0071490244
117	0x3d83df8e	0.06439124
118	0xbcfb6f55	-0.030692736
119	0xbb485680	-0.0030569136
120	0xbc03e260	-0.0080495775
121	0xbd3cf050	-0.046127617
122	0x3d7cdc8d	0.06173377
123	0xbd38c2eb	-0.045107763
124	0xbd2f0943	-0.042733442
125	0xbcf5ef43	-0.030021315
126	0xbd47e489	-0.048801932
127	0x3c894346	0.016755711
128	0xbcaa9d16	-0.020826858
129	0x3c90e704	0.017688282
130	0x3cbc0ebc	0.022956245
131	0xbd9c3737	-0.07627719
132	0x3c69fdc6	0.014281696
133	0xbd22df69	-0.03976384
134	0x3c482a9c	0.01221719
135	0xbcaec548	-0.021334305
136	0x3d56a6a0	0.052405
137	0xbdad3257	-0.08456867
138	0x3d33cfcf	0.043899354
139	0xbd7eb461	-0.06218374
140	0xbc38ca1c	-0.011278655
141	0xbc922e36	-0.0178443
142	0xbcb91f9c	-0.02259808
143	0x3d4bc0b3	0.04974432
144	0xbc6a9dc8	-0.014319845
145	0x3c1d6490	0.0096064955
146	0x3b5e9ab3	0.003396672
147	0x3c7321b7	0.014839581
148	0xbc91cabf	-0.017796872
149	0xbcdae296	-0.026719373
150	0x3d517911	0.05114085
151	0xbd54fd90	-0.05199963
152	0x3bce12b3	0.00628885
153	0xbc9bac7f	-0.019003151
154	0xbd5c630d	-0.0538054
155	0xbc1b489b	-0.00947776
156	0xbc5ddaee	-0.013540966
157	0xbcdb31f4	-0.026757218
158	0xbd4d6eba	-0.050154425
159	0x3d6e27d6	0.05814346
160	0x3c91b6ec	0.01778742
161	0x3c804914	0.015659846
162	0xbd387651	-0.04503471
163	0xbb95210b	-0.004551058
164	0x3d0e6d44	0.034772173
165	0x3d37ebd1	0.044902626
166	0xbc4c6828	-0.012476005
167	0xbd80eea5	-0.06295518
168	0x3d161bc2	0.036647566
169	0xbd057996	-0.032586657
170	0x3a100a16	0.0005494667
171	0xbcb06648	-0.021533147
172	0x3d2e0d59	0.042493198
173	0xbbbb2374	-0.0057110135
174	0xbcbb70ef	-0.022881
175	0x3ce597f0	0.028026551
176	0xbd5eb191	-0.05436856
177	0xbc44429c	-0.011978772
178	0x3ccfc5e5	0.025362918
179	0xbc8d0390	-0.017213613
180	0xbd0de63c	-0.034643397
181	0x3ce7b6e8	0.028285459
182	0xbd47efb8	-0.048812598
183	0xbc2e66fe	-0.010644672
184	0x3c871d37	0.016493423
185	0x3d1f2176	0.03885027
186	0x3c62eac0	0.013849914
187	0x3d1cf86c	0.03832285
188	0x3d77a348	0.06045845
189	0x3ce04b88	0.027379766
190	0xbbd81590	-0.0065943673
191	0x3d81ac59	0.06331701
192	0xbd737283	-0.05943538
193	0xbd2834e6	-0.041066073
194	0x3c9e2876	0.019306403
195	0xbc8392c0	-0.016061187
196	0x3bdd70e0	0.0067578405
197	0xbd10e136	-0.035371028
198	0x3cc017b7	0.023448808
199	0xbbb0f372	-0.0054001147
200	0x3affbf6c	0.0019512004
201	0x3bfc8603	0.007706405
202	0x3c5d2c50	0.013499334
203	0x3d04792c	0.03234212
204	0x3cec1601	0.028819086
205	0xbc675d46	-0.014121359
206	0x3ccb30c4	0.024803527
207	0x3c1a0b9b	0.009402181
208	0x3bc8aecd	0.0061243535
209	0x3d359ca7	0.04433885
210	0x3c94cd0d	0.018164182
211	0x3c6274c0	0.013821781
212	0xbd731398	-0.059344858
213	0xbc5d476d	-0.013505799
214	0x3d2fb95c	0.04290138
215	0x3c9c9b93	0.019117152
216	0xbb9629c3	-0.004582615
217	0x3d38ad0a	0.045086898
218	0xbd2699ad	-0.0406739
219	0x3d2055ac	0.039144203
220	0xbcabe40f	-0.02098277
221	0xbd1b79f9	-0.03795812
222	0xbc826b87	-0.015920414
223	0x3b7526dc	0.0037407195
224	0xbd2b15d3	-0.04176886
225	0x3bbbb6c2	0.0057285735
226	0xbd229124	-0.039689198
227	0x3d1f8a64	0.03895034
228	0x3d1fcb22	0.039012082
229	0x3c392f48	0.011302777
230	0xbd228d0f	-0.039685305
231	0x3d14f121	0.03636277
232	0x3d541c76	0.051784955
233	0xbc86e3e0	-0.016466081
234	0xbc83bc0b	-0.016080877
235	0xbba58207	-0.005050901
236	0x3ce4ae67	0.027915193
237	0xbd27f45f	-0.041004535
238	0x3d0cd064	0.034378424
239	0x3c8194ae	0.015817966
240	0x3d052fca	0.03251628
241	0xbda7facf	-0.08202135
242	0xbcc99bf9	-0.024610506
243	0x3d886203	0.06659319
244	0xbd643660	-0.05571592
245	0xbd0722a5	-0.032992024
246	0xbd1ba400	-0.0379982
247	0xbd5ed10e	-0.05439859
248	0xbcdf177e	-0.027232882
249	0xbd2c61df	-0.042085525
250	0x3d33ea24	0.043924466
251	0x3d7a6961	0.061135653
252	0x3d6067e3	0.054786574
253	0xbd96c3df	-0.07361578
254	0x3d32b71c	0.043631658
255	0x3c882d25	0.01662309

l3.bias f4 [256]
0	0x3b4ef979	0.0031581803
1	0xbdc45999	-0.09587402
2	0xbc8969b7	-0.016774042
3	0x3cafa7ba	0.021442283
4	0xbf044c12	-0.51678574
5	0xbd3959a0	-0.04525149
6	0xbcf315c4	-0.029673465
7	0x3f2dc2b6	0.6787523
8	0x3e1833f6	0.14863572
9	0x3ea678b6	0.3251397
10	0xbcbe14c9	-0.02320327
11	0x3eca5a0e	0.3952183
12	0xbd7edc3e	-0.062221758
13	0x3ce8a7c0	0.028400302
14	0xbc4f0670	-0.012635812
15	0x3e8d0e89	0.27550152
16	0xbd744d99	-0.059644315
17	0x3f27063e	0.652439
18	0x3ca803de	0.020509657
19	0x3d1c1930	0.03810996
20	0x3db6d548	0.08927399
21	0xbce6fb54	-0.028196014
22	0xbd0c8370	-0.034305036
23	0xbd1fb674	-0.03899236
24	0x3cce4596	0.025179666
25	0x3cfe5916	0.031048339
26	0x3f24a254	0.64310193
27	0xbcc724f1	-0.024309607
28	0xbcbd4b22	-0.023107115
29	0xbd392a58	-0.045206398
30	0xbdb9c53b	-0.09070822
31	0xbd2682bf	-0.040652033
32	0x3c6b8b06	0.0143764075
33	0xbd8c6746	-0.06855635
34	0xbca26240	-0.01982224
35	0x3f274871	0.6534491
36	0x3d27b558	0.040944427
37	0xbd9fb437	-0.07798045
38	0x3f1a43c9	0.6025968
39	0x3f35e16b	0.71047086
40	0xbd57824f	-0.052614506
41	0x3cfeb195	0.031090537
42	0x3cd03533	0.025415992
43	0x3d23b469	0.039966974
44	0xbd610748	-0.054938585
45	0xbe19791b	-0.14987604
46	0x3e3eef94	0.1864608
47	0x3ba78286	0.005111995
48	0x3e560375	0.20899756
49	0xbbca4e0d	-0.006173855
50	0xbc98ab2f	-0.018636314
51	0xbd1c889d	-0.038216222
52	0x3f24ad2f	0.6432676
53	0x3f3e17e3	0.742552
54	0xbd145f8e	-0.03622394
55	0x3e27abc6	0.1637412
56	0xbc283664	-0.010266874
57	0x3ded604e	0.11590634
58	0x3d10080c	0.035163924
59	0xbd9d8661	-0.07691646
60	0x3d6d838e	0.05798679
61	0x3f333baf	0.70012945
62	0x3f2afc19	0.6679092
63	0xbcdc9ab0	-0.02692923
64	0x3d0e5e7c	0.034758076
65	0x3f217390	0.6306696
66	0xbcb78639	-0.02240287
67	0xbd8fc4b6	-0.070199415
68	0x3b16bf22	0.0023002108
69	0xbd59cc44	-0.05317332
70	0xbbe07f44	-0.0068511087
71	0xbd7346c6	-0.059393667
72	0xbcfd32d1	-0.03090802
73	0xbd7de391	-0.061984602
74	0xbd4ea3a2	-0.05044902
75	0x3b845186	0.0040380387
76	0x3d3cac3a	0.046062686
77	0xbc20b8d1	-0.009809689
78	0x3d8d50c6	0.06900172
79	0x3c56c218	0.013107799
80	0xbc839df7	-0.016066534
81	0x3b69b8fc	0.0035663238
82	0xbd2a1479	-0.04152343
83	0x3ba55307	0.005045298
84	0x3f2629b3	0.6490738
85	0x3f2afead	0.66794854
86	0xbd3f2cb1	-0.04667348
87	0xba87aedf	-0.0010351798
88	0xbc6f09bd	-0.014589724
89	0x3d43d65e	0.04781186
90	0x3cf9ffdf	0.030517517
91	0xbce933fe	-0.028467175
92	0x3c962a8c	0.018330835
93	0x3d8a70e1	0.06759811
94	0x3d66e3bd	0.056369532
95	0xbd51a6be	-0.05118441
96	0x3d54c48b	0.05194525
97	0xbdb42ac9	-0.08797223
98	0x3f2b08c3	0.66810244
99	0xbd561adf	-0.05227172
100	0x3cfacfbc	0.030616634
101	0xbc116bc2	-0.008875789
102	0x3d2aa395	0.04165991
103	0xbd8a1eab	-0.06744131
104	0x3c538152	0.01290925
105	0xbe8ed807	-0.2789919
106	0xbdba66cb	-0.091016375
107	0xbc8b2ed9	-0.016990112
108	0xbd883c96	-0.06652181
109	0x3d0f0942	0.03492094
110	0xbd66f3bc	-0.056384787
111	0x3cb0aba4	0.02156622
112	0xbd50daa7	-0.050989773
113	0xbd62fdb6	-0.05541774
114	0xbd1c6905	-0.038186092
115	0xbd53d8db	-0.05172048
116	0xbd2935a3	-0.041310918
117	0x3d4978bf	0.049187418
118	0x3c90555b	0.017618826
119	0x3cdbedef	0.026846854
120	0x3e4a212b	0.19739215
121	0xbcd829f2	-0.026387189
122	0x3cb1dd12	0.02171186
123	0xbd28e86d	-0.041237283
124	0x3dc3f8fb	0.09568974
125	0x3f33a64e	0.70175636
126	0x3eefbeb8	0.46825194
127	0x3ec06300	0.3757553
128	0x3d20370c	0.039114997
129	0xbd972c58	-0.07381505
130	0x3e8347a0	0.25640583
131	0xbd09b07b	-0.03361557
132	0x3f27bdee	0.65524185
133	0xbdbf88e1	-0.093522795
134	0xbbecacb6	-0.007222737
135	0xbd4d02c6	-0.050051473
136	0x3e6ee326	0.23328838
137	0x3f317395	0.6931699
138	0x3c3f26e5	0.011666988
139	0x3c8d328d	0.017236019
140	0x3c9e5dbf	0.019331811
141	0x3f41f899	0.75769955
142	0x3e82992d	0.2550749
143	0xba9ad039	-0.0011811323
144	0x3cc46dd8	0.023978159
145	0x3c268daf	0.010165616
146	0x3fe7eb7b	1.8118738
147	0x3d9c2bca	0.076255396
148	0xbd482c15	-0.048870165
149	0x3d5e3101	0.054245953
150	0x3c380b23	0.011233124
151	0xbd8503b0	-0.06494844
152	0x3d0fbf4e	0.03509455
153	0x3c7ce603	0.015435698
154	0xbc823cc1	-0.01589811
155	0xbcdf92fc	-0.027291767
156	0xbd35ead3	-0.0444134
157	0xbd6cc792	-0.057807513
158	0xbcc3a8e5	-0.023884246
159	0x3d33138a	0.043719806
160	0xbdac1884	-0.084031135
161	0x3d194ac8	0.037424833
162	0x3e58554b	0.21126287
163	0xbc962149	-0.018326418
164	0xbd4f9ea5	-0.050688405
165	0x3ed09a25	0.40742603
166	0xbd870cba	-0.06594224
167	0x3be3f89b	0.0069571263
168	0xbd085291	-0.033281866
169	0xbbbf5724	-0.0058392454
170	0x3b6c37dd	0.003604404
171	0x3d1626ff	0.036658283
172	0xbdb834ef	-0.08994471
173	0x3c986143	0.018601066
174	0xbda3d19c	-0.07998964
175	0x3d5d7de0	0.054075122
176	0xbd87f39d	-0.066382624
177	0xbc231ae6	-0.009955144
178	0x3f4174ee	0.75569046
179	0xbd3b18c0	-0.0456779
180	0xbd08594a	-0.033288278
181	0xbd915cda	-0.07097788
182	0x3bdc4c2c	0.0067229476
183	0xbd55a28a	-0.052156962
184	0xbcbf3fa2	-0.023345772
185	0x3ed39163	0.4132186
186	0xbcb78377	-0.022401555
187	0xbcf19954	-0.029492058
188	0x3f2710fb	0.65260285
189	0xbd4516b3	-0.04811735
190	0xbc36e355	-0.011162599
191	0xbd328aa9	-0.043589268
192	0x3ce65581	0.028116943
193	0xbd5cba81	-0.0538888
194	0x3db9b6ac	0.09068045
195	0x3dfb23e6	0.122627065
196	0xbcb4a26e	-0.022050109
197	0x3d8c6983	0.06856062
198	0x3e1d4094	0.15356666
199	0xbd85ed6a	-0.06539424
200	0xbd01718c	-0.031602427
201	0x3e8e51ec	0.27796876
202	0x3cf095bb	0.029368272
203	0x3f32c888	0.69837236
204	0xbda1b5ae	-0.07895981
205	0xbbc04e9d	-0.0058687464
206	0xbd5ef9c0	-0.0544374
207	0xbb6b8507	-0.0035937445
208	0x3c3dc99e	0.011583714
209	0xbc6d9da4	-0.0145029165
210	0x3c7b59b8	0.015341215
211	0x3d341644	0.043966547
212	0xbc868539	-0.016420947
213	0xbd02a7ae	-0.031898193
214	0x3b365db4	0.0027826848
215	0xbdaba76c	-0.083815426
216	0xbc262224	-0.010139976
217	0xbd04e04c	-0.03244047
218	0xbcdc7c09	-0.026914613
219	0x3d55fff5	0.052246053
220	0xbd90cef5	-0.07070724
221	0x3c82aca2	0.015951458
222	0xbc5ee03b	-0.013603265
223	0xbd7a71d6	-0.06114372
224	0x3b0edc9c	0.0021798974
225	0xbd4e47e2	-0.05036152
226	0xbd1f7da7	-0.03893819
227	0xbbccc756	-0.0062493486
228	0xbd733524	-0.05937685
229	0x3c1943e8	0.009354569
230	0x3d0c0365	0.034182925
231	0x3f18396e	0.5946263
232	0x3d1a4424	0.03766264
233	0xbc7347a6	-0.014848625
234	0x3f3d9af3	0.7406456
235	0xbc9d8479	-0.019228207
236	0x3d04be94	0.032408312
237	0x3cf73fcf	0.030181793
238	0x3f8948be	1.0725324
239	0x3ce8c0fc	0.028412335
240	0xbd8762f7	-0.06610673
241	0xbd826e83	-0.06368735
242	0xbcff7ccc	-0.031187437
243	0x3f3c0d64	0.7345793
244	0xbc8d2c6c	-0.017233096
245	0x3c0f3418	0.008740447
246	0x3d3ba286	0.04580929
247	0x3d6b2f9c	0.05741845
248	0xbce02347	-0.027360572
249	0xbd2d585d	-0.042320598
250	0x3efef8d1	0.49799207
251	0x3d125ff5	0.035736043
252	0x3d4305d5	0.047612984
253	0xbc87b7f9	-0.016567217
254	0x3d44d90f	0.048058566
255	0x3bbc0b12	0.0057386244

l4.weight f4 [1, 256]
0	0xba9bc981	-0.0011885614
1	0xbb2ff97e	-0.002685159
2	0xbc550b4f	-0.013003184
3	0xbcc51167	-0.02405615
4	0x3e37fb5e	0.17966983
5	0xbd11e2d8	-0.035616726
6	0xb9829f2a	-0.0002491412
7	0x3c5b3534	0.013379384
8	0x3b99a01e	0.004688277
9	0x3c3c1a91	0.011480943
10	0xbcfae280	-0.030625582
11	0x3d65c3ae	0.056094818
12	0xbd0fd45b	-0.035114627
13	0x3bce4ec0	0.006296009
14	0xbbd8ae92	-0.0066126073
15	0xba8ea1c4	-0.001088195
16	0x3c8b08ce	0.016971972
17	0x3dbf75f3	0.09348669
18	0x3ca64b8a	0.020299692
19	0x3d4bbc74	0.04974027
20	0xbe1ac423	-0.15113883
21	0x3d193987	0.037408378
22	0xbc4173a0	-0.011807352
23	0x3afac5dc	0.0019132453
24	0xbbd6c02a	-0.0065536695
25	0xbc607414	-0.01369955
26	0x3dafd196	0.08584897
27	0xbab81939	-0.0014045603
28	0xbd0cc965	-0.034371752
29	0xbd7a0790	-0.06104237
30	0xbdc2d023	-0.09512355
31	0x3cca4b9d	0.024694258
32	0xbd454e2b	-0.04817025
33	0x3c426190	0.011864081
34	0xbcfcec12	-0.030874286
35	0x3da3987c	0.079880685
36	0x3ccd73c1	0.02507961
37	0xbb467e57	-0.0030287707
38	0x3d0feeab	0.03513972
39	0x3d4ace87	0.049513366
40	0xbc0d4929	-0.0086234
41	0x3a0e089c	0.0005418153
42	0x3d8b25b2	0.06794299
43	0x3cde2aae	0.02711996
44	0xbc7ab363	-0.015301558
45	0x3ddf50c8	0.1090408
46	0xbb4053d3	-0.0029346838
47	0xbcc36a36	-0.023854356
48	0xbe0402ef	-0.12891744
49	0x3c384b70	0.011248454
50	0xbb99a627	-0.0046889964
51	0x3ca63a89	0.020291584
52	0x3d88b1ba	0.06674524
53	0x3dc589e2	0.0964544
54	0x3bc62170	0.0060464665
55	0xbe0ca1a2	-0.13733533
56	0xbbf05369	-0.007334162
57	0x3b8edabe	0.004359572
58	0x3bc6416a	0.0060502784
59	0xbceb2a80	-0.028706789
60	0x3d2e86f8	0.042609185
61	0x3db3eee8	0.08785802
62	0x3d74a514	0.059727743
63	0x3b8a4ba2	0.004220442
64	0xbb8ddf1f	-0.0043295766
65	0x3d6a47b2	0.05719728
66	0x3d4d8944	0.050179735
67	0xbd222899	-0.0395895
68	0x3b0fcd86	0.002194257
69	0xbca406cb	-0.02002277
70	0xba998eff	-0.001171559
71	0xbc69d777	-0.014272562
72	0x3c38d65b	0.011281575
73	0xbc8c7045	-0.017143378
74	0x3b8a1dca	0.004214977
75	0x3aecebce	0.0018075646
76	0x3c2a695d	0.010401097
77	0xbd579c77	-0.05263945
78	0x3d12fc17	0.035884943
79	0x3ae7e48d	0.0017692015
80	0xbd1df671	-0.038565103
81	0x3d1528b8	0.036415786
82	0xbd7ac2ac	-0.06122081
83	0x3baa56d2	0.005198338
84	0x3dc33fcb	0.09533652
85	0x3ca9e6d7	0.020739956
86	0xbd0e4a4c	-0.034738824
87	0x3aff26e6	0.0019466549
88	0xbce8cf6c	-0.028419219
89	0xbc902ff4	-0.01760099
90	0xbc089d7e	-0.00833833
91	0xbc707b18	-0.014677785
92	0xbcd1a324	-0.025590487
93	0xbcc517f1	-0.024059268
94	0xbce10c96	-0.027471822
95	0x3ba40f1c	0.005006684
96	0x3d55368c	0.052053973
97	0x3bb53f20	0.0055312067
98	0x3dd1ea69	0.10249788
99	0x3d3c02e3	0.04590119
100	0x3aa2f612	0.0012432954
101	0xbc77fec5	-0.015136425
102	0x3c4f3790	0.0126475245
103	0xbc02e26c	-0.0079885535
104	0xbc955fed	-0.018234218
105	0xbe1840e7	-0.14868508
106	0xbbda9294	-0.0066703055
107	0xbcc02f97	-0.023460193
108	0xbd179850	-0.03701049
109	0x3c275d4b	0.010215114
110	0x3c14e5c6	0.009087985
111	0x3c6b10e4	0.014347289
112	0xbd4e978c	-0.050437495
113	0x3c825f01	0.015914442
114	0xbb510ae9	-0.0031897372
115	0xbcac83da	-0.021058965
116	0xbc18f027	-0.0093346005
117	0xbccd46d7	-0.025058193
118	0xba9ccadb	-0.0011962311
119	0xbc41e984	-0.01183546
120	0x3c5b1229	0.013371029
121	0x3c590e57	0.013248048
122	0xbc0d8a76	-0.008638969
123	0xbb9e139b	-0.0048241145
124	0x3b03d352	0.002011497
125	0x3cb4ae95	0.022055903
126	0xbc6334f0	-0.013867602
127	0x3d57f97e	0.05272817
128	0xbc999b92	-0.01875094
129	0xbca0b9bd	-0.019619817
130	0xbe52363b	-0.205285
131	0xbd43fabb	-0.047846537
132	0x3d80cf3d	0.062895276
133	0xbc4a88e6	-0.012361741
134	0x3be0753d	0.0068499134
135	0xbc64f6f6	-0.013974896
136	0xbc830b43	-0.015996581
137	0x3dbf0b1c	0.09328291
138	0x3c207a61	0.009794802
139	0xbb8dce83	-0.0043275966
140	0xbc162a84	-0.00916541
141	0x3ddb05fc	0.10694501
142	0x3b3e0cfd	0.002899944
143	0xbd51cd5b	-0.051221233
144	0xbc051f5c	-0.008125152
145	0x3cef9d1a	0.029249717
146	0xbe375bd0	-0.17906117
147	0xbcad7bec	-0.021177255
148	0x3accec52	0.0015634394
149	0xbd4d9089	-0.050186668
150	0xbd42aa36	-0.047525607
151	0xbca6c550	-0.020357758
152	0x3b8dc84d	0.004326856
153	0xbba5aab0	-0.005055748
154	0xbb9bc72d	-0.004753968
155	0x3c36cd92	0.01115741
156	0xbd722dfb	-0.05912588
157	0xbd4d12d5	-0.050066788
158	0xbc31c5c9	-0.010850378
159	0xbc3bcc98	-0.011462353
160	0xbc302b0c	-0.010752451
161	0x3b1a2e2e	0.002352606
162	0x3b926331	0.004467391
163	0xbba5ad66	-0.005056071
164	0xbcbe8111	-0.023254903
165	0xbe920043	-0.28515825
166	0x3d0442bb	0.0322902
167	0xbd0c2ac5	-0.034220476
168	0xbc08150d	-0.0083058
169	0xbcbfd106	-0.0234151
170	0xbce9b209	-0.028527277
171	0xbb6a1db7	-0.0035723278
172	0x3da567f5	0.08076469
173	0x3c1a6901	0.009424449
174	0xbd82e559	-0.06391401
175	0x3d3890b4	0.045059875
176	0x3c30f721	0.010801108
177	0xbc281ca1	-0.010260732
178	0x3dc9819c	0.09839174
179	0x3c4da143	0.012550655
180	0xbbe2d1f3	-0.0069220006
181	0xbb95c12c	-0.004570147
182	0x3b7d386b	0.0038638364
183	0xbcdddff9	-0.027084338
184	0x3c007882	0.007841231
185	0x3d34b8d9	0.044121597
186	0xba2fc509	-0.0006705081
187	0xbd53fd0e	-0.051755004
188	0x3da74cb3	0.08168926
189	0xbd2235cf	-0.039602097
190	0xbc1478a7	-0.009061969
191	0xbd3fc11d	-0.046815027
192	0x3c5d24b0	0.0134975165
193	0xbc061549	-0.008183786
194	0x3e6fc7a4	0.23416
195	0xbc765834	-0.015035678
196	0xbb320c4d	-0.0027167976
197	0xbba00e94	-0.0048845503
198	0xbbcfe5ce	-0.0063445335
199	0x3d133527	0.035939362
200	0x3bbcb73b	0.0057591475
201	0xbb7e157d	-0.0038770132
202	0xbc270a96	-0.010195395
203	0x3d8e7573	0.069559954
204	0xbd63ff02	-0.055663116
205	0x3cb90db4	0.022589542
206	0xbc804665	-0.015658567
207	0xbcbf03ca	-0.023317236
208	0xbd31d6e9	-0.043417845
209	0xbc9679fc	-0.018368714
210	0x3d27cfab	0.040969532
211	0x3b951788	0.0045499243
212	0x3ab9bbc6	0.0014170341
213	0x3d3fcbdb	0.04682527
214	0x3c06d028	0.008228339
215	0x39eeda7f	0.0004555769
216	0xbb20e6c8	-0.002455162
217	0xbb28d581	-0.0025762024
218	0xbd1a2e81	-0.037642006
219	0x3d14ba93	0.036310744
220	0xbc0d6d01	-0.008631946
221	0x3d4d52e0	0.050127864
222	0xbd1bc97b	-0.038033944
223	0x3d0f69c8	0.03501299
224	0xbd439bac	-0.047755882
225	0xbc8eab1c	-0.017415576
226	0x3ccced8a	0.025015611
227	0x3c902b99	0.017598914
228	0xbc3364f4	-0.010949362
229	0x3d2f238c	0.04275851
230	0xbc6fb6d6	-0.014630994
231	0x3cc63ec6	0.024199855
232	0x3ca68a6b	0.020329675
233	0xbc900103	-0.017578607
234	0x3d88c665	0.06678466
235	0xbd2adbaa	-0.041713394
236	0xbcdd8484	-0.027040727
237	0xbab63a40	-0.0013902858
238	0x3e1d45ce	0.1535866
239	0xbcf88150	-0.030335099
240	0x3cefa8cf	0.029255299
241	0x3b615ec9	0.0034388772
242	0xbcea42f0	-0.028596371
243	0x3d99f13b	0.07516714
244	0x3cbc6610	0.022997886
245	0x3c01a730	0.007913396
246	0x3d11b440	0.03557229
247	0x3c113980	0.008863807
248	0x3cc6fec0	0.024291396
249	0xbd573633	-0.052541923
250	0x3e0df3d5	0.13862546
251	0x3a5370d5	0.00080658245
252	0x3ced433f	0.02896273
253	0xb9d4c5d0	-0.00040583173
254	0xbbb3aff2	-0.005483621
255	0xbd50deb1	-0.050993625
