models/GMI_pretrained/GMI_GPM_channel_predictor_10V_nonocean.pt (torch, 545332 bytes, 7 tensors)

l1.weight f4 [256, 13]
-0.045524936 -0.42791685 0.031628948 0.26508042 0.42100263 -0.17031245 0.061452642 -0.18287322
0.1298311 0.011699035 0.12461099 -0.22615089 -0.061276603 0.15065108 0.12559755 -0.13148022
0.08254511 -0.10106352 -0.054179136 0.007937754 0.12011759 -0.07203256 -0.11240346 -0.13162467
-0.37086093 -0.20269954 -0.11494766 -0.08224087 0.174062 0.104078494 -0.07349612 -0.077024244
-0.0934857 -0.0052810404 0.18594864 -0.15816228 -0.24030551 -0.027953627 0.2205123 0.042714175
0.25594524 -0.25275776 0.26743954 -0.25940818 -0.07942281 -0.26364666 0.24568488 -0.22297768
-0.2609101 -0.19624186 0.23008583 -0.027515514 0.06898848 -0.24225241 0.033073816 0.13956295
-0.020701686 -0.015969884 -0.17614372 -0.21544722 -0.12747212 -0.21118507 -0.02207025 -0.057997577
-0.22277656 -0.043923244 -0.1492863 0.25036573 -0.012841093 0.18710874 -0.27455953 -0.15160234
0.012825487 -0.25130498 -0.024706207 0.26376614 -0.03322055 0.15338977 -0.2176557 0.085148476
-0.24578218 -0.13072479 0.09660163 0.13069467 0.2694611 -0.10302403 -0.12738208 -0.20414196
-0.1816812 -0.08297318 -0.26000467 -0.12345272 -0.20558871 -0.4880317 -0.15511306 0.37557945
0.77732784 0.28635815 -0.35185412 -0.054355316 -0.21779102 -0.022561092 0.09256575 0.4425674
-0.044802945 -0.09910124 -0.14247508 -0.11955459 -0.08815728 0.07517954 0.24658056 -0.2249736
-0.18376786 0.2198842 -0.15231249 -0.14332989 -0.17996871 -0.03917246 -0.048525013 -0.17705156
0.1425813 0.241623 -0.12090117 -0.27158928 0.16021174 -0.23478904 0.20346203 -0.017292274
-0.14930984 -0.21774137 0.017861802 0.13549711 0.1385711 0.0909012 -0.22801532 -0.3040873
0.0025449356 0.15839761 -0.026599385 -0.034260273 -0.09921225 -0.27269483 -0.10480157 0.16458257
0.024124676 -0.16572979 -0.21480542 -0.1502536 0.12604961 0.12888531 0.08437242 -0.22095025
-0.30583835 -0.017226512 -0.20955674 -0.09741557 -0.092675105 -0.15142862 -0.21135241 0.19297288
-0.15012112 -0.23185128 -0.25858188 -0.0013751772 -0.15978245 -0.23240627 0.09699263 0.26310274
-0.24900101 0.0148095805 -0.08385397 0.2174282 -0.12553808 -0.052639898 0.0011896624 -0.122852065
0.1660797 -0.056485258 0.20006143 -0.25619966 -0.23246334 -0.13338898 -0.046655316 0.084297575
-0.22819884 -0.20930295 -0.036767714 -0.06902997 -0.07712743 -0.25003532 0.1327198 -0.26501128
0.20790654 -0.080586515 0.2164098 0.0009773268 -0.29445404 0.08669063 0.2524586 0.014822481
-0.16021764 0.01859033 0.12311966 -0.13201083 -0.5261107 0.21144463 -0.43026042 -0.8153132
-0.6832113 0.24190357 -0.6838872 0.033078216 0.24166307 0.63773453 0.09187026 0.33321092
-0.15392557 -0.26380742 0.15216492 -0.3108935 1.4005041 0.08216002 -0.27225715 0.14722651
0.1895895 -0.030419592 -0.13110445 0.048539314 0.018899433 -0.17904286 -0.027668785 -0.05631119
-0.015678091 0.20312873 0.072305076 0.1150753 -0.12764712 0.043931093 0.022703076 -0.13282818
-0.24552904 0.13931853 0.124022104 -0.30246487 0.10460252 -0.10585181 0.2097984 0.20786986
0.19082719 0.1614154 -0.24681112 -0.11339546 -0.15299603 -0.08619767 0.020542134 -0.3167487
00000000: 5b78 3abd eb17 dbbe 5b8d 013d 9fb8 873e
00000010: a88d d73e 6366 2ebe c4b5 7b3d 1e43 3bbe
00000020: 72f2 043e 4fad 3f3c 0c34 ff3d 1994 67be
00000030: 2dfd 7abd 4744 1a3e a59c 003e c0a2 06be
00000040: 690d a93d 64fa cebd f1ea 5dbd 5a0d 023c
00000050: 3600 f63d cf85 93bd c933 e6bd 9ec8 06be
00000060: 7ce1 bdbe 7890 4fbe ae69 ebbd e76d a8bd
00000070: 4f3d 323e 1b27 d53d 2285 96bd e3be 9dbd
00000080: 6e75 bfbd 940c adbb 5269 3e3e 4bf5 21be
00000090: a612 76be 01ff e4bc facd 613e 0ff5 2e3d
000000a0: 410b 833e 7769 81be d6ed 883e 26d1 84be
000000b0: 6da8 a2bd b2fc 86be d194 7b3e 4354 64be
000000c0: 0296 85be a0f3 48be 9f9b 6b3e 3768 e1bc
000000d0: d549 8d3d 0411 78be 6978 073d 97e9 0e3e
000000e0: 9596 a9bc 46d3 82bc 055f 34be 329e 5cbe
000000f0: 0d88 02be e640 58be abcc b4bc de8e 6dbd
00000100: 8a1f 64be dce8 33bd 82de 18be f02f 803e
00000110: 7363 52bc 6f99 3f3e 1193 8cbe a53d 1bbe
00000120: fe21 523c 0cab 80be ac64 cabc 5b0c 873e
00000130: 4512 08bd 3512 1d3e 23e1 5ebe 5362 ae3d
00000140: 53ae 7bbe b8dc 05be 13d7 c53d d3d4 053e
00000150: cef6 893e 43fe d2bd 7370 02be 970a 51be
00000160: a30a 3abe d8ed a9bd 551f 85be c8d4 fcbd
00000170: d985 52be 4adf f9be f5d5 1ebe f34b c03e
00000180: f5fe 463f 899d 923e 3926 b4be aea3 5ebd
00000190: 9c04 5fbe 0ad2 b8bc 1d93 bd3d 3298 e23e
000001a0: 4b83 37bd 97f5 cabd fde4 11be 09d9 f4bd
000001b0: ce8b b4bd bbf7 993d 9d7f 7c3e 7b5f 66be
000001c0: a42d 3cbe 5329 613e cef7 1bbe 12c5 12be
000001d0: b849 38be 4d73 20bd 2ac2 46bd 014d 35be
000001e0: d500 123e 056c 773e 089b f7bd c00d 8bbe
000001f0: 8c0e 243e 8a6c 70be 5a58 503e 87a8 8dbc
00000200: aee4 18be 98f7 5ebe ea52 923c c1bf 0a3e
00000210: 95e5 0d3e 692a ba3d d97c 69be 55b1 9bbe
00000220: efc8 263b fc32 223e f4e6 d9bc 8054 0cbd
00000230: cb2f cbbd a89e 8bbe 35a2 d6bd 5588 283e
00000240: 1da1 c53c 12b5 29be f4f5 5bbe 14dc 19be
00000250: 2613 013e 83fa 033e 73cb ac3d c840 62be
00000260: d896 9cbe 9d1e 8dbc 0b96 56be d081 c7bd
00000270: 72cc bdbd 1b10 1bbe c46c 58be af9a 453e
00000280: 5ab9 19be 6c6a 6dbe d864 84be 4a3f b4ba
00000290: 039e 23be e9fb 6dbe 12a4 c63d 67b5 863e
000002a0: 1ffa 7ebe e2a3 723c a1bb abbd 80a5 5e3e
000002b0: 0e8d 00be ef9c 57bd 72ee 9b3a dd99 fbbd
000002c0: cc10 2a3e 165d 67bd e7dc 4c3e 9a2c 83be
000002d0: df0a 6ebe 1f97 08be a519 3fbd 35a4 ac3d
000002e0: f5ac 69be 8353 56be be99 16bd 965f 8dbd
000002f0: fcf4 9dbd a104 80be b3e7 073e 8faf 87be
00000300: 74e5 543e 8b0a a5bd 889a 5d3e a519 803a
00000310: aec2 96be db8a b13d 4142 813e fed9 723c
00000320: 1810 24be bf4a 983c 2926 fc3d d92d 07be
00000330: 31af 06bf f184 583e 184b dcbe 5eb8 50bf
00000340: f0e6 2ebf 92b5 773e 3b13 2fbf 067d 073d
00000350: 8676 773e 9242 233f 7a26 bc3d 9f9a aa3e
00000360: aa9e 1dbe c411 87be 1fd1 1b3e 6f2d 9fbe
00000370: b843 b33f 8343 a83d 4a65 8bbe 8cc2 163e
00000380: c023 423e 8232 f9bc 3f40 06be 29d1 463d
00000390: fcd2 9a3c 0357 37be a6a9 e2bc 90a6 66bd
000003a0: 576f 80bc fa00 503e af14 943d 99ac eb3d
000003b0: edb5 02be 17f1 333d cdfb b93c 1c04 08be
000003c0: f76b 7bbe 84a9 0e3e 4dff fd3d addc 9abe
000003d0: d939 d63d d5c8 d8bd 64d5 563e d6db 543e
000003e0: 3468 433e 144a 253e 0ebc 7cbe e13b e8bd
000003f0: feaa 1cbe 6788 b0bd fa47 a83c e32c a2be

l1.bias f4 [256]
0.794493 -0.19760063 -0.26510394 -0.1365719 0.20594695 -0.26929277 0.24864589 -0.2940457
0.031678505 0.06441555 0.0867234 -0.25791505 0.014067257 -0.05624241 0.14821684 1.0132449
0.13302663 -0.24245712 0.20520149 0.1384501 0.060030174 1.1408007 -0.1978272 0.09181307
-0.21278933 -0.1359162 -0.23098633 0.27489722 1.3469329 -0.11187187 0.28472096 -2.347445
-0.061715305 0.5431917 -0.17875496 -1.0541497 -0.2587683 0.052350815 -1.4811324 0.2518801
-0.11318984 0.21773016 0.047540836 0.26971456 3.435239 2.9174697 -0.17437586 -0.27742147
1.069239 0.033388887 -0.21214415 0.1841167 -0.91299105 -2.29633 -1.8983921 -0.1451715
0.33151197 -0.21058208 0.33680847 0.25772443 0.46484813 1.6107723 0.15923241 -0.059472784
-0.26844087 0.1805182 -0.31066516 -0.068121746 -0.41008267 -0.45920843 -0.13286494 0.002124841
2.331233 0.2407649 -0.1219514 -2.0285733 0.37875554 0.21453837 0.100383975 0.20565087
-3.5295258 0.05948143 0.092141666 -0.12908226 -0.0381941 -0.18696502 -0.10021347 -0.3148457
-0.28688428 -0.09830965 0.12659377 1.8466043 -0.09875206 0.14021881 -1.117644 1.589622
0.1004684 0.08943646 -0.20018779 -0.1676027 0.14384814 -0.060145695 0.67088526 -0.07849648
-0.16782065 0.26678553 0.15336293 0.18849151 -0.31170055 0.22803453 0.24913085 -0.020498477
-0.16881868 0.02878461 -0.2713266 0.23957673 -0.21259306 -0.4884533 0.18165118 -0.14572504
0.054047875 -0.014717736 -0.19407016 0.41870332 -0.0735841 0.16282931 2.4332023 -0.15797785
0.060796104 -0.12681781 2.811052 -0.16102345 0.21755269 -2.5786793 0.3973488 0.27725762
0.07500421 -0.27561095 -0.23746054 -0.014855869 -0.17017859 2.0629623 -0.32657453 -0.0009252821
-0.13190179 0.010123718 0.07750639 -0.33251745 3.7297008 -0.21240912 -0.14845334 -0.06512229
-0.2847973 0.121138036 0.029851824 1.4663918 -0.11729974 0.18471728 -0.07519681 0.12386674
-0.12317545 -0.43558142 -0.24488147 -0.27475765 0.10419365 -0.0069016614 -0.2834977 0.1709897
0.32907784 -0.09739253 -0.36285645 -0.04410648 5.205959 -0.07984015 -0.042647928 1.9951826
-0.046042368 0.2613184 0.73085725 -0.20861682 -0.0039690263 -0.15654247 -0.11083946 -0.87658155
0.15216152 -0.045589503 0.08702994 -0.6610432 0.09541682 -0.07447777 -0.043532904 -0.18124557
-0.000113867965 -0.091134764 -0.3149251 -0.25281993 -0.047212396 -0.24656667 -0.010972339 0.514399
0.13801555 0.056836803 -0.31649205 -0.13364717 -0.38050857 -0.52783513 0.11835685 0.076269306
-0.2185974 -0.02096203 0.07118679 -3.5063534 -0.094418444 -0.2826113 -0.04276387 -0.16609563
-0.11348523 0.18472297 0.26390067 0.8852374 1.2162228 -0.30406037 -0.55716366 -0.2532678
0.092257686 -0.024093382 -4.4025702 -0.020344509 -0.063057415 -0.050659772 -1.0226434 1.0361418
0.105483145 0.8022828 -0.23150933 3.893439 -1.3642502 -0.23394768 -0.12526911 -0.26499173
-0.023138054 0.044419188 0.03950597 0.6913967 -0.22626255 0.1975671 2.0102055 -0.37404862
-0.24734777 0.14379936 -0.21480314 -1.5461849 0.19893557 -0.76532507 -0.25552627 -0.28365922
00000000: e563 4b3f d257 4abe b4bb 87be 81d9 0bbe
00000010: c2e3 523e bee0 89be 079d 7e3e 288d 96be
00000020: 52c1 013d 4dec 833d 0a9c b13d 710d 84be
00000030: 5a7a 663c 715e 66bd 28c6 173e 02b2 813f
00000040: 2238 083e ae46 78be 5720 523e ddc5 0d3e
00000050: 33e2 753d c205 923f 3793 4abe 7e08 bc3d
00000060: 72e5 59be 9e2d 0bbe ae87 6cbe 54bf 8c3e
00000070: 4c68 ac3f 141d e5bd f2c6 913e 8a3c 16c0
00000080: 30c9 7cbd 9c0e 0b3f 8a0b 37be 61ee 86bf
00000090: 477d 84be cf6d 563d bf95 bdbf 6ef6 803e
000000a0: 13d0 e7bd a8f4 5e3e 2eba 423d 0718 8a3e
000000b0: f5da 5b40 d3b7 3a40 968f 32be 300a 8ebe
000000c0: d3dc 883f c9c2 083d 513c 59be 1789 3c3e
000000d0: c8b9 69bf 12f7 12c0 83fe f2bf d6a7 14be
000000e0: f0bb a93e d4a2 57be 2972 ac3e 75f4 833e
000000f0: 9300 ee3e c92d ce3f d20d 233e bc99 73bd
00000100: 1571 89be c3d9 383e 810f 9fbe 6a83 8bbd
00000110: 5bf6 d1be 5e1d ebbe bf0d 08be eb40 0b3b
00000120: ec32 1540 138b 763e a8c1 f9bd 25d4 01c0
00000130: 3fec c13e f2af 5b3e 1d96 cd3d 2496 523e
00000140: c0e3 61c0 cda2 733d c5b4 bc3d 242e 04be
00000150: 6b71 1cbd c273 3fbe b83c cdbd 7533 a1be
00000160: 7fe2 92be 9256 c9bd cca1 013e 885d ec3f
00000170: 853e cabd 8595 0f3e f50e 8fbf bc78 cb3f
00000180: 60c2 cd3d 762a b73d 07fe 4cbe 0ba0 2bbe
00000190: ed4c 133e 555b 76bd 23bf 2b3f c3c2 a0bd
000001a0: 2dd9 2bbe 1d98 883e 2c0b 1d3e eb03 413e
000001b0: 3797 9fbe e281 693e 281c 7f3e 6cec a7bc
000001c0: cede 2cbe b4cd eb3c 52eb 8abe 9a53 753e
000001d0: ffb1 59be 8d16 fabe c402 3a3e f238 15be
000001e0: 4e61 5d3d a922 71bc 54ba 46be 4860 d63e
000001f0: 43b3 96bd babc 263e 96b9 1b40 f2c4 21be
00000200: 5605 793d 87dc 01be 47e8 3340 55e3 24be
00000210: 22c6 5e3e 1509 25c0 4d71 cb3e b6f4 8d3e
00000220: cf9b 993d e11c 8dbe db28 73be 0866 73bc
00000230: 4c43 2ebe 9307 0440 c734 a7be a18e 72ba
00000240: 4311 07be f3dd 253c acbb 9e3d ba3f aabe
00000250: 6bb3 6e40 c781 59be 2704 18be d65e 85bd
00000260: f4d0 91be 3817 f83d d08b f43c bab2 bb3f
00000270: d93a f0bd 8726 3d3e c900 9abd d8ad fd3d
00000280: 6943 fcbd 8704 dfbe 35c2 7abe 09ad 8cbe
00000290: 7b63 d53d 5527 e2bb 9c26 91be ed17 2f3e
000002a0: e47c a83e bc75 c7bd 52c8 b9be ffa8 34bd
000002b0: 3797 a640 3c83 a3bd 98af 2ebd 2562 ff3f
000002c0: ec96 3cbd 86cb 853e 7619 3b3f a69f 55be
000002d0: 9b0e 82bb ab4c 20be ccff e2bd a667 60bf
000002e0: 3bd0 1b3e 0fbc 3abd c13c b23d 213a 29bf
000002f0: e569 c33d cd87 98bd 8f4f 32bd 7098 39be
00000300: 66cc eeb8 dda4 babd dd3d a1be 9d71 81be
00000310: c961 41bd f97b 7cbe 53c5 33bc a7af 033f
00000320: f353 0d3e b5cd 683d 3f0b a2be ceda 08be
00000330: 05d2 c2be 3420 07bf 1465 f23d 1533 9c3d
00000340: ffd7 5fbe 90b8 abbc 61ca 913d 1868 60c0
00000350: 755e c1bd 6eb2 90be 2b29 2fbd f914 2abe
00000360: f26a e8bd 0528 3d3e fd1d 873e eb9e 623f
00000370: 30ad 9b3f cdad 9bbe 47a2 0ebf 51ac 81be
00000380: 99f1 bc3d 7c5f c5bc dbe1 8cc0 87a9 a6bc
00000390: 3f24 81bd 9f80 4fbd fbe5 82bf 4ba0 843f
000003a0: 8c07 d83d 6862 4d3f c810 6dbe 1b2e 7940
000003b0: c09f aebf fb8f 6fbe 8c46 00be ffac 87be
000003c0: 048c bdbc e5f0 353d 03d1 213d 60ff 303f
000003d0: 5fb1 67be 084f 4a3e 35a7 0040 4d83 bfbe
000003e0: bc48 7dbe 2440 133e 5bf5 5bbe 63e9 c5bf
000003f0: c4b5 4b3e 58ec 43bf 57d4 82be c83b 91be

l2.weight f4 [256, 256]
0.051512476 -0.070802815 -0.017278254 -0.006452836 -0.007550299 0.04277525 0.054347165 -0.024592252
0.019424647 -0.040883496 -0.050004594 0.04647991 -0.010858819 0.03392469 0.021798924 -0.0115637155
-0.012911557 -0.031137323 0.034100838 0.055716634 0.061572663 0.029195135 0.02870886 0.006745442
-0.0327679 -0.04643049 -0.0004913791 0.008883439 -0.047791798 -0.057016045 -0.0051298854 -0.051545024
-0.058479454 0.040131155 -0.028803673 -0.027854383 -0.009132873 0.011018815 0.0033683488 0.04771342
0.01958288 -0.046136584 -0.0010043308 -0.0183317 -0.02207786 -0.06100805 0.057468414 0.0053934986
0.027542721 -0.043563087 0.0303812 -0.0074882433 0.032746244 -0.06575933 0.017240122 -0.033228308
0.017224401 0.04538747 -0.042978518 0.0051978678 0.059037324 0.031844497 -0.058066033 0.01933297
-0.039409425 -0.04932665 0.04672636 -0.008177556 -0.0038415582 -0.06943931 -0.03993478 -0.014314316
-0.024968188 -0.004048884 -0.06037212 -0.016082194 0.043767244 0.009523392 -0.042448282 0.03899152
-0.015387431 -0.00024341792 0.050449573 -0.014098823 -0.060374152 0.040609196 -0.033963017 -0.06665067
0.014365979 0.041640874 0.04543204 -0.019827923 0.008775517 -0.045811802 0.014821489 0.022489917
-0.04285011 -0.047574334 -0.041188657 -0.05519718 0.034593314 0.057988882 0.010326377 0.009569764
-0.036224134 -0.052169308 -0.0043745786 0.014793103 -0.029620154 0.057668872 0.019145228 -0.051184632
-0.042731233 -0.01717327 -0.04235658 0.048075106 -0.050539225 0.025300628 0.035098672 0.0047638565
0.052791964 -0.029316716 -0.057491727 0.022172773 0.060029596 -0.046658926 0.024470812 0.039182905
-0.008353747 -0.05233635 0.053684127 -0.046220966 -0.0022931993 0.040041488 -0.03850186 0.0334682
0.024561018 0.0558154 0.02341234 -0.031914167 -0.02604495 0.03710579 0.043078057 0.052184314
-0.041795984 -0.040776648 -0.0597673 -0.024596086 0.018055627 -0.0347414 0.0033329874 -0.05265829
-0.0030492954 -0.06294769 -0.0558023 -0.047363963 -0.046156783 0.0607853 -0.04635796 0.004502043
0.045732625 0.017999457 -0.042963326 -0.01939167 -0.008222602 0.024869554 0.008881518 -0.064747706
-0.00917136 0.001570352 -0.06957238 -0.053496838 -0.01171352 0.015725266 -0.034622166 -0.013830477
0.04856153 -0.04996419 0.039223168 0.027420215 -0.009899251 0.05812615 0.035205908 -0.06467581
0.023504876 0.0034677184 0.02275993 0.035884656 0.016740326 0.05652283 -0.001749214 -0.0034758672
0.018396467 -0.023518119 -0.034329444 0.0007348135 0.011435732 0.04520209 0.053472713 0.030091688
0.026900476 0.050197825 0.004387291 0.012362376 0.0073355646 0.015340689 0.04986543 -0.014836373
-0.017726041 0.02563183 -0.0033913255 -0.017411895 0.038037613 0.015932346 0.034678094 -0.018586455
-0.0071129906 -0.01571627 0.050514195 -0.029403556 -0.06503984 0.0049408376 -0.003040594 0.0481299
0.05468912 -0.06218595 -0.018746369 -0.0006933138 -0.017736273 -0.017647028 -0.067488015 -0.0011539087
-0.007775025 0.043476593 0.009035385 -0.0047372887 0.012884806 -0.010650349 0.06036237 0.019740619
-0.016827386 -0.02171433 0.054454356 -0.02647509 -0.052133456 -0.010192874 0.0027911393 -0.0007077442
-0.04259348 -0.033609852 0.025363823 -0.055404432 0.04646817 -0.038924813 -0.032171264 0.028869718
00000000: bffe 523d 1101 91bd 208b 8dbc 5072 d3bb
00000010: 8068 f7bb 1a35 2f3d 229b 5e3d b175 c9bc
00000020: 7020 9f3c 7475 27bd 9ed1 4cbd b861 3e3d
00000030: 30e9 31bc 9ef4 0a3d a893 b23c bd75 3dbc
00000040: ff8a 53bc b313 ffbc 52ad 0b3d 2037 643d
00000050: 9e33 7c3d a32a ef3c d82e eb3c de08 dd3b
00000060: a237 06bd e62d 3ebd e5cf 00ba d88b 113c
00000070: 55c1 43bd a889 69bd 9918 a8bb e020 53bd
00000080: 2788 6fbd 9160 243d aef5 ebbc e02e e4bc
00000090: 0ca2 15bc 4388 343c 84bf 5c3b 266f 433d
000000a0: 476c a03c b7f9 3cbd c0a3 83ba 5c2c 96bc
000000b0: a1dc b4bc 94e3 79bd 0064 6b3d f2bb b03b
000000c0: 46a1 e13c 356f 32bd ffe1 f83c f05f f5bb
000000d0: ed20 063d d4ac 86bd 283b 8d3c 681a 08bd
000000e0: 301a 8d3c 36e8 393d 3e0a 30bd e052 aa3b
000000f0: 1fd1 713d 606f 023d a6d6 6dbd 2d60 9e3c
00000100: c76b 21bd be0a 4abd 2464 3f3d 28fb 05bc
00000110: a7c2 7bbb 3236 8ebd a792 23bd 9886 6abc
00000120: 168a ccbc 80ac 84bb c248 77bd cebe 83bc
00000130: 4845 333d 0008 1c3c 40de 2dbd 92b5 1f3d
00000140: 901b 7cbc 003e 7fb9 36a4 4e3d c0fe 66bc
00000150: e34a 77bd d455 263d ce1c 0bbd 2580 88bd
00000160: 485f 6b3c 9f8f 2a3d f216 3a3d 2b6e a2bc
00000170: 30c7 0f3c 28a5 3bbd d5d5 723c c63c b83c
00000180: 9983 2fbd 4edd 42bd 70b5 28bd 7016 62bd
00000190: b8b1 0d3d c085 6d3d f72f 293c 80ca 1c3c
000001a0: c25f 14bd 7caf 55bd a058 8fbb c55e 723c
000001b0: f7a5 f2bc 3236 6c3d 74d6 9c3c faa6 51bd
000001c0: f206 2fbd f5ae 8cbc 187e 2dbd 67ea 443d
000001d0: 3802 4fbd 4343 cf3c a0c3 0f3d 201a 9c3b
000001e0: 633c 583d 9c29 f0bc 727c 6bbd ada3 b53c
000001f0: 98e1 753d 6e1d 3fbd 0377 c83c 417e 203d
00000200: 28de 08bc a45e 56bd e3e3 5b3d 3252 3dbd
00000210: 8049 16bb 8b02 243d 20b4 1dbd f415 093d
00000220: 3034 c93c b09e 643d 3ccb bf3c 6eb8 02bd
00000230: 385c d5bc 3efc 173d 9e72 303d 38bf 553d
00000240: 4432 2bbd 6a05 27bd 8ece 74bd bb7d c9bc
00000250: 65e9 933c 004d 0ebd 406e 5a3b 38b0 57bd
00000260: b0d6 47bb b8ea 80bd f490 64bd b700 42bd
00000270: e50e 3dbd 02fa 783d d8e1 3dbd e085 933b
00000280: 2252 3b3d 9973 933c 50fa 2fbd 48db 9ebc
00000290: 18b8 06bc 3cbb cb3c c983 113c 729a 84bd
000002a0: 7943 16bc 45d4 cd3a f77b 8ebd 801f 5bbd
000002b0: 10ea 3fbc 46d2 803c f9cf 0dbd 3a99 62bc
000002c0: 74e8 463d 40a7 4cbd 79a8 203d 5ca0 e03c
000002d0: 7830 22bc b015 6e3d 1234 103d c074 84bd
000002e0: 4c8d c03c a942 633b 0873 ba3c cafb 123d
000002f0: 0223 893c 7c84 673d e245 e5ba 60cb 63bb
00000300: 30b4 963c 12a9 c0bc 089d 0cbd 80a0 403a
00000310: f05c 3b3c d425 393d 3406 5b3d d882 f63c
00000320: 635e dc3c 3c9c 4d3d 44c3 8f3b 908b 4a3c
00000330: 2d5f f03b 8357 7b3c b13f 4c3d 4214 73bc
00000340: 3436 91bc d8f9 d13c 0041 5ebb 64a3 8ebc
00000350: 54cd 1b3d 8d84 823c 9e0a 0e3d 9f42 98bc
00000360: 1714 e9bb 68bf 80bc f9e7 4e3d badf f0bc
00000370: 9c33 85bd c0e6 a13b b444 47bb dc23 453d
00000380: b301 603d b2b6 7ebd fc91 99bc 80bf 35ba
00000390: a94b 91bc 8090 90bc 2837 8abd c03e 97ba
000003a0: a3c5 febb 8314 323d 2709 143c 423b 9bbb
000003b0: cb1a 533c cd7e 2ebc 883e 773d 14b7 a13c
000003c0: 96d9 89bc 40e2 b1bc 880b 5f3d 4ae2 d8bc
000003d0: e489 55bd 0300 27bc 8ceb 363b e987 39ba
000003e0: 8076 2ebd 7caa 09bd cbc7 cf3c c2ef 62bd
000003f0: 6855 3e3d a06f 1fbd 04c6 03bd 3080 ec3c

l2.bias f4 [256]
0.055210486 -0.14991046 0.06695521 0.0913475 -0.07804308 0.033967752 -0.81107926 -0.02166705
0.008954996 -0.017797409 -0.14156659 -0.052581977 -0.023871638 0.057126608 -0.12767139 -0.055413354
-0.0372142 0.28496227 -0.058128405 0.7621135 -0.03784647 -0.08957698 -0.074327774 -2.428428
-0.024992565 -0.028617613 -0.024432324 -0.062463015 0.008781266 -0.16697618 -0.006404541 -0.012792899
-0.023476137 0.04329425 -0.079194754 0.008055257 0.005694488 0.021628724 -0.022273974 0.03641478
-0.12504733 0.020585354 0.056673992 0.015769055 -0.034177743 -0.011435861 0.043044414 -0.021265369
0.017614428 -0.0051900707 -0.03247949 0.027029378 -0.034138266 0.033822607 -0.0725206 -0.16431573
-0.058618546 -0.077222 0.116808064 0.008850634 -0.09118348 -0.0072988328 -0.0005548002 -0.30907795
-1.1331703e-05 0.008326941 -0.13406411 -0.12031039 -0.033758644 -0.00067036203 -0.056818213 -0.0971275
0.018739048 -0.065440424 -0.062090367 0.031125316 -0.035762753 0.013829671 -0.0074583697 0.024219776
-0.01892332 -0.013562225 -0.07546759 0.054308522 -0.069275364 -0.06367198 -0.023779832 -0.047455415
-0.13101532 0.03687304 0.22662282 -0.05438708 -0.09246835 -0.07172945 -0.072704494 0.0067131133
0.024698216 -0.028358357 -0.060285408 -0.05176737 -0.015021126 0.020075906 -0.047053155 0.05125091
-0.007775836 1.5903112 0.009694977 -0.089183375 -0.050876267 -0.03535246 -0.09285518 -0.02512552
-0.021573491 0.013021727 -0.052485894 -0.07507998 -0.06474351 -0.10308939 -0.06677516 -0.06668798
-0.009773839 0.01753586 -0.054701876 -0.04046089 -0.03777553 -0.05038048 -0.04761539 -0.041997693
0.003665458 -0.082682766 -0.06726871 -0.063219026 -0.016668059 -0.012264813 -0.07371844 -0.016112331
-0.011307632 0.27487576 -0.13409057 0.0073619634 -0.05477847 0.05868832 0.045840193 0.05073572
-0.0068721855 -0.1402946 -0.028469704 0.017688477 0.07218442 -0.077757865 -0.056000352 0.02969496
-0.2843477 0.013373601 -0.13814676 -0.09168566 -0.027843146 -0.068933874 0.019325072 -0.08446804
-0.056819107 -0.07175049 -0.11128041 -0.05430172 0.00681463 -0.029553076 -0.003507409 -0.019698335
-1.3942412 -0.039613456 -0.02007601 -0.046496417 -0.06988069 0.039482467 -0.047848452 -0.04573384
-0.007834233 0.025843991 -0.0015658244 0.0062755314 -0.028521422 -0.06095034 -0.02782652 0.011468034
-0.024859153 0.02041855 -0.0071306783 -0.06421248 2.155416 0.03175019 -0.010229986 -0.037048683
0.0036650726 0.020267887 -1.0956297 -0.08040532 -0.042924322 0.050991826 0.041336246 -0.02818769
-0.04483323 0.04338425 0.05278159 -0.110810034 -0.03579694 -0.027889634 0.011033086 -0.0428919
0.000771305 -0.011667937 -0.047531884 0.017059656 -0.015983632 0.03230854 -0.0776193 0.04681054
-0.07624021 0.01160239 0.021511074 0.021233693 -1.0393131 0.018154755 -0.0062458725 -0.08879506
-0.08169295 -0.05353104 -0.02579765 -0.10116156 -0.005242287 -0.08851502 -0.120591916 -0.007375166
0.0214312 -0.66467 -0.1013962 -0.01610528 0.04245779 -0.06598568 -0.01847249 4.511177
-0.034345243 0.018948613 0.0040912903 -0.012498828 -0.057551134 0.10474961 0.016072342 -1.2868776
0.024533018 -0.018076358 0.01412607 0.23204547 -0.050282598 -0.0046263305 -0.014047209 -0.16977479
00000000: 6424 623d 2182 19be d01f 893d 6614 bb3d
00000010: 0dd5 9fbd c521 0b3d e4a2 4fbf 197f b1bc
00000020: fab7 123c dfcb 91bc d5f6 10be 3360 57bd
00000030: 748e c3bc 97fd 693d 4abc 02be 1df9 62bd
00000040: eb6d 18bd 93e6 913e 0d18 6ebd df19 433f
00000050: e604 1bbd 2374 b7bd 2939 98bd 5d6b 1bc0
00000060: 35bd ccbc 7c6f eabc 4c26 c8bc 38d9 7fbd
00000070: 4ddf 0f3c cefb 2abe 2fdd d1bb 4f99 51bc
00000080: 0751 c0bc 5055 313d dc30 a2bd 32fa 033c
00000090: d498 ba3b b92e b13c e977 b6bc aa27 153d
000000a0: 680c 00be 9ea2 a83c fd22 683d 1b2e 813c
000000b0: f6fd 0bbd 7a5d 3bbc 574f 303d b634 aebc
000000c0: 224c 903c 7811 aabb 3709 05bd b76c dd3c
000000d0: 91d4 0bbd 9389 0a3d ae85 94bd 6242 28be
000000e0: 001a 70bd 9126 9ebd 1139 ef3d 4002 113c
000000f0: 68be babd 0c2b efbb 0370 11ba 773f 9ebe
00000100: 4b1d 3eb7 b96d 083c 1a48 09be 4b65 f6bd
00000110: 8146 0abd 3cbb 2fba 37ba 68bd c8ea c6bd
00000120: a282 993c a105 86bd 7852 7ebd 85fa fe3c
00000130: f77b 12bd d895 623c 5765 f4bb 8d68 c63c
00000140: 1405 9bbc 1834 5ebc c08e 9abd 9d72 5e3d
00000150: 3ee0 8dbd 7466 82bd eccd c2bc 9c60 42bd
00000160: e128 06be 2f08 173d d00f 683e fdc4 5ebd
00000170: 0c60 bdbd e4e6 92bd 18e6 94bd adf9 db3b
00000180: ea53 ca3c c94f e8bc d5ed 76bd 060a 54bd
00000190: 2b1b 76bc 3a76 a43c cfba 40bd 79ec 513d
000001a0: 71cc febb 518f cb3f aed7 1e3c c6a5 b6bd
000001b0: a263 50bd becd 10bd db2a bebd 09d4 cdbc
000001c0: e4ba b0bc 1559 553c 73fb 56bd 88c3 99bd
000001d0: 3f98 84bd 8820 d3bd 6ac1 88bd b593 88bd
000001e0: 7422 20bc 5da7 8f3c 130f 60bd 51ba 25bd
000001f0: 84ba 1abd c35b 4ebd 5b08 43bd c605 2cbd
00000200: 2e38 703b 9555 a9bd 2dc4 89bd fa78 81bd
00000210: 748b 88bc 5bf2 48bc b2f9 96bd 02fe 83bc
00000220: a543 39bc 84bc 8c3e 0a4f 09be a03c f13b
00000230: 645f 60bd 2a63 703d edc2 3b3d 42d0 4f3d
00000240: 1230 e1bb 63a9 0fbe 4c39 e9bc 6de7 903c
00000250: 6dd5 933d 843f 9fbd a060 65bd d842 f33c
00000260: 0696 91be f31c 5b3c 5876 0dbe b1c5 bbbd
00000270: 4f17 e4bc 342d 8dbd 9d4f 9e3c 94fd acbd
00000280: 27bb 68bd ecf1 92bd fce6 e3bd 7b6b 5ebd
00000290: 424d df3b 4b19 f2bc 8fdc 65bb 675e a1bc
000002a0: 7f76 b2bf b841 22bd 7276 a4bc 0773 3ebd
000002b0: 9b1d 8fbd 5eb8 213d bdfc 43bd 6853 3bbd
000002c0: 285b 00bc c7b6 d33c 593c cdba f9a2 cd3b
000002d0: c2a5 e9bc 10a7 79bd 71f4 e3bc 6ce4 3b3c
000002e0: 6ca5 cbbc ce44 a73c 77a8 e9bb d581 83bd
000002f0: 56f2 0940 7d0c 023d ac9b 27bc 5cc0 17bd
00000300: b731 703b d708 a63c 983d 8cbf 8bab a4bd
00000310: 6ad1 2fbd cedc 503d 3250 293d dfe9 e6bc
00000320: 0da3 37bd afb3 313d 8231 583d 5ff0 e2bd
00000330: d09f 12bd cd78 e4bc 1ec4 343c 6baf 2fbd
00000340: 6731 4a3a e02a 3fbc cbb0 42bd b1c0 8b3c
00000350: 1bf0 82bc f655 043d def6 9ebd 69bc 3f3d
00000360: d423 9cbd f317 3e3c fe37 b03c 48f2 ad3c
00000370: 3608 85bf 48b9 943c 2daa ccbb 2fda b5bd
00000380: a24e a7bd 5d43 5bbd 9855 d3bc cb2d cfbd
00000390: 7ec7 abbb 5d47 b5bd e5f8 f6bd 60ab f1bb
000003a0: 7c90 af3c d027 2abf d0a8 cfbd 38ef 83bc
000003b0: 38e8 2d3d 8023 87bd 9f53 97bc 905b 9040
000003c0: 99ad 0cbd 1f3a 9b3c 3b10 863b e2c7 4cbc
000003d0: bdba 6bbd f786 d63d 25aa 833c 68b8 a4bf
000003e0: 78f9 c83c df14 94bc 0871 673c 549d 6d3e
000003f0: 20f5 4dbd 7998 97bb 4426 66bc 71d9 2dbe

l3.weight f4 [256, 256]
-0.05588256 -0.051335067 0.03186891 -0.03498623 0.020196078 -0.026857743 0.039906368 -0.055240996
0.04284423 0.060859915 -0.065933995 -0.043804474 0.0065050577 -0.016827412 -0.016061647 0.04251039
-0.021694995 0.031773113 0.046750695 -0.06950958 0.06015739 -0.040612835 0.020199547 -0.0265709
0.036380645 0.015881544 -0.032602236 0.0349327 -0.059125267 0.05377247 -0.04526303 0.049049765
0.0005862474 -0.06339988 -0.018758519 0.00035002202 -0.0594841 -0.05194696 -0.04187573 -0.0076154293
0.050751895 0.04182226 0.018555712 0.02258692 0.011905914 0.008526646 -0.0045932382 0.025227737
-0.00065591186 -0.0034097976 0.018860474 -0.02561941 -0.020003818 -0.0010935664 -0.003764647 -0.039471004
-0.054476023 0.046224132 0.04473342 -0.053671658 -0.00880481 0.062063634 -0.02875868 0.009588147
-0.002170451 -0.05472485 -0.019539196 0.0032769043 0.03625495 0.008532666 0.037327476 -0.03980319
-0.0010347775 0.00945497 0.04663764 -0.049060345 0.017286204 0.02360104 0.037262052 0.019875256
0.031885397 -0.022700867 -0.00803355 -0.061147925 -0.037363082 -0.033623945 -0.038606502 0.005987212
-0.06363403 -0.006337909 0.012412704 -0.04319575 -0.047665928 0.04903928 -0.04633385 -0.004245423
0.041909263 0.039798386 0.035839833 0.03019803 -0.03051452 -0.04740631 -0.038042683 0.03853184
-0.026979338 -0.029520908 0.03024349 -0.014267016 -0.04946109 0.05880974 -0.04307137 0.024942651
0.020635001 0.03655246 0.047059808 -0.025952976 -0.02677274 -0.0044815405 -0.046204817 0.04675414
-0.0502414 0.04227458 0.042889386 0.04870327 -0.015501304 -0.056166235 0.00631933 0.037521936
0.02868715 -0.0107831545 -0.0022632775 -0.037001025 0.0062771747 -0.028724067 -0.008313594 0.038901284
-0.04446398 -0.05707691 -0.04837156 -0.012461185 0.028029146 -0.009431541 0.039974343 0.04875968
-0.048205618 0.034796305 -0.018955462 -0.025938675 0.026788378 -0.038928017 0.04028308 0.05609574
0.032555014 -0.047869876 0.011582471 0.038123365 -0.021206256 0.022360222 -0.04302025 -0.021404713
0.048680775 -0.06041511 -0.02547142 0.024475448 0.0335601 -0.045602866 -0.034082722 -0.05269961
0.051457293 -0.06463325 0.012769252 0.050492622 0.012978316 0.06048324 0.029736541 0.038313787
0.0047379807 0.03912395 -0.03522914 -0.003176123 0.019838654 0.030256875 -0.0060483944 -0.027036529
-0.05091037 -0.008113817 0.041476913 0.013739966 -0.048180893 0.037844915 0.028851092 -0.027816864
-0.024559509 0.04983474 -0.05888481 0.039849307 -0.0010654887 0.034074344 0.029617073 0.015302145
-0.035766013 -0.019395709 -0.014519706 0.008145139 0.030902663 -0.05697184 0.02689273 -0.02373059
0.050433543 0.019833155 0.02991791 0.0007723273 0.051341057 0.051563665 -0.036264725 0.020891419
0.051622346 0.029426644 -0.016831588 0.011759464 0.048127785 -0.049375933 -0.031843036 -0.010863721
-0.031643532 0.031881433 0.0035943436 -0.04630754 -0.056183018 0.053186666 -0.06852882 -0.039362192
0.043647647 -0.06661378 -0.058145512 0.008568838 0.038944125 -0.020586902 0.024214186 0.05461562
0.037656125 -0.031007286 -0.03967278 0.048973076 0.028467886 -0.018270336 -0.02580673 0.02586911
0.03631512 0.0068366663 0.062274612 0.009284159 0.038226966 -0.03366872 -0.025879107 -0.009005694
00000000: 1ce5 64bd b844 52bd f988 023d b94d 0fbd
00000010: 3f72 a53c c504 dcbc dc74 233d 6244 62bd
00000020: 6e7d 2f3d 3f48 793d 6708 87bd 526c 33bd
00000030: 6128 d53b a4d9 89bc b793 83bc 601f 2e3d
00000040: b4b9 b1bc 8624 023d a87d 3f3d 0a5b 8ebd
00000050: 9867 763d a559 26bd 8579 a53c 37ab d9bc
00000060: df03 153d 031a 823c ec89 05bd 9715 0f3d
00000070: 562d 72bd 8640 5c3d ba65 39bd 68e8 483d
00000080: 66ae 193a ccd7 81bd 77ab 99bc 2983 b739
00000090: 9aa5 73bd 56c6 54bd e385 2bbd da8a f9bb
000000a0: 38e1 4f3d d14d 2b3d 2602 983c 3408 b93c
000000b0: 0611 433c 58b3 0b3c e082 96bb 66aa ce3c
000000c0: 80f1 2bba e976 5fbb 4881 9a3c ccdf d1bc
000000d0: 0cdf a3bc 0056 8fba 4cb8 76bb 59ac 21bd
000000e0: 4022 5fbd 8455 3d3d 643a 373d d0d6 5bbd
000000f0: 0d42 10bc 7036 7e3d 5397 ebbc 9a17 1d3c
00000100: 203e 0ebb 2a27 60bd aa10 a0bc 55c1 563b
00000110: 1280 143d 98cc 0b3c b2e4 183d ab08 23bd
00000120: 5fa1 87ba 05e9 1a3c 1c07 3f3d 80f3 48bd
00000130: cc9b 8d3c f856 c13c 18a0 183d 6fd1 a23c
00000140: 439a 023d 2bf7 b9bc 279f 03bc 3f76 7abd
00000150: 080a 19bd 43b9 09bd da21 1ebd 6030 c43b
00000160: 8f52 82bd 3cae cfbb a75e 4b3c 07ee 30bd
00000170: 593d 43bd 69dd 483d 90c8 3dbd 301d 8bbb
00000180: 0ca9 2b3d a203 233d cacc 123d dc61 f73c
00000190: 96f9 f9bc 1e2d 42bd a5d2 1bbd 90d3 1d3d
000001a0: c603 ddbc d5d5 f1bc 32c1 f73c 34c0 69bc
000001b0: b697 4abd 7be2 703d 9b6b 30bd 8854 cc3c
000001c0: bc0a a93c 08b8 153d c9c1 403d 569b d4bc
000001d0: 8152 dbbc e3d9 92bb 4341 3dbd 4581 3f3d
000001e0: edc9 4dbd 1c28 2d3d c8ac 2f3d 147d 473d
000001f0: 2ef9 7dbc 910e 66bd 6212 cf3b 9ab0 193d
00000200: 5001 eb3c d4ab 30bc 7f53 14bb 638e 17bd
00000210: c2b0 cd3b bc4e ebbc be35 08bc f456 1f3d
00000220: dd1f 36bd 7ac9 69bd 4221 46bd 002a 4cbc
00000230: 619d e53c c086 1abc 23bc 233d 3bb8 473d
00000240: 4173 45bd 9286 0e3d 7c48 9bbc 587d d4bc
00000250: 4d73 db3c fc72 1fbd dfff 243d a6c4 653d
00000260: 6858 053d 3413 44bd 68c4 3d3c 3f27 1c3d
00000270: beb8 adbc c92c b73c 0036 30bd f058 afbc
00000280: 7e65 473d d675 77bd 70a9 d0bc bc80 c83c
00000290: 5176 093d 12ca 3abd 539a 0bbd 8cdb 57bd
000002a0: e2c4 523d 705e 84bd 2036 513c 5ad1 4e3d
000002b0: 01a3 543c 46bd 773d 0c9a f33c ebee 1c3d
000002c0: 1041 9b3b 6f40 203d 6e4c 10bd 8026 50bb
000002d0: ac84 a23c 44dd f73c 9c31 c6bb b67b ddbc
000002e0: 6487 50bd d1ef 04bc b2e3 293d 981d 613c
000002f0: 5459 45bd 4503 1b3d 2059 ec3c 31e0 e3bc
00000300: 0631 c9bc 831f 4c3d 3331 71bd 0739 233d
00000310: dea7 8bba 8a91 0b3d 819f f23c d9b5 7a3c
00000320: 627f 12bd c0e3 9ebc 10e4 6dbc 3073 053c
00000330: 9527 fd3c 4e5b 69bd 244e dc3c a766 c2bc
00000340: 6793 4e3d 2479 a23c 6816 f53c 0276 4a3a
00000350: 004b 523d 6c34 533d 528a 14bd 7b24 ab3c
00000360: f471 533d 2510 f13c 66e2 89bc c4aa 403c
00000370: a421 453d 6b3e 4abd d86d 02bd c0fd 31bc
00000380: a69c 01bd 1b96 023d 148f 6b3b faac 3dbd
00000390: 2a20 66bd 43da 593d d758 8cbd 403a 21bd
000003a0: e0c7 323d ce6c 88bd fd29 6ebd 5064 0c3c
000003b0: e083 1f3d dda5 a8bc d45c c63c a1b4 5f3d
000003c0: 4f3d 1a3d fe02 febc ed7f 22bd fe97 483d
000003d0: 7c35 e93c acab 95bc a368 d3bc 75eb d33c
000003e0: 2abf 143d 1d06 e03b aa13 7f3d 961c 183c
000003f0: e193 1c3d 36e8 09bd 6c00 d4bc 9e8c 13bc

l3.bias f4 [256]
-0.036094006 -0.027214795 -0.026122125 -0.00050144654 0.044127453 0.070201844 -0.03199835 -0.056524985
-0.09047239 0.0456119 0.05880463 -0.09401568 0.048065115 -0.029050976 -0.022250058 0.049539205
0.02520033 0.042173117 0.019246722 -0.026979104 0.06062517 0.0070586256 -0.006683401 0.019418342
-0.056902874 -0.05809355 0.14473933 -0.027689606 -0.01742968 -0.01891012 -0.04293737 0.043314792
-0.07704322 0.053132437 0.016291678 0.004939891 -0.025575312 -0.05951371 0.031107774 -0.051528238
-0.062117003 -0.0010744898 -0.023854323 -0.023700593 0.0073918905 -0.060276594 0.04023767 -0.057651296
-0.015209806 -0.046364624 -0.04261526 0.011298436 0.020785814 0.005211652 0.0765282 0.05602096
-0.032956257 -0.0063345 -0.043331698 0.063585445 0.022515722 0.023707734 -0.06619553 -0.011512267
-0.001036875 -0.021707047 0.022461984 -0.05327685 0.014581948 0.03070647 -0.050496258 0.034475353
0.024021108 0.0025912193 0.006843282 -0.04920964 0.011443297 -0.020500058 0.003295325 -0.02081364
0.19058819 -0.021685025 0.024298005 0.13309607 0.0070990566 0.0225361 -0.0691338 -0.03573349
-0.035764102 -0.011468502 -0.07099143 -0.06505948 -0.008869525 0.011722922 0.050518647 -0.029720139
-0.027195469 0.015488019 0.08888506 -0.012117523 -0.050750203 0.014119838 0.00950674 -0.026307378
0.013579574 -0.03228073 0.044045296 -0.024332076 0.13747953 -0.042571567 -0.015473734 -0.040441636
0.033103142 -0.06553612 0.047679566 -0.010830657 -0.06239808 0.03471721 -0.030097274 -0.0011879591
0.024703393 0.048087865 0.13500243 -0.037348483 0.041494433 0.04822377 -0.06380751 -0.08220617
-0.023478132 0.1420605 -0.061566535 -0.017288255 0.043271083 -0.022677947 -0.002696231 -0.06319794
0.02153705 0.04461378 0.017281888 0.004612334 0.09135856 -0.05677747 -0.009374798 0.022302955
0.014342203 -0.049232583 -0.04276235 -0.041224085 -0.078041814 -0.00019601143 -0.072452456 -0.05184961
-0.04918862 -0.10490431 -0.048538033 0.01946061 0.014785807 -0.010396289 -0.047106523 -0.06326796
0.14839278 -0.055593263 0.023474265 0.016595973 0.009280738 -0.082294434 -0.06895404 0.015969377
-0.06588971 -0.039397962 0.039429367 -0.008275476 -0.002298332 0.050904527 0.17333731 -0.06454692
-0.011212143 0.01737291 -0.005769624 -0.050513923 0.00576462 -0.01422693 0.15973808 -0.010123838
0.033188783 -0.06853579 0.03338845 -0.071230985 0.118326105 -0.050538875 0.15584415 0.016257942
-0.04407229 -0.017369857 -0.012472439 -0.0056376695 -0.077015325 0.012589719 0.014845847 -0.02429923
-0.028714448 -0.035724383 0.013476543 0.025794547 -0.024448458 0.033154383 0.013016364 0.12282164
-0.02189878 -0.01603919 -0.039848067 0.02173173 -0.015494686 -0.03525426 -0.05169366 0.019793613
-0.052729342 0.009091282 0.030269206 0.005805355 0.00483007 0.0067876596 0.037830707 -0.02445001
-0.06891208 -0.036523424 0.036974654 -0.014218371 -0.031535275 0.045191005 0.0028435343 0.04400327
-0.05659162 -0.06457618 -0.052303135 0.04260295 0.002250447 -0.028554939 0.028842412 0.005084483
0.062415585 -0.03184413 0.03586236 0.0042833015 -0.02651736 -0.05630817 -0.003506537 0.06349697
-0.050074574 -0.04110048 0.0019268973 -0.064415455 0.039202545 -0.019831566 0.012188802 0.017176853
00000000: 4fd7 13bd 90f1 debc 11fe d5bc 8273 03ba
00000010: fdbe 343d fcc5 8f3d b410 03bd be86 67bd
00000020: 9749 b9bd 8bd3 3a3d 20dd 703d 4b8b c0bd
00000030: eddf 443d 50fc edbc c145 b6bc 9fe9 4a3d
00000040: ec70 ce3c b8bd 2c3d 4dab 9d3c 4803 ddbc
00000050: 1952 783d 0b4c e73b 6e00 dbbb 3713 9f3c
00000060: fd12 69bd 81f3 6dbd 8c36 143e 50d5 e2bc
00000070: b0c8 8ebc 65e9 9abc 18df 2fbd da6a 313d
00000080: d6c8 9dbd 66a1 593d 2076 853c cfde a13b
00000090: 5183 d1bc a6c4 73bd bbd5 fe3c 460f 53bd
000000a0: 666e 7ebd e5d5 8cba 246a c3bc bf27 c2bc
000000b0: ac37 f23b 97e4 76bd 41d0 243d c423 6cbd
000000c0: 8d32 79bc d5e8 3dbd 578d 2ebd 131d 393c
000000d0: 0347 aa3c 81c6 aa3b d1ba 9c3d 3c76 653d
000000e0: 24fd 06bd a391 cfbb 947c 31bd 1639 823d
000000f0: e472 b83c b936 c23c 8691 87bd f39d 3cbc
00000100: c0e7 87ba fad2 b1bc 3202 b83c d438 5abd
00000110: 1fe9 6e3c 238c fb3c 2ad5 4ebd 0736 0d3d
00000120: eac7 c43c 72d1 293b 9c3d e03b 0c90 49bd
00000130: ab7c 3b3c bdef a7bc 61f6 573b 5e81 aabc
00000140: 8d29 433e cba4 b1bc 9c0c c73c 564a 083e
00000150: 349f e83b a19d b83c 0696 8dbd 485d 12bd
00000160: 617d 12bd 62e6 3bbc f463 91bd e83d 85bd
00000170: 7c51 11bc 8011 403c a4ec 4e3d a677 f3bc
00000180: 08c9 debc 76c1 7d3c 5f09 b63d 9388 46bc
00000190: 72df 4fbd e556 673c 28c2 1b3c 9282 d7bc
000001a0: dd7c 5e3c cc38 04bd d768 343d 1054 c7bc
000001b0: 6fc7 0c3e 865f 2ebd 8b85 7dbc 21a6 25bd
000001c0: 2997 073d cd37 86bd a64b 433d 1173 31bc
000001d0: 2195 7fbd a233 0e3d 8f8e f6bc 4bb5 9bba
000001e0: c55e ca3c c8f7 443d 143e 0a3e b9fa 18bd
000001f0: 11f6 293d 4a86 453d 83ad 82bd b55b a8bd
00000200: 3655 c0bc 4f78 113e 312d 7cbd 19a0 8dbc
00000210: 053d 313d 1ac7 b9bc 40b3 30bb ec6d 81bd
00000220: 786e b03c f0bc 363d bf92 8d3c 1023 973b
00000230: 321a bb3d 7e8f 68bd c198 19bc b0b4 b63c
00000240: 8ffb 6a3c 1ba8 49bd 9327 2fbd 96da 28bd
00000250: 63d4 9fbd 6b88 4db9 f461 94bd 4260 54bd
00000260: 027a 49bd 12d8 d6bd d1cf 46bd db6b 9f3c
00000270: 2b40 723c 3255 2abc c5f2 40bd a292 81bd
00000280: 47f4 173e c3b5 63bd 1a4d c03c 47f4 873c
00000290: 3d0e 183c fc89 a8bd c737 8dbd 36d2 823c
000002a0: 2ff1 86bd c25f 21bd b080 213d dd95 07bc
000002b0: 9d9f 16bb 4481 503d 567f 313e 2d31 84bd
000002c0: 23b3 37bc a251 8e3c 1d0f bdbb b0e7 4ebd
000002d0: 23e5 bc3b 1218 69bc 6192 233e 74de 25bc
000002e0: f6f0 073d 7e5c 8cbd 54c2 083d 8de1 91bd
000002f0: f554 f23d da01 4fbd 9c95 1f3e 602f 853c
00000300: 2585 34bd 3b4b 8ebc 3359 4cbc 33bc b8bb
00000310: 36ba 9dbd 1c45 4e3c ff3b 733c 2e0f c7bc
00000320: 903a ebbc bb53 12bd b8cc 5c3c 164f d33c
00000330: 2248 c8bc e4cc 073d 9642 553c e989 fb3d
00000340: 1265 b3bc 9f64 83bc ba37 23bd be06 b23c
00000350: 6cdd 7dbc c566 10bd bbbc 53bd 3726 a23c
00000360: b9fa 57bd 9af3 143c 20f7 f73c d93a be3b
00000370: 9045 9e3b 046b de3b 5ff4 1a3d 634b c8bc
00000380: c721 8dbd 9699 15bd bc72 173d 2cf4 68bc
00000390: 222b 01bd 341a 393d 975a 3a3b c63c 343d
000003a0: 9dcc 67bd 8440 84bd d03b 56bd 6e80 2e3d
000003b0: 3c7c 133b 0cec e9bc ec46 ec3c bc9b a63b
000003c0: 7ca7 7f3d fe6e 02bd 69e4 123d f05a 8c3b
000003d0: ef3a d9bc 65a3 66bd eecd 65bb b30a 823d
000003e0: ff1a 4dbd fa58 28bd f28f fc3a 40ec 83bd
000003f0: d992 203d cf75 a2bc 8ab3 473c 79b6 8c3c

l4.weight f4 [1, 256]
-0.01002112 -0.01868132 0.018970627 -0.017977376 0.019116368 0.27542153 -0.050162364 0.048508875
0.12057692 -0.025729386 0.053317994 -0.03370014 0.0037837646 -0.030271618 -0.016757676 -0.0052424455
0.016180135 -0.028088843 0.0075066304 -0.033050105 0.0044980748 -0.04885222 -0.04845769 0.0011534203
-0.037864584 -0.018484859 0.110444345 -0.023199433 0.024937585 -0.006699164 -0.00663512 -0.011502529
-0.02639199 -0.03833752 -0.0071392306 -0.0383554 0.019210413 -0.027205314 -0.025320454 -0.022348614
-0.033390813 -0.008125371 0.037942957 0.002128016 0.0014143224 0.00020232452 -0.0035993715 -0.0034809657
-0.0047467384 -0.020054242 -0.036319744 0.02288504 -0.02081067 -0.014087347 0.032653496 -0.0035536895
-0.054678753 -0.038436167 -0.052026182 -0.017273897 -0.0133461505 -0.0139301345 -0.009859724 0.038079046
0.03820938 0.03555102 -0.0006427471 0.0070987516 0.05029125 0.056268692 0.005391611 -0.01910189
-0.029878244 -0.01917841 0.017053949 0.0007820854 0.00489335 0.041039046 -0.03450357 -0.0017113485
0.09461139 -0.0007327953 -0.026442848 0.06920057 -0.050097473 -0.020701468 -0.03898334 -0.006872181
0.005599374 -0.051440734 0.007130717 -0.049037673 -0.0066800904 0.0137859285 -0.021134634 -0.0051305685
-0.039173774 -0.0009722554 0.04835632 0.005344628 0.010226844 -0.02026302 -0.022639975 0.0029893129
-0.0452496 -0.0430879 -0.037817933 -0.020990487 0.080451615 -0.00040969998 -0.007956541 0.007597013
-0.0020886299 0.010871178 0.013581075 -0.01179016 -0.047023803 0.03515863 -0.047229446 -0.039133187
0.02697629 -0.019100832 0.058318328 0.0037490134 0.0054601524 -0.05224599 0.0011503192 0.026533626
-0.037943862 0.08713584 -0.0076375087 -0.012044822 -0.0322127 -0.03603478 -0.026823543 0.0027797227
-0.005006142 -0.023831662 -0.009957022 -0.059686445 0.066086344 0.017130166 0.0046636416 -0.043895546
-0.007915062 -0.040161937 -0.044157818 0.042159434 0.028833406 -0.0069028446 0.02095107 0.009490289
-0.016837645 -0.012167374 -0.010026067 0.027677001 -0.052494463 -0.0045551904 -0.035653774 -0.0032494876
0.09012569 0.0070561855 0.00309105 0.009792792 -0.020478608 0.0031018192 -0.05523621 0.009344468
0.016875973 -0.020970479 0.0025553028 0.04560812 -0.038815137 -0.022409124 0.054677207 -0.00030572023
-0.051542267 -0.033608146 -0.014352768 -0.0071107764 0.019421063 0.04903373 0.09324527 0.028716307
0.010588491 0.003615534 0.031534296 -0.008193163 0.101235986 0.057786055 0.04137427 0.051858082
-0.012175923 0.005046692 -0.0040389877 -0.026388101 0.02221235 0.0062388647 -0.007847782 -0.013549595
0.0047939965 0.0036262458 -0.05823543 -0.03450636 -0.02621368 0.018816167 -0.029984336 0.09540511
0.026063632 -0.0020986176 -0.05197286 0.004544086 -0.04456708 -0.0015697884 0.023401443 0.03190922
-0.021526435 0.0056864717 0.0013314418 -0.04107064 -0.019478913 0.0151281655 0.017280875 -0.011437082
-0.026012266 0.0032916293 -0.028677236 -0.02273976 0.060648777 0.03260181 -0.034602527 -0.0020763276
0.017117416 0.039554913 -0.021908807 -0.001685742 0.008739866 -0.0011734441 0.061398238 -0.006050635
-0.04459898 0.0073063 -0.042498752 -0.013021532 -0.026600761 -0.024997536 -0.0076775975 0.039709717
-0.030756066 -0.016444473 -0.036537714 0.028830284 -0.019111838 0.025598556 -0.03583902 0.01920032
00000000: a02f 24bc 9109 99bc 4a68 9b3c 4a45 93bc
00000010: ee99 9c3c 0d04 8d3e 0d77 4dbd 3eb1 463d
00000020: 08f1 f63d 6fc6 d2bc f863 5a3d 2809 0abd
00000030: 09f9 773b 2ffc f7bc 6547 89bc d2c8 abbb
00000040: 348c 843c 931a e6bc 2efa f53b 8c5f 07bd
00000050: 9664 933b 4419 48bd 927b 46bd 5d2e 973a
00000060: e517 1bbd 8f6d 97bc a530 e23d bd0c bebc
00000070: e849 cc3c a984 dbbb 6c6b d9bb 1a75 3cbc
00000080: 0434 d8bc ce07 1dbd 35f0 e9bb 8d1a 1dbd
00000090: 285f 9d3c aedd debc d76c cfbc 7114 b7bc
000000a0: cec4 08bd 4720 05bc 136a 1b3d 2f76 0b3b
000000b0: c960 b93a 1327 5439 6fe3 6bbb ea20 64bb
000000c0: 878a 9bbb cb48 a4bc 03c4 14bd 6879 bb3c
000000d0: 237b aabc 9ece 66bc acbf 053d 04e5 68bb
000000e0: d4f6 5fbd 3e6f 1dbd 6819 55bd fd81 8dbc
000000f0: d0a9 5abc 383b 64bc ae8a 21bc c6f8 1b3d
00000100: 7081 1c3d f29d 113d 077e 28ba a59c e83b
00000110: 33fe 4d3d 007a 663d 1cac b03b 917b 9cbc
00000120: 38c3 f4bc 0a1c 9dbc b9b4 8b3c dd04 4d3a
00000130: 6558 a03b 8f18 283d 9e53 0dbd 544f e0ba
00000140: 9ec3 c13d 0f19 40ba ac9e d8bc 07b9 8d3d
00000150: 0233 4dbd 2096 a9bc ffac 1fbd 0830 e1bb
00000160: f47a b73b 85b3 52bd caa8 e93b badb 48bd
00000170: a9e4 dabb 60de 613c 8a22 adbc 541e a8bb
00000180: ae74 20bd f5de 7eba 4711 463d fd21 af3b
00000190: 7e8e 273c a2fe a5bc 7877 b9bc 59e8 433b
000001a0: a557 39bd f07c 30bd fae6 1abd 3ef4 abbc
000001b0: d1c3 a43d 00cd d6b9 275c 02bc 5df0 f83b
000001c0: 65e1 08bb 061d 323c 2883 5e3c 842b 41bc
000001d0: 089c 40bd 7f02 103d aa73 41bd 1f4a 20bd
000001e0: 61fd dc3c 5979 9cbc 33df 6e3d 02b2 753b
000001f0: 14eb b23b e4ff 55bd 4fc6 963a 0c5d d93c
00000200: 066b 1bbd 4674 b23d 1144 fabb a557 45bc
00000210: 77f1 03bd 3599 13bd 0cbd dbbc 022c 363b
00000220: 900a a4bb 9e3a c3bc c722 23bc c679 74bd
00000230: 4758 873d 9054 8c3c 76d1 983b d1cb 33bd
00000240: 2dae 01bc d880 24bd d4de 34bd 5faf 2c3d
00000250: 0934 ec3c 4231 e2bb 94a1 ab3c 287d 1b3c
00000260: 1aef 89bc aa59 47bc 5f44 24bc e1ba e23c
00000270: 6f04 57bd b543 95bb b109 12bd 5bf5 54bb
00000280: d193 b83d 9337 e73b 3793 4a3b f271 203c
00000290: c1c2 a7bc e447 4b3b 5d3f 62bd 8a19 193c
000002a0: 7b3f 8a3c 48ca abbc de76 273b 94cf 3a3d
000002b0: 9ffc 1ebd 5793 b7bc 35f5 5f3d 1349 a0b9
000002c0: fc1d 53bd b2a8 09bd df27 6bbc 8401 e9bb
000002d0: ec18 9f3c 98d7 483d 60f7 be3d 763e eb3c
000002e0: 5a7b 2d3c 98f2 6c3b 1b2a 013d 9e3c 06bc
000002f0: d054 cf3d 12b1 6c3d 1178 293d 2469 543d
00000300: 867d 47bc b95e a53b 7c59 84bb dc2b d8bc
00000310: adf6 b53c 646f cc3b fc93 00bc 1fff 5dbc
00000320: f516 9d3b 4fa6 6d3b 4688 6ebd 8a56 0dbd
00000330: 12be d6bc 5d24 9a3c b6a1 f5bc c163 c33d
00000340: 6683 d53c f688 09bb 7ee1 54bd 8ee6 943b
00000350: f88b 36bd 5cc1 cdba 62b4 bf3c 3eb3 023d
00000360: 3558 b0bc 9555 ba3b c683 ae3a b039 28bd
00000370: 3e92 9fbc 20dc 773c 9f90 8d3c 9962 3bbc
00000380: ad17 d5bc 60b8 573b 86ec eabc bc48 babc
00000390: da6a 783d 7a89 053d 61bb 0dbd ff12 08bb
000003a0: d339 8c3c 5504 223d 197a b3bc 1ef4 dcba
000003b0: a831 0f3c 40ce 99ba b87c 7b3d 6844 c6bb
000003c0: 6cad 36bd b069 ef3b 2c13 2ebd 4458 55bc
000003d0: d7e9 d9bc a2c7 ccbc 5b94 fbbb a8a6 223d
000003e0: 25f4 fbbc 8fb6 86bc 92a8 15bd 7d2d ec3c
000003f0: 6e90 9cbc 10b4 d13c f0cb 12bd fd49 9d3c
