models/GMI_pretrained/GMI_GPM_channel_predictor_183+-3V_ocean.pt (torch, 544320 bytes, 7 tensors)

l1.weight f4 [256, 12]
-0.25506097 -0.33918124 0.03861849 0.060161725 0.028871767 0.1681483 0.0639284 -0.32030952
-0.11510628 0.077958725 0.19409773 0.15832652 0.13122626 -0.12266709 0.031016205 0.26066992
-0.24567588 -0.216312 -0.1710381 -0.13213234 0.14204052 0.020868037 0.24017002 -0.026411535
0.21052021 0.03591966 0.014173157 0.27346617 0.039905358 -0.3019451 0.19768845 0.062043518
0.22699293 0.0009637135 -0.15147798 -0.2750236 -0.040266745 0.11652834 0.016207617 -0.2652044
0.054418027 0.016027708 0.15379395 -0.16459306 -0.24356347 -0.25084174 0.14720985 -0.08923692
0.0064311246 0.20682518 -0.079643786 -0.18419212 -0.0342079 -0.21770966 0.09996053 -0.084148966
0.20280002 -0.2248725 -0.20610261 0.21822932 0.1703172 0.20536542 -0.052245207 -0.17872967
0.11432623 0.07473955 -0.24757233 -0.012751131 -0.0981574 0.017592112 -0.15993701 -0.25354043
0.051196557 0.07526392 0.17163326 -0.2764735 -0.10351525 -0.105739474 -0.27955306 0.19302623
-0.078038774 0.24226789 0.05730596 -0.13373032 0.09403131 0.2007239 -0.104008496 -0.24034819
-0.07158411 -0.25027853 0.14286463 -0.15438895 -0.26177117 0.15254356 0.06651487 0.17340665
0.2374005 0.24685451 -0.11742653 0.021528235 0.13701737 0.064710915 0.12503988 0.250765
0.21060158 -0.25642633 0.11311206 0.2634725 0.097637735 -0.22883317 -0.11323263 -0.019133871
-0.056802694 0.18718383 -0.023846801 0.06943335 -0.2470378 0.20064588 -0.1593026 -0.23543666
-0.20012812 -0.2236728 0.25236905 0.2146979 0.15494514 -0.18356179 -0.17612085 -0.31824094
-0.10966412 0.05212994 -0.1969743 0.062265527 -0.18582132 -0.1560056 -0.1653798 0.038153905
-0.36962077 0.20797361 0.16585115 -0.3384227 0.06672368 0.2511007 0.09445364 0.2178761
-0.26787013 -0.20355377 -0.1663195 0.07757454 0.031207414 -0.27293012 0.2027525 -0.20797294
0.09730699 0.1249593 -0.02882385 0.0970692 -0.27554765 0.160107 -0.22276892 -0.20366234
-0.23492023 -0.0066170227 0.24609433 0.28184244 -0.2139641 0.015514888 -0.2181935 0.055257767
0.13369429 -0.23094134 0.21424575 0.23405671 0.040871143 -0.2586579 0.1505521 0.057664666
0.16750419 -0.32818106 0.16351111 -0.21867959 0.10899853 0.21302897 0.0041469047 0.042367566
0.0027396907 -0.053010225 0.17587112 0.067446925 -0.14220834 0.17526194 -0.1062786 -0.22844887
0.11973963 -0.16931087 -0.19514416 -0.14278899 0.041063856 0.21448803 0.06791836 0.16113871
-0.18065566 -0.15153773 0.18622151 -0.19070424 0.29356787 0.19850473 0.06575152 0.25783992
0.019034013 -0.020014212 0.06706428 -0.21347648 0.012229543 -0.15600747 0.32741582 -0.3453985
0.12089608 -0.21621075 -0.18682499 0.25013158 -0.07730033 0.036545657 0.05021737 -0.11558628
0.21991737 -0.07735599 0.21051987 0.20391418 -0.1337053 0.18447137 -0.15410036 -0.07076874
-0.10641825 0.014418154 -0.07157155 0.19957396 -0.043261964 -0.037841164 -0.057754792 -0.21616969
-0.31054443 -0.27790406 0.23935118 -0.32565853 -0.007949305 0.25369057 0.14110419 -0.26188368
-0.025358958 0.19122863 -0.2242223 0.26739106 0.10457452 0.23769766 -0.28129923 0.18023334
00000000: 5a97 82be 2aa9 adbe 6c2e 1e3d 246c 763d
00000010: 7c84 ec3c 112f 2c3e e5ec 823d 9cff a3be
00000020: d7bc ebbd d3a8 9f3d 8ec1 463e 5920 223e
00000030: 2d60 063e e238 fbbd b215 fe3c 8776 853e
00000040: 7592 7bbe e580 5dbe 9d24 2fbe b34d 07be
00000050: 1273 113e 72f3 aa3c 21ef 753e 015d d8bc
00000060: 9c92 573e 7e20 133d 8736 683c c203 8c3e
00000070: cd73 233d 8c98 9abe d76e 4a3e 5821 7e3d
00000080: d670 683e b8a1 7c3a 0b1d 1bbe e5cf 8cbe
00000090: beee 24bd 69a6 ee3d d6c5 843c dfc8 87be
000000a0: 70e5 5e3d 8a4c 833c 297c 1d3e 158b 28be
000000b0: b468 79be 546e 80be 2ebe 163e d9c1 b6bd
000000c0: 2fbc d23b fbc9 533e 481c a3bd dc9c 3cbe
000000d0: 951d 0cbd 48ef 5ebe 1bb8 cc3d 4b56 acbd
000000e0: cfaa 4f3e fa44 66be 900c 53be 8277 5f3e
000000f0: a267 2e3e 504b 523e 12ff 55bd e904 37be
00000100: df23 ea3d 0d11 993d 9a83 7dbe 1fea 50bc
00000110: bf06 c9bd 551d 903c 87c6 23be 0dd0 81be
00000120: 7bb3 513d f823 9a3d a1c0 2f3e ef8d 8dbe
00000130: ceff d3bd f08d d8bd 9421 8fbe aba8 453e
00000140: cbd2 9fbd 1315 783e a8b9 6a3d 9af0 08be
00000150: 7d93 c03d 918a 4d3e 6802 d5bd d61d 76be
00000160: b19a 92bd 8224 80be 1b4b 123e 2318 1ebe
00000170: df06 86be 6134 1c3e f338 883d 8391 313e
00000180: 1e19 733e 6ec7 7c3e 527d f0bd fb5b b03c
00000190: 484e 0c3e 2887 843d 740a 003e 4564 803e
000001a0: f1a7 573e 504a 83be 4ca7 e73d dee5 863e
000001b0: 4bf6 c73d 3e53 6abe 82e6 e7bd a3be 9cbc
000001c0: f1a9 68bd 1ead 3f3e 5e5a c3bc 1233 8e3d
000001d0: 7af7 7cbe 1d76 4d3e 3920 23be 4f16 71be
000001e0: 63ee 4cbe 7c0a 65be 8436 813e c4d9 5b3e
000001f0: f0a9 1e3e 9ff7 3bbe 0659 34be 7af0 a2be
00000200: 9597 e0bd 3486 553d a2b3 49be 230a 7f3d
00000210: f247 3ebe efbf 1fbe 5359 29be 4547 1c3d
00000220: ef3e bdbe 09f7 543e e2d4 293e bd45 adbe
00000230: 6da6 883d 4590 803e e970 c13d ea1a 5f3e
00000240: 4626 89be 6670 50be a94f 2abe 67df 9e3d
00000250: b1a6 ff3c 7fbd 8bbe 5a9e 4f3e dcf6 54be
00000260: e348 c73d a9ea ff3d ff1f ecbc 37cc c63d
00000270: 9514 8dbe 17f3 233e 891d 64be dc8c 50be
00000280: ee8e 70be 9cd3 d8bb 2700 7c3e a74d 903e
00000290: 6819 5bbe 2832 7e3c 1e6e 5fbe f855 623d
000002a0: 28e7 083e e37b 6cbe 3d63 5b3e 90ac 6f3e
000002b0: 8068 273d cf6e 84be 542a 1a3e c931 6c3d
000002c0: 3886 2b3e 5907 a8be 756f 273e 8bed 5fbe
000002d0: 9f3a df3d 4424 5a3e c2e2 873b 9d89 2d3d
000002e0: 628c 333b 4021 59bd 8f17 343e 9d21 8a3d
000002f0: 109f 11be de77 333e 98a8 d9bd 80ee 69be
00000300: 0d3a f53d d45f 2dbe dfd3 47be 4737 12be
00000310: 9332 283d c0a2 5b3e c818 8b3d 8c01 253e
00000320: ccfd 38be b52c 1bbe dab0 3e3e f947 43be
00000330: 874e 963e d344 4b3e bca8 863d 9803 843e
00000340: 38ed 9b3c d8f4 a3bc ff58 893d 9499 5abe
00000350: 6c5e 483c 6cc0 1fbe 0ca3 a73e 12d8 b0be
00000360: 5d98 f73d 5a66 5dbe 0d4f 3fbe 3f11 803e
00000370: a34f 9ebd e6b0 153d bbb0 4d3d 80b8 ecbd
00000380: 0532 613e d16c 9ebd 8592 573e e1ce 503e
00000390: 0bea 08be 10e6 3c3e 7ccc 1dbe 33ef 90bd
000003a0: d0f1 d9bd 1f3a 6c3c 1b94 92bd 1e5d 4c3e
000003b0: 7533 31bd 56ff 1abd 4a90 6cbd 965b 5dbe
000003c0: aeff 9ebe 7149 8ebe 7a18 753e b7bc a6be
000003d0: cd3d 02bc bbe3 813e 9e7d 103e 9e15 86be
000003e0: 97bd cfbc 70d1 433e 889a 65be 7be7 883e
000003f0: 2a2b d63d 0467 733e 7406 90be 178f 383e

l1.bias f4 [256]
0.05282079 -0.20635971 -0.40707654 0.14968145 0.0087417355 0.040240902 -0.3011666 0.2848819
0.08413083 0.17181017 0.11700142 -0.33065602 0.02473933 -0.27531576 -0.06605308 0.084787786
-0.27541047 0.3505195 -0.33523032 -0.13228449 -0.32237226 0.15317859 0.035689503 0.28088382
-0.0693829 -0.16067366 0.08194604 0.008922746 0.24836871 -0.076658726 -0.053106185 -0.22798777
0.12775064 -0.22784436 -0.15559307 0.16389348 -0.33039963 0.012796998 -0.31431413 0.10004642
0.4735296 -0.42932725 -0.08957654 -0.01439198 0.2165335 0.19769107 -0.19043662 0.15461266
-0.3746297 0.09906565 0.2146455 0.007122374 0.19830352 -0.021551877 -0.120687604 -0.26637948
-0.2699726 -0.28308207 -0.044524774 -0.2507807 -0.2031362 0.2520902 -0.27749056 -0.42241678
0.10317619 0.002282736 -0.1888995 -0.13777126 0.16931492 0.08654747 -0.043455884 -0.1517994
-0.08389926 -0.21709836 -0.12855662 -0.07352169 -0.22060212 0.25969717 0.09677366 -0.22845069
0.20668168 -0.022651028 0.24183813 -0.13387159 -0.19748618 0.39040422 -0.04065969 -0.40400398
0.09620645 -0.36758015 -0.14420041 0.19336447 0.00039016752 0.12513195 0.12546654 -0.048869696
0.22369887 0.13072039 0.00117166 0.19004935 0.63103336 0.44110417 0.22543608 -0.24210446
0.11350776 0.099188894 0.43448758 0.11496679 0.082518004 -0.20686358 -0.026235608 -0.00063808134
-0.17322999 0.10228355 -0.15507875 -0.3374384 -0.035153665 0.113026254 -0.12744632 -0.21807858
-0.22266154 0.012942225 -0.27099475 -0.25614232 0.09057044 0.123911515 0.12298467 -0.14094284
-0.13628778 0.011293682 0.09690426 0.25680125 -0.08276925 0.117903166 -0.0797434 0.22867191
-0.012343751 0.03262405 0.15262082 0.08864031 0.17181595 -0.054976333 0.08500496 0.3844132
0.18890525 -0.07873216 -0.1850259 -0.029672304 0.20451884 0.22726372 0.05164122 0.087812275
0.19685511 0.27858195 0.6099786 0.21770903 0.16312413 0.32452905 0.27824175 -0.24444078
0.03221891 -0.20176448 0.20443194 -0.12980096 0.09654536 -0.2768171 -0.17585325 -0.034913313
-0.26833177 0.21489176 0.2601424 -0.09360512 -0.16017099 -0.089901954 -0.2133106 -0.062342957
-0.61700404 0.049246863 -0.44963545 -0.13436665 0.015759015 -0.070656724 -0.1943098 0.026148327
-0.0237596 -0.15354767 0.23566598 -0.0063235504 -0.26880142 0.1265418 -0.16492392 0.03548989
0.2323804 0.08732406 -0.16741861 -0.29033035 -0.33315244 0.21204011 -0.30810025 -0.17852174
-0.07358845 -0.30107838 -0.08765808 -0.30774465 0.013561517 0.22771767 0.10285636 -0.13190094
0.25404936 0.24023828 -0.28702593 -0.37239334 0.054443713 -0.3238524 -0.25071397 -0.2771589
0.03500703 -0.0036048212 -0.04933977 -0.14757574 0.084543504 -0.19387726 0.47171 -0.08747534
0.26132786 -0.27325678 -0.27329493 0.18634954 -0.4817619 -0.08129818 -0.1346737 -0.11292478
-0.34430292 -0.18165049 -0.03974363 0.2514692 0.49025697 -0.22888741 0.14552169 -0.017293273
-0.20416139 0.146393 0.1053473 0.22545813 0.18222314 0.0038014543 -0.27942985 0.046085052
0.18490106 -0.2070766 0.23132396 -0.3637101 0.16070032 0.06639533 0.13620532 0.21633331
00000000: 9d5a 583d f64f 53be 566c d0be 1846 193e
00000010: 7f39 0f3c a5d3 243d 8232 9abe 0adc 913e
00000020: c94c ac3d 01ef 2f3e 719e ef3d bf4b a9be
00000030: 23aa ca3c 30f6 8cbe d646 87bd 38a5 ad3d
00000040: 9a02 8dbe 4b77 b33e 4fa3 abbe 9675 07be
00000050: fa0d a5be d9da 1c3e 282f 123d 01d0 8f3e
00000060: 9f18 8ebd a387 24be 53d3 a73d b630 123c
00000070: 5e54 7e3e 40ff 9cbd df85 59bd a075 69be
00000080: 10d1 023e 0850 69be ca53 1fbe b1d3 273e
00000090: 242a a9be 80aa 513c c8ed a0be 23e5 cc3d
000000a0: 7972 f23e c8d0 dbbe e873 b7bd 57cc 6bbc
000000b0: f5ba 5d3e 876f 4a3e d101 43be c852 1e3e
000000c0: 77cf bfbe eee2 ca3d 08cc 5b3e ce62 e93b
000000d0: 1410 4b3e 908d b0bc 102b f7bd e462 88be
000000e0: d939 8abe 22f0 90be 9c5f 36bd 5466 80be
000000f0: f002 50be f711 813e 3e13 8ebe 0347 d8be
00000100: 0a4e d33d f499 153b df6e 41be e913 0dbe
00000110: e460 2d3e cd3f b13d ccfe 31bd 4d71 1bbe
00000120: 60d3 abbd 084f 5ebe 59a4 03be 8a92 96bd
00000130: 86e5 61be 07f7 843e 4531 c63d faee 69be
00000140: 5da4 533e a68e b9bc 6aa4 773e a215 09be
00000150: d139 4abe 10e3 c73e c68a 26bd 9cd9 cebe
00000160: e307 c53d 7733 bcbe 46a9 13be 5601 463e
00000170: 668f cc39 9722 003e 4d7a 003e 972b 48bd
00000180: 5111 653e 91db 053e 6392 993a 4c9c 423e
00000190: 678b 213f 68d8 e13e b7d8 663e 3bea 77be
000001a0: c276 e83d 8c23 cb3d 2875 de3e b573 eb3d
000001b0: 33ff a83d 0cd4 53be 0fec d6bc ea44 27ba
000001c0: 3463 31be 0a7a d13d f7cc 1ebe bac4 acbe
000001d0: 4afd 0fbd 4f7a e73d 4a81 02be fe4f 5fbe
000001e0: 6301 64be a00b 543c d3bf 8abe 1625 83be
000001f0: ff7c b93d 52c5 fd3d 63df fb3d 5253 10be
00000200: 068f 0bbe 2309 393c be75 c63d 747b 833e
00000210: ed82 a9bd 3777 f13d 8250 a3bd f828 6a3e
00000220: 723d 4abc cca0 053d a248 1c3e 0d89 b53d
00000230: 85f0 2f3e dd2e 61bd 1517 ae3d cfd1 c43e
00000240: 6170 413e 543e a1bd 6e77 3dbe 5513 f3bc
00000250: 636d 513e d2b7 683e be85 533d ecd6 b33d
00000260: 6394 493e 4ba2 8e3e 8f27 1c3f 1eef 5e3e
00000270: 030a 273e ac28 a63e b475 8e3e af4e 7abe
00000280: faf7 033d 599b 4ebe 9b56 513e 8bea 04be
00000290: 93b9 c53d f9ba 8dbe e012 34be 4301 0fbd
000002a0: c862 89be 960c 5c3e 6231 853e 0bb4 bfbd
000002b0: dd03 24be 841e b8bd 186e 5abe 545b 7fbd
000002c0: faf3 1dbf 14b7 493d 9e36 e6be 6997 09be
000002d0: 0d19 813c 79b4 90bd 26f9 46be 0435 d63c
000002e0: 7ea3 c2bc 9a3b 1dbe 6c52 713e c935 cfbb
000002f0: 57a0 89be 2c94 013e d1e1 28be d95d 113d
00000300: 21f5 6d3e f5d6 b23d c96f 2bbe 2ea6 94be
00000310: f592 aabe 0b21 593e 51bf 9dbe 67ce 36be
00000320: 8bb5 96bd f226 9abe 1486 b3bd b590 9dbe
00000330: 2031 5e3c d22e 693e 5ba6 d23d 0a11 07be
00000340: c212 823e 0601 763e 10f5 92be 57aa bebe
00000350: 5f00 5f3d fbcf a5be 955d 80be c5e7 8dbe
00000360: 8863 0f3d dd3e 6cbb 8018 4abd 181e 17be
00000370: 2525 ad3d c387 46be f983 f13e 4526 b3bd
00000380: c4cc 853e 50e8 8bbe 50ed 8bbe 6ad2 3e3e
00000390: 7fa9 f6be a97f a6bd e7e7 09be 1b45 e7bd
000003a0: 7948 b0be 9602 3abe 37ca 22bd 92c0 803e
000003b0: f602 fb3e 7661 6abe a303 153e 9faa 8dbc
000003c0: af0f 51be 0ce8 153e 53c0 d73d 7fde 663e
000003d0: b498 3a3e d221 793b 6e11 8fbe aec3 3c3d
000003e0: b456 3d3e e30b 54be 30e0 6c3e 3638 babe
000003f0: a08e 243e 46fa 873d 6879 0b3e 7b86 5d3e

l2.weight f4 [256, 256]
0.050279096 0.030777745 -0.009298482 0.010471709 0.04531744 -0.062292933 -0.041036263 -0.061983906
-0.056080878 -0.042693563 0.012903266 -0.05815863 -0.033962145 0.050059453 -0.03954164 0.01811469
0.03526622 0.027305352 0.033738412 -0.042523094 -0.023077458 -0.0033283532 -0.047820985 0.05280207
0.024865821 -0.014432155 -0.053849876 -0.013889909 -0.049340457 0.03717187 0.012710578 -0.015106372
-0.056029778 -0.0210708 0.0075697154 -0.0528891 -0.036998637 0.037496462 -0.03584871 0.012397252
0.016258081 0.030083295 -0.0074165463 0.03547292 0.059666462 0.017845966 -0.03263472 -0.0031599707
0.047261253 -0.06799403 0.039102428 -0.015773393 0.04619409 -0.031231457 -0.049960054 0.027182497
0.050553642 -0.040182717 0.038585328 0.05035334 0.032940194 0.03181443 -0.029566085 0.015509584
0.05022689 -0.0328182 0.04509703 0.014538877 -0.06417142 -0.04994399 -0.057149544 -0.018525094
0.023190685 -0.06372413 0.0338493 0.04315403 -0.052586712 -0.014105728 0.00065942854 -0.007397324
0.052573062 -0.016348116 -0.062169164 -0.05062955 -0.042010777 0.04113477 0.020282742 -0.0030604922
0.027032949 0.03533475 -0.011749855 -0.008910583 0.031192865 0.042155176 0.020384468 -0.043333113
0.060468294 -0.05829501 -0.06004951 -0.05279781 -0.06756635 -0.06796881 -0.043255642 -0.010683275
-0.06189909 0.035699874 0.04156971 0.016946102 -0.04936485 -0.036339477 -0.026654802 -0.044570692
0.025934823 -0.014677814 0.016979001 0.012904672 0.015102662 -0.03801439 0.033026487 0.013277455
0.040662237 -0.008876316 -0.053155795 0.043861747 -0.06190238 -0.039642654 -0.049645253 -0.029401638
-0.062133744 -0.013694353 0.050260164 0.007879667 -0.025334738 0.059183046 -0.06312186 -0.041086107
0.043091074 0.028366724 -0.014119007 0.030121665 -0.043513328 -0.042542048 -0.019554943 -0.01304841
0.0018643811 0.031791203 -0.011512815 0.0014473349 0.0033552572 0.03955722 0.041605793 0.02907185
-0.06223972 -0.020053662 0.024767151 0.014295022 -0.03339482 -0.054976955 0.019344978 -0.02600008
0.03815572 0.0522198 0.048522256 -0.055539608 -0.039526023 -0.02826311 -0.01591865 -0.015084392
0.045301326 -0.041361105 0.026462704 -0.03285515 -0.034360997 0.030556275 0.056471176 0.04144413
-0.010641321 0.026138676 0.01620062 0.024939884 0.0019287616 0.054754607 0.05735249 -0.014650121
0.040686868 -0.0479765 0.050683357 0.009687625 0.053806916 0.045754902 0.0074184285 -0.0051530967
-0.054079525 0.03486538 -0.046410933 -0.056155704 -0.036123503 -0.056575812 -0.045662127 0.051091336
-0.018400498 0.026212841 -0.041180767 0.028326463 -0.0054557994 0.032194935 -0.057175636 -0.02447337
0.036869444 -0.0023149028 0.03350717 0.03855905 -0.014004111 -0.03412036 0.05641316 -0.013663396
0.060580485 -0.053480946 0.043923117 0.013183527 0.0332632 0.0051363073 -0.036554873 -0.046954595
-0.011380278 -0.007784333 0.010490045 0.027017184 -0.019175285 -0.006178431 -0.026901014 -0.023676082
-0.05204936 0.011339369 -0.0058210674 -0.029445255 -0.0019780328 -0.056075998 -0.03741245 -0.031154184
0.009834051 0.02039139 0.0008961466 0.00065285404 0.0074442625 0.023866063 -0.033129446 0.018900437
0.012515128 -0.024980828 -0.03943461 -0.01721151 0.03300477 -0.026413182 -0.035381943 0.020616747
00000000: 74f1 4d3d 9c21 fc3c a958 18bc 8891 2b3c
00000010: c89e 393d e026 7fbd a415 28bd d6e2 7dbd
00000020: 10b5 65bd 72df 2ebd 3868 533c be37 6ebd
00000030: e41b 0bbd 240b 4d3d 6af6 21bd 4265 943c
00000040: 5073 103d 79af df3c 4a31 0a3d b22c 2ebd
00000050: f00c bdbc 8020 5abb f0df 43bd fc46 583d
00000060: 68b3 cb3c d874 6cbc b091 5cbd 8092 63bc
00000070: 3819 4abd 8841 183d 0740 503c b780 77bc
00000080: 7b7f 65bd ac9c acbc 600b f83b 3ea2 58bd
00000090: e28b 17bd e495 193d 19d6 12bd d81d 4b3c
000000a0: ab2f 853c 3e71 f63c 8006 f3bb 0d4c 113d
000000b0: d264 743d b431 923c fcab 05bd 8317 4fbb
000000c0: 0495 413d 7440 8bbd de29 203d 3437 81bc
000000d0: 0436 3d3d 1dd9 ffbc eaa2 4cbd d4ad de3c
000000e0: 5611 4f3d a296 24bd a60b 1e3d 4e3f 4e3d
000000f0: 4cec 063d d94f 023d 9334 f2bc e91b 7e3c
00000100: b6ba 4d3d 606c 06bd aab7 383d 7834 6e3c
00000110: 4e6c 83bd 1292 4cbd a415 6abd f0c1 97bc
00000120: 64fa bd3c cc81 82bd 90a5 0a3d 48c2 303d
00000130: 2a65 57bd b61b 67bc 80dd 2c3a 4065 f2bb
00000140: da56 573d 7cec 85bc 18a5 7ebd ee60 4fbd
00000150: 7e13 2cbd ef7c 283d fe27 a63c 8a92 48bb
00000160: 3474 dd3c 2cbb 103d 7782 40bc b2fd 11bc
00000170: 2e88 ff3c e8aa 2c3d 54fd a63c 107e 31bd
00000180: 9aad 773d c0c6 6ebd 7af6 75bd 8442 58bd
00000190: 3a60 8abd 3b33 8bbd d42c 31bd e708 2fbc
000001a0: e689 7dbd 083a 123d 0045 2a3d 8dd2 8a3c
000001b0: cc32 4abd b4d8 14bd 2c5b dabc c28f 36bd
000001c0: 4475 d43c 377b 70bc 8c17 8b3c 1e6e 533c
000001d0: 2871 773c fab4 1bbd c846 073d af89 593c
000001e0: 728d 263d f86d 11bc e4b9 59bd 60a8 333d
000001f0: 5a8d 7dbd 5660 22bd d258 4bbd b4db f0bc
00000200: f47f 7ebd 485e 60bc 9add 4d3d b819 013c
00000210: cc8a cfbc ec69 723d 0946 81bd e849 28bd
00000220: 4480 303d 5561 e83c 6853 67bc b6c1 f63c
00000230: 083b 32bd 9240 2ebd b031 a0bc 00c9 55bc
00000240: 405e f43a 7e37 023d 3fa0 3cbc 80b4 bd3a
00000250: e0e3 5b3b c006 223d d66a 2a3d 1728 ee3c
00000260: 14ef 7ebd 9447 a4bc 7be4 ca3c ab35 6a3c
00000270: 02c9 08bd 842f 61bd 5c79 9e3c 1ffe d4bc
00000280: 2c49 1c3d 6ee4 553d 46bf 463d 807d 63bd
00000290: 0ae6 21bd 0a88 e7bc d467 82bc 8724 77bc
000002a0: e28d 393d 436a 29bd 50c8 d83c 1f93 06bd
000002b0: 1ebe 0cbd 2751 fa3c 524e 673d 52c1 293d
000002c0: ef58 2ebc c720 d63c 2ab7 843c ba4e cc3c
000002d0: 80ce fc3a 5e46 603d 72ea 6a3d 1007 70bc
000002e0: 46a7 263d 0283 44bd 5a99 4f3d d8b8 1e3c
000002f0: a464 5c3d 7e69 3b3d 4a16 f33b 4fdb a8bb
00000300: 7e82 5dbd 00cf 0e3d 6419 3ebd 8603 66bd
00000310: 3df6 13bd 0abc 67bd 3608 3bbd 2645 513d
00000320: a4bc 96bc 50bc d63c 2aad 28bd e60c e83c
00000330: 90c6 b2bb d6de 033d 0031 6abd 607c c8bc
00000340: 6a04 173d a0b5 17bb d03e 093d 18f0 1d3d
00000350: 8071 65bc cac1 0bbd 7c11 673d 70dc 5fbc
00000360: 3e23 783d d60e 5bbd bae8 333d b8ff 573c
00000370: fe3e 083d 784e a83b 90ba 15bd 7653 40bd
00000380: 5874 3abc b813 ffbb 70de 2b3c 2453 dd3c
00000390: 7d15 9dbc 7074 cabb 845f dcbc 58f4 c1bc
000003a0: b631 55bd c3c8 393c a7be bebb 2d37 f1bc
000003b0: e2a1 01bb f2af 65bd cc3d 19bd 0f37 ffbc
000003c0: 001f 213c d80b a73c 61eb 6a3a 4b24 2b3a
000003d0: 00ef f33b c382 c33c beb2 07bd 17d5 9a3c
000003e0: 400c 4d3c 98a4 ccbc 3086 21bd 27ff 8cbc
000003f0: 0230 073d 7560 d8bc a8ec 10bd 74e4 a83c

l2.bias f4 [256]
0.037353083 -0.007698788 -0.034687128 0.045428157 -0.039969977 -0.0104734665 -0.0016661303 -0.028729435
-0.07477208 -0.0383533 -0.057118177 -0.022710243 0.027790599 -0.040231645 -0.057027224 -0.0758544
-0.028445935 -0.053297512 0.010617979 0.016024934 -0.060886398 0.014525048 0.018889192 -0.030883787
-0.065262705 0.048457213 -0.016210407 -0.35874534 -0.03546016 0.033990093 0.03019984 -0.059414603
-0.04589843 -0.059585653 0.012993857 -0.026334248 0.042621866 -0.029557414 -0.0133390315 0.027450427
0.057429653 -0.004745076 -0.0065469276 0.0061256117 0.060158692 -0.046803225 0.0019977316 -0.0150629375
0.0011314682 0.0011495153 -0.020116448 0.0067154346 -0.034481525 -0.0036168168 -0.004552248 -0.022454653
-0.065449715 -0.05638642 -0.035695013 0.0072452156 -0.006494474 -0.032155536 -0.05880874 -0.061196923
0.015831288 -0.02132864 0.041217666 -0.03108591 -0.027805783 -0.00029777334 -0.047319997 -0.0055779386
-0.030866446 -0.06489074 0.025517594 0.040060733 0.029304534 -0.010776378 -0.011122279 0.0129173715
0.027179547 -0.0071708113 0.009707007 -0.040783647 0.00052994984 -0.04168508 0.034973968 0.013291472
-0.004185924 -0.10485602 -0.01383756 0.01014481 0.021561574 0.01933285 -0.018010847 -0.017366482
-0.05626917 0.032921698 0.06728497 0.030363863 -0.055406816 -0.072668515 0.5950864 -0.035555027
-0.040465157 -0.037901185 -0.006480082 -0.027330283 -0.08631639 0.010432407 0.010407488 0.021764042
0.03135858 -0.14139731 -0.052193698 -0.021295084 -0.026373044 -0.012726109 0.006577235 0.034203075
-0.023087015 -0.05934299 -0.06825246 -0.0010100909 -0.05186719 -0.03580252 -0.00413748 -0.055692937
-0.024396151 0.01110721 -0.047258038 -0.063335 -0.039064743 0.010734874 0.018010663 -0.005104208
0.025621042 -0.13950245 0.002896787 -0.061283927 0.030845966 0.038375415 -0.016124003 0.035043962
0.0106082605 0.0029739812 -0.032051202 -0.014175147 -0.020158224 -0.049868863 -0.05975814 0.040678483
0.01643246 0.05883146 -0.09653441 0.010147607 -0.0053335973 0.014302492 -0.028611947 -0.005429787
-0.028318536 -0.04618567 -0.06708875 -0.046104066 -0.05282079 -0.012019479 -0.0011911093 -0.008302849
0.025722034 -0.003422869 -0.03700279 0.012130504 0.03455015 -0.10666532 -0.022532314 0.031310227
0.0484006 0.04116423 -0.007795952 -0.021876374 -0.02491271 -0.029124714 0.011730536 -0.057625357
0.0429813 0.0367164 -0.0026249844 -0.0016619414 -0.013751102 0.0140264 0.0041864403 0.05419889
-0.07496571 -0.08139027 -0.04949186 -0.06753853 -0.027025878 -0.019209465 0.012323696 0.009945234
-0.058270257 -0.0145202875 0.0578259 -0.0053971396 -0.02428663 -0.0778341 -0.0258568 -0.00014469028
0.05292348 0.016017199 -0.10455749 -0.068270355 -0.0093307495 -0.04908621 0.021152144 -0.059067417
-0.0066527207 -0.050309397 0.058436498 -0.05172574 0.022339894 -0.033573072 -0.07193257 -0.052890956
0.037375923 0.021873366 -0.079981625 -0.006007299 0.010823995 -0.008631661 -0.08224709 -0.033092882
-0.009170088 0.047959074 -0.05687753 0.004014696 -0.08242792 -0.08251052 -0.038924158 0.015555218
-0.069835015 -0.046136577 0.020866798 -0.055116117 0.060457338 -0.08821189 -0.07581038 0.011737409
-0.047162067 -0.044557635 -0.04756933 -0.054611977 -0.05054186 0.049677216 0.21700236 0.0021011746
00000000: 8cff 183d 1d46 fcbb 1714 0ebd e012 3a3d
00000010: 8fb7 23bd e798 2bbc 0e62 daba fe59 ebbc
00000020: 1b22 99bd 5a18 1dbd c0f4 69bd d50a babc
00000030: 1ca9 e33c f0c9 24bd 6195 69bd 8d59 9bbd
00000040: 7307 e9bc 7e4e 5abd 08f7 2d3c b946 833c
00000050: 0464 79bd 78fa 6d3c 82bd 9a3c ffff fcbc
00000060: 74a8 85bd 127b 463d b0cb 84bc 78ad b7be
00000070: ac3e 11bd 3239 0b3d a865 f73c ba5c 73bd
00000080: feff 3bbd 1610 74bd 30e4 543c ecba d7bc
00000090: 4494 2e3d 6422 f2bc f48b 5abc b8df e03c
000000a0: 5b3b 6b3d 957c 9bbb 9c87 d6bb 5bb9 c83b
000000b0: f668 763d bdb4 3fbd 60ec 023b 8aca 76bc
000000c0: c64d 943a 55ab 963a 40cb a4bc 260d dc3b
000000d0: 803c 0dbd 1e08 6dbb 062b 95bb d2f2 b7bc
000000e0: 800a 86bd 72f5 66bd ef34 12bd 4669 ed3b
000000f0: 99cf d4bb 86b5 03bd 6fe1 70bd a0a9 7abd
00000100: 9eb0 813c 66b9 aebc dbd3 283d e1a7 febc
00000110: f4c8 e3bc 761e 9cb9 9dd2 41bd 24c7 b6bb
00000120: a1db fcbc 70e5 84bd 460a d13c b916 243d
00000130: 1010 f03c 688f 30bc 383a 36bc 62a3 533c
00000140: a4a7 de3c 20f9 eabb 230a 1f3c c10c 27bd
00000150: 55ec 0a3a f9bd 2abd dd40 0f3d 79c4 593c
00000160: 132a 89bb c1be d6bd efb6 62bc 6b36 263c
00000170: e6a1 b03c ed5f 9e3c 7c8b 93bc 2744 8ebc
00000180: 807a 66bd e7d8 063d b4cc 893d a3bd f83c
00000190: 42f2 62bd 3bd3 94bd 9557 183f 26a2 11bd
000001a0: cbbe 25bd 463e 1bbd de56 d4bb c2e3 dfbc
000001b0: a6c6 b0bd b0ec 2a3c 2b84 2a3c 814a b23c
000001c0: db71 003d 75ca 10be 0fc9 55bd 0773 aebc
000001d0: 480c d8bc 2b81 50bc d985 d73b 8618 0c3d
000001e0: fb20 bdbc a311 73bd f2c7 8bbd 0765 84ba
000001f0: b172 54bd aaa5 12bd b393 87bb 471e 64bd
00000200: 70da c7bc 04fb 353c a591 41bd c8b5 81bd
00000210: 5a02 20bd 53e1 2f3c 198b 933c 3341 a7bb
00000220: 38e3 d13c bbd9 0ebe 05d8 3d3b db04 7bbd
00000230: aeb0 fc3c 8a2f 1d3d 7c16 84bc 428a 0f3d
00000240: 45ce 2d3c 20e7 423b 1f48 03bd e03e 68bc
00000250: dc22 a5bc 4b43 4cbd f4c4 74bd 7b9e 263d
00000260: 5e9d 863c 42f9 703d d5b3 c5bd 2642 263c
00000270: 75c5 aebb 0055 6a3c 9a63 eabc 5bec b1bb
00000280: 46fc e7bc 2f2d 3dbd d465 89bd 9ed7 3cbd
00000290: 9d5a 58bd 59ed 44bc ff1e 9cba ac08 08bc
000002a0: 04b7 d23c 3652 60bb 3d90 17bd 05bf 463c
000002b0: 7584 0d3d 5973 dabd b095 b8bc 273f 003d
000002c0: b53f 463d d39b 283d 2f75 ffbb 1536 b3bc
000002d0: bd15 ccbc f496 eebc 6f31 403c 9108 6cbd
000002e0: 290d 303d f063 163d ee07 2cbb 80d5 d9ba
000002f0: 4d4c 61bc fcce 653c 682e 893b a8ff 5d3d
00000300: 9f87 99bd f1af a6bd fab7 4abd a451 8abd
00000310: 6065 ddbc 2b5d 9dbc 54e9 493c 56f1 223c
00000320: cbac 6ebd 80e6 6dbc dada 6c3d 7dda b0bb
00000330: c1f4 c6bc 7c67 9fbd a4d1 d3bc 00b8 17b9
00000340: 4ac6 583d 8036 833c 3d22 d6bd 54d1 8bbd
00000350: 00e0 18bc 9f0e 49bd 4347 ad3c adf0 71bd
00000360: 11ff d9bb 3a11 4ebd 1c5b 6f3d 5fde 53bd
00000370: 2702 b73c eb83 09bd 6251 93bd 30a4 58bd
00000380: 7f17 193d c62f b33c 68cd a3bd e0d8 c4bb
00000390: 2057 313c cf6b 0dbc 2a71 a8bd 678c 07bd
000003a0: 233e 16bc bc70 443d 6af8 68bd b68d 833b
000003b0: f8cf a8bd 47fb a8bd f06e 1fbd 50db 7e3c
000003c0: a905 8fbd b5f9 3cbd d9f0 aa3c 70c1 61bd
000003d0: 1da2 773d 6fa8 b4bd 7942 9bbd 434e 403c
000003e0: 032d 41bd 1182 36bd 0fd8 42bd cfb0 5fbd
000003f0: fb04 4fbd 567a 4b3d de35 5e3e dcb3 093b

l3.weight f4 [256, 256]
0.059171706 -0.026545329 0.043601975 -0.009711215 0.03952363 -0.006667912 -0.030807763 -0.036661573
0.042659417 -0.03289518 -0.0654724 0.040192086 -0.05459989 -0.059080474 0.013884043 0.035514474
0.020190038 0.015354212 0.0029359981 0.027952986 -0.04357052 -0.013972893 0.033566 0.047382884
0.049528822 0.028635807 -0.010958539 0.0074270125 0.030226719 -0.024208702 -0.031987265 0.030953065
-0.065762505 0.024909548 0.054778785 0.00659775 -0.050280124 -0.0095236525 -0.02303055 0.0061674276
-0.062720984 0.019872412 -0.039599266 0.0074034706 -0.054424226 -0.06501353 -0.007271424 0.0027333775
0.034462005 0.027185082 -0.05803649 -0.021643838 0.04122953 -0.053358138 0.027079295 0.051435955
0.024449281 0.04995682 -0.06417616 -0.03461005 0.049465504 -0.051747814 -0.052675314 0.05272301
0.014440887 0.017464736 -0.020430734 -0.052685384 0.009908266 0.028336575 -0.052847303 0.012934401
0.051304787 -0.010069529 -0.0019726008 -0.01986706 -0.05172585 0.018968485 0.04856086 -0.025861502
-0.064667895 -0.055293635 -0.03320657 -0.01149267 -0.011259296 -0.058016896 0.021179311 -0.019587493
0.03222486 0.028795287 0.041901983 0.032983698 -0.005282167 -0.05344194 0.020685606 -0.019265002
-0.05107017 -0.065645315 -0.046703473 -0.059233326 6.6414475e-05 0.018825138 -0.06442261 0.03477874
-0.02639661 0.061231323 -0.020278154 0.030955851 -0.022486476 -0.0052650794 0.005500369 0.0329266
-0.015073643 -0.010922097 0.04983664 -0.04639853 -0.02601906 -0.030230604 -0.03673899 -0.013862931
0.022712423 -0.044911496 0.04314647 0.05857036 -0.01767833 -0.0009374275 -0.013167126 0.035446834
0.0014048807 0.0022362776 0.007595458 -0.04078112 0.038088966 -0.005950951 0.016087785 0.04139345
0.029442653 -0.036276884 0.0064219274 -0.057130683 -0.014670156 -0.0005768079 0.0047098226 0.008525811
-0.05441434 -0.046486378 -0.016806133 -0.041418146 -0.028731078 -0.01826315 0.016689941 -0.014635342
0.050354354 -0.042978935 -0.039043106 -0.056589387 -0.05019804 0.049153343 -0.040527634 -0.057170074
-0.025148567 -0.059768543 0.04775263 0.031207383 0.02114073 -0.0037040985 0.00021367562 0.0055346787
0.03985413 0.048858944 -0.060169898 -0.02111151 0.025730288 -0.06846681 -0.035926268 0.05468472
0.025501236 0.01053435 -0.00094605464 -0.06092195 -0.04606972 -0.054867223 0.05079104 -0.07105444
-0.03960482 0.05995188 0.05984188 0.03820856 -0.022389105 0.024772512 -0.01741769 -0.04721782
-0.057813466 0.026723241 0.051976122 -0.033439454 -0.028850842 -0.05954645 -0.014913269 -0.06647998
0.0339263 0.0058646947 -0.056096166 0.04267765 0.010928409 -0.07068732 0.0030221045 -0.047522068
0.03891573 0.0035887882 0.041412875 -0.016671037 0.048569813 -0.03732432 0.007695557 0.045724317
-0.05833001 -0.05151491 -0.070240274 0.059683323 0.0299391 0.0448684 0.041091535 0.0052058385
-0.04421893 0.0486155 0.05204922 -0.04989498 -0.06554705 0.017186955 0.026517628 -0.02056346
-0.05402971 0.035820656 0.014112301 -0.05822005 0.027535047 -0.058121577 -0.021522194 0.021651033
0.004772015 0.0045018466 0.027792148 -0.036302254 0.017592045 -0.03791686 0.03335014 0.017507188
0.025871692 0.00015832782 -0.052880816 0.03144582 -0.030208595 -0.044263367 -0.0066051167 0.04748871
00000000: 085e 723d 9775 d9bc fc97 323d ca1b 1fbc
00000010: 88e3 213d 807e dabb 9060 fcbc 722a 16bd
00000020: a4bb 2e3d 19bd 06bd 6516 86bd 75a0 243d
00000030: 22a4 5fbd 5efe 71bd e679 633c a077 113d
00000040: 9465 a53c 3c90 7b3c e069 403b a9fd e43c
00000050: 0077 32bd 90ee 64bc 817c 093d 8e14 423d
00000060: bcde 4a3d a495 ea3c 728b 33bc 4c5e f33b
00000070: 069e f73c 5451 c6bc 1405 03bd 4891 fd3c
00000080: 7eae 86bd 1c0f cc3c b85f 603d f031 d83b
00000090: 88f2 4dbd 1809 1cbc 90aa bcbc 2218 ca3b
000000a0: dc73 80bd 78cb a23c d732 22bd d098 f23b
000000b0: f0eb 5ebd d025 85bd 2045 eebb 7722 333b
000000c0: 0828 0d3d 40b3 de3c acb7 6dbd 6b4e b1bc
000000d0: 4ce0 283d 108e 5abd 66d5 dd3c 82ae 523d
000000e0: dc49 c83c 869f 4c3d ca6e 83bd 45c3 0dbd
000000f0: 579c 4a3d 84f5 53bd 12c2 57bd 15f4 573d
00000100: 7899 6c3c 3512 8f3c 5b5e a7bc a1cc 57bd
00000110: 4856 223c 1b22 e83c 6a76 58bd cfea 533c
00000120: f824 523d aafa 24bc c046 01bb 3fc0 a2bc
00000130: 7cde 53bd cc63 9b3c c1e7 463d 80db d3bc
00000140: 9a70 84bd 947b 62bd 9d03 08bd c04b 3cbc
00000150: e978 38bc 20a3 6dbd 3c80 ad3c f375 a0bc
00000160: 37fe 033d 18e4 eb3c 6aa1 2b3d ea19 073d
00000170: 0716 adbb f0e5 5abd dc74 a93c a3d1 9dbc
00000180: f42e 51bd 0d71 86bd 244c 3fbd a59e 72bd
00000190: 0048 8b38 2d37 9a3c 00f0 83bd 2774 0e3d
000001a0: b43d d8bc b2cd 7a3d 5f1e a6bc 2097 fd3c
000001b0: 8f35 b8bc b086 acbb 703c b43b 0bde 063d
000001c0: 71f7 76bc 98f2 32bc 8121 4c3d 630c 3ebd
000001d0: ec25 d5bc 2ca6 f7bc a07b 16bd 5921 63bc
000001e0: 670f ba3c 1ef5 37bd 5aba 303d 79e7 6f3d
000001f0: 25d2 90bc b2bd 75ba eeba 57bc b330 113d
00000200: f923 b83a 838e 123b 52e3 f83b 1b0a 27bd
00000210: 2d03 1c3d 3200 c3bb 88ca 833c 2e8c 293d
00000220: b831 f13c 1297 14bd 086f d23b dd01 6abd
00000230: 185b 70bc ec34 17ba db54 9a3b d8af 0b3c
00000240: 92e1 5ebd 8068 3ebd 04ad 89bc 13a6 29bd
00000250: 705d ebbc 9a9c 95bc 58b9 883c 13c9 6fbc
00000260: 5e40 4e3d ae0a 30bd aaeb 1fbd 46ca 67bd
00000270: 769c 4dbd 0455 493d 4e00 26bd 2b2b 6abd
00000280: 5e04 cebc dccf 74bd 4398 433d a0a6 ff3c
00000290: 532f ad3c 76c0 72bb 1d0e 6039 405c b53b
000002a0: 163e 233d 5120 483d b674 76bd 0cf2 acbc
000002b0: 53c8 d23c 5438 8cbd 6c27 13bd 16fd 5f3d
000002c0: f8e7 d03c 4498 2c3c a700 78ba 4b89 79bd
000002d0: 9ab3 3cbd 74bc 60bd 440a 503d fe84 91bd
000002e0: aa38 22bd 1a90 753d c21c 753d 9480 1c3d
000002f0: 5b69 b7bc b9ef ca3c 8baf 8ebc 7967 41bd
00000300: d0cd 6cbd b3ea da3c eae4 543d cff7 08bd
00000310: 9a58 ecbc fae6 73bd c956 74bc a826 88bd
00000320: 4ef6 0a3d a02c c03b 18c5 65bd c2ce 2e3d
00000330: 120d 333c 83c4 90bd 800e 463b 80a6 42bd
00000340: 1a66 1f3d e031 6b3b 8ca0 293d b391 88bc
00000350: 24f1 463d 63e1 18bd 032b fc3b 6c49 3b3d
00000360: 73eb 6ebd 4c01 53bd 22da 8fbd 8076 743d
00000370: d842 f53c edc7 373d 994f 283d bd95 aa3b
00000380: e91e 35bd 0c21 473d 9031 553d ae5e 4cbd
00000390: 883d 86bd a8cb 8c3c 7f3b d93c b474 a8bc
000003a0: 424e 5dbd aeb8 123d 4837 673c 2678 6ebd
000003b0: 2e91 e13c e410 6ebd 504f b0bc 825d b13c
000003c0: 905e 9c3b 3a84 933b 5cac e33c acb1 14bd
000003d0: 311d 903c b64e 1bbd 289a 083d 3c6b 8f3c
000003e0: dff0 d33c cd04 2639 8e99 58bd 55cd 003d
000003f0: 0478 f7bc 814d 35bd bc6f d8bb 8683 423d

l3.bias f4 [256]
-0.056264184 -0.01705238 -0.0928504 0.028001195 0.002758486 -0.04880654 0.014910508 0.00748086
0.040600017 0.025764542 0.04235254 -0.038389172 0.06827318 0.0029187407 0.022105984 0.004993344
0.053443708 0.033430617 0.053324144 0.045711193 0.049893014 -0.014668736 0.009244264 0.0075033475
0.043424107 0.011880679 0.047262654 -0.0062282295 -0.041579217 0.062538 -0.07253739 0.033847995
-0.0125722885 0.034092672 -0.06041157 0.012800758 -0.06728225 0.04670594 -0.05919834 0.020664008
-0.059397735 0.033822134 -0.081872396 0.0063671204 -0.05755557 -0.05506951 -0.069087334 0.012493393
-0.06644397 0.040127728 -0.0037474479 -0.08027382 0.022252358 -0.020091958 -0.0057950583 0.0154055
0.040247172 -0.005867608 -0.03897376 -0.0358061 -0.043466955 0.016436832 -0.057829663 0.041868873
-0.033697143 -0.05006538 -0.0057217255 -0.03245302 -0.00082413916 0.009831475 -0.0071865683 0.031007607
-0.00077462 -0.013870926 -0.015667452 -0.0148771005 0.049980696 -0.027917556 -0.037577454 -0.0024262944
0.07171611 -0.068729326 -0.03396658 0.04720051 -0.054294016 0.09563929 -0.056250293 -0.007111419
-0.06617712 0.04165887 0.0012480936 -0.07127395 0.003458366 0.021374755 0.04961841 -0.018650133
-0.036625903 -0.027312089 0.017532993 -0.11642902 0.035713598 -0.052242897 0.015944125 0.025703685
0.020585755 0.05872763 0.053945266 0.0066205543 0.11304418 -0.0028168454 0.0012883164 -0.05466616
-0.0042216764 -0.06813259 0.017145745 0.044867173 -0.07318968 -0.017731627 0.0057070837 -0.016049707
0.0137118315 -0.019375637 0.029013785 0.027514394 -0.07002869 0.009755764 0.099790566 -0.078452684
0.031944454 -0.058051556 0.04826293 0.024879381 0.08057871 -0.013022512 0.046677906 0.015881548
-0.05321972 0.05717015 -0.008211647 0.059117433 -0.041624483 0.046661284 0.026865764 -0.031422947
0.03241726 0.070051335 0.101055376 0.055276137 0.039288875 0.02103377 -0.0520006 -0.0651453
0.06837908 0.0030154213 -0.04558281 0.049192816 -0.030196538 0.017097749 -0.024773005 0.032021668
0.11148394 -0.050209 0.10607064 -0.012044404 0.0076701026 0.033299673 -0.06879149 0.012620638
0.00031769575 0.015675874 -0.028116392 -0.018306427 0.012080671 0.039222006 -0.097388424 0.0113775525
-0.056470994 0.0022568288 -0.030740252 0.025695696 -0.024812346 0.0150477 -0.055211835 0.01092369
-0.021442631 0.032889035 -0.075888455 0.013295742 0.028326921 -0.058861036 -0.05802906 -0.02435119
-0.03900359 -0.10077138 -0.039976 0.036465943 -0.015981179 -0.06721023 -0.01392561 -0.006020532
-0.02538048 -0.05711571 -0.03656429 -0.063499615 0.04520767 0.14720489 -0.015722465 0.041718647
0.0010937649 -0.06921381 -0.018474363 -0.06658642 -0.024191746 -0.052317016 -0.033597536 0.038161915
-0.02315977 -0.0011529601 -0.0329994 0.05519859 0.014294114 -0.09489335 0.049255695 0.0053474247
-0.09042268 -0.04529067 0.07200122 -0.049923565 0.040555928 0.038676456 0.056744363 0.0050846855
-0.017840607 -0.064872354 0.04405585 0.09955793 -0.013861872 0.009995559 0.01619461 -0.07947201
-0.050134234 -0.039715074 0.016408266 -0.077299215 0.042381804 -0.025319623 -0.058858335 0.029199697
-0.025808241 -0.029758032 0.0042128954 0.014990915 0.008601661 0.033521518 0.029509444 0.0464707
00000000: 4675 66bd 6fb1 8bbc 5a28 bebd c362 e53c
00000010: b7c7 343b 5ee9 47bd 344b 743c 0122 f53b
00000020: 344c 263d 2910 d33c db79 2d3d f73d 1dbd
00000030: cfd2 8b3d 5848 3f3b 9c17 b53c 359f a33b
00000040: cae7 5a3d 8bee 083d 6b6a 5a3d a93b 3b3d
00000050: 9e5c 4c3d 2355 70bc 4175 173c a4de f53b
00000060: 7add 313d 2ea7 423c 7c96 413d 2d16 ccbb
00000070: f84e 2abd ec13 803d 7c8e 94bd 32a4 0a3d
00000080: 00fc 4dbc c2a4 0b3d 1f72 77bd 45ba 513c
00000090: 47cb 89bd ba4e 3f3d f579 72bd 9147 a93c
000000a0: 0a4b 73bd 1489 0a3d b7ac a7bd 47a3 d03b
000000b0: 64bf 6bbd 9190 61bd a97d 8dbd 17b1 4c3c
000000c0: c713 88bd f95c 243d be97 75bb 9a66 a4bd
000000d0: 944a b63c e497 a4bc 79e4 bdbb 5a67 7c3c
000000e0: 38da 243d 1045 c0bb f3a2 1fbd 6ba9 12bd
000000f0: 680a 32bd 89a6 863c ccde 6cbd b27e 2b3d
00000100: 0406 0abd 5b11 4dbd 507d bbbb 75ed 04bd
00000110: 0b0b 58ba 3214 213c 4e7d ebbb aa03 fe3c
00000120: de0f 4bba e142 63bc 0759 80bc 15bf 73bc
00000130: 8fb8 4c3d 5cb3 e4bc d1ea 19bd 7702 1fbb
00000140: e5df 923d f6c1 8cbd 8a20 0bbd 5255 413d
00000150: 6763 5ebd 88de c33d b566 66bd e806 e9bb
00000160: df87 87bd 7ea2 2a3d 1297 a33a 14f8 91bd
00000170: c1a5 623b 1c1a af3c ad3c 4b3d 2ac8 98bc
00000180: 0b05 16bd 9abd dfbc 5aa1 8f3c 5772 eebd
00000190: 6c48 123d a6fc 55bd 419d 823c 8990 d23c
000001a0: 75a3 a83c 628c 703d b6f5 5c3d 3cf1 d83b
000001b0: b583 e73d d39a 38bb badc a83a a0e9 5fbd
000001c0: fd55 8abb 1989 8bbd 3c75 8c3c a4c6 373d
000001d0: 79e4 95bd eb41 91bc 7d02 bb3b ad7a 83bc
000001e0: 97a7 603c a8b9 9ebc 51ae ed3c de65 e13c
000001f0: 346b 8fbd a4d6 1f3c ff5e cc3d cdab a0bd
00000200: 30d8 023d 78c7 6dbd 5aaf 453d d8cf cb3c
00000210: 7306 a53d 605c 55bc 5531 3f3d 051a 823c
00000220: ecfc 59bd 3f2b 6a3d 258a 06bc 1f25 723d
00000230: 6f7e 2abd e71f 3f3d 9715 dc3c 59b5 00bd
00000240: f6c7 043d 1377 8f3d 1ff6 ce3d 3b69 623d
00000250: 5fed 203d 034f ac3c 95fe 54bd e66a 85bd
00000260: 550a 8c3d 609e 453b 0ab5 3abd 687e 493d
00000270: bb5e f7bc 9410 8c3c c2f0 cabc 2729 033d
00000280: b151 e43d f4a7 4dbd 903b d93d e455 45bc
00000290: 7c55 fb3b 3d65 083d 8de2 8cbd cbc6 4e3c
000002a0: 6790 a639 b16a 803c 5954 e6bc 5cf7 95bc
000002b0: 02ee 453c 41a7 203d 9573 c7bd ea68 3a3c
000002c0: 214e 67bd 4ee7 133b fbd2 fbbc c87f d23c
000002d0: 4343 cbbc a18a 763c ce25 62bd 47f9 323c
000002e0: 75a8 afbc a7b6 063d 686b 9bbd 62d6 593c
000002f0: dc0d e83c 4518 71bd e1af 6dbd 267c c7bc
00000300: 3ac2 1fbd 3a61 cebd e0bd 23bd 505d 153d
00000310: f6ea 82bc 84a5 89bd 3e28 64bc e247 c5bb
00000320: b9ea cfbc 2af2 69bd 70c4 15bd 160c 82bd
00000330: ae2b 393d e1bc 163e 66cc 80bc 2ce1 2a3d
00000340: a95c 8f3a f8bf 8dbd 8c57 97bc 765e 88bd
00000350: c52d c6bc 5e4a 56bd 929d 09bd ab4f 1c3d
00000360: 8fb9 bdbc ec1e 97ba 612a 07bd eb17 623d
00000370: dc31 6a3c 7257 c2bd 57c0 493d 7339 af3b
00000380: 872f b9bd b682 39bd 6075 933d a77c 4cbd
00000390: f91d 263d 346b 1e3d c76c 683d 6f9d a63b
000003a0: 7726 92bc ccdb 84bd e873 343d 07e5 cb3d
000003b0: e81c 63bc 6ac4 233c 8faa 843c 39c2 a2bd
000003c0: 8e59 4dbd 46ac 22bd a16a 863c 0d4f 9ebd
000003d0: 8b98 2d3d 196b cfbc 7015 71bd 3434 ef3c
000003e0: ce6b d3bc 1ec7 f3bc 540c 8a3b 749c 753c
000003f0: fbed 0c3c dc4d 093d cabd f13c 1058 3e3d

l4.weight f4 [1, 256]
-0.0064386185 -0.011715244 0.02438803 0.001177719 -0.039558314 0.007603125 0.0010888181 0.022758264
0.0008732874 -0.048243545 -0.018883232 0.000690199 0.031562906 0.0049370346 -0.07805344 -0.043252043
-0.020903343 0.020553246 -0.05588672 -0.015094373 0.030521905 -0.04615858 0.015893945 0.049358655
-0.0005000818 0.030021328 0.061947197 -0.004360921 0.0062429397 0.041661695 -0.009887903 -0.05406085
0.035908654 0.03200901 -0.029845765 -0.0008737793 -0.000111221336 0.02506052 -0.011155494 0.01107092
-0.030601112 0.00045350392 0.0052338303 0.0047221617 -0.005262242 -0.04864139 0.013569625 0.03060429
-0.009755427 0.056365423 -0.011945391 0.0019054426 0.016835818 0.048631243 -0.05073344 -0.0017342095
-0.047850266 -0.011007981 -0.010068621 -0.022924142 -0.0036831002 -0.012124963 0.037654437 -0.002017498
0.0030841725 0.024915947 -0.0026864416 0.014270935 0.048209805 0.038429465 -0.0025217345 -0.029234286
-0.03528349 -0.0023222961 -0.009526827 0.0057931133 0.0023042513 -0.0007646363 0.030132482 -0.026008446
0.0013468345 0.001976377 0.0034049628 -0.043848544 -0.03204796 0.063722104 -0.0065941126 -0.004655693
-0.02175892 -0.034296006 -0.030337736 0.0109354565 -0.02891534 0.0001467544 0.01984623 -0.017749356
0.028508551 0.006602563 0.009535346 -0.015902886 0.06945375 0.022207862 -0.00033818462 0.006048366
0.0454916 0.004411824 -0.02897606 0.054848995 0.07619348 -0.028204123 -0.031707093 -0.050794788
-0.0007748435 -0.026550367 -0.0012482426 0.0410585 0.020407416 -0.00071142823 0.025119642 -0.005921418
-0.030052096 0.040230755 0.0039289 -0.048423935 -0.002810769 0.023857208 0.052358005 -0.13381614
-0.017860599 -0.044510465 -0.118047625 0.030679632 0.059243795 -0.04811464 -0.0023270657 -0.026131386
-0.032880526 0.06568999 -0.0058272295 -0.00400776 -0.048766814 8.172152e-05 0.030758312 0.0014772095
0.0067030187 0.036085423 0.05009915 0.060808875 0.04998412 -0.003136598 -0.02081306 -0.001441889
0.0018132601 0.0014728159 0.031967193 0.027285032 0.005648974 0.04098829 0.0022097498 -0.01480219
0.06078484 -0.01236437 0.053798497 -0.035127185 -0.008536825 0.008065934 0.04298673 -0.019327777
0.1490006 -0.037975032 0.0002347287 -0.0022474201 -0.0026991754 -0.054950427 -0.03948303 0.07033105
0.039624214 0.0027808289 -0.023450973 0.022107735 0.029529076 -0.011534146 0.004368139 -0.0036311662
0.039456163 -0.016988816 -0.026889283 -0.0057621477 0.00092858326 -0.007129289 -0.032810822 -0.046215035
-0.0029299408 0.038159955 4.8039215e-05 -0.0050973953 -0.052767098 -0.0038148698 -0.04576838 0.043133914
-0.014724955 0.018549252 -0.011131464 -0.021214088 -0.058428 -0.103141434 0.003555116 -0.010503585
-0.0469553 0.01039304 0.0009931624 0.014065251 -0.011868215 -0.033893622 -0.021271765 0.0133599965
-0.008835755 -0.02762111 -0.036948778 -0.0020546103 -0.010457708 0.012412502 -0.03293002 0.005947989
-0.018010577 -0.0381468 0.05150564 0.058252014 -0.018201353 -0.0065082614 0.053404257 -0.003531021
0.0065484853 -0.043905746 0.0031646863 0.057394136 -0.021194858 0.023131687 0.048478644 0.017385356
-0.018089445 -0.02997084 -0.031206885 -0.021925604 0.05648671 -0.04572279 -0.0032195696 -0.0050890385
0.0118884975 -0.040239062 -0.03998202 -0.013438081 0.031324107 -0.033215106 -0.040427074 -0.00090922264
00000000: 0cfb d2bb 4bf1 3fbc 68c9 c73c b15d 9a3a
00000010: e607 22bd a323 f93b acb6 8e3a 8a6f ba3c
00000020: 53ed 643a 069b 45bd 02b1 9abc 79ee 343a
00000030: 1b48 013d d9c6 a13b 7bda 9fbd 0e29 31bd
00000040: 7d3d abbc 485f a83c 79e9 64bd 644e 77bc
00000050: 1309 fa3c c710 3dbd 0534 823c 4d2c 4a3d
00000060: ec17 03ba 4aef f53c 58bc 7d3d 0fe6 8ebb
00000070: 9391 cc3b 74a5 2a3d df00 22bc e96e 5dbd
00000080: f414 133d e11b 033d 1b7f f4bc 560e 65ba
00000090: 803f e9b8 b84b cd3c 88c5 36bc ce62 353c
000000a0: 2faf fabc 44c4 ed39 8d80 ab3b 5dbc 9a3b
000000b0: e36e acbb 323c 47bd 2253 5e3c d9b5 fa3c
000000c0: 3ad5 1fbc 6edf 663d 9ab6 43bc 0bc0 f93a
000000d0: 45eb 893c 8e31 473d decd 4fbd 6a4e e3ba
000000e0: a4fe 43bd d25a 34bc dbf6 24bc 69cb bbbc
000000f0: 2b60 71bb c8a7 46bc 8a3b 1a3d 0038 04bb
00000100: d41f 4a3b 871c cc3c 030f 30bb a4d0 693c
00000110: a577 453d 3768 1d3d af43 25bb be7c efbc
00000120: 6c85 10bd aa31 18bb 6916 1cbc 28d4 bd3b
00000130: ec02 173b e071 48ba 65d8 f63c aa0f d5bc
00000140: 4488 b03a 1b86 013b cc25 5f3b 889a 33bd
00000150: b944 03bd bc80 823d 6d13 d8bb c98e 98bb
00000160: c33f b2bc f879 0cbd d886 f8bc a12a 333c
00000170: dddf ecbc 16e2 1939 9094 a23c 1967 91bc
00000180: c48a e93c 505a d83b 243a 1c3c c546 82bc
00000190: c53d 8e3d 43ed b53c 5f4e b1b9 5f31 c63b
000001a0: 6655 3a3d 1091 903b 345f edbc 57a9 603d
000001b0: 540b 9c3d 550c e7bc 4cdf 01bd 320e 50bd
000001c0: de1e 4bba 2880 d9bc 129c a3ba f52c 283d
000001d0: 742d a73c 247f 3aba b5c7 cd3c 7408 c2bb
000001e0: d02f f6bc 01c9 243d 01be 803b 2d58 46bd
000001f0: e134 38bb 3170 c33c 5975 563d 1907 09be
00000200: 6450 92bc 9b50 36bd f4c2 f1bd da53 fb3c
00000210: 9fa9 723d db13 45bd af81 18bb 7d11 d6bc
00000220: bbad 06bd 7988 863d 58f2 bebb 8753 83bb
00000230: b6bf 47bd e861 ab38 dbf8 fb3c ed9e c13a
00000240: ffa4 db3b 4fce 133d c434 4d3d ba12 793d
00000250: 26bc 4c3d 628f 4dbb 2780 aabc c4fd bcba
00000260: eaaa ed3a 800b c13a 08f0 023d dc84 df3c
00000270: 071b b93b 56e3 273d 73d1 103b e284 72bc
00000280: 86f9 783d ed93 4abc d05b 5c3d 86e1 0fbd
00000290: 0ade 0bbc fb26 043c da12 303d 4955 9ebc
000002a0: 9d93 183e b58b 1bbd 8121 7639 7449 13bb
000002b0: a6e4 30bb b313 61bd f5b8 21bd ba09 903d
000002c0: 004d 223d 913e 363b 411c c0bc 481b b53c
000002d0: f6e6 f13c b7f9 3cbc 9b22 8f3b dcf8 6dbb
000002e0: c99c 213d 212c 8bbc ea46 dcbc 66d0 bcbb
000002f0: 2b6c 733a d09c e9bb a464 06bd fa4b 3dbd
00000300: 4004 40bb 9d4d 1c3d b77d 4938 0d08 a7bb
00000310: 5022 58bd e502 7abb a077 3bbd 30ad 303d
00000320: f040 71bc 9af4 973c be60 36bc 2bc9 adbc
00000330: 3352 6fbd d13b d3bd f3fc 683b 3b17 2cbc
00000340: 3354 40bd 9247 2a3c 002d 823a f071 663c
00000350: e772 42bc 0ad4 0abd 2042 aebc e3e3 5a3c
00000360: d8c3 10bc ab45 e2bc 9a57 17bd a4a6 06bb
00000370: ce56 2bbc cf5d 4b3c a1e1 06bd 59e7 c23b
00000380: eb8a 93bc d23f 1cbd 94f7 523d aa99 6e3d
00000390: 011b 95bc 4143 d5bb 6cbe 5a3d b468 67bb
000003a0: ad94 d63b 83d6 33bd a066 4f3b 1d16 6b3d
000003b0: d7a0 adbc aa7e bd3c 8b91 463d bc6b 8e3c
000003c0: 5130 94bc 6885 f5bc 95a5 ffbc 539d b3bc
000003d0: 9c5e 673d d247 3bbd 6aff 52bb f3c1 a6bb
000003e0: f9c7 423c b7d1 24bd 30c4 23bd 662b 5cbc
000003f0: b54d 003d 900c 08bd dc96 25bd e658 6eba
