models/GMI_pretrained/GMI_GPM_channel_predictor_166V_nonocean.pt (torch, 545344 bytes, 7 tensors)

l1.weight f4 [256, 13]
00000000: 6aa2 16be c884 e73d fc54 f83d 4ef6 41be
00000010: 9c48 8dbe ef3a a83d 8e59 283e bf07 7abe
00000020: f783 363e a09d 823e 124e 1cbe 544f eeba
00000030: 2bb4 a03c 5d97 d4bd 92af 653e 46ca 383e
00000040: 69fb 2f3e 4659 3abe 157d 0dbe 5d8c 6f3e
00000050: 54f4 54be ecf9 57bd e740 f9be 7664 d3be
00000060: 51ee f1be c741 7a3e 6321 053e bf48 e2bd
00000070: ffdc 67be 2853 03be f13f 80bd 7e96 c4bc
00000080: 5375 cebd 4802 d0bd c4ee 4f3d 8a06 5dbe
00000090: 1bd5 323e 9c8d 6c3e 6fde 803e 2151 0e3e
000000a0: 9ccf 8ebe c415 033e 5743 a0bd 926b e2bd
000000b0: 64fb d2bd b697 03be a19e 6c3e be2e 6bbd
000000c0: 40b6 36be 3596 94be f8f5 1f3e a786 30bd
000000d0: 2879 9b3d e233 47be 0589 79bd 4fc0 3a3e
000000e0: 27b0 243d 0504 ff3d 9eec ca3d 53fc 7c3e
000000f0: 4383 f3bc a33f 2e3e 3db4 25be eb3b 9abe
00000100: d1f7 04be 1dca 193e 8edd b73d f26d 86be
00000110: 8694 5cbe ee10 43be 4626 0b3e 08e7 f93c
00000120: 35ed 003e 1031 bfbd 5d2c 53be ecf9 953c
00000130: c218 41be 9659 883d 757a 4a3e 0cd3 fd3d
00000140: 6d68 40bd fac5 68be 8500 7ebd a72b 76be
00000150: 374f 863e c339 30be b6d8 aabb 659c bd3e
00000160: 4514 babe 784b 8d3e 6954 4bbc ab5f 6dbe
00000170: 4c53 e6bd 034a 86bd 6d5d 89bc 2036 04be
00000180: f4df 313e 2e96 d9bd 459d 82be 6adb af3d
00000190: 4157 95bc 305d dbbd 4ab1 4f3e 9071 963d
000001a0: 7f09 f73c 2cd4 37be bb44 7e3e d5e7 ac3b
000001b0: b99b 51be d100 43be 9959 883d 5f2a 17be
000001c0: 5a8a e2bd 2c84 e03e 236c 583e efb5 803e
000001d0: 817a 20be 27d9 4c3e a4f7 fdbd ebec 24be
000001e0: 5470 723e 73d3 16be bb71 4dbe 6959 843e
000001f0: c59e bfbd 870b 93be a7f8 a4bd 4942 38bd
00000200: 290c 043e 9543 173e 329e a8be f2f0 6f3d
00000210: cb6f fa3b 836b e73d f931 913e 8ad5 403e
00000220: 709c 373e 39c2 5bbe 89c6 703c 8e21 91be
00000230: 37ab 8f3e 1266 88be a0c3 0cbe bb7e d73d
00000240: 5c6c 2dbd c765 33be 785b f5bb 3b2e c33d
00000250: 0215 89be 229f 533e 49ae 2e3e 9647 0fbb
00000260: 87cf 5fbe a3a1 50be e0b6 913d 79fc c6bd
00000270: 0383 203e 8b82 4abe 1e18 49be 5214 3c3e
00000280: 44cf 463e b17d acbe 529a 98bd 2a7e bfbd
00000290: aea7 ed3d f88f fb3d 72cf efbd 2da3 a43d
000002a0: 04b2 db3d af88 8a3c 3ed8 873c 7e7a 3b3d
000002b0: 9456 753d 7a5e 24be 4c0a 4938 e061 8d3d
000002c0: 633c aabe f8c3 b93e c5bc cfbe 682a 443e
000002d0: 7344 0e3e d361 293d 4d99 45be 8b79 bc3d
000002e0: 665a c9be ea0b 89be 8d33 b8be 3919 7cbe
000002f0: cc5f f73e 2426 863e 1715 6dbd 9a16 4abd
00000300: 07a7 ef3d 3128 1c3f 0ad2 98bf f3e9 efbd
00000310: 3b83 bf3d 931c 0dbe a95f 2abe 7942 d03d
00000320: 5aa9 8b3e 3056 85be 9015 143d 882b efbd
00000330: dfb0 a7bc 934a 6fbe 9698 213e bc1b 6abe
00000340: 7784 a63e b03f 68be dca8 533e fbe9 b6be
00000350: b614 a5bd f40e 9f3e 2631 12be 8614 043e
00000360: 97db 94bd 55ff 8bbe cbf2 fbbe 2286 173f
00000370: ab59 e53e b3f0 72bd 55dd b53d 93e3 b1be
00000380: 8fdc 4bbe 9509 8f3d 6b95 c0bd e812 71bc
00000390: 2f0e 2b3e 309a 9e3d b2b5 68bd d944 0b3e
000003a0: b32e 3cbd 420c b23d 41fc 493d ce0c 10be
000003b0: 7f0f 3c3d 4f93 debe ea8c dbbc ad83 0b3f
000003c0: a241 66be 0219 413e ea23 2ebe 75e0 febd
000003d0: 9636 483e 225b 86be b2d0 4440 5615 f13d
000003e0: 058d c9bd 4239 a53e fb4f 393d 9d07 ff3e
000003f0: 9731 5abc a711 34bd a616 dd3d b175 083f
-0.14710394 0.11304623 0.121255845 -0.18941614 -0.2759446 0.08214366 0.16440412 -0.24417017
0.17823778 0.25510883 -0.15264156 -0.0018181601 0.01961716 -0.10380433 0.22430256 0.18045911
0.17185749 -0.18198118 -0.13817246 0.23393388 -0.20796329 -0.05272858 -0.4868233 -0.41287583
-0.47252133 0.24439155 0.13001017 -0.110490315 -0.22642897 -0.1282469 -0.06262196 -0.023997542
-0.100809716 -0.10156685 0.050764814 -0.21584526 0.17464106 0.23100895 0.25169703 0.13898136
-0.27892768 0.12801272 -0.07825344 -0.11055674 -0.10301855 -0.12850842 0.23107387 -0.057417624
-0.1784296 -0.2902085 0.15621173 -0.043097164 0.07591468 -0.19453385 -0.060921688 0.18237422
0.040207054 0.124519385 0.099084124 0.24705629 -0.029725676 0.17016463 -0.16182037 -0.3012384
-0.1298516 0.15018506 0.08977805 -0.26255757 -0.21541032 -0.19049427 0.13588819 0.030505672
0.12590487 -0.0933553 -0.20622392 0.018307649 -0.188571 0.06657712 0.19773276 0.123937696
-0.04697459 -0.22731772 -0.062012214 -0.2404009 0.2623231 -0.17209534 -0.0052138222 0.37033382
-0.3634359 0.2759664 -0.012410262 -0.23181026 -0.11246356 -0.06557085 -0.016768182 -0.12911272
0.17370588 -0.106243476 -0.25510612 0.08586772 -0.018230082 -0.107111335 0.20282474 0.07345879
0.030155895 -0.17952031 0.24830906 0.00527666 -0.2046956 -0.1904328 0.066577144 -0.14762257
-0.11061545 0.4385084 0.21135001 0.25138804 -0.15671732 0.20004712 -0.12400749 -0.16106002
0.23675662 -0.14729099 -0.20062916 0.25849465 -0.09356455 -0.28719732 -0.08055239 -0.04498509
0.12895264 0.14771874 -0.32933193 0.058579393 0.0076427213 0.11299803 0.2835844 0.18831459
0.1793077 -0.21460809 0.014695772 -0.28345913 0.28060314 -0.26640373 -0.137465 0.10522219
-0.042339668 -0.17519294 -0.0074877106 0.09530302 -0.2677384 0.20666173 0.17058672 -0.0021862737
-0.21856509 -0.2037416 0.07114959 -0.09716124 0.15674977 -0.1977636 -0.19638106 0.18367127
0.19415003 -0.33689645 -0.07451309 -0.09350236 0.11604248 0.12283319 -0.11709489 0.08038936
0.10727313 0.016910879 0.016582604 0.045771115 0.05989702 -0.16051665 4.7931724e-05 0.06903434
-0.33249196 0.36282325 -0.40573707 0.19156802 0.13893299 0.041353058 -0.19296761 0.0920287
-0.3932678 -0.26766902 -0.3597683 -0.24618997 0.48315275 0.26200974 -0.05788144 -0.04933796
0.1170178 0.6099883 -1.1939099 -0.11714544 0.09351202 -0.13780431 -0.16638054 0.10168929
0.27277642 -0.26042318 0.036153376 -0.11678225 -0.02047008 -0.23368292 0.15780863 -0.22862142
0.32522938 -0.22680545 0.20669883 -0.35725388 -0.08060591 0.31066096 -0.14276561 0.12898454
-0.07268446 -0.2734324 -0.49208674 0.59189045 0.44794974 -0.05931158 0.08880106 -0.34743938
-0.19908355 0.069842495 -0.09403499 -0.01471398 0.1670463 0.07744253 -0.056813903 0.13600482
-0.045942973 0.08693744 0.049312834 -0.14067385 0.045913216 -0.43471763 -0.026800591 0.54497796
-0.22485974 0.18857196 -0.17005888 -0.124451555 0.19552073 -0.26241404 3.0752378 0.11771648
-0.098413505 0.32270247 0.04524229 0.49810496 -0.013317487 -0.043962147 0.107953355 0.5330458

l1.bias f4 [256]
00000000: f590 4ebe abbf 32be da01 07be 1e90 163d
00000010: dceb f23e 4806 5e3e 4b11 913d 18cd 81be
00000020: 8354 783e 4655 68bd 0910 f9be ede8 2e3e
00000030: 5d91 1abe ae46 e6bf 492f b33e ca5b 9c3c
00000040: 8676 04c0 e18d 64bd 7765 82bd eb02 7e3f
00000050: 6d32 e13d dd69 e9bd 3db6 86be 9722 193f
00000060: f682 e7bd 56d1 c83e 75b3 54bf 6406 463e
00000070: e527 65be b5c9 94be 17c2 63be dda5 f73c
00000080: 6491 87be 46b8 59be 19e1 923e 6464 fbbd
00000090: fe0d 5abe d234 7ebe 69be 32be e295 30bd
000000a0: d106 11be 5977 adbe 25d6 b83b eeee 8a3e
000000b0: af17 16be e657 363f 7d76 603f 72be 24bd
000000c0: 6af0 f83d e305 b83e e227 c13c e824 c33d
000000d0: c6d3 3d3e 1712 75be 3701 8c3e 8765 bfbe
000000e0: 7004 ec3f 93ad c6bd 26b7 3dbd 478d 0f3f
000000f0: d222 6bbe e1bc 9c3d 4bb1 85be 7469 bcbd
00000100: 05c7 d13d 74e3 a53e b830 c53f 4b97 3ebe
00000110: 024d 24be 8dc3 91bd 2e4c 36bf c07f 12bc
00000120: f9a1 0e3e 4f6d 5e3e e133 33bd a121 a23d
00000130: a8e8 613e 0ff7 b3bf 28cb 5a3e 8b4c a4bc
00000140: c4b2 38be ebaf 923d ad50 15bd a0dc c43e
00000150: 6356 193f c175 7a3e e553 4d3e 36d8 6ebe
00000160: 185e 39bf 508d 53be e7cd 13be 4c0e 42be
00000170: 06db 5c3e 75f4 893e 7e5d 09be 7230 a43d
00000180: 6ed7 e9be dab9 2c3e a8b7 6fbe bc77 1ebe
00000190: 6378 82be 8d51 37be ea94 0c3d afe6 573e
000001a0: ef96 7b3c 2b80 073f 951b a53d 5ee7 593e
000001b0: eb53 9dbe 880c 2dbe 132f 7ab8 a2d4 1e40
000001c0: bcc7 853f 8119 e4bd 24c3 e9bf 6616 8cbf
000001d0: 0236 a83e ec85 4a3e 51e7 183f f59d 823e
000001e0: 6fc6 7bbe 077d d13e 3a1b 62bf 65e6 293e
000001f0: 609f 1cbf ddcb 98bc 5a22 5d3e 7257 5b3e
00000200: 14d0 193e 664a 79bd c52c 893f ba0d 38bd
00000210: 306b d2be ba5c 863e 3e3b 81be fde6 3fbe
00000220: fc74 083e a760 ebbf 7a2e 5fbe 41ff 0740
00000230: 04cc 37be 0a12 4a3e 57d6 773e 4d88 153e
00000240: 0ad0 573d 96a1 863e df03 81bd 6530 80be
00000250: 13df 9dbe ab86 b5bd bbd1 babe 7c38 2bbe
00000260: e620 3ebd 5423 36be 5528 2340 c4f3 37be
00000270: 850a 82bc 2d36 8a3d e11a 083f 40ef bc3d
00000280: a6ac ea3d 2cdf e23c b638 463e b637 3540
00000290: 09e7 4dbe 43db 703e 77bc 943f 2b83 a1bf
000002a0: 9cf1 5e3d b6e3 cfbf 419b 823e bc76 aabe
000002b0: c701 1e3d a489 693e b78b 5cbe 4df1 17bc
000002c0: 4963 ee3d 8a6d 8abe 70ee 323e 50fb b2bf
000002d0: a9d3 bcbd 1dc2 1cbe 418f bbbd fbc1 0b3f
000002e0: c679 58be 90eb 7fbc 590e 4c3e 1c04 5b3f
000002f0: 5393 643d e808 753e b856 86be cbad 10be
00000300: 61e3 043c d52d 10bf 2108 c93f 7560 3c3f
00000310: 0376 a03d f99a af3b bbbb 1abe ea79 823d
00000320: a642 73be 63a1 3b3e 66f5 af3c abb0 163e
00000330: ad1c 083e be20 643e 7570 41be 0615 1abe
00000340: 59a4 8bbe 8666 20be 4a03 583f 36f9 24bd
00000350: 57fd 0cbe d850 bfbd 5e5d a03e 5531 173f
00000360: fd07 b03d cda9 39bf 175e 0d3e 2bb0 8b3f
00000370: 7957 383e 91b3 23bd 6266 75be 5a8c cf3f
00000380: da7c 143e cd8a aa3d b8f9 a43e 8d74 943e
00000390: bca9 88be 706a cfbe e934 473e 4b1a 403e
000003a0: 782b 8cbd 4e9b 453d e1d6 303e 4b91 b43d
000003b0: 5796 a0bd 28d6 b3bd db61 b03e 8756 f03d
000003c0: 2276 503f 5b5f 95be e81c d63c ee1e 5a3e
000003d0: 4f9f d13d 27ea 0fbe 6ec6 9d3e e61f 01be
000003e0: ea54 a5be 4cbe 163e 3e95 3abe ff2e 36be
000003f0: c9cd 833e a092 fc3c 485f 7f3d ba09 53be
-0.20172484 -0.17455928 -0.131843 0.036758535 0.4744557 0.21682084 0.070833765 -0.25351787
0.24250989 -0.056721948 -0.48645046 0.17081042 -0.15094514 -1.799032 0.34997013 0.019086737
-2.069734 -0.05579937 -0.06367009 0.992232 0.10995946 -0.11397145 -0.26310912 0.59818405
-0.11304276 0.3922221 -0.8308633 0.19338375 -0.223785 -0.2906014 -0.22242008 0.030230457
-0.26478112 -0.21261701 0.2868736 -0.12275007 -0.212944 -0.24824837 -0.17455448 -0.04311169
-0.14162757 -0.33880118 0.0056407624 0.27135414 -0.14657472 0.7122787 0.876808 -0.040220685
0.1215523 0.3594199 0.023578588 0.09528524 0.18537816 -0.23932682 0.27344677 -0.37382147
1.8438854 -0.097010754 -0.046317242 0.5607495 -0.22962502 0.07653213 -0.26111826 -0.09199801
0.10243038 0.32400095 1.5405493 -0.18612401 -0.16045001 -0.071173765 -0.7120999 -0.008941591
0.13928975 0.21721385 -0.043750647 0.079165705 0.22061408 -1.4059771 0.2136656 -0.02005603
-0.18036944 0.0716246 -0.03645389 0.38449574 0.5989744 0.24458982 0.20051534 -0.23324665
-0.724092 -0.20659375 -0.14434014 -0.18950766 0.21567926 0.26944318 -0.1341457 0.08017053
-0.45672172 0.16867772 -0.23409903 -0.15475363 -0.25482473 -0.17902203 0.034321703 0.21084093
0.01535581 0.52929944 0.080619015 0.21279666 -0.30728087 -0.16899312 -5.9648486e-05 2.481728
1.0451579 -0.11137677 -1.8262677 -1.0944335 0.32853705 0.1977765 0.5972796 0.25511137
-0.24587415 0.409157 -0.88322794 0.16591795 -0.61180687 -0.018651897 0.21595135 0.21420076
0.15020782 -0.060861968 1.0716788 -0.044934966 -0.41097403 0.2624262 -0.2524051 -0.18740459
0.13325876 -1.8388871 -0.21795073 2.1249545 -0.1794892 0.19733444 0.24202858 0.14602776
0.052688636 0.26295155 -0.062995665 -0.25036922 -0.30834255 -0.088635765 -0.36488137 -0.16720766
-0.046418093 -0.17786914 2.5493367 -0.17964083 -0.015874157 0.067486145 0.53166014 0.09225321
0.11458711 0.027694307 0.19357571 2.8315253 -0.20107664 0.23521142 1.1620015 -1.2618154
0.054429635 -1.6241367 0.25509074 -0.33293712 0.038575914 0.22806412 -0.21537672 -0.009273839
0.11640031 -0.27036697 0.17473769 -1.3982944 -0.092200585 -0.15308423 -0.09158183 0.54592866
-0.21140203 -0.015620127 0.19927348 0.85553145 0.05580456 0.23929179 -0.26238036 -0.14128797
0.008110852 -0.56319934 1.5705606 0.7358468 0.07835009 0.0053590504 -0.15110676 0.063709095
-0.23755893 0.18323283 0.02147932 0.14715831 0.13292189 0.22278115 -0.18890555 -0.15047082
-0.27273825 -0.1566411 0.8438002 -0.04027673 -0.13768516 -0.093415916 0.31321234 0.5905965
0.08595274 -0.7252472 0.13805424 1.0913137 0.18002118 -0.03996617 -0.23964837 1.6214707
0.14500752 0.083272554 0.3222177 0.2899517 -0.26691997 -0.40510893 0.19453777 0.1876003
-0.068442285 0.048243813 0.1726947 0.08816775 -0.07841175 -0.087810814 0.34449658 0.11735254
0.81430256 -0.29174313 0.02613683 0.21300861 0.10235464 -0.14054166 0.30815452 -0.12609825
-0.32291347 0.1472103 -0.18220994 -0.17791365 0.2574294 0.030831635 0.062346727 -0.20609179

l2.weight f4 [256, 256]
00000000: 003a 3cbb a01d 203d 3cb5 d73c f5f2 9e3d
00000010: 931f 9bbc 3225 743d bc95 b8bc 30e4 b3bc
00000020: 6357 0e3d 9a39 6f3c 3202 38bd 9404 f23b
00000030: 0aae 65bd a669 78bd f464 a23b 9096 75bc
00000040: aff8 a1bc cf0b 74bc cd48 9f3c 36e0 f8bd
00000050: bee6 e23c c004 4fbb cc8c 83bc 43ca 133d
00000060: b8ca 18bd 4057 71bc 2a96 643c d02f c23c
00000070: 60ad b73c 1923 07bd 8075 ea3a 50d4 afbc
00000080: 0e8d 7e3d 18fd 633c 783b 883c 492d f1bc
00000090: d00b e0bd 205a 873c 7fd0 39bb ca4e 043d
000000a0: e065 8d3c e77a acba 3024 1abd d8f8 cdbd
000000b0: 7a3f 1bbd eae2 0e3e 76cb 113d 2272 aa3c
000000c0: 6431 84bc 948f 2d3c 65f5 96bd 4e4f 1e3d
000000d0: a067 ddbc bcad c93c 405e 7d3d dc50 ffbc
000000e0: 18fe c13c 4780 d63b ff56 4cbd 7074 a0bc
000000f0: 9dcd 6e3b 4985 db3c feba 0cbd 10e5 803c
00000100: aa04 15bd 6a1d 9a3d a23e 18bd 463f 153d
00000110: c77a 1e3d 8c78 fdbc 4e95 a5bd 9ae4 3ebd
00000120: 9d86 a3bc 6068 debc 7fef 2dbd ca17 963d
00000130: 2873 883b 5192 85bd 9051 823c 10c7 01bd
00000140: 20c1 b5bc d2aa acbc 54b1 8fbd 6bc9 20bd
00000150: 3b32 4b3d acb4 cb3c 3b22 743d 8045 fdba
00000160: 1964 3aba e80e 8ebd 9cb3 8d3c 8d56 a13c
00000170: eb55 d7bc ffc1 083d 1b52 003d a681 083d
00000180: a6e1 42bc 14ba 3b3d 1bd4 d0bc 96c2 143d
00000190: e342 83bd 8878 373c 67e5 573d b489 c33c
000001a0: 00a8 b03b 94eb 223d d0b5 cb3c 1ca2 92bc
000001b0: e7ba 233d 5814 2abd 7e10 37bd 23ec ad3c
000001c0: fefe 1c3d 2b30 84bc bca4 12be 8be6 f83c
000001d0: 70af c0bd 78ab 33bc 1afa b83b 50bc 2b3d
000001e0: 4178 0ebd 4570 98bd 8ca2 f2bd 0a6a 99bd
000001f0: 269f 423c e000 c6bc 6a9f 4bbd 0450 463d
00000200: b2f7 3fbd 1ffe 9dbc 9f89 933c 806c b83b
00000210: 89d3 29bd 5603 20bc ee14 233d b0dc 593d
00000220: 7045 11bd fd73 bd3c 71b9 39bc 6f53 4e3d
00000230: b23d d1bb 8029 b43c 007f 13bd 20bb d13c
00000240: d933 8abd c8c6 22bc cf83 5ebd e498 5d3d
00000250: e2a0 db3b 1489 7e3d 6814 cabd f9b7 d5bd
00000260: 042c 3f3d 5698 063d e139 483d 161b 0f3d
00000270: 9ef6 30bd d809 0abc c884 09bd b904 8ebd
00000280: 1d68 c63b 9060 77bc 78e5 a23c 6fb3 7fbd
00000290: b0fb a03c 402c cfbc 6c4f 4bbc b084 1cbe
000002a0: aea0 b73b c4a1 b8bd d8f2 733d 4565 5bbd
000002b0: 9027 933c d61d 063d 4ee6 89bc 03a6 14bd
000002c0: 9469 213d aeee 6fbd a85a 03bd bd71 65bd
000002d0: a061 cc3b 4973 043c 18b3 e23c c536 df3c
000002e0: f09a c73c d092 69bd f91a 8dbc 183f 31bd
000002f0: 6804 733c 90e2 cc3b 2179 39bd 7038 6ebc
00000300: caa6 84bc 7ece cabc 7bcd f1bc 1a82 793d
00000310: c427 7fbd 32a3 d6bb 2f25 5abd 26cd 123d
00000320: 209b 153b 0cf2 eabc e054 6bbd a49f d0bc
00000330: 8a19 5b3d 1845 673c 34fc 1cbc a9e2 05be
00000340: 90cd 133c 0019 68bd e6d5 50bd 053a 51bd
00000350: 708b 07bd 6a37 c43c 2878 c1bc d1eb c73c
00000360: e2c1 2ebd 7f72 ea3c f24e 6a3d 799c 193d
00000370: 7ebe 59bd 4030 523c ac52 f7bc 099c 7abd
00000380: 8fe4 5dbd eb50 f6bc c96a cdbc c06a a3bc
00000390: 5227 32bd 4372 4fbd 3ca9 96bd 29e8 8bbc
000003a0: 5c8c 453d d42b 573d 3920 013d 66e7 2b3c
000003b0: a487 453d e8bf 9abc c644 50bd 66e0 4cbd
000003c0: 20d8 7abd 8327 7ebd b41d c23c aca5 9e3c
000003d0: f881 1c3c 63d1 12bd c436 3d3b 542e 8c3c
000003e0: a865 8c3c f210 47bd fa46 4e3d d11c 013c
000003f0: 4bb9 89bd 2662 03bd a608 08bd d05e b2bb
-0.0028721094 0.039090753 0.026331536 0.07761184 -0.018935954 0.059605785 -0.022532336 -0.021959394
0.034751307 0.014601136 -0.04492397 0.0073857997 -0.05607418 -0.06064763 0.004955882 -0.01498951
-0.019771902 -0.0148953935 0.019443894 -0.1215214 0.027697917 -0.0031588525 -0.016058348 0.036081564
-0.037302703 -0.014730275 0.0139518175 0.02370444 0.022421539 -0.032992456 0.0017887801 -0.021463543
0.06214624 0.013915323 0.01662992 -0.029440539 -0.10939753 0.016522467 -0.0028353033 0.0323017
0.017260492 -0.0013159186 -0.037632167 -0.10057229 -0.037902333 0.13953748 0.035594426 0.020806376
-0.016136833 0.010593314 -0.07371024 0.03864985 -0.027026951 0.024618976 0.061857462 -0.031166486
0.023680732 0.0065460536 -0.049887653 -0.019586772 0.0036438473 0.026796954 -0.034358017 0.015734226
-0.0363814 0.075251415 -0.037169106 0.036437295 0.03869131 -0.03094127 -0.08085118 -0.04660473
-0.01996165 -0.02714938 -0.04246473 0.07328756 0.0041641183 -0.06522048 0.015908033 -0.03168398
-0.022186816 -0.021077547 -0.070162445 -0.039254587 0.04960845 0.024866425 0.059602957 -0.0019323081
-0.00071102526 -0.06936437 0.017297558 0.019694591 -0.026286086 0.033388134 0.031328302 0.033326767
-0.011894619 0.045831755 -0.025491765 0.036318384 -0.06409242 0.0111981705 0.05270901 0.023869373
0.005391121 0.039775446 0.024866968 -0.017899565 0.039973166 -0.041523308 -0.044693463 0.021230763
0.038329117 -0.01613625 -0.14320654 0.030383369 -0.09408462 -0.010966174 0.005645049 0.041927636
-0.03478265 -0.07443289 -0.118474096 -0.074909285 0.011878764 -0.02417034 -0.049712576 0.048416153
-0.04686708 -0.019286213 0.018009959 0.0056281686 -0.0414615 -0.00976642 0.039814882 0.05318898
-0.03546661 0.023126597 -0.011335717 0.050372537 -0.0063855285 0.021992445 -0.03600979 0.025601923
-0.067481704 -0.009935088 -0.05432492 0.054100886 0.0067025283 0.062142447 -0.098671734 -0.104354806
0.046672836 0.032860123 0.048883323 0.03493794 -0.043203942 -0.0084251985 -0.033573896 -0.069344945
0.0060548917 -0.015098706 0.01988481 -0.06242698 0.019651264 -0.025289655 -0.012409072 -0.15284991
0.0056038713 -0.09015229 0.059557766 -0.053563375 0.0179632 0.032743298 -0.01683345 -0.036291134
0.039407328 -0.058577232 -0.03206888 -0.056016672 0.0062372237 0.008084127 0.02767329 0.027247796
0.024365872 -0.057024777 -0.017224776 -0.04327306 0.0148325935 0.0062525943 -0.045281533 -0.014539823
-0.016192812 -0.024756666 -0.029516926 0.06091509 -0.062293783 -0.006550216 -0.053258117 0.035840176
0.0022828057 -0.02867987 -0.05745399 -0.025466748 0.053491153 0.014115594 -0.009581614 -0.13074745
0.009021178 -0.056664467 -0.05098524 -0.051080722 -0.033091962 0.023952205 -0.023616865 0.024404438
-0.04266537 0.02861905 0.057204194 0.03750274 -0.053160183 0.0128288865 -0.030190788 -0.061183963
-0.05417305 -0.030067882 -0.025075333 -0.019948363 -0.04349453 -0.050646078 -0.07356498 -0.017078476
0.04822956 0.052532032 0.03152487 0.010492181 0.04822506 -0.018890336 -0.050846837 -0.05001869
-0.06124127 -0.0620494 0.023695804 0.019366108 0.009552471 -0.035844218 0.0028871754 0.017111935
0.017138317 -0.048600145 0.050360657 0.0078804055 -0.06724795 -0.032076024 -0.033211373 -0.0054434314

l2.bias f4 [256]
00000000: 1e81 1abb 2410 ddbf 3802 6a3d 4296 32bd
00000010: 04f2 b03e 2910 9f3c af3b 043d 74aa 1abd
00000020: df40 6dbd 6c8b cf3e 7b5f 4c3d 80fe b0bc
00000030: ca9e 6b3d d176 a5bc 205b aebb 5f4d 773c
00000040: 3aee e5bc c552 11bb 0245 adbd 5f2e 253d
00000050: c31e c53c ac2c 4a3e c2f6 80bd ba9b 553d
00000060: ecc8 7d3e 8988 a1bc cc48 d63d 32b9 0a3c
00000070: effa 9a3c dce6 88bc 180a 72bd d418 52bc
00000080: 7c19 ddbf d053 69bd c989 88bb 7f7b 48bd
00000090: 7e78 33bd d243 6ebb b85d 2d3d 355f b3bc
000000a0: fcc0 e6bb 8d09 58bd 1e1b f83c 2354 b0b9
000000b0: 006d 79bd e239 75bd 0239 be3c 417f 3dbd
000000c0: f144 6fbd fc41 bd3c d371 993d d365 be3c
000000d0: 641d 59bb a518 a6bc a8a0 8abc aeff 503d
000000e0: 6842 193c dd6b 45bd f075 f0bc c029 59bd
000000f0: ea28 1cbc bec5 bebc fa92 15bd 655b 8e3c
00000100: 8e44 b63c b73d a0bb 4f8c 103d 68cb 8b3e
00000110: 4148 83bd 485d 87bd b8f0 0dbd bbdd 663e
00000120: 3409 eebc 0d1e b83d 759c 0ebd 4a11 91bd
00000130: f004 c53b 64b5 ff3c 487b 063d 70fa 39bd
00000140: 7da1 00bd 0ca9 203d dcd9 d23c e02b 383a
00000150: 3fb4 dc3e 66a5 623d ac8b e83d 310b 153c
00000160: 8a87 bb3c 7984 87bd b0cd 36bd a03f afbb
00000170: e4a8 393d 6041 89bb 5ccf a7bd 174c aebd
00000180: 4e97 df3e 6a21 20bd 1f6f 143d b2be ab3c
00000190: 18dc b93a 0dea 6cbd d8f2 8e3c cc2e cc3e
000001a0: 328f 02be 7650 543d 31d9 273d 6006 bb3b
000001b0: 41e0 e63f dbc3 acbc 43e1 0f3d 0b38 72bd
000001c0: 2e19 61bd f96b babc 1ab9 12bd ad22 25bd
000001d0: 5325 083d 0a9e 5a3d 914b 16bd dd7e fb3b
000001e0: 22f3 bb3e 30ef 6e3c 0b4c 8ebc d0e9 0cbc
000001f0: 65d8 e93e 7a18 433c e3e8 d73c 6892 303c
00000200: 704b 57bd 30ea a8bc 03bd d43c d677 b23b
00000210: 2749 b0be 4d5a 4ebd 9324 86bd facd aebd
00000220: 651d ce3e 1cc0 083c 6371 763d 6664 5fbd
00000230: 590c b0b9 ec7c 83bd d4ac 60bd 7d5d 39bd
00000240: 93db 6cbd f173 023d 6571 ddbc ddc3 2f3d
00000250: 6859 e0bd 5ba8 cbbc a0b6 8f3c 83ef 24bd
00000260: 7edc 18bd 18e0 87bc 8f79 a0bd c2eb 823c
00000270: f7e8 c8bc 8889 223c fc90 8abd f0b0 09ba
00000280: 145b aa3c e394 37bd 1703 2d3d d31f 87bc
00000290: 633b bb3b a793 b1bc 7d3c 16bd 55c0 993c
000002a0: baca 243d 7c01 20bd b150 143e c3f8 d4bc
000002b0: 8687 8ebc e89e 093f 32b7 dbbc 15d0 bebd
000002c0: d9ce 1ebd e802 153d d5a1 053d 34c4 cfbd
000002d0: 4308 9b3c f798 793c 0957 01bb b9ba 343a
000002e0: e342 86bd f42f 2c3d 0621 c33e 8c0d a8bd
000002f0: 2d27 103c 5c69 98bd 98ec 4fbb b361 db3e
00000300: 55a9 64bd d334 24bd 4408 193d 68ee 3b3c
00000310: c20d f9bc c830 4ebd e9c2 993b 55a7 23bb
00000320: 1859 0ebc d545 8cbe 0dce 44bd 2441 d5bc
00000330: 816e 26bd 0eaa a63e b8f5 c238 6baa 2a3c
00000340: ab42 f4bc 08e2 0b3c 67ee 2abd bda0 21bc
00000350: a78b af3c d7b5 4c3d 6ce2 5e3b 8d6b 0bbd
00000360: dcdb 613b f4c9 1dbd bdf0 143d 99fb 86bc
00000370: 11a7 06bd a5e7 c83e 34ff 533f e5f6 76bd
00000380: 1bb3 a0bd 9eef 313d 374b af3a 2424 dc3b
00000390: e35e 8bbc 63d2 7d3c 37ad 003d fc9f 463d
000003a0: 5702 ef3e a444 e03a 4d2a 36bd f6d0 2abd
000003b0: 2df7 8ebd 4cb4 83bd 3b17 3e3d a49d 6abd
000003c0: 49fc 17bd 006f afbc 3a7c 523d 5233 21bc
000003d0: d36d 873c e605 8d3c 4eb7 8cbd 07ea 753d
000003e0: d942 493c 7b0d 373e 05e6 42bc 4ec8 453c
000003f0: f1a4 2cbd c5f5 dd3e 40dd 7bbd 6648 83bd
-0.0023575495 -1.7270551 0.057131022 -0.04360033 0.34559643 0.019416885 0.03228348 -0.037760213
-0.057923194 0.40536058 0.049895745 -0.02160573 0.05752448 -0.020198258 -0.0053209215 0.01509413
-0.028067697 -0.0022174579 -0.08460428 0.040327426 0.02406252 0.19743603 -0.06297065 0.052150466
0.24783677 -0.019718425 0.10463104 0.008467006 0.018918483 -0.016711645 -0.059091657 -0.012823302
-1.7273402 -0.056964695 -0.004166816 -0.0489459 -0.043816082 -0.0036356342 0.042325705 -0.021895984
-0.0070420485 -0.052743483 0.030286368 -0.00033632023 -0.060894966 -0.059869654 0.023220543 -0.046263937
-0.058415357 0.023102753 0.07492413 0.023241913 -0.003312909 -0.020275423 -0.01692231 0.051025085
0.009354211 -0.04819857 -0.029353112 -0.05301833 -0.009531239 -0.02328765 -0.03651712 0.017377565
0.022249486 -0.0048901695 0.03529006 0.27303624 -0.06410266 -0.06609589 -0.034653395 0.22545521
-0.029057123 0.08990107 -0.034817178 -0.07083376 0.0060125515 0.031214423 0.032832414 -0.04540485
-0.031404007 0.039223716 0.02573865 0.0007025581 0.43106267 0.055333517 0.11354765 0.0090969065
0.022891778 -0.06617064 -0.044629753 -0.005348161 0.045327082 -0.0041887015 -0.081938475 -0.08510607
0.43670124 -0.039094366 0.036238786 0.020964954 0.0014179973 -0.057840396 0.017449781 0.39879453
-0.12749937 0.051834546 0.040978614 0.005707547 1.8037187 -0.021089485 0.035126936 -0.059135478
-0.054955654 -0.022756563 -0.035821058 -0.040316273 0.03323872 0.053373374 -0.03669316 0.0076750354
0.36708933 0.014583394 -0.017370244 -0.008600667 0.45672908 0.011907691 0.026356166 0.0107770935
-0.052562177 -0.020619482 0.025969034 0.0054464145 -0.3443081 -0.050379086 -0.06549945 -0.08535381
0.402568 0.008346584 0.060166728 -0.054539107 -0.00033578536 -0.06420311 -0.05485232 -0.045255173
-0.05782659 0.03184885 -0.02703161 0.0429114 -0.10954553 -0.024860552 0.017543137 -0.04026748
-0.037319653 -0.016586348 -0.078356855 0.015981559 -0.024525149 0.009920485 -0.06765935 -0.0005252501
0.020795383 -0.044819724 0.042239275 -0.016494667 0.0057138666 -0.021676851 -0.03667878 0.018768469
0.040232398 -0.039063916 0.14483906 -0.025997525 -0.017398607 0.53758097 -0.026820753 -0.09317032
-0.038771484 0.036379725 0.03262504 -0.10144845 0.018924838 0.015234224 -0.0019735715 0.0006894279
-0.065557264 0.04203792 0.38111132 -0.08205709 0.008798403 -0.07441971 -0.0031726714 0.42847976
-0.05582555 -0.04008944 0.0373614 0.011470415 -0.030402068 -0.05033949 0.0046924246 -0.0024971564
-0.008688234 -0.27397028 -0.048048068 -0.026032038 -0.04063273 0.32551616 9.2964096e-05 0.010416607
-0.029816946 0.008537777 -0.041731264 -0.009864983 0.021428896 0.049978103 0.003400947 -0.034038115
0.0034463322 -0.038522676 0.0363624 -0.016477393 -0.03287417 0.3923923 0.82811284 -0.06029405
-0.07846662 0.043441407 0.0013373856 0.0067181755 -0.017013019 0.015492055 0.03141519 0.048492417
0.46681473 0.00171103 -0.044473935 -0.041703187 -0.06980739 -0.06430873 0.046408873 -0.057279244
-0.037105832 -0.021415234 0.051388003 -0.009838896 0.01653186 0.017214727 -0.068709 0.06003764
0.012284004 0.17876236 -0.011895661 0.012071682 -0.042149488 0.4335157 -0.061490297 -0.06410293

l3.weight f4 [256, 256]
00000000: 5538 f5bb fbb5 c93c 64b6 183d 3284 3dbd
00000010: 5aa0 b93c a947 b3bc 36eb 4a3d 32da 9b3c
00000020: b745 cdbc a150 88bd 0db7 05bd 256a 48bd
00000030: 942b df3c 623f 87bc 983f 8c3b 807c 23bc
00000040: aa69 83bd c66b 80bd 9ea1 0d3d 43e1 e13c
00000050: 6875 04bc 50a9 243c 7c69 17bd 7a4b 57bd
00000060: 3475 57bd 8432 1bbd 0c8e 4fbd 189c 1ebd
00000070: a0a8 60bd 607c 183d b0c5 85bd 1535 4abb
00000080: 30e3 9fbd 8cb0 363d 9ca6 9b3c 04d2 193d
00000090: 63c6 313d 6fce fabc 26e9 f7bc 0430 c03c
000000a0: f02d a33c c023 023c 3842 61bc 44b4 963c
000000b0: 6c1c 903c 2550 34bd a5eb 69bd c4a3 773d
000000c0: be53 95bb 8816 99ba d76d c6bc 6693 fbbc
000000d0: d685 5abd d05c 32bd e03f 233d a311 f63c
000000e0: 9690 043d dc43 01bd 60d3 783b d67f 3ebd
000000f0: d029 8dbc 2033 373b 94e8 653d f846 26bc
00000100: 5d5b 5dbd 00f5 8b3a 7299 53bd eaf5 c43c
00000110: 5c72 523b 51a5 773b 7857 b43c 8fa5 b6ba
00000120: 1fc1 80bc 693c 953b 62f7 cdbc ad1a 0a3d
00000130: 843e ccbc 6d50 7c3d f80c d1bc 548c 17bd
00000140: 4a5d 8abd 1814 303d 72c3 49bd a67b 823d
00000150: 4f11 443b 78d4 af3c 5dd1 c03c 46c9 663c
00000160: 00cc 3a3b bf48 03bd dbd4 dfbb 88b4 66bc
00000170: 9005 cebb bc11 463d 5395 9fbc 381b 963c
00000180: d57d 17bd f636 f2bc cc38 2f3d 73d8 473d
00000190: 9654 3abb 7c6e 123d dade 103d c577 dcbc
000001a0: a506 62bc 404a 683b 1402 d0bc c08e 6fbb
000001b0: 04d2 96bb d05e 6dbc 6582 46bd 9230 4f3d
000001c0: 274c 513d fdb8 1a3a 30b0 ec3c 0877 e33b
000001d0: 5287 05bd d2d5 3cbd b6ee 7dbd 2509 f8bc
000001e0: 5c00 15bd 5bce 92bd 99c4 67bd c89f 5bbd
000001f0: a445 073c 4b0b 85bd f8c9 e1bc 37b5 6a3c
00000200: f85c 163d 72e6 9abc c69e 363d 5f46 823b
00000210: cbb0 05bb 936e 22bd c9cb 1fbd 38ef 3d3d
00000220: 4df3 19bc ece5 d4bc 9ab9 e73c 4ee8 8d3c
00000230: bf60 4c3d 9af0 57bd 4ecc 713d 8cdd e13c
00000240: b520 4ebd 1685 50bd d04e d5bc 05fb 293d
00000250: ba3b 893d c266 4f3d eacd f4bc 5a0d b2bd
00000260: 7f9e 293d 88c3 103d 4896 36bd 3ab9 6bbd
00000270: 3e6e 85bd 237a e9bd 6829 2b3d 260c 5ebd
00000280: 2aba 33bd 405e 08bd 0147 75bd 4144 26bd
00000290: e283 333d 4652 513d 8691 62bc 08c6 e43c
000002a0: 7e41 023d ddfc 1fbd 149a 6cbc 0c6a f73c
000002b0: 2859 01be f695 313d 5362 cd3a 54e8 90bd
000002c0: 9769 603d d284 1e3d 68c3 f7bc 2281 6b3c
000002d0: 20b5 403b 1498 f63c 2e2e 3c3d a5cb 873d
000002e0: bacf fd3c cb58 2d3d 5f4a 283d 861c e6bc
000002f0: 773f 61bd 68b2 393d 8154 443b 506a 183d
00000300: 5ae0 e53c 52c2 e0bb e56d 93bc 9572 b73b
00000310: c1d5 b63c 1695 713d 2264 02bd 7a6e 163d
00000320: bb5d 27bc d1f7 4fbd 8dcb 2dbd b979 72bd
00000330: 578d 2cbd 0727 333d f4b1 5c3d 8c16 7e3d
00000340: 96ab e33b 48a3 d5bc e108 14bd ec00 80bc
00000350: 2290 953c 3224 4ebd 0ff3 733d 57dc 6dbb
00000360: 0885 3b3c 4042 ca3a 2e07 01bd c99d 5c3d
00000370: 58e1 743c 2d8b adbc 4e5b 82bd cb70 3dbd
00000380: 06df 403c f29a 18bd 9ba1 a9bc 9942 193d
00000390: 3e3b 6cbc 4b80 103b d088 c4bb 427d 743d
000003a0: 0998 313c 44dd 9b3c b84f 5ebc e6d6 403d
000003b0: f537 7c3b 0c83 323d 20c6 77bb fa8e 10bd
000003c0: 774d 9ebc 1bc3 63bd 8994 d8bb a245 33bd
000003d0: d6a2 37bd eb55 0ebd 0dc1 d73c 681f d7bc
000003e0: 4091 89bc 1114 f3bc 06e7 2fbd ea06 e33c
000003f0: dca3 d1bc 7534 34bd 5c6b 98bc ccb1 7dbd
-0.007483522 0.024622908 0.037283316 -0.04626865 0.02265947 -0.021884756 0.04954072 0.019024942
-0.025057657 -0.06656004 -0.032645274 -0.048929352 0.02724246 -0.016509715 0.004280042 -0.009978414
-0.06416638 -0.06270556 0.03457796 0.027573233 -0.008084632 0.010050133 -0.036965832 -0.052562214
-0.052602008 -0.037889972 -0.050672576 -0.03872308 -0.054848313 0.03722799 -0.065318465 -0.0030854393
-0.078070045 0.044601962 0.019000344 0.037553802 0.043402087 -0.030616013 -0.030262541 0.023460396
0.019919366 0.007943094 -0.013748698 0.018396504 0.017591678 -0.044021744 -0.057109494 0.060458913
-0.004557102 -0.0011679688 -0.024222298 -0.030709933 -0.053350292 -0.043545544 0.039855838 0.030037707
0.03236445 -0.031558856 0.0037967786 -0.046508633 -0.017231852 0.0027954057 0.056130007 -0.010148756
-0.05404221 0.0010677874 -0.05166001 0.024043042 0.003211162 0.0037787745 0.022014365 -0.0013934838
-0.015717087 0.0045543206 -0.025142375 0.033716846 -0.024932154 0.061600138 -0.02551888 -0.03699906
-0.06756075 0.042987913 -0.049258657 0.0637124 0.0029917543 0.021463618 0.023537332 0.014086073
0.002850294 -0.032051798 -0.0068307943 -0.014081128 -0.006287284 0.048356757 -0.019480383 0.018323526
-0.036985237 -0.029567223 0.042778775 0.048790406 -0.0028431765 0.035749897 0.035368778 -0.02691258
-0.0137955295 0.0035444647 -0.025391616 -0.0036553591 -0.0046026725 -0.014487937 -0.048464198 0.05058343
0.051098015 0.0005902199 0.028892606 0.00694168 -0.032599755 -0.046102352 -0.06199523 -0.030277798
-0.036377296 -0.071682654 -0.056583975 -0.053619176 0.00825635 -0.064962946 -0.027562127 0.014325432
0.036709756 -0.018908713 0.044585012 0.003975674 -0.0020399566 -0.039656233 -0.039012704 0.046370715
-0.009396386 -0.025988542 0.028286744 0.017322686 0.04989695 -0.05271969 0.05903273 0.027571462
-0.05032416 -0.05090817 -0.026038557 0.041499157 0.06700845 0.050635107 -0.029883344 -0.08693953
0.04141092 0.035342723 -0.044576913 -0.057549693 -0.06515168 -0.11400249 0.041787535 -0.054210804
-0.04387871 -0.03329301 -0.059882168 -0.040592436 0.043826945 0.051103853 -0.013828641 0.02792646
0.03180074 -0.03905951 -0.014441032 0.030201934 -0.12631667 0.043355905 0.0015669562 -0.07075563
0.0547882 0.038700886 -0.030244544 0.014374049 0.0029404834 0.030101813 0.045942478 0.06630639
0.03098284 0.042321008 0.04108655 -0.028089773 -0.054992165 0.045336157 0.0029957595 0.037210763
0.02806108 -0.0068591023 -0.017996738 0.005598376 0.022318723 0.05898007 -0.031833775 0.036726452
-0.010215218 -0.050773446 -0.04243045 -0.059198115 -0.04212698 0.04373839 0.053880647 0.06203322
0.006947945 -0.026078835 -0.03614128 -0.01562544 0.018257204 -0.050327487 0.05955797 -0.0036294663
0.011445291 0.0015431121 -0.031500988 0.053861413 0.014946304 -0.021184528 -0.06365071 -0.046250146
0.011771923 -0.037257142 -0.020706942 0.037417028 -0.014418421 0.0022049125 -0.0059977546 0.059689768
0.010839471 0.019026406 -0.013568811 0.047079943 0.0038485501 0.043582007 -0.00378073 -0.035292603
-0.019324047 -0.05560599 -0.0066095036 -0.04376758 -0.044833027 -0.034749907 0.026337171 -0.026260093
-0.016792893 -0.029672654 -0.04294493 0.027713258 -0.02559083 -0.04399534 -0.01860588 -0.06193714

l3.bias f4 [256]
00000000: 0d26 2f3d 1c12 613e f475 a33c e311 8ebd
00000010: c182 873e 3e40 31bd e851 883b 7084 7b3c
00000020: a28d c23e e893 83bc 387c 82bc 99bd b4bd
00000030: 37b5 013d cc8f c93c abfd bdbd 0476 72bb
00000040: 7d56 3ebd 01b8 ecbc 1ba3 033d 702a 36bc
00000050: b231 103d 0b84 053f 5fef e53a 2530 0fbd
00000060: b53b 0ebb 191c 4f3d bc20 f13e 8c08 df3c
00000070: 5869 b2bd c812 99bc fffd d53c b8ba 06bd
00000080: ad2a 2a3e a283 2b3d 8d78 b5bd c88c 743d
00000090: 2c02 a13c 86c9 20bd 2286 0c3e 228e 7bbd
000000a0: 8dda 173e 5b69 c03c c4e3 8cbd 1734 a03b
000000b0: 1ee6 4d3d 22b2 a3bd 57ea b63c d0d0 2e3d
000000c0: 52f7 a7bc a080 a53d 70c2 d5bc 7d1c 28bb
000000d0: d3d9 423d e363 b0bc e492 5c3d 06ae 563d
000000e0: f8c0 8ebd b148 54bd e0bb 17bb 2948 1a3d
000000f0: 4bb5 c63e 7e06 21bd bd16 01bd 087a 17bd
00000100: 1a0c b83e a162 87bc 9b1f f1bc 22f6 8abd
00000110: 2368 543d e9ff fe3c 7e19 37bd 3fe9 e1bc
00000120: 1e00 1dbd 5679 373e e83b c3bc fa99 6bbc
00000130: da86 0d3d d27c 333e f57c f73e 4176 d5bc
00000140: 7c7a 6cbd 002e 673c e881 fa3c 6769 db3c
00000150: 2cef 9c3d 664b 81bd b7b6 423c 59fd 56bc
00000160: 3657 843c 576a 99bc 1ab8 1bbd bbc3 ed3e
00000170: 26cc ca3c 39fe afbd 65b8 493c 5c77 8ebd
00000180: 36ce 0dbd 16e1 263d 72af 873c 2f84 893c
00000190: c362 c33c 2fea c43c 9f60 3c3c 33eb 70bc
000001a0: ff9b 0dbd 6585 4bbd 63eb 2c3d 9fc2 2d3d
000001b0: 0baf 20bc d259 bbbd e0b3 36bc 7971 c43c
000001c0: d071 523b ff8a 2d3c 6622 113e cc9a 343c
000001d0: 103a 0d3f 2d89 aa3c ca31 233d cc19 a13e
000001e0: 69cc f53e c7b2 98bd 037c dd3c 44ec 95bd
000001f0: 564c febc f648 ffbc e179 eabb 90cc c13d
00000200: 852e 0dbd 3dc9 f4bc 448c 493d cecb a4bc
00000210: 9670 953c 6c4e 123d 48f9 df3c 3ead 533e
00000220: a424 8fbc f7f5 e7bc b896 89bc d625 59bd
00000230: b107 733d 1180 ce3c f3b4 a9bd 85c2 95bd
00000240: c4c5 1abd 6e6c 233d 3f36 963b 513e 8dbd
00000250: 62f9 57bd 7248 263e c9bf a43b 51ce 0f3d
00000260: ada3 5a3d 13a5 94bd 8a68 84bd de55 353d
00000270: 8b9a 9bbd 6974 68bd 97ac b2bc f21d cfbc
00000280: 1cbb 923e 99e5 a73e 8270 7abd 5d07 ccbf
00000290: bebb a3bb aa41 42bc 5848 e43d 1a99 163d
000002a0: 62e7 5ebd 443d 6fbd 5373 4ebd 82cc 893c
000002b0: 6d78 173d 7f31 1e3c 26c5 5bbd d0d0 5cbd
000002c0: 672d 89bc da50 103e c078 d3ba 94ad b63e
000002d0: 90ff 473d 8698 a73c 0431 a93b 3b1e 59bc
000002e0: b305 ff3c d89d b1bc 899b 9c3e eca0 2bbd
000002f0: 51f3 8ebd 19bc abbc b337 313d 3ce7 483d
00000300: 1408 e1bc c380 853d ac29 433d 5646 15bd
00000310: d7d6 e43d 2340 9abd 28e1 1d3d ce2a 443e
00000320: ac32 e23d 9eba fa3e c126 91bc fd0f a0bc
00000330: 15a6 7abd 8eeb 94bd 5ccc d13c e590 613c
00000340: 8753 dc3e 4410 60bd 5d47 d13e 3ead 1bbd
00000350: 6091 453c 1b98 4bbd e674 263d b747 023d
00000360: ea60 fe3d 3d6e d13e da31 033c d0f6 e1bc
00000370: f08d 9fbd 8d5d ce3e fda1 9e3c 08b5 41bd
00000380: 01bf 5939 357a f63e 79fa 2d3c 8dba 5bbd
00000390: bb61 dc3b 5107 f23e d896 213e 67a5 ee3e
000003a0: 1405 eabc 1c27 da3c c027 c63b b6e4 80bd
000003b0: 4f2b 1abd bba4 583e b4d8 d83b 586e 3ebc
000003c0: d5c9 b5bc a493 7d3c f8db 09bc 02b7 24be
000003d0: b07f 2d3e 22d7 d3bd ea0f 053d 0c35 373e
000003e0: 199c e33c 944c 28bd b875 053d 9e7b b73d
000003f0: dfad 80bd 3130 9f3d 5084 03bd 2904 52bd
0.042760897 0.21979564 0.019953705 -0.06937005 0.26466945 -0.043274157 0.0041601546 0.0153514
0.37998682 -0.016061738 -0.015928373 -0.088252254 0.03166696 0.0246047 -0.09276899 -0.0036996612
-0.0464692 -0.028896334 0.03213797 -0.011118516 0.035203643 0.52154607 0.0017542652 -0.034958024
-0.0021703069 0.050563905 0.47095287 0.027225755 -0.08711499 -0.018685713 0.026122091 -0.032892913
0.16617842 0.04187358 -0.08860884 0.059704572 0.019654356 -0.039254688 0.13723043 -0.061414845
0.14829464 0.023487737 -0.0687938 0.004889022 0.050268285 -0.079929605 0.022328539 0.042679608
-0.020503674 0.08081174 -0.026093692 -0.0025651746 0.047571015 -0.021532005 0.053851023 0.052412055
-0.069703996 -0.051827136 -0.0023152754 0.037666474 0.3881019 -0.039312832 -0.031515826 -0.036981612
0.35946733 -0.016526522 -0.029434016 -0.06785227 0.051857125 0.031127887 -0.044702046 -0.02757704
-0.03833019 0.1791738 -0.023832276 -0.014379973 0.034552433 0.17528084 0.48337522 -0.026057364
-0.057733998 0.014110088 0.030579522 0.026783658 0.07662806 -0.06313209 0.011884383 -0.013121926
0.016154867 -0.018727465 -0.03801737 0.46438393 0.024755549 -0.08593411 0.0123120295 -0.0695636
-0.034620486 0.040742002 0.016563151 0.016786663 0.023850804 0.024037449 0.011497646 -0.014704513
-0.034572598 -0.04968776 0.04221667 0.042421933 -0.0098073585 -0.09147991 -0.011151284 0.02397989
0.0032111295 0.010592221 0.14173278 0.011023235 0.5516672 0.020817364 0.039842404 0.31464994
0.48007515 -0.07455974 0.027036672 -0.07320455 -0.03104226 -0.03116272 -0.0071556424 0.09462845
-0.034468193 -0.029881114 0.049206033 -0.020116713 0.018242162 0.03571932 0.027340546 0.20671555
-0.017473526 -0.028315527 -0.016795501 -0.0530146 0.059333507 0.025207551 -0.082864664 -0.07312492
-0.03778626 0.03989833 0.0045841034 -0.068966515 -0.052728064 0.16238573 0.0050277454 0.035108868
0.05337875 -0.07258048 -0.06465252 0.044271342 -0.07597836 -0.056751642 -0.021810813 -0.025282834
0.28658378 0.32792357 -0.061142452 -1.5939747 -0.004996746 -0.011856476 0.11146611 0.036767103
-0.054419883 -0.058408037 -0.05040295 0.01682115 0.03698008 0.0096553555 -0.053654812 -0.053910077
-0.016745282 0.14093342 -0.0016134009 0.35679305 0.048827708 0.020458471 0.005163314 -0.013251836
0.031130647 -0.021681711 0.30587414 -0.041901514 -0.06980003 -0.020963715 0.04326601 0.049048647
-0.027469672 0.065187 0.047647163 -0.03644403 0.1117379 -0.07531764 0.038544804 0.19156954
0.11044821 0.48970503 -0.017718675 -0.019538874 -0.061193544 -0.07271491 0.025610141 0.013767456
0.43032476 -0.054703012 0.40874758 -0.038007013 0.012058586 -0.049705606 0.040638827 0.031806674
0.12420829 0.40904418 0.008007491 -0.02758351 -0.07790744 0.4030575 0.019364351 -0.047291785
0.00020765887 0.48140112 0.010618799 -0.053644706 0.0067255176 0.47271207 0.15780199 0.46610567
-0.028566875 0.026629977 0.006047219 -0.06293623 -0.03763896 0.2115659 0.00661763 -0.011622988
-0.022190968 0.015477095 -0.008414261 -0.16085437 0.1694324 -0.10343768 0.03248588 0.1789133
0.027784394 -0.041088656 0.03258297 0.08959125 -0.06283163 0.07772864 -0.032108605 -0.0512735

l4.weight f4 [1, 256]
00000000: d5f0 2fbd f88c a4ba 4311 dd3a 704a 383d
00000010: 9449 69bd ea9d a7bc c75b 4fbd 2fe6 06bd
00000020: e291 593c 4d8d 46bd bb3f 91bc b66f a6bb
00000030: e42a 713b d353 a03c b600 483c 020c 183d
00000040: c703 fd3c b66a 54ba f6fd 7e3b f867 19bd
00000050: b0a9 ef3c 7d33 ab3d 61a0 a7b9 de96 e0bb
00000060: 5ad9 8f3b 1c76 21bd 0467 573d e79e 143d
00000070: 63fc 31bd 4e59 5ebd c587 1abc 4d98 ddbc
00000080: 7488 16ba bcd3 0f3d c0f4 053c 9409 42bd
00000090: 97e1 0bbc 7015 82bb 5935 2b3b f873 bbbb
000000a0: 740f 203b 1569 b03c 4dd5 503d 077c 1dbc
000000b0: e07a ff3b 7f8d 873c e667 a13c 995a 8abc
000000c0: 0e67 86bc 8c81 2f3a f7c3 733c 57e2 0cbd
000000d0: 3b08 043c 504d 15bd cab3 06bb 315c baba
000000e0: efee f0bb 8a22 c13c 4c66 7fbd e2f9 ef3b
000000f0: 46a6 3c3b f5e0 4fbd 3a9a a4bc 870d 453c
00000100: 76b6 80bc efb8 963c 6c29 ac3c dd30 cebc
00000110: a54e a5bb 97db 4abd a9a5 8dbc bd4f c7bc
00000120: ac28 08bd b66e 8eba 3d81 b7bc 0bee 18bd
00000130: 86e8 303c 7d98 95bb edbb a73d c41c 78bc
00000140: c231 f6bb 2d10 033d c38f 18bc 0e67 f53c
00000150: 7bba a43b 8c55 cfbc 63cc 30bb 5830 a1bc
00000160: 3d11 ca3c 82df bc3c 1051 56bc f5bb 4a3d
00000170: 45da 173c 578f 1d3c 0968 ce3a 4f37 1fbc
00000180: c046 6c3c ff9a 7e3c 0a1c c9bc 2142 c339
00000190: ccc0 d1ba a465 b23c 2df8 e5bc 60c2 52bd
000001a0: 031e dbbc 86eb 58bd 90e9 3abb c43e 843d
000001b0: 19db 7ebb 6d3f 65bb 8898 e83c 28e9 873c
000001c0: 5967 9bbc 4882 72bb 6372 97b8 55d9 983d
000001d0: 0307 b33d a370 423c 5f5e f3bb 75ec bfbb
000001e0: ad88 873d 8fd8 2b3c b25f 0cbd cd7a afbc
000001f0: 4015 c3bc 954b fb3b d1fc 7bbc 0467 50ba
00000200: 344b 763c 92f2 75bc d47b 05bd 9c1a 113d
00000210: 14e1 bb3c cae9 96bc 7048 7abc 7330 1b3b
00000220: dc9d a4bc 7d2f 8dbc fd60 76bb de77 47bd
00000230: 50ab 81bc 8a46 31bc 78d8 98bc b764 85bd
00000240: 6b64 553b 2641 693d cced b1bc 1245 bc3b
00000250: b30e 18bd 2628 51b9 ef1f 5dbb 7077 6a3c
00000260: 2e8c 013d 055e de3c 455e 68bb e25c c1bc
00000270: 9bb7 513c a442 9cbd 7761 7ebc 45ed 00bd
00000280: 3f92 cbbb ded2 a6ba c0a6 e63c 25f4 3bbd
00000290: f294 eeba 069c a8bc 0651 57ba bec6 b6bb
000002a0: 609a 8ebc 6c16 243d 10e8 a83b 0af0 e93b
000002b0: bf96 8abc 524e f4bc cd67 55bc de7c f83a
000002c0: 0baf 19bb 6410 5d3b c0d8 a8bb de91 06bc
000002d0: 2b28 aabb fe28 d8bc b49d c5bc 65da b4bc
000002e0: f5c0 e13c cf29 9939 367c 5b3c 5324 5f3c
000002f0: 4816 80bc f8de 2cbd f416 8bbb 7b59 c5bc
00000300: 9e7b 7abd e704 773c 1ce8 afba 034b 1ebc
00000310: 3e8c b039 83c1 97bc 501e e2bb db5d bf3c
00000320: 02db 503b e55b a03d 5d5e 04bc ab19 34bd
00000330: 31d4 42bd 8042 04bc 9529 d7bb 7e0f 6fba
00000340: 0ac0 483d 8a3b 17bc 3ed2 e53d 1d58 87bc
00000350: fa5b 7139 4542 193c 5214 503d f2e0 02bb
00000360: 5b77 273c 5f43 c3b9 ff8e 62bc 4e56 923c
00000370: e006 363c da6e 823c 6372 f1bc d4bd 65bc
00000380: bff7 4ebc 2fc5 773e 001b 44bd 70d2 b3bc
00000390: cb87 98bc 99cd 2cbd 0e07 183b 34b1 3f3d
000003a0: d210 10bb 9244 563d d0cc 5d3b 42eb c53b
000003b0: 3aaa d5bb 1adc 85bb d143 cf3c 3854 babc
000003c0: dce5 56bd db32 483c 421d 35bc b74d a1bc
000003d0: 4245 dc3c 3a4b c3bc e85b bbbc 87aa 083c
000003e0: ce01 bb3c 8021 3839 7c25 6f3d d7cc d23b
000003f0: bd7c 243d 68c1 913c 947f 3fbd 1c15 363d
-0.042954285 -0.0012554219 0.0016866106 0.044992864 -0.056954935 -0.020461041 -0.050624635 -0.032934364
0.01327941 -0.0484746 -0.017730584 -0.005079235 0.0036799246 0.01957122 0.012207201 0.037120827
0.03088559 -0.00081030594 0.0038908697 -0.037452668 0.029255718 0.0835943 -0.00031972214 -0.0068539223
0.004389924 -0.03941928 0.052588478 0.036284354 -0.043453585 -0.054284386 -0.009431784 -0.027050162
-0.0005742379 0.035114035 0.008176029 -0.047372416 -0.0085376715 -0.0039698407 0.0026124327 -0.0057206117
0.0024423273 0.021534482 0.05098467 -0.00961209 0.0077966303 0.016546963 0.019702863 -0.016888903
-0.016406562 0.0006695024 0.014878265 -0.034395542 0.008058603 -0.036450684 -0.002055394 -0.0014218149
-0.007352702 0.02357604 -0.062353417 0.0073234895 0.002878563 -0.050751645 -0.020093072 0.012027151
-0.015712004 0.01839873 0.021015845 -0.025169784 -0.0050447755 -0.049525823 -0.017290907 -0.024330014
-0.033241913 -0.0010866735 -0.022400493 -0.03733639 0.010797625 -0.004565297 0.08190141 -0.015143577
-0.007513256 0.03199785 -0.009311619 0.029956367 0.005027113 -0.025309347 -0.0026977293 -0.019676372
0.024666423 0.023055796 -0.01308085 0.049495656 0.009268348 0.009616694 0.0015747558 -0.009717776
0.014421165 0.015539884 -0.024549503 0.00037242568 -0.0016002893 0.021776982 -0.028072441 -0.0514549
-0.02674771 -0.052958988 -0.0028520562 0.06457284 -0.0038887917 -0.0034980432 0.028393045 0.01659067
-0.018970178 -0.0037003923 -7.221547e-05 0.07463328 0.08741572 0.011867675 -0.0074270214 -0.0058570453
0.06617866 0.010488643 -0.03427095 -0.02142086 -0.023813844 0.007668922 -0.0153801 -0.0007949921
0.015032578 -0.015011447 -0.032588795 0.035425767 0.022934474 -0.018422026 -0.0152760595 0.002368
-0.020094804 -0.017234558 -0.003759443 -0.0486983 -0.015828758 -0.0108200405 -0.018657908 -0.065133505
0.0032561074 0.056946896 -0.021719836 0.0057455385 -0.037123393 -0.0001994675 -0.0033740958 0.014310703
0.031627826 0.027144441 -0.003545658 -0.02360386 0.012800123 -0.07629898 -0.015526167 -0.031476278
-0.0062125023 -0.0012727638 0.028155684 -0.04588713 -0.0018202348 -0.02058221 -0.00082136726 -0.005577891
-0.017407596 0.040060446 0.005154617 0.0071392106 -0.016917584 -0.029822502 -0.013025236 0.0018958112
-0.002345028 0.0033731693 -0.0051527917 -0.008213488 -0.0051927767 -0.026386734 -0.02412305 -0.022076795
0.02755783 0.00029213584 0.013396313 0.0136195 -0.015635625 -0.042204827 -0.0042446796 -0.02409052
-0.061153047 0.015076852 -0.0013420614 -0.009661439 0.00033673825 -0.01852489 -0.006900586 0.023360183
0.003186882 0.078300275 -0.008079139 -0.04396979 -0.047565643 -0.008072495 -0.0065662363 -0.0009119435
0.049011268 -0.009230504 0.11221741 -0.016521508 0.00023017815 0.009354179 0.05080063 -0.0019970504
0.010221328 -0.00037243494 -0.013828038 0.017863419 0.011110038 0.015921999 -0.02947349 -0.014022309
-0.012632309 0.24196313 -0.04787731 -0.02195093 -0.018619439 -0.04218826 0.0023197564 0.046799853
-0.0021982682 0.052311487 0.0033844002 0.006040008 -0.0065205367 -0.004085076 0.025300892 -0.022745237
-0.052465305 0.012219156 -0.011054339 -0.019690378 0.026888493 -0.023839582 -0.022870973 0.008341438
0.022828009 0.00017560087 0.058385357 0.00643311 0.040158022 0.017792419 -0.046752527 0.044453725
