models/GMI_pretrained/GMI_GPM_channel_predictor_89H_ocean.pt (torch, 544272 bytes, 7 tensors)

l1.weight f4 [256, 12]
000000 4c d2 81 be a5 15 4e be 0e 26 76 be ce 31 80 3e
       -0.25355756 -0.20125444 -0.24037954 0.25037998
000010 9f af 39 be 43 ca d9 bd 5d 38 af 3b e8 81 26 be
       -0.181334 -0.106342815 0.005347295 -0.16260493
000020 03 cf 44 3d 9d dc 90 3e af 25 11 3d 47 67 4e 3d
       0.048048984 0.28293315 0.03543633 0.05039146
000030 e9 9d 4c 3d 5d a8 45 bd 93 c7 68 3e 04 b5 ea bd
       0.049955282 -0.048256267 0.22732382 -0.11460307
000040 57 65 f1 bc 52 77 5d 3e ce 3c bf be 45 3a 47 bd
       -0.029467268 0.21627548 -0.37351078 -0.048639555
000050 74 bc 77 3e 0d 55 87 3c 23 2a 64 be 04 72 7d bd
       0.24192983 0.016520048 -0.22281699 -0.061876312
000060 83 63 11 3e ca 5e e4 bd 97 8a bf bd 22 c2 56 be
       0.14198117 -0.11150892 -0.09352606 -0.20972493
000070 09 e3 9e 3b 57 0f 8e be c8 9d e6 bd c1 50 67 3e
       0.004848842 -0.27746078 -0.11260563 0.22589399
000080 a2 be 01 be 5e 30 83 bd aa 1b 42 3e c9 9f a9 3d
       -0.12670377 -0.0640571 0.18955866 0.0828243
000090 e2 54 02 be f8 f9 9b 3d 5b a4 39 be 71 b0 40 3e
       -0.12727693 0.07616037 -0.18129103 0.18817307
0000a0 bd 44 66 3e a6 95 a3 be df 4f 87 3c ea de 8c 3e
       0.22487159 -0.3195011 0.016517578 0.2751382
0000b0 db d0 7b be 45 18 64 3d 2b 1d 70 3e 7b bb d3 bd
       -0.24591391 0.055687208 0.23448627 -0.103384934
0000c0 69 c5 8b be 11 6c 10 3d 34 de df 3d 33 07 92 be
       -0.2729905 0.03525931 0.10931054 -0.28521118
0000d0 d3 74 5b be 75 32 8c 3e b9 6b 89 be d8 4a 05 3d
       -0.21431284 0.27382246 -0.26839998 0.03254208
0000e0 6a 16 88 bd 5b 41 39 be f2 94 a4 3d 79 8d b5 bd
       -0.066449 -0.18091337 0.080362216 -0.088648744
0000f0 48 6e 1d 3e 88 23 08 3d 64 17 7b 3d 88 6b 7d bc
       0.153741 0.03323701 0.061301604 -0.015467532
000100 8d 91 f7 3d 00 97 3b 3d 91 9f b8 3e 19 33 90 3e
       0.120883085 0.0457983 0.3605924 0.28163984
000110 36 b9 5a 3d f1 1f 8e be 45 c9 89 be cf 39 9a be
       0.053399287 -0.27758744 -0.2691137 -0.3012223
000120 ee 67 3e be b3 e4 76 be 5f 58 88 3b 52 fc 68 bd
       -0.18594334 -0.2411068 0.0041609253 -0.056881256
000130 59 e3 8e bd 94 74 59 3e 9b a0 7d bd 15 41 1b be
       -0.06976957 0.21235877 -0.061920743 -0.15161546
000140 a0 1e 32 3e 64 d6 a2 bc ae 33 09 3e e8 23 eb 3c
       0.17394495 -0.01987762 0.1339862 0.028703645
000150 23 b9 8c be 39 bc 71 be 54 ad 57 3c 5f 42 5e bd
       -0.27484998 -0.23606957 0.013163883 -0.054262515
000160 f2 87 8a be b3 26 13 3d 93 69 57 3e f3 1c 67 3e
       -0.27056843 0.03592558 0.21036367 0.22569637
000170 98 24 6c 3e ee 42 bc bc 37 27 b3 3b 7f 64 2a be
       0.23060834 -0.022981133 0.0054673213 -0.16639899
000180 44 6e c4 3c 93 43 e8 bd c9 8a 37 be eb 7d e5 3d
       0.02397836 -0.11341014 -0.17924036 0.112056576
000190 b0 82 1f 3d ee b7 3c be 52 f8 56 3b be 6d 49 3b
       0.038942993 -0.18429539 0.003280182 0.0030735577
0001a0 71 d8 90 bd 9c e3 52 3e 65 e3 36 3e 96 cf 16 be
       -0.07072533 0.20594639 0.17860182 -0.14727625
0001b0 21 56 39 bc c8 29 d1 3c 4a 9a 07 be b6 26 51 be
       -0.011312039 0.025532618 -0.1324245 -0.20424923
0001c0 26 31 0e 3e 4a 5e 98 be 3d 42 39 3e 2d ca d3 bd
       0.13885936 -0.29759437 0.18091674 -0.10341296
0001d0 85 ea 60 3e 4e 2f c9 3d 8c d4 96 be 31 f7 42 3e
       0.21964462 0.09823476 -0.29459035 0.19039609
0001e0 1a a8 3f 3e d5 c0 6e be b7 5e 87 be c5 ab a5 bd
       0.1871647 -0.23315747 -0.2643945 -0.08089403
0001f0 70 f5 d6 3d 55 7a 1e bd c7 24 56 3e 77 2d 0b be
       0.10496032 -0.038690884 0.20912467 -0.13591562
000200 06 d6 16 be 0b fd 0f be 40 10 41 be 20 60 12 be
       -0.14730081 -0.14061372 -0.18853855 -0.14294481
000210 26 36 6a be b0 13 29 be 57 46 37 3e 2a 6c 4d bd
       -0.22872218 -0.16511416 0.17897926 -0.05015198
000220 78 94 99 bc 03 1d fe bc ce 82 c8 3d 0d 80 e9 bd
       -0.018747553 -0.031019693 0.09790574 -0.11401377
000230 4b 4a df 39 2a 9b 4e 3d c2 95 54 be a3 02 1c bc
       0.00042589227 0.050440945 -0.20760253 -0.009522113
000240 a1 c8 41 be 1b ed bd 3c 4d cf 09 3e 1a 21 e5 bd
       -0.1892419 0.02318435 0.13457985 -0.11187954
000250 bb 25 24 3c 1c 45 24 3e 51 77 97 bd 72 ff 4b 3d
       0.010018761 0.16041988 -0.07395805 0.04980416
000260 23 a7 36 be 8c 09 5b be f0 c2 86 3d 10 6b d0 3d
       -0.17837195 -0.2139036 0.0658015 0.101766706
000270 ca 1b 5e 3e d4 25 8f be 94 24 86 3e 61 b1 80 be
       0.21690288 -0.27958548 0.26199782 -0.2513533
000280 5f f9 d6 bd 62 b0 81 be 44 08 42 be 81 a3 50 3e
       -0.104967825 -0.25329882 -0.18948466 0.20374872
000290 ea c5 3f be 9d d6 1b 3e ce 1a 43 be 48 b0 49 be
       -0.18727842 0.15218587 -0.19053194 -0.19696152
0002a0 4b bf 47 3e 4b cc 8a bd 62 3c 5c 3e 1a f0 04 be
       0.19506566 -0.06777247 0.21507409 -0.12982216
0002b0 0c 4b e3 bb 2c 7e 9e 3d 22 9d 85 be ae 68 80 3e
       -0.0069364365 0.07738909 -0.26096445 0.25079864
0002c0 e7 be d5 bd 22 1b 47 3e f4 35 5d 3d 97 d4 18 be
       -0.10436802 0.19443944 0.05400653 -0.14924847
0002d0 4b c0 51 be 3c fa 1b be b0 78 6d 3e a3 51 1f bb
       -0.2048351 -0.15232176 0.2319057 -0.0024310134
0002e0 cc 1f 2b be 4f a6 9d 3b a0 0b 19 3e 83 8b 80 be
       -0.16711348 0.0048110853 0.14945841 -0.2510644
0002f0 50 40 6e 3e 50 5f 52 be 0f 66 dd bd 67 6e 31 3e
       0.23266721 -0.20544171 -0.10810482 0.17327271
000300 56 50 99 3d ea 9b 84 3c ba 01 2a be b7 40 f5 3d
       0.07486026 0.016187627 -0.16602221 0.11975234
000310 09 1f 73 be d7 8b d0 bc 78 ac c0 3d c2 94 76 3d
       -0.23742308 -0.025457306 0.09407896 0.06020046
000320 e4 5b df 3c 59 47 1b 3e 18 3e f1 3d ff f6 27 be
       0.027265497 0.15163936 0.117794216 -0.16402815
000330 0e 18 c7 bd c0 0b 03 be 38 6c 2b 3e 48 fe 5f 3e
       -0.09721385 -0.12797451 0.16740501 0.21874344
000340 c8 28 1e bd 1a de 92 3d 1f a1 a9 be 93 e1 6b bd
       -0.03861311 0.07171269 -0.33130738 -0.05758817
000350 de b3 34 3e 4f 03 74 be 45 50 16 bd af 99 55 3e
       0.17646739 -0.23829387 -0.036697645 0.20859407
000360 a4 37 27 be bb cb ed 3c 83 ba 3f bd eb 5d b5 3d
       -0.16329819 0.02902781 -0.04680873 0.08855804
000370 06 c4 5a bc 8d ae df bd 82 f6 41 be 34 dd ee 3d
       -0.0133524 -0.10921965 -0.18941692 0.11663285
000380 37 13 9f bc af 5a 36 3e e2 45 96 be 9b 49 59 3e
       -0.019418342 0.1780803 -0.2935019 0.21219485
000390 3b 06 53 bc 9d 79 23 be 06 55 4b be e3 d8 0e be
       -0.012879903 -0.1596436 -0.19856653 -0.13949923
0003a0 70 69 18 bd 5e 90 a8 3d 18 ab 92 be 5e 61 5c bd
       -0.037209928 0.08230661 -0.2864616 -0.053803794
0003b0 23 5a 61 be ff 2b 24 be e3 a5 6d 3d 2b 0d c6 bc
       -0.2200704 -0.16032408 0.05801953 -0.0241762
0003c0 ae 78 fe bc 23 dc 61 3d 85 8b 88 be 6f 15 b9 3d
       -0.031063404 0.05514158 -0.26668945 0.09037291
0003d0 67 56 00 be 2c 91 8d 3e 12 c2 8d 3d f0 2f 32 be
       -0.1253296 0.2764982 0.069217816 -0.17401099
0003e0 bc 12 8c be 8d fb e4 bd ab 7a dd 3d 04 2c 61 3e
       -0.27358043 -0.11180792 0.10814413 0.21989447
0003f0 46 73 ac bd 18 4d 92 be 67 ba 86 3d 36 97 30 be
       -0.08420424 -0.28574443 0.06578522 -0.17245182

l1.bias f4 [256]
000000 3c 74 3b bd 50 6c 33 3e 10 ab 2b 3e c0 49 40 bf
       -0.045765147 0.17521787 0.16764474 -0.75112534
000010 da 44 4e bd 5e f8 e9 be 71 70 db 3e 63 2f b5 be
       -0.05035863 -0.45697302 0.42859223 -0.35387716
000020 0f 9b a7 bd ab 45 f1 bd 8d 58 33 3d 5a 82 53 be
       -0.08183872 -0.11780866 0.04378562 -0.20655194
000030 55 e4 46 bd e6 f1 53 bd e0 d9 03 be 1f d9 13 3e
       -0.0485576 -0.051744364 -0.12876081 0.14438294
000040 76 92 39 bf d7 d7 d5 3e 34 d5 21 3e 37 6f 37 3e
       -0.72489107 0.41766235 0.15803987 0.17913519
000050 2a ed da 3d 33 32 53 be d2 c7 00 3c 9b 7a 06 3f
       0.10689767 -0.20624618 0.007860141 0.5253083
000060 91 cb e1 bd b7 5b 7a 3e 59 21 21 3f 96 2c 8c be
       -0.11025155 0.24449049 0.6294151 -0.27377766
000070 12 4f 14 3d d7 f7 51 3e e3 1e 5f 3d 63 db 8d be
       0.03620822 0.205047 0.054472815 -0.2770644
000080 71 19 22 3e 62 31 d4 be 70 f1 4f be 97 22 68 be
       0.15830018 -0.41443926 -0.20306945 -0.22669445
000090 64 2c 06 3e 82 60 93 be 60 6f 84 3e f3 2b 07 be
       0.13102871 -0.28784567 0.25866222 -0.13200359
0000a0 7b ca 27 3f 62 b5 9f be 1b d9 d6 3e 54 f3 1b bf
       0.65543336 -0.31193072 0.41962513 -0.60918164
0000b0 a3 f3 a6 be 30 b9 8d bd 06 c4 91 bc 79 6d 93 be
       -0.32607755 -0.06920087 -0.017793667 -0.28794459
0000c0 a6 66 c3 3e bb 09 1b be c4 cb 3b be e0 1e c6 bc
       0.38164252 -0.1514043 -0.18339449 -0.024184644
0000d0 32 c6 0e 3e bb aa 42 ba e6 6b 88 bd f4 aa 9f 3c
       0.13942793 -0.00074259535 -0.06661205 0.019490696
0000e0 51 a4 ce be dd f6 3f 3d 9c 94 0a 3f 3c 32 12 bf
       -0.40359738 0.046866287 0.5413301 -0.571079
0000f0 d2 5a e1 be 21 c8 84 3e f3 db 8b 3d f6 dc 7a be
       -0.44014603 0.25933936 0.06829061 -0.24498352
000100 bf 6e 90 be 05 76 14 be 0b 47 8c 3d d8 f0 8b be
       -0.28209493 -0.14498146 0.06849488 -0.27332187
000110 ce 50 d7 be 7b 56 3c bc 0d 70 de be 20 9b 15 bf
       -0.42053837 -0.011495228 -0.43444863 -0.58439827
000120 ff af da 3c 8f c9 79 3e 01 db 16 bd 79 90 82 be
       0.02669525 0.24393295 -0.036829952 -0.2550085
000130 55 a9 85 3e 36 a0 40 3e 38 0a 08 bf 68 fd dd be
       0.26105753 0.18811116 -0.5314059 -0.43357396
000140 b4 70 18 be 19 9d 5e bd 1e 23 20 be 18 3d 10 bf
       -0.14886743 -0.05434904 -0.15638396 -0.5634322
000150 ef a2 f7 3d 26 89 53 bd 25 ed 7a 3d f4 5b e6 be
       0.12091624 -0.051644467 0.061261315 -0.4499203
000160 33 ab 2b be f7 ee 36 bf 42 2c 00 3c b8 58 02 be
       -0.16764526 -0.7145838 0.007823052 -0.12729156
000170 fa a4 57 3e e1 89 e7 3d 2a 52 2f 3e e4 80 d1 bd
       0.21059027 0.11305595 0.17121187 -0.10229662
000180 10 ae 2f 3e f1 dd bc bd 77 63 b0 bc ca b2 bb bd
       0.17156243 -0.092220195 -0.021531804 -0.09164961
000190 72 15 b8 bd 38 ac a6 3e 64 bf 70 3d 73 8d 08 3c
       -0.08988465 0.32553267 0.058776274 0.008334505
0001a0 f0 c3 c8 3d 17 84 1d bf eb c2 d5 3c ef 99 21 3e
       0.09802997 -0.6152968 0.02609392 0.15781377
0001b0 63 f8 71 3e e1 b2 9d 3d 17 4f 31 bd 47 4d 82 3c
       0.23629908 0.07700134 -0.043288317 0.01590599
0001c0 46 ca 18 bf c2 8e 8f be 9c 26 19 be 9c a5 ff 3d
       -0.59683645 -0.28038603 -0.14956135 0.12482759
0001d0 d6 61 58 3e ee c8 80 be 6e b8 89 be 71 52 22 be
       0.21131071 -0.25153297 -0.2689852 -0.15851761
0001e0 4d 66 83 3e 52 bd 9d 3d 75 14 46 3d d4 8a 4c be
       0.25663987 0.077021256 0.048359353 -0.19974834
0001f0 dd b0 93 bc 97 6e 45 3e 8b 28 d9 3e e0 c2 e1 3d
       -0.01802867 0.19280468 0.42413744 0.110234976
000200 30 4c b0 3a f7 cb fc be 0c 48 0f 3e 73 71 41 bd
       0.001345044 -0.49374363 0.13992327 -0.047227334
000210 f9 6b 49 be e1 64 cd 3d de de 8a bd 26 0f db 3d
       -0.19670095 0.10029007 -0.0678079 0.10696249
000220 fa 02 44 bd 87 d7 3c bc 21 c9 f6 3b 67 07 18 bf
       -0.0478544 -0.011525995 0.0075313007 -0.59386295
000230 68 26 40 3e f4 0a dd be d9 f4 13 be 24 d2 a6 be
       0.18764651 -0.4317242 -0.1444887 -0.325822
000240 47 59 33 bf 91 cf 88 be 3a c5 63 3e 15 79 9f 3d
       -0.700581 -0.2672086 0.22243205 0.077867664
000250 20 3a 64 3e 27 70 de be 5e 68 bf 3c 42 4c 8d bd
       0.22287798 -0.4344494 0.023365196 -0.06899311
000260 0a d7 79 be dc 38 70 be d8 66 2b be 99 5f 55 be
       -0.24398437 -0.2345919 -0.1673845 -0.20837249
000270 4a c4 09 bf 6e b8 e8 3c 89 53 c9 3d c8 0b 97 3e
       -0.5381514 0.028408255 0.09830386 0.29501176
000280 8e aa ba 3d bc 03 a1 bc fe 0c d2 3d 62 5c 23 bf
       0.09114562 -0.019655101 0.10256384 -0.6381284
000290 96 22 d5 bd b4 00 05 be 77 1f d6 3d 1b 19 9d be
       -0.10406987 -0.1298855 0.1045522 -0.30683216
0002a0 f7 6e 86 be 9b af 82 be b8 90 8a be 5e 42 97 bd
       -0.26256534 -0.255246 -0.27063537 -0.073857054
0002b0 97 8a a0 3e b1 c0 39 3e c1 1e 5c be 0d a4 03 3e
       0.31355736 0.18139912 -0.21496107 0.12855549
0002c0 f0 04 0b be d4 d4 1d bf 7b bc 4a be 99 72 1e be
       -0.13576102 -0.61652875 -0.19798462 -0.15473403
0002d0 51 e3 0d bf 36 eb 78 3e 73 42 66 3e 41 60 8b 3e
       -0.5542498 0.24308476 0.22486286 0.27221873
0002e0 68 b9 03 bd bd 8b 17 3e 02 23 3e bf 69 b6 67 be
       -0.03215924 0.147994 -0.7427217 -0.22628178
0002f0 12 14 01 bf 44 37 9d be ef d6 e0 bd 2b 66 38 be
       -0.5042125 -0.30706227 -0.10978495 -0.18007724
000300 64 f3 02 3e 48 7c 92 3d cd e8 bf bd 93 44 36 be
       0.12788159 0.07152611 -0.09370575 -0.17799596
000310 47 e1 98 bc 0c 38 f6 be f0 0e 46 3f 47 88 36 3c
       -0.018662108 -0.48089635 0.7736654 0.0111408895
000320 a5 da 23 3e a9 5c 12 bf 80 2c a7 be f2 a4 37 3d
       0.16001375 -0.5717264 -0.32651138 0.04483504
000330 84 90 cf be 7a 29 c6 bd 8f 00 3a 3e 3b 27 d6 3c
       -0.40539944 -0.0967588 0.18164276 0.026141753
000340 da e6 93 bd a0 66 61 be 76 96 03 bf ad dd 35 be
       -0.07221766 -0.22011805 -0.5140146 -0.17760344
000350 67 23 e2 3b e6 28 f3 bd 9d 46 5c 3e fa 57 5f 3d
       0.006901193 -0.11873035 0.21511312 0.05452726
000360 22 09 e7 3c 27 ff e3 be 90 78 4e be 9b ce d2 bd
       0.028202597 -0.44530603 -0.20163178 -0.10293313
000370 d3 9e 07 3e 1d 04 dd 3d fe 29 b9 bc ba 76 2c bf
       0.1324418 0.107918 -0.022603031 -0.6736866
000380 ad 67 00 3f d9 2d d9 bc 59 22 c8 bc 19 01 12 bf
       0.50158197 -0.02651112 -0.02443044 -0.57032925
000390 96 6b c9 3c 9f 6d 21 3e e8 8c 06 be c2 f6 a2 3e
       0.024587434 0.15764473 -0.13139689 0.31828886
0003a0 cf d9 92 be 9f 87 82 be 61 b0 31 be e2 02 2f 3f
       -0.286818 -0.25494096 -0.1735244 0.68363774
0003b0 54 b3 a2 3d 2a 5e 42 bc ae b8 fa 3e 66 e3 91 3d
       0.079443604 -0.011863271 0.48969024 0.07123451
0003c0 cf f9 3a 3e 23 2d 05 be a1 4f 15 be a7 8d 46 3e
       0.18259357 -0.130055 -0.14581157 0.19389974
0003d0 aa 93 8d be 18 87 40 bd cc a0 29 bf 51 51 9a 3d
       -0.2765172 -0.047003835 -0.6626098 0.07535041
0003e0 1e bd 88 be ac 38 56 3e 37 08 2f 3e aa 25 16 bf
       -0.26706785 0.20920056 0.17092977 -0.5865122
0003f0 1e 55 f7 3d 49 59 f4 3d 18 ab fc 3d 91 58 d3 be
       0.12076782 0.11931092 0.12337321 -0.41278508

l2.weight f4 [256, 256]
000000 b8 7a f8 3c 5d da 40 bd 66 e0 2a 3d cc 8f 27 bc
       0.030331954 -0.047083247 0.04171791 -0.010227155
000010 c8 34 c3 3c 83 ee 0a bc 34 73 17 bd 05 4c 31 bd
       0.023828879 -0.008479717 -0.0369751 -0.04328539
000020 72 37 f0 3c 35 c6 53 bb ba a2 2a bd 7c f4 e5 bc
       0.029323313 -0.0032314186 -0.041659094 -0.02807068
000030 69 c6 c8 bd 3a 87 40 3d 21 49 ab bd f6 a8 18 bd
       -0.09803469 0.047003962 -0.083635576 -0.03727051
000040 00 d4 75 bd 77 75 d5 3c 78 80 09 3d f8 80 9a 3c
       -0.060016632 0.026056988 0.033569783 0.018860325
000050 cd 9c 3f 3d a5 8b af 3c 7d ac b5 3b 0e 99 46 bc
       0.046780396 0.021428892 0.005544244 -0.012121452
000060 a2 01 12 3d d0 48 f4 bb a9 48 a6 3c 9d 5d e9 bc
       0.03564609 -0.007454969 0.020298319 -0.028487021
000070 15 aa 5e bd a8 8e 30 3d 38 16 bb bc e4 04 f0 bc
       -0.05436142 0.043104798 -0.022837743 -0.029299207
000080 f8 e9 eb 3c b5 7c 9a bd cc d6 c5 3c 61 11 36 bd
       0.028798088 -0.07543317 0.024150275 -0.044450168
000090 4b da 89 bd ae 28 13 bd e8 e7 3f bc d0 e3 79 3c
       -0.06731089 -0.035927467 -0.011713006 0.015252069
0000a0 4c d7 77 bd e8 00 6a bd 71 1d 15 bd 54 65 af 3b
       -0.060508057 -0.05712977 -0.03640503 0.0053526554
0000b0 c6 64 59 bd e2 57 09 3d 04 3b 68 3d b8 5f b6 bc
       -0.05307462 0.033531077 0.056696907 -0.02226244
0000c0 ac 91 5c bd 73 48 08 bd a8 7e 30 bc e8 16 41 bd
       -0.05384986 -0.033272218 -0.010772385 -0.047140986
0000d0 f0 89 39 3d 64 d0 bb bc d8 2a 80 bd dc 1f 11 bd
       0.045297563 -0.022926517 -0.06258172 -0.035430774
0000e0 0f 16 bd bd 0a 11 5c bd 49 ae cc bd e6 66 6b bd
       -0.09232723 -0.053727187 -0.0999418 -0.05747118
0000f0 2b 62 a1 bd c8 30 0e 3c bb a2 65 bd f8 5a cd bd
       -0.07880052 0.008678623 -0.056063395 -0.100271165
000100 12 66 2c 3d 04 d4 d6 bc 1c 09 49 3d ac d3 21 3d
       0.04208953 -0.026224144 0.049080953 0.039508507
000110 5f 63 57 3c 06 e5 4f 3d dc d0 43 3c 9f 11 dc 3b
       0.0131462505 0.050755523 0.011951651 0.006715968
000120 ec dd f9 bc 1e 02 b5 bd 96 e0 de 3c 93 fc 3b bb
       -0.030501328 -0.088382944 0.0272067 -0.0028684482
000130 30 48 99 3b ce 60 fe bc eb ba fe bc 7a c8 53 bd
       0.004677795 -0.03105202 -0.031094989 -0.05170486
000140 c2 b9 70 3d e7 af 24 bc 1c 21 10 bd 75 3a 83 bd
       0.058770902 -0.010051704 -0.035187826 -0.06407634
000150 f8 f4 8b 3c 6c 72 8a 3c 84 5d c9 3c 58 76 8f bd
       0.017084584 0.016900264 0.024580725 -0.07004994
000160 4f dc 6e 3a 9f d8 6c bd f4 6e 9b bc cc d6 ba bd
       0.0009111808 -0.057823773 -0.018973805 -0.091230005
000170 8e 8e fe bb 0e 6b 1b 3d b0 db bd bc 16 c3 bf bd
       -0.0077684587 0.037943892 -0.023176044 -0.093633816
000180 80 d4 3f bd 3f 14 e3 bc 86 e8 be 3c 98 9a 52 3c
       -0.046833515 -0.027719615 0.023304235 0.012854241
000190 a4 b8 b1 bc c5 f0 49 bc b4 cc 21 bc d8 f0 2c bd
       -0.021694489 -0.01232547 -0.009875465 -0.042221874
0001a0 44 32 0e bd 88 7b 93 3c 6c 46 77 bd f0 54 fb 3b
       -0.034715906 0.01800324 -0.060369894 0.0076700374
0001b0 84 35 cf bc b4 76 4c bc 2b 1f 98 3a ac e2 9c bc
       -0.025294073 -0.012479473 0.0011605968 -0.019151054
0001c0 e9 2f 88 bd 8e 2c 74 bd 00 4e ca bc 30 9f be 3c
       -0.06649763 -0.059612803 -0.024695396 0.023269266
0001d0 00 eb 00 bc 14 39 d2 3c 52 aa a4 3c ca 66 59 3d
       -0.007868528 0.025661983 0.020100746 0.053076543
0001e0 61 b0 da bc 5f 73 d6 bb bc 6c f1 3c 26 59 1c bd
       -0.026695432 -0.006544515 0.029470794 -0.038170956
0001f0 30 a5 e1 3c 5f a2 0c bd 07 c9 28 bd 80 57 9f bd
       0.027544588 -0.034334537 -0.04120734 -0.07780361
000200 76 8c 3c 3c 6b b1 e6 bc 72 a9 25 3d 71 05 b8 bd
       0.011508098 -0.028160771 0.0404448 -0.08985413
000210 b1 c2 4c bc 17 37 96 3c f8 35 21 bd ae 36 32 3d
       -0.01249759 0.018336816 -0.03935811 0.043509178
000220 88 7c 8e bd 3c b8 d7 3c 00 02 3a ba de d0 b1 3c
       -0.06957346 0.026332967 -0.0007095635 0.021706041
000230 df 67 d5 3c 24 c2 b2 3c 52 8a 7c bd c7 c0 c4 3b
       0.026050506 0.02182109 -0.06165535 0.006004426
000240 6d 78 1d bd 8d f1 0e 3d e0 13 51 3c 81 40 1d bd
       -0.038444925 0.03489833 0.012761086 -0.038391594
000250 10 91 d6 3c 48 23 5d 3d 92 5f 25 3d 9c 0c 42 3c
       0.026192218 0.053988725 0.040374346 0.011843827
000260 54 2b 95 bc d8 9f 62 bc 7a 33 f9 bc fe 22 61 bd
       -0.018209137 -0.013832055 -0.030420054 -0.05496501
000270 97 08 ba 3a 6f c6 bb 3c 0a 9e 69 bd e0 58 93 bd
       0.0014193234 0.022921769 -0.057035483 -0.07194686
000280 17 28 9c 3c 9a 6e 5d 3c 04 98 3d bd 9e fc 3e 3c
       0.019062085 0.013515139 -0.04628755 0.011656908
000290 60 5e 9a bc 39 63 a6 bc 6e fc 70 bc 7d e1 dc 3c
       -0.01884383 -0.020310985 -0.014708621 0.02696299
0002a0 33 7b 2f 3d f8 f5 f3 bc f8 d2 bc bc d1 6a b8 bd
       0.0428421 -0.029780373 -0.023049816 -0.090047486
0002b0 27 23 d9 bc c4 63 43 bd 01 7f 33 bc 44 76 fd 3c
       -0.02650602 -0.047702566 -0.010955573 0.030940183
0002c0 7b f0 be 3c 2e 6b 47 bd 9b f4 ab bc 60 57 6e 3d
       0.02330803 -0.0486862 -0.02099066 0.058188796
0002d0 40 5b 46 3b 27 49 9f bd 9c f1 6d bd d0 bf da bb
       0.0030266792 -0.077776246 -0.058091745 -0.006675698
0002e0 a8 a0 b2 bd a0 27 98 bd 90 72 6a b9 4f d8 eb 3c
       -0.08722049 -0.07429433 -0.00022358657 0.028789667
0002f0 3b 27 f8 3a 34 5a d3 3c 2c 0f 35 3d b0 f2 92 3b
       0.001893259 0.025799848 0.044203922 0.004484497
000300 80 57 dd 3c 87 16 47 bd 03 cc 46 bd 1d 51 b3 bc
       0.027019262 -0.048605468 -0.048534404 -0.021889264
000310 e1 af 23 bd 73 ee 11 bd 11 d5 eb 3c 10 60 6c bc
       -0.039962653 -0.035627794 0.028788121 -0.0144272
000320 ec 34 42 3d 29 b7 79 bd 6f ac b0 bd 2e 78 68 3d
       0.04741375 -0.06096569 -0.08626639 0.056755237
000330 05 e5 40 bc be 0f 3d 3d ca d3 7d bd 62 d7 2a 3d
       -0.0117733525 0.04615759 -0.061969556 0.04170931
000340 7d 50 b1 bc 1d b7 93 bd e2 99 37 bd 0e 3c a4 3c
       -0.021644825 -0.072126605 -0.04482449 0.020048168
000350 a1 fa 58 bd 1a 97 8d bd e0 6c 4a bd 35 7b 0a bd
       -0.052973393 -0.06913586 -0.049420238 -0.033808906
000360 46 81 3d 3d d3 d4 3b 3c a5 2d c1 3c c0 88 75 3d
       0.046265863 0.0114643155 0.023581335 0.059944868
000370 0a f4 2f 3d e7 2f 62 3c 57 63 0e 3d 22 65 b2 bd
       0.042957343 0.013805366 0.034762707 -0.08710696
000380 0f f3 c5 bc c9 4f 42 bc ed 7b 04 bd 8d 55 a7 bd
       -0.024163751 -0.011859843 -0.032344747 -0.081706144
000390 78 fc d8 bc cc 6f 3a 3d 40 c9 9e 3a 6e 30 6b bd
       -0.026487574 0.045516774 0.001211442 -0.057419233
0003a0 82 c4 dc 3c d8 f4 e7 3c 90 f3 0c bd 52 7c 17 3d
       0.026949171 0.028314993 -0.034411967 0.036983795
0003b0 10 31 2a bd f3 16 14 bd ba eb 09 bb f8 ec 00 bd
       -0.041550696 -0.0361547 -0.0021045045 -0.03147599
0003c0 40 6c f1 bb 08 8e bd 3c 90 dc ff bb 7f 51 95 bd
       -0.0073676407 0.023139015 -0.0078082755 -0.07290935
0003d0 c6 1e 3a 3d 70 45 24 3d 29 bf 86 bd a0 e4 06 3c
       0.045439504 0.040105283 -0.0657943 0.008233219
0003e0 2c be 4f bd ef d9 71 bd ec 0c 7b 3d 7d 2c 00 bd
       -0.05071847 -0.05904573 0.06129162 -0.031292427
0003f0 b4 84 2b bd 82 24 45 bd e2 e0 74 3d a6 d1 81 bb
       -0.041874602 -0.04813052 0.059784777 -0.0039617596

l2.bias f4 [256]
000000 44 e5 cb 3c d8 ec ea bd a0 8a 93 bb 65 86 87 be
       0.024889596 -0.114709556 -0.0045026094 -0.26469722
000010 c1 4a cf 3a 88 e4 b5 ba c3 b6 da be d0 74 e1 3b
       0.0015815125 -0.0013877312 -0.4271756 0.00688038
000020 59 18 27 3d 4e fb be be 08 fe 2f bd 3b b9 27 bd
       0.040794704 -0.37301105 -0.042966872 -0.040948134
000030 f1 be fd 3c bb 48 b8 ba 93 6e 9a be 34 64 6e 3c
       0.030974837 -0.0014059761 -0.30162486 0.0145502575
000040 e7 5b 5e be 95 d3 bc bc 80 dd 0b bc ab 6f f1 bc
       -0.21714745 -0.023050109 -0.008536696 -0.029472193
000050 49 89 b2 be 06 43 83 3b 7e b1 b7 bc 6e fc a7 bc
       -0.34870365 0.0040057926 -0.022423502 -0.02050611
000060 85 82 a1 be 49 9a a9 3c b7 62 9b be 42 ca 0c 3d
       -0.3154489 0.020703452 -0.3034875 0.034372576
000070 99 5a d7 3c 98 e0 67 3d 60 52 9f be cb 50 5b bd
       0.026288318 0.056610674 -0.31117535 -0.053543847
000080 41 9f e0 b8 9c f5 9b be ac 4a cc 3c 58 3f 3d bd
       -0.00010710816 -0.30460823 0.02493795 -0.046202987
000090 b0 aa 99 3b 86 9b 1b bd ca 97 3e bd 66 c2 8b bd
       0.004689537 -0.037990116 -0.046531476 -0.06824188
0000a0 6a 92 5d 3d 3f 75 ad be 54 c7 ec 3c 78 d9 35 bd
       0.05409471 -0.33878514 0.02890364 -0.044396847
0000b0 f0 cd 45 bd 85 a5 f6 bd 51 41 ec bd fb c6 86 be
       -0.0482921 -0.12043289 -0.115358956 -0.26323685
0000c0 4a 49 d1 bd a1 6c ab be 92 df 62 bc f1 b2 07 3d
       -0.10219057 -0.33481315 -0.013847249 0.033129636
0000d0 61 97 85 3c b1 29 2e bd 4a 18 0d bd 9e 7b 81 be
       0.016307535 -0.04252023 -0.034446992 -0.25289625
0000e0 42 76 3d bd 20 7f c0 3c d8 5d fe 3d 92 06 85 bc
       -0.046255358 0.023498118 0.12420243 -0.016238485
0000f0 7d 89 bd be 90 3d a3 bd 9b f9 34 bd c0 9e 94 3c
       -0.37018958 -0.079707265 -0.044183355 0.018142104
000100 f3 e7 7b bd 30 ea 01 be 0e f2 d0 bc ae db 98 bd
       -0.0615005 -0.12686992 -0.025506046 -0.074637756
000110 b1 3d 67 bd 0c e8 84 3b 07 cb 78 3d 3a e5 8f bc
       -0.056455318 0.0040559825 0.060740497 -0.017565358
000120 f4 8c c3 ba 1d 2e c0 be 01 75 d7 3b eb 49 2c 3d
       -0.0014919327 -0.37535182 0.0065752272 0.04206268
000130 82 8a 03 3c 1a d1 3f 3d 7e b1 f5 3c a9 64 4c be
       0.008028628 0.046830274 0.029991861 -0.19960274
000140 60 65 37 bd 64 9d cd bd 5d c2 b2 bc 88 77 bc bc
       -0.044774413 -0.100397855 -0.021821195 -0.023006216
000150 bc c2 88 bd ac 1b 9c bd 37 a7 0d 3d 6e c3 71 3c
       -0.06677768 -0.076224655 0.034583297 0.014756067
000160 14 fa 09 be 15 b1 76 bc 20 f7 4e bd b4 31 81 bd
       -0.13474303 -0.015056868 -0.050528646 -0.06308308
000170 7c 18 be 3c f9 d6 b7 bd 48 c7 d4 be 07 cf 5a 3c
       0.023205034 -0.0897655 -0.4155829 0.013355023
000180 6f 31 0a 3b d2 91 39 bd a2 c9 38 3c 3c 50 58 bd
       0.0021086594 -0.04530508 0.011278542 -0.052810892
000190 55 fb 02 3d e8 8d 63 3c d2 f4 a3 bd 62 c8 95 3c
       0.03197797 0.013888814 -0.0800568 0.018284027
0001a0 23 cb 6e 3c 96 f0 b7 be b8 83 6b bc 04 4b b8 3c
       0.014574799 -0.3592574 -0.014374666 0.022496708
0001b0 b2 2d 45 be c4 b0 74 be c6 c1 dc 3c 2d 5e 44 bd
       -0.19255713 -0.23895556 0.026947867 -0.047941376
0001c0 c7 f8 16 be 1a ba fb bb ca 54 71 bd 86 cd 91 bc
       -0.14743339 -0.007682097 -0.05891875 -0.017798197
0001d0 0a 36 aa 3c bb 04 29 bd d0 8c b8 be 55 32 da bc
       0.020777721 -0.041264277 -0.3604493 -0.026635328
0001e0 34 f5 6c bd 18 c3 48 be e8 b6 4d 3d 50 60 66 bd
       -0.05785103 -0.19605672 0.05022326 -0.056244195
0001f0 82 9c 2e bd 7a 00 57 bd f9 24 b2 bc d9 fa 5e bd
       -0.042629726 -0.05249069 -0.021746146 -0.054438446
000200 bf 20 7c bd 56 d1 2e bd cc ad a4 3c 1b 33 d6 3c
       -0.061554667 -0.042680107 0.020102404 0.026147416
000210 6c d2 b8 be f2 8c 4e bd b0 bb ec bc f7 b0 55 bd
       -0.3609804 -0.050427385 -0.02889809 -0.05217072
000220 f3 5d 91 be 61 27 99 3c 7f df 09 bc ca 5d 23 bc
       -0.2839199 0.018695535 -0.008415102 -0.0099710915
000230 bb 7d e8 be ce 20 1c bd d5 b0 50 3c 01 56 90 bd
       -0.45408425 -0.038117222 0.012737473 -0.07047654
000240 24 71 52 bd a3 3d 63 3d 9e 0a 54 bc 26 c1 45 3d
       -0.05137743 0.055478703 -0.012941984 0.048279904
000250 94 4c 77 bd d1 2d e9 3c b1 5e 3b bc 32 28 7a bc
       -0.060375765 0.02846423 -0.01143615 -0.015268372
000260 4a a8 8f 3c 6f 43 6a 3d d5 93 97 be 18 1a 09 bd
       0.017536301 0.057193216 -0.29604974 -0.03347215
000270 66 f8 59 bd 3d 1d c7 bb 33 f9 cb bd c9 d5 3c bc
       -0.053215407 -0.0060764835 -0.0995964 -0.01152558
000280 20 3b 2f 3b 5a 16 b6 be 86 42 64 3c 70 2a b9 3c
       0.0026738122 -0.35563928 0.013931876 0.022603244
000290 1c 76 7d bc 1c 5c 0f 3c 76 73 a6 be 34 cc 26 bd
       -0.015470054 0.008749988 -0.32509965 -0.040722087
0002a0 0e 4f de 3c 38 f8 d1 bc e8 dc c8 bc 3a 83 a8 be
       0.027137306 -0.025631055 -0.024519399 -0.32912618
0002b0 77 bf a9 3c d1 6f 7a 3c 10 2a 03 3c 7a e6 21 bd
       0.02072118 0.015285448 0.008005634 -0.03952644
0002c0 69 86 de bd 8c 9f d8 3c dc 27 52 3d 95 62 d7 bd
       -0.108654805 0.026443265 0.051307544 -0.1051685
0002d0 45 c1 10 3c 12 f3 87 bd 58 7b 46 bd af 54 ec 3d
       0.008835142 -0.06638159 -0.048457474 0.115395896
0002e0 b5 53 9e bd 00 7a 72 3c 74 67 9f be 1a 06 50 bd
       -0.077308096 0.014799595 -0.31133616 -0.05078707
0002f0 43 4d 6a 3b 53 f2 50 bd f5 e3 94 be 40 c1 72 bc
       0.0035751618 -0.05101235 -0.29080167 -0.014816582
000300 09 da e3 3c d1 a5 35 3c 7f ec 15 3d ad 3e a7 bd
       0.027813928 0.011086897 0.036602493 -0.08166251
000310 7b 33 fb bd 5c 56 50 bb c0 35 cf 3c 0c fa 48 ba
       -0.122656785 -0.0031789755 0.025294185 -0.00076666544
000320 a6 fc 61 bd 90 c0 7f bd 82 04 75 3d a0 fc 3c 3b
       -0.055172585 -0.0624395 0.059818752 0.00288371
000330 92 e8 c4 bc e4 51 1c 3b f3 60 8f be 49 4a 9b be
       -0.02403668 0.0023852522 -0.28003654 -0.30330113
000340 12 20 08 bb 42 42 0d bd 72 9a cf bd 33 64 06 bd
       -0.0020771069 -0.034487016 -0.1013688 -0.0328104
000350 e3 14 b8 bc bb 9f de bc b6 3b a5 3c 51 a1 ef bd
       -0.022470897 -0.027175775 0.020170074 -0.117006905
000360 28 f6 20 3c b0 7e 3a 3b cc de cb bc e6 04 8d bc
       0.009824313 0.002845686 -0.024886511 -0.01721425
000370 2c 60 bf be 7c e4 1e 3c 3c c7 b6 3c a1 84 52 bd
       -0.3737806 0.00969803 0.0223118 -0.051396016
000380 6a 1b 40 3d 81 dd 1a bd 23 41 b5 bd d5 f9 a0 be
       0.046901144 -0.0378089 -0.088503145 -0.31440607
000390 95 bf bf bd f8 60 1f bd e4 ef c1 be 56 bf cd 3c
       -0.09362713 -0.038910836 -0.37878335 0.02511565
0003a0 1b 56 c4 bc 3d bd 8a bd bf f8 69 be 44 c6 92 bd
       -0.02396684 -0.067743756 -0.22848795 -0.071667224
0003b0 0b ab 23 3d 36 f7 0a bd 1d f9 39 bc 04 14 e8 3b
       0.03995804 -0.033927165 -0.011350897 0.007082464
0003c0 ed 89 8e be 88 35 07 bc db c5 00 bd 5b f3 77 bd
       -0.27839604 -0.008252509 -0.03143869 -0.060534816
0003d0 a3 53 60 bd 5c 51 db bd 7c 88 b2 3c 78 6d f3 bc
       -0.054767262 -0.107088774 0.021793596 -0.029715285
0003e0 26 70 39 bd 25 e0 8c bd aa f9 41 bd 9a 72 a3 be
       -0.04527297 -0.0687869 -0.04735724 -0.31923372
0003f0 be 69 77 3d 40 79 b2 bc 87 46 33 bd fc 2a 34 bd
       0.060403578 -0.021786332 -0.043768432 -0.043986306

l3.weight f4 [256, 256]
000000 3f 55 9b bd 8b aa 2e be cc 60 76 ba 54 d3 12 bc
       -0.07584619 -0.17057244 -0.0009398579 -0.008961517
000010 6d da b9 bb 8b 3b 34 3d 22 de fb bd c1 2b a9 3d
       -0.0056717903 0.044002097 -0.12298228 0.082602985
000020 63 5f ff bb 81 a8 3b be 4c 87 47 bd c1 cc 33 bc
       -0.0077933534 -0.18325998 -0.048713014 -0.01097411
000030 cf a1 5e bd 83 fb a5 bc 75 9a 70 bc 40 8c 73 bb
       -0.05435353 -0.020261532 -0.014685263 -0.0037162453
000040 cb 5f d6 bd 40 ca 6b bd 2e 9c 44 3d e8 b3 42 3d
       -0.1046749 -0.057565928 0.048000507 0.047534853
000050 4e c5 77 be b7 d0 49 bd 80 88 cb 3b 36 64 63 bd
       -0.2419636 -0.04927131 0.0062113404 -0.05551549
000060 9d e0 0c be 07 03 9d bc 11 5c 74 be 42 b0 26 3d
       -0.13757558 -0.019166483 -0.23863246 0.040695436
000070 00 9f 27 bd a0 3c 0c bd cc bc 13 be a2 60 e5 bc
       -0.04092312 -0.034237504 -0.14427489 -0.02800018
000080 34 96 31 bd 42 5a 43 be e4 fa 97 3c 56 81 64 bd
       -0.043356135 -0.190774 0.018552251 -0.055787407
000090 fe 51 44 3d 10 f0 a6 3c de 46 01 3d 6e 62 a9 bb
       0.047929756 0.020378143 0.031561725 -0.0051692044
0000a0 b2 f4 5f bd fb da 9a be 95 fc d2 bc 54 92 c0 3b
       -0.05467672 -0.30245194 -0.025755206 0.0058768187
0000b0 11 23 54 bc c1 cc d1 3c 3a 02 9c 3c 86 c0 1d bd
       -0.012947814 0.02561033 0.01904403 -0.038513683
0000c0 20 19 12 bc 0a 9b 19 be 8a 0a 4c 3d b7 56 e3 3c
       -0.008917123 -0.15000549 0.04981474 0.02775131
0000d0 19 a6 f9 3c 6b b2 a2 bc 84 01 86 bd bb 6b e1 bd
       0.03047471 -0.019860467 -0.06543258 -0.11006876
0000e0 ab 7c 63 3c 40 7d 57 bc 80 50 75 be 1c da cb 3c
       0.013884704 -0.0131524205 -0.2395649 0.024884276
0000f0 aa 0a 8d be 7e 9c 42 bd 96 0a 94 bd 58 e9 c1 bc
       -0.275472 -0.047512524 -0.072285816 -0.023670837
000100 12 ab 24 bd 89 18 4a bd 8f e1 c3 bb 58 ce 0b 3c
       -0.040202208 -0.049339805 -0.0059778164 0.008533083
000110 2d 23 36 3b 49 1f 7e 3d 6e 46 3b 3d d0 94 31 bc
       0.0027791962 0.062041555 0.045721464 -0.010838702
000120 c1 52 66 3b 7a 87 97 be 37 37 29 3d c4 f0 91 3c
       0.003514454 -0.29595548 0.041312423 0.017815001
000130 08 fb 91 3c 24 64 67 bd 91 67 2f bc c8 c3 86 bd
       0.017819896 -0.056491986 -0.0107058445 -0.06580311
000140 c8 ec 4d 3d a0 db 8f bc 77 74 ba bc 6d 76 96 3b
       0.05027464 -0.01756078 -0.022760613 0.004591754
000150 c4 b2 a7 bc 08 c3 fe 3a 72 71 fc bb 70 a8 f5 bb
       -0.020470984 0.0019436786 -0.0077039534 -0.007496886
000160 28 6c 72 bd d1 5d a1 bb f2 85 13 bd aa a5 13 bd
       -0.059185177 -0.004924514 -0.036016412 -0.03604666
000170 dc c9 eb 3c 81 ae 53 bc c4 d6 5e bd 30 aa b9 3b
       0.028782777 -0.012920023 -0.054404035 0.00566604
000180 fe db 5c bd 18 5e 65 3d 17 10 46 3d 6e 0f 36 3d
       -0.05392074 0.055997938 0.04835519 0.04444831
000190 c5 ea a6 bc c2 57 67 bd 70 ea 12 3b cc b4 7c 3d
       -0.020375619 -0.056480177 0.0022417568 0.06169586
0001a0 65 44 eb 3c e6 ce 47 be ec 34 03 3d 88 81 26 bd
       0.028719136 -0.19512519 0.032032892 -0.040650874
0001b0 8e f2 15 be 01 32 a1 bc 82 6b 6a bd 62 9d 1a 3d
       -0.14643309 -0.019677164 -0.057231434 0.03774775
0001c0 ac 60 47 3d aa 32 7c bd 23 ea bd bc 0a b8 28 bb
       0.048676178 -0.061571755 -0.023182934 -0.0025744461
0001d0 7d 96 95 bc 42 82 1f bd d9 49 45 be 5d 7b 29 bd
       -0.018260235 -0.038942583 -0.19266452 -0.041377414
0001e0 42 ec 3d 3d 66 aa c7 bc 6f e6 01 3c a0 a2 dc bc
       0.04636789 -0.024373244 0.007928475 -0.026933014
0001f0 d3 1e 0e bc 07 20 bb bc ea b8 0a 3d c9 fb 3b 3d
       -0.008674341 -0.02284242 0.033867754 0.045894418
000200 fa d1 7f 3c ab bc 36 bc 1c 68 be bc 91 91 0d bd
       0.015614027 -0.01115338 -0.023243003 -0.03456265
000210 fc 5e 7b be 00 80 44 ba 0c 24 4b 3d af c4 63 3d
       -0.24547952 -0.000749588 0.049594924 0.055607494
000220 b0 0e f5 bd dc 99 76 bc ca fe 3e bd 52 d2 03 3d
       -0.11965692 -0.015051331 -0.046629705 0.032183
000230 f7 4c 75 bd b8 08 5a bd f2 d4 3e bd 7c 33 d9 3c
       -0.059887853 -0.05323097 -0.0465898 0.026513807
000240 18 1b 62 3d 45 be 98 3b 7e cd 8f 3c 3a ff 74 3d
       0.05520162 0.004661354 0.017554041 0.059813716
000250 01 52 51 3a 86 82 23 bd f8 c7 59 bc 14 9d 4d bd
       0.0007984937 -0.0399194 -0.013292305 -0.05019863
000260 7c 16 45 bd d2 c9 e1 bb 20 24 b8 bd 05 7b 23 3c
       -0.048117146 -0.006890514 -0.08991265 0.009978061
000270 68 2e 23 3d 0b 8d b5 3c aa 0d 98 bd f8 1f 74 bc
       0.03983918 0.022161981 -0.07424481 -0.0149002
000280 95 5a 7d bc 0e 29 78 be 78 74 da bc 18 0c 4e bc
       -0.015463491 -0.24234411 -0.026666865 -0.012576126
000290 b6 9a 3c bd 02 87 6e 3c 5e 1b aa bd 29 42 b2 3c
       -0.04604598 0.014558556 -0.08306001 0.021760063
0002a0 93 a6 75 bd ee d4 7e bd 9e b9 81 3c 2c bd ed 3b
       -0.05997331 -0.062214784 0.01583558 0.007255217
0002b0 f8 c3 32 3c 93 32 73 3d 76 f1 54 3d 70 50 03 bd
       0.01091098 0.059374403 0.051988088 -0.032059133
0002c0 9f 54 3d 3c 30 3d 88 bb 4a be 29 bd 7e 29 a4 bd
       0.01155582 -0.0041576847 -0.04144124 -0.080157265
0002d0 6e 9b 16 bd b4 87 50 3d dc bf 34 3d 88 f3 ed 3d
       -0.036769323 0.050910667 0.044128284 0.116187155
0002e0 1b d7 f9 3c 8c b5 87 bc 1e a4 d7 bd bc f9 a3 bd
       0.030498078 -0.01656606 -0.1052935 -0.080066174
0002f0 b6 d0 04 3d 78 e8 69 3b cd 32 38 be 3e 8d 40 bd
       0.032425605 0.003569154 -0.17988129 -0.0470097
000300 1d a5 36 3b f1 52 88 bc eb 04 a3 bc f4 66 69 bd
       0.0027869411 -0.016641112 -0.019899806 -0.05698295
000310 58 55 60 3c 8a 6c 77 bd 50 1c c1 bb a5 e4 2e bd
       0.013692223 -0.060406245 -0.0058932677 -0.04269852
000320 86 4e a1 3c d0 1e ab bc c0 ef 53 3c d0 a0 ff bc
       0.019690763 -0.020888716 0.012935579 -0.031204611
000330 2b c1 5b 3d 52 d4 78 3c 08 a5 68 3e bd cf 8f be
       0.053651016 0.01518734 0.22719204 -0.2808818
000340 a8 05 52 3d 55 40 ff 3a 1e b6 7f bc c3 03 7c bc
       0.051274925 0.0019474128 -0.015607385 -0.015381756
000350 b8 68 40 3d ec ae a2 bc 46 0f bf 3c 2f f3 f1 bc
       0.046974868 -0.0198588 0.023322713 -0.029534904
000360 68 01 52 3c 2d e7 66 bd ae e0 c7 bc 4a 55 4c 3c
       0.012817718 -0.05637281 -0.024399128 0.012471506
000370 19 f4 82 be cd 1e 3b bd b5 5d 10 bc 3d 11 8d 3d
       -0.25576857 -0.04568367 -0.008811404 0.068880536
000380 10 12 c5 3c 41 fd 20 3d ae 72 19 bb d2 56 91 be
       0.024056464 0.03930402 -0.0023414302 -0.2838655
000390 44 79 82 3c 6c c4 9a 3c c9 dd a9 bd a9 cf 3d bc
       0.015926965 0.01889249 -0.08294255 -0.011585155
0003a0 b7 1d 09 3d 45 8b 3d 3c 8b 26 a3 bb cc ef f8 3a
       0.033475604 0.011568849 -0.00497896 0.0018992363
0003b0 ec 8d a7 3c 0a e3 3b bd 59 ba 43 bd 62 88 96 3c
       0.020453416 -0.04587082 -0.047785137 0.01837558
0003c0 9e ae 04 3d 38 6a 5f bc 46 aa 8d bd 15 73 63 3c
       0.03239309 -0.013636164 -0.06917243 0.013882418
0003d0 04 0d bd 3c c8 e2 d8 3c 77 6f ea bc 10 ad a4 bb
       0.023077495 0.026475325 -0.028617604 -0.0050255135
0003e0 5d 34 97 bd 5a 16 81 3c 31 7f 17 bd 4b f1 a0 be
       -0.073830344 0.015757728 -0.036986534 -0.31434092
0003f0 9e 95 61 bd b0 14 03 3d 48 1d 57 bc 86 2d 1e 3d
       -0.055074327 0.03200215 -0.01312954 0.038617633

l3.bias f4 [256]
000000 f7 78 41 bd 7a 7a 09 bd 8e 9a 97 bd 66 3f 75 bd
       -0.0472345 -0.03356407 -0.07402526 -0.059874915
000010 6d a1 0a 3d fc 65 69 bd 9f 3b b3 bd 70 52 91 be
       0.033845354 -0.056982026 -0.08751606 -0.28383207
000020 28 a6 a1 bc 3a a2 65 bd 67 eb b3 be 1e 73 66 bd
       -0.01973255 -0.056062914 -0.35140535 -0.056262128
000030 95 74 99 be 15 0e 8d bd 91 94 4b 3d d1 35 6a be
       -0.29971758 -0.068874516 0.04970223 -0.22872092
000040 b4 6a b1 bd 26 74 2b 3c 9f a3 0a bc 10 3d 6c be
       -0.0866293 0.010464704 -0.008461862 -0.23070168
000050 fe 39 bb bd 25 a8 80 be 9f 2f 25 be 8e ed 5b bd
       -0.091419205 -0.25128284 -0.16131447 -0.053693347
000060 c0 d9 af 3d f5 8a 0b 3d 52 79 56 bd 27 9a 59 3d
       0.085864544 0.034068067 -0.052361794 0.053125527
000070 ef 55 a8 be b5 17 e5 3c 18 5c d6 bd e0 37 5e be
       -0.32878062 0.027965406 -0.10466784 -0.21701002
000080 98 76 f6 bc 58 11 e1 bc e3 49 61 bc 80 d5 81 bd
       -0.030085847 -0.02747409 -0.013750526 -0.0633955
000090 0b 5c 4e 3c 26 54 60 be 6a ab b3 be cf 6c 62 bd
       0.012595187 -0.219071 -0.35091716 -0.05527955
0000a0 6b 53 91 bd 8f ba 84 3c 6d a5 e4 bd 26 40 fd 3c
       -0.07095989 0.01620224 -0.11164365 0.030914377
0000b0 d5 99 83 be 67 aa f7 bc 54 38 27 3d 1e 92 17 3d
       -0.25703302 -0.030232621 0.040825203 0.037004583
0000c0 54 f9 04 be 2d aa e4 bb 5a ae 26 3c ef a0 4c 3c
       -0.12985736 -0.0069782943 0.010173405 0.012489541
0000d0 38 e9 18 be 5c 9a 18 bd a5 55 67 bd f5 e3 f3 bc
       -0.14932716 -0.037256584 -0.05647816 -0.029771784
0000e0 63 79 85 bd 93 5e cd bc b7 5b bc bb fe fb 89 be
       -0.06517293 -0.02506951 -0.005748238 -0.26950067
0000f0 03 d5 b3 bc 64 53 45 bd 8f 94 68 be 5f 84 87 bd
       -0.021952158 -0.04817523 -0.2271292 -0.06617045
000100 83 63 c6 3c d3 fd 32 3d 35 f5 9a ba 65 7d 0f bd
       0.024217373 0.043699097 -0.0011822345 -0.035031695
000110 60 c2 f8 bc ca 51 a4 bd d9 0d e8 3c a3 f9 77 3e
       -0.030366123 -0.080234125 0.028326916 0.24216323
000120 54 62 e7 3c a6 0f 51 bd d1 2c 67 be a0 1e 7e bd
       0.028245129 -0.051040314 -0.2257569 -0.062040925
000130 82 fc 8b bd 1e 69 99 3c 54 ec ab bc 9d 78 d4 3c
       -0.068352714 0.018726882 -0.020986713 0.02593642
000140 39 08 f1 bc 58 68 0b bd 2f c9 ae bd 83 d0 8d bd
       -0.029422866 -0.034035057 -0.085344665 -0.06924536
000150 e7 35 e0 bd 04 e8 dc bc 12 64 97 bd ba 3c 03 3d
       -0.10947781 -0.026966102 -0.07392134 0.032040335
000160 4c 95 50 be fc 25 a4 be 7e 1c 87 3c 6e f4 28 bd
       -0.20369452 -0.3206023 0.016493078 -0.04124873
000170 3c c7 1e bd 36 d1 9a be 49 a2 93 be ea 52 9f bd
       -0.038764223 -0.3023774 -0.2883475 -0.077794865
000180 70 92 8b be 1f db 7b bd a1 a3 94 bd 75 8a da 3c
       -0.2726016 -0.061488267 -0.07257772 0.02667735
000190 50 27 1d bd 33 e4 03 bc b2 a6 18 3c 64 7d 98 bd
       -0.03836757 -0.008050012 0.009317087 -0.07445791
0001a0 72 6b 04 3e 74 41 6d bc 9a 9c 8f be 70 bf 0f bd
       0.12931612 -0.014480937 -0.28049165 -0.03509468
0001b0 7c 77 e1 3d f6 18 9f 3a 69 c9 89 be b1 3e 3f bd
       0.11009118 0.0012138176 -0.26911476 -0.046690647
0001c0 ab 9c 4e 3c be 0f 1d 3d a3 03 a0 be 22 ac 86 bd
       0.012610595 0.03834509 -0.31252775 -0.065758005
0001d0 35 39 3f be da 71 29 3d 8d e3 88 be e1 02 02 3d
       -0.18674167 0.041368343 -0.26736107 0.031741027
0001e0 b5 d9 a6 bd 4b 80 55 bc 32 da 6e bd c3 95 56 be
       -0.08146993 -0.013031076 -0.058313556 -0.20955567
0001f0 00 11 3a be 6e 3a 8f bd 72 da 4d bd 6b 60 90 bc
       -0.18170547 -0.069935665 -0.050257154 -0.0176241
000200 3e 48 ef 3c 0c b7 09 bd 44 e8 6b be f6 64 92 be
       0.029209252 -0.033621833 -0.23037821 -0.28592652
000210 fc 29 20 bc 35 b1 39 3d 7e 44 76 be 93 fe f8 bd
       -0.009775635 0.045335013 -0.24049565 -0.12157931
000220 81 5d 05 bd 53 3b e5 bd 46 3e 26 bd 83 61 db 3d
       -0.032559875 -0.11192956 -0.040586732 0.10711958
000230 48 3f 8b bc db e3 4f be 12 38 1d bd dd a1 8d bd
       -0.016997948 -0.20301764 -0.03838355 -0.069156386
000240 3b 10 0b bd 93 ed 4e bc e3 32 05 3d 5e 19 ff bd
       -0.033951025 -0.012629884 0.032519232 -0.1245601
000250 cb 3b 87 bd 73 48 b4 bd 1a df 50 bd 86 86 8d be
       -0.066032015 -0.08802881 -0.050994016 -0.27641696
000260 3a 23 4a bc 2c 64 1d 3d 07 48 60 bd 67 d3 38 bd
       -0.0123375 0.03842561 -0.05475619 -0.045123484
000270 bb 2a aa bc 66 f4 04 bd 53 36 61 3b 58 89 99 be
       -0.020772329 -0.03245964 0.0034364655 -0.29987597
000280 60 a7 8e be 3d c6 11 be b1 2c ac bd 60 c9 ac bc
       -0.27862072 -0.14235778 -0.08406962 -0.021092117
000290 9a 02 87 bc df ac ec bc f5 0f d9 bc f9 7a 98 bd
       -0.016480733 -0.028891025 -0.026496867 -0.0744533
0002a0 35 21 65 bd 3a 21 e7 3c fe f8 4f bd 4c e4 e0 bd
       -0.05593987 0.028214086 -0.050774567 -0.10981044
0002b0 15 fa 51 3d d1 87 8d bc f4 f0 e1 bd 7b fd 09 bc
       0.051263887 -0.017276676 -0.11032286 -0.008422251
0002c0 eb 0d 08 be ee 80 c6 bd 9c 33 d7 bd 30 6c 42 bd
       -0.1328656 -0.0969256 -0.105078906 -0.047466457
0002d0 cf bf de 3c 66 24 35 3d c7 59 40 be bc 14 1e 3c
       0.02719107 0.044224165 -0.18784247 0.009648498
0002e0 1e 6b f6 bd d6 f4 90 bc 7a 1e 8c be ad cc 20 bd
       -0.1203215 -0.017694872 -0.27367002 -0.039257694
0002f0 43 d9 b6 3c 4c df a8 be d9 b0 89 be c6 14 4b bd
       0.022320395 -0.32982862 -0.26892737 -0.049580358
000300 7b b2 05 3d 90 01 4f 3d 25 8d 67 bd db d5 a9 3a
       0.032640915 0.0505386 -0.05653109 0.0012957411
000310 69 0d dd 3c 76 a3 a7 be 44 25 88 bc ec 2e 82 bc
       0.026983934 -0.32741898 -0.016619332 -0.015891515
000320 55 86 66 3b 79 f8 95 bc 87 e1 08 bd 32 d3 8d bd
       0.0035175283 -0.018306958 -0.033418205 -0.06925048
000330 be 18 89 bb 31 e7 74 bd e5 42 a9 bc 70 09 86 be
       -0.0041838577 -0.059790794 -0.02066178 -0.26179075
000340 ab 98 9d be 8c b1 87 bd 02 f8 1e 3d b4 78 8e 3c
       -0.3078054 -0.06625661 0.038810737 0.01739154
000350 d9 92 94 be 32 b0 32 be e6 e7 2a bd 62 af 80 be
       -0.29018286 -0.17450026 -0.04172506 -0.25133806
000360 a0 f0 3b 3d bd ad 78 bd aa 60 87 be b6 e1 b0 3a
       0.045883775 -0.060712565 -0.26440936 0.0013495001
000370 ea 84 f8 bc 0f 0c 27 bc c0 d6 10 bd 44 41 28 bd
       -0.030336816 -0.010195746 -0.03536105 -0.041077867
000380 9d 72 8d be 4a 40 6d be 92 e3 8c be 45 1f 1f be
       -0.27626505 -0.23169056 -0.27517372 -0.15539272
000390 ed 3e 89 be 09 38 2f 3e e8 a3 4a be 79 c3 d5 bc
       -0.2680582 0.1711122 -0.19789088 -0.026094185
0003a0 0d 58 0a bd 8e 1e 88 be 3c 5f a5 be cd 49 48 bd
       -0.033775378 -0.2658581 -0.3229922 -0.048898507
0003b0 b0 75 b4 3b 60 cb 14 3d e0 4e 9a be ea 58 32 3d
       0.0055071935 0.036326766 -0.30138302 0.043541826
0003c0 04 ce 87 be c2 92 e8 bd 54 ed 7a 3c 27 f4 ac bb
       -0.26524365 -0.11356117 0.0153153725 -0.0052781287
0003d0 25 e1 cd bd a0 d5 58 bd cc a0 78 bd f4 7c 27 bd
       -0.100527085 -0.052938104 -0.060700223 -0.04089065
0003e0 19 6d 3f bc b1 ca 74 bd 9c c3 62 bd d6 f5 71 bd
       -0.011683726 -0.059763614 -0.05536233 -0.059072338
0003f0 80 bc cc ba f8 da a5 be 39 0d 13 bc a3 9c 61 be
       -0.0015620142 -0.32393622 -0.0089753205 -0.22032408

l4.weight f4 [1, 256]
000000 71 f5 b9 bd 36 01 17 bc 17 d5 86 bc 99 8b 72 3c
       -0.09080017 -0.009216597 -0.016459031 0.0148037905
000010 84 5a 24 bb 5c 82 61 3c 23 d2 24 bb 99 3d 8a 3c
       -0.0025078366 0.01376399 -0.0025149665 0.016875075
000020 c4 b1 ba 3c 03 4c ee bc 6a 44 c2 3c ff bb 15 3d
       0.022789843 -0.02908898 0.023714263 0.03655624
000030 9f c5 3c 3d 29 ac 2e bd a7 c8 20 bd 2c e8 54 3d
       0.046086904 -0.042644653 -0.039253857 0.05197923
000040 8f 18 be bc a9 1b 0b bd f4 68 4d 3d 14 32 1c 3d
       -0.02320507 -0.033961926 0.05014892 0.038133696
000050 c1 e6 06 3d dd 80 94 3d b6 de 0f 3e f1 38 ff bc
       0.032934908 0.07251141 0.14049801 -0.031155081
000060 00 f0 ab bd a2 1b 94 3a 76 a7 12 3d 51 73 95 3b
       -0.08395386 0.0011299739 0.035804234 0.004560866
000070 81 09 84 3c e5 6d d8 bd 9f 4f 1f bc 64 65 e2 ba
       0.016117813 -0.10567836 -0.009723573 -0.0017272648
000080 d2 38 15 bd 8d 28 b2 bc df a3 a0 bd 89 1f a6 3c
       -0.03643114 -0.021747852 -0.07843756 0.020278709
000090 4d f4 35 bb b6 dd 5d 3d a3 6e cb 3c 4e 55 98 bb
       -0.0027764023 0.05416652 0.02483303 -0.004648841
0000a0 7c f5 81 bc d3 69 62 bd 6d eb f6 bb b8 80 7d 3c
       -0.015864126 -0.055276703 -0.007535389 0.0154725835
0000b0 fa c8 84 3d 37 4f db 3b 80 30 8e 3c da 89 68 bd
       0.06483646 0.0066927928 0.017357111 -0.05677209
0000c0 47 6c cc 3c 3c da 30 bd b4 9e a6 3b 05 7f d4 3c
       0.024953974 -0.043176875 0.005084837 0.025939474
0000d0 7f d9 a5 bc a0 d9 89 bc 68 3b 1e bd 5e d5 12 3d
       -0.020245312 -0.016827404 -0.038630873 0.035848014
0000e0 37 da a2 bc d0 ce 1b bd 77 d2 83 3c 15 3e dd 3c
       -0.019879444 -0.03803903 0.016091568 0.027007142
0000f0 75 67 6e bc fb eb 35 bd 10 d6 8a 3d 3b bc 32 bc
       -0.014551033 -0.0444145 0.067791104 -0.010909135
000100 5a f5 8a bc d4 fb 8d 3c d5 20 c3 bb 91 58 24 bc
       -0.016962696 0.017331995 -0.0059548416 -0.0100308815
000110 e5 54 06 bd 38 c2 c2 bc b6 58 d0 bc 06 8e b7 bd
       -0.032795805 -0.023774251 -0.025432926 -0.08962636
000120 34 f6 8a bc 80 7f dd 3c 44 6d 5e 3d fd e8 25 bd
       -0.016963102 0.027038336 0.054303423 -0.040505398
000130 26 60 b2 bc 75 5c 19 bd db 1d 41 3c 7b fa 2d bd
       -0.021774363 -0.03744169 0.011786903 -0.042475205
000140 9a 83 b0 bc f1 0b 10 3d ec c0 a3 3c d8 d9 29 bd
       -0.021547128 0.03516764 0.019989453 -0.041467518
000150 40 3a 6f bc ba e1 8d 3c f0 22 7a bc 02 40 bb bc
       -0.01460129 0.017319549 -0.015267119 -0.02285767
000160 9a 9d dc bb 8c 9e 0b 3d 8d cd 0f 3d f5 8d 62 bc
       -0.0067326548 0.03408675 0.035108138 -0.0138277905
000170 7a ba 85 3b 03 a7 89 3d 6e 04 5a 3e b2 d0 0c 3d
       0.0040810676 0.06721308 0.21290752 0.034378715
000180 d8 0b 26 3d fa 7b c1 bb 2d 1c c4 bc 8f e8 27 bd
       0.04053864 -0.0059046717 -0.023939217 -0.04099327
000190 33 af a4 3c 42 f7 0b bd d6 42 b6 bc fe ec 87 bc
       0.020103073 -0.03417135 -0.022248667 -0.016592499
0001a0 47 c9 27 be e9 51 ef bb 69 7a 90 3c 19 dc 3b bb
       -0.16385375 -0.0073034656 0.017636495 -0.0028665124
0001b0 17 d8 c2 bd 51 f3 80 bc a1 0e e4 3c f4 f9 ad bc
       -0.09513872 -0.015741022 0.027839007 -0.021237351
0001c0 5b f3 6e 3c 93 aa c2 bb 38 94 0b 3d 65 a6 27 3c
       0.014584388 -0.005940744 0.0340769 0.010232543
0001d0 ae 34 48 bc 60 c5 90 bc 9a 60 9a 3d 3c 4b c2 3c
       -0.012219591 -0.01767224 0.075379565 0.023717515
0001e0 07 99 ad bc 15 5b bc bc 1e 90 87 3c 67 ba 99 3d
       -0.021191133 -0.02299265 0.016548213 0.075062566
0001f0 2c b5 e8 bc a3 75 a2 bc ec f2 aa bb b4 44 b3 3c
       -0.028406702 -0.019831484 -0.005216947 0.021883346
000200 67 a8 70 bc c8 66 34 bd a5 3c 5d 3d f0 e0 8a 3d
       -0.014688588 -0.044043332 0.054012913 0.06781185
000210 12 9e a0 3c cd ab 27 bc 90 34 4b bd 36 3f 53 3b
       0.019606624 -0.010233832 -0.049610674 0.0032233722
000220 30 cb d7 bc 2e fa 3f 3c 98 55 8a bd 22 fa 8e bd
       -0.026342005 0.011717362 -0.06754607 -0.06981303
000230 ea ff 21 bd b8 e5 f4 bc f6 e7 5a 3b b5 25 41 bb
       -0.0395507 -0.029894695 0.003340242 -0.0029471938
000240 ef 05 a2 3b 3d a2 8a 3c a3 44 85 3c 24 10 ad bb
       0.004944555 0.016923064 0.01626808 -0.005281465
000250 bc a9 88 3c b0 59 b2 3b 6d 6b c1 3c 5c 38 f5 3c
       0.016682498 0.0054428205 0.023610795 0.0299341
000260 d7 41 18 bd 3a cd 55 bc 90 07 82 bb ec ea da bc
       -0.037172165 -0.013049418 -0.0039681867 -0.026723348
000270 6a bb 9f 3c fc e5 17 bc 87 49 e2 bb b5 6d 94 3c
       0.019498546 -0.009271141 -0.006905738 0.018118719
000280 7b 4e f4 bd 54 b0 60 3c 9e bc 1f 3d 3b 05 05 ba
       -0.119290315 0.013713915 0.03899824 -0.0005074327
000290 08 36 8f bc 53 9e 9d 3c 3f 53 4f bb f8 a6 fd 3c
       -0.017481819 0.019240534 -0.0031635312 0.030963406
0002a0 ae 39 ce 3b b8 88 00 bc a6 9d 8f bd 55 ab 3f 3d
       0.006293497 -0.007845096 -0.07012491 0.046794254
0002b0 24 90 c6 bc 66 f0 f8 bc 9b 63 5e bc f8 a0 8b 3c
       -0.024238653 -0.030388068 -0.0135735525 0.01704453
0002c0 d7 02 3d 3c e0 5e c8 3b f9 2f 01 bc f3 02 5a bc
       0.011536322 0.0061148256 -0.007884973 -0.013306367
0002d0 41 f7 35 bd 18 cf 4c bd 9a 3c 00 bb f6 48 02 3b
       -0.044425253 -0.050002187 -0.0019567371 0.0019879914
0002e0 7c e4 20 bd 0c 40 cc 3c 05 59 8c 3d 69 8e 53 bd
       -0.0392804 0.024932884 0.06852917 -0.051649485
0002f0 d4 d2 43 bb 1e 02 73 3d 4b 1f 92 3d 5b 4a 2a 3c
       -0.0029880302 0.05932819 0.07134875 0.010393704
000300 87 2e 67 bb 06 ab 96 3c 02 c2 09 bd 90 2e 35 bb
       -0.0035275535 0.018392097 -0.033632286 -0.0027646162
000310 1a 2d 54 bd ba 1a 1a 3d 41 f2 a5 3c 04 42 c7 3b
       -0.051800825 0.037623145 0.020257117 0.0060808677
000320 c3 9a 5e bd 76 84 b2 3b af e8 08 3d 8c fb 0b bc
       -0.05434681 0.0054479195 0.03342503 -0.00854386
000330 fa c8 ee bc c0 85 cd bb ee 8e c9 bc 79 59 6d 3d
       -0.029148567 -0.0062720478 -0.024604287 0.057946656
000340 5f 21 5e 3e 05 74 86 bb 4b f0 b9 3b dc 09 bf bb
       0.21692418 -0.004103186 0.005674397 -0.0058300328
000350 21 5a 5c 3d cf 8c 0a 3c 4c 3e 9b bc 7f de 3c 3e
       0.05379689 0.008456423 -0.018950604 0.1844425
000360 a9 3a 0d bd f0 64 0d 3d 82 ea 17 3d c4 97 98 bd
       -0.03447977 0.03452009 0.03708888 -0.07450822
000370 cc 30 79 3d 31 4c ae 3c c0 ec 83 bc 96 7d de b8
       0.060837552 0.021276565 -0.016104102 -0.00010609177
000380 0d 14 94 3d d5 f4 86 3d b4 87 6c 3d 26 71 a9 3b
       0.07230387 0.06589667 0.057746604 0.005170959
000390 d3 d9 40 3b 0b 6a f5 bd 6f c2 f9 bc 8e 9e 14 3c
       0.0029426708 -0.11983117 -0.030488221 0.0090710055
0003a0 26 3a 56 bd 79 a0 2d 3d 8a 55 14 bc 2b 9e 9d bc
       -0.05230155 0.042389367 -0.009053597 -0.01924046
0003b0 4b 77 1f 3c 32 7d 28 bd f7 72 de bc c8 c0 5c bc
       0.0097330315 -0.04113502 -0.027154429 -0.013473697
0003c0 21 b1 fe 3c 64 6a 04 ba 20 2b 27 bd 8f 03 41 3b
       0.031090321 -0.0005051254 -0.04081261 0.0029451584
0003d0 48 93 fd ba 38 c6 99 b9 cb c8 13 3d 1a 87 05 bd
       -0.0019346261 -0.0002933012 0.036080163 -0.032599546
0003e0 5d 4a 88 3c 9a 98 33 bd 42 9f da bc 71 85 dc bb
       0.016637022 -0.043846704 -0.026687268 -0.0067297746
0003f0 00 0f e0 3c 9f 8b 54 3d 84 3b c8 b9 43 ca 99 3d
       0.027350903 0.051890966 -0.00038191315 0.075092815
