models/GMI_pretrained/GMI_GPM_channel_predictor_37V_ocean.pt (torch, 544272 bytes, 7 tensors)

l1.weight f4 [256, 12]
000000 26 74 86 be 04 59 de 3d aa 33 d7 3d 06 2b bf bc
       -0.2626049 0.10856822 0.10507901 -0.023335945
000010 57 5f 05 be 41 9f 20 be 39 6d 5d bd bf d6 d8 3d
       -0.1302465 -0.1568575 -0.05405924 0.105878346
000020 d1 64 22 be 0f a8 76 be 03 30 e6 bd 2e 1d 3b be
       -0.15858771 -0.24087547 -0.11239626 -0.1827285
000030 6f 3a fa bd a8 17 f3 3d c8 57 9f bd 28 ca 95 be
       -0.122181766 0.118697464 -0.07780415 -0.29255795
000040 4b e2 95 bd fc 18 fa 3d c6 da e2 3d 8a 4d 80 3e
       -0.073185526 0.12211797 0.11076884 0.25059158
000050 fd 05 29 3e 3e 12 5e be da 16 1b be 24 3d 8b be
       0.1650619 -0.21686646 -0.15145436 -0.27195084
000060 2d c3 96 3e bd bf 48 3e 69 d6 9d 3c 45 0c 19 bc
       0.29445782 0.19604392 0.019267278 -0.009341304
000070 8b b9 93 be 74 af a7 3d e9 71 50 3d 5e 6e 92 3e
       -0.28852496 0.08187762 0.050889883 0.28599828
000080 58 8c 26 be fc d6 6e be 30 e1 ed bd 19 5a ed 3d
       -0.16264474 -0.23324198 -0.11615217 0.115894504
000090 0f 3e 90 be e6 c9 3c 3d a5 9a 01 3e 2f fd 21 be
       -0.28172347 0.046090983 0.12656648 -0.15819238
0000a0 48 f2 57 3e 99 f9 09 3e bf 05 9c 3e 17 82 20 3e
       0.21088517 0.1347412 0.30473134 0.15674625
0000b0 75 4a 8a be be 80 37 bc 80 e2 f5 3d 69 14 bc bd
       -0.2700993 -0.011200128 0.12006092 -0.091835804
0000c0 da 57 38 3d f8 42 8d be ad 6a 41 3e 11 07 d9 3c
       0.045005657 -0.27590156 0.1888835 0.026492627
0000d0 ef 72 52 be d5 f5 88 bd 0f a8 76 be 9f e1 6a bd
       -0.20551656 -0.06687514 -0.24087547 -0.057344075
0000e0 e0 c8 90 be 1e 08 b1 3d 34 91 ae 3d f2 68 90 be
       -0.28278255 0.08644126 0.08523789 -0.28205067
0000f0 bf bb 33 be b2 ad 1b be ed 9d 9c be ab 3e 07 3d
       -0.17552088 -0.15202978 -0.30589238 0.03301875
000100 a2 55 33 3e da 4f 91 be 60 21 4f 3e c7 5c 65 bd
       0.17513135 -0.28381234 0.20227575 -0.055996682
000110 6f f7 96 3d 95 60 80 3c 47 d0 4d 3d e4 58 21 3c
       0.07371413 0.015671054 0.050247457 0.009847853
000120 cc ef 04 3e 20 98 57 3d 11 41 94 be a8 82 dc bd
       0.129821 0.052635312 -0.28955892 -0.10767108
000130 af 18 02 bc 93 e3 85 3e 0c 78 9f bd 61 6a 97 bd
       -0.007940455 0.26150188 -0.07786569 -0.07393337
000140 d1 ec d9 bb b4 0a 07 be 84 f8 66 3d 20 57 06 3e
       -0.006650545 -0.13187677 0.056389347 0.13119173
000150 61 cd 07 be e6 e5 37 bd 21 a5 48 3e 66 de c1 bc
       -0.1326194 -0.044896983 0.19594242 -0.023665618
000160 36 26 63 be bf c4 92 be 1d 2d 3a be ba 53 a5 bd
       -0.22182545 -0.2866573 -0.18181272 -0.0807261
000170 e1 8b f9 bd f9 a2 96 3d a5 ad 6d be 6e 17 69 be
       -0.12184883 0.07355303 -0.23210771 -0.22762844
000180 83 61 76 bd f3 0d ab 3d ae 5b 7d bd 13 03 19 3e
       -0.06015159 0.0835227 -0.06185501 0.14942579
000190 db b7 39 bc e9 73 18 3e 54 16 c9 3d 98 30 64 3e
       -0.0113353385 0.14887966 0.09818712 0.22284162
0001a0 31 74 42 bd 8f 2c da 3d 5b cc 50 be db 67 23 3e
       -0.04747409 0.1065303 -0.20390455 0.15957586
0001b0 68 e8 9d bc 99 be 7b be dd 98 a6 3c 60 b7 90 bd
       -0.019275859 -0.24584426 0.020336563 -0.07066226
0001c0 f5 01 3b be 68 8e 56 3e 0c b0 be bc df 62 31 3d
       -0.18262465 0.20952761 -0.023277305 0.04330718
0001d0 07 bb 68 3e 91 47 8f be 2f d0 83 be b0 14 41 be
       0.22727595 -0.27984288 -0.2574477 -0.18855548
0001e0 85 cc 75 be a4 ca 0a be 0d ad 0a bd f9 a5 84 be
       -0.240038 -0.13553864 -0.03385644 -0.25907877
0001f0 d6 32 34 3e 21 7d 83 3e 6b f9 37 be 00 84 11 3e
       0.17597517 0.25681403 -0.17966239 0.1421051
000200 9b d9 20 be 8a a7 fc bc 1c 2f 7f 3d c2 83 f6 3d
       -0.1570801 -0.030841608 0.062300786 0.120368496
000210 3a e0 6d be a6 21 98 bd cf f7 49 be 79 c6 bb bc
       -0.23230067 -0.07428293 -0.19723438 -0.022921788
000220 a3 3d 53 3e ce 2f f4 bd 4c 64 3c 3e a0 d3 85 be
       0.20628981 -0.119231805 0.18397635 -0.2613802
000230 6d f7 a9 ba 6c 8d 15 3e 2d d8 44 bd 76 3e 24 be
       -0.0012967415 0.1460473 -0.048057724 -0.16039452
000240 0c fc 95 3d 95 fc 89 be 1c 6d 23 3c e0 9a 6f 3e
       0.07323465 -0.26950517 0.009974744 0.23398924
000250 ee b2 75 be 1d 43 3b be 44 25 f0 bc 71 34 72 be
       -0.23994038 -0.1828732 -0.029314645 -0.23652817
000260 ed 18 57 bc 2b 75 90 be ad 10 b7 3a 72 0c 94 bd
       -0.013128501 -0.28214392 0.0013966762 -0.07228936
000270 c3 35 03 be c2 dc 09 3e 8f e1 28 3e ed e3 07 be
       -0.12813477 0.13463119 0.16492294 -0.1327054
000280 fa 90 5d bd d2 55 0b 3e 5a 77 a8 bd ba fc 82 3d
       -0.05409334 0.13606957 -0.082258895 0.0639586
000290 de 95 9b be 69 37 ee bd b1 0c 5e bd e2 b6 1f 3e
       -0.30387777 -0.116316624 -0.054211322 0.15597108
0002a0 75 36 3b be 55 56 44 3e 1e ba 00 3e 3d 4f 55 be
       -0.18282492 0.19173558 0.12570998 -0.20831008
0002b0 02 30 98 bd d7 51 38 3d 7f fb c4 bd 7e 5a fb 3d
       -0.07431032 0.044999924 -0.096182816 0.122731194
0002c0 66 87 f3 3c 4f 7c a9 be 07 86 c0 3d 90 28 40 3e
       0.029727649 -0.33102652 0.09400564 0.18765473
0002d0 ec 40 54 bd c2 d3 80 be b3 9a 86 be 3d 99 b8 3d
       -0.051819727 -0.25161558 -0.262899 0.09013603
0002e0 45 95 22 be e2 dd 0d be ec 20 1f be 3a 27 81 bd
       -0.15877254 -0.13854173 -0.15539902 -0.0630631
0002f0 4b c7 0a be 6c fb 42 3e 84 eb c1 3d 19 26 1b be
       -0.13552587 0.19041222 0.09468749 -0.15151252
000300 33 7d 29 be a8 68 43 be c9 c5 6c be 6b 81 00 3a
       -0.16551666 -0.19082892 -0.23122324 0.0004902097
000310 de c7 89 be af d3 a9 3d 65 c3 af bd 77 1b 50 bd
       -0.269103 0.082923286 -0.085821904 -0.050807443
000320 56 72 7f bd 6f bb 71 bd 30 8f 75 be 9a 3e 1f be
       -0.0623649 -0.05901664 -0.23980403 -0.15551224
000330 3b 52 d9 3d 09 bc 84 be 48 20 1b bd 16 5a 74 be
       0.10611387 -0.2592471 -0.037872583 -0.2386249
000340 ca 35 3b 3e fb e1 ce 3d 40 12 a5 bd 2c f8 8b be
       0.18282238 0.10101696 -0.080601215 -0.27337778
000350 0e 7a 3d 3e b2 46 8f 3e 1c b4 1c be 47 33 67 be
       0.18503591 0.27983624 -0.15303081 -0.22578155
000360 19 e5 46 3e 6f 39 f7 bb ac c4 55 bc 84 25 9b 3d
       0.19423331 -0.0075446884 -0.0130473785 0.07575515
000370 9c 77 68 be 97 60 15 bd 15 20 a2 bd 09 da 0d be
       -0.22701877 -0.03646907 -0.079162754 -0.13852705
000380 87 65 40 3e e8 e6 16 be 5e 2e f4 3c 85 de e3 3c
       0.1878873 -0.14736521 0.029807266 0.027816067
000390 b6 15 2e be 14 5b 97 bd 74 7f 89 be 20 d4 4d 3d
       -0.1700047 -0.07390419 -0.26855052 0.050251126
0003a0 79 bc 03 3e b1 a8 df bd fe cb ed 3d d6 56 17 3e
       0.12864865 -0.10920847 0.11611174 0.14779219
0003b0 c6 15 ab 3d 58 94 ce 3c 09 d1 fd bd 67 b8 7e be
       0.08353762 0.02521722 -0.12393386 -0.24875031
0003c0 1a bb ea bd 07 18 dc bd 72 b0 8e be 3e 90 73 3d
       -0.11461468 -0.1074677 -0.27868992 0.059463732
0003d0 87 dd 86 3d a5 65 5a be 4b 87 05 be 04 15 f9 bd
       0.06585222 -0.21327837 -0.13039891 -0.121622115
0003e0 07 a1 33 be dc f2 8e be 89 19 6e 3e 6f d8 7a be
       -0.17541896 -0.27919662 0.23251928 -0.24496625
0003f0 8c ce 41 be f2 71 8d 3d 13 60 2e 3d fa 22 25 be
       -0.18926448 0.06906499 0.042572092 -0.16126624

l1.bias f4 [256]
000000 e0 e3 4e 3d 2d e2 99 3d 2e 1f 23 bd 93 95 49 3e
       0.050510287 0.07513843 -0.039824657 0.19685964
000010 f1 cf 7a 3e 10 a8 5f bc 7e 79 79 be 58 b6 34 3e
       0.24493386 -0.013650909 -0.24362752 0.17647684
000020 26 dd 5a 3e 8b 6e e3 bd 9a e6 78 be 82 3c 33 be
       0.21373424 -0.11105069 -0.24306718 -0.1750355
000030 b4 cc c6 bd 3c fa ba 3e a4 d4 66 3e f2 df 39 3e
       -0.09707013 0.3651904 0.22542053 0.18151835
000040 0d 76 e2 3a 39 f8 e2 3d 75 54 4d be 4c e3 4c be
       0.0017277614 0.11082501 -0.20051749 -0.20008582
000050 64 33 54 3e 3a 0d 79 3e 2b 69 a3 be 18 2f 37 be
       0.20722729 0.24321452 -0.31916174 -0.17889059
000060 8b 85 a5 be 6f fa 8f 3e 86 a0 18 3d 57 1b ce bd
       -0.32328448 0.28120753 0.037262462 -0.100638084
000070 46 84 ea be 4e d8 85 3e c3 53 a2 3e b0 e8 85 be
       -0.45804042 0.2614159 0.3170453 -0.2615409
000080 11 e8 89 be d4 58 80 3d a3 63 32 be 2e fa e7 3e
       -0.26934865 0.062669426 -0.17420821 0.4530806
000090 ee bd 62 bd 1f 05 d1 3e 44 9e c4 bd 00 70 3c 3e
       -0.055356912 0.4082422 -0.09600499 0.184021
0000a0 39 2f ae 3e 27 82 c5 3d 46 0c 50 be 59 27 92 3d
       0.34020403 0.09643965 -0.20317182 0.07136411
0000b0 15 ae 8b 3e df e6 02 3e 36 3f 76 3d 6b 01 82 be
       0.27281252 0.12783383 0.060118876 -0.25391707
0000c0 3e 15 09 be 04 46 6a be 8e 03 ae 3e 7d 11 9f 3e
       -0.1338701 -0.22878271 0.33987087 0.3106803
0000d0 79 b4 80 3e 72 e1 88 3d 38 ee df 3e 2b c5 1a 3d
       0.2513769 0.06683625 0.43736434 0.03778569
0000e0 66 83 49 be e9 10 48 be dc de 56 be 0b f4 34 3f
       -0.19679031 -0.195377 -0.20983452 0.7068488
0000f0 0b 82 93 3e 33 66 f1 bd 5e 6b 47 3e 76 4a 8c 3e
       0.28810152 -0.11787071 0.19474551 0.2740056
000100 49 06 51 be 0d 9a 16 be 16 07 a9 3e 7e ef c9 3e
       -0.20412554 -0.14707203 0.3301322 0.3944053
000110 ee 4e 8a b9 3a 99 c3 bd e4 fc a0 bd ed 83 80 3e
       -0.00026380218 -0.0955071 -0.07860735 0.2510065
000120 93 14 3a be 85 70 0f 3f 88 7a 84 3e 43 a0 0a 3b
       -0.18171911 0.56031066 0.25874734 0.0021152652
000130 40 e6 5b 3c e0 5e 00 3f ce 9e 82 3e cf c4 8a be
       0.013421595 0.5014477 0.25511783 -0.27103278
000140 80 1f e2 3c 78 25 44 3d 59 43 0f be 31 4e cf be
       0.027602911 0.047887295 -0.13990535 -0.40489343
000150 06 a0 80 3e ee 4e 41 3d 8d 67 56 be 65 22 18 3e
       0.25122088 0.047194414 -0.20937939 0.1485687
000160 61 40 8b be 34 9c 58 3e e7 c5 fb 3d 61 81 17 3d
       -0.27197555 0.21153337 0.12293606 0.03698862
000170 ea 71 2b bf f4 0e d3 bd b9 f5 76 3e 07 38 0c bf
       -0.66970694 -0.103055865 0.24117173 -0.5477299
000180 0f 78 a2 3e 8b ad 10 be c9 bd 71 be c4 29 17 bc
       0.31732222 -0.14128701 -0.23607554 -0.009226266
000190 45 9f bb 3d 7a a2 d9 3d 63 d6 c7 3d cc af 0d 3e
       0.091612376 0.10626693 0.09757688 0.13836592
0001a0 aa 5f 90 3e f0 48 05 3f 5a ca 60 3e 08 38 00 3e
       0.28197986 0.5206442 0.21952191 0.12521374
0001b0 53 7f 99 3d 8d 78 8a 3e f7 9e f9 3e 07 0f ca 3e
       0.07494988 0.27045098 0.48754093 0.3946459
0001c0 44 b8 2d be d1 e7 f1 3c 30 1c 9e 3d c8 b1 37 be
       -0.16964823 0.029529484 0.0772022 -0.17938912
0001d0 5e 7d 82 be aa 33 d5 3c 9a 45 e6 3d 1b f4 35 3e
       -0.25486273 0.026025612 0.11243744 0.177689
0001e0 17 4b 2c 3e fc bd 82 be 9d ac 90 be a5 64 c1 3e
       0.1682552 -0.25535572 -0.28256693 0.37772098
0001f0 4a 14 fa be 54 dd e9 be 96 68 87 3e eb 10 0e 3e
       -0.48843604 -0.45676672 0.2644698 0.13873641
000200 1e 60 6e 3e 18 a5 68 be 4e 5d 3d 3d 96 7a 24 3e
       0.23278853 -0.22719228 0.04623156 0.16062388
000210 b0 f1 43 be 77 75 1b be 40 ec 96 3e 0f 96 30 be
       -0.19135165 -0.15181528 0.2947712 -0.17244743
000220 42 cf 7b 3e d2 4a 91 be 94 cd 85 be 91 c7 40 3e
       0.24590781 -0.28377396 -0.26133406 0.18826129
000230 84 e5 24 bf 89 ce 0d bf 06 24 89 be 6f 4a 58 3e
       -0.64412713 -0.5539327 -0.26785296 0.21122144
000240 e8 c4 b0 3e cb 1a 4a 3e d5 3c 7f be ff 1a c1 3e
       0.34525228 0.19736783 -0.2492555 0.3771591
000250 97 64 06 bc c6 53 04 3e 74 4e 8b 3e e4 16 a0 3d
       -0.008202693 0.12922582 0.27208292 0.07816866
000260 39 04 c2 3e cf f6 b6 3d 9c 01 3a 3d f3 e8 5e 3e
       0.37893847 0.08933794 0.04541169 0.2176855
000270 cd c2 49 bf ca 64 ca bc 4e 50 3b be 8b b7 0a be
       -0.7881287 -0.024706263 -0.18292353 -0.13546579
000280 e2 78 d9 3d 73 2b 85 3e 9e d8 1b 3f 41 0c 9b 3d
       0.1061876 0.26009712 0.60877407 0.075706966
000290 e3 cd b5 bd b2 ff cd 3d 93 87 8f bd 17 e4 8c 3e
       -0.088771604 0.10058536 -0.070082806 0.2751777
0002a0 62 64 24 3e 4e 3b aa 3e 63 e6 5f 3e 22 d0 94 bd
       0.16053918 0.3324837 0.2186523 -0.07266261
0002b0 d1 92 ab be 13 23 72 3e 1d 12 e9 3d 9b db e7 3d
       -0.3351045 0.23646192 0.11380408 0.11321183
0002c0 93 01 76 3e 44 0e 75 be a6 ee 75 3e 40 ea ed 3d
       0.24024038 -0.23931223 0.24016818 0.11616945
0002d0 21 b5 22 3e 1a 28 82 3e 9f a5 8f 3e 63 48 a5 be
       0.15889408 0.2542122 0.28056046 -0.3228179
0002e0 3c 74 1b 3e 15 d1 66 3e 04 19 22 be b1 62 fd bd
       0.15181059 0.22540696 -0.15829855 -0.123723395
0002f0 c6 a7 26 bf c3 f2 14 bf ba b3 f2 3c 20 7a 53 3e
       -0.6509975 -0.58182925 0.029626716 0.20652056
000300 bd d6 fc 3a e5 a7 1a bd e3 d4 54 be 15 d3 8b 3e
       0.0019290071 -0.037757773 -0.20784335 0.2730948
000310 5c 8a 99 be 9e 94 1b bd dc cc 54 3f c5 a6 11 be
       -0.29988372 -0.03798353 0.8312509 -0.14223774
000320 4d e3 8a be 0d 43 11 3e 01 6f 56 bd 9d 15 3b 3d
       -0.27126542 0.14185734 -0.052351955 0.04567491
000330 f4 9b 80 bc af f2 9a be e7 d6 9c 3e cd e3 b2 3e
       -0.015699364 -0.30263278 0.30632707 0.34939423
000340 d0 83 2b 3e 22 b3 1d 3e aa 72 d0 3d b5 f6 d7 bd
       0.16749501 0.15400365 0.101781204 -0.105451025
000350 f8 01 09 bf 95 52 48 3e 5b e1 bd bd 10 d3 8b be
       -0.5351863 0.19562753 -0.09271499 -0.27309465
000360 6f bc ac 3e b3 da d9 bd 6f e4 eb bd 7a 30 88 3e
       0.33737513 -0.10637417 -0.115181796 0.26599485
000370 10 b5 2f be c4 a8 84 3e f2 8b 81 3d 75 20 95 3d
       -0.17158914 0.25910008 0.063255206 0.07281581
000380 52 1f 3d 3e 92 1f 88 be 30 54 15 3f 4e 88 92 3e
       0.18468979 -0.26586586 0.58331585 0.28619617
000390 45 63 71 be 95 bd de 3d 55 d8 09 bd 67 82 8c bd
       -0.23573025 0.10876004 -0.033653576 -0.0686081
0003a0 35 ac 85 be 4c 51 b1 3b 4c 57 41 be bb dd 3d 3e
       -0.26107946 0.0054113027 -0.18880957 0.18541615
0003b0 d4 8b ba 3e 14 d0 6e 3e 3c 85 e5 be c1 b8 b6 3d
       0.36434805 0.23321563 -0.44828212 0.08921958
0003c0 35 20 90 3e dc fc 81 3e ff 30 8a 3e 8a e2 18 3d
       0.28149572 0.2538823 0.26990506 0.03732542
0003d0 88 76 8f 3e 5f 5e 26 be a6 7f c9 bc 9a f2 50 be
       0.2802012 -0.16246937 -0.024597 -0.20405045
0003e0 c4 3d 1e be 9f e1 ed be ae 6e 7d 3e 80 50 f5 3e
       -0.15453249 -0.46461198 0.24749252 0.4791298
0003f0 0e 77 29 3f 64 d2 00 3e c4 80 fb bd 1c ac 1a 3e
       0.6619729 0.12580258 -0.122804195 0.15104717

l2.weight f4 [256, 256]
000000 38 f8 df 3c 9a 64 d7 3c 2f d3 4d bd 41 1e 95 39
       0.02734004 0.026293088 -0.05025023 0.00028442036
000010 48 e6 19 bd 18 88 0e bd 31 6e 85 3c 10 a8 7c bd
       -0.03757313 -0.034797758 0.016287895 -0.061683714
000020 41 7e 50 bc b0 98 74 3d 38 38 3d 3d 6c 12 18 bd
       -0.012725414 0.059715927 0.046196193 -0.037126943
000030 00 fc db 38 db 37 95 3c 3f 5b 21 bc fc 02 71 3d
       0.000104896724 0.01821511 -0.009848415 0.058840737
000040 84 e6 22 bd 18 5c fe 3c 5b ea 99 bb 00 77 40 bc
       -0.039770618 0.031049773 -0.004697127 -0.011747122
000050 f8 c1 00 bd 90 e9 06 3b 6f 31 83 bb 0c 53 c3 bc
       -0.031434983 0.0020585991 -0.0040036957 -0.02384331
000060 6c 58 79 3d e0 3d c4 bb 42 28 3b bc 14 7e 2b bc
       0.06087534 -0.0059888214 -0.011423172 -0.010467071
000070 35 7d b6 3c 3e c2 03 3d 2d 4d 83 3a 7e 89 0d bc
       0.0222765 0.032167666 0.0010017507 -0.008638738
000080 96 58 26 3d ae 5b 16 bd 8b e3 79 bd 1d 19 c2 bd
       0.040611826 -0.036708526 -0.061008018 -0.09477446
000090 ac 3c cb 3c 3a f8 f4 bc 2d 0d 66 3d 28 5f 62 3d
       0.024809204 -0.02990352 0.05616491 0.05526653
0000a0 ac b1 ac bc f8 00 22 bd da 89 77 3d de e8 25 bd
       -0.021080814 -0.039551705 0.0604342 -0.040505283
0000b0 a7 8a 14 3d 18 56 59 3d 88 56 57 bd 5a 2f 65 bd
       0.03626504 0.05306062 -0.052572757 -0.05595336
0000c0 90 a4 f6 3b 80 08 73 bd a8 63 a8 bd 6b ce 98 bd
       0.0075269416 -0.059334278 -0.08222133 -0.07461246
0000d0 df b7 d6 bc fd 34 1a 3b a6 b8 93 bc 94 aa c9 3c
       -0.026210723 0.0023530119 -0.018032383 0.02461747
0000e0 10 9d a6 3c c3 5a b3 bc 72 90 bd 3b 2e 0f 26 3d
       0.020338565 -0.021893864 0.0057850415 0.04054182
0000f0 c5 74 9c 3b 00 36 ee bc 6c c6 d4 bc b8 eb 71 3d
       0.004774662 -0.029078484 -0.025973521 0.05906269
000100 9e c1 41 3d f0 a9 02 bd e2 cf 31 3d 93 4f b2 bd
       0.04730379 -0.031900346 0.043411143 -0.08706584
000110 96 d0 42 3d 96 f7 58 bd f5 88 46 3d 00 c8 93 3a
       0.047562204 -0.05297049 0.048470456 0.0011274815
000120 40 26 38 bb aa 6b e4 3d c0 31 d0 3b f6 c6 57 bd
       -0.002809897 0.11153348 0.006353587 -0.05267998
000130 a0 84 e9 bc b1 05 6f bd cf 86 9e 3c d0 95 55 3d
       -0.028505623 -0.058355037 0.019351391 0.052144825
000140 52 9b 81 bd 93 f6 90 bd 44 8d 2f bd 79 1f c5 bc
       -0.06328453 -0.0707828 -0.04285933 -0.024062859
000150 fa 43 7d bd 1b 37 10 be 08 cf ee 3c 94 04 55 bd
       -0.061832406 -0.14083521 0.029151455 -0.05200632
000160 e1 87 7b bd ba 97 9c 3c 6a 04 11 bd e0 78 56 bd
       -0.06140888 0.019115318 -0.0354046 -0.05236137
000170 fd 9b 3d bd b8 72 3c bc ed b1 74 3b ae 99 33 bd
       -0.04629134 -0.01150196 0.0037337497 -0.043847732
000180 9c 02 a8 bd 48 59 15 bc 75 3a 98 bb d6 96 7d bd
       -0.08203623 -0.009115525 -0.0046456405 -0.061911426
000190 78 59 cc 3c 75 1f d5 bb 1a da 6f bd 8c cc 91 3c
       0.024945006 -0.006503994 -0.058557607 0.01779773
0001a0 a6 39 69 3d d1 88 84 bd 04 62 11 bd 17 8c 31 3c
       0.056939743 -0.06471408 -0.035493866 0.010836623
0001b0 32 e1 24 bb 8e c7 6c bc 11 1d d5 bd 72 5e 1e 3a
       -0.002515864 -0.014451874 -0.104059346 0.0006041295
0001c0 26 4e 12 b9 00 d7 94 39 90 ec e7 bb 18 e3 c8 bc
       -0.00013952758 0.00028388947 -0.007077761 -0.02452235
0001d0 a6 77 be bb cc 34 72 3d 6f c3 3f bd 25 ac 71 3d
       -0.005812603 0.059132382 -0.04681724 0.05900206
0001e0 98 a3 f1 bc 44 eb 5c bc 42 84 41 3d 34 33 0c bd
       -0.029496953 -0.013483826 0.04724527 -0.03422852
0001f0 e4 ef eb bd b2 76 c2 bd 45 ee ba bc 2a 6f 7e 3d
       -0.11520365 -0.094952956 -0.022818694 0.062117733
000200 40 3b 87 3c 53 ad a5 bd 26 5b a1 3d 8e 9b 8d 3c
       0.016507745 -0.080896996 0.07878713 0.017286088
000210 c6 4f 0a bd 15 b6 c5 bc e3 e3 fc 3d b0 8b f8 bb
       -0.033767484 -0.024134675 0.123481534 -0.0075850114
000220 14 c2 0a bd 5e c8 2c 3c fc c1 52 3d ec f7 62 bd
       -0.033876494 0.010545818 0.05145453 -0.055412218
000230 8a 98 4f bd 44 29 12 be c0 ff b3 bc 60 b3 4c bc
       -0.050682582 -0.14273554 -0.021972537 -0.012493938
000240 39 4a b2 3c 3c 53 de bc c4 79 8b bd d7 91 9c bd
       0.021763908 -0.027139299 -0.06810334 -0.07645004
000250 ea 29 58 bd 40 c3 61 bd 68 bb d4 3c 39 3a f3 3a
       -0.052774347 -0.055117846 0.025968269 0.001855678
000260 57 8e 8d 3b b9 e9 ff 3c 6f da 4c bd 1c de 71 3d
       0.0043199467 0.031239377 -0.050013002 0.05904971
000270 89 80 95 be 17 e1 f9 bc fe 85 10 bd 04 bb db bc
       -0.29199627 -0.030502839 -0.035284035 -0.026822574
000280 d2 87 c8 bd da 89 2a 3d ac 7b a1 3e 5e f7 07 3c
       -0.09791531 0.04163537 0.31539667 0.008298723
000290 1b c0 a6 3c 00 5c 95 b8 15 95 07 bd 40 15 16 3b
       0.020355275 -7.12201e-05 -0.03310116 0.002290085
0002a0 82 fc a5 bc 3e 35 88 bc d5 94 52 bc b0 ad 56 3c
       -0.020262007 -0.01662695 -0.012852867 0.013102934
0002b0 09 ad 36 bd 66 a8 37 3d d7 a8 ab ba e6 32 79 bd
       -0.044598613 0.04483833 -0.0013096583 -0.060839556
0002c0 cc 0b 53 3d 80 e8 a0 3c e8 86 72 bd 90 af 3c 3d
       0.051524922 0.019642115 -0.059210688 0.046065867
0002d0 4a e8 57 3d 88 77 71 bc 5c b3 6b 3d c0 03 33 3d
       0.052711762 -0.014737971 0.057544097 0.04370475
0002e0 d2 40 0a be 86 65 50 bd ba 58 70 bd d8 f0 67 bd
       -0.1350129 -0.05087807 -0.058678366 -0.05662617
0002f0 68 b0 b5 bd e4 b4 78 3b 19 e0 a0 bd 87 0b b8 bc
       -0.088715374 0.0037949616 -0.07855243 -0.022466434
000300 7c 62 58 bd 1f b9 00 3d d9 a2 c7 3c c5 85 18 bd
       -0.052828297 0.031426545 0.024369644 -0.037236948
000310 c9 13 b9 bd 30 c5 28 bc f4 8b 7d 3e ce e8 70 bd
       -0.09036977 -0.010300919 0.24760419 -0.05881577
000320 58 b2 4f 3c 68 52 b4 bc a8 38 26 bd f8 c5 68 3c
       0.012676798 -0.02201195 -0.040581375 0.014207356
000330 c1 b7 bd 3c 12 1d a5 3d 1d d5 6b bd 20 36 6b 3d
       0.02315891 0.08062185 -0.057576288 0.057424664
000340 c8 ee 2f 3d c7 7c 35 bd 60 4f 08 bc c0 f0 1b bb
       0.04295233 -0.04430845 -0.008319706 -0.0023794621
000350 8e 7f f6 bd 87 4d da bb fd da ed bb c8 4f 42 3d
       -0.12036048 -0.006662074 -0.0072587715 0.047439367
000360 67 c3 34 bc 82 9c 17 3d ec 85 c1 bd 26 97 a2 bd
       -0.011032916 0.03701449 -0.09449372 -0.079389855
000370 90 ac 35 bc b7 e1 3e bd fa 7d 0f 3c f8 00 0e bc
       -0.011088505 -0.046601977 0.0087580625 -0.008667223
000380 e4 3a 88 bc c6 95 79 bd 48 d3 2c bd 04 57 17 bd
       -0.016629644 -0.06093385 -0.04219368 -0.03694822
000390 d0 7c 4a 3c 6b d2 00 3d 12 26 16 bd d8 6d 05 3d
       0.012358859 0.03145067 -0.0366574 0.03257546
0003a0 10 e6 7f bc fc 68 48 bd 91 38 73 bd 81 f6 1d 3d
       -0.015618816 -0.048928246 -0.059380118 0.038565163
0003b0 8e ff 5e bd 00 b0 f2 b9 2a 6a ee bd ca 4d 62 bd
       -0.054442935 -0.00046288967 -0.11641343 -0.055249967
0003c0 74 c8 d6 bc 1b 5c 26 bd 80 de d9 ba 80 f5 13 bb
       -0.02621863 -0.040615182 -0.0016622096 -0.002257675
0003d0 be 72 24 bd 42 9c 14 3d 60 e5 47 3b 87 f0 19 bd
       -0.04014849 0.03628183 0.0030501708 -0.0375829
0003e0 90 03 af 3c 1b 9e 10 bd b0 25 71 3d 9a 2b 9c 3d
       0.021364003 -0.03530703 0.058873832 0.07625504
0003f0 b5 bc 0d 3d d7 83 36 3d 5a eb 49 3d 6d 6b 6a bd
       0.034603793 0.044559326 0.049296714 -0.057231355

l2.bias f4 [256]
000000 6c f5 9e 3d 11 af 11 bc 16 4f 4b 3d 26 e1 28 3d
       0.07761654 -0.008891837 0.04963597 0.041230343
000010 0b 9c cf 3d 97 2a 28 bc d2 52 e5 3e 40 f7 d5 3b
       0.10137185 -0.01026406 0.4478975 0.0065297186
000020 71 80 ca 3d f9 4c a4 bc 88 26 d3 3e 8e 58 d3 bb
       0.098877795 -0.020056235 0.41240335 -0.0064497655
000030 f6 1a 66 3d dc 75 da bc 56 3b e7 bd d3 fe 3a 3c
       0.056178056 -0.026667528 -0.11290614 0.011413294
000040 8a 50 5c 3d 08 25 bf bb 0b 5c e1 3c 4c 7c 4d bd
       0.053787746 -0.005833272 0.02750971 -0.050167367
000050 af cc 01 3d 94 54 48 3d e0 b8 6d 3d ef 84 1f 3d
       0.031689342 0.048908785 0.05803764 0.038945135
000060 b4 84 bf 3d 47 18 ea bb 5b 40 dc bc 98 0f 2d bd
       0.09351483 -0.0071440074 -0.026886156 -0.0422512
000070 e4 b9 99 bc b5 f4 d1 3e 10 66 c2 3c 21 62 88 3c
       -0.018765397 0.4100701 0.023730308 0.016648354
000080 d2 12 4e 3e 34 cd 00 bd 37 b2 71 bd 55 85 7c bd
       0.20124367 -0.031445697 -0.05900785 -0.061650593
000090 00 cd 94 bc ff 4d bc 3e 6b d1 b3 bd f4 db be 3e
       -0.018164158 0.36778256 -0.08780178 0.37277186
0000a0 2d 61 e9 3c e8 ad 4e 3d 4d 61 cd 3e 9a bf 52 bd
       0.02848872 0.05045882 0.40113297 -0.051452257
0000b0 0d b6 1b 3d bc 30 8d 3e b2 06 4f bd 00 7d 73 3b
       0.038015414 0.27576244 -0.050543495 0.0037153363
0000c0 87 70 48 bd 93 f4 32 3c 41 32 2d bc c4 04 76 3c
       -0.04893544 0.010922569 -0.0105710635 0.015015785
0000d0 cc 42 89 bd 7b c0 6e bd c0 08 69 bd 24 69 3c bd
       -0.067021936 -0.058289032 -0.05689311 -0.045998707
0000e0 37 b5 c6 3e bd 67 4f bd 2e da a6 3e 7c 1c d3 3c
       0.3881013 -0.050636042 0.32588333 0.025770418
0000f0 44 6a 85 3d 5c 6a a1 ba 69 ab d8 bc c0 7a 76 3b
       0.06514409 -0.0012315023 -0.026448922 0.0037609786
000100 b3 1a 75 bc fc ac e2 bc f7 21 8b bd f4 25 79 3d
       -0.014959979 -0.027670376 -0.06793588 0.06082721
000110 f0 a2 28 bc d7 3a 81 bc 42 9e 82 3d 48 90 06 3d
       -0.010292754 -0.015775127 0.063778415 0.03285244
000120 3c 85 81 3d d4 b6 32 3d 27 5b ca 3d 2d 96 ed 3d
       0.063242406 0.04363139 0.09880667 0.116009094
000130 d0 19 5a 3d 0f 5e c1 3d 46 38 45 3d f3 52 73 bc
       0.053247273 0.094417684 0.04814937 -0.01485132
000140 5b af 72 bd 2b 7c 30 3d b4 b9 b6 ba 85 fa 91 bd
       -0.059249263 0.043087166 -0.0013940842 -0.07127861
000150 39 ce b1 3c 91 d5 12 bd e0 18 0b 3c 74 5c 70 bd
       0.02170478 -0.035848204 0.008489817 -0.05868192
000160 4d 04 8c 3d 14 67 ea 3c e0 77 be 3d e1 20 b1 bd
       0.06836758 0.028613605 0.09300208 -0.08648849
000170 07 23 34 bd 79 a3 a3 3e 1a 60 ac 3d a9 c9 bb 3e
       -0.043978717 0.31960657 0.084167674 0.36677292
000180 12 a9 7e 3e bd 9f ab 3b 1c 6f 57 bb 64 b3 10 3b
       0.24869183 0.005237548 -0.0032872623 0.0022079581
000190 42 4b 17 bd 78 c4 f3 3c b5 d4 af bc 82 e9 b1 3e
       -0.036937006 0.02975677 -0.021463731 0.34748465
0001a0 3a 07 a6 3e 94 14 09 3c aa 9a 01 3d 2a ab 80 3c
       0.32427388 0.008366723 0.03164164 0.015706617
0001b0 a8 eb 27 bd 10 73 59 bd b0 be ab 3e 5c 64 35 3d
       -0.040996224 -0.053088248 0.3354392 0.044285163
0001c0 2e 6b 37 bd 7c a2 b8 bc 2a 0e 3e bd 0b 50 55 3e
       -0.04477995 -0.022538416 -0.046400227 0.20831315
0001d0 88 b4 be 3e 74 02 89 bd d1 00 ec 3b 39 28 40 bd
       0.3724711 -0.06689921 0.0072022458 -0.04691336
0001e0 ba ec d2 3a 79 38 70 bc 6d 25 08 3a d9 fa 40 3d
       0.0016092279 -0.014661902 0.0005193565 0.047114227
0001f0 72 f6 a4 3e e8 3c a3 3e a8 c6 5a 3d 0e 12 b3 3e
       0.32219273 0.31882405 0.05341211 0.34974712
000200 63 80 c4 3e 66 90 9b bd a7 5b 68 bb 42 6e 87 3d
       0.383792 -0.07595901 -0.003545502 0.06612827
000210 fa fd 21 3d 5c b5 f5 bc 2c e5 50 bd 7f c1 40 bd
       0.03954885 -0.029993705 -0.050999805 -0.047059532
000220 d6 a5 86 bc 48 b6 b6 bc 76 d1 f5 bc 97 1c 04 3d
       -0.016436499 -0.022303715 -0.030007105 0.032253828
000230 8e be 83 b9 db 76 49 3d e8 2d 5c 3d 3d c7 7a bd
       -0.0002512824 0.049185615 0.053754717 -0.061225165
000240 02 09 71 bd 44 47 a6 bc 90 ef da 3e 38 9c 46 3c
       -0.05884648 -0.020297654 0.42760897 0.012122206
000250 53 ed 78 bd 4a cf 48 3b 0d da 6c bb 9d 9f 96 3e
       -0.060773205 0.0030641132 -0.003614071 0.2941865
000260 bd 66 c4 bd 8f b8 70 bc 22 01 66 3d 90 dc c5 3b
       -0.09589908 -0.01469244 0.056153424 0.006038256
000270 ea 75 bb 3a 73 cd fa bc 98 00 19 bc 61 a7 4c bc
       0.0014302109 -0.030615544 -0.0093385205 -0.012491078
000280 32 1e 0e bd 32 dc af 3c 77 9b 8e bd 7d b0 4f bd
       -0.034696765 0.021467302 -0.06963246 -0.05070542
000290 69 22 3f bd 31 4b 51 bd 43 04 01 bd 8f 62 d5 bc
       -0.046663675 -0.0510971 -0.031498205 -0.026047973
0002a0 fb 03 94 bc a3 3a 19 3d 1c 7b 90 bd ec cd 55 3c
       -0.018068304 0.037409436 -0.07054731 0.013049584
0002b0 51 07 f6 bb ff 87 42 3c ff 1b 25 3d 2b c6 36 3d
       -0.0075081964 0.011873244 0.040309902 0.04462258
0002c0 82 55 99 3c 8e f2 3a 3d 7b 26 77 3c f5 0e 19 3d
       0.018717531 0.045641474 0.015084858 0.03736778
0002d0 02 c3 84 bd 25 d3 df 3d 24 cc 42 bd a4 6b af bd
       -0.06482507 0.109289445 -0.047557965 -0.08565453
0002e0 a8 a2 51 bd 10 a1 9f 3c 77 65 ca bc 97 05 2a bc
       -0.05118051 0.01948598 -0.024706585 -0.010377309
0002f0 d8 77 1a 3d 0f 80 66 3c 54 a4 2b bd 64 46 2a 3d
       0.03771195 0.0140686175 -0.041904762 0.041571036
000300 c7 49 cc 3c 82 14 96 bc 5c 51 b2 3c 12 02 7a 3d
       0.024937524 -0.018320326 0.02176731 0.06103713
000310 dc 12 a3 3c 6c ff 5c bd 52 f2 66 bd 7c 6a dd 3c
       0.019906454 -0.053954527 -0.05638344 0.027028315
000320 68 80 78 bc 4e b4 15 3d 0d e4 54 bc 1b b8 0c 3d
       -0.015167333 0.036548905 -0.012993825 0.034355264
000330 93 ca f6 bc 67 8f 5c 3c 7c b7 05 3e ae 0b 79 bd
       -0.030125892 0.013461924 0.13058275 -0.060802154
000340 d8 9f d8 3c 1e 3c 9b bd 41 ce a2 3c bd 5e 39 3c
       0.026443407 -0.07579826 0.01987374 0.011314091
000350 c9 50 df 3c c4 eb c3 3d 5e 93 b7 bc f0 66 3f bc
       0.027260201 0.09566453 -0.022409137 -0.011682257
000360 a1 a1 d3 bc eb 80 b7 3e 34 ce 96 bb 3e 20 db 3e
       -0.025833907 0.35840544 -0.004602218 0.42798036
000370 a1 e2 86 bb b0 df de bc f9 1f d1 3c c8 56 45 3d
       -0.0041163717 -0.027206272 0.025527941 0.048178464
000380 f3 91 42 bd fa 87 45 bd bd 77 5f 3d 75 64 43 3b
       -0.04750247 -0.04822538 0.05455755 0.0029814516
000390 4d 89 e6 3b 87 b7 57 bd 8f a8 07 3d 46 8c dd 3d
       0.0070354105 -0.05266526 0.033119734 0.10817771
0003a0 ab e9 25 3c 66 e3 10 3b ba cd 15 3e 99 eb 22 3d
       0.010126512 0.0022108196 0.1462926 0.039775465
0003b0 de 73 6d bd 3c 7b 00 3d cf 73 e0 3e 95 86 c7 3e
       -0.057971828 0.031367525 0.43838355 0.38969865
0003c0 a4 33 05 bd 0e 04 34 3e 87 2d a9 3e 57 89 2e bc
       -0.03251995 0.17579672 0.33042547 -0.010652862
0003d0 5a a2 99 bb 0c 7b 68 3d 00 ab e7 3c a8 87 5a bd
       -0.0046885433 0.05675797 0.028279781 -0.053352028
0003e0 0d ec 48 bd 9a dd 69 bd a2 a8 e8 3c 70 ff 3e bc
       -0.04905324 -0.0570961 0.028400723 -0.011657581
0003f0 ae 61 ce 3c 43 71 ba 3e 7d b6 df 3e 45 05 97 bc
       0.025193062 0.36414537 0.43693915 -0.01843513

l3.weight f4 [256, 256]
000000 10 de 6f bd 2a ef 49 3c e8 a9 33 3d 80 c0 2f 3b
       -0.058561385 0.012325088 0.043863207 0.002681762
000010 92 da b9 3c 1c 98 b3 3b 23 05 ca 3c 78 09 12 3d
       0.02268723 0.0054807793 0.024660653 0.03565356
000020 c4 c9 00 3d d1 5c b3 bc a1 0d 6d bd a0 6b 03 bd
       0.03144242 -0.021894844 -0.057874326 -0.03208506
000030 a0 77 32 3d 60 d4 02 bc 85 31 f7 3b 06 83 aa 3c
       0.043571115 -0.007985204 0.007543745 0.02081443
000040 73 3a 0c 3d e1 e9 4e 3d af 01 d8 bc b0 1d ae 3b
       0.03423543 0.050516013 -0.02636799 0.0053135976
000050 ce 31 44 3d fc 6a 08 3d 60 0b 74 bb d4 a2 68 3c
       0.04789906 0.033305153 -0.0037238225 0.0141989775
000060 d2 7f 72 bd 10 e0 68 bd bb 45 3c bd a0 ab 24 bc
       -0.05920393 -0.056854308 -0.045964938 -0.010050684
000070 78 3d 1b bc 9b 4f 82 bd 53 40 32 3d 90 11 a0 3b
       -0.0094751045 -0.0636284 0.043518376 0.004884906
000080 10 e4 4a 3d 41 a4 2e bd f0 d2 b6 bc 0a fc 65 bd
       0.049533904 -0.042637113 -0.02231738 -0.056148566
000090 70 01 53 bc a9 bc f9 3c 3a cc 32 3d ce 08 52 bd
       -0.012878761 0.030485468 0.043651797 -0.051277928
0000a0 8a c1 74 bd f8 1c dd bc 68 1b ac bc fc 49 06 3d
       -0.059754886 -0.026991352 -0.021009162 0.0327854
0000b0 98 5c 90 3c f6 96 4e bc e1 33 82 3d 34 ee 18 3d
       0.017622277 -0.012609234 0.06357551 0.037336543
0000c0 ee 05 dc bc c6 6b 50 3d c3 7f 41 bd 98 f1 48 bb
       -0.026858296 0.05088403 -0.047240984 -0.003066158
0000d0 88 24 48 bd f0 db a2 3b 28 7f bb 3c ae b2 d3 bb
       -0.048862964 0.0049700662 0.022887781 -0.0064605093
0000e0 44 dd c0 bc 58 eb b5 3c ee 78 2f 3d 00 e2 fc 3c
       -0.023543008 0.022206947 0.042839937 0.030869484
0000f0 4e cb dc 3c 58 6e 75 3c 78 35 2d 3c f8 41 14 bd
       0.026952412 0.014979921 0.01057183 -0.036195725
000100 01 ab 22 3d 1f 7f 87 bc 10 63 3e bd db d5 08 3d
       0.039713863 -0.016540108 -0.046481192 0.033407073
000110 98 9b 00 3c b2 95 1f 3d 4c 96 19 3d 2e 2b a0 3b
       0.007849596 0.03896112 0.03749685 0.00488796
000120 93 8e e5 3c e5 98 99 3b 18 cd 53 3d 40 0b 55 3c
       0.028022086 0.004687416 0.051709265 0.0130031705
000130 30 02 be 3b b6 ba dc 3b f0 85 b0 bc 23 65 bc bb
       0.0057986006 0.006736125 -0.021548241 -0.005749361
000140 1a ff 73 bd 3c 28 b0 bc d9 57 5c 3d 41 71 3a 3b
       -0.059569456 -0.02150356 0.053794716 0.0028448852
000150 79 fe ca 3c 2c 33 6d bc a0 25 d8 3b cf 7b 3d bd
       0.024779545 -0.014477532 0.006596282 -0.04626065
000160 27 95 12 bd 5c be ed bc 5c 9e 0c bd 90 d6 cf bb
       -0.035786774 -0.029021434 -0.03433071 -0.0063427165
000170 c8 aa 00 3c 4c e6 0d bd 71 e2 b8 bc 6a 85 60 bc
       0.007853217 -0.034643456 -0.022568913 -0.013703683
000180 0b 75 88 3c 78 fb 6b bc e0 4c b0 bc a5 a2 9d bc
       0.016657373 -0.014403217 -0.021521032 -0.019242594
000190 14 d3 9f bc cc 78 90 bc b4 62 a7 bc 69 a1 7a bd
       -0.01950983 -0.017635725 -0.020432808 -0.06118909
0001a0 aa eb 9c 3b d0 93 40 3d ec d6 79 bd c8 3e bb 3c
       0.0047888355 0.047015965 -0.06099598 0.022857085
0001b0 f0 bb 36 bc 20 4a c4 bc 68 ef 60 3d a8 f3 51 bc
       -0.011153206 -0.023961127 0.054915816 -0.01281444
0001c0 67 c6 01 bd 14 9f a8 3c b2 8b 22 bd af 56 08 3d
       -0.03168335 0.020583667 -0.039684005 0.033285793
0001d0 06 45 12 bd ec 90 95 3c b2 8a 17 bc 5d 57 89 3c
       -0.035710357 0.01825758 -0.009249376 0.01676529
0001e0 41 5c da 3c 64 48 6f 3d 06 2a 0c 3b a4 ca cb bc
       0.026655318 0.058418646 0.0021387353 -0.0248769
0001f0 72 4c 4a 3d 20 d4 8a bd f8 2d d9 bc 8d 61 18 bc
       0.04938931 -0.06778741 -0.026511177 -0.009300602
000200 e7 d8 0d 3c c7 0c ff 3c 8f 1d 8c 3c 47 2c 88 3c
       0.008657671 0.031134022 0.017103938 0.016622676
000210 37 b6 0a bd a6 20 48 bd d0 fe 91 bb a2 b3 ec bb
       -0.03386518 -0.04885926 -0.004455425 -0.0072235623
000220 c3 96 90 bc a6 fb 50 bb 13 b7 99 bc 84 bf d5 bc
       -0.017650014 -0.0031888275 -0.018764054 -0.026092298
000230 50 a0 d4 bb 7f 4b 5f 3d d4 43 c2 bc 23 88 03 3b
       -0.0064888373 0.054515358 -0.023713984 0.0020070157
000240 ac f0 ef 3c 24 35 5b 3d 1d a7 54 bc c8 8d f8 bc
       0.029289566 0.053517476 -0.012979296 -0.030341044
000250 2a a8 95 3c e8 1d a0 bc 59 5c c3 bc a7 6c 72 3c
       0.018268663 -0.01954551 -0.023847746 0.014796413
000260 f7 13 00 bd 00 7e c1 ba 00 f4 56 bb ea db 14 bd
       -0.03126904 -0.0014762282 -0.0032799244 -0.03634254
000270 e4 38 fa bb 26 6f 23 bd a0 18 de 3b 12 c6 7a 3d
       -0.0076361764 -0.03990092 0.006777838 0.06122405
000280 28 ab 8c 3a d9 eb 65 bc ec 82 0f 3d 73 28 d2 3b
       0.0010732161 -0.014033281 0.035036966 0.0064135133
000290 d6 d5 26 3d 54 2c f2 bc 9a 55 09 bd f4 bb 06 bd
       0.040731274 -0.029562153 -0.0335289 -0.03289409
0002a0 4c bc 57 3d 40 00 24 3d 68 10 81 3c 8c a8 5f 3d
       0.05266981 0.0400393 0.015754893 0.0546041
0002b0 f8 8c f5 3c 2c b2 b5 3c 80 db 75 3d 60 fc db bb
       0.029974446 0.022179686 0.060023785 -0.006713435
0002c0 00 e4 e6 39 f8 6d 41 bd 60 c4 8e bb 94 b8 eb bc
       0.00044038892 -0.047224015 -0.004356906 -0.028774537
0002d0 14 53 e2 3c 8a ca d0 bc ae 44 a5 bc 00 2c 11 bc
       0.027627505 -0.025487203 -0.02017435 -0.008860588
0002e0 00 fa 5f b9 58 27 91 bc 1a e4 66 3d c2 b8 60 3d
       -0.0002136007 -0.017718956 0.05636988 0.0548637
0002f0 48 fe 57 bd be 1c 11 bd b2 30 25 3d 5e 10 1f 3d
       -0.052732736 -0.0354278 0.040329643 0.03883397
000300 a3 5a 29 3c 14 c3 f7 3c 32 86 77 3b 28 2f 9d 3c
       0.010336551 0.030244388 0.0037769196 0.019187525
000310 5a 95 4b bd ac 83 15 3d 9c d6 24 bd 46 ed 01 3d
       -0.04970298 0.036502525 -0.04024373 0.031720422
000320 50 3d 58 bd c7 81 1a bd d4 58 18 3d 9c f4 7e 3d
       -0.052792847 -0.03772142 0.037194088 0.062244996
000330 8c 87 d3 bc 71 50 d0 bb a9 4a 5d 3c 91 6a 78 bd
       -0.02582147 -0.0063572456 0.01350657 -0.060648505
000340 b2 ec 49 bd d1 d8 b5 3c 7a 11 49 bd 80 9a ae 3b
       -0.049297996 0.022198113 -0.049088933 0.0053284764
000350 2c 8f a2 3b 1e 69 8d bc 07 ed 1b 3d c0 96 51 3c
       0.004960915 -0.017262038 0.038067844 0.012792289
000360 8f fc 37 bd ec 28 0f bd db 03 8f bb a9 21 3a 3d
       -0.044918593 -0.034951136 -0.0043644733 0.045442257
000370 95 fa 59 bd 1a fd 44 bc 57 0a 2a bd e8 0e 4f bc
       -0.05321749 -0.012023235 -0.041513767 -0.012637831
000380 6b 7d 80 bd 70 45 46 3d 28 4e 5d bd cc 29 62 bd
       -0.062739216 0.048406065 -0.054029614 -0.05521564
000390 3d ee fa bc 61 76 25 3c eb f9 fa 3c ee ff 33 3d
       -0.030631179 0.0100990245 0.030636748 0.043945245
0003a0 57 68 a6 bb 7f 79 42 bd b1 97 09 bd e0 8e cf bb
       -0.0050783562 -0.04747915 -0.03359193 -0.0063341707
0003b0 8a 7e 50 3d a8 4f bd bc 5d ce 27 bb cb 51 6a bd
       0.050901927 -0.023109272 -0.002560518 -0.05720691
0003c0 a0 c1 1b bd 58 86 32 3d 7f 1d 1e 3d f8 9c 7e bc
       -0.038026452 0.04358515 0.03860235 -0.015540354
0003d0 94 e2 c3 bc 34 ba 59 3d 84 6b 6e bd d7 43 d9 bc
       -0.023911752 0.053156093 -0.058208004 -0.026521606
0003e0 f4 dc 0a 3d 78 43 34 3d a4 f5 33 bd 4c d1 c7 3c
       0.033902124 0.044009656 -0.043935433 0.024391793
0003f0 2d 35 b1 3c ae ff b7 ba 0b d7 8c bd d0 07 16 3a
       0.021631802 -0.001403799 -0.06876954 0.000572321

l3.bias f4 [256]
000000 19 48 82 bc 7a 3d c9 b9 d4 e9 45 bd 44 06 eb 3b
       -0.01590352 -0.0003838351 -0.0483187 0.007172378
000010 56 81 d8 3e 28 2e 38 3d b2 3b a8 3c 08 72 4f bd
       0.42286175 0.044965893 0.020536277 -0.050645858
000020 9e 47 5a bd 79 5b ca 3c 40 96 b2 3b 90 72 9a b8
       -0.053290956 0.02470182 0.00545004 -7.364631e-05
000030 60 ba 03 3d fb 72 98 bc bb 51 67 bd 0c b0 68 bc
       0.032160163 -0.018609514 -0.05647443 -0.014202129
000040 fe 99 82 bd d3 0a 97 3b 0e 72 54 bd 2a b8 cd 3e
       -0.06377028 0.0046094446 -0.051866584 0.4017957
000050 62 f4 46 3e f6 a4 07 3d ed ee 3e bc 24 81 99 3d
       0.19429162 0.033116303 -0.011653644 0.07495335
000060 37 7f db b9 04 ae e3 3e 2e 7a 69 bd a4 db 78 3e
       -0.00041865718 0.444687 -0.057001285 0.24302536
000070 86 29 39 bd be 72 eb 3b 87 6e 0e 3b a0 b8 1b bc
       -0.045205615 0.007185309 0.002173336 -0.009504467
000080 fc fe 5d 3d a3 59 3e bd 30 e7 e9 3b c6 e8 62 3d
       0.05419825 -0.046472203 0.0071381554 0.05539777
000090 90 a7 e4 bc 41 54 39 bd 8e 7d 2d 3d 43 3d 73 bd
       -0.027911931 -0.045246366 0.042356066 -0.059384596
0000a0 db 13 16 bd a9 73 45 3d 60 9f 40 3d 28 c8 15 bd
       -0.03664003 0.048206005 0.04702699 -0.036567837
0000b0 44 e0 0f 3d e6 48 5a 3d 4a 57 48 3d 8e 3b 26 bd
       0.035125986 0.053292178 0.04891137 -0.04058414
0000c0 ef 61 e1 bc 3b 2d ae bc 2a d3 7a 3d 4c 47 42 3d
       -0.027512519 -0.021261802 0.061236538 0.047431275
0000d0 be 67 37 3d cb 55 38 3b 8c 74 d0 bc 3d 6f 32 3d
       0.04477667 0.0028127308 -0.025446199 0.043563116
0000e0 1e 15 6a 3d 0d f1 33 3d 54 8e 2c 3b be 12 8e bc
       0.057149045 0.043931056 0.0026329951 -0.017342921
0000f0 ee 77 14 bd 4d bd 0f bd 2e af 76 bd 8f 0d dc bc
       -0.036247186 -0.03509264 -0.060225658 -0.026861934
000100 4f 37 0d 3d 31 3c 24 3b a4 d9 81 3b 28 19 18 3c
       0.034476575 0.002506029 0.0039627124 0.0092833415
000110 52 e0 09 3d be 4e eb bc 21 fe 58 3d 4b 32 cf 3e
       0.033661194 -0.02872407 0.05297673 0.40468058
000120 7f 7d 82 3d 6f 13 dc 3e bd e4 47 bd 21 94 59 3d
       0.06371593 0.42983577 -0.048802126 0.053119782
000130 12 61 6b bd a6 d2 f4 bc 53 68 0b 3e 89 0b 51 3d
       -0.05746562 -0.029885601 0.13614015 0.05103639
000140 2d 47 12 3d 12 12 c3 3e 64 1c 73 3b 70 42 cd 3e
       0.03571241 0.38099724 0.003709578 0.4008975
000150 a9 a0 f5 bc cd 40 90 bd 29 3a 83 3c cd 9c 66 bd
       -0.029983835 -0.0704361 0.016018944 -0.05630188
000160 96 55 d0 3e 5f fe 43 bc b8 f8 79 3c 0f cc 38 3d
       0.40690297 -0.011962502 0.015257053 0.04511648
000170 c5 1b 2b bd de 8f 59 3d 1e 6b 8a 3d b6 60 2b bd
       -0.04177453 0.053115718 0.06758712 -0.041840278
000180 62 75 27 3d b5 46 d9 3e 8d a5 d9 3c 41 8c ed 3e
       0.04088343 0.42436758 0.026568199 0.46396068
000190 33 57 ec bc 8f 1e dd 3e 0f ae 2a bd 74 ed 34 bd
       -0.028850174 0.43187377 -0.0416699 -0.044171765
0001a0 98 0c 42 3d 2b ca 61 3c b2 8f c1 3e 78 a1 52 3e
       0.04737529 0.013781111 0.37804943 0.20569408
0001b0 91 c6 31 bc b3 85 4e bc 77 27 c5 3e 6a a3 ae bc
       -0.010850565 -0.012605119 0.38506672 -0.021318156
0001c0 50 7c fe bb 61 ca db 3e f1 f0 00 3d 1c c6 bd 3e
       -0.007766284 0.4292784 0.03147978 0.37065208
0001d0 54 ba 14 bd 66 44 47 bd 40 85 71 bd 05 40 4d bc
       -0.03631051 -0.048649214 -0.058964968 -0.0125274705
0001e0 2c aa aa 3c 61 1d ec bc 44 9a 4c 3b 3b 3c 3b bd
       0.020833097 -0.028822603 0.003121988 -0.045711737
0001f0 ed 78 c6 3c 91 24 f7 3e bc 52 22 bd ac ea c5 3d
       0.024227584 0.48270085 -0.039629683 0.09663901
000200 2c 52 c3 3e 60 2d 4b 3d 55 10 14 3d a6 78 cb 3c
       0.3814863 0.04960382 0.036148388 0.024837803
000210 42 ee d6 3e 23 1f 12 3c 6a 28 89 3c dd 7b bd bc
       0.4197865 0.008918556 0.016742904 -0.023130352
000220 6e 0e 5f 3d e2 10 90 bc 2c 9b 52 bd 73 7b 24 3d
       0.05445712 -0.017586175 -0.051417515 0.040156793
000230 c8 21 67 3d a5 f6 71 3e b2 74 5a bd ee f0 af 3e
       0.0564287 0.23629244 -0.053333946 0.34363502
000240 1b d1 23 3c e5 67 43 3d 34 59 7f bd b3 42 ce 3c
       0.009998585 0.047706503 -0.06234093 0.025178289
000250 0a be ec 3e e4 89 dd bb d7 c7 81 3d 35 c2 44 3d
       0.46238738 -0.0067608226 0.063369446 0.048036773
000260 ea 3b 12 3d cb 88 b3 3e 00 dd 0d bd 20 5a 46 bd
       0.03570167 0.35065302 -0.03463459 -0.048425794
000270 a0 cc 7f bd 2c be be 3c 33 0e f9 3c 96 c8 be 3e
       -0.062451005 0.02328404 0.030402279 0.3726241
000280 c1 9e 83 3c 96 7d a3 3a e1 10 e2 3a fb 10 1d 3e
       0.01606691 0.0012473341 0.0017247462 0.15338509
000290 43 36 2c 3d 19 c4 04 bd c4 86 db bc 76 15 a8 bc
       0.042043936 -0.032413576 -0.02679766 -0.020518046
0002a0 85 9b b7 bc db a8 63 3e 67 e4 c3 3c df 6f 24 3e
       -0.022413025 0.22232382 0.023912622 0.160583
0002b0 0a b6 92 39 8f 27 95 3d 12 d7 12 bc 06 a5 55 3e
       0.0002798292 0.07282936 -0.00896241 0.20863733
0002c0 40 82 80 bb 8d c1 c6 3e f6 7b 80 bd a4 86 ed 3c
       -0.003921777 0.38819543 -0.06273644 0.028994866
0002d0 6e 14 b7 3e 34 45 65 3d 47 42 8b bd ff ae 12 3e
       0.35757774 0.0559742 -0.06799751 0.14324568
0002e0 0a 52 2b bd f6 d6 45 3d a0 da 66 3c 9a cd 2f bd
       -0.041826285 0.048300706 0.01409021 -0.042920686
0002f0 1e c7 8f bb 73 d8 13 3d e8 41 97 3d 3f f3 9b 3d
       -0.0043877503 0.036095094 0.073856175 0.07614755
000300 b5 00 85 bb e9 19 b3 3d 66 89 04 3d eb c7 76 ba
       -0.004058922 0.08745176 0.032357596 -0.00094139454
000310 7f 0c 1f bd b8 96 49 bd 20 e9 ab b8 6f 8b 32 bc
       -0.038830277 -0.049216002 -8.197338e-05 -0.010897501
000320 98 82 33 bd 60 a4 d7 3e 70 08 fe 3b 66 b8 26 3d
       -0.043825716 0.42117596 0.0077524707 0.0407032
000330 ef ff c6 3c 27 0e 96 bc f0 2d bb bb d8 61 41 bc
       0.02429196 -0.018317295 -0.0057122633 -0.011803113
000340 1d 2e 4f 3d 98 23 a5 bc b8 08 65 3d 3a dd f0 3c
       0.050581086 -0.020158574 0.055916518 0.029402364
000350 2a ac fc 3c ac e8 b6 3c db d2 ca 3e d1 95 bf 3e
       0.030843813 0.022327743 0.39613995 0.37418988
000360 97 32 bd 3e 89 9d cb 3e b5 b6 c1 3c b6 e3 c3 3e
       0.3695266 0.39768627 0.023646692 0.38259667
000370 56 b4 4b 3d 7b 83 4e 3d 0c a2 37 bc f6 e7 49 3b
       0.04973253 0.05041836 -0.011208069 0.0030808426
000380 cd 5d 31 3d f8 4d 87 bd 56 64 43 3d 23 12 dd bc
       0.043302346 -0.06606668 0.04770311 -0.026986187
000390 32 53 0d bd 40 1e 8b bc 84 1a b7 3e 18 e8 42 3d
       -0.03450317 -0.016982198 0.35762417 0.047584623
0003a0 fe 90 75 3b a2 1c 39 bd 51 4a 72 bc e7 44 bf 3e
       0.0037470455 -0.045193322 -0.014788226 0.37357256
0003b0 f4 b6 04 3d 99 56 1f bd 36 f1 5a bd e4 a5 c9 3e
       0.03240104 -0.038900945 -0.053452693 0.39384377
0003c0 96 ea 9d 3e d9 69 ef 3e 23 00 70 bc 9b 58 25 3b
       0.30843037 0.46760443 -0.01464847 0.0025229815
0003d0 23 e7 86 bd 08 b4 db 3d e1 52 2b bd 6c 5b c1 3c
       -0.065870546 0.107276976 -0.041827086 0.023603164
0003e0 05 25 8a 3d b6 00 24 bd 2d 23 26 bd dc c0 8c bd
       0.06745342 -0.04003974 -0.04056089 -0.068727225
0003f0 51 ef e2 3e dd 0e a6 bc 3e ab 95 bd 71 7e 16 3d
       0.4432321 -0.02027076 -0.073080525 0.036741678

l4.weight f4 [1, 256]
000000 e5 94 cb bc 43 73 a3 3b d6 94 4d bd 6c 30 e6 3c
       -0.024851272 0.0049881055 -0.05019077 0.028099261
000010 34 d8 f6 3c 3c 57 d8 3c e6 5c 54 bd c2 ef f1 ba
       0.03013239 0.026408784 -0.051846407 -0.0018458294
000020 d6 75 b0 3c aa 4a 4a bd da 9c 6d bd e4 7b 62 bb
       0.021540564 -0.04938761 -0.058010913 -0.0034558708
000030 f1 36 34 bd f5 0f df bb 85 af cc 3c 0e 18 17 bd
       -0.04399771 -0.006807322 0.024986038 -0.036888175
000040 07 16 37 bd 74 06 68 3d 60 6c f5 ba 23 5e 33 3d
       -0.04469874 0.05664678 -0.0018724315 0.043790948
000050 84 e4 19 ba 59 53 ef 3b 35 b2 fe 3b f8 b0 fb 3a
       -0.00058705383 0.007303637 0.007772709 0.0019202521
000060 7d d4 3e 3a ce 65 e8 3c 00 02 10 bb 4b a8 02 3a
       0.0007279588 0.028368857 -0.0021973848 0.0004984184
000070 80 be b0 3c c2 44 1c 3d 6a ee 07 bc 80 99 65 3c
       0.021575212 0.03815151 -0.008296588 0.014013648
000080 5f 88 33 bd b9 d3 8d bc 30 45 38 bd 0a b5 1b bd
       -0.043831225 -0.017312871 -0.044987857 -0.03801445
000090 42 07 40 bd f7 f0 19 bd 8a c1 44 3d e0 c2 46 3d
       -0.04688192 -0.037583318 0.048036136 0.04852569
0000a0 be cd 15 bd 4a b1 f3 b9 37 76 0a bd e0 a8 b1 3b
       -0.036573164 -0.00046480662 -0.033804145 0.005421743
0000b0 dc 36 5c 3d 8d a7 48 bd 6b 0b 64 bd 3e a0 3e 3d
       0.053763255 -0.048987914 -0.05567495 0.046539538
0000c0 81 d2 9c 3c c2 27 b4 bb e8 ce c5 3c 40 ea e7 3a
       0.019143345 -0.0054979036 0.024146512 0.0017693713
0000d0 8a 2c 43 3d 83 d7 3f bd 40 49 3c bb 8d 07 03 bd
       0.047649898 -0.046836387 -0.0028730184 -0.031989623
0000e0 4e 90 61 3d 92 0f 07 ba ec 0b 29 3b 37 fe 0f bd
       0.05506926 -0.00051521615 0.002579446 -0.035154548
0000f0 bb 19 50 bd 75 0c f2 3c c0 bd 2d bd bc 44 19 bd
       -0.05080579 0.029546956 -0.042417288 -0.037419066
000100 63 80 0e bd b5 bd 96 3c 62 70 3a bd 02 eb 29 bd
       -0.034790408 0.018401006 -0.045517333 -0.041483887
000110 df 28 56 3c 16 76 fc bc 85 1a 1a 3c 22 db 68 3d
       0.013071268 -0.030818027 0.009405737 0.056849606
000120 bd 30 ef bb 7e 83 8f 3d 07 fd 4b bd 98 b0 39 3c
       -0.007299511 0.07007502 -0.049801853 0.011333607
000130 09 eb 03 3d cc d9 19 bd 68 62 49 bb a5 02 db bc
       0.03220657 -0.037561223 -0.003072882 -0.02673466
000140 d6 50 fc bc d6 61 3a 3d 0c cc c8 3b bc d2 70 3d
       -0.030800264 0.04550346 0.00612784 0.058794722
000150 ea a2 15 bd 52 98 2c 3b 8c 0d c6 3c 10 0e 99 bb
       -0.03653232 0.0026335907 0.024176382 -0.004670866
000160 27 d9 3c 3d 59 40 b6 bc 48 ba 31 bd 04 ba da bc
       0.04610553 -0.02224748 -0.043390542 -0.026700027
000170 28 59 60 bd c0 26 84 3c ed f7 df b9 7f af f6 bc
       -0.054772526 0.016131759 -0.00042718594 -0.03011298
000180 14 d3 41 3d 2b 44 00 3d 1b 67 30 3c 24 90 91 3d
       0.04732044 0.03131501 0.01076677 0.07107571
000190 f3 fe a6 bc 88 d0 54 3d ec 31 01 bd b5 b6 6d 3a
       -0.020385241 0.051956683 -0.03154175 0.0009068058
0001a0 b7 ad 34 3b bb 67 8f bc 5e 50 44 3d 50 e8 f2 b9
       0.0027569362 -0.017505517 0.047928207 -0.00046330923
0001b0 ba b8 66 3d 7b b9 a2 bc 28 b9 85 3d 50 ce b1 bb
       0.056328513 -0.019863835 0.065294564 -0.0054262057
0001c0 dc b1 ae bc e8 61 80 3d e7 4d a5 bc 85 85 dd 3c
       -0.021325044 0.06268674 -0.020178748 0.027041206
0001d0 7a e0 6f 3c b8 f6 ce 3c ec 67 1a 3d b9 98 2a bc
       0.014640922 0.025264129 0.037696764 -0.0104123885
0001e0 d9 8f 22 3d 0d a0 22 bd 38 92 df 3c 5c 30 0c bd
       0.039687965 -0.039703418 0.027291402 -0.034225807
0001f0 45 2a 80 bb f6 ec 86 3d 78 57 b0 3c d3 dc ac b9
       -0.003911289 0.065881655 0.021526083 -0.00032970923
000200 ee ff 7c 3d 25 eb e8 3c 69 ce a2 3a 74 30 a2 bc
       0.06176751 0.028432438 0.0012421134 -0.019798495
000210 2b 4d fd 3c 43 88 88 bc b0 49 10 bd 24 47 a4 3b
       0.030920586 -0.016666537 -0.035226524 0.0050133634
000220 3c 80 9f bc 27 1f 2f bc e2 7c 34 bd 91 10 ac 3b
       -0.019470327 -0.01068858 -0.04406441 0.0052509983
000230 60 5c 22 3b fe 55 84 3c 77 8c 3b bd e4 77 5c ba
       0.0024774298 0.016154286 -0.045788255 -0.0008410199
000240 5b f1 e1 3c 52 89 be bc 98 dc 42 3b 1d 12 41 bb
       0.027580908 -0.023258839 0.0029733535 -0.002946026
000250 c3 13 9f 3c ab a8 3e bc b5 d8 8b bb ea 1f 0c bd
       0.019418603 -0.011636893 -0.004267777 -0.034210123
000260 fc fb db bc a5 7c f6 3c df 1f 6b 3a 20 ea 1e 3c
       -0.026853554 0.030088732 0.0008969288 0.009699374
000270 38 63 0a 3c bf e8 0d bd e0 6f 2a bd 43 7e 10 3d
       0.008446507 -0.034645792 -0.0416106 0.035276663
000280 1e fb 0c bd e0 e5 db ba a1 92 8d bc b6 87 ba ba
       -0.03441917 -0.0016776882 -0.017281832 -0.0014231119
000290 f2 80 22 3b 19 d3 58 bc a6 71 17 3d 41 2a cd 3c
       0.0024796096 -0.013233923 0.036973618 0.025044562
0002a0 25 20 70 3a d7 a9 06 bb b8 88 d1 bb 2c d7 9a 3b
       0.00091600633 -0.002054801 -0.006394472 0.0047253575
0002b0 fb 2a 74 bc 55 b5 71 bb 70 02 c2 ba 9c b0 54 ba
       -0.0149028255 -0.0036881764 -0.0014801752 -0.0008113475
0002c0 04 2b 96 bc b7 75 a1 3d 46 be 10 bd d7 13 2b 3c
       -0.018331058 0.078837804 -0.03533771 0.010441742
0002d0 ee 33 0d 3d 74 d4 96 3c c5 be 39 bd 30 9c 36 bc
       0.034473352 0.018411852 -0.045347948 -0.011145636
0002e0 a0 1a d9 bb 92 f8 5e bd 32 a0 2e bd 7e 7a 2e 3b
       -0.0066254884 -0.054436274 -0.042633243 0.0026623304
0002f0 78 5b f8 bc 90 3f 24 bd d8 ce 98 38 4c 51 80 bb
       -0.030317053 -0.04009968 7.2864525e-05 -0.0039159413
000300 b1 df ae bc 21 b5 85 3c cd 2e 06 bd 10 be 4a 3b
       -0.021346899 0.01632172 -0.032759476 0.003093604
000310 5b 7a 13 bd 44 a3 35 bd 74 6e d9 bc 74 b9 57 bd
       -0.03600536 -0.044345155 -0.026541926 -0.052667096
000320 8a 75 13 3d 3c 95 91 3d c0 88 97 bc e2 b5 16 3b
       0.036000766 0.07108542 -0.018497825 0.0022996594
000330 d5 93 51 3c bb a1 62 bd 44 1d 28 3d e4 36 63 bd
       0.012791594 -0.05533002 0.041043535 -0.05547227
000340 8b 4f 16 3d 72 44 13 bd f6 90 e0 3c 57 4d ba 3c
       0.03669695 -0.035953946 0.027412873 0.022741957
000350 f1 f7 0d 3b 20 b6 d6 3b 83 4a 01 3d 6d c4 b7 3c
       0.0021662677 0.0065524727 0.0315652 0.02243253
000360 9d 6b 0d 3d a7 00 c9 3c 10 e7 44 bd b4 76 86 3d
       0.034526456 0.024536444 -0.04807192 0.065656096
000370 7c c4 dc bc 20 c5 2a 3a 17 f5 54 3d 85 c5 6d 3d
       -0.02694916 0.0006514359 0.05199155 0.058049697
000380 37 6f 3a bc 68 d4 1c 3b 4a c6 cd bc f8 c1 21 3d
       -0.011379055 0.0023930315 -0.025118966 0.039491624
000390 12 99 17 3d 70 bc 21 3c f1 f5 13 3d 68 59 bf 3c
       0.037011214 0.009871587 0.03612322 0.023358062
0003a0 17 dc 10 bd 80 3b 3e bc 0d d4 d9 bc d4 de 6d 3d
       -0.035366144 -0.011610866 -0.026590372 0.058073834
0003b0 f8 c9 3a 3c 6c cc ea 3a d0 2b 5a bd 08 35 4e 3d
       0.011400692 0.0017913706 -0.05326444 0.050343543
0003c0 46 61 47 3a 78 1f 7b 3d 1d d2 e7 bb f1 c8 84 bb
       0.00076057424 0.061309308 -0.007074608 -0.0040522744
0003d0 6e 7e 5f 3d c2 05 60 3c 83 25 75 bc 4f c2 26 3c
       0.054563932 0.013673248 -0.014962557 0.010178163
0003e0 88 9f 54 3a 40 d9 30 3c 91 61 b6 bc e9 3c 83 3b
       0.000811093 0.010793984 -0.02226332 0.004005064
0003f0 3d c2 91 3d 0b 61 60 bd 02 8e 82 bc 95 26 04 bc
       0.07117126 -0.054780047 -0.015936855 -0.008065839
