models/GMI_pretrained/GMI_GPM_channel_predictor_37H_ocean.pt (torch, 544272 bytes, 7 tensors)

l1.weight f4 [256, 12]
000000 d6 06 47 bd d7 3a 8f be 1e 02 38 3e 73 eb 31 3c
       -0.048590504 -0.2797458 0.17969558 0.010859358
000010 f1 51 91 be 8a 5a 03 be 08 ac 31 3e 87 e3 92 3e
       -0.2838283 -0.12827507 0.17350781 0.28689215
000020 be a1 5c 3d b7 9b c1 bd 96 a9 31 be 20 27 4d be
       0.053865187 -0.094535284 -0.17349848 -0.20034456
000030 b8 e0 2b 3e 4c 9b ea 3e 94 93 9d 3e 64 c1 8e 3e
       0.16784942 0.45821607 0.30776656 0.2788192
000040 92 be 28 3c ed 1f 7f be a7 7e 18 bc 85 76 6e bd
       0.010299342 -0.24914522 -0.00930754 -0.058218498
000050 43 fc 3b be f2 8d 68 be 7a fb 88 3e 87 21 34 be
       -0.18357949 -0.22710398 0.2675436 -0.17590915
000060 54 5e 5c be ab ae b8 bd 32 38 56 3d 8f 24 5e 3b
       -0.21520358 -0.0901769 0.052299686 0.0033896302
000070 64 b7 81 be e4 c9 3d 3e d6 c6 b4 3b 49 15 31 3c
       -0.25335228 0.18534046 0.005516867 0.010808297
000080 7e b6 78 3e 0c 2e 4e 3e e6 ed 13 3e 12 98 9d 3d
       0.24288365 0.20134753 0.1444622 0.07695021
000090 df 43 16 be 07 b0 89 3c 91 6d 89 3d 45 df 83 bc
       -0.14674328 0.01680757 0.06710351 -0.016097674
0000a0 77 43 01 bd f4 dc 65 be 0c fe 42 bc c1 be 8e be
       -0.03155848 -0.22447568 -0.01190139 -0.2787991
0000b0 0a 9b ef 3d 36 b6 84 3d 70 4e 3b 3e 76 64 1e bc
       0.11699493 0.064800665 0.1829164 -0.009667506
0000c0 49 ad 28 be f4 a6 44 bd 7e 1c 71 be 4d 43 68 3d
       -0.16472353 -0.04801078 -0.23546025 0.056704808
0000d0 a3 fb 3d be ca 07 b0 3d 04 09 44 3e 76 2a e7 3d
       -0.18553023 0.08595236 0.19144064 0.11287396
0000e0 d9 c8 5c 3e d1 f3 3a be b1 fc 00 3e bb 81 13 3e
       0.21560992 -0.18257071 0.12596394 0.14404957
0000f0 e5 61 ee 3d 2f 0b 64 3e 2b 7a a9 be db d7 ba be
       0.11639766 0.22269891 -0.3310102 -0.3649281
000100 c8 e3 6f be b9 ff 78 3e 65 12 d0 3d ff 92 97 3e
       -0.23426735 0.243163 0.101597585 0.29604337
000110 c5 d0 9e 3d ba e5 8c be f3 35 63 3e df a1 de bd
       0.077546634 -0.27519017 0.22188549 -0.10870718
000120 84 9d 65 3e 0b 44 3d 3e 34 01 c3 bd bb 65 03 3d
       0.22423369 0.18482988 -0.09521714 0.03207944
000130 3f bb 84 3e 7c 1d a6 3e 58 09 33 be 8a 85 0b bd
       0.25924107 0.3244437 -0.17484033 -0.0340629
000140 e1 e9 9a bd 9e 86 6d be a8 d7 94 be fd 9c c8 3d
       -0.0756414 -0.23195884 -0.29070783 0.09795568
000150 fa f6 48 3e b6 74 f8 bd 23 17 07 be a3 02 b6 bd
       0.19625464 -0.12131636 -0.1319242 -0.08887222
000160 2a 35 c2 bd de 1d 4a be 06 18 7f 3e ca b5 12 3b
       -0.094827965 -0.19737956 0.24911508 0.0022386187
000170 27 22 55 be f6 76 0b 3e 39 00 d4 3d c8 10 18 be
       -0.2081381 0.13619599 0.10351605 -0.14850152
000180 0b 27 89 3d 6f 98 40 be c9 1a ef 3d f9 47 bc bd
       0.066969 -0.18808149 0.11675031 -0.09193415
000190 bd 79 a0 bd 01 33 8b be 72 c6 69 3d 7f 62 16 3e
       -0.0783572 -0.2718735 0.057074018 0.14686011
0001a0 64 5b 9c 3d dc f7 56 bd 1a 72 35 be bb 75 23 3e
       0.07634619 -0.05248247 -0.17719308 0.1596288
0001b0 04 73 4d be 9d c2 d5 be 44 ce 1c 3e 03 f1 46 be
       -0.20063406 -0.4175004 0.15313059 -0.19427876
0001c0 5f 92 77 3e 23 0f 88 bd 92 ca 87 3d b8 78 a3 bd
       0.2417693 -0.06643512 0.06630434 -0.0798201
0001d0 ec 49 c7 3c 88 39 6e 3e 7a e7 90 be 98 26 07 3e
       0.02432724 0.23264134 -0.28301603 0.13198316
0001e0 4f 59 62 bd a1 4b 1a 3e 91 25 88 3e d3 fb bc 3d
       -0.055260953 0.15067913 0.2659116 0.09227719
0001f0 00 48 e4 3c 57 ec b6 be 80 3e df bd a6 fc 92 be
       0.027866364 -0.35727188 -0.10900593 -0.2870838
000200 78 df 4b be c7 5c e1 bd 8b bd b8 bc b5 93 e8 3d
       -0.19909465 -0.11004024 -0.022551319 0.11356298
000210 39 26 b7 be f4 3f d0 3e 0e ef 22 be b8 57 64 3d
       -0.3577135 0.40673792 -0.15911505 0.055747718
000220 ea f9 79 be 82 06 9c 3d 7d 00 9b bc 3c 40 2b 3d
       -0.24411741 0.07618429 -0.018921131 0.041809306
000230 2d a1 45 3e 22 e3 99 3d 5d ff 54 3b 76 d8 13 3d
       0.19299765 0.07514025 0.0032500841 0.036095105
000240 95 59 b6 3c 96 84 84 3e 5d 27 90 bc 8b 0a 60 be
       0.022259513 0.25882405 -0.017596895 -0.21879022
000250 6d 4c 18 3e 50 a3 27 3c 89 dd ac bd ed 32 0f bd
       0.14872904 0.010231808 -0.08440692 -0.034960676
000260 ba d6 88 bd 19 4f e7 bd d4 9f d8 bd 99 10 7d be
       -0.06681581 -0.112943836 -0.1057736 -0.24713363
000270 cc 04 1c 3e 62 e2 2b be 36 dd bb bd 5c f5 7f 3e
       0.15236205 -0.16785577 -0.09173052 0.24995941
000280 22 2b a7 3d 0a 83 81 be 5d 4e 93 be 2e ac 2a be
       0.08162524 -0.25295287 -0.28770724 -0.16667244
000290 ac 8f 3d 3d d7 13 3c 3e e9 63 8f bd 70 38 22 3d
       0.046279594 0.18366943 -0.07001478 0.039604604
0002a0 f8 2c 6e be 78 cf 7d be 20 9f c0 3c 8e 8f da 3d
       -0.23259342 -0.24786174 0.023513377 0.10671912
0002b0 9e 32 d5 3d 6e 84 09 3e 6a a8 88 be 4d 83 0c 3d
       0.10410045 0.13429424 -0.2669099 0.034304906
0002c0 9b 72 4c 3d 62 86 42 3e c9 70 51 bd 6e 59 41 be
       0.049913984 0.18996575 -0.05113295 -0.18881771
0002d0 9d 96 cd 3c 2a dc a1 be 03 3a 5c 3d 07 01 73 3e
       0.025096232 -0.31613284 0.05376626 0.2373086
0002e0 5f 0c 72 be 8d 96 84 3d a3 2c 6b bc 71 5f 31 3d
       -0.23637532 0.06474028 -0.014353904 0.04330391
0002f0 18 79 2d 3e 31 c4 24 3d e4 1a ac be 13 0f 72 3e
       0.16940725 0.040226165 -0.33614266 0.23638563
000300 97 d8 42 3e 26 5c 45 3e 78 90 43 3e e9 bd 89 be
       0.19027935 0.19273433 0.19098079 -0.26902702
000310 c0 5c 43 be e7 30 a3 bd 31 3f d3 bd 4e c1 fd bd
       -0.1907835 -0.07968312 -0.10314787 -0.123903856
000320 6f 7e 83 3e 9b 21 28 3c 71 4a c9 bd b4 c6 0f be
       0.256824 0.010261918 -0.09828652 -0.14040643
000330 c1 2e b8 3b 6c 5f 15 be a4 4a 7f 3d 1c 81 31 3e
       0.005620808 -0.14587182 0.062327042 0.17334408
000340 bc e8 f0 3d 54 28 b4 bc 20 63 e5 bd 18 74 7f be
       0.117631406 -0.021991886 -0.11200547 -0.2494663
000350 f7 85 fd 3d 89 c0 70 be aa fa 2a be 8e 0f 91 be
       0.123790674 -0.23510946 -0.16697183 -0.2833218
000360 f6 d1 60 be 2e 45 e2 3d e3 5b c7 3d a3 8c fd bc
       -0.21955094 0.11048351 0.09734323 -0.03095085
000370 e3 a8 2d be be b0 67 3e 87 ec 70 3d 23 bb 48 bd
       -0.16958956 0.22626016 0.05881932 -0.049006592
000380 93 9e 02 3e f8 fa 54 be ac 97 da 3d 85 3b 21 be
       0.12755804 -0.20798862 0.1067346 -0.15745361
000390 2a 0d 04 be 60 54 65 3e 71 d2 00 3e f8 ca 9b 3d
       -0.12895647 0.22395468 0.12580277 0.076070726
0003a0 c2 b7 77 be 8b 89 4b 3d 64 c8 8a be a5 87 13 be
       -0.24191192 0.049691718 -0.2710601 -0.14407213
0003b0 fc ad 92 3d 51 dc 69 3e 60 67 2d be 0e af b7 3c
       0.07162091 0.2283795 -0.16933966 0.02242234
0003c0 e6 a2 f9 3b 15 d7 0a 3e 23 db 78 be 5c 77 0c 3e
       0.007618296 0.1355861 -0.24302344 0.13717407
0003d0 14 30 84 3e 91 0e 90 be a4 94 a6 bd 38 e2 50 3e
       0.2581793 -0.28136113 -0.0813382 0.20398796
0003e0 8a d4 9a bd ea af 8a be 8a 39 80 bb cc 57 cd bd
       -0.0756007 -0.27087337 -0.003913109 -0.100265115
0003f0 57 90 0f 3c 31 07 84 bd ba b2 65 be 58 78 43 3e
       0.008762441 -0.06446684 -0.2243146 0.19088876

l1.bias f4 [256]
000000 48 f1 b3 bd 91 59 45 3e d6 08 27 bc 41 20 ca 3d
       -0.08786255 0.19272448 -0.010194978 0.09869433
000010 9e e0 2d be c0 10 16 3f 97 2c 9e be 53 c7 42 bd
       -0.16980216 0.5861931 -0.30893394 -0.04755337
000020 27 48 bc bc e4 85 eb be b7 08 0f 3e 46 cc 8d 3e
       -0.022983624 -0.46000588 0.13968168 0.2769491
000030 8b 9e bc 3d 29 60 3b 3e 2a c8 36 be ee ee 0a be
       0.09209927 0.18298401 -0.17849794 -0.13567707
000040 f9 fd 7d 3e 87 d1 1c be 89 34 8a be 15 df 92 be
       0.24803914 -0.15314303 -0.26993206 -0.28685823
000050 ba 50 78 be f7 aa 19 be 14 86 3b be 61 25 1f be
       -0.24249545 -0.15006624 -0.18312865 -0.15541603
000060 b6 f7 91 3d 9a a2 30 3e 59 ca 12 3e 12 f5 cd 3b
       0.07127325 0.17249528 0.14335002 0.006285318
000070 44 8a fa 3d 60 6d 69 be 3f fd 9b be a1 c9 83 3e
       0.12233403 -0.2279563 -0.3046665 0.25739768
000080 48 e5 f8 3e 08 93 86 3e 3b 1a 09 be 79 fc 2f 3e
       0.48612428 0.2628405 -0.13388912 0.17186154
000090 a1 60 c5 bd 4b 5c 1f 3d 58 bc 2e 3e 03 2e eb 3c
       -0.09637571 0.038906377 0.17064035 0.028708464
0000a0 f4 fb 84 be d1 da 87 be 7f 49 91 be 34 e2 21 be
       -0.25973475 -0.2653413 -0.28376386 -0.15808946
0000b0 50 f1 73 3d 29 56 96 3e f0 70 8d 3d 27 16 a4 bd
       0.059556305 0.2936261 0.06906307 -0.08012038
0000c0 4e 96 97 bd df 55 82 3e db 0d 80 3e 85 b9 34 3e
       -0.07401715 0.2545614 0.2501057 0.17648895
0000d0 a3 a9 1d 3e 9a 77 85 3e 6c 9e bf 3d 22 93 d1 bd
       0.15396743 0.2606781 0.093563884 -0.102331415
0000e0 2c 39 69 be 9e 4a 9c bb 97 64 78 3e 1f 18 4d be
       -0.22775716 -0.0047696372 0.24257122 -0.20028733
0000f0 78 b7 1f bd 37 7f e2 3c 42 b0 eb 3d a5 c6 63 3d
       -0.03899333 0.027648551 0.11508228 0.055609364
000100 5c 7a 2e 3e ed f5 8d 3d ca 55 ca 3d 89 3d f5 bd
       0.17038864 0.06931672 0.09879644 -0.119746275
000110 dc 9b c1 bc 13 6d 37 3e 2d 9b 68 3e 89 a2 96 be
       -0.02363389 0.17912702 0.22715445 -0.2942088
000120 ab 54 6a 3e bd b2 47 3e 8e ae 74 be 81 f8 f3 3e
       0.22883861 0.19501777 -0.23894712 0.4765053
000130 fc ad 41 3e 3d 78 6c 3e 8f 8f 96 bd 61 aa 2c be
       0.18914026 0.23092742 -0.073516004 -0.1686187
000140 1c 8b 78 3e e9 cf 97 bd d7 2a 6f bd 4f d7 8f 3e
       0.24271816 -0.074127026 -0.058390465 0.28093955
000150 6b 63 85 3d fc ef 0d bd d1 7b 87 be 87 6c 0e be
       0.06513103 -0.034652695 -0.26461652 -0.13908587
000160 72 79 a0 be 02 40 bb 3e 0a a4 ff 3d 7e 96 67 3c
       -0.31342655 0.36572272 0.1248246 0.014135001
000170 6d bd 42 3e 92 69 61 be fe 17 5e be 0b b6 29 3e
       0.19017573 -0.22012928 -0.2168884 0.1657335
000180 73 2e 58 3e 8c ca 9e be 02 c4 c6 3d 88 bc d6 be
       0.21111469 -0.31013906 0.09705354 -0.41940713
000190 ac 84 46 be 34 68 30 be cb 25 44 3d fb cd 8d 3d
       -0.19386548 -0.1722725 0.047887605 0.06924053
0001a0 5e 1b 30 bc 22 14 3a be c4 c2 3a be e4 2b 77 bd
       -0.010748712 -0.18171743 -0.1823836 -0.06034459
0001b0 83 86 7f 3e d8 fc 81 3f 0a 72 ca be b3 ce 13 3c
       0.24953656 1.0155287 -0.3954013 0.009021449
0001c0 20 e9 b2 3c 5c 63 84 be ee 0b 44 3e 74 eb 20 3d
       0.021839678 -0.25857055 0.19145176 0.039287046
0001d0 93 7e 5e be 07 08 8b 3e 99 bf 8f be eb 8b d9 3e
       -0.21727972 0.27154562 -0.28075865 0.4248956
0001e0 bf 5d cd bd f9 3f e8 bd 9c 91 f0 3d 78 aa 87 be
       -0.10027646 -0.11340327 0.11746523 -0.26497245
0001f0 3c 44 ad 3e d6 54 71 3f cc 71 61 be f9 30 a0 3d
       0.3384112 0.94270074 -0.22016066 0.07821841
000200 19 f2 a2 be 52 96 75 be 7b 04 6d be 3d e0 c4 bd
       -0.3182533 -0.23983124 -0.2314624 -0.096130826
000210 0c af e1 3a ff 5d 51 3e 21 0d 1d 3e 92 3a d6 3d
       0.0017218306 0.20446013 0.1533704 0.1046039
000220 8c d9 0e 3e 8f 53 74 3d 48 e1 4d 3e 75 c0 02 3e
       0.13950175 0.05965 0.20105469 0.12768729
000230 b3 34 6f 3e 3a 9c a8 bd d5 24 50 be 63 8b 74 3c
       0.23359947 -0.08232923 -0.2032655 0.0149258105
000240 e8 da f2 3c fc 3f be bd db 3f 54 be 9d e7 81 be
       0.029645398 -0.09289548 -0.20727484 -0.2537202
000250 19 3b 8a 3d 06 60 ce bc bf 8a 28 3b 7d 24 91 bd
       0.06749553 -0.025192272 0.0025717465 -0.07087038
000260 f2 f1 7d be fc a9 b6 3d 11 f6 a1 3d 03 48 87 bd
       -0.24799326 0.08919141 0.079082616 -0.06605532
000270 16 12 a4 be 0a 7e 3c 3e 63 9c a4 be 91 fe 9c bd
       -0.32045048 0.18407455 -0.32150564 -0.07665742
000280 a3 05 30 bf 91 8c 19 3e 2f 72 5c bd 49 bd d7 3d
       -0.687586 0.14995028 -0.05381983 0.1053415
000290 e3 96 0a be cb b1 3a 3e 2a ab ae bd 11 b3 11 bd
       -0.13534121 0.18231885 -0.08528741 -0.03557116
0002a0 4e 07 12 be 46 52 90 be b4 1e f4 3b f0 91 92 3e
       -0.14260599 -0.2818777 0.007449949 0.28626966
0002b0 03 f5 cb bd 09 73 ab bd 6c 80 4f 3d 8f 19 62 be
       -0.09958842 -0.083715506 0.050659582 -0.22080062
0002c0 89 ba 8d be cb c7 84 be 92 b2 85 be ee ae 6b be
       -0.27681378 -0.2593368 -0.261128 -0.23015949
0002d0 80 f9 66 3e 4a dc 05 be fd 01 88 3e 0c 58 4c be
       0.22556114 -0.13072315 0.26564017 -0.19955462
0002e0 16 2d 72 3e 17 35 63 be 15 5f ad bd 9a 20 00 be
       0.23650011 -0.22188221 -0.08465401 -0.12512437
0002f0 fd 32 89 be fb 76 86 be 90 b5 60 3e f6 a6 8f be
       -0.26796713 -0.2626265 0.2194426 -0.2805707
000300 a0 d0 12 bd 12 d1 09 3e 76 5f 86 be 7d ff 32 be
       -0.03584349 0.1345866 -0.26244706 -0.17480274
000310 fe 61 38 bd c5 33 da bd 13 d5 5f 3e a9 24 87 be
       -0.045015328 -0.106544055 0.21858625 -0.26395157
000320 8f f4 83 be d9 d7 72 3e cc 5c ea 3d c7 ec b5 bd
       -0.2577252 0.23715152 0.11443481 -0.08883052
000330 86 1c b3 bc 4b 87 08 3e f5 1e 56 3f 5a b7 9f bd
       -0.021864187 0.1333286 0.83640987 -0.077986434
000340 2e 2b 89 be e7 00 7e 3e 71 22 cd 3c 29 2f 10 be
       -0.26790756 0.24805032 0.025040837 -0.1408049
000350 33 1b 0c 3e 8b c3 4f be 5b 6c e1 3e 94 ad ff bd
       0.1368225 -0.20289437 0.4402798 -0.12484279
000360 1f 32 2e be 5f 21 84 be af c0 72 be fd 8a 2f 3e
       -0.17011307 -0.2580671 -0.23706315 0.17142864
000370 a2 e9 39 3e bc fe 43 3e 91 46 8d be 45 a7 cd bd
       0.1815553 0.19140142 -0.275929 -0.1004167
000380 07 7a 11 be d3 60 81 be 48 b7 93 be 70 c9 1d 3e
       -0.14206706 -0.25269184 -0.2885077 0.15408874
000390 95 94 06 be cc 36 98 3d 18 57 75 3e 83 f5 dd be
       -0.13142617 0.07432327 0.23959005 -0.43351373
0003a0 c4 bc 8e 3e 66 3b 08 bb ff 17 2c bd 69 15 de 3b
       0.27878392 -0.0020787357 -0.042015072 0.0067774546
0003b0 64 20 9b 3e ec 27 2a bd b5 a5 b1 be 92 9f c8 bd
       0.3029815 -0.04154198 -0.34696737 -0.097960606
0003c0 75 33 18 3e 5c e4 2f be 43 90 36 bd a7 10 a2 be
       0.1486338 -0.17176956 -0.044571172 -0.3165333
0003d0 2c af 88 3e 85 3d 37 be 94 54 87 be 57 85 a7 3c
       0.26696146 -0.17894562 -0.26431715 0.020449324
0003e0 d3 49 f3 3d 76 1f 2b 3c bd e2 31 3f 38 13 49 3e
       0.11879315 0.010444513 0.694866 0.19636238
0003f0 15 e6 d8 bb b5 67 83 be 2d 27 a0 be 3b de f5 3d
       -0.006619225 -0.2566506 -0.3127989 0.12005278

l2.weight f4 [256, 256]
000000 e0 7c 71 bb 5b a6 90 bd 41 e3 13 bd 49 e4 7f bd
       -0.0036848113 -0.0706298 -0.036105398 -0.06247357
000010 4d a5 46 bd 9c c2 8f 3d ea 01 bd bc dc f8 22 3d
       -0.048497487 0.07019541 -0.023072202 0.039788112
000020 55 2d 81 bd a0 ac ff ba 78 79 d1 3c 7c 65 b2 bb
       -0.063074745 -0.0019506402 0.025570616 -0.005444227
000030 4c f4 82 3c a8 17 19 3c 2e f1 3b 3d 53 98 62 bd
       0.01598563 0.009344019 0.045884304 -0.05532105
000040 b4 58 56 bd c0 cf 6f bb 00 7d e0 bb 64 97 3c bd
       -0.052330688 -0.0036592335 -0.0068508387 -0.046042815
000050 ee ad 4a bd a4 69 5b bd 2f 5f 82 3e 28 74 1c 3c
       -0.04948228 -0.053567544 0.25463244 0.009549178
000060 6d 8f a3 bc 49 46 cb bd 22 1d 9d bc f4 d3 2d 3d
       -0.019965852 -0.09925515 -0.01917893 0.042438462
000070 77 ae ac 3c 20 04 3a 3c 12 0d 45 3e 80 dc 10 bd
       0.021079285 0.011353523 0.19243267 -0.035366535
000080 bd 0f a4 bd 29 bf 00 bd 30 f4 70 3d 00 37 54 3d
       -0.08010814 -0.031432305 0.058826625 0.051810265
000090 4a e8 27 3d 78 85 64 3d d4 93 6c bd ea 94 15 3d
       0.040993012 0.05579135 -0.057758167 0.03651897
0000a0 20 cb 68 bd f0 c7 62 3d 4f 3a 0a 3d e2 d5 03 3d
       -0.05683434 0.055366457 0.033747014 0.032186396
0000b0 66 8d 54 39 9e c5 2e bd fc 43 4b bd 0a 8f fc bd
       0.0002027057 -0.04266893 -0.04962538 -0.1233197
0000c0 6a ca 88 bc da 7b 55 bd 1c c1 aa 3c 98 f2 e6 3c
       -0.016698081 -0.052120067 0.020844035 0.02819185
0000d0 20 75 48 bb 2a e7 7f 3d 48 1d f5 3c 13 d9 00 bc
       -0.003058739 0.062476315 0.029921189 -0.0078642545
0000e0 d7 c0 ae 3c 6d 65 7e bd f8 8c 8d 3c d5 66 1d bd
       0.021332188 -0.062108446 0.017279133 -0.038428146
0000f0 10 19 6e bd 52 23 67 bd bc 32 45 3d 85 94 05 bd
       -0.05812937 -0.05643017 0.048144087 -0.032612342
000100 e1 27 28 3d 9c df 8c 3d f8 b2 55 bd aa 0f 46 3d
       0.041053656 0.068785876 -0.05217263 0.048354782
000110 20 6a cb bb fc bd 48 bd 69 39 4b bd e8 40 2f 3c
       -0.0062077194 -0.04900931 -0.049615297 0.010696627
000120 27 88 f2 bd d8 68 fc bc 70 06 63 3c 85 df 7b bd
       -0.11842375 -0.030811712 0.013856515 -0.06149246
000130 bb e6 92 bd 47 44 d3 bd 18 0d 20 bd 00 73 00 bd
       -0.071729146 -0.10315757 -0.039074987 -0.031359673
000140 c6 cb 70 3d c6 6d a1 bd ea 18 12 be 50 4a ac 3b
       0.058788083 -0.07882266 -0.14267316 0.005257882
000150 62 2b 86 bd 1e 59 ba bc a8 d3 7f 3c 5a 3f 10 3d
       -0.06551243 -0.022747573 0.015614428 0.035216667
000160 3f 2c d4 3d a0 9d 24 bd d1 4e ca 3d ff 98 41 bc
       0.10360002 -0.040189385 0.09878314 -0.011816262
000170 ce e0 8e bd b3 95 a1 3d 78 3a 9e 3c b1 3b d1 3c
       -0.06976472 0.07889881 0.01931499 0.025541158
000180 70 57 45 bd 22 e6 ef bb e0 95 60 bb d2 02 b8 ba
       -0.04817909 -0.007321135 -0.003426902 -0.0014038926
000190 14 5f b9 bd b8 f2 f2 bc 17 b4 21 3d 82 68 47 3d
       -0.09051338 -0.029656753 0.039478388 0.04868365
0001a0 97 dc 5d bd e0 9e a9 bc e0 eb 28 3e d4 a8 06 3d
       -0.05416545 -0.02070564 0.16496229 0.03287585
0001b0 fe 59 c4 bd 54 89 67 3d 14 cd a3 3c 8c 45 0b 3d
       -0.09587477 0.05652745 0.01999525 0.034001872
0001c0 00 d3 c1 ba 48 2b d9 3c 34 61 d9 3c 69 be cb bc
       -0.0014787614 0.026509896 0.026535608 -0.024871068
0001d0 64 c2 46 bd 4a c0 b1 bc d1 94 91 3d 1c 72 fc bd
       -0.04852523 -0.021698136 0.071084626 -0.12326452
0001e0 a7 7b 4d 3d 21 16 39 bd 10 d9 fb bc 75 2d 28 3d
       0.050166752 -0.04518712 -0.030743152 0.041058976
0001f0 22 87 c5 bd 9f 32 7b be f0 bf db 3c 90 28 55 bd
       -0.09644915 -0.24531029 0.026824921 -0.052040637
000200 d7 77 87 bd 28 1c 08 bd c0 49 6a bd f3 d2 3c 3c
       -0.066146545 -0.033229977 -0.05719924 0.011524904
000210 21 a0 6a 3d e0 ca 63 bd 72 fe 55 bd 7d 41 9b bc
       0.057281617 -0.0556134 -0.05224461 -0.018952126
000220 50 4c 27 3c 10 39 17 bd a3 c7 17 bd 00 18 ab ba
       0.010211065 -0.036919653 -0.037055623 -0.0013053417
000230 c0 f6 ec 3a 16 38 d9 bc cc d1 9f bc 50 c6 b4 3c
       0.0018078908 -0.026516002 -0.019509219 0.022067219
000240 ee bf 69 3c 60 c3 f3 3c e8 d3 f8 3b 8b 83 b5 3c
       0.014266951 0.029756248 0.0075936206 0.022157451
000250 94 fd 8a bc 58 55 ed bc e8 26 7e bd 66 24 19 3d
       -0.016966619 -0.02897136 -0.062048823 0.037388228
000260 ac 0b e7 3c 0d be 19 bc 96 26 7b 3d da b6 02 3e
       0.028203808 -0.009383691 0.061316095 0.12765065
000270 fc f1 40 3d 62 79 71 be 82 1b 44 3d 45 95 cf 3c
       0.047105774 -0.2358146 0.047877796 0.025339732
000280 e5 63 b0 bc ec eb a9 bc 88 8f 48 3c e1 f0 1e be
       -0.021532008 -0.02074238 0.012241252 -0.15521576
000290 84 1e 0a 3d ec 33 91 bc 40 47 22 bd cf ab f4 bc
       0.03372051 -0.017724954 -0.03961873 -0.029867081
0002a0 a0 58 d5 3c f8 8d 34 3c 20 e8 47 3b 50 b7 bb bd
       0.026043236 0.011020176 0.0030503348 -0.091658235
0002b0 66 0b d2 ba 7d 49 fa 3b a6 79 87 be f6 f1 2e be
       -0.0016025126 0.007638155 -0.26459998 -0.17084488
0002c0 33 fd 27 bd 39 a5 0f bd 09 91 8b 3d 07 d9 08 bd
       -0.041012954 -0.035069678 0.06814773 -0.0334101
0002d0 b4 51 ca 3c 14 19 67 bd b7 4b 52 bd 7e 31 67 bd
       0.024697162 -0.0564204 -0.05134174 -0.056443684
0002e0 74 3b 68 bd ec 87 30 3e 05 a9 db bd 60 ee 68 3c
       -0.056697324 0.1723935 -0.10725597 0.014216989
0002f0 70 a6 31 3d 07 a8 95 bd 9d 65 4f bd 17 c8 91 bd
       0.043371618 -0.07307439 -0.050634015 -0.07118242
000300 51 13 19 3d a0 3d 51 bd 52 03 59 be 2a c1 7c 3d
       0.037371937 -0.05108416 -0.21192673 0.061707653
000310 a4 55 83 bc e2 a4 1d bd c4 5c 9a bc a0 0c df bb
       -0.016032048 -0.038487323 -0.018843062 -0.006806925
000320 ca e6 5d bd 10 60 5e 3c d2 8c 56 3d d3 8a 91 bd
       -0.054175176 0.013572708 0.05238039 -0.07106557
000330 18 d6 49 bd a2 09 00 be c7 be 47 bd 38 c4 a4 3c
       -0.04927644 -0.12503675 -0.048765924 0.020113096
000340 19 84 9d bd 30 a1 cb 3b b5 41 33 be ce 0e 59 3d
       -0.07691211 0.0062142834 -0.17505534 0.052992634
000350 00 ae 51 bc 68 ef fb bc 5c 2c e1 bd 69 08 65 bc
       -0.0127978325 -0.030753806 -0.10994789 -0.013979056
000360 5a af 8c bd 24 d9 b2 bc a1 f6 0f bd 10 0c d1 3c
       -0.06869383 -0.021832056 -0.035147313 0.025518447
000370 b0 e3 34 3c f6 83 5e bd 74 67 8a 3d 9c 8c 25 3d
       0.011040613 -0.054325067 0.06758013 0.0404173
000380 d5 87 7a 3c da 6f 3f bd 40 d1 67 bc fc 32 d4 3c
       0.015291174 -0.04673753 -0.01414901 0.025903217
000390 44 7d 2b bd 94 9c 59 bd 60 27 6a 3b 28 ce 8c 3e
       -0.04186751 -0.05312784 0.0035729036 0.27501035
0003a0 62 5a 53 3d e6 16 91 bc f3 4b 94 bd 84 50 61 bd
       0.051599868 -0.017711114 -0.07241049 -0.055008426
0003b0 76 92 a1 be cc a1 58 3d f0 3f 78 3c 99 9a 89 3d
       -0.31557053 0.052888677 0.015151963 0.0671894
0003c0 90 1a 59 3d f6 e7 1b bb 98 db 47 bc 73 34 25 3d
       0.053003848 -0.0023789383 -0.012198351 0.040333223
0003d0 ae 2d 06 bc 2b db 58 bc 6c 9b b6 bc 32 8d 89 3c
       -0.008189602 -0.0132358475 -0.022290908 0.01679096
0003e0 00 db 69 bd 1c 5d 5c 3d ad 80 2f be 88 a1 35 3d
       -0.05709362 0.053799734 -0.1713893 0.0443435
0003f0 ea fc 22 3d a0 d4 04 3b d6 bf 09 3d f4 82 9b 3c
       0.03979198 0.0020268336 0.033630215 0.018983342

l2.bias f4 [256]
000000 ab 45 16 bc af 82 f6 bb 47 e1 55 3d 55 c6 b4 bc
       -0.009171884 -0.007522903 0.052216794 -0.022067228
000010 82 8b 44 3d a3 10 0f bb 27 47 0d bd cf 52 2e be
       0.047984608 -0.0021829985 -0.034491684 -0.17023776
000020 96 ba 70 bd 12 dc 23 3c 98 54 af 3c a3 eb 22 3d
       -0.058771692 0.010001199 0.021402642 0.039775502
000030 03 ba e9 bc db c6 8a bd 12 27 7e bd 3a 9c 3f 3d
       -0.02853108 -0.0677621 -0.06204898 0.04677985
000040 84 0e 5e 3d 56 bd b5 bd 5f c6 62 bd ca c0 64 bd
       0.054213062 -0.088740036 -0.055364963 -0.05584792
000050 ad a5 c1 be 97 b5 95 3c f2 0f 81 be ea 87 51 bd
       -0.37821713 0.018275065 -0.25207478 -0.05115501
000060 32 66 2f 3d 3f fb 64 bc 1d 52 f5 bc fe 59 f8 bd
       0.04282207 -0.013975917 -0.029946381 -0.1212654
000070 96 b3 40 3d 9b f7 f4 3b 83 ba 59 bd d1 1f 83 bd
       0.047046266 0.007475806 -0.053156387 -0.06402553
000080 6b 32 f0 bc 58 d0 79 bd de 23 0e 3d 17 04 1f bd
       -0.029320916 -0.060989708 0.034702174 -0.03882226
000090 3b 72 fd 3c 53 d3 17 bd 31 02 c9 bc a5 f1 7a 3b
       0.030938258 -0.03706677 -0.024537178 0.0038291004
0000a0 72 de ef 3c 61 2f 1b be b5 ce 55 3c 3c 04 5e 3d
       0.029280875 -0.15154792 0.013049771 0.054203257
0000b0 d0 65 5c 3c 32 ce 61 be 2f 63 76 bc c7 48 51 bd
       0.013452008 -0.22051314 -0.015038296 -0.051094797
0000c0 1e 33 4e bd 47 7f 0a bd f2 23 89 bd 8e 82 bd bd
       -0.050341718 -0.033812787 -0.06696309 -0.09253417
0000d0 1c d0 0a 3d 36 66 d0 bc 80 7b cf bd cb cf 14 3e
       0.033889875 -0.025439363 -0.10130978 0.14532392
0000e0 af 82 3f 3d 2f eb 49 bd 2c cd 72 be f8 20 48 3d
       0.04675549 -0.049296554 -0.2371108 0.048859566
0000f0 e9 41 92 bd 35 f6 1c bd 90 c1 08 be 3e 47 42 bd
       -0.071414776 -0.03832074 -0.13355088 -0.047431223
000100 73 5b 5d bd 22 55 a8 bc 80 3d 96 bd ed f2 40 3d
       -0.05404229 -0.020548407 -0.07335949 0.047106672
000110 5a 18 b0 3b f2 5e 84 bd d4 ee 18 be c0 55 3a bc
       0.0053739967 -0.06463422 -0.14934856 -0.011372983
000120 24 98 06 bd a1 89 c6 3c 2c d0 75 3d cf d7 5f be
       -0.032859936 0.024235548 0.06001298 -0.21859668
000130 a6 f6 a6 bd 9d b0 4e bd 95 af 09 bc a2 a0 d4 bd
       -0.08152513 -0.0504614 -0.008403678 -0.10382201
000140 3b 2e e7 3c e8 34 59 bd 3c e8 fc bb f5 b1 02 3d
       0.028220287 -0.05302897 -0.007718114 0.031907994
000150 b7 55 cb bd 1c 8a 09 bd 55 06 13 bd 92 7c 87 be
       -0.09928458 -0.033578977 -0.03589471 -0.26462227
000160 12 af 03 be 9f e6 ac bd 98 0f 8e 3c 7d 23 c2 3c
       -0.12859753 -0.08442425 0.01734142 0.023698563
000170 2f 91 43 bd cd ca c0 bc 62 a9 d0 bc 4d bc b0 bd
       -0.04774588 -0.023534203 -0.025471393 -0.086296655
000180 fe dc e4 3c c2 28 89 be e6 a6 1a bc 5c 56 52 3d
       0.027937409 -0.26788908 -0.009439206 0.05135189
000190 08 11 f4 bb 4a 34 86 bd 7d c5 ac 3b 1f 57 2a bd
       -0.0074483193 -0.06552942 0.005272566 -0.04158699
0001a0 ba 56 7a bd 5a 67 89 bd 79 03 63 3c 4f 50 f8 3d
       -0.061117865 -0.06709166 0.013855808 0.12124693
0001b0 1c 28 6a 3c e2 95 06 be e2 07 1e 3d 98 13 0d bc
       0.014291789 -0.13143113 0.038581736 -0.008610629
0001c0 a4 23 e8 bb cf 6e a2 bb 5e 93 45 3d 5e af 46 bd
       -0.007084327 -0.004957057 0.048236243 -0.048507087
0001d0 dc c9 94 bd 49 df 6e 3d ce 90 11 bd 6e bd 2c bd
       -0.07265064 0.05831841 -0.035538487 -0.04217284
0001e0 2f 2c 8b bd 76 82 33 bd 1e 0d 21 bd 0f 18 2d bc
       -0.06795537 -0.04382559 -0.03931915 -0.010564818
0001f0 f8 bb 60 3d b0 b4 68 bc 44 69 97 3b 58 c7 35 bd
       0.05486676 -0.0142032355 0.004620703 -0.044379562
000200 8f d8 27 ba 09 ed b8 bc 3a 67 93 bc 02 fc f2 3c
       -0.0006402814 -0.022573965 -0.017993558 0.029661182
000210 2f 57 a8 bc b7 02 45 bd 74 1b b2 bb dc fb d9 3c
       -0.020549385 -0.048098292 -0.0054354016 0.026609354
000220 54 ac aa bc 80 9d 96 3a 06 a1 0e 3b 5c de 43 bc
       -0.020834126 0.001149103 0.0021763458 -0.01195487
000230 78 11 63 bd a1 b4 6c 3c fe 75 08 3c 0a f7 14 3e
       -0.05543658 0.014447362 0.008328913 0.14547363
000240 f0 d9 79 3c 66 6d 29 bd 4d 12 b9 3b 98 de b3 3c
       0.015249714 -0.041364096 0.0056479336 0.021956727
000250 3e 9d 93 bc 2c bb 44 bc 73 2f bc bd 1e 80 b2 bc
       -0.018019315 -0.012007516 -0.09188738 -0.021789607
000260 c1 76 67 3c 5a 9f 85 bd a4 7f 38 3c 2c 38 1c 3c
       0.014127434 -0.065245345 0.011260901 0.009534877
000270 e4 e9 bb 3c df 76 83 bd 26 46 92 bd 15 1c 59 bd
       0.022938676 -0.06419157 -0.07142286 -0.053005297
000280 84 5d 9d bd 1c 93 21 3d f8 ea c5 bd 43 b2 cd 3c
       -0.07683852 0.039446935 -0.09663957 0.025109416
000290 0e 6b 90 bd 00 ef 13 bc a2 bd 67 3d b6 01 b0 bc
       -0.07051669 -0.00902915 0.056577332 -0.02148519
0002a0 ba 22 66 bd 1b 6e fe bd ef 0c e9 3c 20 cc 26 3c
       -0.05618546 -0.12423345 0.02844855 0.010180503
0002b0 c0 64 67 bd 3e ad 03 bb 1b 15 43 bd 3e 34 ea bc
       -0.056492567 -0.0020092274 -0.04762755 -0.028589364
0002c0 8b 84 04 3b 60 17 b8 bb cc c6 be 3c 27 ae 24 3d
       0.0020220603 -0.005618021 0.023288153 0.040205147
0002d0 94 cb ae bc d8 6d 9c bb 17 e4 98 3c a1 50 6f 3c
       -0.021337308 -0.0047738366 0.01866345 0.014606626
0002e0 4e ed 9e bd 43 9e 86 bd f4 2d 11 3d af a6 10 bc
       -0.07760106 -0.06573155 0.035444215 -0.008828803
0002f0 e4 35 ae bd 98 f8 12 3c 62 09 2f 3d a0 cd 2e bc
       -0.085063726 0.008970402 0.042733558 -0.010669142
000300 cc aa 41 bd ab 10 f7 bc d6 42 2e bc 2b c0 5d 39
       -0.047282025 -0.030159315 -0.010636052 0.0002114779
000310 68 cc 17 3e e9 6d 13 3d 48 81 b3 3c 01 83 3c bc
       0.14824069 0.03599349 0.021912232 -0.011505843
000320 bd c1 dd 3c 6b 5a d3 bb 96 e9 0d 3d b5 12 b6 bc
       0.02706992 -0.0064499876 0.034646593 -0.022225717
000330 14 41 c3 3c a1 2d 49 bd c5 b2 a0 3a 48 d9 82 bc
       0.023834743 -0.04911578 0.0012260309 -0.015972748
000340 7b 2f 5b bd 2e 15 74 bd c3 08 81 bd e5 94 40 bd
       -0.053512078 -0.05959051 -0.06300499 -0.047016997
000350 4f 1d 83 bd 16 cf 7a bd ab f9 ca 3b f8 c8 eb bc
       -0.064020745 -0.06123265 0.0061943135 -0.028782353
000360 8e 72 cb bc 66 fd 7d 3d ac 9f 7f bc 7a 19 54 3c
       -0.024834897 0.062009238 -0.015602034 0.012945527
000370 8a 96 d7 3c ec 9d b5 bc 30 b5 16 bc ee d4 90 3a
       0.0263169 -0.02217003 -0.009198472 0.0011049786
000380 03 e3 66 3c 2d ac 05 bc 65 01 9a 3c 37 ba 8a bd
       0.01409221 -0.008158726 0.018799493 -0.06773799
000390 1e 57 64 bd 50 45 80 3c d7 68 87 bd 61 58 75 be
       -0.055747144 0.01565805 -0.066117935 -0.23959495
0003a0 66 d4 17 3d cc 3e d0 3c 1f 40 79 bd f3 36 10 3d
       0.037067793 0.025420569 -0.060852166 0.035208654
0003b0 9f 1b 84 3c 48 77 bc 3c b0 22 38 bc 8f 29 96 bc
       0.016126452 0.023006096 -0.011238739 -0.018330364
0003c0 9c 09 f2 3c ef f5 69 bd 5d 5b 31 bd 05 10 9f 3c
       0.029545598 -0.057119306 -0.04330002 0.019416818
0003d0 ae d5 6a 3d 61 e4 a5 bd 1b 58 8d bd 50 e1 f0 3c
       0.057332687 -0.081002004 -0.069015704 0.029404312
0003e0 a3 16 96 bd 1e df 1a bd cd 05 a9 bd 6f 9d a0 bd
       -0.07328536 -0.037810437 -0.082530595 -0.07842528
0003f0 b6 3e 69 bb 62 37 73 bd cf 85 46 bd d6 f1 87 3c
       -0.0035590357 -0.05937899 -0.048467454 0.016594809

l3.weight f4 [256, 256]
000000 b4 b2 a8 3c ee 0b 41 bd d0 08 7c bd 6e f7 54 bd
       0.020593025 -0.047130518 -0.06153184 -0.05199378
000010 be 79 02 bd 3a ca 11 3d e4 c9 28 3d 54 5c 3a bd
       -0.031854384 0.03559325 0.041208163 -0.045498207
000020 90 4c 12 bc 48 38 8f bc ea f5 24 3d 28 b5 5f bc
       -0.008929387 -0.017482892 0.040273584 -0.013654031
000030 54 42 5f bd dc cd 22 3d 7c cb 02 bd a0 19 f2 bc
       -0.054506615 0.039747104 -0.03193234 -0.029553235
000040 00 ee c5 bc e6 ed 60 bd fa a4 2c bd 42 9a 55 bd
       -0.024161339 -0.054914378 -0.04214952 -0.052149065
000050 da d2 79 3d c8 12 77 bc 80 d9 c2 bc e4 51 60 3d
       0.0609921 -0.015080161 -0.023785353 0.054765597
000060 8a 19 02 bd 80 43 66 3b 62 b1 1e 3d 7c 0e 08 bd
       -0.031762637 0.0035135448 0.038743384 -0.03321694
000070 a8 18 29 3d b8 55 9b bc e0 02 5e bc c0 bc ea ba
       0.04128328 -0.018961772 -0.01355049 -0.0017909035
000080 5a f1 78 3d 7c cc 73 bd 32 26 2c bd ba 27 6a bd
       0.060777046 -0.059521183 -0.042028613 -0.057166792
000090 2c c7 bd 3c ca 48 5c bd a2 13 25 3d 00 29 75 bb
       0.023166262 -0.053780355 0.040301926 -0.003740847
0000a0 90 e4 30 3d 60 8f 3d 3b 00 87 d5 bc d0 ff 6d 3d
       0.043186724 0.002892457 -0.02606535 0.05810529
0000b0 e8 46 0c 3d dc 8c 0a 3d 80 c7 e0 ba ec f4 ba 3c
       0.03424731 0.03382574 -0.0017149299 0.022821866
0000c0 10 5e f9 bb 06 c5 71 bd 2a 56 6a 3d 08 97 82 bc
       -0.00761009 -0.059025787 0.05721108 -0.015941158
0000d0 54 c0 89 3c b0 0f 3c bd 5c f4 92 3c b6 5b 2a bd
       0.016815342 -0.0459134 0.017938785 -0.04159137
0000e0 b0 c1 31 3d a8 30 7d bc fc 5d 2e 3d e8 52 0e bd
       0.043397605 -0.015453495 0.0425701 -0.034747034
0000f0 f8 6a 0f 3c f6 23 12 bd dc 6f 7b 3d 1c a7 a3 3c
       0.008753531 -0.035678826 0.061385974 0.019977145
000100 0a 1f 40 bd 00 c1 e1 bc 84 1e e3 bc 58 75 b9 3c
       -0.0469046 -0.02755785 -0.027724512 0.022638962
000110 58 e4 83 3c 70 0e 27 bc 04 20 9d bc 78 91 a5 3c
       0.016100094 -0.010196313 -0.019180305 0.020210966
000120 c8 31 a1 bc 98 a8 bf bc 3c 0c 1b bd 7e 49 1e 3d
       -0.019677058 -0.023395821 -0.037853464 0.038644306
000130 b8 c1 5e 3c 28 4c ff 3c f0 0f 28 bd 70 b5 77 3d
       0.013595991 0.031164244 -0.041030824 0.060475767
000140 00 50 99 ba b0 63 4d 3c 0e 3b 4a 3d 62 a9 42 3d
       -0.0011696815 0.012535974 0.049372725 0.047524817
000150 72 8f 74 3d c8 ea 4b 3d 78 74 21 3c 70 41 5b bd
       0.059707113 0.04978445 0.0098544285 -0.053529203
000160 a8 2d 05 bd 28 1c 22 3d 3c 04 6b 3d 56 cc 77 3d
       -0.032514244 0.039577633 0.057377085 0.060497604
000170 92 fb 47 bd 1a 23 4b bd c0 80 83 3c 08 76 6d bc
       -0.0488239 -0.049594022 0.016052604 -0.014493473
000180 2c 9d 0c 3d 58 1d d0 3c 88 78 6c bc 10 83 4e bd
       0.03432958 0.025404617 -0.014433034 -0.05041796
000190 a8 82 60 bc 8c a4 c9 3c b4 6f 2f 3d f4 da 75 3d
       -0.013703026 0.024614595 0.042831138 0.060023263
0001a0 1e 19 23 bd 9c f5 18 bd 10 48 a8 bc 30 63 0f 3c
       -0.039818875 -0.037343606 -0.020542175 0.0087516755
0001b0 f8 85 04 bd 2e a2 6f 3d 7c 82 bc bc 4c 5c 9f bc
       -0.032354325 0.058504276 -0.023011439 -0.01945319
0001c0 b0 d0 6a 3c 6e 1c 36 3d 40 26 74 bb 88 86 79 bc
       0.014331982 0.044460706 -0.0037254244 -0.015229829
0001d0 b4 b2 5f bd 9a e2 56 bd 18 fb 1d bd 38 77 61 3c
       -0.054613784 -0.052462198 -0.03856954 0.013761334
0001e0 80 d7 34 bd 74 7d d2 bc 34 c7 0d 3d 10 e4 e6 3c
       -0.04415083 -0.025694586 0.034613803 0.02818492
0001f0 9c 1d 69 3d 00 43 22 bb 3a 36 06 bd 38 1a 0d bd
       0.056913003 -0.0024759173 -0.03276656 -0.034448832
000200 44 53 2d 3d b8 43 d5 bc 7c 30 a4 3c 34 c1 fa 3c
       0.042315736 -0.026033267 0.02004265 0.030609705
000210 20 e0 99 3b 80 1d 3c ba f8 34 51 bc be fe 19 bd
       0.0046959072 -0.00071760267 -0.012768976 -0.037596457
000220 aa 5b 62 bd 24 d0 5f 3d b6 a8 71 bd 32 bf 56 3d
       -0.0552632 0.054641858 -0.058998786 0.05242843
000230 30 22 54 3c 32 65 77 bd 1c 30 98 3c c0 21 5f bd
       0.012947604 -0.06039924 0.018577628 -0.054475546
000240 aa cd 79 3d e0 a7 07 bc 4c 27 49 3d 10 40 24 3d
       0.060987152 -0.008279771 0.049109742 0.040100157
000250 86 dd 4c bd 38 c1 b1 3c b4 e1 b1 bc 58 16 50 bc
       -0.05001595 0.02169858 -0.021714069 -0.01270064
000260 42 de 36 3d 22 76 5d 3d 80 59 96 3b 7e ee 3e 3d
       0.044645555 0.05406774 0.004588306 0.046614163
000270 0e 42 07 bd 96 88 44 bd 20 89 24 3b 8e 42 17 bd
       -0.03302198 -0.04798182 0.0025106147 -0.036928706
000280 b0 ca c9 bc 70 a9 ed bb 12 fb 2e bd 90 4d 21 bd
       -0.024632782 -0.0072528645 -0.042719908 -0.03938061
000290 0e 4c 30 3d 00 4d 65 3a 0e fe 7e bd 80 53 4b 3b
       0.04304128 0.00087471306 -0.062254004 0.0031025112
0002a0 b4 26 eb bc 0c 89 46 3d 00 6b af b9 be bf 3c 3d
       -0.028704979 0.04847054 -0.00033458322 0.046081297
0002b0 d6 b7 1a bd b0 6f 32 3d 56 64 78 3d 84 8c 03 3d
       -0.037772976 0.043563545 0.060642563 0.032116428
0002c0 80 e8 11 ba e8 0a 19 3c 5c da 15 3d e8 28 1e bc
       -0.0005565956 0.009340979 0.036585197 -0.0096533075
0002d0 ce 3f 06 3d 20 18 37 bd b0 d1 f3 3b d4 02 0b bd
       0.032775693 -0.04470074 0.007440768 -0.033938244
0002e0 c0 03 ff 3a 0e f8 31 bd fc b3 09 bd 1c 02 9f bc
       0.0019456074 -0.043449454 -0.033618912 -0.019410186
0002f0 e0 a1 94 3b 44 50 7d bd 2c f4 0e bd 6e 68 36 3d
       0.0045358986 -0.061844125 -0.03490083 0.044533186
000300 40 83 27 3c 0c 3a 4c 3d 40 85 a7 bc 50 68 86 bc
       0.0102241635 0.049860045 -0.02044928 -0.016407162
000310 b0 34 fa bb 22 38 67 3d 12 37 61 bd fe 1a 77 3d
       -0.0076356754 0.056450017 -0.05498416 0.060328476
000320 f8 53 cf 3c ca 83 5e 3d 5a db 0c bd b0 2b 57 bc
       0.025308594 0.054324903 -0.034388877 -0.0131329745
000330 40 e3 a9 3c 80 75 17 ba 24 1f 92 bc 28 7a 01 3d
       0.020738244 -0.0005777702 -0.017837115 0.031610638
000340 ac eb 1d bd bc f8 40 bd b2 03 02 3d 74 da 84 bc
       -0.038554832 -0.04711221 0.031741805 -0.016217448
000350 88 db 39 3c a4 ad e8 bc 40 bb 4a bb 44 b8 36 3d
       0.011343844 -0.02840311 -0.0030934364 0.044609323
000360 20 87 fb bb d0 a8 93 bb 94 26 29 bd f4 75 01 bd
       -0.0076760203 -0.004506208 -0.041296557 -0.03160663
000370 a0 0a 12 bb 50 92 5d bc 00 e9 9e ba d0 c8 0e bd
       -0.0022284165 -0.013523653 -0.0012123883 -0.03485948
000380 d8 a3 33 3d e0 82 09 3c dc 7e 5d 3d 30 9c c8 3b
       0.043857425 0.008393019 0.05407606 0.0061221346
000390 08 95 5d 3c 3e 2e 5b bd d2 ed 0f 3d 48 59 41 3c
       0.013524301 -0.053510897 0.035138912 0.011801071
0003a0 78 44 02 bd fc 5f 3a bd 08 b0 5a 3c be 90 43 bd
       -0.03180358 -0.045501694 0.013347633 -0.04774546
0003b0 12 e1 71 bd 00 42 0f bd 70 71 f9 bb 54 77 ef bc
       -0.059052534 -0.034975052 -0.0076123998 -0.029231705
0003c0 5e ef 5c 3d f0 0b 84 3b b6 e0 5c bd 78 fd 8a 3c
       0.053939216 0.0040297434 -0.05392524 0.016966566
0003d0 10 15 25 3d 4e c0 5d 3d 8e f3 47 3d 68 b4 39 3d
       0.04030329 0.054138474 0.048816256 0.045338064
0003e0 00 e0 3a 3a 2a 80 1e bd 36 84 7c bd 76 df 0d bd
       0.00071287155 -0.038696446 -0.061649524 -0.034636937
0003f0 20 b2 53 bc 70 92 23 3d 1c 7b 5c 3d 38 c6 0d 3d
       -0.012920886 0.039934576 0.053828344 0.034612864

l3.bias f4 [256]
000000 86 38 29 bd 4d 10 86 3c 20 d5 25 bd ac c3 8b 3d
       -0.04131367 0.016365195 -0.040486455 0.06824431
000010 98 3b d1 bc d8 4c 09 bc a4 d8 f9 3c fc ce 27 bd
       -0.025541112 -0.008380137 0.03049881 -0.04096888
000020 02 f3 82 bd ec 2a 5f bd 24 e0 0f bc 37 f6 de bc
       -0.06394006 -0.054484293 -0.008781467 -0.027217014
000030 42 4f 16 bd e2 dd 04 3d b8 13 c5 3c ef 42 40 bd
       -0.03669668 0.032438166 0.024057254 -0.046938833
000040 b9 da 27 3b 3c ca ed 3c 00 74 80 bd 12 b2 d0 bc
       0.0025612547 0.029027097 -0.06272125 -0.025475536
000050 47 18 4f 3d ab ec 6b 3d 1f e8 94 3c f2 6c 30 3c
       0.050560262 0.05759875 0.01817709 0.010768162
000060 64 de 0a bc 50 62 cb 3b b3 a8 df bc 60 3a 64 3d
       -0.008475874 0.006206788 -0.027302122 0.055719733
000070 ea f9 2e bd 8e 68 9c 3c 91 2f 6d bd d4 52 29 3b
       -0.042718805 0.019092824 -0.05790669 0.0025836723
000080 58 5f 68 bc 27 77 24 3d c6 c0 5f bc 5d 71 f1 39
       -0.014182888 0.040152695 -0.013656801 0.00046051564
000090 47 f0 1a bd 59 59 94 bd 6e 68 b9 3c 8b 02 42 3d
       -0.037826803 -0.07243604 0.022632804 0.047365706
0000a0 33 11 27 3d 1f 43 d7 3c e3 65 37 bd 7e fd 76 bb
       0.040787887 0.026277123 -0.0447749 -0.0037687714
0000b0 08 d8 96 3c 4b 57 39 bd c7 b6 77 bd 20 a3 15 bd
       0.018413559 -0.045249265 -0.060477044 -0.03653252
0000c0 ce 1c 53 bd e4 b2 29 3d cb 10 bb 3c 80 35 13 3c
       -0.051541142 0.04143037 0.022835156 0.008984923
0000d0 a9 fe 84 bc 23 d8 d2 3c cb 12 33 bd a6 2a 56 3d
       -0.016234713 0.025737828 -0.043719094 0.052286766
0000e0 7e 8c b8 3a c8 3f 3c 3d 98 b3 40 3d 34 c5 68 bd
       0.0014079956 0.045959264 0.047046274 -0.056828693
0000f0 71 6c 14 bd f5 6f 82 bd 38 b6 d9 bc 3d 8e 14 bd
       -0.03623623 -0.0636901 -0.026576146 -0.03626846
000100 5a 5e 82 bb 94 ef 8a bc c4 a4 7f 3d ad 42 8c bc
       -0.0039785327 -0.016959943 0.062412992 -0.017121637
000110 ac c8 35 bd f3 f3 1e 3d b9 ac b3 bc 06 0b 02 3c
       -0.04438083 0.038806867 -0.021932947 0.0079371985
000120 0a ff 4c bd eb b3 2b 3d 7e 57 22 bd 84 50 41 3d
       -0.05004791 0.04191963 -0.03963422 0.047195926
000130 a2 b4 81 bb 02 f1 26 3d 54 17 b2 3c a8 38 64 bd
       -0.0039583007 0.040757187 0.02173964 -0.055718094
000140 29 b7 46 3d 41 e3 57 3c 21 bd 0b bd e3 6c 47 bd
       0.04851452 0.01317674 -0.034115914 -0.048687827
000150 7f ea 57 bd 73 8b 13 bd a8 a0 9f bb 0a 00 84 3c
       -0.052713867 -0.03602166 -0.0048714466 0.0161133
000160 2d f5 e3 3b 8d 6a 45 bd 44 b4 ea 3c d0 87 6d 3c
       0.0069567175 -0.048197318 0.02865041 0.014497712
000170 f1 3e 7f 3c 21 81 85 bc 29 76 c4 bc 47 a7 84 bd
       0.015578971 -0.016296925 -0.023982124 -0.06477218
000180 76 86 5e bd 64 7c a7 3c 09 ca 66 bd f6 30 d8 bc
       -0.05432745 0.020445056 -0.05634502 -0.026390534
000190 ea 70 87 bc 53 51 33 3c 60 53 62 bd 95 e9 8f bc
       -0.016533334 0.010944682 -0.055255294 -0.017567435
0001a0 cf 1b f4 bc 86 31 9f 3c ac 8a df 3c 4a 53 08 bd
       -0.029798416 0.019432794 0.027287804 -0.033282556
0001b0 9a a6 83 bd 02 4d 16 bd 26 09 56 bd 64 00 01 3d
       -0.06428261 -0.036694534 -0.05225482 0.031494513
0001c0 c0 35 e9 bb ae 13 74 bc 4e a8 86 bd a6 3f 68 3d
       -0.007117003 -0.01489727 -0.0657507 0.056701325
0001d0 9c e0 9b bb 14 05 d8 bc 4a ef 9c bc 3e af 5a 3d
       -0.004757 -0.026369609 -0.01915707 0.05338978
0001e0 99 d4 8f bd c9 a2 cd bc 66 c5 43 bd 78 13 a9 bd
       -0.07022972 -0.025102036 -0.047795676 -0.082556665
0001f0 ff 1b a2 bc f8 80 6b bc 9c 99 9b 3c 64 06 a5 bc
       -0.01978874 -0.01437401 0.018994145 -0.020144649
000200 14 4a 2d 3d 27 f5 f0 bc 71 eb 28 bd 2c 92 be bc
       0.042306975 -0.029413773 -0.04124016 -0.02326306
000210 68 9a 0c 3c ad a6 60 bd 45 1c 1e bd e6 08 83 bd
       0.008581735 -0.054846454 -0.03860118 -0.063981816
000220 f0 69 6e bc 3b 04 0d 3c e5 e6 27 bd 57 61 88 bd
       -0.014551625 0.008606966 -0.040991683 -0.06659191
000230 29 2d 6b bb 4a 90 12 bc 5f b9 5b bc 10 bf 48 3b
       -0.0035885072 -0.008945534 -0.013410895 0.003063146
000240 b0 31 6a bc f3 8c 0d 3d 7c 67 76 bd 00 73 ce b9
       -0.014294073 0.034558248 -0.060157284 -0.00039377064
000250 d1 35 96 3c 80 0d 1e 3b 70 7f 68 bd 70 98 26 bd
       0.018336209 0.0024116933 -0.05676216 -0.04067272
000260 34 c4 1c bd 26 d3 8c bd e4 ce 36 bd d3 28 ec bc
       -0.03827305 -0.06876211 -0.0446309 -0.02882806
000270 a6 31 6c bb 44 4f 66 3d 1d d5 1f bd 9e a1 70 3c
       -0.0036040335 0.056227937 -0.0390216 0.01468697
000280 41 3a 69 bd 43 5f 2f ba 27 33 0b 3d 79 5a 25 bd
       -0.05694032 -0.00066899153 0.03398433 -0.040369485
000290 dd 32 75 bc dd a8 5c bd 63 d8 4e bd 37 e2 88 bc
       -0.01496574 -0.053871978 -0.05049933 -0.01670943
0002a0 b3 d8 18 3c a9 4a 90 3d 70 9e 49 3c a1 e6 21 3c
       0.009329009 0.0704549 0.012305841 0.009881646
0002b0 db 4e 11 3c b8 1c 54 bc e4 6c 96 bd 68 c8 99 bb
       0.008868898 -0.0129463 -0.07344988 -0.0046930797
0002c0 ef 63 1b 3a ff 8e 76 bd 2c 56 24 3d e6 b3 2f bd
       0.0005927672 -0.060194965 0.040121242 -0.042896174
0002d0 1b 80 92 bc 26 e4 0e 3d 01 94 22 3d 2e 34 c4 bc
       -0.017883351 0.034885548 0.03969193 -0.023950662
0002e0 03 7c 36 bd 4c 0d 30 bc d8 66 4b 3d 8f d6 d6 bc
       -0.04455186 -0.010745358 0.049658626 -0.026225356
0002f0 ef b9 02 bd cc a0 8e bd 18 79 0a 3d 65 63 96 bb
       -0.0319156 -0.06964263 0.03380689 -0.0045894855
000300 a1 80 88 bd 26 25 44 bd 60 41 8a bd 80 20 2c be
       -0.06665159 -0.04788699 -0.067507505 -0.16809273
000310 fc ea 8a bd 7a 59 10 bd 56 14 0f bc 07 15 8b bd
       -0.06783101 -0.03524158 -0.008732876 -0.0679112
000320 12 41 40 3c ec 5e 4a bd eb 66 66 bb 93 cf 53 3d
       0.011734264 -0.04940693 -0.0035156559 0.05171163
000330 f3 54 a3 3c ed 63 2e bd 84 fb 05 3d 8e 72 dc 3b
       0.019937968 -0.042575765 0.032710567 0.006727523
000340 9c 2b 34 bd 34 2f d9 3c 34 72 15 bd 44 0c d7 3c
       -0.0439869 0.026511766 -0.036485866 0.026250966
000350 29 29 30 3c bf 58 92 bd ce 5c 0e 3c c9 b5 1d 3d
       0.010752001 -0.07145833 0.008689119 0.038503442
000360 d9 16 df 3c e6 11 13 bd f5 81 4b bc 84 08 da b9
       0.027232574 -0.03590574 -0.012421121 -0.00041586545
000370 22 d6 51 3c b6 ce 48 3d 26 51 1f bd 22 2d 6b bb
       0.012807401 0.04902526 -0.03889575 -0.0035885056
000380 77 5f 54 3d 3a bd 80 bd a2 f9 d5 3c 26 40 63 bd
       0.051848855 -0.06286092 0.02612001 -0.0554811
000390 22 e8 ae 3c c8 0e 3a bc 2d 35 c5 bd 9e 31 22 3c
       0.021350924 -0.011356063 -0.09629283 0.009899525
0003a0 45 f1 23 3d 14 c5 23 bd cc da 61 bc 8d b3 a6 3b
       0.040025014 -0.03998287 -0.013785075 0.005087322
0003b0 70 ec c5 3c 3d 7c f1 bd 80 16 36 3d 18 2d 81 3c
       0.024160594 -0.11791275 0.04445505 0.015768573
0003c0 9b 12 28 bd e4 34 cf 3c a2 60 05 bd 16 83 7e 3d
       -0.04103337 0.025293775 -0.03256286 0.062136732
0003d0 ee e4 1d 3d ed 19 03 3d ea 19 ac bd c0 cf 5a bd
       0.038548402 0.032007147 -0.0840338 -0.053420782
0003e0 fb 10 a8 bc 6e b1 76 bd 0b 43 1f 3d 14 e4 7f bd
       -0.02051591 -0.060227804 0.038882297 -0.06247337
0003f0 b2 61 3c 3d 26 f6 c9 3c 23 3c 7a 3d e8 72 ed 3d
       0.045991607 0.024653506 0.061092507 0.11594182

l4.weight f4 [1, 256]
000000 f4 54 5f bd 1c 3c 6d 3d d2 44 86 bc 09 e6 37 be
       -0.054524377 0.057918653 -0.016390238 -0.17958845
000010 00 f0 db 3c 91 0f 15 bb cc 22 b4 3c d8 22 7b 3d
       0.02684784 -0.0022744874 0.021989249 0.061312526
000020 59 88 df 3a a3 a5 40 3d 2c ab 43 b8 b2 18 4d 3d
       0.0017054185 0.047032963 -4.665104e-05 0.05007238
000030 0c e4 d7 3c 56 c9 a6 3b d7 ce 99 bb ab 3a 67 bc
       0.026353858 0.005089919 -0.0046938467 -0.014113109
000040 e7 fb e5 bd 5b c1 18 bd 92 c5 7f bb d3 dd 42 3c
       -0.11229687 -0.037293773 -0.0039027673 0.011893707
000050 10 dd 3c 3d ce 62 3c bd cd 17 85 3d 78 75 78 3d
       0.04610926 -0.045992665 0.0649868 0.060658902
000060 10 0f aa bc b4 b5 85 3c 3c 64 20 3d 20 b3 5c bb
       -0.020759135 0.016321994 0.03915809 -0.0033676103
000070 c8 0f bb bc 32 b6 72 bc 2d 78 00 3c cc f7 63 bb
       -0.022834674 -0.014813947 0.007841152 -0.003478515
000080 4a ef 00 bd 75 ab 0a bd 3f 69 96 bc 72 c2 a6 bb
       -0.031478204 -0.03385492 -0.018360732 -0.0050890977
000090 a8 53 3a 3a 26 2a be 3c 9e fe ff 3c b9 d5 ef bc
       0.00071078027 0.023213457 0.03124934 -0.029276716
0000a0 31 be 1e 39 96 a0 b7 bc ad e6 e7 3c 9b 28 84 3b
       0.00015138906 -0.02241544 0.028308237 0.004033161
0000b0 d8 66 0b bc 32 47 2b 3b a5 35 48 3d d5 9f b7 3c
       -0.008508407 0.0026134965 0.048879284 0.022415081
0000c0 88 dc 80 3b 60 7a 77 bd e6 25 4a 3b 70 15 9d bc
       0.0039325394 -0.06041944 0.0030845343 -0.019175261
0000d0 b4 84 8b 3d fd a8 07 bb 3d f2 11 bd b9 e8 81 ba
       0.068124205 -0.002070009 -0.035631407 -0.0009911276
0000e0 27 f6 e8 bb 76 96 5d bd f3 67 a2 bc d3 78 8f bb
       -0.007109422 -0.05409857 -0.019824957 -0.004378417
0000f0 f8 12 9f bb 35 85 d4 bc ef c5 9f 3b 4c ae 0b 3d
       -0.004854556 -0.025942424 0.0048758904 0.03410177
000100 08 54 63 3c 2e ff 73 3c 79 01 61 3d 0c 3a 00 bd
       0.013875015 0.014892383 0.054933045 -0.031305358
000110 b8 a5 25 3c c0 35 ad bc 5a a3 b6 bc 64 bb 4c 3d
       0.010110311 -0.021143794 -0.022294689 0.049983397
000120 d3 65 91 3c 04 1b 0b 3c 0b 49 00 3d 92 1d 96 bb
       0.017748749 0.008490328 0.03131966 -0.004581162
000130 e8 1e b5 3c af 06 32 3d bd 1e 5d 3d d7 60 f2 3b
       0.022109464 0.043463405 0.053984392 0.007396798
000140 11 0e 69 3d 85 10 61 bb 8a c8 93 3d 2a b6 db 3b
       0.05689818 -0.0034342122 0.07215984 0.0067050653
000150 fd a3 4f bc 52 48 e3 3a d9 80 ea 3a 82 96 d4 3a
       -0.012673375 0.0017340279 0.0017891183 0.0016219171
000160 b1 bb da bb 56 20 0c 3d d2 84 32 bd 94 6c 37 3d
       -0.0066752066 0.034210525 -0.0435837 0.044781283
000170 53 f2 c2 bc 5e 5b a0 bb fc 49 f7 bc 2c c6 19 3d
       -0.02379719 -0.0048937043 -0.030186646 0.037542507
000180 6c fb 6e bb 0b 3c 8a 3c 3b 9b 9a bc 03 63 40 3d
       -0.0036465777 0.016874334 -0.018872848 0.046969425
000190 fd 0e 91 bd 27 8d da 3c da 81 66 bd 8b 7e 38 3a
       -0.07082937 0.026678635 -0.05627618 0.00070378993
0001a0 10 67 87 3d c2 61 27 bb 40 5b 9e 3b fb 1c 1a 3d
       0.066114545 -0.0025540446 0.004832655 0.037625294
0001b0 04 b1 9b bc 3f 03 bb bc f2 9f b7 3c ea de 50 bd
       -0.019005306 -0.022828696 0.022415135 -0.050993837
0001c0 06 51 47 bd 61 14 8d 3a f2 b6 43 3a 5e 6d a1 3d
       -0.048661254 0.001076352 0.00074659206 0.07882188
0001d0 83 be ed 3c 9f 7b d2 3c cc ef 4a bd 4c 54 4d 3d
       0.029021507 0.025693713 -0.049545094 0.05012922
0001e0 10 18 30 ba 84 29 73 3b ad 33 5b 3d 9a 18 7c 3c
       -0.0006717453 0.0037103603 0.05351608 0.015386725
0001f0 9e 65 51 3d 94 3b 17 bd a6 84 ac bb 98 a1 d1 bc
       0.0511223 -0.036922053 -0.0052648364 -0.02558975
000200 9f 16 46 bd a5 b3 85 3d a7 ed e7 bc 8e 91 b0 bb
       -0.048361417 0.06528405 -0.028311564 -0.005388445
000210 d0 01 e8 bb 73 48 2d 3b f8 68 46 3d 3d 1c 68 3c
       -0.007080294 0.0026440888 0.04843995 0.014166889
000220 7e a6 60 bd bf 8a 11 bd 2e ff 13 ba f9 41 4d 3d
       -0.05484628 -0.03553271 -0.000564563 0.050111745
000230 f8 ff e7 bb bf 31 b2 3c 93 96 4b bc 7d 61 9b 3b
       -0.0070800744 0.021752236 -0.012426036 0.004741846
000240 c2 34 3d 3d d5 b3 86 bc ef 14 e0 3a e8 f9 fa bc
       0.046192892 -0.016443172 0.0017096082 -0.030636743
000250 b0 25 40 3d 50 17 00 3c 2d 86 05 3d 8e 62 aa 3b
       0.04691094 0.007818058 0.032598663 0.005199737
000260 35 5a af bc 9a 3b 4e bd 4c 01 65 bd 6b 2a 07 bd
       -0.021405319 -0.05034981 -0.05590944 -0.032999437
000270 2d 11 ab bd 64 3a c9 3a fa 76 2f 3d 75 74 0e bd
       -0.083528854 0.0015352485 0.042838074 -0.03477903
000280 85 21 04 ba f2 ca f5 bc 3a e8 bc bc e5 0e c2 39
       -0.0005040395 -0.030003998 -0.023059953 0.0003701366
000290 ff dd e4 3c 94 a0 dc bc d9 4c a8 3b 08 d4 f7 3c
       0.027937887 -0.026932038 0.005136114 0.030252472
0002a0 10 87 ce 3b 9a d2 8f 3d 4a de 28 bd 27 8f 21 3d
       0.006302722 0.07022591 -0.041227616 0.03944316
0002b0 8e 7c 01 3d a1 b6 36 3b 99 66 72 bb cf 46 78 3b
       0.031612925 0.0027879851 -0.0036987422 0.0037884002
0002c0 5b 4c 6b bc ca 15 10 bd fa 2d fa 3c 24 94 2f bd
       -0.014361466 -0.03517703 0.030539501 -0.042865887
0002d0 73 c8 fd bc 5c 3f 40 bb 33 12 20 3d db 83 d7 3c
       -0.03097937 -0.002933464 0.039079856 0.02630799
0002e0 ae 73 4d bc f6 d7 c3 3a 4c be 3c bd 0f 50 db 3c
       -0.012539787 0.0014941681 -0.04607992 0.026771573
0002f0 a8 3c 87 3d c8 a9 8a 3c 69 0c c3 bc b1 c4 f8 3b
       0.06603366 0.016926661 -0.023809629 0.007591807
000300 c7 22 23 bd e5 72 ae 39 ae f1 96 3c 5c c4 33 3d
       -0.039828088 0.0003327347 0.018425789 0.043888435
000310 fa 45 5b bd d3 8a 37 3d 33 b0 41 bd 99 73 96 bc
       -0.05353353 0.044810127 -0.047287177 -0.018365668
000320 fe ad 4c bc f8 64 53 bb 58 13 54 3d 56 0f 7a 3d
       -0.012492655 -0.0032256227 0.05177626 0.06104978
000330 1f 14 65 3d 36 67 37 3a 70 ac 43 bd 97 40 43 3d
       0.055927392 0.00069962756 -0.04777187 0.04766902
000340 85 51 2e bd 0e bf 57 bd f0 d9 29 bd d2 c1 29 3d
       -0.04255821 -0.05267244 -0.041467607 0.041444607
000350 14 ec 37 3d 1d 9b b8 3b 67 71 4c 3c 1a 03 86 3d
       0.044902876 0.0056337253 0.012478209 0.0654356
000360 54 3e 4d 3d e8 bf a0 bc a8 d4 7e bc fc 27 91 bc
       0.05010827 -0.019622758 -0.015553631 -0.017719261
000370 ed e5 9c bb 64 f8 c0 bc 27 6b 50 bd 70 ea 47 3c
       -0.0047881515 -0.023555942 -0.05088344 0.01220189
000380 13 e0 f1 bc 88 a8 e5 3a 27 da 06 3a d0 a6 2d bd
       -0.029525792 0.001752154 0.00051442016 -0.042395413
000390 c6 64 36 bd 9f 70 29 3d f3 c7 b8 3c 4c dd 88 39
       -0.0445297 0.04136717 0.02255628 0.0002610482
0003a0 ff 49 b2 ba 7c be 9a 3d db d8 49 3d 03 d5 36 3d
       -0.0013602375 0.07555863 0.049279075 0.044636738
0003b0 20 36 a2 3b ac 5f d1 bc ce 0e 27 bd c2 2c 65 3d
       0.0049503 -0.025558315 -0.040785603 0.055950888
0003c0 fd 08 d9 bc 03 50 fa bc 9d 9d 0b 3d e7 56 31 3d
       -0.026493544 -0.03055573 0.03408586 0.043295767
0003d0 8e d1 20 3d e4 87 00 bd f6 48 d0 3c 83 d5 f8 bc
       0.039262347 -0.031379595 0.025425415 -0.030375248
0003e0 e0 96 48 bd 7c e6 73 3d ca da 2a 3d 17 a4 ae bd
       -0.04897201 0.05954598 0.04171256 -0.085273914
0003f0 70 34 e4 3c 2e ab 30 bd 33 c5 4d 3d 57 df 33 3d
       0.027857035 -0.043132 0.050236892 0.043914165
