models/GMI_pretrained/GMI_GPM_channel_predictor_166V_ocean.pt (torch, 544284 bytes, 7 tensors)

l1.weight f4 [256, 12]
-0.2786526 0.10463519 -0.1989368 -0.18577331 -0.09546216 -0.13122874 -0.08533586 0.11417595
0.0223898 -0.06172186 0.008520805 -0.18908444 -0.14182186 0.062417835 0.12905842 -0.1827101
0.08560686 -0.010790052 0.0074502258 0.00015009726 -0.21570645 0.048041496 -0.18552962 0.23001333
0.14479329 0.09008516 -0.11163939 0.074183375 -0.15168989 -0.071991526 -0.27351505 -0.063535996
-0.140696 -0.14802049 -0.16605961 -0.2608767 -0.2555783 -0.22137071 0.079019874 0.022682067
0.21637085 -0.1965801 0.017054286 0.21597472 -0.09014324 0.119954765 0.08757546 0.09647785
-0.25676855 -0.10062235 0.241044 0.1592153 -0.2792578 0.23823088 0.2319739 0.14004831
0.11555072 0.09316664 -0.1130089 0.051689297 -0.056789357 0.0747262 -0.08864833 0.21202645
-0.14940083 -0.28570837 0.14049539 0.15842816 -0.13370505 0.040737506 0.2333006 0.2959525
0.22187123 -0.11724499 -0.18392332 0.24283293 -0.18639825 0.24723591 -0.18589266 -0.26551285
-0.28227955 -0.0844594 -0.23590744 -0.22868991 0.009249287 0.08639107 -0.21721521 0.17144454
-0.094736435 0.14018103 -0.04400893 -0.29622293 0.044763234 -0.046712052 -0.18845844 0.21768871
0.044571366 -0.013089446 -0.07749683 0.10797697 0.21768501 -0.2138204 0.04252415 0.1535223
-0.1266934 0.17298451 -0.15635197 -0.0910556 -0.12863451 -0.036592428 -0.14716811 -0.11236901
-0.1785957 0.11971764 0.16682902 0.20574003 -0.16358943 0.10953829 -0.28696114 0.23941103
0.019306589 0.09202986 -0.06257079 -0.18709445 -0.03973431 -0.1289625 -0.27347615 -0.16834164
0.25235945 -0.16024356 -0.05717776 0.24150047 -0.28127617 0.19997662 -0.09994122 -0.073937066
0.14696999 -0.14033481 -0.024584854 -0.019121537 -0.015539899 -0.16165677 0.1647833 0.15663648
0.020148497 0.06539377 -0.1288413 0.09146728 0.06086192 -0.20988238 -0.11866878 -0.27195376
-0.11478527 -0.2847786 -0.02147628 -0.22883543 0.29154179 0.1275518 0.008892585 0.022001
-0.31895116 0.23018312 0.35800442 -0.12804504 -0.13307975 -0.011329197 -0.20377854 0.05006242
-0.07261002 0.0695047 -0.18892561 0.20139831 -0.034439627 -0.19161914 -0.15408891 -0.24555346
0.1131817 -0.017392188 0.024828127 0.23512702 -0.06816222 -0.06898463 0.056642924 0.16782284
-0.24528906 -0.11674087 0.059517454 0.049175635 -0.23976243 0.17390156 0.011659451 0.19434313
-0.2701875 0.05590111 -0.016178241 0.011875402 0.0064475513 0.083224215 0.15150644 -0.16406456
0.20476648 -0.112436056 0.22974166 -0.09176917 -0.10260894 0.088683166 -0.27913183 0.0703508
0.23854963 0.17530733 0.12486141 -0.04376269 0.1587666 0.18906061 -0.22763072 -0.00572972
-0.0359372 0.082517266 0.026145065 -0.12397274 -0.19870234 0.14206758 0.281679 0.09646263
0.20788324 -0.38021103 0.20525084 -0.22957306 0.123364516 -0.15053044 0.18289544 0.118845165
-0.066939205 -0.1587098 0.08170423 -0.17941156 0.21419443 -0.38640672 0.17718606 0.06845742
-0.056854934 0.21139234 -0.052413553 -0.2340699 -0.07318881 0.009924432 0.12950306 -0.21098357
0.19698386 -0.20242544 0.06815175 -0.0422971 0.19578 -0.11409615 -0.077962205 -0.1552894
00000000: 8eab 8ebe f94a d63d 17b6 4bbe 5c3b 3ebe
00000010: aa81 c3bd d460 06be 91c4 aebd 15d5 e93d
00000020: d06a b73c 10d0 7cbd d99a 0b3c 5a9f 41be
00000030: c039 11be d8a9 7f3d e427 043e 5b18 3bbe
00000040: a652 af3d c2c8 30bc 0621 f43b 6d63 1d39
00000050: 27e2 5cbe 29c7 443d 7afb 3dbe 9d88 6b3e
00000060: b144 143e 927e b83d 31a3 e4bd 74ed 973d
00000070: 9854 1bbe 4b70 93bd 2a0a 8cbe 291f 82bd
00000080: 9d12 10be af92 17be 880b 2abe a191 85be
00000090: 29db 82be 01af 62be 2cd5 a13d becf b93c
000000a0: 5290 5d3e 4b4c 49be 6eb5 8b3c 7a28 5d3e
000000b0: 059d b8bd d8aa f53d c35a b33d 2e96 c53d
000000c0: 2b77 83be 1713 cebd 3dd4 763e 5609 233e
000000d0: e1fa 8ebe ccf2 733e 918a 6d3e d368 0f3e
000000e0: dba5 ec3d 27ce be3d 3671 e7bd 28b8 533d
000000f0: f59b 68bd 0d0a 993d 418d b5bd 761d 593e
00000100: 88fc 18be 5e48 92be 06de 0f3e fe3a 223e
00000110: fae9 08be 5fdc 263d 5ae6 6e3e 1687 973e
00000120: 3632 633e 241e f0bd 6556 3cbe 32a9 783e
00000130: 2fdf 3ebe 692b 7d3e a55a 3ebe 4df1 87be
00000140: f286 90be 0df9 acbd b891 71be b02d 6abe
00000150: 528a 173c cded b03d aa6d 5ebe 288f 2f3e
00000160: 2d05 c2bd 9e8b 0f3e b542 34bd 88aa 97be
00000170: a759 373d 2355 3fbd 40fb 40be cae9 5e3e
00000180: 7790 363d 1e75 56bc a8b6 9ebd 0823 dd3d
00000190: d2e8 5e3e bcf3 5abe ce2d 2e3d f334 1d3e
000001a0: eabb 01be da22 313e bb1a 20be 5c7b babd
000001b0: c4b8 03be f1e1 15bd 3db3 16be b921 e6bd
000001c0: cbe1 36be 862e f53d 3ad5 2a3e 84ad 523e
000001d0: fd83 27be 9c55 e03d 92ec 92be 2a28 753e
000001e0: da28 9e3c 277a bc3d 1d25 80bd b095 3fbe
000001f0: 72c0 22bd bf0e 04be 1105 8cbe c061 2cbe
00000200: 4235 813e e316 24be 3a33 6abd e64b 773e
00000210: 6e03 90be acc6 4c3e fbad ccbd 516c 97bd
00000220: 4d7f 163e eeb3 0fbe 2d66 c9bc c5a4 9cbc
00000230: 0f9b 7ebc 5a89 25be f4bc 283e 5065 203e
00000240: 760e a53c 2bed 853d f9ee 03be 3353 bb3d
00000250: 594a 793d 68eb 56be 9e08 f3bd 863d 8bbe
00000260: 8a14 ebbd 80ce 91be 06ef afbc d653 6abe
00000270: f744 953e f09c 023e 34b2 113c 713b b43c
00000280: 914d a3be 20b5 6b3e 5b4c b73e 3d1e 03be
00000290: 0f46 08be 199e 39bc 52ab 50be 410e 4d3d
000002a0: 90b4 94bd 7b58 8e3d b775 41be 5c3b 4e3e
000002b0: 9110 0dbd cf37 44be 7cc9 1dbe 5e72 7bbe
000002c0: cfcb e73d 107a 8ebc 5b64 cb3c 23c5 703e
000002d0: a298 8bbd d047 8dbd 6902 683d c0d9 2b3e
000002e0: 0e2d 7bbe d615 efbd 93c8 733d 646c 493d
000002f0: 4884 75be 4013 323e 4807 3f3c e301 473e
00000300: 0456 8abe 90f8 643d 3b88 84bc 0c91 423c
00000310: fb45 d33b 7571 aa3d 8124 1b3e 8a00 28be
00000320: 4eae 513e e044 e6bd 6641 6b3e 79f1 bbbd
00000330: a324 d2bd 859f b53d 5eea 8ebe 1514 903d
00000340: 5b46 743e c483 333e 57b7 ff3d 8240 33bd
00000350: b693 223e 1b99 413e 0718 69be 60c0 bbbb
00000360: e332 13bd d0fe a83d 2d2e d63c 6be5 fdbd
00000370: a078 4bbe 2a7a 113e 3b38 903e 338e c53d
00000380: 58df 543e 05ab c2be 472d 523e 3315 6bbe
00000390: 89a6 fc3d a724 1abe f148 3b3e 1865 f33d
000003a0: 6c17 89bd d284 22be 8c54 a73d aab7 37be
000003b0: c955 5b3e 1ad7 c5be 4370 353e 6733 8c3d
000003c0: b8e0 68bd 3c77 583e 98af 56bd 05b0 6fbe
000003d0: 04e4 95bd 169a 223c 739c 043e 140c 58be
000003e0: 23b6 493e 9d48 4fbe 2593 8b3d b93f 2dbd
000003f0: 8d7a 483e 3eab e9bd a6aa 9fbd 2f04 1fbe

l1.bias f4 [256]
-0.1619708 -0.038647827 0.14167312 0.1618547 0.31633025 -0.065473646 -0.17724364 -0.08710734
-0.12351721 -0.15579253 0.1306301 -0.118855834 0.11169531 0.03399529 -0.31330672 0.1432225
-0.06306622 0.12755969 -0.33739418 0.21234438 -0.06117401 -0.26154986 -0.02848317 0.042482816
-0.2438583 -0.25314873 0.24962343 -0.17567189 0.14484754 -0.17432481 0.07604139 -0.13486728
-0.10479414 -0.104905054 -0.27848762 0.19589834 0.0771086 -0.13520105 0.13126372 0.015748516
-0.17013484 -0.2181435 -0.22012642 -0.23395579 0.19140145 -0.013107213 -0.1592415 0.1813607
-0.21741293 -0.18090002 0.027762705 -0.06594107 -0.10809136 -0.048719488 -0.2873634 0.10236729
0.049084473 0.06564567 -0.041211925 -0.168686 -0.021030406 -0.052888304 -0.31419027 0.07579217
0.08131318 0.24803875 0.014056888 0.14269246 0.12954535 0.09569043 0.101441756 -0.10831488
-0.20525226 -0.051023863 0.19350636 0.14275953 0.028665517 0.013143781 -0.21714815 0.043921985
-0.2870413 0.23649402 -0.017762678 -0.09737387 0.018573426 0.0028751967 -0.26272082 -0.12885112
0.0641013 -0.030454598 -0.07853638 0.033687375 0.19722869 -0.08224325 0.068685085 -0.26923
-0.049693674 0.0751652 0.008325096 -0.11265532 0.012668403 0.090233 0.09326399 0.18833306
0.014331238 0.028663477 -0.11476988 -0.16718206 -0.28762507 0.22467615 0.20477821 0.21942995
0.07324611 0.006944109 0.24940847 0.034659874 0.07501151 0.035840288 -0.014068501 0.2846039
0.0007448488 0.037470367 0.044756062 -0.15179667 -0.11926698 -0.0297755 -0.085379705 -0.15208298
0.110241815 0.27899623 0.06407973 -0.1218665 0.058144193 -0.16510701 0.29182044 -0.27403453
0.016221657 0.08437898 -0.22380933 0.2785718 0.0831522 -0.015450491 -0.20632502 -0.28895116
-0.1983769 0.026974598 -0.1626288 -0.26085216 -0.21639578 0.2371212 0.2699951 -0.11125108
-0.086300075 -0.0878228 -0.19904895 0.03925776 0.22290595 -0.22082523 -0.25049928 -0.26506785
-0.17946754 -0.17980267 -0.11384332 -0.2380481 -0.25298044 0.22033778 -0.25167122 0.0616174
-0.038769227 -0.15650946 -0.26294804 -0.17339154 -0.06063681 -0.3498948 -0.40481126 0.115135916
-0.006178432 -0.06873853 0.11862456 0.09614318 -0.06856883 0.21620579 0.048237815 -0.15074088
-0.11896531 -0.031035317 -0.11318938 -0.1890794 -0.1807706 -0.28370774 -0.15763049 -0.14181837
-0.29655233 0.28447515 -0.19067737 0.19721235 0.15022111 0.2890902 -0.0414268 0.10124102
0.18133588 0.29165438 -0.089933924 0.00989274 0.08834264 0.10888293 -0.13100696 0.2520667
0.23579498 -0.10210074 -0.12880492 -0.26029786 0.18440594 0.062120028 0.010545837 -0.25623184
-0.1230296 0.3046111 -0.17489225 -0.08950892 0.083847396 0.22005874 -0.0035539307 -0.026017727
0.24349067 -0.11824484 -0.17829412 0.17697297 -0.092127845 0.12098672 0.27615675 -0.15795535
0.19454728 0.09430334 0.25410524 0.086221464 0.21595591 -0.15246822 -0.17975718 -0.058434248
-0.41891384 -0.16723354 -0.027640361 0.115637474 -0.14941508 0.1397979 -0.25677708 -0.17565888
0.032239445 0.117707536 0.15353125 -0.20838238 -0.12645218 -0.37961453 0.24175148 0.0019675838
00000000: acdb 25be 2f4d 1ebd c212 113e 3dbd 253e
00000010: 0af6 a13e 0c17 86bd 5b7f 35be 5565 b2bd
00000020: 97f6 fcbd 1488 1fbe e6c3 053e b06a f3bd
00000030: 83c0 e43d a53e 0b3d bd69 a0be eba8 123e
00000040: dd28 81bd 029f 023e eebe acbe ce70 593e
00000050: 9991 7abd dde9 85be 8955 e9bc 7602 2e3d
00000060: fdb5 79be b69c 81be 499d 7f3e 55e3 33be
00000070: ea52 143e 3482 32be 97bb 9b3d a61a 0abe
00000080: 4f9e d6bd 76d8 d6bd ee95 8ebe 9399 483e
00000090: 1deb 9d3d 2572 0abe ff69 063e 0803 813c
000000a0: d437 2ebe 0261 5fbe d268 61be 1b92 6fbe
000000b0: befe 433e a3bf 56bc 3410 23be 9fb6 393e
000000c0: 7fa1 5ebe db3d 39be 9d6e e33c 1d0c 87bd
000000d0: 015f ddbd 168e 47bd 4c21 93be f1a5 d13d
000000e0: cd0c 493d 3d71 863d d6cd 28bd 06bc 2cbe
000000f0: f547 acbc 68a1 58bd 8cdd a0be ed38 9b3d
00000100: 8687 a63d dffd 7d3e dd4e 663c f91d 123e
00000110: 89a7 043e 58f9 c33d b2c0 cf3d 31d4 ddbd
00000120: a62d 52be 66fe 50bd 8826 463e 8e2f 123e
00000130: f2d3 ea3c 0359 573c 165c 5ebe 8ae7 333d
00000140: 14f7 92be 7d2b 723e 0983 91bc f46b c7bd
00000150: 4c27 983c cc6d 3c3b 5883 86be 8cf1 03be
00000160: 8b47 833d ec7b f9bc aed7 a0bd c6fb 093d
00000170: 51f6 493e 266f a8bd c4aa 8c3d 84d8 89be
00000180: 988b 4bbd 36f0 993d fc65 083c d5b7 e6bd
00000190: 228f 4f3c 14cc b83d 3101 bf3d 62da 403e
000001a0: 92cd 6a3c abcf ea3c 790c ebbd c631 2bbe
000001b0: 9843 93be 8111 663e 61b1 513e 3fb2 603e
000001c0: 0e02 963d 698b e33b ef64 7f3e 83f7 0d3d
000001d0: a29f 993d 44cd 123d 927f 66bc 9ab7 913e
000001e0: f541 433a 877a 193d 2252 373d 9670 1bbe
000001f0: 3f42 f4bd c0eb f3bc 8edb aebd a4bb 1bbe
00000200: 76c6 e13d 98d8 8e3e 3c3c 833d 2595 f9bd
00000210: 9b28 6e3d d011 29be 7d69 953e 414e 8cbe
00000220: 48e3 843c e3ce ac3d 462e 65be f7a0 8e3e
00000230: b34b aa3d 0e24 7dbc de46 53be 68f1 93be
00000240: 5023 4bbe d5f9 dc3c 2a88 26be 6a8e 85be
00000250: db96 5dbe e6cf 723e cc3c 8a3e 9bd7 e3bd
00000260: 18be b0bd 71dc b3bd 7dd3 4bbe bfcc 203d
00000270: 7541 643e 0220 62be 7141 80be f9b6 87be
00000280: 57c6 37be 311e 38be b026 e9bd e2c2 73be
00000290: a786 81be 3aa0 613e 0ddb 80be 8762 7c3d
000002a0: 7bcc 1ebd 0444 20be 20a1 86be 8d8d 31be
000002b0: 4e5e 78bd 6925 b3be 6c43 cfbe 61cc eb3d
000002c0: 7274 cabb c9c6 8cbd 6ff1 f23d b7e6 c43d
000002d0: d16d 8cbd 0d65 5d3e 0495 453d d15b 1abe
000002e0: 16a4 f3bd c73d febc d5cf e7bd 089e 41be
000002f0: ee1b 39be 2442 91be e369 21be d638 11be
00000300: b5d5 97be baa6 913e ee40 43be 09f2 493e
00000310: 90d3 193e a103 943e 26af 29bd 7457 cf3d
00000320: 1db0 393e b953 953e 472f b8bd 2915 223c
00000330: fcec b43d 03fe de3d b026 06be e30e 813e
00000340: 3d74 713e 311a d1bd 70e5 03be c345 85be
00000350: e9d4 3c3e 9271 7e3d 72c8 2c3c d230 83be
00000360: f1f6 fbbd fcf5 9b3e f416 33be 7450 b7bd
00000370: 2fb8 ab3d 1457 613e 10e9 68bb 2123 d5bc
00000380: 9e55 793e 5a2a f2bd bc92 36be 6738 353e
00000390: 86ad bcbd e3c7 f73d 6b64 8d3e 0cbf 21be
000003a0: 6737 473e 1c22 c13d 151a 823e e194 b03d
000003b0: 8c23 5d3e a120 1cbe 4412 38be c058 6fbd
000003c0: e07b d6be 453f 2bbe 0a6e e2bc 57d3 ec3d
000003d0: 4400 19be 2e27 0f3e 4978 83be ecdf 33be
000003e0: 820d 043d a610 f13d 4c37 1d3e 3162 55be
000003f0: ae7c 01be d65c c2be b38d 773e 94f2 003b

l2.weight f4 [256, 256]
-0.024538346 0.050792288 0.02143763 0.044770017 -0.05825341 0.01711816 0.011305667 0.0011087426
0.03240825 -0.0057428926 0.0070113614 0.04760072 0.040572718 -0.010665399 -0.046553943 -0.029095689
-0.021812342 -0.06615117 0.033626758 0.011142912 0.04608258 -0.012963966 0.009658664 0.04775831
-0.06726563 0.008253768 0.012444243 0.025000753 -0.06061574 0.01882354 -0.030381054 0.016062632
-0.018925175 0.05964596 -0.060812794 -0.03754297 0.04894279 0.047232203 0.055940334 -0.044709302
-0.028707698 -0.048394784 0.026899915 -0.052511998 -0.009807661 -0.06578301 -0.05586791 0.0020067398
-0.027469613 0.04446169 -0.05544898 -0.026524834 -0.03957971 -0.028462805 0.03952567 0.010781721
-0.059541933 -0.011641242 0.0035903305 0.053352848 -0.06105952 -0.017984781 -0.018746238 -0.030718908
-0.026685042 -0.059863843 0.002672702 0.007032074 0.020703923 -0.028328488 -0.044681586 0.062145457
0.026276901 -0.0040696785 -0.050201673 0.023382962 -0.0023950562 -0.05421602 0.050857767 0.026837777
-0.01605329 0.08448918 0.028282614 0.017408753 -0.0055275634 0.008489907 -0.0005421211 -0.059620086
-0.03673674 -0.12708771 0.001111536 -0.026214497 0.0299617 -0.043188345 -0.013994934 0.019538485
-0.056524 -0.055408977 -0.0729202 -0.011588693 0.05235759 -0.032020185 -0.04599605 -0.0065346663
0.0058566523 -0.03660589 0.02716428 0.049516916 -0.00038390656 0.027911678 -0.013680786 -0.016241867
-0.01786904 -0.027764523 0.038899645 -0.029561467 0.02530146 0.009341325 0.030993836 -0.014128856
-0.0065213437 0.017344065 -0.05312323 -0.056689736 -0.006724529 0.056706607 -0.023318872 -0.02061242
-0.031228356 -0.024360828 -0.00091356534 0.0012176924 -0.006323949 -0.036565915 -0.06751184 0.020406764
0.0037627295 0.058000274 -0.06452622 0.055801764 0.03913977 0.009621161 -0.035934772 0.016017133
0.041197646 -0.06438414 0.009314351 0.048565723 0.0037686527 -0.030027179 -0.005172685 -0.011768013
-0.025187254 -0.058063306 0.042467248 0.02429593 -0.0047158673 0.003157159 0.03500433 0.03681414
-0.027940953 0.022385776 0.012284107 0.052520722 0.02288844 0.111737564 0.027011499 -0.032393444
-0.026699416 -0.06192437 0.040026054 0.0462335 0.046699386 -0.070442595 -0.085244656 5.717206e-05
-0.028758109 -0.023249578 0.06029889 -0.009413229 -0.03549797 -0.012483776 -0.018406074 -0.021072844
0.026681311 -0.051993474 -0.0014857948 -0.035530303 0.046307467 -0.007183306 0.020311572 0.029469922
0.017517213 -0.048871104 0.049583334 0.0305122 0.04302822 -0.04962726 0.0050097182 -0.051222935
0.04710529 0.00036624953 0.021296265 -0.01194501 -0.002345994 -0.0512247 -0.001683473 0.0022849888
0.06138002 0.018142452 0.0169873 0.015208341 0.025842212 0.026434042 0.015287757 0.06707564
-0.023298495 0.01284187 0.025935436 0.04563804 -0.08663075 0.029759072 0.043915655 -0.048727825
0.02788055 -0.053181168 -0.070029214 -0.0036935285 0.0064444575 -0.052424658 -0.018086702 -0.045299202
-0.013348602 0.035332873 -0.026275568 -0.043573886 0.01631429 -0.049344912 0.012496581 -0.033805214
0.021596992 0.016896345 -0.0028753653 0.008642057 0.05107031 -0.05569847 -0.044967957 0.012066824
0.028786374 -0.043799907 -0.072297946 0.035263445 -0.023648016 0.041832857 0.044134222 -0.058777407
00000000: a404 c9bc 930b 503d f89d af3c c460 373d
00000010: 219b 6ebd 623b 8c3c 683b 393c 3a53 913a
00000020: 83be 043d e02e bcbb 90bf e53b f9f8 423d
00000030: 942f 263d edbd 2ebc 59af 3ebd 155a eebc
00000040: ccaf b2bc 447a 87bd 36bc 093d c390 363c
00000050: 16c1 3c3d d066 54bc 603f 1e3c 389e 433d
00000060: 90c2 89bd d03a 073c f0e2 4b3c 61ce cc3c
00000070: 3648 78bd d333 9a3c b0e1 f8bc c895 833c
00000080: f808 9bbc 524f 743d d616 79bd a8c6 19bd
00000090: 3c78 483d 8e76 413d b121 653d 1a21 37bd
000000a0: 682c ebbc 9c39 46bd 365d dc3c d216 57bd
000000b0: 50b0 20bc 3eb9 86bd c0d5 64bd 8283 033b
000000c0: f407 e1bc 761d 363d 781e 63bd 9c4a d9bc
000000d0: 561e 22bd d42a e9bc abe5 213d d1a5 303c
000000e0: 3ee2 73bd e8ba 3ebc c04b 6b3b 8488 5a3d
000000f0: 8c19 7abd d254 93bc b691 99bc 38a6 fbbc
00000100: 979a dabc ca33 75bd 8028 2f3b 506d e63b
00000110: 469b a93c 2511 e8bc 0a04 37bd 3c8c 7e3d
00000120: a842 d73c f05a 85bb 45a0 4dbd a08d bf3c
00000130: 60f6 1cbb 9e11 5ebd 3c50 503d e6da db3c
00000140: 3082 83bc aa08 ad3d f1b0 e73c cd9c 8e3c
00000150: 9020 b5bb 4019 0b3c 221d 0eba 3134 74bd
00000160: 4479 16bd 4823 02be f6b0 913a c9bf d6bc
00000170: 3d72 f53c 43e6 30bd 024b 65bc 2c0f a03c
00000180: b685 67bd 86f4 62bd 3057 95bd 80de 3dbc
00000190: ea74 563d 9927 03bd 5b66 3cbd c120 d6bb
000001a0: 29e9 bf3b 0ff0 15bd a087 de3c 40d2 4a3d
000001b0: 1147 c9b9 08a7 e43c 6025 60bc aa0d 85bc
000001c0: 1862 92bc 6d72 e3bc 3c55 1f3d e42a f2bc
000001d0: 0245 cf3c 5b0c 193c c9e6 fd3c b87c 67bc
000001e0: ffb0 d5bb 2415 8e3c be97 59bd 7f33 68bd
000001f0: 7059 dcbb 3045 683d 3807 bfbc 61db a8bc
00000200: 9cd2 ffbc 5c90 c7bc 557c 6fba fa9a 9f3a
00000210: 2139 cfbb 24c6 15bd a643 8abd 162c a73c
00000220: 2098 763b b291 6d3d 5326 84bd 6490 643d
00000230: 0651 203d 13a2 1d3c 5730 13bd 5d36 833c
00000240: ddbe 283d d5db 83bd 389b 183c daec 463d
00000250: 80fb 763b 8ffb f5bc a07f a9bb a0ce 40bc
00000260: 8055 cebc cad3 6dbd 23f2 2d3d 4208 c73c
00000270: 9087 9abb 57e8 4e3b b360 0f3d 6cca 163d
00000280: 6de4 e4bc 6062 b73c 4743 493c f81f 573d
00000290: 8a80 bb3c aad6 e43d 3847 dd3c fdae 04bd
000002a0: bcb8 dabc 68a4 7dbd 5cf2 233d 575f 3d3d
000002b0: db47 3f3d 3544 90bd c094 aebd 08cc 6f38
000002c0: 2096 ebbc e675 bebc f8fb 763d f239 1abc
000002d0: 5266 11bd c088 4cbc 56c8 96bc f5a0 acbc
000002e0: c492 da3c 1cf7 54bd 00bf c2ba 3988 11bd
000002f0: e6ac 3d3d f061 ebbb 7464 a63c e86a f13c
00000300: 4280 8f3c 112d 48bd e517 4b3d b9f4 f93c
00000310: 5c3e 303d f445 4bbd 9028 a43b 24cf 51bd
00000320: 7af1 403d 2e05 c039 8175 ae3c 01b5 43bc
00000330: 40bf 19bb fed0 51bd fba7 dcba c0bf 153b
00000340: 9e69 7b3d 7b9f 943c f328 8b3c 682c 793c
00000350: 0cb3 d33c 348c d83c 8079 7a3c f45e 893d
00000360: 7cdc bebc b566 523c 8d76 d43c f4ee 3a3d
00000370: 766b b1bd 4cc9 f33c e7e0 333d d496 47bd
00000380: c065 e43c 7fd4 59bd 7a6b 8fbd 200f 72bb
00000390: 072c d33b 3dbb 56bd 902a 94bc a88b 39bd
000003a0: 18b4 5abc 34b9 103d dc3f d7bc 887a 32bd
000003b0: 8ca5 853c e41d 4abd 76be 4c3c 5677 0abd
000003c0: 2dec b03c 346a 8a3c a070 3cbb 6a97 0d3c
000003d0: 1a2f 513d 1424 64bd 5230 38bd eeb3 453c
000003e0: 67d1 eb3c 8867 33bd f210 94bd 6770 103d
000003f0: 7cb9 c1bc ee58 2b3d 16c6 343d 94c0 70bd

l2.bias f4 [256]
-0.0064288266 -0.05932428 -0.025175719 -0.025326993 -0.03550751 -0.03792931 0.066383876 0.056564998
-0.059239645 0.027117878 0.001295987 -0.032552347 -0.008455168 0.008867315 0.030582007 -0.048190597
-0.012234316 -0.030245401 0.14893013 0.07092291 -0.014404929 0.028748635 0.01720301 0.00047778545
-0.012173386 -0.062238995 0.05423123 0.02486437 0.062170595 -0.021105757 0.03907849 0.02936189
0.0021098664 0.008711652 -0.04795836 -0.044937175 0.13925868 0.11246298 0.015045646 0.07440305
-0.030469932 0.02645231 -0.04906945 -0.055903856 0.010601077 -0.041590154 -0.049777154 -0.05289774
-0.0371739 -0.013458415 -0.029155245 0.030082196 -0.035489805 -0.046881452 0.012421161 0.0041463333
0.02152072 0.14355417 -0.02420262 0.010982576 0.015577622 0.022197582 0.033633813 0.13888365
0.005596727 0.032672223 -0.0046715066 -0.029850751 -0.0120461695 -0.059451934 0.038631655 0.013795957
0.032662876 0.027932115 -0.015661925 0.082081854 0.003320478 -0.0506709 0.0012800843 0.004343127
0.16153996 -0.034844663 -0.028770674 0.029771242 0.070481926 -0.032594025 -0.008407078 -0.057011157
-0.036748618 0.021615906 0.0012072907 0.036579803 -0.030744523 -0.053077057 0.033388115 0.021677118
0.016692359 -0.033258 -0.04656733 -0.06586841 -0.0069715744 -0.03982973 0.029699154 0.004904991
-0.053851508 0.06703892 0.0019452646 0.021358643 -0.03958644 -0.011898084 -0.015146486 0.103361435
0.029803185 0.043219343 -0.038825277 -0.01797874 -0.013122513 0.033863876 0.04776588 0.09232194
-0.04182834 -0.07031571 -0.0018861368 -0.053115644 0.033877265 -0.029697899 0.05283097 0.05446676
-0.037057728 -0.0015450936 0.042285517 0.025129853 -0.039154418 0.008350563 0.0029405165 -0.04666942
-0.044138473 0.017005004 0.00026713312 -0.063928045 -0.04249814 0.08815923 -0.023945052 0.01544562
-0.044826064 -0.04412924 0.03218344 -0.034431815 -0.0069187675 0.04170116 0.056121923 0.04905777
-0.017400302 -0.04142025 0.12200128 0.062317934 0.041956 0.042850904 -0.043669295 0.033669733
-0.029559808 -0.045044817 0.057277884 0.0074389884 -0.114031576 -0.0432639 0.00789829 -0.08413396
0.11087031 -0.005072753 -0.060496908 0.04933054 -0.023357488 0.017151795 -0.025948763 0.021877944
-0.03398469 0.05189629 -0.05852247 0.027529886 -0.039491363 -0.010440855 0.016091794 -0.04713536
0.009741485 -0.04127675 0.012892456 -0.06188269 0.14429674 0.03050541 0.0052926475 0.034369636
-0.00322495 -0.04273983 0.0021281585 -0.06088268 0.008939996 0.011977801 0.005576521 0.03454038
-0.068192124 -0.061357774 -0.054986957 -0.012520043 -0.025879001 -0.046789948 -0.015834332 -0.060137253
-0.045057997 0.05544704 0.036629185 -0.030056069 -0.021580549 0.035871297 -0.048905745 -0.05183397
-0.0062922603 -0.013203546 0.037866488 0.06201537 0.042968847 -0.044220008 -0.042740345 -0.051861428
0.06856522 0.033129446 0.015613765 -0.033585735 0.036570184 -0.034454655 -0.041931134 0.008815134
0.018705212 0.0574324 -0.00490661 0.16348594 -0.044123672 0.046513565 0.13182856 0.07844756
0.056152407 0.0030541574 0.036879964 -0.049059525 0.029743655 -0.032110948 0.15285267 -0.073405564
-0.01827104 -0.015567201 -0.024287367 -0.09684748 -0.051175073 -0.016297037 0.0011755535 0.01053638
00000000: e8a8 d2bb 04fe 72bd 4f3d cebc 8e7a cfbc
00000010: 5370 11bd c45b 1bbd 45f4 873d b3b0 673d
00000020: 45a5 72bd 5026 de3c 1cde a93a 9c55 05bd
00000030: 8c87 0abc 3748 113c 1e87 fa3c 8163 45bd
00000040: 7172 48bc 34c5 f7bc 2481 183e 0840 913d
00000050: a702 6cbc 4282 eb3c 54ed 8c3c 477f fa39
00000060: e272 47bc 51ee 7ebd 9121 5e3d 5db0 cb3c
00000070: 98a6 7e3d fbe5 acbc c410 203d 5988 f03c
00000080: af45 0a3b 51bb 0e3c fc6f 44bd 0b10 38bd
00000090: d499 0e3e fe52 e63d 0382 763c a060 983d
000000a0: 149c f9bc 84b2 d83c 0cfd 48bd 71fb 64bd
000000b0: 24b0 2d3c 705a 2abd 21e3 4bbd 4dab 58bd
000000c0: a943 18bd af80 5cbc fbd6 eebc f06e f63c
000000d0: c25d 11bd c406 40bd 2082 4b3c f7dd 873b
000000e0: 394c b03c ddff 123e 9344 c6bc 43f0 333c
000000f0: 4839 7f3c b4d7 b53c 9cc3 093d 8437 0e3e
00000100: c064 b73b 4fd3 053d 7013 99bb 9089 f4bc
00000110: 4c5d 45bc df83 73bd 3a3c 1e3d 7008 623c
00000120: 82c9 053d e4d1 e43c 704d 80bc 881a a83d
00000130: 609c 593b 4a8c 4fbd 80c8 a73a ca50 8e3b
00000140: bb6a 253e 47b9 0ebd 7ab0 ebbc d2e2 f33c
00000150: d458 903d 5081 05bd d7bd 09bc 8884 69bd
00000160: b885 16bd d713 b13c f43d 9e3a b4d4 153d
00000170: f0db fbbc 5467 59bd fac1 083d 3694 b13c
00000180: 6abe 883c 8a39 08bd 62bd 3ebd 04e6 86bd
00000190: ce71 e4bb 8024 23bd a44b f33c 0cba a03b
000001a0: 6693 5cbd b44b 893d 40f8 fe3a 52f8 ae3c
000001b0: 6425 22bd 2ef0 42bc f828 78bc 29af d33d
000001c0: cf25 f43c c406 313d 4107 1fbd 2748 93bc
000001d0: cfff 56bc d9b4 0a3d 28a6 433d 4913 bd3d
000001e0: 3254 2bbd af01 90bd 4038 f7ba ca8f 59bd
000001f0: e3c2 0a3d 0249 f3bc 4a65 583d 8a18 5f3d
00000200: d8c9 17bd bd84 caba 9433 2d3d 1fdd cd3c
00000210: 6260 20bd cdd0 083c aeb5 403b 6f28 3fbd
00000220: 8bca 34bd 144e 8b3c 000e 8c39 b5ec 82bd
00000230: 8812 2ebd d48c b43d 6a28 c4bc a00f 7d3c
00000240: 899b 37bd ddc0 34bd c8d2 033d 6008 0dbd
00000250: d4b6 e2bb d6ce 2a3d 1ae0 653d cdf0 483d
00000260: 148b 8ebc 48a8 29bd cfdb f93d 1741 7f3d
00000270: 0eda 2b3d 6e84 2f3d 93de 32bd 46e9 093d
00000280: 6927 f2bc ea80 38bd 379c 6a3d c2c2 f33b
00000290: 6389 e9bd 7d35 31bd d467 013c 6d4e acbd
000002a0: f90f e33d 5639 a6bb 9bcb 77bd d20e 4a3d
000002b0: 3458 bfbc ec81 8c3c 8092 d4bc 6039 b33c
000002c0: 8833 0bbd 3491 543d 42b5 6fbd 5b86 e13c
000002d0: b2c1 21bd 1f10 2bbc f0d2 833c 0211 41bd
000002e0: c09a 1f3c cf11 29bd e13a 533c b478 7dbd
000002f0: 86c2 133e 7be6 f93c f26d ad3b 2dc7 0c3d
00000300: af59 53bb f60f 2fbd 9378 0b3b 1e60 79bd
00000310: 1079 123c 8a3e 443c 40bb b63b 377a 0d3d
00000320: 50a8 8bbd 4a52 7bbd 013a 61bd de20 4dbc
00000330: 3300 d4bc d1a6 3fbd 00b7 81bc 7b52 76bd
00000340: bc8e 38bd 6f1c 633d 7c08 163d 2538 f6bc
00000350: b1c9 b0bc c8ed 123d 6451 48bd db4f 54bd
00000360: 4e2f cebb b053 58bc e419 1b3d d403 7e3d
00000370: 1a00 303d 0a20 35bd 8010 2fbd a66c 54bd
00000380: ec6b 8c3d beb2 073d e1d0 7f3c 3291 09bd
00000390: 9eca 153d 5320 0dbd fbbf 2bbd 5a6d 103c
000003a0: ac3b 993c 3c3e 6b3d a1c7 a0bb dc68 273e
000003b0: 06bb 34bd 0285 3e3d 11fe 063e 1da9 a03d
000003c0: 1100 663d 4228 483b 720f 173d a4f2 48bd
000003d0: f7a8 f33c c586 03bd 6985 1c3e a855 96bd
000003e0: 26ad 95bc 930d 7fbc 4df6 c6bc f957 c6bd
000003f0: f49c 51bd 5d81 85bc 0815 9a3a c8a0 2c3c

l3.weight f4 [256, 256]
0.017768648 -0.011560775 0.05231148 -0.00948424 0.012868355 0.021870263 0.039233435 -0.044613875
-0.007851104 -0.053316914 0.014800941 0.049631517 0.052885596 -0.05136072 0.018100483 0.042111117
0.02958282 -0.04195331 -0.010581014 -0.023225376 0.01414767 -0.024575237 -0.0012053922 -0.019678315
0.019797655 -0.079442605 0.012750093 0.014480839 -0.030678803 -0.0024215868 0.007561885 -0.007195995
0.024629304 0.013495787 0.06236697 -0.0090897335 -0.029640976 -0.066448815 -0.015048775 -0.0072447937
-0.030491315 0.011530831 -0.046233863 -0.021410434 0.013236967 -0.1060986 -0.052867584 0.048344564
-0.082521506 -0.010375903 0.0050096093 -0.03827425 -0.010184035 -0.03777775 -0.010579925 0.00034199655
0.056601025 -0.06960586 -0.07020132 0.038101215 0.025032394 0.0034279525 -0.051767297 0.0305593
0.00762403 -0.062437534 -0.046018198 0.002762109 -0.027973205 -0.05438951 0.04014942 -0.01021757
0.018692233 -0.05170908 0.03509932 -0.10078377 -0.02941081 -0.048691813 0.026158273 -0.060693525
0.05113659 0.039109297 0.0075506764 0.035253424 -0.027765652 0.042776536 -0.051974557 0.049835566
-0.053684097 0.044719595 0.0552307 0.009322368 0.0044329613 0.0126904175 -0.006377313 0.033255145
0.007035682 -0.030679472 0.02116514 -0.052253395 0.04223575 -0.01248645 -0.046353363 0.03268703
0.027167171 0.0389874 0.05194342 0.038682055 0.029523402 0.030651577 0.007933533 0.049025442
0.04025064 0.04681518 -0.062316358 -0.06744468 -0.03028752 -0.028695539 0.16921194 -0.051885877
-0.045105368 -0.0054348945 0.059536785 -0.018477773 0.037225302 -0.06344263 0.017432325 -0.005452272
-0.019777324 0.016973417 -0.048407312 0.032507338 0.048784684 -0.009591929 -0.031016111 -0.055468477
-0.0031702037 0.042835914 0.057227947 0.024583155 -0.009744936 0.047019504 0.010330311 -0.011303656
-0.036209095 -0.050521813 0.020096567 -0.043023754 -0.047961146 0.02550665 0.012516148 -0.0052575828
-0.046396926 0.060706362 -0.024485143 0.024184803 0.0125473365 -0.04506301 -0.037741736 0.04755848
0.039458875 -0.04816805 -0.03564433 -0.015905153 -0.0586057 -0.009534098 -0.06146383 0.035934545
-0.032418028 -0.08159405 -0.01198631 -0.05001618 -0.030637957 0.055400994 0.04819961 -0.05884858
0.03646726 0.0070860884 0.035549328 0.054720055 0.031457204 -0.04292903 -0.035904907 0.059026174
0.023275793 0.0144873895 -0.044787083 0.009435035 0.04870249 -0.0063925437 -0.0730153 0.0363647
-0.02018772 0.03465461 -0.048638273 -0.024559949 0.056313038 0.016487507 -0.007918663 0.000787724
0.03384874 -0.04741742 0.040100735 -0.060084485 -0.025464684 0.031792838 -0.0068745017 -0.022647923
-0.04518309 -0.010379972 0.04032815 -0.043449912 0.05497226 -0.03299027 0.049210124 0.0017805212
0.0145339165 0.05917994 0.068389736 -0.0009565058 -0.00703583 0.013614296 0.016602464 0.00022386014
0.026732735 -0.04447578 -0.049225397 -0.020696815 -0.022555947 -0.029176848 -0.021714652 0.006540498
0.039057788 -0.03090989 -0.057179626 0.050647378 -0.033011053 0.061088055 -0.013266095 0.007535303
0.0059450623 -0.074442066 -0.055881657 0.057621293 0.037597187 0.043044403 0.0045050867 -0.0014940951
-0.00040386783 -0.055139653 0.008701481 0.038180247 -0.033928696 0.047696583 0.028093752 -0.033885002
00000000: 8e8f 913c 6869 3dbc 9044 563d c963 1bbc
00000010: cbd5 523c 4429 b33c 3db3 203d 0abd 36bd
00000020: eba1 00bc d662 5abd a57f 723c 6b4a 4b3d
00000030: 919e 583d 9e5f 52bd 7747 943c b57c 2c3d
00000040: ac57 f23c 3cd7 2bbd fd5b 2dbc 2543 bebc
00000050: a1cb 673c 0252 c9bc 40fe 9dba 6b34 a1bc
00000060: b12e a23c ceb2 a2bd c4e5 503c 0a41 6d3c
00000070: 1d52 fbbc 7cb3 1ebb b0c9 f73b 62cc ebbb
00000080: 65c3 c93c 6f1d 5d3c 8274 7f3d 1bed 14bc
00000090: a2d1 f2bc 5116 88bd 238f 76bc bc65 edbb
000000a0: ecc8 f9bc d0eb 3c3c b85f 3dbd ef64 afbc
000000b0: dddf 583c 394a d9bd ae8b 58bd f304 463d
000000c0: 0901 a9bd b1ff 29bc a627 a43b 76c5 1cbd
000000d0: f0da 26bc d8bc 1abd 6c57 2dbc 004e b339
000000e0: 7ad6 673d 848d 8ebd b6c5 8fbd 0510 1c3d
000000f0: bc10 cd3c 80a7 603b f209 54bd 7f57 fa3c
00000100: 00d3 f93b 80be 7fbd 947d 3cbd 8004 353b
00000110: 1028 e5bc 89c7 5ebd b873 243d 9867 27bc
00000120: 7420 993c e6cc 53bd 4ec4 0f3d b967 cebd
00000130: f0ee f0bc 1171 47bd e049 d63c c699 78bd
00000140: 9a74 513d 1231 203d aa6b f73b e565 103d
00000150: cb74 e3bc 7336 2f3d 46e3 54bd 6120 4c3d
00000160: dbe3 5bbd e52b 373d 9639 623d d8bc 183c
00000170: 6042 913b 78eb 4f3c c7f8 d0bb 8c36 083d
00000180: 948b e63b 8453 fbbc 8462 ad3c a807 56bd
00000190: 65ff 2c3d f893 4cbc 06dd 3dbd d6e2 053d
000001a0: b08d de3c 40b1 1f3d a0c2 543d 1371 1e3d
000001b0: 10db f13c 0419 fb3c a6fb 013c e7ce 483d
000001c0: dbdd 243d 46c1 3f3d 703f 7fbd 7020 8abd
000001d0: 881d f8bc e812 ebbc e545 2d3e 4986 54bd
000001e0: 68c0 38bd 3317 b2bb d8dc 733d b35e 97bc
000001f0: 8f79 183d 36ee 81bd 3cce 8e3c f9a8 b2bb
00000200: 0e04 a2bc d60b 8b3c bf46 46bd 6a26 053d
00000210: 73d2 473d 7727 1dbc 8015 febc ea32 63bd
00000220: 31c3 4fbb b674 2f3d da67 6a3d 9d62 c93c
00000230: 39a9 1fbc 8697 403d 7740 293c f832 39bc
00000240: fd4f 14bd f6ef 4ebd 8ea1 a43c ad39 30bd
00000250: e872 44bd 52f3 d03c 8810 4d3c cd47 acbb
00000260: b40a 3ebd 3ca7 783d 1195 c8bc 351f c63c
00000270: 5893 4d3c fe93 38bd 1497 1abd aecc 423d
00000280: a19f 213d dc4b 45bd caff 11bd 864b 82bc
00000290: 880c 70bd e834 1cbc 7fc1 7bbd 1a30 133d
000002a0: c4c8 04bd c81a a7bd 3a62 44bc c4dd 4cbd
000002b0: 74fc fabc 27ec 623d f46c 453d 350b 71bd
000002c0: b25e 153d 6b32 e83b 2c9c 113d 2322 603d
000002d0: 45d9 003d 5ad6 2fbd 0611 13bd 6ec5 713d
000002e0: e0ac be3c 845c 6d3c a972 37bd 6895 1a3c
000002f0: 437c 473d 8b78 d1bb 0c89 95bd 27f3 143d
00000300: b860 a5bc fef1 0d3d ed38 47bd f231 c9bc
00000310: 80a8 663d cf10 873c 48bd 01bc 437f 4e3a
00000320: faa4 0a3d c538 42bd ab40 243d 261b 76bd
00000330: 509b d0bc 3539 023d 8043 e1bb 2388 b9bc
00000340: e711 39bd c210 2abc 212f 253d 89f8 31bd
00000350: 982a 613d ce20 07bd 8e90 493d 6160 e93a
00000360: aa1f 6e3c aa66 723d eb0f 8c3d 05be 7aba
00000370: d28c e6bb 7f0e 5f3c e401 883c 00bc 6a39
00000380: 9cfe da3c 3c2c 36bd 92a0 49bd 5e8c a9bc
00000390: 40c7 b8bc 4904 efbc ede2 b1bc ad51 d63b
000003a0: 0ffb 1f3d bd36 fdbc 2f35 6abd a073 4f3d
000003b0: 9936 07bd 7837 7a3d 095a 59bc b4ea f63b
000003c0: ccce c23b 1575 98bd 2ae4 64bd 4e04 6c3d
000003d0: 82ff 193d 544f 303d 689f 933b 83d5 c3ba
000003e0: 39be d3b9 1eda 61bd a890 0e3c e462 1c3d
000003f0: d1f8 0abd 7e5d 433d de24 e63c 00cb 0abd

l3.bias f4 [256]
-0.020290915 -0.043261904 -0.025080362 0.019551262 0.008497497 0.19993028 0.028323296 -0.04930181
0.03605605 -0.023158498 0.17718844 -0.032612406 -0.012927841 0.048939206 -0.03215769 -0.020066403
-0.020484505 0.044327393 -0.020404391 0.023693401 -0.0038735408 -0.011127856 0.061947398 -0.02251589
0.025399676 -0.03376586 0.009669797 0.013100202 0.032407314 -0.056221742 0.062716916 -0.024124432
-0.058527064 0.048623405 -0.03233716 0.0679357 -0.034100264 -0.01791144 -0.06056407 -0.043886628
-0.1318989 -0.010228929 -0.04451886 -0.056902673 0.0017105364 0.03967431 -0.041850653 0.08004588
-0.06709124 -0.0021908137 -0.031761568 0.057923127 0.051880356 0.016395127 -0.06641067 0.025910893
0.0109669855 0.010421926 0.04656433 0.059009608 0.006807783 0.017917112 0.049368054 -0.007455204
0.12648433 -0.013145445 -0.00994652 0.06264483 -0.01682675 -0.036106616 0.020333998 -0.0005956162
-0.048045654 0.01075545 -0.043882042 0.021270076 -0.07594042 0.013892891 -0.026918547 -0.046707477
0.03976384 -0.034640953 0.015632238 -0.0039022411 -0.018407399 -0.027247828 0.010212465 0.0019432664
0.044001933 0.09256268 0.10694265 -0.0219141 0.048193067 0.050411258 -0.07596626 -0.045212973
0.045498464 0.007504721 0.007235827 0.013927696 -0.020478198 0.009215936 0.009944406 0.01658617
0.01732476 0.10033838 -0.011759014 0.043654725 -0.078077964 -0.038640644 0.017475722 0.07572722
0.024156079 0.06625547 -0.05370352 -0.0166649 0.06723574 0.0069766836 0.04700435 -0.06272668
-0.028774103 -0.013562641 -0.041218325 0.046739846 -0.020543775 -0.0112260375 -0.033136286 -0.03038008
-0.08145365 0.04433278 0.04419824 0.059196927 0.06227865 0.027648976 0.15856718 -0.033587046
0.039109796 0.17127934 -0.019951992 0.0012910529 0.1486279 -0.0067966436 0.0015383512 -0.025340784
-0.013799919 0.20124923 -0.0306574 0.032708663 0.11642645 0.17223729 0.010342886 0.03160967
-0.03646842 0.028262794 0.1462298 0.117349006 0.042765886 -0.044317868 0.04506765 0.06637717
0.15640281 0.05498439 -0.016858876 -0.057370044 -0.047609966 0.024266059 -0.049573876 0.09433301
0.01397969 0.046437826 0.050668098 0.05380754 -0.016209768 0.010869071 0.01874849 -0.022830242
-0.08000352 -0.028448015 -0.030193223 0.043364804 -0.009691411 0.08111798 -0.002847522 0.13426812
0.057069387 0.054342106 -0.01976257 -0.049392752 -0.018646961 -0.051473543 0.060640827 0.024194844
0.056151684 -0.027502187 0.037198555 -0.018332807 0.04307768 0.05832897 0.05649203 0.07946621
-0.016173813 0.017394558 0.09836744 0.040893614 -0.056233563 0.08128778 -0.0023220603 -0.028056154
0.0024740323 -0.02024914 0.18223055 -0.0040712296 0.021591716 0.16735768 -0.027801845 0.008669041
-0.0332183 0.027551036 -0.0021657348 -0.021062844 -0.0043181926 -0.017974973 0.04520397 0.18463251
0.053886168 -0.046220273 0.08500924 0.07791751 -0.06850661 -0.047989644 0.18109605 0.040416524
0.012198634 -0.0025501503 0.098958895 -0.0013777235 0.028092489 -0.02953582 0.19981612 0.023991078
0.035245538 -0.020753749 -0.06203448 -0.013087497 -0.0011797063 0.0269938 -0.010014152 0.1394458
0.106563345 -0.074767336 -0.0006099045 0.094526835 -0.039148036 0.087385245 -0.041227758 -0.011021053
00000000: 2239 a6bc 6533 31bd 5575 cdbc f829 a03c
00000010: 1639 0b3c 86ba 4c3e 4206 e83c b2f0 49bd
00000020: 82af 133d e4b6 bdbc e370 353e 9694 05bd
00000030: 4ccf 53bc 7a74 483d c8b7 03bd 4c62 a4bc
00000040: 1fcf a7bc a490 353d 1c27 a7bc aa18 c23c
00000050: 3bdb 7dbb 9c51 36bc 8ebc 7d3d 3e73 b8bc
00000060: fb12 d03c 124e 0abd 116e 1e3c 3ba2 563c
00000070: 88bd 043d c548 66bd ba71 803d 9aa0 c5bc
00000080: 13ba 6fbd 5629 473d f873 04bd df21 8b3d
00000090: b8ac 0bbd 03bb 92bc 0812 78bd 77c2 33bd
000000a0: 8110 07be 3d97 27bc 6859 36bd c712 69bd
000000b0: 1434 e03a 8781 223d 976b 2bbd 18ef a33d
000000c0: 2267 89bd c193 0fbb 6b18 02bd cd40 6d3d
000000d0: 7f80 543d 134f 863c 5102 88bd 1543 d43c
000000e0: dfae 333c bac0 2a3c 3dba 3e3d 0fb4 713d
000000f0: d313 df3b e8c6 923c 2836 4a3d c94a f4bb
00000100: 1c85 013e fe5f 57bc bbf6 22bc ef4b 803d
00000110: 41d8 89bc 88e4 13bd 7c93 a63c 2023 1cba
00000120: 85cb 44bd a137 303c a8bd 33bd 953e ae3c
00000130: a786 9bbd 029f 633c 4984 dcbc 5750 3fbd
00000140: 69df 223d ace3 0dbd 2e0f 803c bebc 7fbb
00000150: 1dcb 96bc d636 dfbc 2f52 273c 33b5 fe3a
00000160: 5f3b 343d 8191 bd3d c004 db3d 3385 b3bc
00000170: 1866 453d 097c 4e3d 3394 9bbd 3d31 39bd
00000180: 995c 3a3d 2aea f53b 841a ed3b fe30 643c
00000190: e5c1 a7bc 70fe 163c dded 223c b8df 873c
000001a0: a8ec 8d3c 357e cd3d e1a8 40bc 4ccf 323d
000001b0: 57e7 9fbd a745 1ebd 3f29 8f3c df16 9b3d
000001c0: f8e2 c53c f3b0 873d 39f8 5bbd d484 88bc
000001d0: e4b2 893d aa9c e43b a287 403d d876 80bd
000001e0: abb7 ebbc d735 5ebc 8cd4 28bd 4872 3f3d
000001f0: 6b4b a8bc 6aed 37bc eab9 07bd a5df f8bc
00000200: 2cd1 a6bd 4a96 353d 3709 353d 7a78 723d
00000210: e617 7f3d 1b80 e23c 6f5f 223e 9292 09bd
00000220: 9831 203d da63 2f3e 5c72 a3bc 8c38 a93a
00000230: ea31 183e 61b6 debb 80a2 c93a 7a97 cfbc
00000240: 0e19 62bc 4714 4e3e 3a25 fbbc 85f9 053d
00000250: fe70 ee3d f95e 303e 3575 293c 2479 013d
00000260: e95f 15bd 6087 e73c 44bd 153e ad54 f03d
00000270: 482b 2f3d a786 35bd db98 383d c1f0 873d
00000280: 0f28 203e 5037 613d a01b 8abc dafc 6abd
00000290: ab02 43bd 9dc9 c63c fa0d 4bbd aa31 c13d
000002a0: 120b 653c 9735 3e3d 5a89 4f3d 4c65 5c3d
000002b0: 59ca 84bc 3014 323c 6f96 993c 7d06 bbbc
000002c0: e3d8 a3bd d00b e9bc c757 f7bc 4b9f 313d
000002d0: b9c8 1ebc 2f21 a63d 7e9d 3abb 957d 093e
000002e0: 97c1 693d d495 5e3d 1de5 a1bc 0e50 4abd
000002f0: 83c1 98bc ecd5 52bd 8462 783d 4434 c63c
00000300: 4fff 653d 444c e1bc 835d 183d af2e 96bc
00000310: 3972 303d 5cea 6e3d 3064 673d 2ebf a23d
00000320: f27e 84bc 087f 8e3c de74 c93d 1080 273d
00000330: 2a55 66bd 357a a63d b52d 18bb 05d6 e5bc
00000340: 6023 223b 86e1 a5bc a59a 3a3e f367 85bb
00000350: 1ce1 b03c d05f 2b3e b2c0 e3bc 9808 0e3c
00000360: ea0f 08bd b6b2 e13c 00ef 0dbb fc8b acbc
00000370: a07f 8dbb 4040 93bc cc27 393d 4e10 3d3e
00000380: beb7 5c3d 7851 3dbd 5319 ae3d 3793 9f3d
00000390: 324d 8cbd ca90 44bd 3e71 393e cc8b 253d
000003a0: c8dc 473c 6c20 27bb f6aa ca3d bb94 b4ba
000003b0: 3822 e63c 1bf5 f1bc 999c 4c3e f088 c43c
000003c0: a05d 103d c403 aabc de17 7ebd f16c 56bc
000003d0: 60a0 9aba 1a22 dd3c 6612 24bc e1ca 0e3e
000003e0: e23d da3d 9e1f 99bd 00e2 1fba 4997 c13d
000003f0: b159 20bd 09f7 b23d 70de 28bd a691 34bc

l4.weight f4 [1, 256]
-0.0003518557 -0.026642546 0.0038518521 -0.016845496 -0.004481229 0.0663902 -0.006551291 0.006007845
0.03555272 0.05068879 0.039291013 -0.023365306 -0.038560074 -0.015425153 -0.0048593897 0.032362107
-0.019675085 0.017951667 0.021521024 -0.010901204 -0.01662095 0.01925367 0.020427793 -0.039592598
-0.03289128 -0.04244973 -0.0007557978 -0.053996876 -0.014614552 0.0109149525 0.0027986926 -0.03719182
0.04895293 0.050780583 0.009385611 0.004008181 0.012488342 -0.032224193 0.057680197 -0.001303034
0.017453324 -0.025133615 -0.05143977 -0.02740644 0.0063390294 0.004973701 0.0021959036 0.050247267
-0.010881395 -0.0019383961 -0.023448773 0.037888043 -0.009230958 0.006781889 -0.0534318 -0.024272455
-0.034631513 -0.053205673 -0.005407782 -0.030405011 -0.04153512 0.007941514 -0.051775772 -0.007864657
0.048342004 -0.0003359437 0.00059891894 0.0054860157 0.000120942896 -0.001415333 0.0044900924 0.010895869
-0.017311662 0.022296017 0.0043378477 -0.0030513413 -0.06698689 -0.0019753145 -0.05034145 0.024889898
-0.024167137 -0.0057796985 -0.015432896 -0.004310124 -0.0012489288 -0.032205313 0.015422302 -0.033696797
-0.014447087 -0.0014539696 0.009546291 -0.02937214 -0.022588493 -0.015665093 -0.009719249 -0.05145932
-0.056753993 -0.05926474 0.022365727 -0.048602633 0.007469232 0.042957194 -0.0057340055 -0.028808182
-0.0101365615 0.025834773 -0.03655188 -0.019169843 0.003493078 0.008439226 -0.09061539 0.03968492
-0.05263809 0.026014278 -0.032633804 -0.0016114259 0.005828889 -0.014322026 0.00134056 0.037252128
0.002615969 0.004936166 0.017076865 -0.0014671861 -0.012685646 -0.036496352 -0.05231468 -0.021234654
0.029204398 0.008293975 -0.095035434 0.005327292 0.0004782738 0.018662995 0.07139368 -0.02358411
-0.022418655 0.051032685 0.034106586 -0.0011902658 0.05545029 -0.02584196 0.05674532 0.009961055
-0.001954682 0.056814916 -0.02931287 -0.0011405023 0.017111696 0.0284225 0.038042564 -0.024420422
-0.031768467 -0.04856702 0.06446651 0.00010094125 0.00070750713 0.0032269736 0.014291275 9.951715e-05
0.027224712 0.0118732825 0.05295816 0.0010595843 -0.04750554 -0.0529383 -0.0010924778 0.06934885
-0.0014489277 0.01692155 -0.01969194 0.0026273031 -0.046669792 -0.0039103404 0.0010507042 0.044383306
0.013911154 0.030841038 0.022731835 -0.052328806 -0.025502479 -0.001761875 -0.031748842 0.04829983
0.03617075 -0.021659363 0.012708775 -0.008178101 -0.0016837799 0.012878428 0.058953732 -0.019815713
-0.010388687 0.007424805 0.008720943 -0.003835665 -0.013952189 0.004307896 0.031974792 0.00029686364
0.04995787 -0.005425403 0.05959017 -0.050013855 0.039211378 0.026532095 0.0023452546 -0.019304683
-0.013765782 0.0013426371 0.0588203 0.041165095 0.012671778 0.04755481 -0.050402407 -0.020822352
-0.017839756 -0.04371029 -0.0015996844 -0.043129347 -0.011697315 -0.004437163 -0.06975292 0.056738
-0.020129578 -0.031800628 0.024860995 0.0404914 -0.045050774 0.019618459 0.044824783 -0.05499553
-0.019919865 -0.050732203 0.06316168 -0.034410898 -0.05648265 0.00996604 0.07930766 -0.053977475
-0.030318238 -0.022347756 -0.008937061 -0.061647654 -0.01769266 -0.028921949 0.07448161 0.023879519
0.041522827 -0.0029719903 -0.04308574 0.061701443 -0.0050632497 0.06567091 -0.04087791 -0.03653731
00000000: 4679 b8b9 7841 dabc 5b6f 7c3b 91ff 89bc
00000010: 46d7 92bb 96f7 873d 36ac d6bb 75dd c43b
00000020: bb9f 113d 0c9f 4f3d 9def 203d 9968 bfbc
00000030: 2bf1 1dbd c8b9 7cbc 843b 9fbb 218e 043d
00000040: a52d a1bc 600f 933c dc4c b03c f79a 32bc
00000050: a928 88bc dfb9 9d3c 3058 a73c d92b 22bd
00000060: 02b9 06bd c5df 2dbd bb20 46ba d42b 5dbd
00000070: e071 6fbc a1d4 323c 456a 373b 7356 18bd
00000080: de82 483d 4dff 4f3d 1bc6 193c 0f57 833b
00000090: e79b 4c3c 84fd 03bd 1242 6c3d 91ca aaba
000000a0: 46fa 8e3c 03e5 cdbc 82b2 52bd 7883 e0bc
000000b0: a2b7 cf3b 6efa a23b 26e9 0f3b 14d0 4d3d
000000c0: e147 32bc c811 feba a417 c0bc 7e30 1b3d
000000d0: 723d 17bc 9c3a de3b 4edb 5abd 07d7 c6bc
000000e0: c6d9 0dbd 31ee 59bd c333 b1bb ee13 f9bc
000000f0: bb20 2abd 201d 023c d512 54bd c3da 00bc
00000100: 4402 463d 9a21 b0b9 c500 1d3a 09c4 b33b
00000110: b9a2 fd38 b282 b9ba a021 933b 9684 323c
00000120: 30d1 8dbc 23a6 b63c 8124 8e3b 03f9 47bb
00000130: 6c30 89bd 4774 01bb d632 4ebd e6e5 cb3c
00000140: 29fa c5bc a063 bdbb 42da 7cbc f13b 8dbb
00000150: 19b3 a3ba b8e9 03bd d3ad 7c3c a705 0abd
00000160: 7ab3 6cbc 2093 beba 0c68 1c3c d89d f0bc
00000170: 810b b9bc 1554 80bc 7c3d 1fbc 02c7 52bd
00000180: e076 68bd 96bf 72bd 5438 b73c 8e13 47bd
00000190: 76c0 f43b e2f3 2f3d 53e4 bbbb 23ff ebbc
000001a0: d213 26bc 72a3 d33c 6db7 15bd 130a 9dbc
000001b0: 20ec 643b ae44 0a3c 9094 b9bd a88c 223d
000001c0: 0a9b 57bd e51b d53c 06ab 05bd 7b36 d3ba
000001d0: 4400 bf3b eea6 6abc bbb5 af3a b095 183d
000001e0: ad70 2b3b 90bf a13b c8e4 8b3c 994e c0ba
000001f0: 75d7 4fbc 337d 15bd eb47 56bd 4cf4 adbc
00000200: 103e ef3c 74e3 073c f0a1 c2bd 9090 ae3b
00000210: d3c0 fa39 23e3 983c da36 923d 7733 c1bc
00000220: 54a7 b7bc a607 513d 59b3 0b3d b102 9cba
00000230: d81f 633d 85b2 d3bc c86d 683d b133 233c
00000240: 1f1a 00bb c2b6 683d 8b21 f0bc e87c 95ba
00000250: d42d 8c3c 4dd6 e83c 85d2 1b3d 560d c8bc
00000260: a71f 02bd 36ee 46bd 0507 843d 6cb0 d338
00000270: 0078 393a a27b 533b f425 6a3c ddb3 d038
00000280: 5c06 df3c 2888 423c a8ea 583d c0e1 8a3a
00000290: 2b95 42bd d5d5 58bd 7931 8fba c506 8e3d
000002a0: f2e9 bdba 109f 8a3c fe50 a1bc d52e 2c3b
000002b0: d328 3fbd 5022 80bb c8b7 893a 45cb 353d
000002c0: 9ceb 633c 58a6 fc3c 1d38 ba3c bb56 56bd
000002d0: 93ea d0bc b7ee e6ba 130b 02bd 0bd6 453d
000002e0: c827 143d fa6e b1bc 7738 503c 71fd 05bc
000002f0: 47b2 dcba 0b00 533c 7879 713d 9054 a2bc
00000300: 5035 2abc c74b f33b 49e2 0e3c c85f 7bbb
00000310: b997 64bc 4029 8d3b 00f8 023d 5da4 9b39
00000320: a0a0 4c3d 94c7 b1bb d214 743d 54db 4cbd
00000330: 1c9c 203d d659 d93c d8b2 193b db24 9ebc
00000340: e089 61bc 6dfb af3a 8eed 703d bb9c 283d
00000350: 4a9d 4f3c d5c8 423d c172 4ebd a393 aabc
00000360: ae24 92bc 9009 33bd 80ac d1ba 66a8 30bd
00000370: 18a6 3fbc 9f65 91bb 9eda 8ebd 1b66 683d
00000380: c9e6 a4bc 6041 02bd 49a9 cb3c 4fda 253d
00000390: 2987 38bd e4b6 a03c 319a 373d fe42 61bd
000003a0: fc2e a3bc 92cc 4fbd e95a 813d 71f2 0cbd
000003b0: 5a5a 67bd 9a48 233c 0e6c a23d 7c17 5dbd
000003c0: f45d f8bc a412 b7bc c06c 12bc 4082 7cbd
000003d0: 33f0 90bc b9ed ecbc d089 983d fb9e c33c
000003e0: d713 2a3d b9c5 42bb ac7a 30bd a7ba 7c3d
000003f0: 9ee9 a5bb 787e 863d 986f 27bd 25a8 15bd
