models/GMI_pretrained/GMI_GPM_channel_predictor_183+-3V_nonocean.pt (torch, 545380 bytes, 7 tensors)

l1.weight f4 [256, 13]
0	0x3c826455	0.015916983
1	0xbe832a6b	-0.256183
2	0x3e7546ba	0.23952761
3	0x3cd823c3	0.02638424
4	0xbe82595e	-0.25458807
5	0xbe0ff669	-0.14058842
6	0xbe0790c0	-0.13238811
7	0xbe0dae62	-0.13836053
8	0xbde4ae1f	-0.111660235
9	0xbde90811	-0.11378492
10	0x3e758c13	0.23979215
11	0x3e4de4fe	0.20106885
12	0xbe1b30f4	-0.15155393
13	0xbd424152	-0.047425576
14	0x3ebef6f7	0.37297794
15	0x3e85685e	0.26056188
16	0x3ebd9fd9	0.37036017
17	0x3eaff85e	0.34369177
18	0xbee04111	-0.43799642
19	0xbec06b61	-0.37581924
20	0xbd59cf1a	-0.053176023
21	0xbd97b865	-0.07408217
22	0xbd5cd71f	-0.053916093
23	0x3e28377f	0.1642742
24	0xbf1fba17	-0.62393326
25	0x3ff75fd8	1.9326124
26	0x3e5bec14	0.21476775
27	0xbdb3f036	-0.08786051
28	0xbe5971bc	-0.21234792
29	0xbbd6d188	-0.00655574
30	0xbe561f73	-0.20910434
31	0x3e755833	0.23959427
32	0xbe525c57	-0.20543037
33	0xbe049652	-0.12947968
34	0xbdbc90d2	-0.0920731
35	0xbe6ed18c	-0.23322123
36	0xbd998b7a	-0.07497306
37	0xbd5a3160	-0.053269744
38	0x3dada067	0.0847786
39	0x3e6580a8	0.2241236
40	0xbdd507f0	-0.104019046
41	0x3ddfd1c8	0.109286845
42	0x3e089abc	0.13340276
43	0xbe624701	-0.22097398
44	0x3bd3fb04	0.0064691324
45	0xbe961739	-0.29314592
46	0xbe2c9640	-0.16854191
47	0xbe263146	-0.16229734
48	0xbd908a18	-0.07057589
49	0x3d8bfc23	0.06835201
50	0x3d1c8708	0.038214713
51	0x3e7cde67	0.24694215
52	0x3c5a3c04	0.013319973
53	0x3e0a0fe5	0.13482626
54	0x3dc0d2ed	0.09415231
55	0xbe047b8c	-0.12937754
56	0xbd71a02e	-0.05899065
57	0x3e336e24	0.17522484
58	0xbe85e0c2	-0.2614804
59	0xbcd2ec87	-0.02574755
60	0x3ce22f5a	0.02761047
61	0xbe3ac65a	-0.18239728
62	0xbddc4326	-0.10754995
63	0xbdff259d	-0.12458346
64	0x3e26ae54	0.16277438
65	0xbe5f7969	-0.21823658
66	0x3eb99c99	0.36252287
67	0xbdef3a60	-0.11681056
68	0x3ecfbef3	0.4057537
69	0x3e399d49	0.18126406
70	0xbebbe618	-0.36698985
71	0x3e06d943	0.13168816
72	0x3c7153c2	0.014729442
73	0x3e427f39	0.18993844
74	0x3d60980a	0.054832496
75	0xbdd1ca6e	-0.102436885
76	0xbf095917	-0.53651565
77	0x3dfd07a0	0.1235497
78	0xbda35fff	-0.07977294
79	0x3bc7f79e	0.0061025163
80	0xbe346e68	-0.17620242
81	0xbdc5faf5	-0.09667007
82	0x3d25b335	0.04045411
83	0xbe16a248	-0.14710343
84	0xbe8bf183	-0.27332696
85	0x3c9bb597	0.019007487
86	0x3e50dbfc	0.20396417
87	0x3d2ea84d	0.042640973
88	0xbe86c8c9	-0.26325062
89	0x3e6eb959	0.23312892
90	0xbe17ce8e	-0.14824888
91	0x3c842fc3	0.016136056
92	0xbd6d7f44	-0.057982698
93	0xbd92fff4	-0.071777254
94	0xbe36622c	-0.17810887
95	0xbd79f3ca	-0.06102351
96	0xbdf39f8f	-0.11895668
97	0xbe4c327a	-0.1994113
98	0x3aaa5617	0.0012995627
99	0x3e481655	0.19539769
100	0xbe4efc91	-0.20213534
101	0xbe3f85bc	-0.1870336
102	0x3dea5829	0.114425965
103	0xbdfd8554	-0.12378946
104	0x3d29891b	0.04139052
105	0xbe0fe34b	-0.14051549
106	0x3e30eaee	0.17277119
107	0xbbc18d31	-0.005906724
108	0xbdc040f7	-0.09387391
109	0xbdb92d72	-0.09041871
110	0xbd93d181	-0.07217694
111	0xbd638016	-0.055542074
112	0xbe3cac33	-0.18425064
113	0x3e518003	0.20458989
114	0xbdb77217	-0.08957308
115	0x3ef22003	0.47290048
116	0xbdeb5c26	-0.11492185
117	0x3d8d4c65	0.06899337
118	0xbe61bb0d	-0.2204401
119	0x3d922948	0.0713678
120	0x3e31d3fd	0.17366023
121	0xbded237c	-0.11579034
122	0x3e83a8eb	0.25714812
123	0xbe52b1ae	-0.20575592
124	0xbe1a0bc7	-0.15043555
125	0x3ac46aea	0.0014985476
126	0x3de88b94	0.113547474
127	0xbe2f1adc	-0.1710009
128	0xbe2cce19	-0.16875495
129	0x3e473ccf	0.1945679
130	0x3c7f0d0d	0.015567076
131	0x3d85ecc2	0.065392986
132	0x3d2c8082	0.042114742
133	0xbe07fe78	-0.13280666
134	0xbe0e2461	-0.13881065
135	0xbe8c775c	-0.27434814
136	0x3df43cb3	0.1192564
137	0x3e778495	0.2417167
138	0xbcd6aa42	-0.026204232
139	0xbe02f25e	-0.12787768
140	0x3cadca26	0.021214556
141	0x3dac6d88	0.08419329
142	0xbe7ab82b	-0.24484317
143	0xbe3fde6d	-0.18737192
144	0x3e5e31f5	0.21698745
145	0xbd2480ed	-0.040162016
146	0xbd8bb588	-0.06821734
147	0xbe58eec4	-0.21184832
148	0xbcad7948	-0.021175995
149	0xbc256428	-0.01009468
150	0x3e43d959	0.1912588
151	0x3e0bfa70	0.13669753
152	0x3d42ccd4	0.04755862
153	0xbdb124f6	-0.08649628
154	0xbd724210	-0.059145033
155	0xbe74a15f	-0.23889683
156	0xbd040d4a	-0.032239236
157	0xbbcbf44f	-0.006224192
158	0x3e68ed60	0.22746801
159	0x3e0371a2	0.12836316
160	0xbe291881	-0.16513254
161	0x3e430efb	0.19048683
162	0xbe327d3d	-0.17430587
163	0xbe0dc72b	-0.13845508
164	0xbe435a00	-0.19077301
165	0x3e6628fd	0.22476573
166	0xbeee3e57	-0.46531937
167	0x3ebed69f	0.37273118
168	0x3e052876	0.13003716
169	0x3d291fa7	0.04128995
170	0xbe45dc34	-0.19322282
171	0x3de63ea7	0.11242419
172	0xbd2c3374	-0.042041257
173	0x3e0176bf	0.12642954
174	0xbe573f74	-0.21020299
175	0xbd9ea637	-0.07746547
176	0x3e0741b8	0.13208663
177	0x3ca73c5c	0.020414524
178	0xbda418d7	-0.0801255
179	0xbe90fd76	-0.28318375
180	0x3e53f805	0.2070008
181	0xbd5f9deb	-0.05459396
182	0xbe7474ba	-0.23872653
183	0xbe9a0503	-0.3008195
184	0x3e46d800	0.19418335
185	0x3e228368	0.1587044
186	0x3de28399	0.110602565
187	0xbd8c1385	-0.068396606
188	0xbe8622db	-0.26198468
189	0x3dbfeb10	0.093710065
190	0xbe965e7e	-0.29368967
191	0x3e29064f	0.16506313
192	0xbe2ed902	-0.1707497
193	0x3e2b6375	0.16737159
194	0x3dea9d45	0.11455778
195	0xbe20b34c	-0.15693396
196	0x3d03efb9	0.03221104
197	0x3de07989	0.10960681
198	0xbd039970	-0.03212875
199	0xbdf00a9f	-0.11720776
200	0xbe35c2d1	-0.17750098
201	0xbe0f3bee	-0.13987705
202	0x3d849299	0.06473274
203	0x3e18d2b2	0.14924124
204	0xbd176bf2	-0.03696818
205	0xbdba832e	-0.09107052
206	0x3d1a2744	0.037635103
207	0x3d6d0452	0.05786545
208	0xbda59f1f	-0.080869906
209	0x3d40bde8	0.04705611
210	0x3a68899a	0.0008870602
211	0xbbda90b7	-0.0066700834
212	0x3ea334d1	0.31876233
213	0x3e483145	0.19550045
214	0x3e8cd012	0.27502495
215	0xbdb679dc	-0.089099616
216	0xbe839dc7	-0.25706312
217	0x3dc44354	0.09583154
218	0xbdde2cac	-0.10848364
219	0xbebb79da	-0.36616403
220	0xbe81380a	-0.25238067
221	0x3e63b479	0.22236814
222	0x3c01b0e3	0.007915708
223	0xbc002e8a	-0.007823596
224	0xbe81faee	-0.25386757
225	0x3c7c755e	0.015408842
226	0xbe0b4b5d	-0.13602968
227	0xbe439b65	-0.19102247
228	0xbb11f263	-0.0022269718
229	0xbce54a72	-0.0279896
230	0xbe22304e	-0.1583874
231	0x3e2f40f5	0.17114623
232	0x3d8b75bc	0.068095654
233	0x3bd5aab5	0.006520594
234	0xbcfee7fa	-0.031116474
235	0x3e2dfb16	0.16990313
236	0xbd85cf8d	-0.06533728
237	0xbe4087ec	-0.1880185
238	0xbdfda004	-0.12384036
239	0x3e66c3ca	0.22535625
240	0xbe86d5fe	-0.26335138
241	0x3e64fb17	0.22361408
242	0x3da6e3f3	0.081489466
243	0xbd69ab10	-0.057047904
244	0xbad12992	-0.0015957823
245	0x3ecd966f	0.40153834
246	0xbdcbe940	-0.09956598
247	0x3cc8a890	0.02449444
248	0xbe4249ea	-0.18973508
249	0x3e014377	0.12623392
250	0x3dd3359b	0.10312959
251	0x3c82dfe7	0.015975906
252	0xbd51ee8e	-0.051252894
253	0x3dce3fc3	0.10070755
254	0xbce56c55	-0.028005758
255	0x3d0a9b3e	0.033839457

l1.bias f4 [256]
0	0xbdc39e74	-0.09551707
1	0x3fdbf397	1.7183713
2	0xbe65a17b	-0.22424881
3	0xbe30b7fc	-0.17257684
4	0xbe71fbf9	-0.23631276
5	0xbfdecba6	-1.7405899
6	0xbdf62358	-0.1201846
7	0xbdffc11a	-0.12488003
8	0x3ff01670	1.8756847
9	0x3ccc712e	0.024956312
10	0xbe2f639c	-0.17127842
11	0x3dcdf7a2	0.10056998
12	0x409eccaf	4.962486
13	0x3e0ca481	0.13734628
14	0xbea3cb2a	-0.3199094
15	0x3ce2ecdd	0.027700836
16	0xc02e758e	-2.725925
17	0xbe7076d8	-0.23482835
18	0x3f15aa52	0.58463013
19	0x3fe074a9	1.7535602
20	0xbd74064d	-0.05957632
21	0xbe3ea49d	-0.18617482
22	0x3fc83abc	1.5642924
23	0xbf82da77	-1.022292
24	0x3e466495	0.19374306
25	0x3e11e460	0.14247274
26	0x40104ddb	2.254752
27	0xbe6fb15c	-0.23407501
28	0xc0288847	-2.6333177
29	0x40aa02bf	5.312835
30	0xbce22c5f	-0.027609048
31	0x3f623c19	0.8837295
32	0xbe8f806f	-0.28027675
33	0xc05caf4f	-3.4482
34	0x3e7e7647	0.24849807
35	0xbef53f90	-0.47900057
36	0x3ed99317	0.42495033
37	0xbe1703cc	-0.14747542
38	0x3f3e27dc	0.7427957
39	0xc0b4f810	-5.655281
40	0xbdc7ad3c	-0.09749839
41	0xbe88dbbe	-0.2673015
42	0xbe2de370	-0.16981292
43	0x3d863921	0.06553865
44	0xbe544e8a	-0.20733085
45	0xbf818efd	-1.0121762
46	0xbdede5df	-0.1161611
47	0x3d79cc5f	0.06098592
48	0x3e5cc5e4	0.21559864
49	0x3ea437e5	0.32073894
50	0xbde21180	-0.11038494
51	0xbfe50177	-1.7891072
52	0x3de0f596	0.10984342
53	0xbe54bd3f	-0.20775317
54	0x40da4b19	6.821667
55	0x3cf3eb0f	0.02977517
56	0xbd212543	-0.039342176
57	0x3e79617f	0.24353598
58	0xc0e673ca	-7.2016344
59	0xbd20b15d	-0.039231647
60	0x3fc5fc31	1.5467588
61	0xbe506cd6	-0.20354018
62	0xc11094f2	-9.036364
63	0xbf9d5873	-1.2292618
64	0x3e35f276	0.17768273
65	0xbe896aa1	-0.26839164
66	0x3e4eba63	0.20188288
67	0x3e45f376	0.19331154
68	0x402646f9	2.5980818
69	0x3e7db4ee	0.2477605
70	0x3deb01d0	0.11474955
71	0x3dd23ca7	0.10265475
72	0x3e192f56	0.14959463
73	0x40280948	2.6255665
74	0x3e0d6a78	0.13810146
75	0xc115c572	-9.360704
76	0xbe7860ad	-0.24255629
77	0x3e661617	0.22469364
78	0xbe4bd022	-0.19903615
79	0xbfc85a64	-1.5652585
80	0x4062c6f8	3.543394
81	0xbe84064d	-0.25786057
82	0xbe547df3	-0.20751171
83	0xc0040190	-2.0625954
84	0x3f8e755f	1.1129569
85	0xbdc8b659	-0.09800405
86	0xc00f38a5	-2.2378323
87	0xbccf3144	-0.025292046
88	0xbde844a7	-0.113412194
89	0xc01a7e42	-2.4139562
90	0x3e9b6912	0.303536
91	0xc04bfa3b	-3.1871479
92	0x3e664b07	0.22489558
93	0x3d6191fd	0.055070866
94	0x3ea9379f	0.33050248
95	0x3fa20da4	1.2660413
96	0x40186b14	2.3815355
97	0xbfbd9b24	-1.481297
98	0x4002e292	2.0450788
99	0xbd7bd252	-0.061479874
100	0xbe476c5c	-0.1947493
101	0x3f9f8fb0	1.2465725
102	0x403a2639	2.908583
103	0x3e1ba95a	0.15201321
104	0xc0bc227a	-5.8792086
105	0x3e7dd8dc	0.24789757
106	0x40dfe7a9	6.997029
107	0x3e400461	0.1875167
108	0xbe8b2e2e	-0.2718367
109	0x3faa361d	1.3297764
110	0xbdc2a082	-0.09503271
111	0x40188976	2.38339
112	0x3f9f3923	1.2439312
113	0xbbdabea6	-0.006675559
114	0xbecfc42b	-0.40579352
115	0x3d591f8f	0.053008612
116	0xc0a2945c	-5.0806103
117	0xc0e324ea	-7.098256
118	0x3e79dda7	0.2440096
119	0x3af6ae6f	0.0018820296
120	0x40a38ae1	5.110703
121	0x3e463fa5	0.19360216
122	0x3fd6899f	1.6760749
123	0x3e12f4a9	0.14351143
124	0xc0044628	-2.066782
125	0x3de48e96	0.111600086
126	0x3fb13ae8	1.3846102
127	0x3c8d28a3	0.017231291
128	0x3dbffc92	0.09374346
129	0xbe61e0a0	-0.22058344
130	0xbc8e06ad	-0.017337168
131	0x408da3e9	4.4262586
132	0x3fb84180	1.4394989
133	0x3e017787	0.12643252
134	0x3e822da8	0.25425458
135	0x3e36c33a	0.1784791
136	0x401b5b4b	2.427447
137	0x3ecb5fa1	0.39721397
138	0xbe3f9c10	-0.18711877
139	0xc11b719c	-9.715237
140	0x3f3844a3	0.7197973
141	0xbe832083	-0.25610742
142	0xbe509ff3	-0.20373516
143	0x4010c827	2.2622163
144	0x40e57c80	7.1714478
145	0x3e835cd1	0.2565675
146	0xc0313351	-2.768757
147	0x3cfa9f80	0.030593634
148	0xbdab0fd0	-0.08352625
149	0xbffcaa0c	-1.9739394
150	0x40a1f860	5.061569
151	0xbe5d6227	-0.21619473
152	0x4050b052	3.2607617
153	0xbfde7048	-1.7378016
154	0x3fa31746	1.2741477
155	0x3fc02504	1.5011296
156	0x3ff3dcb8	1.9051733
157	0x402ee24a	2.7325616
158	0xbf29c272	-0.66312325
159	0x4011463e	2.2699122
160	0x3e1090a9	0.14117683
161	0xbc479c17	-0.012183211
162	0x3e328ced	0.17436571
163	0x3f132e9c	0.57492995
164	0x3f39d0cb	0.7258422
165	0xbe364315	-0.17799027
166	0x4020cba3	2.512429
167	0xbe9ca227	-0.30592462
168	0x4047c7a0	3.1215591
169	0x3d9afcc9	0.07567746
170	0x403af72a	2.9213357
171	0x3ecfd6f5	0.40593687
172	0xbfa9064c	-1.3205047
173	0xc05f6233	-3.4903686
174	0xbe743f38	-0.23852241
175	0x3c0272cb	0.007961939
176	0x3ff2dff9	1.8974601
177	0x3dde8d92	0.10866846
178	0xbfc813a4	-1.5630994
179	0xbe4669af	-0.19376253
180	0x3e822413	0.25418147
181	0x3f30deb1	0.690898
182	0x3e038f4c	0.12847632
183	0x407399ae	3.8062549
184	0x3dda468d	0.10657988
185	0x3fcfe720	1.6242409
186	0x404dcda9	3.2156775
187	0xbe4bb1db	-0.19892065
188	0x3e116152	0.14197281
189	0x3de416b6	0.11137144
190	0x3e8943a8	0.2680943
191	0x3f929d2c	1.1454215
192	0x400cb428	2.1984959
193	0xbdaf4fe9	-0.085601635
194	0x3f84505a	1.0337021
195	0x3fe9d06d	1.8266732
196	0x3fb4485d	1.4084584
197	0x3e85cf8c	0.26134908
198	0x3f8e47cb	1.111566
199	0x3ff40840	1.9065018
200	0xbf5c11df	-0.8596477
201	0xbd49da4f	-0.04928046
202	0xbd95c8d7	-0.07313698
203	0x3daa99c4	0.0833011
204	0x3ea755a8	0.32682538
205	0x40562ec0	3.3466034
206	0xbe9801ed	-0.2968897
207	0xbe1fca95	-0.15604623
208	0xc0a35c40	-5.105011
209	0x3d6eb624	0.05827917
210	0x3de62433	0.11237373
211	0xbd037dbd	-0.032102335
212	0x40205d6a	2.5057015
213	0xbf55b6a2	-0.834818
214	0xc0f23e52	-7.5701075
215	0x3e5516c0	0.2080946
216	0xbe1673de	-0.14692637
217	0xbe22c62a	-0.15895906
218	0x3e30ed0e	0.17277929
219	0xbfdad90d	-1.7097489
220	0xbd595430	-0.053058803
221	0xbe5a8088	-0.21338093
222	0x3ffe79e8	1.9880953
223	0xbe387ac3	-0.1801558
224	0x3d984d45	0.07436613
225	0x3e73def5	0.2381552
226	0x3d718f16	0.058974348
227	0x3f2daa53	0.6783802
228	0x4076f089	3.858431
229	0x3ed3550f	0.41275832
230	0x3d291cb9	0.041287158
231	0xbe85ae6e	-0.26109642
232	0x3ff459a8	1.9089861
233	0x3e2489f5	0.16068251
234	0x3fdc7cf5	1.7225634
235	0x3f6f9cee	0.9359883
236	0x3dd12962	0.10212971
237	0xbe8496d2	-0.25896317
238	0x3ea7b538	0.32755446
239	0x3edbb4ce	0.4291138
240	0x3f374270	0.7158575
241	0x3e56abc9	0.20963968
242	0xbe0ebf95	-0.1394027
243	0xbe862631	-0.26201013
244	0x3e2e2e32	0.1700981
245	0x3f2146f3	0.62998885
246	0xbed0a03b	-0.40747246
247	0xc0c08cd8	-6.017193
248	0x409a99ba	4.8312654
249	0x3e2bf8d7	0.16794144
250	0xc0606975	-3.5064366
251	0x3e03498f	0.12821029
252	0xbe3a9b68	-0.18223345
253	0xbe81e2c1	-0.25368312
254	0xbd0177b8	-0.031608313
255	0x3dc50726	0.09620504

l2.weight f4 [256, 256]
0	0xbd00d798	-0.031455606
1	0xbc46bb90	-0.012129679
2	0xbc4b2e30	-0.012401149
3	0x3d6bce60	0.05756986
4	0xbd341af2	-0.04397101
5	0x3ab12cd0	0.0013517383
6	0xbd7d2652	-0.061804123
7	0x3d2b1ea0	0.041777253
8	0xbcca1b33	-0.024671173
9	0x3ae74f80	0.0017647594
10	0xbcd30ee0	-0.025763929
11	0xbd58eee7	-0.05296221
12	0x3c6b6e32	0.014369534
13	0x3bc8ea96	0.0061314804
14	0x3d2aa200	0.0416584
15	0xbd8892cc	-0.06668624
16	0xbda7f672	-0.082013026
17	0xbd7a7ae6	-0.06115236
18	0x3ca2ebad	0.01988777
19	0xbc48ce93	-0.012256282
20	0xbd148714	-0.036261633
21	0x3d1db974	0.03850694
22	0xbd8deecf	-0.06930315
23	0xbd328fd4	-0.043594196
24	0xbd453546	-0.04814651
25	0x3c9a1af4	0.01881168
26	0xbd0f75be	-0.035024397
27	0x3c2e13d0	0.010624841
28	0xba3c536a	-0.00071840605
29	0x3cec4b7c	0.028844588
30	0xbd0cb77a	-0.034354664
31	0xbc59f226	-0.013302362
32	0xbd677f46	-0.05651786
33	0x3cb98881	0.022648098
34	0xbd3c7498	-0.04600963
35	0x3d67af29	0.05656353
36	0x3c4f59db	0.012655701
37	0xbcc9342c	-0.02456101
38	0xbdb4969c	-0.08817789
39	0xbd56bbb1	-0.05242509
40	0x3ba60782	0.005066813
41	0xbc813e28	-0.015776709
42	0xbc8c541c	-0.01712995
43	0xbc06486a	-0.008195976
44	0xbcec59f0	-0.02885148
45	0xbcfef615	-0.0311232
46	0x3c5d9b90	0.0135258585
47	0xbbb00980	-0.0053722262
48	0xbd00d380	-0.031451702
49	0xbd1f6bec	-0.03892128
50	0x3d68ffb8	0.056884497
51	0xbc7ea0d8	-0.015541278
52	0xbd40bab4	-0.047053054
53	0xbc9a9684	-0.0188706
54	0xbccfc1f6	-0.025361042
55	0xbd29be5d	-0.04144131
56	0xbd5252f0	-0.051348627
57	0x3d1b72ee	0.037951402
58	0xbd23c226	-0.039980076
59	0x3c8a8f18	0.016913936
60	0xbda054e9	-0.07828695
61	0xbc5a3c60	-0.013320059
62	0xbc818dd8	-0.015814707
63	0xbb1a0865	-0.0023503539
64	0xbc4473e0	-0.011990517
65	0x3bef9ca0	0.0073123723
66	0x3d3a2946	0.045449518
67	0x3d7d908a	0.06190542
68	0xbd08cae8	-0.03339663
69	0xbd38fe45	-0.045164365
70	0xbd571814	-0.052513197
71	0xbd7b77e8	-0.06139365
72	0xbb6dc220	-0.0036279038
73	0xbac88170	-0.0015297364
74	0x3cb0f990	0.021603376
75	0xbd7a440e	-0.06110006
76	0x3a80bb40	0.000982143
77	0x3b2b5060	0.0026140437
78	0xbd3b4374	-0.045718625
79	0xbced7b5e	-0.02898949
80	0x3be1fd51	0.0068966527
81	0xbcb652b2	-0.02225623
82	0x3b7efabd	0.0038906776
83	0x3d564588	0.052312404
84	0x397ba97f	0.00024000368
85	0xbc2fc060	-0.010727018
86	0x3b971cbe	0.0046115806
87	0x3d681a20	0.05666554
88	0x3ca9a130	0.020706743
89	0x3d3ad87c	0.04561661
90	0x3d0f7c4d	0.03503065
91	0x3d231b60	0.03982103
92	0xbd14ad40	-0.036298037
93	0x3d7fb74c	0.062430665
94	0x3d03f36a	0.03221456
95	0xbc4c462f	-0.012467905
96	0x3c637cb5	0.013884713
97	0xbcd08398	-0.025453374
98	0xbd79fde0	-0.06103313
99	0x3d557a32	0.052118488
100	0x3d6a389e	0.0571829
101	0x3c5cb2d3	0.013470369
102	0xbd8b1446	-0.06790976
103	0x3d492114	0.04910381
104	0xbd246cda	-0.04014287
105	0x3d4098ef	0.04702085
106	0x3ce77397	0.02825336
107	0xbd866e9b	-0.06564065
108	0xbd48bf82	-0.04901076
109	0xbc0e6eab	-0.0086933775
110	0x3c34e980	0.011041999
111	0x3afbc05c	0.0019207108
112	0xbd9ba8d7	-0.07600563
113	0xbc049570	-0.008092269
114	0xbcaef423	-0.021356648
115	0xbc7151c0	-0.014728963
116	0xbd3b5ba0	-0.045741677
117	0xbda175c3	-0.078837894
118	0xbd4155ce	-0.04720097
119	0x3ae10f12	0.0017170629
120	0x3cf5974c	0.02997937
121	0x3d5e9a7e	0.054346554
122	0xbda9ec8d	-0.082970716
123	0xbcb8b910	-0.022549182
124	0xbdacccbe	-0.08437489
125	0x3d328752	0.043586083
126	0xbc9e7ee2	-0.019347612
127	0x3c65f330	0.014035031
128	0xbd65265c	-0.055944785
129	0xbd09b6e1	-0.033621673
130	0xbd6a7c18	-0.05724725
131	0x3cf2ce9f	0.02963954
132	0x3c83aa3c	0.016072385
133	0xbd5fba5c	-0.054621086
134	0xbcae9e08	-0.02131559
135	0xbc4d4968	-0.012529708
136	0x3a8a69b6	0.0010560069
137	0x3cd3f1f1	0.025872203
138	0x3d28f18a	0.041245975
139	0xbd0ac7d6	-0.033881985
140	0xbd202a99	-0.039103124
141	0xbcaeb238	-0.021325216
142	0xbc4706f0	-0.01214765
143	0xbac7b05c	-0.0015235054
144	0xbd3d3718	-0.04619512
145	0x3c96430c	0.018342517
146	0xbd2e31ab	-0.042527836
147	0x3c2be2fc	0.010491129
148	0x3d1818a4	0.037132874
149	0x3cf78817	0.03021626
150	0x3b060156	0.0020447574
151	0xbc9ee494	-0.019396104
152	0x3cf830d5	0.030296722
153	0x3cd4f92a	0.025997717
154	0xbd933d3c	-0.07189414
155	0xbc702ba6	-0.014658844
156	0xbd4cb91d	-0.049981225
157	0xbd5a3d2d	-0.053280998
158	0xbd6890c5	-0.056778688
159	0xbdb02fb5	-0.086028494
160	0x3c4b1e08	0.012397297
161	0x3c86fb60	0.016477287
162	0xbd4db574	-0.050221875
163	0x3b9bbd65	0.004752802
164	0xbcbe5481	-0.023233654
165	0xbcdc1f2c	-0.026870333
166	0x3cb4a8fc	0.022053234
167	0xbd380bfd	-0.044933308
168	0xbbc5a8c3	-0.006032081
169	0x3d311d68	0.043240935
170	0x3bb81dbb	0.0056187785
171	0xba3ee26a	-0.0007281663
172	0x3d3e30ca	0.046433248
173	0x3ca48431	0.020082565
174	0x3ca91d30	0.0206438
175	0x3d411a16	0.047144018
176	0x3cf9c02f	0.030487148
177	0xbcf32b30	-0.02968368
178	0xbcbfed9d	-0.023428733
179	0xbbc68f1a	-0.0060595395
180	0xbd7c3ab9	-0.06157944
181	0x3cb27e30	0.021788687
182	0xbd1ef233	-0.038805198
183	0xbc1aba0a	-0.009443769
184	0x3b5a6c0f	0.0033328568
185	0xbd8e21db	-0.06940051
186	0x3ca18a17	0.019719167
187	0xbd414dfe	-0.04719352
188	0x3d634c32	0.055492587
189	0x3c7efab8	0.015562706
190	0xbd81b1d8	-0.06332749
191	0x3ba0860e	0.004898793
192	0xb8f6ba7d	-0.0001176493
193	0xbc931568	-0.017954543
194	0x3d05f6f2	0.03270621
195	0xbd3e2b22	-0.046427853
196	0xbda70bab	-0.08156522
197	0xbcf7aa68	-0.030232623
198	0xbd7c7d56	-0.061642967
199	0x3cf98c7b	0.030462494
200	0x3d14c9a2	0.036325105
201	0xbd631e3e	-0.055448763
202	0xb9dd1fa4	-0.0004217598
203	0xbc7ba5a8	-0.01535932
204	0x3cdc2740	0.026874185
205	0x3c0ba4dc	0.008523192
206	0xbcfa3c18	-0.030546233
207	0xbd76b52c	-0.060231373
208	0xbd4b5e88	-0.0496507
209	0xb9bb2600	-0.00035695732
210	0xbd5cc3b4	-0.053897575
211	0xbd617e02	-0.05505181
212	0xbd87bd52	-0.06627907
213	0xbcf17e1d	-0.02947908
214	0x3d1b92a8	0.03798166
215	0xbd018558	-0.031621307
216	0xbc768a20	-0.01504758
217	0x3d559a36	0.05214902
218	0xbd217043	-0.0394137
219	0x3c9d2923	0.019184655
220	0x3bf3e760	0.0074433535
221	0xbbc253c0	-0.005930394
222	0x3c01d95a	0.007925356
223	0xbccae879	-0.024769055
224	0xbd3435b6	-0.043996535
225	0x3cc7e114	0.024399318
226	0x3c4721a0	0.012154013
227	0x3c914567	0.017733289
228	0xbbd2490e	-0.0064174
229	0xbd42ac46	-0.047527574
230	0xbcd3eba0	-0.02586919
231	0xbd207886	-0.03917744
232	0xbd50ae31	-0.050947372
233	0xbd7d338e	-0.061816745
234	0x3cc519f1	0.024060221
235	0xbda2163c	-0.07914397
236	0x3c469c90	0.012122288
237	0xbc1a12c8	-0.009403892
238	0xbc90cb11	-0.017674955
239	0xbd2732ac	-0.04081981
240	0x3ba095d6	0.0049006743
241	0x3c9925dc	0.01869481
242	0xbd5ea877	-0.05435988
243	0xbd44c73a	-0.04804156
244	0xbb273de0	-0.0025519058
245	0xbd851d39	-0.064997144
246	0xbd4c02b7	-0.049807277
247	0xbda174b7	-0.0788359
248	0xbc592fd9	-0.013256037
249	0xbd6d2c50	-0.057903588
250	0xbcac2062	-0.021011535
251	0xbceffdf0	-0.029295892
252	0x3d1e7512	0.038685866
253	0xbb810300	-0.003937125
254	0x3d687812	0.056755133
255	0x3d2198ce	0.039452367

l2.bias f4 [256]
0	0xbd88914c	-0.06668338
1	0xc0d37c48	-6.608921
2	0xbce5299e	-0.027973946
3	0xbd83e182	-0.064394966
4	0x3d243227	0.04008689
5	0xbce18232	-0.027527902
6	0xbc7fa452	-0.015603142
7	0x3ddda279	0.10822005
8	0x3e166c22	0.14689687
9	0xbd84b33e	-0.064795
10	0xbc56ef96	-0.013118645
11	0x3d418115	0.047242243
12	0xbd8ac666	-0.06776123
13	0x3d62544b	0.05525617
14	0x3d3bb0fb	0.04582308
15	0xbd994d19	-0.07485408
16	0x3d450da6	0.04810872
17	0x3e2f68a9	0.17129768
18	0xbd4e3897	-0.050346937
19	0x3c712b59	0.014719808
20	0xbd35a49d	-0.04434644
21	0xbd704784	-0.058661953
22	0x3e05a80f	0.1305239
23	0x3e6e8007	0.23291026
24	0xbaf1d91b	-0.0018451543
25	0x3b8b6896	0.004254411
26	0x3c8e596a	0.01737662
27	0xbb8fd966	-0.0043899296
28	0x3d3852e6	0.045000933
29	0xba65f59a	-0.0008772254
30	0xbb2e00cd	-0.002655077
31	0x3cd6e74c	0.026233338
32	0x3c9b45a0	0.018954098
33	0x3cda8752	0.026675854
34	0x3c1e6966	0.009668684
35	0x3ce9da5e	0.028546508
36	0xbdb2f6b5	-0.08738462
37	0x3d560b02	0.05225659
38	0xbd84a118	-0.06476039
39	0xbd8c3d9d	-0.06847689
40	0x3cc24941	0.02371657
41	0xbc8a446f	-0.016878335
42	0xbd615468	-0.055012137
43	0xbd447932	-0.047967143
44	0xbc3f4407	-0.011673934
45	0xbda00ca3	-0.0781491
46	0xbd11c9ba	-0.035592772
47	0x3c96f82f	0.01842889
48	0xbdc6c7e1	-0.097060926
49	0xbacc9f56	-0.0015611451
50	0xbd8b2a0b	-0.067951284
51	0x3cfcb2af	0.030846922
52	0xbd039ff1	-0.032134954
53	0xbd43f6e2	-0.047842868
54	0xbd095679	-0.033529732
55	0x3e005b56	0.12534842
56	0x3cad2c18	0.02113919
57	0xbdb2b7c4	-0.08726457
58	0x3d02a13c	0.031892046
59	0x4091ec3e	4.560088
60	0x3d2032e2	0.039111026
61	0x3caf44b5	0.021395067
62	0x3cf9928d	0.030465389
63	0xbccace62	-0.024756614
64	0xbd7b4dcb	-0.061353486
65	0x3dac5d3a	0.08416219
66	0x3d93d941	0.07219172
67	0x3c609d25	0.013709341
68	0x3d8919b7	0.06694358
69	0x3dc8b985	0.0980101
70	0xbb8cc155	-0.004295508
71	0x3fe3f452	1.7808936
72	0xc0316679	-2.7718794
73	0xbdcc9e14	-0.099910885
74	0x3d8af844	0.06785634
75	0xbd1e6cb2	-0.03867788
76	0x3fe46083	1.7841953
77	0xbc1cfb02	-0.009581329
78	0xbd13ba4d	-0.036066342
79	0xb8f8f3cc	-0.00011870972
80	0xc0b5e0d3	-5.6836944
81	0x40e2936a	7.080495
82	0x3cb47101	0.02202654
83	0x3c4b8a0a	0.012423048
84	0x3ea82931	0.32843927
85	0x3cfd6d84	0.03093601
86	0xc0002dd1	-2.0027964
87	0xbd3a44a6	-0.045475625
88	0xbc4244b6	-0.011857202
89	0x3c0e0929	0.008669176
90	0x4008aead	2.1356614
91	0x3db050cd	0.086091615
92	0x3cdebaaf	0.027188627
93	0xbda2376d	-0.07920728
94	0xbd1dfbfc	-0.03857039
95	0x3c95e30e	0.018296745
96	0xbb49c159	-0.003078541
97	0xbebe3ebf	-0.37157246
98	0x3bd51a45	0.0065033757
99	0x3d0eceef	0.034865316
100	0x3ca5925e	0.020211395
101	0x3debd8da	0.115159705
102	0x3ca29fd7	0.019851608
103	0x3ce73d4f	0.028227476
104	0x3e11db73	0.1424387
105	0x3d448635	0.047979552
106	0x3c8f778f	0.017513065
107	0xbd866b4e	-0.065634355
108	0x3e838b46	0.25692195
109	0xbb0da838	-0.0021615159
110	0xbd48ae54	-0.048994377
111	0x3e0a2c1f	0.13493393
112	0xbd83fc3a	-0.06444593
113	0xbd238900	-0.039925575
114	0xbc4f8385	-0.012665634
115	0xbd4e81c5	-0.050416727
116	0xbd0d34ec	-0.0344743
117	0x3d575578	0.052571744
118	0x3de634a2	0.11240508
119	0xbd033b55	-0.032039005
120	0x3b9824ee	0.0046430742
121	0xbc64efcc	-0.013973188
122	0xbdbbfd37	-0.09179156
123	0xbcf0e0ae	-0.02940401
124	0xbda3593e	-0.07976006
125	0xbd9fa035	-0.07794229
126	0xbd1b3de3	-0.037900817
127	0x3c669544	0.014073674
128	0xbc1415e8	-0.009038426
129	0x3cbd1939	0.023083316
130	0x3bcca3b0	0.006245099
131	0x3cb9da94	0.022687234
132	0x3e3b3453	0.18281679
133	0x3c26a18a	0.01017035
134	0xbc9ddae7	-0.01926942
135	0xbca4a9ca	-0.020100493
136	0xbbcfc320	-0.0063403994
137	0x3e5f0eae	0.21782944
138	0xbd8c96f3	-0.06864729
139	0xbd635a50	-0.05550605
140	0x3b63c522	0.0034754951
141	0x3d1212e6	0.035662554
142	0xbcea3fad	-0.028594816
143	0x3c51a900	0.01279664
144	0xbce1b3b7	-0.027551515
145	0xbcc27d6b	-0.023741445
146	0xbd8c8a28	-0.06862289
147	0x4019b3a1	2.4015887
148	0xbf247d52	-0.64253724
149	0x3d463d57	0.048398342
150	0x4052903d	3.2900536
151	0xbdc2af5d	-0.09506104
152	0x40d38d6a	6.6110125
153	0xbd050917	-0.032479372
154	0xbf795538	-0.9739566
155	0xbcc0b7ed	-0.023525203
156	0x3df7922e	0.120884284
157	0xbdb1c50e	-0.08680163
158	0x3b91a20b	0.004444366
159	0x3cb3f602	0.021967892
160	0x3eb8172d	0.35955182
161	0x3ac7c244	0.0015240391
162	0xbcb5d3d7	-0.02219574
163	0xbd8ae047	-0.06781059
164	0xbda15dcb	-0.07879218
165	0xc0e2ecc9	-7.0914044
166	0x3c5240a5	0.012832795
167	0x3e490ea7	0.19634496
168	0xb9f1ddeb	-0.00046132444
169	0xbd0b00a6	-0.033936165
170	0xc04c993a	-3.1968522
171	0x3cdb818d	0.026795173
172	0xbe0a800d	-0.1352541
173	0x3def4a97	0.11684149
174	0xbd081f22	-0.033232816
175	0xbd217a20	-0.039423108
176	0x3df0ae93	0.117520474
177	0xbc3c6ffc	-0.0115013085
178	0xbc0ab489	-0.0084658945
179	0xbc9221db	-0.01783841
180	0xbd5835bc	-0.05278562
181	0x3e0a9984	0.13535124
182	0xbd7cc021	-0.061706666
183	0x3b3473ab	0.0027534764
184	0x3ccbf38a	0.024896402
185	0x3e16cb87	0.14726077
186	0x3d102295	0.03518923
187	0x3e28817d	0.16455646
188	0x3b4420f8	0.0029926877
189	0x3e9ba441	0.30398753
190	0x3e077a5d	0.13230272
191	0xbdcdbd69	-0.10045893
192	0x3a5976e5	0.000829561
193	0xbda25298	-0.0792591
194	0x40c9fd5a	6.3121767
195	0xbdb21fe4	-0.08697489
196	0x3ec68e4e	0.38780445
197	0xbd6ebd34	-0.058285907
198	0x3d098e1a	0.033582784
199	0x3e1810bf	0.14850138
200	0x3f875091	1.0571462
201	0x3d1d7130	0.038438022
202	0xbcb9fb13	-0.02270273
203	0xbd814908	-0.06312758
204	0xbe3438e8	-0.17599833
205	0xbdcb3288	-0.099217474
206	0xbc44dd59	-0.012015664
207	0x3d34c662	0.044134505
208	0xbb30c121	-0.0026970583
209	0x3cec9ec9	0.028884308
210	0xbf2ff577	-0.68733925
211	0x3d3c33cf	0.045947846
212	0x3d846d78	0.06466192
213	0xbca98af5	-0.020696143
214	0x3dfb4654	0.122692734
215	0x4051902c	3.2744246
216	0x3d74b22f	0.05974024
217	0xbdae9c8b	-0.08525952
218	0x3cef2c8f	0.029196052
219	0x3d2e521e	0.04255878
220	0xbdcaef82	-0.09908964
221	0xbd27fb26	-0.041011
222	0xbd57bb79	-0.052669022
223	0xbcd59cc0	-0.02607572
224	0x3de3b2cf	0.111180894
225	0xbc52f9bc	-0.012876924
226	0x3c9f8f9f	0.019477664
227	0x3fd7231f	1.6807593
228	0x3ebfbba4	0.37447846
229	0x3b56d717	0.0032782012
230	0x3eb365e4	0.35038674
231	0xbd84cbe4	-0.064842016
232	0x3df9a9ca	0.12190588
233	0xbd4af3ff	-0.0495491
234	0xc08f0f0d	-4.4705873
235	0xbd77e058	-0.060516685
236	0xbc483420	-0.012219459
237	0xbd76d7aa	-0.060264267
238	0x407b00f4	3.9219332
239	0xbda12996	-0.0786926
240	0xbd7016d6	-0.058615528
241	0x3e1bb84c	0.15207022
242	0x40caef6c	6.3417263
243	0x3d13b7b0	0.03606385
244	0x3fe1bbab	1.7635397
245	0xc10bd179	-8.738641
246	0xbabdd15b	-0.0014481948
247	0x3dfd0231	0.123539336
248	0x3c8107db	0.015750816
249	0xbc6eee3a	-0.014583165
250	0x3b1d0480	0.002395898
251	0xbb8d7cb4	-0.0043178443
252	0xbc8ecd3f	-0.017431853
253	0x3b8f67f2	0.004376405
254	0x3e346e7f	0.17620276
255	0x40072533	2.1116455

l3.weight f4 [256, 256]
0	0xbc9ed87d	-0.019390339
1	0x3cd12835	0.025531868
2	0x3d0003d4	0.03125365
3	0x3c99d088	0.018776193
4	0xbc8257bc	-0.015910976
5	0xbd006368	-0.0313448
6	0xbd3ac730	-0.045600116
7	0x3daf14d4	0.085488945
8	0xbbba27d8	-0.0056810193
9	0xbd664949	-0.056222234
10	0xbd2d038a	-0.042239703
11	0xbd47196d	-0.048608232
12	0x3d278e28	0.040907055
13	0xbd2b4dbe	-0.041822188
14	0x3ca0984c	0.01960387
15	0x3c424d56	0.011859259
16	0x3ce2064c	0.027590893
17	0x3d1ff40e	0.039051108
18	0x3d2118d9	0.039330337
19	0x3c350e20	0.011050731
20	0x3bc345b0	0.005959235
21	0xbcde2bc6	-0.027120482
22	0xbbbf2c3e	-0.0058341315
23	0xbd3df0f7	-0.04637238
24	0x3b991700	0.0046719313
25	0x3d7cbb1a	0.06170187
26	0x3cdcf4af	0.026972143
27	0xbd485228	-0.048906475
28	0x3d6a6991	0.057229582
29	0x3cf3aee3	0.029746478
30	0x3c6fbb3d	0.014632043
31	0x3d5ee9f1	0.054422323
32	0x3c7aa8a8	0.015299
33	0x3cbef197	0.023308558
34	0x3c2c4228	0.01051382
35	0x3c87744d	0.016534949
36	0xbd0bc8ea	-0.034127153
37	0x3cd1b211	0.025597604
38	0xbcccc76c	-0.024997436
39	0x3c8b99cc	0.01704111
40	0xbd899057	-0.06716984
41	0xbce3c544	-0.027804025
42	0x3d02764c	0.031851098
43	0x3a06a5f8	0.00051364256
44	0xbb47720a	-0.0030432963
45	0x3d0d3949	0.03447846
46	0xbd1be64a	-0.038061418
47	0x3d2f4659	0.042791698
48	0xbd6e659c	-0.05820237
49	0xb9fd0c89	-0.0004826526
50	0xbc80e25a	-0.015732933
51	0x3d535474	0.051594213
52	0xbd3aba84	-0.04558803
53	0x3d248145	0.040162344
54	0xbd758d7a	-0.059949376
55	0x3c4aceb1	0.012378381
56	0xbcfb8344	-0.03070224
57	0xbd065bed	-0.03280251
58	0xbd638eb4	-0.055556014
59	0xbd083629	-0.033254776
60	0x3d6450ec	0.055741236
61	0x3d34a77a	0.04410503
62	0x3d08e225	0.033418793
63	0x3b1da3d0	0.0024053939
64	0x3cf4fed8	0.029906675
65	0xbc906de4	-0.017630525
66	0xbd06f8f7	-0.032952275
67	0xbd0879ec	-0.0333194
68	0xbd2de150	-0.042451203
69	0xbd37c416	-0.044864736
70	0x3d452e05	0.04813959
71	0xbd092164	-0.03347911
72	0x3b19ab97	0.0023448223
73	0xbbd5cc89	-0.0065246266
74	0x3cf0cac7	0.029393567
75	0x38dae000	0.00010436773
76	0xbd25441e	-0.040348165
77	0x3c9d652c	0.019213282
78	0x3b995520	0.004679337
79	0xbd4d1867	-0.0500721
80	0xbdba1011	-0.09085096
81	0xbdade470	-0.084908366
82	0xbd2a86f6	-0.041632615
83	0x3cfb872c	0.030704103
84	0x3d1e2295	0.0386072
85	0x3c6ea6a8	0.014566101
86	0xbc4e21ad	-0.012581271
87	0x3cb9d1f6	0.022683125
88	0xbca92bb6	-0.020650726
89	0xbd0c1d1e	-0.034207456
90	0xbb9e45ff	-0.0048301215
91	0x3d6aba57	0.057306614
92	0xbcc66934	-0.024220087
93	0xbd0559d4	-0.03255637
94	0x3b4011e8	0.0029307548
95	0x3d260f9e	0.040542237
96	0x3d573374	0.052539304
97	0xbcb84493	-0.022493636
98	0xbbe74910	-0.0070582703
99	0x3cc9a0d8	0.02461283
100	0xbd4454a2	-0.047932275
101	0xbd381e27	-0.04495063
102	0xbd5ab1ce	-0.053392224
103	0xbd28d5fe	-0.041219704
104	0x3c582ebb	0.013194735
105	0xbd55ffd6	-0.052245937
106	0xbcc02cd4	-0.023458876
107	0xbd32eeba	-0.0436847
108	0xbd45e2ec	-0.048312113
109	0xbc921a40	-0.017834783
110	0x3d4cb8da	0.049980976
111	0xbd2dd51c	-0.042439565
112	0xbd1dd858	-0.0385364
113	0xbd2e4954	-0.0425504
114	0xbc98e0da	-0.018661905
115	0x3c63d848	0.013906546
116	0xbbe53250	-0.006994523
117	0xbd45c075	-0.048279244
118	0x3d14ac90	0.03629738
119	0x3cd7a8a0	0.026325524
120	0xbd5adf16	-0.053435408
121	0xbd2bf34a	-0.041980065
122	0x3c2ec6b8	0.010667495
123	0xbd2adc7e	-0.041714184
124	0x3d35b788	0.044364482
125	0x3d3489e0	0.0440768
126	0x3d472cad	0.04862659
127	0xbc9cbcb3	-0.019132948
128	0x3d2588ae	0.04041355
129	0x3d78d902	0.06075383
130	0xbd4d40ee	-0.05011075
131	0xbd0512fe	-0.032488815
132	0xbd1fc87a	-0.03900955
133	0xbd010c78	-0.03150603
134	0x3c0cd878	0.008596532
135	0xbd2e811a	-0.04260359
136	0xbd1fa3e6	-0.038974665
137	0x3cb20f61	0.021735849
138	0xbd25d998	-0.040490717
139	0xbd739bd8	-0.059474796
140	0x3d5e5442	0.054279573
141	0xbd00c1bc	-0.03143476
142	0xbd176de2	-0.036970027
143	0xbd152f42	-0.03642202
144	0xbd19c6d4	-0.037543133
145	0xbcfe8df8	-0.031073555
146	0x3bff70e0	0.007795438
147	0xbd4df429	-0.050281677
148	0xbd82f4d8	-0.063943565
149	0xbc7573b3	-0.014981198
150	0xbd26f694	-0.0407625
151	0xbd093981	-0.033502106
152	0x3cc60378	0.024171576
153	0xbd3b6f68	-0.045760542
154	0xbcfcabd2	-0.030843649
155	0xbca34bc5	-0.01993359
156	0xbd5934b0	-0.053028762
157	0xbd244244	-0.04010226
158	0x3d3a9f4e	0.04556208
159	0x3cb0a978	0.021565184
160	0xba287935	-0.00064267527
161	0x3d5fc2a0	0.05462897
162	0x3d45c7c4	0.048286214
163	0xbcb6bca0	-0.02230674
164	0x3d452fd2	0.048141308
165	0xbd525152	-0.051347084
166	0xbd27639a	-0.04086647
167	0xbcc3e365	-0.023912141
168	0x3d5770a8	0.05259767
169	0xbcc3d82a	-0.023906786
170	0xbdc63bee	-0.096793994
171	0xbd405258	-0.04695353
172	0xbd884b3f	-0.06654977
173	0x3d6c8325	0.057742257
174	0x3d66394e	0.056206994
175	0x3d5e03f3	0.054202985
176	0x3d6a9518	0.057271093
177	0x3d3d22b2	0.046175666
178	0x3d4f6716	0.05063542
179	0xbd5eab2a	-0.054362454
180	0x3d3f231e	0.04666435
181	0x3cd4c009	0.025970476
182	0x3d679104	0.056534782
183	0xbcdb4710	-0.026767284
184	0x3b9b7796	0.0047444804
185	0x3c16ea44	0.009211127
186	0xbcd7aaf3	-0.026326632
187	0xbbfa3c8a	-0.0076366113
188	0xbd4cc23c	-0.049989924
189	0xbd854012	-0.06506361
190	0xbcf91d08	-0.030409351
191	0x3c2e13e1	0.010624857
192	0xbb1b7e20	-0.00237263
193	0xbd85ed2f	-0.0653938
194	0xbc8f81e1	-0.017517986
195	0x3b1c8900	0.002388537
196	0x3c209f95	0.009803672
197	0x3cc75f84	0.024337538
198	0x3d26ec75	0.040752847
199	0x3d4a1914	0.049340323
200	0xbd4d15c5	-0.05006959
201	0xbd313e6a	-0.043272413
202	0x3d27f04e	0.041000657
203	0x3d165bef	0.03670877
204	0x3ae82491	0.0017711093
205	0x3c0a0d01	0.008425952
206	0x3d48ac2c	0.04899232
207	0x3d227b9a	0.039668657
208	0xbb3ebd31	-0.0029104466
209	0xbd0fb200	-0.035081863
210	0x3cf0b360	0.029382408
211	0x3d5df5c5	0.054189462
212	0x3d0d0b77	0.03443476
213	0x3d216630	0.039404094
214	0xbd274ab1	-0.040842716
215	0x3cd2befa	0.02572583
216	0xbba7a700	-0.0051163435
217	0x3d3a0718	0.04541692
218	0x3c1871e0	0.009304494
219	0x3cffd02c	0.031227194
220	0x3c2a99c9	0.010412642
221	0xbc8b4640	-0.017001271
222	0xbd416a36	-0.04722043
223	0xbc559a98	-0.013037346
224	0x3ca36043	0.019943362
225	0xbc8f862c	-0.017520033
226	0x3a625ede	0.0008635352
227	0xbc9b5b3c	-0.018964402
228	0x3ca3fa8c	0.020016931
229	0xbd83ddd5	-0.064387955
230	0xbd279e0c	-0.04092221
231	0xbd39586e	-0.04525035
232	0x3c74137f	0.014897226
233	0x3d39fa90	0.04540497
234	0xbcfe5f4e	-0.031051304
235	0x3d2e42c0	0.042544127
236	0x3d6d9ab8	0.05800888
237	0xbc6314c8	-0.013859935
238	0xbd96a33b	-0.073553525
239	0xbaade8f1	-0.0013268274
240	0x3d286056	0.041107498
241	0xbbafec65	-0.0053687566
242	0xbd41ab4c	-0.047282502
243	0xbcd39295	-0.025826732
244	0x3c9e6316	0.019334357
245	0xbccde400	-0.025133133
246	0x3d0729d8	0.03299889
247	0x3d50adb3	0.050946902
248	0xbc14a304	-0.009072069
249	0xbc0de7dd	-0.008661238
250	0xbc1b2a80	-0.009470582
251	0xbcefe6cf	-0.029284863
252	0xbd0d2c7c	-0.03446625
253	0x39b94900	0.0003534034
254	0xbd796a97	-0.060892668
255	0xbd6eb022	-0.058273442

l3.bias f4 [256]
0	0xbdacea47	-0.08443122
1	0x3cb5ff92	0.022216592
2	0xbc39210e	-0.011299385
3	0xbd2a1f4c	-0.041533753
4	0x3cc2e669	0.023791509
5	0xbd831548	-0.064005435
6	0xbd4c8cda	-0.049939014
7	0x3fc84842	1.5647051
8	0xbcd7207f	-0.026260613
9	0xbd3aad83	-0.04557563
10	0xbdd50d5d	-0.104029395
11	0x3fd902ff	1.6954039
12	0xbce73ffa	-0.028228749
13	0x3fde6564	1.7374692
14	0x3f569211	0.8381663
15	0xbc622e27	-0.013804949
16	0xbcec2e5a	-0.028830696
17	0xbdb06ac2	-0.086141124
18	0xbc48b76b	-0.0122507615
19	0xbd180c35	-0.037121017
20	0xbcee7205	-0.029107103
21	0x3fdbe92b	1.7180532
22	0x3fd7d3ac	1.6861472
23	0x3c522064	0.012825105
24	0xbca3b484	-0.019983537
25	0x3d367ac1	0.04455066
26	0xbe170ccc	-0.14750975
27	0xbd4f8a5c	-0.05066906
28	0xbd4a3e80	-0.04937601
29	0x3f1b032f	0.6055173
30	0x3bc06d6e	0.00587242
31	0xbdedd07b	-0.1161203
32	0x3fcf1769	1.6179019
33	0xbc85fe04	-0.016356476
34	0x3d30b78a	0.043143786
35	0xc0cb54b3	-6.3540893
36	0xbd5badbe	-0.05363249
37	0x3d0caa67	0.034342196
38	0x3cf8d3f2	0.0303745
39	0xbd97c034	-0.07409707
40	0xbc526abf	-0.012842833
41	0x3c90efa8	0.017692402
42	0xbd4d7e9a	-0.050169565
43	0xbc8da522	-0.017290656
44	0xbceeb7d2	-0.029140387
45	0xbb1b1428	-0.0023663137
46	0xbd233bf8	-0.039852113
47	0x3ec5692f	0.3855681
48	0xbcbae911	-0.022816213
49	0xbd8aea41	-0.06782962
50	0xc0950961	-4.657395
51	0x3fd25649	1.6432582
52	0xbd87b5cf	-0.06626474
53	0x40b70a29	5.7199903
54	0x3d04d4d1	0.03242952
55	0x3ed9916a	0.42493755
56	0xbd7ecc15	-0.062206347
57	0xbc28db70	-0.010306224
58	0x3fd711c3	1.6802295
59	0xbb41ad09	-0.00295526
60	0xbcc1fbf8	-0.023679718
61	0x3d42f2f3	0.047594976
62	0xbd25572e	-0.040366344
63	0xbd759543	-0.0599568
64	0xbc21ae2b	-0.009868185
65	0xbd99d4af	-0.07511269
66	0xc00aa2b5	-2.1661808
67	0x3ca312ef	0.01990649
68	0x3cca0d77	0.024664624
69	0xbcd660f5	-0.02616928
70	0xbc86bb1c	-0.016446643
71	0x3ac11530	0.0014731046
72	0xbc93af96	-0.018028062
73	0xbba2b04c	-0.004964864
74	0x3cd590fe	0.026070114
75	0xbf8debcc	-1.1087584
76	0x3c263be7	0.010146118
77	0x407427d2	3.8149304
78	0xbe1d8f3b	-0.1538667
79	0xbdb104e5	-0.08643512
80	0x3fd7db9f	1.6863898
81	0xbc3673fd	-0.011136052
82	0xbcfe6303	-0.031053072
83	0xbd74612c	-0.059662983
84	0x3fcf55c1	1.6198045
85	0x3c4698ef	0.012121423
86	0x3fd6f070	1.6792126
87	0xbcb7b2c1	-0.022424104
88	0x3cb4a893	0.022053039
89	0x3fcd2546	1.6027
90	0xbbe70123	-0.007049696
91	0x3cdd455d	0.027010614
92	0xbd2ddb28	-0.04244533
93	0x3c8081ba	0.015686858
94	0x3fcf590e	1.6199052
95	0x3d42a080	0.047516346
96	0xbcae0796	-0.021243852
97	0x3fdd632c	1.729589
98	0xbd07064c	-0.03296499
99	0xbc8936a7	-0.016749693
100	0xbd36625c	-0.044527397
101	0x3f54e723	0.83165187
102	0x3fba4588	1.4552469
103	0xbda7a964	-0.081866056
104	0xbd824ece	-0.06362687
105	0x3fdb5ef5	1.7138354
106	0x3cfeeccc	0.031118773
107	0x3fd6b34e	1.677347
108	0xbd8c7014	-0.06857315
109	0x4005f9b3	2.0933654
110	0xbc2fad96	-0.010722538
111	0xbd90e75d	-0.07075379
112	0x3fd2634e	1.6436555
113	0xbd023c4a	-0.031795777
114	0x3fd0e579	1.632003
115	0xbdc15aeb	-0.09441169
116	0xbdb315db	-0.08744403
117	0x3fdb4e04	1.7133183
118	0x3fcbaac0	1.5911484
119	0x405cd2ef	3.4503744
120	0xbd4a6eb6	-0.04942199
121	0xbc88d6d9	-0.01670401
122	0xbd7fef94	-0.06248434
123	0x3fd9ff0f	1.7030963
124	0x3fd0fc9a	1.6327088
125	0x3d590de1	0.05299175
126	0x3fd9e306	1.7022407
127	0xbc89f114	-0.016838588
128	0x3be0173c	0.0068387073
129	0xbbb4cab6	-0.005517329
130	0x40d3714b	6.6075797
131	0x3fcd18e6	1.6023223
132	0x3c00d455	0.007863124
133	0x4035a1ef	2.8380086
134	0xbd7a101d	-0.061050523
135	0x3fcab976	1.5837848
136	0xbd90efd5	-0.07076994
137	0xbe23a10a	-0.159794
138	0x3ed0ced5	0.407828
139	0xbce2814b	-0.027649542
140	0x3fdecf91	1.7407094
141	0xbcca7707	-0.02471496
142	0xbd12646c	-0.0357403
143	0xbc94c39f	-0.018159686
144	0x3fd4e8f9	1.6633598
145	0x3ce4390d	0.027859235
146	0x3be9b2c4	0.007131906
147	0xbd86c87c	-0.06581208
148	0xbdb803ff	-0.08985137
149	0x3fca763a	1.581733
150	0x3fded151	1.7407628
151	0xbd31302b	-0.043258827
152	0x3d3f918e	0.04676967
153	0xbd8f113e	-0.069857106
154	0xbd1db1ef	-0.03849977
155	0xbcb518f1	-0.02210662
156	0xbd60d52b	-0.054890793
157	0xbb95b442	-0.0045686075
158	0xbdfdc4cd	-0.123910524
159	0xbd636d86	-0.05552437
160	0x3fd58290	1.668047
161	0xbd26aa3e	-0.0406897
162	0xbbbc2323	-0.0057414933
163	0x3fd47221	1.6597329
164	0x3fd61783	1.6725925
165	0xbce37297	-0.027764602
166	0xbbb7a46f	-0.005604319
167	0x3fd4d1f7	1.6626576
168	0x3a33943e	0.0006850398
169	0xbc8e510d	-0.017372632
170	0x3c8250ba	0.015907634
171	0x3ba3a3d9	0.0049938974
172	0xbd7c1d50	-0.061551392
173	0xbd3379b5	-0.04381724
174	0xbd247470	-0.040150106
175	0xbb3221f8	-0.0027180891
176	0x3b9ff19e	0.004881098
177	0x3fc4df78	1.5380697
178	0xbd864c0e	-0.06557475
179	0xbd644da8	-0.05573812
180	0x3fde69bf	1.7376021
181	0xbd4fd0d1	-0.050736252
182	0x3fddb955	1.7322184
183	0xbc3bfbd5	-0.011473616
184	0x3ec69371	0.38784364
185	0x3b8e07a8	0.004334409
186	0x3d1d3bce	0.038387112
187	0x3fca73b4	1.581656
188	0x405edafe	3.4821162
189	0xbd0f4d37	-0.034985747
190	0x3b2694c4	0.002541826
191	0xbbfb7d21	-0.0076748286
192	0xbb3162db	-0.002706698
193	0xbb607341	-0.0034248384
194	0xbd3f827d	-0.046755303
195	0x3eb5e5ed	0.35526982
196	0x3c329afd	0.01090121
197	0x3d1b3147	0.03788879
198	0xbb02b80a	-0.0019946122
199	0x3d2139c2	0.039361723
200	0x3d1961b9	0.03744671
201	0xbd85a2bd	-0.065251805
202	0xbd8dc42a	-0.06922181
203	0xbdc60a22	-0.096699014
204	0xbc9e9665	-0.019358823
205	0x3fef9b59	1.8719283
206	0xbd4ea87a	-0.05045364
207	0xbd1d657b	-0.038426857
208	0xbd29187d	-0.04128312
209	0x3d28cbbd	0.041209925
210	0x3fcb1f8f	1.5869006
211	0xbd58334e	-0.052783303
212	0x3c298ccd	0.010348511
213	0xbce3ba3b	-0.027798763
214	0x3fd5422a	1.6660817
215	0x39eff09c	0.000457649
216	0x403ad542	2.9192662
217	0xbc2aa72d	-0.010415834
218	0xbda83da6	-0.082148835
219	0x3b53f819	0.0032343923
220	0xbde777cc	-0.11302146
221	0x3fcdf69b	1.6090883
222	0x3fd3b7d7	1.6540478
223	0xbc8b35bf	-0.016993402
224	0x3d640fbd	0.05567907
225	0xbd924aac	-0.07143149
226	0xbe26ce2f	-0.1628959
227	0x3c801caf	0.015638677
228	0xbf8bdd71	-1.0926954
229	0x3e401767	0.18758927
230	0x3d5705a0	0.0524956
231	0xbd7e6b41	-0.062114004
232	0xbca1fcf1	-0.019773932
233	0x3fd3f38f	1.6558703
234	0xbd2eff23	-0.042723786
235	0xbdd8c79b	-0.10584947
236	0x3fd26efe	1.6440122
237	0x3aea40c0	0.001787208
238	0xbd248a8d	-0.040171195
239	0x4072587f	3.7866514
240	0xbd734095	-0.059387762
241	0x3c966fee	0.01836392
242	0xbe056783	-0.13027768
243	0xc07d23bb	-3.9553058
244	0x3fd7e7c6	1.6867607
245	0xbd24a595	-0.040196974
246	0x3e0e7304	0.13911062
247	0xbe92fa45	-0.28706565
248	0x40745111	3.817448
249	0xbddb7b6b	-0.107168995
250	0xbc14fec8	-0.009093948
251	0xbd85b640	-0.06528902
252	0x3b7c6aa6	0.0038515716
253	0xbd5000bb	-0.050781947
254	0x3fcc02ca	1.5938351
255	0x3d1ac83b	0.03778861

l4.weight f4 [1, 256]
0	0x3c72f492	0.014828818
1	0xbcaa740b	-0.020807287
2	0x3c329e33	0.010901975
3	0xba576395	-0.0008216438
4	0x3ba26c8b	0.004956787
5	0xbb85e284	-0.0040858407
6	0x3ce1b774	0.027553298
7	0x3d4ba973	0.049722146
8	0xbd5c34f2	-0.05376143
9	0x3c9d3786	0.019191515
10	0xbc9c823e	-0.019105073
11	0x3d775192	0.060380526
12	0xbc6de3dc	-0.014519658
13	0x3dea6176	0.114443704
14	0x3e13fd99	0.14452209
15	0x3c33ff02	0.010986092
16	0x3c872564	0.016497321
17	0xbb8eec5e	-0.0043616733
18	0xbd15026a	-0.036379255
19	0x3ae97677	0.0017811795
20	0x3e55c758	0.20876825
21	0x3db126bb	0.086499654
22	0x3daa36d3	0.08311238
23	0x3cb3f6b4	0.021968223
24	0xbc839b52	-0.016065273
25	0xbcaf51ba	-0.021401275
26	0x3d0ebd77	0.034848657
27	0x3bec9421	0.007219807
28	0xbd46e5fc	-0.048559174
29	0xbe1a9e12	-0.15099362
30	0xbca14a95	-0.019688884
31	0xbc8190ef	-0.01581618
32	0x3dc75443	0.097328685
33	0xbd0314d6	-0.032002293
34	0xbc4dc4a0	-0.012559086
35	0xbef18c18	-0.47177196
36	0x3ca6fba9	0.020383673
37	0xbc3ebb52	-0.01164134
38	0xbd57ca6e	-0.052683286
39	0x3cbe0446	0.023195397
40	0xbb4f723c	-0.0031653782
41	0xbbd6353c	-0.0065371078
42	0x3b11d054	0.0022249417
43	0x3c885856	0.016643684
44	0xbd261200	-0.04054451
45	0xbc0b52c3	-0.008503619
46	0xbd457751	-0.048209492
47	0xbe32128b	-0.17389886
48	0xbb1e1ced	-0.0024126128
49	0xbba13e34	-0.0049207453
50	0xbefa527f	-0.48891065
51	0x3d988f3a	0.07449193
52	0xbdb6a8c7	-0.089189105
53	0x4096d8b6	4.713954
54	0x3bfdf470	0.0077500865
55	0xbe7ca003	-0.24670415
56	0xbb6bf59b	-0.0036004547
57	0x3c07acd1	0.008280949
58	0x3dbf593a	0.093431905
59	0xbba939cf	-0.005164362
60	0xbd0be2ff	-0.034152027
61	0x3cc3f0a5	0.02391846
62	0x3d398ff5	0.045303304
63	0xbb9da98c	-0.0048114713
64	0xbc670104	-0.014099363
65	0x3c1e0118	0.009643815
66	0xbefe7887	-0.4970133
67	0x3b80acdf	0.003926858
68	0xbd210a06	-0.0393162
69	0x3c9dd7be	0.019267913
70	0xbc96b8d5	-0.018398682
71	0xbbe0de02	-0.006862403
72	0xbac0add1	-0.0014700239
73	0xbd7185e3	-0.058965575
74	0x3c416e56	0.011806091
75	0xbe3d252a	-0.18471208
76	0xbca959f6	-0.02067278
77	0x3e2cc4e2	0.1687198
78	0xbbfbde24	-0.0076863933
79	0x3c702f98	0.014659785
80	0x3df9bb20	0.121938944
81	0xbb9e4cf0	-0.004830949
82	0x3d0d0afe	0.03443431
83	0x3b5b52f3	0.003346619
84	0x3d8b0338	0.06787723
85	0x36d99839	6.484825e-06
86	0x3e012f23	0.12615637
87	0xbb8aa6df	-0.0042313184
88	0xbc965667	-0.018351747
89	0x3d7041d5	0.058656532
90	0xbcd9ff77	-0.026611073
91	0xbb9c15d0	-0.0047633424
92	0x39946187	0.00028301423
93	0x3db57475	0.08860103
94	0x3db428fc	0.0879688
95	0xbda1b9f8	-0.07896799
96	0xbac48bfa	-0.001499533
97	0x3defbefc	0.11706349
98	0xbc272079	-0.010200613
99	0x3ba9ea7a	0.0051854225
100	0x3c290faf	0.010318681
101	0xbe12d127	-0.14337598
102	0x3dfd7194	0.12375179
103	0xbbac8a56	-0.0052655144
104	0xbc48a4e6	-0.012246346
105	0x3e00903b	0.1255502
106	0xbd732a46	-0.059366487
107	0x3d8c76ad	0.06858573
108	0xba058255	-0.00050929683
109	0x3e0a2e45	0.13494213
110	0x3b5628ee	0.0032678205
111	0x3ba1d1c6	0.004938337
112	0x3d8d4e4a	0.06899698
113	0xbc72c603	-0.0148177175
114	0x3d84158a	0.06449421
115	0xbba62ee0	-0.005071506
116	0x3cb410f3	0.021980738
117	0x3dffc8d3	0.12489476
118	0x3d83b314	0.06430641
119	0x3e8b259d	0.27177134
120	0x3ce74db3	0.028235292
121	0xbc6f24cf	-0.014596178
122	0xbc417bb4	-0.011809278
123	0x3de4e4d1	0.11176456
124	0x3db8df91	0.09027017
125	0x3c2f67ef	0.010705932
126	0x3dc8ff0b	0.098142706
127	0xbeb14af7	-0.34627506
128	0xbcf5f4e7	-0.030024005
129	0xbcad806c	-0.0211794
130	0x400d248c	2.2053556
131	0x3da64a90	0.081196904
132	0xbb93c83a	-0.004509953
133	0x3e9cc394	0.30617964
134	0xba7f6336	-0.00097422616
135	0x3d9d581e	0.07682823
136	0xbc263b65	-0.010145997
137	0xbc367e27	-0.0111384755
138	0x3e84f414	0.25967467
139	0xbbbb9e91	-0.0057256897
140	0x3de7f090	0.113251805
141	0xbd5022e6	-0.05081453
142	0xbaf1719f	-0.0018420703
143	0x3ae9962b	0.0017821243
144	0x3dca704a	0.09884699
145	0xbc7bce4b	-0.015369008
146	0xbb0537e5	-0.0020327505
147	0x3b453727	0.0030092688
148	0x3c9993e9	0.018747287
149	0xbe9b6bef	-0.30355784
150	0x3dfb658e	0.122752294
151	0x3b0c7178	0.0021429937
152	0xbd03f147	-0.032212522
153	0xbda24e25	-0.07925061
154	0x3cc0b3d5	0.02352325
155	0xbcae258f	-0.021258144
156	0x3c4fddeb	0.012687187
157	0x3c3865c4	0.011254732
158	0xba4f0d3a	-0.0007898394
159	0x3ba90dc7	0.005159113
160	0x3db7655b	0.08954879
161	0xbcd9df61	-0.026595773
162	0x3bdf156e	0.0068079745
163	0x3defd2d1	0.11710132
164	0x3db82edc	0.08993313
165	0xbd06417d	-0.0327773
166	0x3d5345fd	0.051580418
167	0x3de967fa	0.11396785
168	0x3bcbc217	0.0062182057
169	0xbcad2fa6	-0.021140885
170	0xbd2db4d1	-0.042408768
171	0xbaa21a57	-0.0012367469
172	0x3b530e0c	0.0032204418
173	0x3cb754c7	0.022379292
174	0xbd429cd3	-0.04751284
175	0xbd3ab064	-0.045578375
176	0xbd2b397b	-0.041802865
177	0x3d0678dc	0.032830104
178	0xbd59c625	-0.05316748
179	0x3ac7622e	0.0015211755
180	0x3e0598f9	0.13046636
181	0xbca892fb	-0.020577898
182	0x3deed8f3	0.116624735
183	0xbaddb47e	-0.0016914753
184	0xbdb10be7	-0.08644848
185	0xbca3f685	-0.02001501
186	0x3d1aa6af	0.037756618
187	0x3cd8742a	0.026422579
188	0x3e11620d	0.1419756
189	0xbc9deb26	-0.019277167
190	0x3d2e6306	0.042574905
191	0xbc6a3823	-0.014295611
192	0x3c9b14c3	0.018930798
193	0x3bb92fa5	0.0056514316
194	0x3c358e5f	0.011081307
195	0xbcbdd619	-0.023173379
196	0x3c04fd4b	0.00811703
197	0xbcf2ac3e	-0.029623147
198	0x3afd8d21	0.0019344428
199	0x3980d3cd	0.00024571866
200	0xbd24ba2e	-0.040216617
201	0xbd46ecb1	-0.04856557
202	0xba4155f9	-0.00073751766
203	0x3ca78044	0.020446904
204	0x3c9561bb	0.018235078
205	0x3e993923	0.29926404
206	0xbd75b042	-0.059982546
207	0xbc8f7f99	-0.017516898
208	0xbc970380	-0.018434286
209	0xbe5ba210	-0.2144854
210	0x3d62d108	0.05537513
211	0x3c8b5429	0.017007904
212	0xbb682e09	-0.003542783
213	0xbc21ead2	-0.009882646
214	0x3de88e3e	0.113552555
215	0xbc4aaada	-0.012369836
216	0x3e4ed796	0.20199427
217	0x3bcb7972	0.006209546
218	0xbca5a11b	-0.020218423
219	0x3c87a32f	0.016557304
220	0xba000cfc	-0.00048847473
221	0x3dbb81b0	0.09155595
222	0x3dde9d3a	0.10869832
223	0xbcdd9fa4	-0.027053662
224	0x3d02dc7c	0.03194855
225	0xbbc0c74d	-0.0058831335
226	0x3ca23cb6	0.01980434
227	0xbcefda76	-0.029278975
228	0xbe473101	-0.19452287
229	0xbc87d895	-0.016582767
230	0x3b5166e2	0.0031952192
231	0xbb7c6369	-0.0038511402
232	0xbcdbfd76	-0.026854258
233	0x3dc2c9b6	0.095111296
234	0x3cd24d24	0.02567155
235	0xbc607f15	-0.013702174
236	0x3dfa2998	0.12214965
237	0xbc060c42	-0.008181633
238	0xbd5f6353	-0.054538082
239	0x3e74e268	0.23914492
240	0x3b9b00ca	0.0047303187
241	0x3b6d281a	0.0036187232
242	0xbd678c2b	-0.05653016
243	0xbdf80432	-0.12110175
244	0x3de2fafb	0.11083027
245	0xbc9213f0	-0.017831773
246	0xbcafe271	-0.02147028
247	0xbe58f8a3	-0.21188597
248	0x3e0d6fbd	0.13812156
249	0xbcbe580d	-0.023235345
250	0xbd0fd38e	-0.035113864
251	0xbc8c6087	-0.017135872
252	0xbd327504	-0.043568626
253	0x3c7b0b8d	0.015322578
254	0x3d97db4d	0.07414875
255	0xbcbcbed2	-0.023040209
