models/GMI_pretrained/GMI_GPM_channel_predictor_10V_ocean.pt (torch, 544272 bytes, 7 tensors)

l1.weight f4 [256, 12]
-0.25890446 -0.13481118 -0.23426849 0.27184895 -0.07960335 -0.13151342 0.1749613 -0.114786744
-0.14657687 -0.059904043 0.050620478 0.044232953 0.13498293 -0.18296625 0.08623952 0.1845727
0.124988295 -0.20522347 -0.19927263 -0.27362773 -0.17258103 -0.000797069 0.07298772 -0.021756234
0.0680005 -0.07893677 -0.28475717 0.25937292 -0.24186686 -0.24256131 0.05561776 0.27852568
-0.15857168 -0.17828214 -0.27397162 0.094044246 0.33666012 0.29216188 0.0065394943 0.021474399
-0.2490899 -0.07559314 -0.15685685 -0.12870038 0.03587443 0.23487757 -0.08762132 -0.02384088
-0.012891822 0.011431074 0.15807228 0.11205604 0.097485326 -0.24080653 -0.3292365 -0.33073738
0.083330296 -0.06661343 -0.16987318 0.23193139 -0.031871375 -0.17969784 -0.012595241 0.01908855
-0.14551224 -0.20324925 -0.21304566 -0.0043915496 -0.20596476 -0.07741067 -0.21078423 0.073515184
-0.0587884 -0.08757706 0.18967812 -0.04001713 -0.10218473 0.15098237 -0.32845733 -0.32786244
0.19584814 0.08619334 -0.18117873 -0.13208273 -0.054666523 0.009733136 -0.041480634 0.033957623
0.15152295 -0.36159578 0.17282891 0.1403173 -0.03385487 -0.15228924 -0.13509263 -0.095908135
0.025674034 -0.20450121 -0.16448209 0.16725016 -0.31458533 0.16329211 -0.15202728 -0.19276823
-0.083268166 0.24441871 0.07865047 0.2219855 0.055652183 -0.10931872 0.00015088763 -0.3242885
0.078990735 -0.19326364 0.0030736558 0.13075444 0.15842216 0.01298728 -0.19755891 0.2168843
0.32564503 0.22170696 0.111825585 0.03471793 0.18683076 -0.25292164 0.017743502 0.07922059
-0.16454327 -0.1646213 -0.24938118 0.16680798 0.41402364 0.307787 0.08065255 -0.18446106
0.038594835 0.020032287 -0.09390323 -0.22447106 0.06821406 -0.14464557 0.047384325 0.0497851
-0.19165675 -0.17383333 0.18871419 -0.0036257624 0.24443616 0.15591808 0.20780519 -0.24704947
-0.1188532 -0.17553107 -0.2143096 -0.2830528 -0.28189284 -0.15321065 -0.22383179 -0.021282297
0.20845841 0.01710928 0.07990784 0.15438952 -0.10193418 0.19040492 -0.24004465 -0.21877031
-0.27132985 -0.18282008 0.0031339698 0.15256266 -0.114291854 -0.2242814 -0.16231214 -0.18723485
-0.28656286 -0.20275474 0.030515099 0.16852671 -0.26714984 0.06918839 -0.14596952 -0.13992567
-0.2031704 -0.28019422 -0.12555219 0.022318738 -0.20144701 0.17884007 0.24835484 -0.27808952
0.016638206 0.097504415 0.10962537 0.0818833 -0.09780455 -0.08358384 0.16007757 -0.04399316
-0.2675058 -0.21408837 0.19040109 -0.36546996 -0.04716327 0.16877726 -0.18194403 0.023647346
0.24899729 -0.25729898 -0.28673092 -0.28534636 0.073739104 -0.15983047 0.16489816 -0.28095248
-0.13634175 0.046213415 0.042822476 -0.16813059 -0.20016934 0.19685072 0.01177264 0.13391526
-0.28674856 0.13365547 -0.06493084 0.15204346 0.17613065 0.27908674 0.024826378 0.23600505
0.25698668 -0.013587801 0.1884268 -0.14509934 -0.17257623 -0.07521917 -0.22546245 -0.2464803
0.005210923 -0.028089665 -0.33843595 0.20636745 0.030957999 -0.03805266 0.032589328 -0.012491977
-0.35017627 -0.04372861 -0.105510786 0.0945441 0.25151703 -0.29947305 -0.17507538 -0.013082864
00000000: 208f 84be f10b 0abe 14e4 6fbe c92f 8b3e
00000010: 1507 a3bd 74ab 06be 0e29 333e 5015 ebbd
00000020: 3f18 16be f15d 75bd 6b57 4f3d 9d2d 353d
00000030: f738 0a3e 815b 3bbe 589e b03d a000 3d3e
00000040: ddf9 ff3d 1a26 52be 200e 4cbe ef18 8cbe
00000050: 15b9 30be 65f2 50ba 967a 953d 213a b2bc
00000060: d943 8b3d 9aa9 a1bd b1cb 91be 87cc 843e
00000070: f2ab 77be fe61 78be 73cf 633d eb9a 8e3e
00000080: 9d60 22be 988f 36be 0246 8cbe 459a c03d
00000090: b75e ac3e 3e96 953e 4149 d63b 14eb af3c
000000a0: 6c11 7fbe 94d0 9abd 159f 20be 08ca 03be
000000b0: 11f1 123d bf83 703e ce72 b3bd f34d c3bc
000000c0: 3838 53bc 6649 3b3c b3dd 213e a37d e53d
000000d0: 63a6 c73d fd95 76be b091 a8be 6956 a9be
000000e0: 13a9 aa3d 9f6c 88bd 3cf3 2dbe 6c7f 6d3e
000000f0: 8f8b 02bd b602 38be 455c 4ebc 975f 9c3c
00000100: 2901 15be 9220 50be a428 5abe fde6 8fbb
00000110: 6de8 52be 7c89 9ebd d2d7 57be 218f 963d
00000120: 1bcc 70bd 9a5b b3bd fb3a 423e 01e9 23bd
00000130: 3a46 d1bd 1f9b 1a3e 8f2b a8be 96dd a7be
00000140: 6a8c 483e 2286 b03d eb86 39be b240 07be
00000150: 01ea 5fbd bb77 1f3c 99e7 29bd 2617 0b3d
00000160: d528 1b3e 1523 b9be 10fa 303e 57af 0f3e
00000170: 67ab 0abd b6f1 1bbe b955 0abe 7c6b c4bd
00000180: 5a52 d23c c468 51be fe6d 28be a043 2b3e
00000190: 5411 a1be 0c36 273e 0aad 1bbe 0965 45be
000001a0: 8088 aabd e648 7a3e 7f13 a13d 2b50 633e
000001b0: 8bf3 633d 7ee2 dfbd 9737 1e39 2409 a6be
000001c0: e5c5 a13d e7e6 45be 636f 493b 7ee4 053e
000001d0: 6b39 223e 9ac8 543c e24c 4abe eb16 5e3e
000001e0: f2ba a63e 2607 633e d004 e53d 6334 0e3d
000001f0: 9050 3f3e f27e 81be d25a 913c 683e a23d
00000200: 087e 28be 7c92 28be c85d 7fbe b6cf 2a3e
00000210: e8fa d33e 4296 9d3e 2a2d a53d 5ce3 3cbe
00000220: 9e15 1e3d c01a a43c 5650 c0bd bedb 65be
00000230: d0b3 8b3d f81d 14be 1116 423d 76eb 4b3d
00000240: ab41 44be 5d01 32be 4b3e 413e 339e 6dbb
00000250: 794d 7a3e fda8 1f3e e2ca 543e 89fa 7cbe
00000260: 4e69 f3bd 6bbe 33be fa73 5bbe 4cec 90be
00000270: 4254 90be 41e3 1cbe 2934 65be 3658 aebc
00000280: 1f76 553e c328 8c3c b9a6 a33d 4918 1e3e
00000290: dec2 d0bd 82f9 423e 44ce 75be 5305 60be
000002a0: bfeb 8abe 3035 3bbe 4a63 4d3b 6339 1c3e
000002b0: d911 eabd 06aa 65be 2735 26be 7eba 3fbe
000002c0: 5eb8 92be f09e 4fbe cdfa f93c 4492 2c3e
000002d0: ddc7 88be a5b2 8d3d 0979 15be ad48 0fbe
000002e0: e70b 50be 9e75 8fbe c190 00be c9d5 b63c
000002f0: 2048 4ebe da21 373e bb50 7e3e c061 8ebe
00000300: d94c 883c 65b0 c73d 4483 e03d 6eb2 a73d
00000310: c04d c8bd 012e abbd 60eb 233e 2c32 34bd
00000320: 85f6 88be fb39 5bbe 81f8 423e e11e bbbe
00000330: 462e 41bd f2d3 2c3e 894f 3abe 14b8 c13c
00000340: 25f9 7e3e b1bc 83be 65ce 92be eb18 92be
00000350: 8704 973d 99aa 23be 10db 283e 01d9 8fbe
00000360: 2c9d 0bbe 474a 3d3d 9f66 2f3d 6d2a 2cbe
00000370: 31f9 4cbe 3c93 493e 08e2 403c 1521 093e
00000380: b5d0 92be fbdc 083e 76fa 84bd 48b1 1b3e
00000390: 985b 343e 75e4 8e3e b060 cb3c 4fab 713e
000003a0: c293 833e 5e9f 5ebc f4f2 403e ec94 14be
000003b0: d3b7 30be 820c 9abd a1df 66be 5565 7cbe
000003c0: 64c0 aa3b 4c1c e6bc 7a47 adbe fd51 533e
000003d0: a19b fd3c 1bdd 1bbd 637c 053d 26ab 4cbc
000003e0: 4e4a b3be c51c 33bd 0a16 d8bd 56a0 c13d
000003f0: d7c6 803e 8854 99be f646 33be 8259 56bc

l1.bias f4 [256]
-0.26707593 -0.21048139 -0.039159413 -0.29380867 -0.15985994 0.04131981 0.00067208585 0.040298197
-0.10270863 -0.2835302 -0.28426123 0.19682273 0.14642183 0.09511143 -0.059941377 -0.06916307
0.0755144 -0.16440392 0.07839406 -0.22754794 0.002784032 0.07598145 0.088063695 -0.33440477
0.015964577 0.22025183 0.015372489 0.16757564 -0.24460526 -0.1224189 -0.2524723 -0.38903147
-0.084127076 -0.020774774 0.1298563 -0.028948369 -0.04999148 -0.27940884 -0.19811562 -0.36406532
-0.1356284 -0.08941076 -0.21626386 -0.024915421 -0.32118857 -0.11035801 0.09657739 -0.065151654
-0.17971732 -0.23909323 0.020979498 -0.030885514 0.34505165 0.006287039 0.23331386 -0.40374455
0.21886596 -0.18515052 0.2711778 0.13327073 0.076370806 0.095087424 0.20170225 -0.22126731
0.15530533 0.19070064 0.052109886 -0.13280815 0.06142172 -0.022256415 0.009179229 0.09078829
0.2698126 0.09864351 0.08740874 0.1646983 -0.19426975 0.23886144 0.18541336 -0.32325634
0.07704615 0.094719835 0.23273459 0.09212873 0.012775822 -0.17842302 0.121586025 0.22745758
0.031083617 -0.33197612 0.20794177 -0.33326825 0.026753243 0.3733084 0.2190615 -0.27521795
-0.3676031 0.026255215 -0.10826252 0.045532156 0.12798359 -0.06116001 -0.28124133 -0.22993715
-0.27780735 0.019407075 0.13262883 0.023238454 0.09740135 0.028159073 0.0020296695 -0.051490705
0.1189722 0.06002957 -0.027374147 -0.037791412 -0.27149054 -0.2916171 0.012079773 -0.16541307
-0.25132295 -0.30630633 0.056035776 0.10444709 -0.24254791 -0.07009163 -0.14560711 -0.28783497
0.13519093 0.1269057 -0.0028299675 0.058159932 0.08726262 0.23717472 0.12842968 0.2577452
-0.31857538 -0.23389341 0.19262807 -0.2988317 -0.18145967 0.43880776 -0.04443242 0.10351288
-0.27033216 -0.23403469 -0.22315742 -0.037497673 0.09056188 0.27760434 -0.24328564 -0.025337463
-0.29542902 -0.22551021 -0.31255704 0.010130909 0.18237285 -0.23489942 -0.015525154 -0.4074296
-0.22376984 -0.13277504 0.14333512 0.115269825 -0.26560196 0.1572651 -0.20328765 -0.25951576
-0.00234344 0.24075715 -0.24747819 0.006096667 -0.1940267 -0.18072802 0.33182678 -0.1140413
0.033566855 0.27232572 -0.11215647 0.2170921 0.20788674 -0.22969592 -0.04844422 -0.12744404
0.14260189 -0.25554603 -0.13580644 -0.062828034 -0.37770674 0.11244511 0.19781926 -0.24021757
0.24293786 -0.06856075 -0.019911304 0.20355761 -0.262083 -0.19676952 0.000730134 -0.36265752
-0.019089308 -0.039140414 -0.13686284 0.20348287 -0.12335356 0.0867268 -0.26811412 0.16498551
0.042897776 -0.14659883 -0.13745552 0.07812325 -0.4133268 -0.027981032 0.11607884 0.15077925
0.049033705 0.18339436 -0.078181416 0.16615303 -0.24288785 -0.1757079 -0.16550781 -0.13387631
0.19242434 -0.23137169 -0.34655604 0.017139986 -0.23012681 0.211502 0.21059781 -0.22983238
-0.13577636 -0.42326945 -0.11745831 -0.18781534 0.1302506 -0.084334515 -0.23781693 0.03750368
0.027497914 0.20007755 0.1349899 -0.09220079 0.11727801 -0.18174306 -0.26152492 0.27255288
0.16275679 0.011888128 0.048666634 -0.068052106 0.15943696 0.16478825 -0.14369938 0.112844385
00000000: 2dbe 88be 6f88 57be 9f65 20bd 176e 96be
00000010: 53b2 23be f63e 293d eb2e 303a b90f 253d
00000020: e758 d2bd df2a 91be b08a 91be e68b 493e
00000030: 9bef 153e c8c9 c23d 1785 75bd 5ea5 8dbd
00000040: 4ba7 9a3d 8059 28be 118d a03d 5402 69be
00000050: 4e74 363b 2a9c 9b3d bd5a b43d 1a37 abbe
00000060: 25c8 823c b289 613e e4dc 7b3c f398 2b3e
00000070: cd79 7abe c3b6 fabd 0d44 81be 222f c7be
00000080: d14a acbd dc2f aabc 0df9 043e 2125 edbc
00000090: dec3 4cbd ad0e 8fbe d2de 4abe c566 babe
000000a0: 2ce2 0abe fd1c b7bd 4674 5dbe 6d1b ccbc
000000b0: d472 a4be 6103 e2bd 5eca c53d 3b6e 85bd
000000c0: d107 38be dbd4 74be 32dd ab3c 9e03 fdbc
000000d0: 9caa b03e 8103 ce3b d4e9 6e3e 9bb7 cebe
000000e0: 661e 603e 1998 3dbe d1d7 8a3e 1f78 083e
000000f0: 4c68 9c3d 32bd c23d 098b 4e3e e693 62be
00000100: 5c08 1f3e 0747 433e 2d71 553d dcfe 07be
00000110: 5795 7b3d 1653 b6bc 7a64 163c 36ef b93d
00000120: e124 8a3e 9c05 ca3d 5a03 b33d aca6 283e
00000130: a6ee 46be 1898 743e 00dd 3d3e db81 a5be
00000140: 5fca 9d3d 79fc c13d fa51 6e3e fdad bc3d
00000150: ae51 513c 86b4 36be 1802 f93d a4ea 683e
00000160: 12a3 fe3c c6f8 a9be b0ee 543e 23a2 aabe
00000170: 9e29 db3c 4722 bf3e a851 603e 5ee9 8cbe
00000180: 7936 bcbe 2d15 d73c bdb8 ddbd ed7f 3a3d
00000190: 210e 033e eb82 7abd ddfe 8fbe a574 6bbe
000001a0: c43c 8ebe 96fb 9e3c dacf 073e 925e be3c
000001b0: 5c7a c73d dbad e63c 3404 053b ebe7 52bd
000001c0: b2a7 f33d 91e1 753d bf3f e0bc 2bcb 1abd
000001d0: cf00 8bbe d64e 95be 3dea 453c 0b62 29be
000001e0: 67ad 80be 2fd4 9cbe c585 653d 5be8 d53d
000001f0: 7b5e 78be 338c 8fbd 081a 15be 1b5f 93be
00000200: 7e6f 0a3e 91f3 013e fa76 39bb 1c39 6e3d
00000210: bfb6 b23d eedd 723e 1283 033e 2ef7 833e
00000220: 501c a3be c181 6fbe 4b40 453e 7800 99be
00000230: 90d0 39be 69ab e03e c5fe 35bd 90fe d33d
00000240: fa68 8abe caa6 6fbe 6183 64be 2997 19bd
00000250: 8278 b93d 2822 8e3e df1f 79be 8390 cfbc
00000260: 7942 97be 26ec 66be 7a07 a0be 1dfc 253c
00000270: f3bf 3a3e 7989 70be 375d 7ebc 9d9a d0be
00000280: ec23 65be 2ef6 07be 71c6 123e 9612 ec3d
00000290: fbfc 87be 1a0a 213e a32a 50be 40df 84be
000002a0: 6694 19bb 0b89 763e ec6a 7dbe 8dc6 c73b
000002b0: efae 46be c410 39be 33e5 a93e 7c8e e9bd
000002c0: 667d 093d 476e 8b3e 4bb2 e5bd 644d 5e3e
000002d0: 43e0 543e 6835 6bbe 726d 46bd b180 02be
000002e0: 3b06 123e eed6 82be d810 0bbe fcab 80bd
000002f0: c762 c1be 9f49 e63d 2291 4a3e 98fb 75be
00000300: b4c4 783e 9469 8cbd 081d a3bc 6871 503e
00000310: be2f 86be f37d 49be 7766 3f3a 3fae b9be
00000320: 2e61 9cbc b351 20bd c625 0cbe d05d 503e
00000330: cba0 fcbd d29d b13d 4146 89be f6f1 283e
00000340: 94b5 2f3d 011e 16be 24c1 0cbe 15ff 9f3d
00000350: 929f d3be 7a38 e5bc beba ed3d e065 1a3e
00000360: 91d7 483d bbcb 3b3e 941d a0bd 0524 2a3e
00000370: 98b7 78be c6ec 33be e17a 29be df16 09be
00000380: e30a 453e b3ec 6cbe cb6f b1be 2869 8c3c
00000390: 5da6 6bbe fb93 583e f4a6 573e 2e59 6bbe
000003a0: f508 0bbe c6b6 d8be fc8d f0bd aa52 40be
000003b0: 6a60 053e 93b7 acbd 4886 73be 759d 193d
000003c0: 4e43 e13c 21e1 4c3e cb3a 0a3e c5d3 bcbd
000003d0: 742f f03d da1a 3abe 98e6 85be 0d8c 8b3e
000003e0: b7a9 263e 6cc6 423c aa56 473d e75e 8bbd
000003f0: 7143 233e 40be 283e ee25 13be f51a e73d

l2.weight f4 [256, 256]
0.037812993 -0.0062216544 -0.05034718 0.032489613 -0.011276463 0.032048255 -0.032977358 -0.021598637
0.0409505 0.012298405 -0.03255828 0.044762984 -0.027635463 -0.053625137 -0.043778963 -0.051982895
-0.07469802 0.043951944 -0.01713103 0.009836165 0.0053831316 0.012761969 0.03421329 -0.039681256
0.0063611493 -0.0239717 0.038490318 -0.058075514 0.023916937 0.044983495 0.015089252 0.04831903
-0.04698475 0.030737296 -0.01843097 -0.044533923 -0.033227578 -0.030227028 0.049994178 -0.017400071
-0.0066567054 -0.053086523 -0.0122927865 0.050252542 0.031849936 -0.048576705 0.013072288 -0.06881891
0.041331597 0.026392408 0.025383301 -0.05825181 0.036601927 -0.036886036 0.0075915754 -0.0064952155
-0.010008402 0.0037649232 -0.034768417 0.031526506 -0.035914857 -0.0044606254 0.0076738223 -0.004097802
0.038271643 0.056812942 0.019336402 0.048388675 -0.038804524 -0.04248009 0.03845547 0.05982004
0.03144405 -0.006694041 -0.03971823 0.011680588 0.019643702 -0.009270296 0.04029007 -0.0401486
0.042209294 -0.046766624 0.044483557 0.0049924627 0.028364109 0.045511693 0.0053397757 -0.012269445
-0.038511902 -0.029428914 -0.0030204207 -0.05423532 -0.044875674 -0.047540154 -0.04369303 0.016368564
0.037770975 -0.03219896 0.042262003 -0.06530348 -0.0070345104 -0.049235187 -0.014732607 -0.031015532
-0.0734107 0.059164457 -0.018730884 0.018434472 -0.044706248 0.05818443 0.045504082 0.057552576
0.016021058 0.00284359 -0.05464385 0.0011885986 -0.05977557 0.029223517 0.03742163 0.006383568
0.037092708 0.016027382 0.028804893 0.03852269 -0.03627325 -0.040367126 -0.05887613 0.04182673
0.045265734 0.004934521 -0.0063089803 -0.044326358 -0.0452417 -0.030828565 0.021017388 0.009302467
-0.026793713 -0.02507037 -0.043760832 -0.0016089866 0.059006393 -0.023301356 -0.009389094 0.03542324
-0.05786647 -0.017075293 -0.016901577 0.036516547 0.056085944 0.028873542 -0.035051044 -0.02642078
0.007359855 0.0025973022 -0.004087089 -0.027925938 -0.044250343 -0.042024948 -0.035611685 0.019933531
0.019882103 -0.038923673 0.035031766 0.024049971 -0.023595896 -0.017497838 -0.023800233 0.042835508
-0.05120138 0.0006828904 -0.026835367 -0.0022513047 0.0077300593 0.0029609576 0.043750502 -0.029405743
0.020716984 0.030341081 0.025532626 -0.025529299 -0.0144516155 -0.042114817 0.024091458 -0.067276634
-0.018758502 -0.07183862 0.056894034 -0.0048956363 -0.047929585 -0.047039248 -0.035456456 0.038175806
0.033105254 -0.06262344 -0.004528259 0.018865252 0.018313788 0.019365497 0.0011398853 0.0024268972
-0.02470781 0.004197091 0.010760792 0.013922438 -0.048755333 -0.01199753 0.036894478 -0.051047117
-0.013586261 0.007982902 -0.039772347 -0.020356303 0.013885232 -0.0187959 0.051089637 -0.047885988
0.03529211 0.0027353317 0.058356524 0.0483305 -0.042744756 -0.05151157 0.001799114 0.009984503
0.041186493 0.0017343792 -0.06699568 0.0063262177 0.01451695 -0.029018953 0.018136986 0.0442302
0.024457682 -0.040813804 0.018782975 -0.06526603 0.029724307 0.021948129 0.0394821 -0.060763404
0.030841172 0.0030856654 -0.025133528 -0.0015517995 0.009517293 -0.019383527 0.02806472 -0.03399811
0.03219805 0.039566875 -0.04922858 -0.001100725 -0.0010100232 0.014797598 0.0561554 -0.059931174
00000000: cce1 1a3d 05df cbbb d838 4ebd d413 053d
00000010: eac0 38bc 0845 033d 4413 07bd a0ef b0bc
00000020: b6bb 273d 407f 493c d55b 05bd 6459 373d
00000030: c463 e2bc 08a6 5bbd 9251 33bd 04ec 54bd
00000040: 47fb 98bd f406 343d 6056 8cbc de27 213c
00000050: fb64 b03b 9417 513c 3c23 0c3d d088 22bd
00000060: 3071 d03b 4c60 c4bc 06a8 1d3d 97e0 6dbd
00000070: 74ed c33c 9d40 383d e938 773c 2dea 453d
00000080: 1573 40bd c8cc fb3c 8cfc 96bc 3469 36bd
00000090: a419 08bd ac9e f7bc b2c6 4c3d 988a 8ebc
000000a0: 7e20 dabb 4171 59bd af67 49bc 9cd5 4d3d
000000b0: 1475 023d 5ef8 46bd 262d 563c eef0 8cbd
000000c0: 524b 293d e434 d83c a4f0 cf3c 7399 6ebd
000000d0: e7eb 153d d015 17bd c0c2 f83b d1d5 d4bb
000000e0: 48fa 23bc eebc 763b 5469 0ebd f021 013d
000000f0: 751b 13bd 702a 92bb b074 fb3b db46 86bb
00000100: bac2 1c3d b0b4 683d 6067 9e3c 3433 463d
00000110: 7ef1 1ebd 9aff 2dbd 7c83 1d3d dc05 753d
00000120: 7acb 003d b059 dbbb 95af 22bd f05f 3f3c
00000130: d4eb a03c 71e2 17bc 3307 253d dc72 24bd
00000140: a7e3 2c3d 5c8e 3fbd 6434 363d d097 a33b
00000150: d95b e83c 786a 3a3d 49f9 ae3b c805 49bc
00000160: a8be 1dbd e814 f1bc 40f2 45bb db25 5ebd
00000170: 8ecf 37bd 77b9 42bd 76f7 32bd 5e17 863c
00000180: bdb5 1a3d 0fe3 03bd ec1a 2d3d d5bd 85bd
00000190: c081 e6bb d6aa 49bd 0861 71bc 4914 febc
000001a0: 5958 96bd 6e56 723d 8371 99bc e403 973c
000001b0: e61d 37bd cc52 6e3d 7d62 3a3d 40bc 6b3d
000001c0: 983e 833c 865b 3a3b 3bd2 5fbd c0ca 9b3a
000001d0: 3ad7 74bd 2866 ef3c 6c47 193d 402d d13b
000001e0: 86ee 173d db4b 833c 3df8 eb3c f8c9 1d3d
000001f0: 4293 14bd 0058 25bd 1928 71bd 8152 2b3d
00000200: 9068 393d c3b1 a13b 90bb cebb 8e8f 35bd
00000210: 5c4f 39bd 308c fcbc a82c ac3c 6069 183c
00000220: 7d7e dbbc 6060 cdbc 8f3e 33bd a2e4 d2ba
00000230: b0b0 713d 7ce2 bebc b7d4 19bc f617 113d
00000240: 6405 6dbd 7ce1 8bbc 2d75 8abc 6092 153d
00000250: 60ba 653d 3588 ec3c af91 0fbd 6470 d8bc
00000260: f02a f13b 8037 2a3b fdec 85bb f0c4 e4bc
00000270: d93f 35bd 5a22 2cbd 8fdd 11bd a54b a33c
00000280: cbdf a23c 6e6e 1fbd 787d 0f3d 7204 c53c
00000290: 2e4c c1bc a057 8fbc b5f8 c2bc 4974 2f3d
000002a0: 8ab8 51bd 0004 333a d8d5 dbbc a08a 13bb
000002b0: 704c fd3b a00c 423b ba33 333d 50e4 f0bc
000002c0: aab6 a93c dc8d f83c cc29 d13c d222 d1bc
000002d0: 78c6 6cbc 9680 2cbd 735b c53c 55c8 89bd
000002e0: 6eab 99bc 2020 93bd b809 693d 936b a0bb
000002f0: d051 44bd 3aac 40bd ca3a 11bd 3c5e 1c3d
00000300: 6099 073d b840 80bd ca61 94bb 4d8b 9a3c
00000310: cc06 963c 64a4 9e3c 3468 953a 940c 1f3b
00000320: 0868 cabc c087 893b 084e 303c f01a 643c
00000330: acb3 47bd 4a91 44bc aa1e 173d c816 51bd
00000340: e998 5ebc b8ca 023c 54e8 22bd 43c2 a6bc
00000350: e27e 633c dcf9 99bc 5e43 513d 1924 44bd
00000360: 768e 103d 4043 333b 4007 6f3d 34f6 453d
00000370: 2015 2fbd ccfd 52bd 40d0 eb3a 0a96 233c
00000380: 2bb3 283d 1c54 e33a 0835 89bd 294c cf3b
00000390: 80d8 6d3c 28b9 edbc 0494 943c ba2a 353d
000003a0: 7a5b c83c 602c 27bd c1de 993c 32aa 85bd
000003b0: 6480 f33c 90cc b33c fcb7 213d 0ce3 78bd
000003c0: a0a6 fc3c e038 4a3b d4e4 cdbc c065 cbba
000003d0: 6cee 1b3c 34ca 9ebc fce7 e53c 9a41 0bbd
000003e0: 1ae2 033d e010 223d e8a3 49bd 3446 90ba
000003f0: c162 84ba a071 723c 3403 663d 647a 75bd

l2.bias f4 [256]
-0.047633458 0.009417346 -0.030269383 -0.009990717 0.020016205 -0.020200681 -0.06687993 0.04602384
-0.14131565 -0.13339747 -0.022612598 0.015827574 0.054699846 -0.049464606 -0.036638368 -0.0608638
0.03627684 -0.07124321 -0.04637786 -0.12943839 0.01837869 0.036615293 -0.0028545025 -0.01787269
0.006382933 -0.053659588 0.0079373 0.017673435 0.018638423 -0.045078654 -0.01910279 0.0029997285
-0.012297333 0.00271862 0.0512213 0.015128233 0.0040146336 -0.012408998 -0.026810702 0.021293085
-0.09816835 0.08937654 0.04714001 -0.036030296 -0.022803094 0.0046938118 0.048565958 -0.05163093
-0.019852042 -0.030680232 -0.016390957 -0.008229926 -0.10474858 0.016528513 0.04112392 -0.034459084
-0.061848316 0.0413583 0.045125343 0.010965502 0.018631121 0.01139467 -0.065542236 -0.062459424
0.004595189 -0.054745074 0.038125824 -0.042439137 -0.15366846 -0.059057124 -0.052477665 -0.040727094
-0.0960057 -0.0057227607 -0.08845242 -0.009982994 -0.04799424 -0.04488567 -0.017622132 0.037934028
0.047561303 0.040937893 -0.061868172 -0.14523673 0.023399325 -0.025505416 -0.023405453 0.027907774
-0.11820217 -0.07611255 -0.0076433793 -0.032468982 -0.058119476 -0.03794653 -0.037641697 -0.010993717
0.04515817 0.016929531 -0.043851785 0.032816265 -0.06877091 -0.048665654 -0.11825519 0.03343274
-0.03543718 -0.029338107 -0.017645948 0.052005615 -0.0063394527 0.02772295 -0.042672794 -0.048771046
-0.0015906115 -0.02325411 0.0027191653 -0.025705907 0.006449236 -0.057604134 -0.06596878 0.03852752
0.04142081 -0.0410552 -0.14046258 0.034651626 -0.05549559 0.027818754 -0.034659196 0.00286245
0.05331069 -0.059267744 0.03147754 0.035738166 -0.04262314 -0.052878868 -0.080101214 -0.07472256
-0.07689281 -0.041922487 -0.06890616 -0.0028498769 0.03872471 -0.02179541 -0.04312045 0.042604685
-0.024093488 -0.033453424 -0.05105515 -0.16286044 0.026637385 -0.019394916 0.03893873 -0.04992205
-0.063043304 -0.06012197 -0.052683473 0.042491168 0.057417057 -0.051978674 -0.11499816 0.02927187
0.013607061 -0.040418215 -0.07796208 -0.031944126 -0.0492087 0.01885416 -0.000504095 0.05512029
0.059532948 -0.04254773 -0.010206403 0.04458553 -0.041515004 -0.0039823204 0.010888967 -0.13939396
0.009553225 -0.014986061 0.0115919085 -0.00094683876 -0.055074804 -0.04631465 -0.07405226 -0.018788457
-0.02280716 -0.077061675 -0.046204194 -0.035488185 -0.025224157 0.046996504 -0.043401558 -0.006731819
0.019424738 0.04866816 -0.07689486 -0.039437093 0.03963592 0.03507934 -0.06753824 -0.02218754
-0.061713804 0.032271136 0.0481504 0.01663767 -0.04756035 -0.037551105 0.03655237 -0.007178638
0.00044083345 -0.08642511 -0.061534997 -0.015134781 -0.080251746 -0.0028244832 -0.056605734 -0.051042814
0.024290463 -0.034126952 0.035950635 0.028128544 0.011057347 -0.010341891 -0.13994345 0.036263287
-0.116239 -0.10220725 -0.053287845 0.054808997 -0.0931314 -0.009392757 0.048822004 -0.012111463
0.031677946 -0.04401101 -0.040982116 -0.13701245 0.019375838 -0.010089412 -0.02330847 0.006887479
0.0166381 -0.068685755 0.051480543 -0.04342664 -0.054738037 -0.003894201 -0.030549018 -0.072404586
-0.07634637 -0.095201775 -0.04568696 0.022339694 -0.057025664 -0.07812473 -0.03975296 0.044578742
00000000: 4d1b 43bd 364b 1a3c 7ff7 f7bc 1bb0 23bc
00000010: 06f9 a33c e67b a5bc 58f8 88bd 7e83 3c3d
00000020: 0db5 10be 5999 08be 0e3e b9bc d4a8 813c
00000030: f20c 603d 669b 4abd 1d12 16bd 524c 79bd
00000040: 0697 143d f6e7 91bd b6f6 3dbd 7f8b 04be
00000050: e88e 963c ebf9 153d 9b12 3bbb bf69 92bc
00000060: ec27 d13b 28ca 5bbd 730b 023c e1c7 903c
00000070: 9baf 983c 65a4 38bd 747d 9cbc 1897 443b
00000080: c17a 49bc e02a 323b 6dcd 513d 68dc 773c
00000090: 308d 833b 1c4f 4bbc 1ea2 dbbc d66e ae3c
000000a0: 7d0c c9bd 0c0b b73d e215 413d 8194 13bd
000000b0: 8ecd babc 8cce 993b 19ed 463d f47a 53bd
000000c0: c0a0 a2bc 1c55 fbbc 5446 86bc d0d6 06bc
000000d0: 6c86 d6bd ce66 873c 8e71 283d f824 0dbd
000000e0: a954 7dbd 5267 293d 5ad5 383d a6a8 333c
000000f0: 4ba0 983c b6b0 3a3c 023b 86bd 74d5 7fbd
00000100: 3d93 963b 5f3c 60bd d329 1c3d a9d4 2dbd
00000110: 445b 1dbe e2e5 71bd d2f2 56bd 74d1 26bd
00000120: a39e c4bd ff85 bbbb 8b26 b5bd b68f 23bc
00000130: 9c95 44bd 09da 37bd 4a5c 90bc b660 1b3d
00000140: a4cf 423d 7eae 273d 7b69 7dbd f0b8 14be
00000150: f1af bf3c bcf0 d0bc cbbc bfbc d89e e43c
00000160: fb13 f2bd e6e0 9bbd 5075 fabb 32fe 04bd
00000170: b00e 6ebd d26d 1bbd 2e2e 1abd fe1e 34bc
00000180: c6f7 383d cdaf 8a3c ee9d 33bd 596a 063d
00000190: c3d7 8cbd a355 47bd c72f f2bd c5f0 083d
000001a0: 9426 11bd 7856 f0bc 3c8e 90bc d703 553d
000001b0: 2fbb cfbb 3d1b e33c abc9 2ebd 26c4 47bd
000001c0: 117c d0ba 677f bebc 0634 323b 3295 d2bc
000001d0: 1d54 d33b 50f2 6bbd a41a 87bd 08cf 1d3d
000001e0: dea8 293d 7f29 28bd 6cd5 0fbe ddee 0d3d
000001f0: 584f 63bd 28e4 e33c cdf6 0dbd f197 3b3b
00000200: 4f5c 5a3d bcc2 72bd 98ee 003d 2f62 123d
00000210: 9a95 2ebd 8397 58bd 1b0c a4bd 2408 99bd
00000220: fa79 9dbd eab6 2bbd ac1e 8dbd 00c5 3abb
00000230: cd9d 1e3d 4a8c b2bc 129f 30bd 4082 2e3d
00000240: b55f c5bc 7506 09bd 341f 51bd e3c4 26be
00000250: a536 da3c 16e2 9ebc 387e 1f3d 107b 4cbd
00000260: d91c 81bd 7442 76bd a0ca 57bd 380b 2e3d
00000270: 262e 6b3d 97e7 54bd 2884 ebbd 90cb ef3c
00000280: 26f0 5e3c 928d 25bd 95aa 9fbd d8d7 02bd
00000290: 108f 49bd 0a74 9a3c 3e25 04ba d0c5 613d
000002a0: d2d8 733d 8746 2ebd c238 27bc 519f 363d
000002b0: a30b 2abd 207e 82bb a367 323c 4abd 0ebe
000002c0: 2185 1c3c 1888 75bc fdeb 3d3c 4635 78ba
000002d0: 1e96 61bd 6eb4 3dbd b6a8 97bd 40ea 99bc
000002e0: 15d6 babc 83d2 9dbd 9c40 3dbd 0f5c 11bd
000002f0: e4a2 cebc 687f 403d d5c5 31bd 9796 dcbb
00000300: a120 9f3c 4458 473d 0d7b 9dbd ca88 21bd
00000310: 4659 223d 5baf 0f3d 7d51 8abd a5c2 b5bc
00000320: 9dc7 7cbd bd2e 043d 5b39 453d b94b 883c
00000330: a4ce 42bd 30cf 19bd f0b7 153d c83a ebbb
00000340: aa1f e739 a6ff b0bd 1f0c 7cbd dff7 77bc
00000350: 075b a4bd f71a 39bb 6adb 67bd 4512 51bd
00000360: cbfc c63c b4c8 0bbd f940 133d d56d e63c
00000370: e029 353c 0971 29bc 564d 0fbe d088 143d
00000380: b60e eebd 0952 d1bd 5b44 5abd 667f 603d
00000390: adbb bebd 14e4 19bc 95f9 473d 286f 46bc
000003a0: bcc0 013d e444 34bd dddc 27bd fe4c 0cbe
000003b0: 14ba 9e3c 104e 25bc 68f1 bebc 5db0 e13b
000003c0: a04c 883c 1eab 8cbd 43dd 523d 22e0 31bd
000003d0: fe34 60bd da35 7fbb ef41 fabc db48 94bd
000003e0: 7c5b 9cbd 26f9 c2bd 4022 3bbd bc01 b73c
000003f0: be93 69bd dcff 9fbd 00d4 22bd 3398 363d

l3.weight f4 [256, 256]
-0.035521038 -0.045198426 -0.04480353 0.0012425332 -0.0452523 -0.06733592 -0.02683263 -0.025592728
-0.023473818 -0.05646443 -0.029289605 -0.055165872 -0.02902919 0.036109768 0.0031524855 -0.049684986
-0.055592127 -0.023269793 0.003494367 0.025487896 0.0013876798 -0.056841165 -0.030724004 -0.01855062
-0.061929166 -0.022369094 -0.038610823 -0.027564231 0.044222124 0.04200499 -0.0368265 -0.009512454
0.048649583 0.0134507865 -0.0012372434 -0.026152462 0.058758095 -0.040828157 -0.03363736 0.009652833
0.008505242 -0.00977633 0.046893418 -0.022385377 -0.0015010857 -0.015574753 -0.006527297 0.046652175
0.047989495 -0.043757036 0.018407322 -0.059953764 -0.017001133 0.007203796 -0.053304024 0.018531479
-0.0109473625 -0.04942897 0.0009172261 -0.03797402 -0.028303958 -0.0302692 0.03408134 -0.06154026
0.051273514 0.043671742 0.050086483 0.03168409 -0.014576295 0.052644353 0.038181584 -0.048630245
-0.0005441782 0.0007718435 0.051414046 -0.037486073 -0.05167789 -0.0015913546 -0.02140961 0.018630095
-0.037758395 0.007822372 0.04164184 0.054754294 -0.012144318 0.016176797 0.05042591 0.006953433
-0.032591335 -0.043733325 -0.043523006 -0.040745467 0.03276168 -0.058100358 0.009789795 0.019211538
0.026330419 0.001525335 0.023172073 -0.034303635 0.042810287 -0.05254207 -0.012515096 0.0432774
0.013707479 0.021357536 0.016050074 0.031613406 0.0024297535 0.038929798 0.016045213 -0.030697733
0.0029473118 0.003618993 0.048442595 -0.061352216 -0.020446325 -0.0040116385 -0.008548404 0.013339744
0.011830635 -0.039011177 -0.0023698383 -0.018325763 -0.024278536 -0.032717805 -0.019235928 0.04840189
-0.03948684 -0.03479813 -0.0047767684 -0.032898176 0.028037604 0.043381248 0.052107677 0.028146487
0.03507775 -0.0040386245 0.026997492 -0.054651156 0.00046192252 0.023293726 0.028245114 0.057697617
-0.02586743 0.0067913504 -0.015250814 0.0066107954 0.049856033 0.01814715 0.05438965 0.056290254
0.026138633 -0.019160943 -0.020767443 -0.0058132857 -0.044835836 0.031065926 -0.057414047 -0.061554722
0.009679708 -0.030140877 -0.004138933 0.0182973 0.033734974 0.039205782 0.03709518 -0.018369766
0.021809615 0.039155606 0.015659612 -0.013554737 -0.04110694 0.016458914 -0.011658083 0.017331371
-0.021422885 -0.045049123 -0.047690354 0.047974728 0.033965915 -0.048426207 0.027464906 0.022871485
0.0025540441 -0.044204935 -0.056391954 0.015312581 -0.045513988 -0.026948735 -0.004228093 0.03467616
-0.03905726 -0.0022452623 -0.043252375 0.05648067 -0.00082992134 -0.048886873 -0.015143714 0.0204735
-0.06593034 0.007060343 0.017628696 -0.029630952 -0.052646536 0.052732505 0.0395915 0.051995084
-0.049943008 -0.026614947 -0.011869371 0.06072838 0.015329001 -0.028457152 -0.057401948 -0.050204292
0.016349964 0.0076884017 0.040177986 -0.011861089 0.02016905 -0.017723037 -0.002616227 -0.00920742
-0.057449024 -0.054859705 -0.04091812 -0.022749454 -0.026861524 -0.06614134 -0.028237522 0.059516788
-0.0351519 -0.044051226 -0.047905937 0.0042483313 0.048716854 -0.026834682 -0.020297341 -0.034118474
-0.05153069 -0.05570973 -0.0071530044 -0.018211903 -0.05484879 0.039986044 -0.019341812 -0.014909839
-0.0596746 -0.03198709 0.011382151 -0.00958208 -0.062262252 -0.010163376 -0.023574792 -0.056794014
00000000: 827e 11bd fc21 39bd e883 37bd 7fdc a23a
00000010: 7a5a 39bd 6ae7 89bd 1bd0 dbbc d7a7 d1bc
00000020: 2a4c c0bc 3f47 67bd c1f0 efbc 9cf5 61bd
00000030: a0ce edbc d6e7 133d ee99 4e3b 7c82 4bbd
00000040: 92b4 63bd 4ba0 bebc c001 653b fecb d03c
00000050: cfe2 b53a 48d2 68bd e8b0 fbbc 78f7 97bc
00000060: 70a9 7dbd 643f b7bc 6226 1ebd 62ce e1bc
00000070: 4222 353d 6d0d 2c3d 62d7 16bd 20da 1bbc
00000080: c944 473d b060 5c3c 002b a2ba b03d d6bc
00000090: 54ac 703d 6d3b 27bd 54c7 09bd eb26 1e3c
000000a0: 9259 0b3c e62c 20bc 5013 403d 8a61 b7bc
000000b0: 14c0 c4ba 402d 7fbc f0e2 d5bb 5a16 3f3d
000000c0: a290 443d 943a 33bd f4ca 963c 1492 75bd
000000d0: f645 8bbc d20d ec3b 5255 5abd 54cf 973c
000000e0: 915c 33bc 0876 4abd 0072 703a a58a 1bbd
000000f0: b4dd e7bc 1df7 f7bc e098 0b3d a411 7cbd
00000100: 2d04 523d 24e1 323d 7c27 4d3d 2dc7 013d
00000110: 6ad1 6ebc 9ba1 573d 4b64 1c3d 8230 47bd
00000120: 2ea7 0eba 8a55 4a3a 8997 523d ff8a 19bd
00000130: 32ac 53bd 0095 d0ba 3563 afbc 249e 983c
00000140: 8ca8 1abd 6829 003c a290 2a3d 0a46 603d
00000150: f6f8 46bc 3485 843c 668b 4e3d a0d9 e33b
00000160: 7e7e 05bd b721 33bd 2e45 32bd b8e4 26bd
00000170: 1d31 063d a4fa 6dbd 6065 203c 8461 9d3c
00000180: e4b2 d73c c0ed c73a 5cd3 bd3c f881 0cbd
00000190: d759 2f3d 5b36 57bd 1e0c 4dbc a543 313d
000001a0: 5695 603c 00f6 ae3c 727b 833c 0f7d 013d
000001b0: 803c 1f3b da74 1f3d 4071 833c d079 fbbc
000001c0: b027 413b a12c 6d3b be6b 463d 764c 7bbd
000001d0: 0d7f a7bc 1074 83bb 9b0e 0cbc f18e 5a3c
000001e0: 48d5 413c 2fca 1fbd 4a4f 1bbb e91f 96bc
000001f0: c8e3 c6bc 1b03 06bd aa94 9dbc 0f41 463d
00000200: f4bc 21bd 7c88 0ebd 7086 9cbb 3dc0 06bd
00000210: 1eaf e53c 89b0 313d dc6e 553d 7693 e63c
00000220: b0ad 0f3d 7056 84bb d829 dd3c e4d9 5fbd
00000230: 312e f239 7cd2 be3c 4c62 e73c 5654 6c3d
00000240: efe7 d3bc fa89 de3b 8dde 79bc 5f9f d83b
00000250: d735 4c3d 55a9 943c aec7 5e3d 9c90 663d
00000260: b020 d63c 69f7 9cbc 7c20 aabc 607d bebb
00000270: c8a5 37bd f87d fe3c fe2a 6bbd ce20 7cbd
00000280: a397 1e3c 00ea f6bc e39f 87bb 38e4 953c
00000290: af2d 0a3d 3e96 203d 1ef1 173d 317c 96bc
000002a0: 14aa b23c a161 203d 9648 803c b014 5ebc
000002b0: c05f 28bd d8d4 863c 8b01 3fbc 85fa 8d3c
000002c0: 0c7f afbc 6e85 38bd f656 43bd 2681 443d
000002d0: d81f 0b3d 8f5a 46bd 15fe e03c fb5c bb3c
000002e0: c061 273b 3c10 35bd 40fb 66bd 9fe1 7a3c
000002f0: e06c 3abd 98c3 dcbc d18b 8abb 9708 0e3d
00000300: 81fa 1fbd 4025 13bb 6729 31bd 4658 673d
00000310: 148f 59ba 9a3d 48bd 571d 78bc 0bb8 a73c
00000320: 7c06 87bd 735a e73b 0e6a 903c 9cbc f2bc
00000330: e5a3 57bd 0afe 573d b22a 223d ccf8 543d
00000340: 0a91 4cbd 9707 dabc c077 42bc 52be 783d
00000350: 7d26 7b3c f91e e9bc 4e1e 6bbd 04a3 4dbd
00000360: 5cf0 853c fdee fb3b ac91 243d 0355 42bc
00000370: 9039 a53c e72f 91bc 0175 2bbb b8da 16bc
00000380: ab4f 6bbd 92b4 60bd c299 27bd 105d babc
00000390: b30c dcbc 1c75 87bd 6052 e7bc e0c7 733d
000003a0: 70fb 0fbd 0f6f 34bd 0439 44bd 9635 8b3b
000003b0: 538b 473d 68d4 dbbc 9c46 a6bc d0bf 0bbd
000003c0: d811 53bd e32f 64bd c063 eabb 2131 95bc
000003d0: 20a9 60bd 68c8 233d b872 9ebc 6648 74bc
000003e0: 5a6d 74bd e504 03bd 347c 3a3c 28fe 1cbc
000003f0: b406 7fbd 4a84 26bc ec1f c1bc d7a0 68bd

l3.bias f4 [256]
0.041380856 0.027005952 0.017457122 -0.07561946 0.023430629 0.04086012 -0.022412546 -0.050190244
-0.059873905 0.03635329 -0.07204834 0.045394197 0.014939063 -0.01334138 -0.051620778 -0.013858296
0.044486575 0.03231927 -0.014293968 -0.06147299 -0.049324878 -0.018362135 -0.008730723 -0.0055546425
-0.05686011 -0.004345484 -0.08871647 0.05722104 0.0069334656 0.013085683 0.007942332 -0.049445134
-0.011010582 0.044830997 -0.055388495 0.045697182 -0.023139386 0.013272506 -0.023563268 -0.07083657
-0.042495668 0.01810759 0.057367116 -0.008326267 0.047361985 -0.02227446 -0.006044857 0.0397287
0.043198127 -0.048328254 -0.0064310534 -0.040318143 0.039201543 0.012579918 0.0095019685 -0.030875262
-0.0066906624 -0.029398672 -0.06760806 -0.0027862987 0.035778284 -0.05443299 -0.06799956 -0.0019153194
-0.036081925 0.05954925 -0.024758859 -0.05009245 -0.07826472 -0.0360891 -0.019185409 0.044414602
0.027754437 -0.054678813 -0.06356877 0.017261516 0.04093957 0.014964945 -0.0821836 -0.035497703
0.004623457 -0.07328849 -0.014802075 0.038282737 0.020486359 -0.060901396 -0.03926859 0.05012863
-0.016335718 -0.011487454 -0.09816264 -0.025928585 -0.031927794 -0.064466454 0.0512264 0.019124063
-0.037984584 0.048396263 -0.039318394 0.039874483 -0.014965677 -0.015827283 -0.06132242 0.0059248903
0.0049132877 -0.005898481 -0.033510517 0.010134163 -0.0034244314 -0.030425198 0.045677494 -0.029099962
-0.028442072 -0.042195804 -0.05548001 -0.029988015 -0.019205272 -0.013544671 0.032457467 -0.05152137
-0.067691885 -0.0033276305 -0.051540893 0.05570365 0.019283181 0.04183345 -0.028046023 -0.021872979
0.046191778 -0.044191025 -0.055585273 -0.05380771 -0.049277082 -0.017452925 0.051770255 0.060804293
0.010576357 -0.021644631 -0.0039954796 -0.102003284 0.0015495302 0.01927277 0.048062064 0.023499703
-0.0131516475 -0.031297766 -0.021985233 -0.020413604 -0.06909825 -0.00058922917 -0.0155895045 -0.021596259
-0.05310104 0.036909632 -0.01775797 -0.00077248254 -0.04716579 -0.02842022 -0.030675633 0.01573958
-0.057411816 0.03448769 -0.003080363 -0.017943976 0.055263255 0.021252595 -0.03326865 -0.011386196
0.010150822 0.05388537 -0.08869789 0.020041887 0.03387188 0.031371213 -0.066705756 -0.0769823
-0.019615225 -0.0032897482 0.062080696 -0.023786377 -0.05397769 0.001723347 0.024105603 -0.022431554
0.0064414702 0.029734097 0.04982389 0.035322648 -0.04520461 0.016044602 0.046186343 -0.013988792
0.014148839 -0.031911977 0.061300762 0.010792153 -0.07411599 0.029438687 -0.06890317 0.0255455
-0.05109989 0.040574998 -0.044673547 0.0047359047 -0.011559213 -0.0035310215 -0.067643195 -0.014388286
0.037307315 -0.037573494 -0.060755692 0.030782372 -0.015059239 0.016123492 -0.00019219457 0.05128713
-0.035947487 0.0061402423 -0.049862314 0.017586771 -0.026390484 -0.027598843 -0.027462965 -0.015242259
-0.010501391 -0.018176265 -0.008861755 -0.03208674 -0.03925463 -0.0808327 -0.09940826 0.04021942
0.011457868 0.026831802 -0.03825578 -0.034887258 -0.06659684 0.016711833 -0.015656516 -0.0010460031
0.05068682 -0.00826469 -0.035771288 -0.033566568 -0.05845767 0.035523083 -0.0341758 -0.065591045
0.024670325 0.041868806 -0.030046975 0.03152 -0.05134574 0.05420158 -0.026114998 0.047528278
00000000: f97e 293d 963b dd3c 3d02 8f3c 60de 9abd
00000010: 97f1 bf3c f15c 273d 849a b7bc 4994 4dbd
00000020: 573e 75bd 30e7 143d 158e 93bd 44ef 393d
00000030: f9c2 743c ce95 5abc 4f70 53bd e80d 63bc
00000040: 8e37 363d 3661 043d 3f31 6abc 1acb 7bbd
00000050: e208 4abd 306c 96bc 4e0b 0fbc b803 b6bb
00000060: 26e6 68bd 9064 8ebb fbb0 b5bd 9c60 6a3d
00000070: 2032 e33b 5565 563c 8e20 023c fb86 4abd
00000080: ba65 34bc b5a0 373d 0cdf 62bd f82c 3b3d
00000090: cf8e bdbc ed74 593c c107 c1bc c312 91bd
000000a0: f00f 2ebd 5e56 943c c8f9 6a3d e56a 08bc
000000b0: a4fe 413d ee78 b6bc f013 c6bb 90ba 223d
000000c0: 85f0 303d d9f3 45bd 96bb d2bb a324 25bd
000000d0: cc91 203d 001c 4e3c 25ae 1b3c 1eee fcbc
000000e0: 583d dbbb 7cd5 f0bc 1876 8abd 569a 36bb
000000f0: 408c 123d 20f5 5ebd 5a43 8bbd 740b fbba
00000100: a4ca 13bd eae9 733d 17d3 cabc be2d 4dbd
00000110: 4149 a0bd 2ad2 13bd b82a 9dbc 16ec 353d
00000120: 465d e33c e4f6 5fbd 5830 82bd 0668 8d3c
00000130: 40b0 273d 872f 753c e04f a8bd 0a66 11bd
00000140: 5e80 973b 4718 96bd 6784 72bc 5cce 1c3d
00000150: 02d3 a73c be73 79bd 1ad8 20bd ae53 4d3d
00000160: 7cd2 85bc e035 3cbc 7f09 c9bd 2f68 d4bc
00000170: b8c6 02bd fd06 84bd c6d2 513d 11aa 9c3c
00000180: b995 1bbd 293b 463d 530c 21bd 6d53 233d
00000190: 9932 75bc 38a8 81bc 382d 7bbd 9525 c23b
000001a0: a5ff a03b 0b48 c1bb 5342 09bd c309 263c
000001b0: 6d6c 60bb 443e f9bc 5318 3b3d 0b63 eebc
000001c0: 59ff e8bc 82d5 2cbd 023f 63bd 6da9 f5bc
000001d0: 6054 9dbc 78ea 5dbc 1ff2 043d 1208 53bd
000001e0: 0ba2 8abd 6014 5abb 8b1c 53bd 8329 643d
000001f0: c3f7 9d3c 8d59 2b3d c6c0 e5bc f62e b3bc
00000200: 9733 3d3d a601 35bd 62ad 63bd 7965 5cbd
00000210: c4d6 49bd 70f9 8ebc 0c0d 543d ec0d 793d
00000220: 7548 2d3c 1550 b1bc 83ec 82bb 19e7 d0bd
00000230: 9b19 cb3a eee1 9d3c badc 443d 7382 c03c
00000240: 027a 57bc 1632 00bd 601a b4bc 6e3a a7bc
00000250: 6283 8dbd 8076 1aba 1f6b 7fbc a3ea b0bc
00000260: 7a80 59bd 8e2e 173d 2a79 91bc 6d80 4aba
00000270: ea30 41bd 85d1 e8bc 774b fbbc 4bf0 803c
00000280: a728 6bbd f742 0d3d eadf 49bb 3fff 92bc
00000290: b95b 623d ec19 ae3c b544 08bd 2b8d 3abc
000002a0: a24f 263c e8b6 5c3d 3da7 b5bd e22e a43c
000002b0: 3ebd 0a3d 1a7f 003d 079d 88bd e5a8 9dbd
000002c0: 1cb0 a0bc d198 57bb 5448 7e3d a6db c2bc
000002d0: b617 5dbd eee1 e13a 1d79 c53c 61c2 b7bc
000002e0: f812 d33b ec94 f33c 2314 4c3d 7bae 103d
000002f0: 7828 39bd f86f 833c e42d 3d3d 3f31 65bc
00000300: 88d0 673c 22b6 02bd 8216 7b3d 92d1 303c
00000310: 20ca 97bd 6729 f13c 1b1d 8dbd cc44 d13c
00000320: 1e4e 51bd f831 263d 9cfb 36bd a62f 9b3b
00000330: da62 3dbc b668 67bb 8488 8abd d8bc 6bbc
00000340: 8ecf 183d aae6 19bd f6da 78bd 502b fc3c
00000350: 07bb 76bc 6a15 843c d687 49b9 7412 523d
00000360: ac3d 13bd 1634 c93b 6d3c 4cbd 2212 903c
00000370: db30 d8bc f816 e2bc 03fa e0bc abba 79bc
00000380: 070e 2cbc 64e6 94bc e530 11bc 636d 03bd
00000390: 77c9 20bd 9d8b a5bd 8f96 cbbd 1ebd 243d
000003a0: c8b9 3b3c 5ece db3c 18b2 1cbd f1e5 0ebd
000003b0: ed63 88bd 41e7 883c 1842 80bc 0a1a 89ba
000003c0: fc9c 4f3d 9f68 07bc ea84 12bd 197d 09bd
000003d0: 4f71 6fbd a780 113d ecfb 0bbd 9954 86bd
000003e0: 6c19 ca3c a07e 2b3d 1325 f6bc 1e1b 013d
000003f0: e94f 52bd 7a02 5e3d 1fef d5bc 03ad 423d

l4.weight f4 [1, 256]
-0.036396325 -0.030852089 -0.029046891 0.06965452 -0.0008794195 -0.0015674932 -0.02126452 -0.042450868
0.06495962 0.0012316403 0.00048200772 0.0494501 0.008131277 0.029277693 0.002897324 0.056316435
-0.00034257423 0.0035064036 -0.002175109 -0.0006082001 -0.047482394 -0.054176565 0.025543634 0.014456248
0.02405295 0.041833542 0.04472923 -0.05503745 -0.057280988 -0.02874715 0.0021315967 0.0058739255
-0.047546923 -0.018876908 -0.01579642 -0.022477359 0.00016191942 -0.0427846 -0.04476588 0.045361478
-0.003072372 -0.016515432 -0.045509852 0.01833025 0.00014320023 -0.056624312 -0.049704365 -0.03676565
-0.018298505 0.042199563 0.07187921 -0.032523774 -0.03458587 -0.041821808 -0.038624804 -0.023166142
-0.049823545 -0.06071224 0.07692176 -0.0043727155 -0.0007156262 -0.035928734 -0.018609624 -0.027010055
-0.028972775 -0.0025687963 0.052828077 -0.035656296 -0.000541669 -0.0506593 -0.05336228 -0.03985004
-0.0008902499 0.034882903 -0.038531236 -0.035411008 -0.014792688 -0.0036093958 -0.002420679 -0.0021622337
0.03768806 -0.000984245 -0.055993017 -0.023254383 -0.009895505 0.013891534 0.049570166 -0.03632167
0.06904026 0.029631786 0.03783299 0.014668588 -0.0113727525 -0.021684334 -0.04522947 -0.004453201
0.018644108 -0.017838266 -0.030180898 -0.0006453794 5.7638696e-05 0.053489305 0.020872148 0.019878866
-0.03545244 -0.009768948 -0.034999747 0.04127637 -0.0038724416 0.018101515 0.00088957255 -0.037341382
0.002771071 0.00353006 0.01371198 0.013192836 0.033724528 0.04595772 -0.0042860326 -0.051840853
0.0050401282 0.003966705 -0.00010612279 0.04455957 -0.045933183 -0.0024253004 0.049254544 -0.0037560542
-0.0044268533 -0.016068058 -0.0059429337 0.0079392465 0.057913072 0.032574356 0.0035727695 -0.02007731
-0.049241535 -0.0047675264 -0.04303964 0.027901102 -0.032209553 0.00030740327 -0.021670628 -0.014857346
0.018140862 -0.037971284 0.04465109 -0.050214343 -0.0029652596 -0.0020451737 0.014241393 0.023222806
-0.051585596 0.0005099163 -0.05927415 -0.009887618 -0.052994065 -0.0149571635 -0.03356868 0.00041922132
-0.056452893 -0.039630786 0.009717905 -0.030438296 -0.004170825 0.01697332 -0.020129109 0.0005435916
-0.06735285 -0.04624173 0.0658688 0.0032070144 -0.028899893 -0.013227083 -0.028966025 0.0419933
-0.036905043 -0.004195962 0.054026783 -0.045060474 0.049540214 -0.06195843 -0.014269748 -0.016194444
-0.0006795773 0.015459726 0.0070563206 0.020234125 0.009192981 0.029897809 -0.022052035 -0.0010562522
0.00061837933 0.0106519535 -0.008235201 0.0007160245 0.053421408 -0.03456312 0.0024994954 -0.009455585
-0.00025979534 0.03558746 0.053654447 -0.003504675 -0.0001302011 0.032381464 -0.008061294 0.02516634
-0.041673187 0.058293834 0.05217202 -0.0008890163 0.009761909 -0.0031909358 -0.046637636 0.013599858
-0.043408077 0.022704072 -0.0022788458 -0.025187267 -0.016310185 -0.0047731157 -0.019870607 -0.04608018
0.0011270712 -0.010367222 -0.035997875 0.000256343 0.02227221 -0.002019301 0.044511516 -0.009316929
0.03728807 -0.008446279 -0.00063823105 0.01771264 -0.044215575 0.044467438 -0.0605243 -0.003231535
0.026398562 -0.008019717 -0.006001826 0.012253714 0.052532323 -0.011921751 -0.03964787 0.08392389
-0.0031482014 -0.027501471 0.048725177 -0.022053575 -0.032158602 -0.019178115 0.0016050476 0.02073925
00000000: 5014 15bd 85bd fcbc bff3 edbc 07a7 8e3d
00000010: d888 66ba 5874 cdba ee32 aebc f6e0 2dbd
00000020: 8d09 853d fe6e a13a fbb5 fc39 308c 4a3d
00000030: 0c39 053c c6d7 ef3c 08e1 3d3b 10ac 663d
00000040: 899b b3b9 b1cb 653b 468c 0ebb 9e6f 1fba
00000050: e67c 42bd 3fe8 5dbd e240 d13c e6d9 6c3c
00000060: b10a c53c a659 2b3d ff35 373d f36e 61bd
00000070: 789f 6abd 257f ebbc 42b2 0b3b 0f7a c03b
00000080: 90c0 42bd bfa3 9abc 7e67 81bc 7022 b8bc
00000090: eac8 2939 e83e 2fbd 6d5c 37bd f5cc 393d
000000a0: d959 49bb 5f4b 87bc 8a68 3abd 5229 963c
000000b0: 0528 1639 e5ee 67bd ce96 4bbd 9497 16bd
000000c0: bfe6 95bc 73d9 2c3d 6835 933d a637 05bd
000000d0: eaa9 0dbd 584d 2bbd 0b35 1ebd ecc6 bdbc
000000e0: c613 4cbd 66ad 78bd 2889 9d3d ff48 8fbb
000000f0: dd98 3bba 022a 13bd 3673 98bc 3144 ddbc
00000100: 5058 edbc 4059 28bb 4162 583d 560c 12bd
00000110: cbfe 0dba 2080 4fbd 6892 5abd cc39 23bd
00000120: a95f 69ba 60e1 0e3d eed2 1dbd 220b 11bd
00000130: 085d 72bc 9d8b 6cbb 41a4 1ebb 43b4 0dbb
00000140: cc5e 1a3d c801 81ba ef58 65bd fa7f bebc
00000150: c220 22bc 5199 633c 160a 4b3d 08c6 14bd
00000160: fb64 8d3d 5cbe f23c c4f6 1a3d 8454 703c
00000170: c854 3abc 58a3 b1bc 8942 39bd 28ec 91bb
00000180: 87bb 983c 8e21 92bc ee3d f7bc ae2e 29ba
00000190: 14c1 7138 9a17 5b3d 11fc aa3c 01d9 a23c
000001a0: 9436 11bd f00d 20bc e55b 0fbd 6911 293d
000001b0: cac8 7dbb a149 943c 3432 693a 47f3 18bd
000001c0: db9a 353b 9458 673b 36a8 603c c426 583c
000001d0: bb22 0a3d 2a3e 3c3d d971 8cbb 1357 54bd
000001e0: a927 a53b 22fb 813b 3d8e deb8 1884 363d
000001f0: 6f24 3cbd caf1 1ebb 22bf 493d 2228 76bb
00000200: 230f 91bb 29a1 83bc f1bc c2bb 9d13 023c
00000210: 4236 6d3d b06c 053d 2025 6a3b 2c79 a4bc
00000220: 7eb1 49bd e938 9cbb 554a 30bd da90 e43c
00000230: 2aee 03bd f82a a139 9a86 b1bc 3a6c 73bc
00000240: 259c 943c c787 1bbd 10e4 363d 8ead 4dbd
00000250: cd54 42bb 5208 06bb bb54 693c c13d be3c
00000260: 6b4b 53bd e7ab 053a 73c9 72bd adff 21bc
00000270: 4e10 59bd e40e 75bc 507f 09bd efca db39
00000280: 263b 67bd e453 22bd d937 1f3c bc59 f9bc
00000290: 6aab 88bb a20b 8b3c cde5 a4bc d17f 0e3a
000002a0: 4bf0 89bd f867 3dbd 39e6 863d c62c 523b
000002b0: 78bf ecbc 68b6 58bc 284a edbc 2b01 2c3d
000002c0: be29 17bd 487e 89bb 304b 5d3d 5591 38bd
000002d0: aeea 4a3d 1fc8 7dbd a9cb 69bc 36aa 84bc
000002e0: a925 32ba ca4a 7d3c b538 e73b 09c2 a53c
000002f0: 289e 163c 40ec f43c 78a6 b4bc f171 8aba
00000300: bc1a 223a 8885 2e3c f0ec 06bc 97b3 3b3a
00000310: 68d0 5a3d 0f92 0dbd 93ce 233b 99eb 1abc
00000320: 2435 88b9 28c4 113d c4c4 5b3d b1ae 65bb
00000330: 9786 08b9 6da2 043d 8513 04bc a429 ce3c
00000340: 81b1 2abd 84c5 6e3d 54b2 553d e00c 69ba
00000350: 6af0 1f3c 051f 51bb 1b07 3fbd f0d1 5e3c
00000360: abcc 31bd e4fd b93c b058 15bb 8755 cebc
00000370: f09c 85bc cc67 9cbb afc7 a2bc 92be 3cbd
00000380: 3cba 933a 48db 29bc 8272 13bd c665 8639
00000390: 3674 b63c 4056 04bb b551 363d 08a6 18bc
000003a0: 60bb 183d 4362 0abc f64e 27ba 191a 913c
000003b0: 641b 35bd 7d23 363d 54e8 77bd 29c8 53bb
000003c0: cc41 d83c 2265 03bc f7aa c4bb cdc3 483c
000003d0: 222c 573d 7353 43bc ce65 22bd 4ae0 ab3d
000003e0: 0e52 4ebb c44a e1bc 0d94 473d b3a9 b4bc
000003f0: bdb8 03bd 6c1b 9dbc 7660 d23a 5ce5 a93c
