models/GMI_pretrained/GMI_GPM_channel_predictor_19H_ocean.pt (torch, 544272 bytes, 7 tensors)

l1.weight f4 [256, 12]
00000000: 72f8 e7bc 4ca3 093e c6f2 21be c051 8b3e
00000010: f7e0 1f3e bda9 483c 341a 89be 3c63 59be
00000020: 0c05 5bbe 8216 8e3d 5143 8fbe 7ca3 cf3a
00000030: a5f0 883c 9346 abbe 5ce3 0cbe e10c 55be
00000040: 351e ab3d 7dce 513e 82ea ec3d b1b8 cfbd
00000050: 48c2 e8bd c5fb 77bd 254b 133e 051d ef3d
00000060: e342 123e e620 9c3e efca 623e de43 87bc
00000070: 4323 2d3e 4ab8 a2bd 0461 20be 2cf4 b9bd
00000080: 7de4 5b3e 26b7 0cbe 0ca4 883e 185a b63c
00000090: fb29 6ebe 1778 193e 5837 853e 16c5 913e
000000a0: 258d cb3c 3f19 37bd 2b77 90be 487c 88bd
000000b0: 4d8f 843e 0494 5d3e 4aa6 9d39 09d4 b83d
000000c0: 726b d03d 05f3 773e 9f8e 03be 18ec 8b3e
000000d0: 0af4 51be 10f2 a83d 1dca bd3d a194 38be
000000e0: fe9c 3cbd 7984 3d3e 85b5 ef3d 9e59 abbe
000000f0: 9d7e 8f3d fe26 9e3d 1302 31be ad0d fabd
00000100: b26d 87be b3a5 7ebd 631d 77be 9cba 87be
00000110: 5ae9 8b3e 365f cc3d 04c6 b4bc bccf 86be
00000120: 75b2 21bd 4697 c2bc 7039 23be d90e 743d
00000130: 681a a63e cdf3 29be 5356 4bbe e270 67be
00000140: 7b16 4d3e fa9d ccbc ff4e 183e 04b8 833d
00000150: ed84 c93d 0463 b23d f95c a93d 7659 063e
00000160: c0c7 8cbd cc26 8d3e c11c 433e 813f 19be
00000170: 18d4 463e 3765 d73d 0a47 70bd 9e97 813c
00000180: b3cd 95be 38ab 933d 540e 263d 357a 97be
00000190: 3097 463e 7d8b 0ebe 63d1 083e 57b3 b6bd
000001a0: 88f5 99bd 1efb 093e f6f5 003e 1fb9 f2bd
000001b0: ccc1 153e 3a85 29be 5c54 68be 6253 02be
000001c0: 4c46 42be 27ce 033d f8dc 6dbe 7797 34bc
000001d0: 8ee9 8ebe b3e8 bebb c661 b63d 68f0 013e
000001e0: 5d20 09be b4b0 5abe 39ed 043e 549e 44be
000001f0: c51f 143e 38f1 80be f9ae 303e e2d4 953d
00000200: 6f3d 8a3d ac1c 31bd fa6c 14be 94da 193e
00000210: 6a3b a3bd 4868 6a3e d575 373e 2f2e 2f3e
00000220: 231a ccbd 8816 75bd 3a29 50bd b2ef c73d
00000230: 8b02 97bd 9b82 03bd 1e68 203e 70c7 59be
00000240: 6fec 91be 1a86 943d 8db5 cd3d 548d a9bd
00000250: 6659 043d 681c ee3d e5ff e93c 1546 fe3d
00000260: a3c0 cebc dfed 07bd 04b6 f9bd f223 2ebe
00000270: edce fd3c f1b3 15be 8128 7ebe 505e d0bd
00000280: 967c 073e 818c 18be 80c0 3c3d 3554 463e
00000290: 02eb 61be a963 053e 3b4c 5b3e 758d 87be
000002a0: 4314 f33c f669 653e 5426 3c3e 26e1 06be
000002b0: 0160 a7bd f5e3 433e 2cf7 10be d3ed 6ebc
000002c0: 29b9 5b3d e0cf 023e d306 f7bc 2456 bebc
000002d0: 73da 8cbd 877f 833e cf7b 113e 8d66 4a3e
000002e0: 2dc2 81be a402 d8bd a9fb 8fbc 09bb 043e
000002f0: 6a08 d9bd 0eab 253e 23d1 c03c ccd8 3cbe
00000300: fd05 0f3d cd4c e73e e80a 323e a64b 3d3e
00000310: c1e7 88bd 2c9a ccbe 236e 1e3d f4b9 2fbe
00000320: e70b 7cbe a4a6 433e b067 ad3d 90d5 c0bd
00000330: ab91 50be b206 83be ee9a e4bd 3d04 843e
00000340: 3d51 c13d f020 db3d 9f5b 6abe 4b41 b0bc
00000350: 3608 653e db46 853e 7873 46be 9a16 91be
00000360: 07ab cebd 1e61 9abe 21df 2fbe a4f1 a7be
00000370: f57b 123e 2504 073e de56 6e3e 15b1 84be
00000380: 3d15 7d3e 256d 5f3c f68e c7bd 5561 7f3e
00000390: 1a3f d8bd ea01 8d3e 10cb 86be 9370 84be
000003a0: 46bd 8dbe 92b7 bcbd 20ec 23ba d916 8f3e
000003b0: 8ac0 57bd 861b 313e 1aca 8ebd a215 003e
000003c0: 5ee0 66be 2fc8 043e be13 01be b111 4ebe
000003d0: 066a 1e3e e316 bbbd e817 b23c bdb8 13bd
000003e0: 06df 2d3e bdd1 833e bd70 fd3c 2149 60be
000003f0: 0786 093c badf f93d e68c 5b3e ad59 493e
-0.02831671 0.13441199 -0.15815267 0.27210808 0.15613161 0.0122475 -0.26777804 -0.21229261
-0.21388644 0.06937887 -0.27981046 0.0015841569 0.01671631 -0.3345228 -0.13758606 -0.20805694
0.08355371 0.20488925 0.11568166 -0.10142649 -0.11365181 -0.06054284 0.14384134 0.11675457
0.14283328 0.3049385 0.22147726 -0.016511854 0.16907983 -0.079453066 -0.15662009 -0.09079775
0.2147388 -0.1374174 0.26687658 0.022259757 -0.23258202 0.14987217 0.26018786 0.28470677
0.024847576 -0.04470181 -0.28215918 -0.0666433 0.2589058 0.21638495 0.00030069269 0.090248175
0.101767436 0.24213798 -0.12847374 0.27328563 -0.2050325 0.08249295 0.09267066 -0.18025447
-0.046048157 0.18507566 0.11704544 -0.3346681 0.070065714 0.07722281 -0.17285948 -0.1220964
-0.26450878 -0.06216974 -0.24132304 -0.2650956 0.2732647 0.099790975 -0.022067077 -0.26330364
-0.03947683 -0.023753773 -0.1593988 0.059584472 0.3244202 -0.16596909 -0.19857149 -0.22601655
0.20028107 -0.024977673 0.14873885 0.064315826 0.09839807 0.08710292 0.08269686 0.13120064
-0.06874037 0.27568662 0.19053937 -0.14965631 0.19416845 0.10517352 -0.058661498 0.015819367
-0.292585 0.07210392 0.040541008 -0.29585424 0.19393611 -0.13920398 0.13361125 -0.08920925
-0.075175345 0.134747 0.12593827 -0.11851715 0.14624709 -0.16554728 -0.2268843 -0.1272712
-0.18972129 0.032179024 -0.23228824 -0.01102244 -0.27912563 -0.0058260798 0.089053676 0.12689364
-0.13391252 -0.2135647 0.12981118 -0.19201022 0.14465244 -0.25184035 0.17254247 0.07315995
0.06749999 -0.043240234 -0.14494696 0.15024787 -0.07970317 0.22891343 0.17916043 0.17107461
-0.09965923 -0.05983594 -0.050820567 0.09762515 -0.07373532 -0.032106977 0.15664718 -0.21267486
-0.28500697 0.0725214 0.10044394 -0.08278909 0.03231182 0.11626512 0.028564403 0.12415711
-0.02523834 -0.033185836 -0.1219292 -0.170059 0.030982459 -0.14619423 -0.24820139 -0.10174239
0.1323112 -0.14897348 0.04608202 0.1936806 -0.22062305 0.13026299 0.21415798 -0.2647511
0.029672747 0.22403702 0.18373996 -0.13171825 -0.08172608 0.19129927 -0.14156789 -0.014583069
0.05364338 0.1277461 -0.030154621 -0.023234434 -0.068776034 0.25683233 0.14207385 0.19765683
-0.25343457 -0.10547379 -0.017576056 0.12961973 -0.10597308 0.16178533 0.023537224 -0.18442076
0.03491782 0.45175782 0.17386973 0.18485889 -0.066848285 -0.39961374 0.038679253 -0.17160779
-0.24613915 0.19106537 0.084670424 -0.09415734 -0.20368068 -0.25591046 -0.11162363 0.25784484
0.09439323 0.10699642 -0.22886513 -0.02151551 0.22366413 0.2603062 -0.19379985 -0.28337556
-0.100912146 -0.3015222 -0.1717496 -0.32801545 0.14305098 0.13185175 0.23275325 -0.25916353
0.24715133 0.013636862 -0.097440645 0.24939473 -0.10558911 0.27540523 -0.263268 -0.25867137
-0.27683467 -0.09214701 -0.0006253142 0.2794712 -0.052673854 0.17295656 -0.069721416 0.12508252
-0.22546527 0.12966989 -0.12605187 -0.20123936 0.15470132 -0.09135225 0.021739915 -0.036064852
0.16979608 0.25745955 0.030937547 -0.21902896 0.008393771 0.122008756 0.21440467 0.19663115

l1.bias f4 [256]
00000000: 144d 1a3d 8349 463c 4e00 453e e0a3 95be
00000010: 264e 713e b0fa 553e 8905 b53e 853d a0be
00000020: c562 16be 46e3 76be 910c 03bc 1ae6 2ebe
00000030: b1e1 8cbe e17f 2b3d f6ce 85be 2b58 dcbd
00000040: 7aac 44be 1d31 893e 5ce0 2d3e 041c a93d
00000050: 3597 df3b 498a c5bd a6c7 0dbe e7d1 97bd
00000060: baa2 ebbd c473 01bf 4520 8a3e ff56 8a3d
00000070: fa25 adbe b135 71be ff51 1d3e 4d58 6abe
00000080: 3d38 fdbc e2c9 b83d f81f 47be 26c6 2fbd
00000090: 9352 67be 5d42 aabd be2b d43c 2ffc bd3d
000000a0: 6e5e 94bd 84f4 6fbd f611 8e3d 8e83 733e
000000b0: 18b7 733e f1cd f5bc f17c e63d 84bf 6cbe
000000c0: c7d3 54be 09e4 a03d 7b7d 693d 5852 19be
000000d0: 1ec2 0cbe f513 133d ff22 023d 8992 7fbe
000000e0: 868e bcbc 254e afbe 875b a93d a3ba 4bbe
000000f0: 0855 17be bf98 593e 5b49 243d 85c6 8ebe
00000100: 22ba e4bd d1bd e6bd e0f8 6b3e 04f1 97be
00000110: 64f8 d73c 3770 56be 24ed c83d 4c9b e5bd
00000120: 7d9b 163e 6c98 9e3c e99a 2b3e 2d78 ef3d
00000130: 3b34 a4be 5043 6d3e a0ec 0dbe 0382 2b3e
00000140: 08c0 05bd c083 3bbd 93f2 89be 29c0 513d
00000150: 4ca0 3f3e 8d1b 9dbd 5a8f 5dbc 630d f23d
00000160: efaa 323e 34d9 19be 1210 0cbf c1cf b2be
00000170: 9e8b e2bd c5d7 ea3d 4bb4 e6be 68b4 b5bd
00000180: 4a5b 1fbd 9382 1bbd dd7a 29be 7dc1 d5be
00000190: 15e8 d53e e341 9b3e 78e0 82be 29bd 6d3d
000001a0: 9da3 603e d824 55bd 5d6f 9ebe c332 173e
000001b0: 37d5 01be fac8 86be 67d5 963d cc8d b7bc
000001c0: 92e8 d6bb 8f54 bfbe 89de 373e 53d3 603d
000001d0: 6d8a c23c 1c4a b3be 11cc 3dbd b62b c83d
000001e0: 2b05 ce3d b6ab a0bd 9930 b23e 6059 70be
000001f0: 93c2 47be d65a 5b3e 973b f93d e481 8a3d
00000200: 0f37 62be d6dc b1bd 1a94 adbe 1c8c acbe
00000210: 1d79 1b3d f3e7 fc3d 5abb 7f3e 4ced 133e
00000220: 9105 103e 259c 49be fbf7 e93d 5370 79bd
00000230: 9078 853e 21ac d43d 6e15 693e e238 133e
00000240: 9a09 92bd 018b f8be 3663 a9be 0208 823e
00000250: b5ed 88be e438 3fbd d730 84bd 7270 a23e
00000260: 58bc 7dbe b713 853e fede a53d 7635 643d
00000270: b0fb c73d bbd7 c33c 1ba7 833e 7d00 cb3c
00000280: 43da ac3d e3ba 47be 1cfc d0bd 85ac f93d
00000290: 3394 a8be 52c3 8ebe 488d 0b3e 7909 473e
000002a0: f43d bd3e 5b1a 6fbc 8420 29bd 36fc 90be
000002b0: a173 efbd eb1d 99be 4268 8bbe e982 84be
000002c0: 2014 26be 4215 f1bc 7802 96bd 3273 38be
000002d0: 7bd8 40be 8e05 8a3e 685d 993c 1ad1 febd
000002e0: 0550 66bd 9404 85be f428 8f3e 8e41 20be
000002f0: f91f 42bd 473f 873e 681a 823d f26f 8f3d
00000300: 00fe 823d f50e 873e daf3 a73d baf0 63be
00000310: 0151 2a3e 2408 8a3e 545d 84bd dce6 253e
00000320: 4523 033d 54fe 1ebd d565 743e 471c 0e3f
00000330: 3787 12be 2218 9fbe f07c b83e bdc9 b2be
00000340: 29bf 7fbd 80f1 033f cce6 afbe 312f 10bd
00000350: 7d4c c23c d4c1 3f3e 3956 64bd 541c 7e3e
00000360: f5d1 143c 664c 17be 4289 253d b173 033e
00000370: fb10 6ebd 51a8 583d 75b6 f03c aba3 6bbe
00000380: 28b6 e1bc a131 f33d 6b05 79be c09d 89be
00000390: 14e0 c8bc 8aa3 3ebe 1b91 56bb cb71 b03d
000003a0: d0ce dabd 59e8 823d fad4 013e a89d dbbd
000003b0: 227b d53e e642 043b 2e3a 00be 731b 8c3e
000003c0: 0946 e3be 3ffa cbbd a40f c83d 7d51 df3d
000003d0: 783c 24be 50d2 68be 5274 98bd 3f4d e13e
000003e0: 5a06 c53d ee06 cebd 8669 813d f979 8dbe
000003f0: f52c b53d 6e24 343e 93c2 0c3f 4bc1 6dbe
0.037671164 0.0121024875 0.19238397 -0.2922659 0.23564968 0.20896411 0.35355785 -0.31296936
-0.14686115 -0.24110135 -0.0079986015 -0.17079964 -0.2751594 0.04187 -0.2613446 -0.10759004
-0.1920642 0.26795283 0.16980118 0.08257297 0.006823445 -0.096455164 -0.13845691 -0.074130826
-0.11505647 -0.5056727 0.26977745 0.067548744 -0.33818036 -0.23555638 0.1536331 -0.22885247
-0.030910606 0.09022881 -0.19445789 -0.04291358 -0.22590093 -0.08313439 0.025899764 0.09276616
-0.072445735 -0.058582798 0.069370195 0.23780653 0.23800313 -0.030005427 0.112542994 -0.23119932
-0.20783912 0.07855994 0.057004433 -0.14972818 -0.13745925 0.035907704 0.031771656 -0.24958242
-0.02301718 -0.34239307 0.082694106 -0.19895415 -0.1477853 0.21249674 0.04010902 -0.27885833
-0.111683145 -0.11266673 0.23044157 -0.29676068 0.026363559 -0.20941244 0.09810856 -0.11211261
0.14707752 0.01935979 0.16758312 0.116928436 -0.320711 0.23170209 -0.13859797 0.16748814
-0.03265384 -0.045779943 -0.26942882 0.05120865 0.18713492 -0.076712705 -0.013522947 0.118189596
0.17448018 -0.15024263 -0.5471202 -0.3492413 -0.11061786 0.11466936 -0.45059428 -0.088723004
-0.03890542 -0.037966322 -0.16550775 -0.41749182 0.41778627 0.30323705 -0.2556188 0.058041725
0.21937414 -0.05203709 -0.30944338 0.14765458 -0.12678991 -0.26325208 0.07364922 -0.022406481
-0.0065584863 -0.373692 0.17955984 0.054889034 0.023747647 -0.35017478 -0.04633719 0.09773962
0.100595795 -0.07845251 0.34802702 -0.23471594 -0.19507818 0.2142137 0.12169569 0.06763056
-0.22091316 -0.08684699 -0.33902055 -0.33700645 0.0379573 0.12348928 0.24973813 0.1444599
0.14064623 -0.1968847 0.11424252 -0.060898136 0.26068544 0.103843935 0.22762081 0.14377168
-0.071307376 -0.48543552 -0.33083504 0.25396734 -0.26743856 -0.046685115 -0.06454628 0.31726414
-0.24778879 0.25991604 0.08099173 0.055715047 0.097648025 0.02390658 0.2571343 0.024780506
0.084400676 -0.19504885 -0.10204336 0.121911086 -0.32925567 -0.27883393 0.13628113 0.19437207
0.3696133 -0.014593686 -0.041290775 -0.28317422 -0.11691976 -0.29905638 -0.2722798 -0.25881127
-0.16218615 -0.029429082 -0.073246896 -0.18012694 -0.18832581 0.26957363 0.018721297 -0.12442227
-0.056228656 -0.25980055 0.27960932 -0.15650007 -0.047393773 0.26415464 0.06352693 0.07003774
0.06396103 0.263786 0.08200808 -0.22259799 0.16632463 0.26959336 -0.064631134 0.16201347
0.032016058 -0.038816765 0.23866971 0.555119 -0.14309393 -0.310731 0.3603282 -0.3491954
-0.062438164 0.51540375 -0.34355772 -0.035201255 0.023718113 0.18726283 -0.05574629 0.24815494
0.009083261 -0.14775237 0.040414102 0.12837102 -0.058121663 0.052894894 0.029383877 -0.23011653
-0.02755268 0.118747 -0.24318473 -0.26878166 -0.024520911 -0.18617073 -0.0032740298 0.08615454
-0.106839776 0.06391973 0.126789 -0.1072343 0.41695505 0.0020181476 -0.12522194 0.27364692
-0.4438937 -0.0995984 0.09768608 0.109042145 -0.16038692 -0.22736478 -0.07444061 0.44004247
0.09620352 -0.100599155 0.06318955 -0.2763212 0.088464655 0.17592022 0.54984397 -0.23218267

l2.weight f4 [256, 256]
00000000: fc11 273d 10e8 503c 698f 4ebe 1381 fabb
00000010: 2b2a 58be ca03 483d 6610 85bb 199d 273c
00000020: e79b bfbd 5c18 ca3c 99e2 4e3d a8f2 d83c
00000030: 9aec 293d a817 463d c730 b6bd 4e1a 73bd
00000040: 3e0b 013f 60d2 b2bb fc2a edbc cc11 6cbd
00000050: 56e2 c7ba 1170 5bbd c86d f4bc 40dc 2e3d
00000060: f28a 083d f210 1b3d c024 af3d 6ac4 b5bd
00000070: bf90 363d e774 f9bd 3cbe acbc ba73 113d
00000080: 0cd5 523d 3496 1d3e 9acf 0dbd 37d3 3d3e
00000090: 00ba e7bb ff46 c6bc 98ef 26bd e5de 91bd
000000a0: 301a 9f3c 2890 b4bc f216 123d 4405 063d
000000b0: 82eb 473d 50b9 64bb 33fe 883d 47a0 5dbd
000000c0: ee6b 51bd 4922 3dbd 6c14 13bd 1229 433d
000000d0: 4437 103c 1ae1 1b3a ca13 8e3d e38b 8d3c
000000e0: a0fe d9bc 29a4 213d 1259 633b d47b c9bd
000000f0: c70d c13d 78be 9b3c fc23 c43d a889 06bc
00000100: 852a 653d d194 59bc 66ad b3bf 1e1b 783f
00000110: 73b8 4b3d e0dc 9b3d 97a8 39bd 9b65 72bc
00000120: 9e83 073d 5aac 9b3e 3ade 683b b837 a7bc
00000130: 51dc 93bd 5e40 3f3d b6ce 303d a837 213d
00000140: 7b8f 3fbd 208c 41bc 6ef1 813d a5be 50bd
00000150: 9946 57bd fd93 843c 10e7 c43a b44b 3dbd
00000160: 0605 de3c 3b89 413d af94 833d b15c 7ebd
00000170: c4a3 f2ba c8e2 dcbc 2de0 833d 946c 04bd
00000180: 00ce 3cbd 3289 68bd c36f 1bbb be90 cd3c
00000190: ba15 f9be 2659 9f3c 7965 213e d041 3ebd
000001a0: 5438 1b3d 616e 613f 1f47 973d 0070 cf3a
000001b0: 8083 1dbd 3b7f 30bc 80c6 133b ed04 643d
000001c0: 4e39 73bd c40b 2e3d 6c39 ea3c aeb9 65bd
000001d0: b6c1 c0bb cfb6 9c3d 6cda bebc b76c 4bbb
000001e0: 26ee 153d 773f 7ebd 1328 53be 620d ac3b
000001f0: e4d4 bcbc 08c3 383c 505f d03b 53f5 7dbc
00000200: 25cc 68bf 52bc 1b3d 3691 a13e 193e 8bbd
00000210: f0bb 13bd 1cfc b5bc 20b9 27bd 310b 853d
00000220: 7767 b2bc 1a6b 55bc 3f0b 933d db79 1d3d
00000230: 9ac1 12be 68b5 923c be33 00bd 9230 0cbd
00000240: f0b4 6bbc 5398 373e 5f1b 103e 5019 12bd
00000250: c67f 4dbd 852f 543e f22a 303d 4e79 0bbd
00000260: 1036 0a3c 4a87 253c ee61 05bd 5cdd 7d3d
00000270: e0b3 653b 5a14 f03d 4bd4 71be a523 9bbc
00000280: f42d 5abc 427c 82be 9a70 76bd 0980 33bd
00000290: f2e7 f4bb 32fb fa3d 50e6 53bd e5a6 e2be
000002a0: 6b42 dbbd 1101 193d 1f96 3cbd 9b50 8d3d
000002b0: 9dbc 093d c3c8 9ebc fa5f 40bc 416f 693d
000002c0: 6308 89bd 40f4 083e ce6f c33d 2749 e4bc
000002d0: a096 2a3d de9c 24bd 38e7 0b3c c2d6 06bd
000002e0: 2a14 583d e4a9 613d 8efb 75bd 0cb9 8cbd
000002f0: 1cd9 d23c b089 24bb 6c5d 423d e053 f33c
00000300: 34b2 a5bc 33c9 003d 6832 923d ea67 5dbc
00000310: 39e8 42be aaf0 dd3c c948 113d b522 143d
00000320: 36d1 6c3c 0697 44bd bd35 e0be 8ec2 a2be
00000330: a531 94bd 56e9 91bd d952 90be c8fd 213d
00000340: c03e 8dba b879 53be 6cbd 63bb c09c 2cbd
00000350: fb6e 7e3e 126f 343d 9eba 2ebd 207f a9bb
00000360: f525 8b3c 6243 0ebd 6839 dbbc 0017 39ba
00000370: 095c 80bc ab67 1a3d 72ac 6fbc d449 113b
00000380: a508 9dbb c88b 34bd c0f3 2cbd 8052 103c
00000390: 41ef 01bd 4c4a 05bd f8c0 a03c 7c19 2dbe
000003a0: 7ad8 d6bc c01a 163d 6b7a 1bbd 92dd 313d
000003b0: e03b 8b3e d663 d83c 8c75 fabc 0e6b 08bd
000003c0: 11e7 a4bd 54dc cebc ec21 163d 8fd0 91bd
000003d0: 7021 f8bc a33c 35bd ded2 21bd a0c7 00be
000003e0: f05c 3c3d d94b 883d ab59 05bd f040 84bb
000003f0: 66e7 963d 8879 763d 57d7 7ebd c060 9dbb
0.040788636 0.0127506405 -0.20171894 -0.0076447814 -0.21109836 0.04883174 -0.0040607927 0.010230326
-0.09355908 0.024669819 0.05050907 0.026482895 0.041485406 0.048362404 -0.08896022 -0.059351258
0.5040778 -0.0054572076 -0.02895116 -0.05763416 -0.0015249948 -0.05357367 -0.029837504 0.042690516
0.033335634 0.037857957 0.085519314 -0.08875354 0.044571634 -0.121805005 -0.021086805 0.035510756
0.05147271 0.15389329 -0.034621812 0.18537603 -0.0070717335 -0.024203775 -0.04075584 -0.07122592
0.019421667 -0.022041395 0.035666414 0.032719865 0.048808582 -0.0034900494 0.0668911 -0.05410793
-0.05112832 -0.046175275 -0.035908148 0.04764659 0.008802239 0.00059463235 0.06937368 0.017278617
-0.026610672 0.039463196 0.0034690541 -0.098380715 0.09426456 0.019011721 0.09577176 -0.008211531
0.055948753 -0.0132801095 -1.4037292 0.9691638 0.04973645 0.07610488 -0.045326795 -0.014794732
0.033084504 0.3040493 0.0035532848 -0.020412311 -0.072197564 0.046692245 0.043165885 0.03935972
-0.046767693 -0.011813194 0.06344877 -0.050963063 -0.05255756 0.016183848 0.0015022475 -0.046214774
0.027102005 0.047250014 0.064248435 -0.062100116 -0.0018511941 -0.026963606 0.064392425 -0.03233011
-0.046094894 -0.056771465 -0.0023717738 0.025093433 -0.4864939 0.019451689 0.15761365 -0.046449482
0.037895516 0.8805905 0.07386612 0.0015826225 -0.038455486 -0.010772522 0.0022548735 0.05566876
-0.059380822 0.04249169 0.028591834 -0.05608528 -0.005882467 0.076520555 -0.023297511 -0.003104014
0.03660407 -0.062072244 -0.20620756 0.005250619 -0.023050733 0.011276968 0.0063590184 -0.015500384
-0.909365 0.038021393 0.315561 -0.067989536 -0.036067903 -0.022214942 -0.040948033 0.06496275
-0.021777852 -0.013026023 0.071798794 0.03844629 -0.14331666 0.017908767 -0.031299345 -0.034226008
-0.014386401 0.17929201 0.14072941 -0.03566867 -0.050170682 0.20721252 0.043009706 -0.034051232
0.008435741 0.010103056 -0.032564096 0.061978683 0.003504984 0.11722632 -0.2361614 -0.018937895
-0.01331662 -0.25485426 -0.06016598 -0.043823276 -0.007473939 0.12254943 -0.051733315 -0.44267955
-0.107060276 0.037354533 -0.046041604 0.0690014 0.03362714 -0.01938284 -0.011741633 0.056990866
-0.06691053 0.13374424 0.095428094 -0.027866913 0.041647553 -0.040188663 0.008539014 -0.032919653
0.052753605 0.05509366 -0.060054354 -0.068712324 0.025738291 -0.0025106482 0.047452375 0.02970308
-0.020226575 0.03144188 0.071385205 -0.013513545 -0.19033898 0.027092297 0.035469804 0.03616591
0.014454177 -0.04799559 -0.43791 -0.31789058 -0.072360314 -0.071245834 -0.28188208 0.039548665
-0.0010776147 -0.20651901 -0.0034750355 -0.042141676 0.24847023 0.044051237 -0.04265844 -0.005172625
0.016985873 -0.03473223 -0.026760772 -0.0007060617 -0.015668886 0.03769652 -0.0146285165 0.002216925
-0.0047922903 -0.04407862 -0.042224646 0.008808732 -0.03172231 -0.03254156 0.019623265 -0.16904253
-0.026226271 0.036646605 -0.037958544 0.043424197 0.27194118 0.026414793 -0.030573629 -0.03330522
-0.08051885 -0.025251545 0.036653444 -0.071198575 -0.030289382 -0.04424728 -0.03950774 -0.12576151
0.04598707 0.06655092 -0.032556217 -0.0040360615 0.073683545 0.060174495 -0.062217083 -0.0048027933

l2.bias f4 [256]
00000000: 9bcd a3be d420 d9bc 2b50 e43c c291 b1be
00000010: 79b9 623c 941e 22bd d308 eebd c1a4 1a3d
00000020: 2c51 7f3d 5245 05bd a750 c5ba 9cb8 6ebd
00000030: 789d 10bc a21b 513d 60bf 28bd ddf4 11bd
00000040: 180b c83c 809d a2bd 7871 4f3d ab46 353b
00000050: e438 b2bd 9ce6 8d3b 9f54 4f3c 6c51 903c
00000060: 26f2 debd 5abb b9bd 7610 ddbc e2c6 8bbd
00000070: 6de2 90bd e83e 75be b86b 75bc 9f8d 573c
00000080: 3689 aabc 48b1 62bd 2fc0 463d 6734 8cbd
00000090: 890f 54bd 9462 a0bb 4c1b 153c 6609 b4bd
000000a0: fbcd 65bb 5c7e 203d c452 c0bc 91a8 0fbd
000000b0: c800 5bbc fde8 cabd 82b4 bbbd 20a7 663b
000000c0: 7e01 26bc 5154 2b3d aadb 603d 3561 94bd
000000d0: d27f 38bd daa3 3ebd cc65 1fbd 49ce 2abe
000000e0: 8292 a2bd 934b 053d 3295 c43c 8e6c 2c3d
000000f0: 59e8 933c de34 e7bc 41f9 42bd 4884 3fbc
00000100: e140 6c3d 2c2e 283d c253 febb 365c c23c
00000110: 4937 37bb 4301 983c 219c e4bd 31dd a7bd
00000120: 3fda 8fbd a0cb 98bd 8c8f 8dbd 2126 d2be
00000130: 08b3 8fbd 32be 84bd fb51 183c 7538 7a3d
00000140: 72d2 4dba 9450 8e3c a81a d5bd c0f0 34bc
00000150: dabd 02bd f166 28bc 9ecf 573d be01 873c
00000160: 8e0a 8bbd 5365 a6bd e159 2c3c af33 b9bb
00000170: a438 133d 440f e6bc 5d23 87bd b8ff f5bb
00000180: c334 67bd c0b9 0d3d 3411 36bd 0a06 7a3d
00000190: 9c9a 7b3c 8054 4bbd 0007 673a 3993 2a3d
000001a0: 4925 b43b 2f17 1f3d 7d66 27be 9b3b 76bd
000001b0: 1c61 4c3c ed78 a1bd fb48 b6bb 3c02 d9bd
000001c0: a883 febd dfe0 043c 624f 383d 607c 96bb
000001d0: ae27 a83c a498 12be f073 753c 2409 84bc
000001e0: 03d8 09bd a603 32be f1aa 2a3d 682f 4cbd
000001f0: 7aa4 95bc 1f21 0abd 1515 51bd ed8e 513d
00000200: 817e 4abc 0d08 373c 194a 78bd c939 25be
00000210: 9b87 78bd a011 1a3c ea72 2fbd 53d7 67bb
00000220: cfee ed3c 7929 ef3c 2369 5ebd abbf a4bd
00000230: 450a cfb9 aad4 f8bc cc98 303d 75ee 4aba
00000240: d5d9 4ebd fbf5 85bd 2893 24bd 1670 85bc
00000250: e87e 343d 46a2 87bc af60 e135 7f41 bebd
00000260: d88a d93c 688d 723d 66a2 ffbc f486 ac3d
00000270: c87f 313c cb4e a1bd 79b3 e7bb 3ae4 4f3d
00000280: 7597 143d b0e2 babc ea51 a33c 5a41 50bd
00000290: 0071 7ebd 8a49 eabd 8cb1 0bbe 1955 afbc
000002a0: fc47 a5be 9656 8bbd 1d96 edbe 800f 07bd
000002b0: e422 053d 3777 b6bc dfeb 7ebd f26d 8bbd
000002c0: d2d5 b6bd 8056 dd3c 4aea 3abd 79fe 3a3d
000002d0: 477c d43b cac1 313d a287 623d ca38 95bd
000002e0: 8370 25bd f136 713c 0ffc 07bd 0499 e13c
000002f0: 37b3 003d 384d 9fbd 806b 4dbc 3aad 14bd
00000300: 483c 24bd 7c16 b0bd f739 98bd aaa2 0abb
00000310: c885 98bc b58c 3bbd 91f1 30bd d486 73bd
00000320: 4608 18bd 7c64 d0bd fbd0 16bd 12b2 2fbd
00000330: cc03 043d 07bf c2bb 37ed eebc 8f9f dbbd
00000340: d862 c33c ba6e 1f3d e00d 8ebd e8fd 543d
00000350: e94a 7cbc fc95 7a3c 808d 973c b535 08be
00000360: a4b6 32bd 68c5 c3bc 31b9 b9bc 5b21 013c
00000370: 7bc3 14bd f8dd 85bd 0a07 dfbd 8b6f 333d
00000380: fe00 323d c080 24bd 8a12 013c 1e4a 57bd
00000390: 7e18 af3c 5717 363c bce8 8b3c 6737 e3bc
000003a0: c65e b7bd d8cf 96bc 5030 04bd eaba 35bc
000003b0: 7181 043a d966 693c 2028 b93b 3824 f03c
000003c0: 76fd 543c a8cf 463c 2fcb 37bd 8ccb ff3c
000003d0: 4ed7 233c c996 6abd cb86 0b3c 352a 25be
000003e0: b320 3d3d cf50 b3bc 6538 ae3c 1d31 173d
000003f0: a56d 683d 0bfa f03b 27bc bf3c bf68 573d
-0.31992802 -0.026504911 0.027870258 -0.34681517 0.013838165 -0.039579943 -0.11622777 0.037754778
0.06233327 -0.032536812 -0.0015053943 -0.058281526 -0.008826606 0.051051743 -0.041198134 -0.03563391
0.024419352 -0.07940197 0.05064532 0.002766053 -0.08702257 0.0043304693 0.012654453 0.01761695
-0.1088603 -0.090689376 -0.026985388 -0.06825043 -0.07074437 -0.23949778 -0.014979295 0.013156324
-0.02081738 -0.05534485 0.048523124 -0.068459325 -0.051772628 -0.004894564 0.009100746 -0.08790855
-0.00350654 0.039183006 -0.023476966 -0.035072867 -0.0133668855 -0.0990772 -0.091652885 0.003519483
-0.010132192 0.041828457 0.054896988 -0.07245103 -0.045043774 -0.04654298 -0.03891544 -0.16680254
-0.079381004 0.032542776 0.023996923 0.042095713 0.018055128 -0.028223451 -0.04760099 -0.011689253
0.05767906 0.041059658 -0.0077614496 0.02372561 -0.0027956537 0.01855529 -0.11162592 -0.08196486
-0.07024049 -0.074607134 -0.06912145 -0.41044715 -0.070165694 -0.064815894 0.009296889 0.061088998
-0.0007851488 0.017372407 -0.10405475 -0.011043727 -0.031919338 -0.010278449 0.052688234 0.016480323
-0.067891225 -0.08124795 0.010519476 -0.005651913 0.03594269 -0.028083451 -0.06598542 -0.0075072907
-0.056446802 0.034600973 -0.04445 0.061040916 0.015356686 -0.049641132 0.0008812994 0.04164431
0.005497609 0.03884047 -0.1634769 -0.060115438 0.012474325 -0.07884393 -0.005562899 -0.10596129
-0.12427455 0.008110254 0.04499758 -0.0045924634 0.020526733 -0.1431604 0.014981255 -0.01611764
-0.03365327 -0.17384204 0.04166693 -0.049849898 -0.018266905 -0.033722993 -0.051045496 0.051161695
-0.012359262 0.011171353 -0.06061754 -0.16135325 -0.0606762 0.009403616 -0.0428342 -0.0035376146
0.029044537 0.02919458 -0.054299485 -0.0804437 -0.00039489768 -0.030374844 0.04311447 -0.00077412213
-0.05050071 -0.06541058 -0.0401794 -0.016288798 0.04406634 -0.01655687 1.6791945e-06 -0.09289836
0.026555464 0.059216887 -0.031205367 0.08424178 0.010833688 -0.07876357 -0.0070709554 0.050754763
0.036277253 -0.022813171 0.01993652 -0.050843574 -0.062119484 -0.11439808 -0.13641948 -0.021402882
-0.32281482 -0.06803624 -0.4640359 -0.032973766 0.032503977 -0.022273643 -0.062236663 -0.0680808
-0.08927502 0.027018785 -0.04563359 0.04565284 0.0064845416 0.043397702 0.05530513 -0.07286222
-0.040390503 0.014722572 -0.033199366 0.027538784 0.031420913 -0.077784 -0.012537837 -0.036298014
-0.04009655 -0.085980386 -0.07432931 -0.0021154084 -0.01861848 -0.045788486 -0.043199126 -0.059454754
-0.037117265 -0.10175416 -0.036820393 -0.04289443 0.032230183 -0.0059431824 -0.029165847 -0.10723793
0.023850843 0.038923956 -0.0693624 0.051999956 -0.015398719 0.015294548 0.01850009 -0.13301738
-0.04363121 -0.023897842 -0.022671314 0.007881488 -0.036319237 -0.06536478 -0.108900145 0.043807548
0.043457977 -0.040161848 0.007877955 -0.052560918 0.021373983 0.011113963 0.01707875 -0.027736379
-0.089536235 -0.018409654 -0.032272637 -0.011091927 0.00050546887 0.014245712 0.005650535 0.029314145
0.012999883 0.01213447 -0.044871505 0.031224988 0.010000063 -0.057272706 0.008516024 -0.16129382
0.046173763 -0.021889118 0.021267125 0.036912072 0.05674519 0.007354026 0.023405148 0.052590128

l3.weight f4 [256, 256]
00000000: bbb2 49be f4e5 f1bc 2057 c8bc 62e9 89be
00000010: a1eb 45bd 6b69 74bd c002 373d 4c21 823d
00000020: 5028 313d 4a75 3bbd 3446 8dbc 68d9 703c
00000030: 4623 693d e99c 543d 7430 48bd 7fc8 c1bc
00000040: 7030 fe3b 5e98 b2bc ce7e 2d3d 54b8 1a3d
00000050: 43a2 413d 3ef8 17bc 1449 35bd ce05 5f3d
00000060: 486b 883b f899 14bd 6a97 3dbd 9517 083d
00000070: 9f32 0dbe 1511 fdbd d817 5ebd 43c9 2bbd
00000080: abe2 bdbe 62af 87bc fb54 7b3d 2fd7 17bc
00000090: 706e bc3c a0e7 dabb 7165 683d 0f91 f5bc
000000a0: ca1e 5ebd 661a 3abd 6a71 4ebd f384 7a3d
000000b0: aa37 7bbd 67d2 1cbd 83d8 583d da3a 76bd
000000c0: 70ca a8bb 4c4f 94bc 9695 683d 573e 98bc
000000d0: a04d bfbb 385e 473d 72fc 2bbc fdf1 febd
000000e0: 5878 65bd 91e7 88ba 090a 37ba 0486 88bc
000000f0: e956 cdbc bf32 54bd 096a 15bd c9e4 0f3d
00000100: 1844 7f3c d80a 69bd a1c9 0cbb fdfe 23bd
00000110: e49d 13bd 4fb1 5bbd 8f1b 28bd d70a a5ba
00000120: 0eba 09bd 3e20 d5bc d0e3 b33c b8f3 083f
00000130: 6035 3c3b bebe 5c3d b876 cebc 9ccf d6bc
00000140: a473 983c 1ca5 54bd 62a5 10bc b017 c83b
00000150: 641c f03c d815 6dbc 8695 5abd 6986 38bd
00000160: b638 6dbd 087c 57bd 0e27 46bd 2880 10bd
00000170: 06ef 823d 76ae 34bd 5ee4 99bc b604 53bc
00000180: 3c1b bcbc c384 dfbb a5c4 ab3c 8cf5 563d
00000190: 1872 453d c256 5ebd 144e 4ebd 9e56 6c3d
000001a0: 58a5 f83a 7648 4dbd ee1d 693d a2ca e3bc
000001b0: 0736 52bd e8eb ee3b 2176 f23c 1281 333d
000001c0: 1471 90bc 7061 8ebb 2750 eb3b 106f a83c
000001d0: 6cf0 1bbd 2b3b 593d 1ce3 de3c 2079 88bb
000001e0: e0ac 683c eef9 ebbd 9b8e 2d3d fd95 47bd
000001f0: f646 5cbc 9e70 a5bc 296a 183d 8cc9 773d
00000200: 0632 1a3d f0fe 67bc 2a2e cbbc 3fc9 4e3d
00000210: acaf d8bc f6d7 d2bb 1387 6b3d c4ae 483d
00000220: 7276 85bc 7b58 273d f6d6 123d 0048 6cbd
00000230: 4c38 53bd d011 823c 2883 623d 96a4 47bc
00000240: ffcb 803d 8fff 7bba c069 f03a b1e7 fe3b
00000250: 701f e6bb 177a 833c 005d 5a3d 0e4d 48bd
00000260: 6c17 61bd 82c1 693d 4da7 46bd 4a4b 6ebd
00000270: 4050 a6bc ba62 463a 120d c7bd bc42 593d
00000280: 8f1e 5dbc 9862 6cbd 43d8 a4bc 9e18 493a
00000290: b2fe 7d3d fe22 38bd 1847 21be 74b8 18bd
000002a0: 96bb 5739 00de c7bb 8410 8d3d bbb1 20bc
000002b0: 1689 53bd 1ebd 19bd 89f9 e9bc 9a4e 03bd
000002c0: f5a5 473d 789e 1f3c 6f45 b8bc fc72 c53c
000002d0: f256 1c3d c05c 70bc 4ef8 0f3d fdb3 2fbb
000002e0: 1449 f73b 3fd1 0cbd e88f 4dbd d866 313c
000002f0: 7006 debc 1a12 07bd 944d 1abd 3077 5a3c
00000300: 60e9 22bb 254d ddbb 028c b53c 4f5f c83b
00000310: 4fa9 b63b fbb5 40bc ec43 8c3d 70c8 d03b
00000320: 7060 9cbb fa3e d6bc 509d 4d3d 88cf c6bc
00000330: b826 b43c 48ae 8ebd 48a0 7bbd ec59 613c
00000340: f597 423d faa9 d5bc b028 4fbd 4ed7 7fbc
00000350: 397b a0bc fcc1 063c 2168 133d 4c29 a43c
00000360: 6e57 b7bc 36d9 0d3d 783f 79ba 2266 77bd
00000370: 82b3 0bbd 5a7d 80bd 5dfa 13bc 7d9f 9b3c
00000380: 46b7 d9bc 35a3 f73c ec51 193d 340e 85bc
00000390: 4803 9b3c 3d0b 4cbd af89 403d d018 5fbc
000003a0: a58a d03b be3b 563c c805 1ebc 0524 92bd
000003b0: e0c3 c7bc 0416 963c da05 313d 5844 193c
000003c0: 91fb 893d 0253 51bd 718b 733c c0fa 813d
000003d0: 1414 f93c 2c6e 873c eadb 9a3c f49e 0bbe
000003e0: ae22 0cbd a379 f9bc ce35 393d dd4b 803b
000003f0: cab9 5abd 982d 77bd 6844 20bc cab0 3f3d
-0.19697087 -0.029528596 -0.024455607 -0.2693587 -0.048320416 -0.059670847 0.044680357 0.06354007
0.043251336 -0.045766152 -0.01724539 0.014700271 0.056918405 0.051907454 -0.048874334 -0.023655174
0.007757239 -0.02180117 0.04235726 0.037773445 0.047273885 -0.009275494 -0.044259146 0.054448895
0.0041631795 -0.03627965 -0.046286978 0.033225615 -0.13788842 -0.12356774 -0.054221958 -0.041939985
-0.37086996 -0.016563121 0.06136034 -0.009267612 0.02300188 -0.006680444 0.056737367 -0.029976396
-0.05422858 -0.04543533 -0.05040113 0.061161947 -0.061332382 -0.038286593 0.052940857 -0.06011472
-0.0051510856 -0.018104218 0.05678328 -0.018584413 -0.005838111 0.04867384 -0.010497199 -0.12448499
-0.056022972 -0.0010444989 -0.00069823914 -0.016665466 -0.025065856 -0.051806208 -0.036478076 0.035130296
0.0155802 -0.056895107 -0.0021482485 -0.040038098 -0.036039248 -0.05363589 -0.041041907 -0.0012591732
-0.0336247 -0.02601635 0.021959215 0.53496885 0.0028718337 0.053892843 -0.025203094 -0.026222043
0.01860983 -0.051915273 -0.008828493 0.0061063394 0.029310413 -0.01447054 -0.053365253 -0.04505006
-0.057915412 -0.05260852 -0.04837709 -0.03527847 0.06393246 -0.04411169 -0.018785652 -0.012879541
-0.022962205 -0.0068212464 0.02096779 0.052480265 0.04820451 -0.054281957 -0.05036743 0.057699792
0.0018970175 -0.050117932 0.05691331 -0.027806584 -0.051321056 0.007291306 0.029597344 0.043824263
-0.017632045 -0.0043451115 0.0071811858 0.020560771 -0.03807108 0.053034943 0.027207904 -0.00416483
0.014201373 -0.1152228 0.042372327 -0.048727024 -0.013444653 -0.020195302 0.037210617 0.060494944
0.037645362 -0.014159903 -0.024802286 0.050484892 -0.026450954 -0.006434436 0.057501864 0.048994794
-0.01629183 0.040855866 0.035849534 -0.057685852 -0.05156736 0.015877634 0.05530086 -0.012185236
0.06288909 -0.00096129713 0.0018342063 0.0077790846 -0.0070227906 0.016049428 0.053311348 -0.04890161
-0.054953977 0.05706931 -0.048499394 -0.05817727 -0.020301938 0.0007567812 -0.0971929 0.05304216
-0.013496055 -0.057711214 -0.020122653 0.000767121 0.062010475 -0.044955246 -0.15749776 -0.037285283
0.00020573879 -0.0060994625 0.06887916 -0.009807999 -0.051644407 -0.03753387 -0.02856137 -0.032057382
0.048742253 0.009742372 -0.022494046 0.02410268 0.038168855 -0.014670551 0.03514891 -0.0026810162
0.0075465534 -0.03437924 -0.050186068 0.0108277425 -0.027102679 -0.032976247 -0.03767164 0.013334081
-0.002485834 -0.006753581 0.022161487 0.0061148773 0.0055743824 -0.0117621375 0.068488926 0.0063715503
-0.0047722384 -0.026153076 0.050198853 -0.02426888 0.021991119 -0.06966835 -0.061432153 0.013754349
0.0475082 -0.026082028 -0.050575912 -0.0156152975 -0.019590007 0.00822496 0.035987977 0.020039223
-0.022380557 0.034630977 -0.0009508054 -0.060400136 -0.03410674 -0.06273909 -0.009031859 0.018996948
-0.02657665 0.03022919 0.037431642 -0.016242124 0.018922463 -0.049815405 0.047006305 -0.013616756
0.006364184 0.013075767 -0.009644933 -0.071357764 -0.024385393 0.018321045 0.04321847 0.009354673
0.067374356 -0.051104553 0.014864788 0.06346655 0.030405082 0.016532026 0.018903691 -0.13634855
-0.03421276 -0.030453509 0.045217328 0.0039152936 -0.05339984 -0.060346216 -0.009781934 0.04679946

l3.bias f4 [256]
00000000: 557d cc3d 702a 123c bf14 82bd ad7a 86bc
00000010: 408b 783c 2ae3 bfbc 37e4 403c 7784 603c
00000020: b884 d7bb 9305 c4bc 34b7 6fbd 9f1d 92bd
00000030: f1ae a9bc 6be2 af3b aef5 e3bd a085 88bd
00000040: d9ed 50bd a4f4 903c 58fe 63bd de1f 3e3d
00000050: 7892 e2bc 691c 413d a7bd 0dbd f54a 183d
00000060: c54b f2bc 125c 9e3c 82bd f4bc e756 2fbd
00000070: 4ab6 1bbd 6a18 ebbc 0325 9a3c 7451 81bd
00000080: f759 2abc 4649 ed3b 0721 6b3d cfe9 363c
00000090: 77c8 b8bd a2c8 9cbd 3cf2 463d 958d a2bc
000000a0: 0a1f 20bc f0b4 90bc be86 6bbd 1cec 98bc
000000b0: 670a 8dbd 9f09 7fbd 8ad1 55bd 37c1 07bc
000000c0: c599 84bd b6f5 a23c 92d8 87bd 04e1 78bd
000000d0: 2582 fabc 6149 abbc 9ee9 b5bb 2e9f 8abc
000000e0: 7a81 213c 67bf 65bd c30e b9bc e34e 86bd
000000f0: b32f 49bd 6a90 79bd a30c 9fbd d91d edbb
00000100: 5acf 283d 3a84 61bd 708a 14bd e669 a2bc
00000110: 3d4f 8cbd 68f8 253c 927b a2bd 3579 5abd
00000120: 7b1d 29bd 2dea 79bd e508 68bc 76d8 d93c
00000130: d41f 85bd 88e9 153c 098f 583c 3a15 9cbd
00000140: a2e3 143d 3578 bdbd ed13 e9bc 910d 2bbd
00000150: 8a13 893c 6035 8dbd 3b02 57bd 134d 1ebd
00000160: 4662 0cbc c4ec 363d 381d 87bc a57c f0bd
00000170: 720f 2cbe 337a 1e3c 8253 623c 544b 453c
00000180: d477 1c3d de29 babd c2ac d2bc ab99 123d
00000190: b8b3 9cba fcaa a43c 7afa dfbc e701 a9bc
000001a0: 082b 59bc 145f 063d b75c a1bc bf2b bc3d
000001b0: 1672 83bd 3fa6 68bd 4c88 3abd ebef f2bc
000001c0: 1a29 48bd db34 163b 7462 a23c ffea 30bd
000001d0: 3377 1cbd fb7c 173d 0270 5638 8541 8dbd
000001e0: 5b85 c3bc ff01 34bd 6811 033c 1411 46bd
000001f0: a5cc 6b3c 2411 1e3b acef 65bd 1339 843d
00000200: ad4d 7cbd cb48 483d fe54 48bd e63a 59bc
00000210: 753c 88bc b069 5abd 282d e7bc b6d0 1dbc
00000220: e99d 32bd 30c0 0a3d 03e3 64bd cba1 8bbd
00000230: 10f4 963b 0a46 293d bae7 dd3c 1f02 d0bc
00000240: b84c 4abd b180 1dbd 7d9a 7c38 61de 303c
00000250: 7307 0c3d 7e22 94bd 9a89 e2bb 7ee6 bebd
00000260: bb39 54bd 54ab 233d e0a9 fb3c 7397 37bd
00000270: d52b dd3c d3aa 67bd 4f27 02bd f559 ccbb
00000280: afbe 97bd 0fb8 49bd b5a9 dbbc 9875 f2bd
00000290: 2eb2 b4bc f2b2 78bd 244f e63c fc8d a1bb
000002a0: b010 a53c 2b12 1c3d e261 76bd 0dd2 34bc
000002b0: a020 293d a89d 6b3d 66d4 e5bc ec04 38bd
000002c0: 15fc bbbc fad8 65bd 7c14 0a3d b9c7 353d
000002d0: 24f2 123d 38ca 0a3c b8d9 86bc 24d8 51bd
000002e0: 7ee1 763b 1509 0e3d e152 bb3c aa23 14bd
000002f0: 6db7 5dbd 2dab 41bc 65a5 89bc 5ff5 b2bd
00000300: e905 73bb c53f 07bd c859 d63b 224b f2bc
00000310: 7a39 aebb bea9 7a3d c936 32bd c63e 0fbe
00000320: d29a 5b3d 9eaf 1ebd 1934 503d 2bb0 3cbd
00000330: e557 90be b1cf 733c 114f babc 0e49 c8bb
00000340: fece 4fbd 98c3 2abd 1f5a b0bd 566e f43c
00000350: 6106 87bb 934d 4cbc e0fb 4d3d d086 01bc
00000360: 17c0 10bc 51a1 c3bc da0f e4bc ed21 efbd
00000370: 41b4 38bd 0873 98bb a2e2 8c3d 5f6c 9cbd
00000380: 9395 dabd 21b3 6bbd 721c 40bc ad97 ffbc
00000390: 051e 03bd 07b9 3dbc 3993 18bd fc1f 2b3d
000003a0: 46c9 22bc 83a5 2d3c 5d30 73bd 8ea7 903b
000003b0: c8c6 843b a286 acbd c0a7 ba3c 8690 a3bd
000003c0: 744c 0ebe 2284 40bd 4c85 f2bc d62e c83c
000003d0: 9c92 fdbd b094 c0bb c647 563c e60b 89bc
000003e0: 27ad 8abd 6945 83bd 3766 9dbc 2013 5fbd
000003f0: e6fb 7b3d eef3 6fbd ad74 99bd ef1c b33c
0.09984843 0.008921251 -0.06351613 -0.016415918 0.015169919 -0.02342375 0.011773161 0.013703457
-0.0065771006 -0.02392844 -0.058524325 -0.07134556 -0.020713301 0.0053675673 -0.11130844 -0.06666112
-0.05100808 0.017694779 -0.055662483 0.04641711 -0.027657732 0.047146235 -0.034604695 0.03718086
-0.029577145 0.019331012 -0.02987552 -0.042807486 -0.03801564 -0.028698165 0.018816477 -0.06314364
-0.010397426 0.007241401 0.057404544 0.011164143 -0.09022611 -0.07655455 0.048570856 -0.019842902
-0.009773025 -0.017664403 -0.057501547 -0.018667273 -0.0688675 -0.062265035 -0.052201785 -0.008285812
-0.06474642 0.019892555 -0.066331044 -0.060761467 -0.030579636 -0.020909013 -0.005551531 -0.016921606
0.00985753 -0.05609074 -0.022590047 -0.06558015 -0.049117755 -0.06092874 -0.07766082 -0.007236224
0.04121337 -0.05505774 -0.036264837 -0.019825887 -0.06851051 0.010130025 -0.079337254 -0.05333825
-0.04128788 -0.061014343 -0.014162277 0.026592474 -0.06500211 0.0091499165 0.013217696 -0.07621236
0.0363499 -0.09251443 -0.028451884 -0.041760985 0.01673295 -0.06894946 -0.05249236 -0.038647722
-0.008568352 0.04465939 -0.016493425 -0.11742524 -0.16802767 0.009672689 0.013813855 0.012041885
0.038200215 -0.09090017 -0.025717143 0.03579108 -0.0011955416 0.020101063 -0.027341116 -0.02063079
-0.013254888 0.032805517 -0.01969753 0.091880314 -0.064182445 -0.05679917 -0.04554014 -0.029655417
-0.048867323 0.0022919688 0.019822337 -0.04319286 -0.038199615 0.036984425 5.112589e-05 -0.068972625
-0.0238673 -0.043947216 0.007999755 -0.04835613 0.014392053 0.0024119103 -0.056136772 0.064561985
-0.061597515 0.048897546 -0.04890918 -0.013258671 -0.01663039 -0.053323448 -0.028219774 -0.00963228
-0.043607626 0.03387469 -0.055880558 -0.06817969 0.0046067312 0.04132656 0.027088035 -0.025391636
-0.04938957 -0.038452808 6.022536e-05 0.010795207 0.03418679 -0.07233141 -0.006913376 -0.09321307
-0.05181287 0.039958313 0.030720651 -0.044822168 0.02699844 -0.056559395 -0.03177577 -0.0062363097
-0.07409417 -0.049247798 -0.026814321 -0.118388355 -0.022057619 -0.06071753 0.028113909 -0.004930256
0.020149559 0.038103264 -0.060151942 -0.011036408 0.04129088 0.0575234 -0.028055381 -0.04492657
-0.02294735 -0.056115128 0.03371094 0.044379923 0.035875455 0.008471064 -0.016461238 -0.05123152
0.0037671025 0.03467663 0.022866668 -0.036166824 -0.054130007 -0.011820597 -0.0168025 -0.08738207
-0.003708238 -0.0330198 0.0065414645 -0.029576842 -0.0053169103 0.061197035 -0.04350928 -0.1398879
0.053614445 -0.0387417 0.050830934 -0.046066444 -0.28192058 0.01488106 -0.02274278 -0.0061122244
-0.050734513 -0.04169044 -0.08610939 0.029837769 -0.0041206335 -0.012469667 0.050289035 -0.007905677
-0.00883486 -0.023880633 -0.02783959 -0.11676393 -0.04509378 -0.0046523847 0.06879164 -0.07637858
-0.1067306 -0.057543878 -0.011725532 -0.031200254 -0.03201105 -0.0115797585 -0.037249777 0.04177855
-0.009935683 0.010598543 -0.059372295 0.0044145053 0.004052017 -0.08424117 0.022785068 -0.0798655
-0.13896352 -0.04700101 -0.029604577 0.024436396 -0.12381479 -0.0058771 0.013078636 -0.016729306
-0.067713074 -0.06409723 -0.019213779 -0.0544616 0.061519526 -0.05858224 -0.07492957 0.021864383

l4.weight f4 [1, 256]
00000000: ec39 07be 801f 5b3c 9c7f 413d 7333 9a3c
00000010: daa0 583d b2f3 bb3c 3da5 f23c 77ea d9bc
00000020: 6e38 3b3d d4ae 923c 23c2 303d bc86 293d
00000030: ce0b 9b3d 8fe6 493d 657a ba3c ae88 fa3b
00000040: 09b5 b2bc e3b6 ae3c 9d38 9b3c f869 953c
00000050: 9ba3 07bd c358 e83b d186 503c a346 afbb
00000060: 11b1 56bd de04 fa3b 6a0c 46bc 9df2 523d
00000070: 29dc 253d b5f2 ad3c d947 bd3c a49c 5cbc
00000080: f1ca 153d 75c5 83bc 9494 e3bc 89e9 173d
00000090: 71e0 133d 2b80 523d dc48 713d dcbf 793a
000000a0: 2841 5e3d 0c2d 863d 8cf6 a03d 6f31 263d
000000b0: e1b9 b2ba 8898 083c 3e26 31bd 3a60 5f3d
000000c0: 0bed 023b 1491 943c 2d0e 713d 9155 173d
000000d0: 31da 7b3d aad0 2cba 18bd 633d bcd0 e83d
000000e0: c095 dabb 6bb3 4dbb 41d8 ecbc 2785 9dbb
000000f0: 8606 193b 0053 873a 2aeb 8e3d 747c 143c
00000100: d466 f3bc 4198 34ba 1d3a b33b 7e3f 093c
00000110: d75d b33c 87b8 b7bc 3369 d53c 4049 c03c
00000120: 3b23 ba3c 2aed 473d 8225 30bd ef65 243b
00000130: ce7c 4abd 6c63 36bc b7f7 833d ecd5 693d
00000140: 9282 47bd 85f1 b9ba a6aa 97bd 603c a2bc
00000150: 0b00 933c a524 603d 088f 583a d61e ce3c
00000160: db38 f3bc f5bb 7d3a 9c5f 173d e8b8 203c
00000170: a0a5 c5bc 1f42 b23c 6ab3 a7bb b87e b53a
00000180: eb92 873b 77f8 c73c becd 043a ec89 9abc
00000190: 51ea 733d 7066 a63b 8aea e23c 64b3 913d
000001a0: 9a9c 4d3d 849f 95bc 661e 943d 0fcb 7dbe
000001b0: ca39 3b3d 1697 adbb 6883 af3c 340b 413c
000001c0: 4a73 fe3a 106d f6bc eb4e 8d3a c58a ec3b
000001d0: 2589 cbbd fd85 73bd c465 52bc 37d4 123d
000001e0: 4717 d0ba 3640 e53b a630 3ebb 58f0 1dbd
000001f0: 7963 2bbd 00c8 ca39 f3ea d33c df77 29bd
00000200: 78b4 b93b 703f 5eb8 34c0 14bc d55a 1d3d
00000210: e7f9 643b aaa8 c23c d9ac e3bc 929c 9b3c
00000220: a1c4 1b3c 439e d5bc 7621 383d bfeb 8c39
00000230: 59a5 e5bb e679 ad3c 94ad 973d e453 c93c
00000240: 3535 20bb 4aa2 e4bc eccf 3a3d 7733 5f3d
00000250: 4a82 1abd e3b4 e0bc 02b8 893c 35a7 d6bb
00000260: 837c 043d 8afa 68bc a59d 483d 019f a7b9
00000270: fee7 89bc 1e98 1e3d 3934 da3c c5ee 8d3c
00000280: f3be 013c 64cc c53b 706f 113b 63be dc3c
00000290: 04a4 d23a 6189 a7bc 63f8 08bc 5597 30bc
000002a0: d2b6 733d 4a08 e8bc 56b2 2c3d 1a56 38bd
000002b0: e0a1 e53c c00d 5abd 1ed4 a1bc 26bc 1abd
000002c0: b899 c73c 137a 0c3d 283a 47be 0a2f 0abe
000002d0: 7bc2 4abc 2e8d 233d 450e 8cba fae5 4c3b
000002e0: 7f50 acbc 0568 0e3c 31cf 5fbc f544 ecbb
000002f0: b640 a43c 83fd 213d ee83 373d 11d8 a03d
00000300: 8792 f73b 5534 c3ba 64d8 30bd 88c6 2abd
00000310: 33c8 c03a e0dc 4d3b e1b8 f5bc 8240 3f3d
00000320: 90b1 033b fc02 bf39 dd35 ce3c 3fad 863d
00000330: 6b0e ff3c 0573 9cbc 5eb9 17bb f34a 823d
00000340: 297d 5dbc 842f 05bc 0d7b 113c afd9 363b
00000350: 654a 933c c4b9 39bd 7851 653c 3915 123c
00000360: ee7d fabd 210a 3c3d e713 a1be 6deb e9bc
00000370: 8fe1 203c 9999 583d 912a 18bc 7e4f 4038
00000380: ec5f be3c 3877 743c 9e6d 7fb9 ba55 963d
00000390: c3e6 0abd 3692 8c3b 3926 3c3d 4237 833a
000003a0: 8e4b 1cbd 11f8 2f3b eecd 383d 7ef0 993c
000003b0: a543 55be c4f7 5b3d a09b 45bc a76d 033d
000003c0: 9a6a ad3c a196 0c3b 90ae 473d e8ea babc
000003d0: 3a1d 5c3d 800c f93a 36df ae3b 43f2 8a3b
000003e0: c912 bd3c 1282 49bd 6e71 583d 9eec 863d
000003f0: b04a f03b 40c6 db3a 402c 3a3c aa69 6bbd
-0.13205689 0.013374209 0.04724084 0.018823361 0.052887775 0.022943351 0.029619807 -0.02660106
0.045708112 0.01790563 0.043153893 0.04138826 0.07570611 0.049292143 0.02276344 0.007645688
-0.02181484 0.021327442 0.018947894 0.018239006 -0.03311501 0.0070906593 0.012727455 -0.0053489967
-0.052414957 0.0076299747 -0.012087921 0.051500905 0.040493164 0.021233896 0.023105549 -0.01346508
0.036570493 -0.016085366 -0.027780809 0.03708795 0.036102716 0.05139176 0.058907375 0.00095271855
0.054261357 0.06551561 0.07859525 0.040574487 -0.0013635718 0.0083371475 -0.04324936 0.05453513
0.0019977714 0.018135585 0.05885141 0.036946837 0.06148738 -0.00065923727 0.055600256 0.11367938
-0.0066706836 -0.003138746 -0.028911712 -0.0048071328 0.0023349836 0.0010324419 0.06978448 0.009062875
-0.029712118 -0.00068891427 0.005469574 0.008376954 0.021895332 -0.022426857 0.02605114 0.023472428
0.022721877 0.04881016 -0.04300452 0.0025085171 -0.04943543 -0.011132102 0.06443732 0.057088777
-0.048708506 -0.0014186358 -0.074055955 -0.01980418 0.017944356 0.054722447 0.00082610594 0.025161188
-0.029690197 0.0009679192 0.036956415 0.00980971 -0.024126828 0.021760045 -0.0051178234 0.0013846969
0.004137387 0.02441047 0.00050660584 -0.018864594 0.059549633 0.0050781295 0.027699728 0.07114294
0.050198175 -0.01826454 0.072323605 -0.24784492 0.04570941 -0.005297552 0.021424964 0.011782456
0.0019413021 -0.030081302 0.0010780966 0.007218691 -0.099382676 -0.059453953 -0.012841646 0.035846915
-0.0015876078 0.00699618 -0.0029020696 -0.038559288 -0.04184291 0.00038677454 0.025868868 -0.041374084
0.0056672655 -5.2988005e-05 -0.009079028 0.038416702 0.0034938992 0.023762066 -0.027792381 0.018995557
0.009507329 -0.026076442 0.044953786 0.00026878525 -0.0070082364 0.02117629 0.07406154 0.024576135
-0.0024445776 -0.027909417 0.045608446 0.05449244 -0.03772191 -0.027430004 0.016811375 -0.0065506944
0.032345306 -0.014219889 0.048978467 -0.0003197119 -0.016834255 0.03871929 0.02663623 0.017325768
0.007919061 0.006036328 0.0022191666 0.026946252 0.0016070609 -0.02045125 -0.008360001 -0.010778268
0.059500523 -0.028324265 0.042162262 -0.045003988 0.02803129 -0.05323577 -0.019754466 -0.03777709
0.024365291 0.034296107 -0.19455779 -0.13494506 -0.012375469 0.03992956 -0.0010685405 0.0031265006
-0.021034477 0.008691792 -0.013660238 -0.0072103688 0.020050388 0.03954841 0.044803552 0.078537114
0.007555309 -0.0014892915 -0.043175116 -0.04169324 0.0014708102 0.003141217 -0.029995384 0.04669238
0.002009485 0.00036432582 0.025172168 0.06576013 0.031134805 -0.019097814 -0.002315126 0.06361952
-0.01351861 -0.008129004 0.008879435 0.0027900746 0.01797981 -0.045343176 0.013996474 0.008916193
-0.122310504 0.045908097 -0.31460497 -0.028554643 0.009819402 0.052880857 -0.009287492 4.58504e-05
0.023239098 0.014921002 -0.0002435953 0.0734057 -0.033911478 0.0042898906 0.04593489 0.0010010975
-0.038157992 0.002685074 0.045118265 0.018791433 -0.20826586 0.053703085 -0.01206103 0.032086994
0.021168996 0.0021452087 0.04875046 -0.02281709 0.05373881 0.0019000918 0.0053366674 0.0042403056
0.023080247 -0.04919631 0.05284255 0.065881 0.007333122 0.0016767457 0.011363089 -0.057473816
