models/GMI_pretrained/GMI_GPM_channel_predictor_183+-7V_ocean.pt (torch, 544320 bytes, 7 tensors)

l1.weight f4 [256, 12]
-0.2698679 -0.005384323 -0.18933964 0.18253125 0.11574806 0.0030500714 -0.1802478 0.02174339
-0.14855953 -0.18505739 0.08199084 0.1542749 0.16978642 0.14746633 0.09785741 -0.10212303
-0.11670813 -0.042288028 0.20061827 0.24687605 -0.047613945 0.12689847 -0.10761903 0.0073797037
-0.07938653 0.05501561 0.21509391 -0.09518132 -0.0012066861 -0.10223124 0.06751055 -0.2731728
0.058642615 -0.1830321 0.1125274 -0.24626818 -0.23103021 -0.24945652 -0.2794506 0.021329336
0.197322 -0.18203402 -0.13239989 -0.06388673 0.11431209 -0.12438773 0.16826716 0.19881241
-0.2770066 0.11766272 0.13440368 0.124695346 -0.24052256 0.14672574 0.016646964 -0.26952556
-0.13197295 -0.063484244 0.0001289446 -0.19927157 0.31444234 0.3715807 -0.0767533 0.1388467
0.16825041 -0.15308523 0.02533205 -0.29487172 -0.10380443 0.14238305 -0.25885695 -0.3908395
0.08270179 -0.18515496 0.36184153 0.003880662 0.25671834 0.043303475 -0.11761874 -0.18900992
-0.2578153 -0.2607267 0.24478757 -0.023035428 -0.15164497 0.00028798505 -0.14778675 -0.20811683
-0.08931111 0.08756313 -0.2296497 0.2057548 0.1386807 -0.02640314 0.14329778 -0.18150724
-0.31307316 -0.31298855 0.09636498 0.042801205 -0.12419638 -0.07276353 -0.05947067 0.17753327
0.0555523 0.22547945 -0.27560624 0.24343361 0.21192402 -0.17944911 -0.16473995 0.1676416
-0.015956843 0.045008294 -0.0234369 -0.21869378 0.06963917 0.2868571 0.14925048 0.19015108
0.08150936 0.16586801 -0.029083794 -0.18354125 0.1292721 -0.26220393 0.06973034 0.10034615
-0.090407684 0.011437615 0.043681726 -0.2841867 0.00038498026 -0.27203766 0.01802233 0.084768854
0.052931353 0.21319543 0.19938618 -0.16469467 -0.07953813 0.26520994 0.093054175 0.1008134
0.0069461614 0.1466097 0.14114846 0.030667143 -0.16985233 0.20049214 0.10813386 0.08124449
-0.16367227 -0.09243448 -0.20917693 0.11949886 0.28518662 0.02480402 -0.056094408 0.07243132
0.049262308 0.04893917 0.24380945 -0.064968884 -0.21050929 0.03754372 -0.27037707 0.0824419
-0.17628445 -0.12588881 0.01896869 -0.09283935 -0.11861778 0.1881471 0.17596272 -0.17961164
-0.08718802 -0.16095704 0.12649238 0.022137245 -0.059695017 -0.19054326 -0.24396573 0.15554036
0.16417629 -0.15225951 0.11061172 0.13096212 0.036288768 -0.02592485 -0.09380546 -0.13721281
0.005815219 0.06452542 -0.016882524 0.1852833 0.08263976 -0.19753616 -0.25337937 -0.2504256
0.07330481 0.2560074 -0.086527176 0.27174672 -0.05756972 0.07036232 -0.10132254 -0.094522655
0.17495817 -0.17705992 0.058990847 -0.00873351 0.19644256 -0.21352045 -0.117868505 0.029201677
-0.14173372 0.028529622 -0.12189064 -0.26577836 -0.24442624 0.23086114 0.2458234 -0.23603301
-0.20691097 0.16489716 -0.08545658 -0.2637906 -0.016269388 -0.1740549 0.16276233 -0.016067524
0.006801303 -0.18758073 -0.10471716 0.16951191 0.03885668 -0.26003048 0.11106439 0.0091285
-0.22858888 0.1936041 0.20296383 0.18869647 -0.18870556 0.117843814 0.043125942 0.20600738
0.09716823 0.1738129 -0.114637315 -0.034385204 -0.25364694 0.28072923 -0.056222633 -0.18471071
00000000: 202c 8abe fa6e b0bb 40e2 41be 79e9 3a3e
00000010: 520d ed3d b5e3 473b e192 38be 321f b23c
00000020: fd1f 18be af7f 3dbe d0ea a73d 3dfa 1d3e
00000030: 7edc 2d3e 6a01 173e 7769 c83d e125 d1bd
00000040: ac04 efbd 3636 2dbd e06e 4d3e 13cd 7c3e
00000050: d706 43bd acf1 013e 5e67 dcbd 71d1 f13b
00000060: 6895 a2bd 0c58 613d 9441 5c3e 6dee c2bd
00000070: ab29 9eba 9d5e d1bd f942 8a3d 4edd 8bbe
00000080: 3d33 703d c46c 3bbe c474 e63d ba2d 7cbe
00000090: 2f93 6cbe 8871 7fbe 2614 8fbe dcba ae3c
000000a0: c70e 4a3e 2067 3abe d693 07be 0cd7 82bd
000000b0: 751c ea3d ffbe febd 3a4e 2c3e 7b95 4b3e
000000c0: cfd3 8dbe 27f9 f03d 1ea1 093e 4660 ff3d
000000d0: 8c4b 76be 463f 163e 375f 883c 41ff 89be
000000e0: eb23 07be 0704 82bd 4d35 0739 d90d 4cbe
000000f0: 96fe a03e d33f be3e d630 9dbd d42d 0e3e
00000100: d649 2c3e 60c2 1cbe 2985 cf3c 6df9 96be
00000110: 6b97 d4bd ddcc 113e e688 84be 1d1c c8be
00000120: 8e5f a93d 4399 3dbe 4b43 b93e b452 7e3b
00000130: 9670 833e fc5e 313d 18e2 f0bd d18b 41be
00000140: 5e00 84be f87d 85be 98a9 7a3e cbb4 bcbc
00000150: d248 1bbe b3fc 9639 6955 17be 941c 55be
00000160: bee8 b6bd 4c54 b33d 4a29 6bbe 63b1 523e
00000170: 5002 0e3e 664b d8bc a7bc 123e 09dd 39be
00000180: 204b a0be 0940 a0be 015b c53d 5150 2f3d
00000190: ac5a febd 0c05 95bd 8497 73bd 48cb 353e
000001a0: cf8a 633d 16e4 663e 431c 8dbe a946 793e
000001b0: 9c02 593e 82c1 37be 97b1 28be 3daa 2b3e
000001c0: edb7 82bc 9e5a 383d befe bfbc 43f1 5fbe
000001d0: fb9e 8e3d efde 923e 1ed5 183e f7b6 423e
000001e0: 61ee a63d 4ed9 293e 2341 eebc 3df2 3bbe
000001f0: e85f 043e 983f 86be c8ce 8e3d 4882 cd3d
00000200: aa27 b9bd d664 3b3c 9ceb 323d eb80 91be
00000210: 2dd7 c939 8548 8bbe 91a3 933c 4b9b ad3d
00000220: 8cce 583d e74f 5a3e e42b 4c3e b8a5 28be
00000230: e3e4 a2bd 99c9 873e 3093 be3d 4177 ce3d
00000240: a09c e33b da20 163e 3989 103e a939 fb3c
00000250: c5ed 2dbe d04d 4d3e 4975 dd3d 8363 a63d
00000260: b499 27be 4a4e bdbd 7a32 56be d1bb f43d
00000270: fb03 923e cd31 cb3c 40c3 65bd df56 943d
00000280: 46c7 493d 7074 483d 2fa9 793e 680e 85bd
00000290: bf8f 57be 72c7 193d dd6e 8abe 4dd7 a83d
000002a0: e983 34be ffe8 00be 3a64 9b3c 8f22 bebd
000002b0: e1ed f2bd a2a9 403e 922f 343e 1dec 37be
000002c0: a28f b2bd ecd1 24be 3887 013e 2b59 b53c
000002d0: c382 74bd c61d 43be 27d2 79be f945 1f3e
000002e0: d41d 283e ebe9 1bbe 6688 e23d ef1a 063e
000002f0: 88a3 143d 5a60 d4bc 141d c0bd 8481 0cbe
00000300: 988d be3b e725 843d 384d 8abc e8ba 3d3e
00000310: 093f a93d eb46 4abe f1ba 81be c937 80be
00000320: d520 963d 6713 833e 2935 b1bd 6322 8b3e
00000330: 3ace 6bbd 1f1a 903d 3182 cfbd 1895 c1bd
00000340: 3c28 333e 324f 35be 63a0 713d ff16 0fbc
00000350: 3d28 493e 1ba5 5abe 0b65 f1bd 5b38 ef3c
00000360: a522 11be f4b6 e93c cda1 f9bd 1a14 88be
00000370: df4a 7abe dd66 6c3e 21b9 7b3e a3b2 71be
00000380: 78e0 53be cdda 283e dc03 afbd 900f 87be
00000390: 6147 85bc 733b 32be 2bab 263e 0aa0 83bc
000003a0: 77dd de3b 2a15 40be f375 d6bd 8894 2d3e
000003b0: 2f28 1f3d b722 85be ba75 e33d b48f 153c
000003c0: 3413 6abe 2740 463e c0d5 4f3e a639 413e
000003d0: 083c 41be 1958 f13d d4a4 303d 99f3 523e
000003e0: 2300 c73d 02fc 313e f8c6 eabd 80d7 0cbd
000003f0: 03de 81be bebb 8f3e b449 66bd ce24 3dbe

l1.bias f4 [256]
0.14875934 0.19367912 0.14363106 -0.055900633 -0.06393956 -0.058185246 0.21455123 -0.19169459
0.01764882 0.19072078 -0.14431253 0.096855156 0.34283262 0.47252712 -0.28073415 -0.06306757
-0.1309661 -0.2670933 0.15454648 0.22338109 0.2315881 0.18894728 -0.23756501 0.1463583
0.03051057 -0.23906581 0.018395312 -0.11828029 -0.16090427 0.1874492 0.28075242 -0.23625655
0.024864422 -0.099022314 0.07669827 -0.10343319 -0.31518343 0.07960569 -0.24916996 -0.3143379
-0.24108236 0.12191962 -0.54207474 -0.03324958 -0.23651634 0.20851316 -0.30282196 -0.05125443
0.05097837 0.26481488 0.11123318 -0.27384973 -0.051021248 0.41204953 -0.24644648 0.17593892
-0.20022306 0.06610232 -0.21071057 0.08261388 -0.026029224 0.11199082 -0.0905726 -0.20105836
-0.04615415 0.13527723 -0.13325256 0.24516416 -0.3495936 0.05289946 0.17612979 0.21739763
0.1280435 -0.13570145 -0.15726598 0.068680584 0.23826563 -0.10493991 -0.045977473 0.074048266
0.051341165 -0.033658992 -0.28642336 0.20003098 -0.23704667 0.25681522 -0.16522439 0.10397267
0.022521153 -0.026027022 0.30160314 0.06357464 0.2121244 0.035873085 0.11692876 -0.31186768
0.1368837 0.0827775 0.32521188 -0.0036291457 0.07131028 0.0034723678 0.032015495 0.13313697
-0.3027188 -0.1110943 -0.11972044 -0.30954567 -0.21729165 -0.026265072 0.19025196 0.11450638
-0.34370816 0.055009462 -0.11604966 -0.3168868 0.039965153 0.041000824 -0.07763778 -0.281133
-0.24892068 -0.1336403 0.28574896 0.25452295 -0.23328379 0.32929134 -0.21857063 0.0116152
-0.24311665 -0.09088607 0.22179343 -0.24325678 0.051668413 0.12050311 -0.037178863 0.117021576
-0.17528692 -0.012358596 -0.03583018 -0.22607526 -0.07558323 -0.058224596 0.2377369 0.010744265
-0.21655081 0.06250221 0.107861966 -0.06883597 -0.042127065 0.043281544 0.09210022 0.0118614985
-0.22269848 -0.08829316 -0.25199643 -0.17892796 0.027754871 0.09309131 0.25736275 0.17890595
0.1267978 -0.1355809 -0.20980796 0.23584048 -0.045900762 0.29877406 0.25786144 0.209584
-0.21922147 -0.24023247 -0.24232577 -0.13916501 -0.1529248 0.15685439 0.008339511 0.17046252
0.10132502 -0.023609582 0.11101438 -0.2750431 0.2474981 0.1515804 -0.13228714 0.06518392
-0.080479115 0.05710535 0.0010399244 0.045032848 -0.19759546 -0.0020355834 0.16525997 0.009153889
0.11785845 -0.26954985 0.28429398 0.1375226 0.02108308 -0.28328696 0.04916771 0.11545074
0.1604821 0.22347564 0.16746156 -0.024936516 -0.2719047 -0.03657925 0.13470651 0.28551006
0.11508992 -0.001989849 0.12169431 0.19116487 -0.076645195 -0.0570886 -0.21750762 -0.12195506
0.28593415 -0.18097058 0.28446716 0.1489019 -0.25573078 -0.21651976 -0.18688047 0.26732582
0.10797458 -0.0384261 -0.2166053 0.2367818 -0.12732084 0.23122242 0.041423522 0.07759938
-0.016149081 0.74590147 0.5195727 -0.27295387 -0.23001748 0.1220773 0.12839349 0.17187475
0.06739331 0.19773905 0.024437154 -0.18206061 -0.25692958 0.10544248 -0.26199278 -0.104392715
0.2463197 0.013712836 0.08335238 -0.0038150756 0.12250891 -0.20367937 -0.111046426 0.07985883
00000000: 5e54 183e d253 463e 0514 133e 10f8 64bd
00000010: bef2 82bd a753 6ebd 51b3 5b3e 964b 44be
00000020: 4294 903c 4f4c 433e aac6 13be ff5b c63d
00000030: c287 af3e 13ef f13e 63bc 8fbe 9229 81bd
00000040: fa1b 06be 74c0 88be 6f41 1e3e 03be 643e
00000050: 6e25 6d3e 657b 413e 3e44 73be f3de 153e
00000060: 4ef1 f93c abcd 74be c4b1 963c f03c f2bd
00000070: 17c4 24be aff2 3f3e c8be 8f3e 3ded 71be
00000080: 79b0 cb3c 36cc cabd fc13 9d3d c8d4 d3bd
00000090: b95f a1be 4f08 a33d 6926 7fbe e6f0 a0be
000000a0: 4bde 76be feb0 f93d 69c5 0abf b630 08bd
000000b0: 5731 72be 7984 553e 7b0b 9bbe 2af0 51bd
000000c0: b2ce 503d d195 873e 39ce e33d 0836 8cbe
000000d0: a8fb 50bd 28f8 d23e 775c 7cbe 5529 343e
000000e0: 4607 4dbe a760 873d 83c4 57be 7731 a93d
000000f0: 3d3b d5bc 715b e53d 217e b9bd 3ee2 4dbe
00000100: 220c 3dbd 1d86 0a3e 5c73 08be 500c 7b3e
00000110: effd b2be 1bad 583d 5e5b 343e 7c9d 5e3e
00000120: d61d 033e 52f5 0abe 550a 21be 68a8 8c3d
00000130: e8fb 733e bcea d6bd e052 3cbd 9ea6 973d
00000140: 1d4b 523d 03de 09bd 15a6 92be ecd4 4c3e
00000150: 5dbc 72be 497d 833e 9530 29be a0ef d43d
00000160: 487e b83c 9f36 d5bc ba6b 9a3e 6c33 823d
00000170: 2437 593e a8ef 123d 5978 ef3d 1fad 9fbe
00000180: 3e2b 0c3e 4087 a93d 2c82 a63e f6d6 6dbb
00000190: 200b 923d aa90 633b ae22 033d 0f55 083e
000001a0: f5fd 9abe 6985 e3bd fd2f f5bd c57c 9ebe
000001b0: b481 5ebe d929 d7bc 69d1 423e 5282 ea3d
000001c0: 84fa afbe 9a51 613d 72ab edbd fd3e a2be
000001d0: 80b2 233d 7bf0 273d 8e00 9fbd aaf0 8fbe
000001e0: 10e5 7ebe 01d9 08be b04d 923e d550 823e
000001f0: f2e1 6ebe e098 a83e fbd0 5fbe ae4d 3e3c
00000200: 92f3 78be 7a22 babd d11d 633e 4e18 79be
00000210: 42a2 533d 56ca f63d dd48 18bd 02a9 ef3d
00000220: 6a7e 33be b57b 4abc abc2 12bd 4680 67be
00000230: 61cb 9abd ea7c 6ebd 4d71 733e b708 303c
00000240: 7fbf 5dbe 2901 803d bce6 dc3d dff9 8cbd
00000250: 6e8d 2cbd fd47 313d 0a9f bc3d bb56 423c
00000260: 120b 64be 0bd3 b4bd ad05 81be e438 37be
00000270: 2f5e e33c a8a6 be3d 0dc5 833e 1f33 373e
00000280: 48d7 013e b8d5 0abe e6d7 56be 2b80 713e
00000290: 7002 3cbd eaf8 983e 6a06 843e 309d 563e
000002a0: 987b 60be 80ff 75be 3f24 78be 4681 0ebe
000002b0: 5298 1cbe 709e 203e 72a2 083c ba8d 2e3e
000002c0: 7e83 cf3d e268 c1bc 825b e33d 73d2 8cbe
000002d0: 2470 7d3e e437 1b3e 4876 07be 267f 853d
000002e0: 3cd2 a4bd 4de7 693d 134e 883a 5d74 383d
000002f0: 7756 4abe 6c67 05bb e939 293e 31fa 153c
00000300: c55f f13d 7002 8abe fb8e 913e b9d2 0c3e
00000310: 6cb6 ac3c fd0a 91be 1564 493d 7071 ec3d
00000320: 6b55 243e ccd6 643e 0b7b 2b3e aa47 ccbc
00000330: 1837 8bbe 20d4 15bd 81f0 093e 602e 923e
00000340: 44b4 eb3d 2068 02bb de3a f93d b9c0 433e
00000350: 28f8 9cbd bcd5 69bd 51ba 5ebe 93c3 f9bd
00000360: f665 923e 5a50 39be aea5 913e bd79 183e
00000370: 25ef 82be 5bb7 5dbe 985d 3fbe eede 883e
00000380: c721 dd3d b064 1dbd c8cd 5dbe ee76 723e
00000390: 6560 02be 92c5 6c3e b6ab 293d 6cec 9e3d
000003a0: 144b 84bc 66f3 3e3f b702 053f 9cc0 8bbe
000003b0: b489 6bbe aa03 fa3d 9579 033e efff 2f3e
000003c0: 8105 8a3d 1b7c 4a3e 6d30 c83c 196e 3abe
000003d0: 468c 83be 3af2 d73d eb23 86be d9cb d5bd
000003e0: 3b3b 7c3e ceab 603c a7b4 aa3d 5906 7abb
000003f0: f4e5 fa3d 5391 50be 4f6c e3bd 078d a33d

l2.weight f4 [256, 256]
-0.017546095 0.00017136335 -0.018407702 0.0046504885 -0.0061391443 -0.02770701 -0.04596977 -0.055872887
-0.0540281 -0.059359014 -0.04413513 -0.020460457 -0.04195881 -0.04167089 -0.06035921 0.047418244
-0.05408705 -0.020747028 0.04537317 -0.04145722 -0.06060925 0.0011098683 0.014796577 -0.003567405
-0.020672776 0.014521234 -0.040050074 0.027200885 0.047002703 -0.04816754 -0.019307517 -0.039820783
0.047870375 -0.024651885 0.007302925 0.0050883293 0.03485108 -0.045346446 0.060115673 -0.024561234
-0.044749714 0.060916387 0.02864018 -0.03549671 -0.03737305 0.043284982 0.0073149055 -0.036867023
0.025427096 -0.03067936 -0.010092169 0.04548037 0.029120505 -0.042404145 -0.033963457 0.038083993
0.0062638596 0.01718504 -0.017880492 -0.05853761 0.05665143 -0.032518096 -0.060485832 0.007178746
0.05772341 0.019157149 -0.004926428 0.056038514 0.054266296 0.036597684 -0.04907526 0.03548511
-0.034699373 0.00066833943 -0.02708301 -0.040429786 -0.016249955 -0.047586896 -0.05285518 0.0032728985
0.05207739 0.030347727 -0.024906859 -0.030922368 0.023705274 -0.018845133 -0.04062622 -0.01149971
-0.009246595 -0.036908574 -0.019608028 -0.05769255 -0.01693014 0.025042422 0.02607055 0.030255266
-0.0028479397 0.0095387325 -0.051734976 0.012262978 -0.00653401 0.0010069311 0.05865012 -0.010781199
-0.03984247 0.022526443 -0.0085610375 0.007919572 0.018729754 0.007542841 -0.014656723 -0.048225924
0.014492795 -0.0030710176 -0.050863877 -0.01155328 0.049984068 -0.011419453 -0.035399288 -0.016458519
0.055136472 0.043048143 0.0029503927 -0.042830355 -0.013374627 -0.05666384 -0.049672477 -0.0032492653
-0.024350278 -0.00024460256 0.0560174 -0.018507294 0.027803168 0.0087284 0.009741187 -0.062439524
0.05094868 0.008881934 0.03734658 0.017802559 0.014692545 0.033256777 0.027502418 0.0064236745
-0.0068132207 -0.04049369 0.057721093 -0.021446966 0.05902005 -0.021719024 -0.005851805 0.03580615
0.041326888 -0.060074985 0.041500747 -0.011633575 -0.049405545 0.05799944 0.03720077 0.011662096
-0.013961762 0.055780694 0.039265186 0.009981535 0.007412508 -0.00930053 0.058969714 0.04683304
0.020601861 0.0021606088 0.055835992 0.018455766 -0.026570141 0.006088853 -0.03901893 -0.012022987
-0.004157029 0.035661966 0.040407836 -0.021098219 -0.061335422 -0.026460513 0.040518485 0.013841942
-0.005366273 -0.034213565 0.0169205 -0.035568386 -0.03964445 -0.0066130385 -0.02072747 0.0051772296
-0.037862018 0.04997704 0.015175201 0.048417203 0.046296 -0.058022052 0.047978155 -0.004610434
0.03915669 -0.0021946803 -0.020552173 0.024927706 -0.04999096 0.014811657 0.009635687 0.0051814765
-0.021808095 -0.025042854 0.057988882 0.03728272 0.05207982 -0.049783975 -0.04305064 0.043916836
0.051555634 -0.033837005 0.054337464 -0.042002864 -0.022488594 0.061050333 0.0038316324 -0.05084376
-0.030917346 -0.017963134 0.0070159063 0.04779324 -0.05010151 0.052172147 0.030022703 0.03266734
0.029044539 0.017867282 -0.0553291 -0.045648403 0.03553036 0.040867224 -0.058418997 -0.025634848
-0.012534037 -0.05293929 -0.016183712 -0.03976974 0.039981596 -0.012619443 0.037959114 0.017661974
-0.048961498 -0.04377757 0.0412331 0.049016766 -0.059473567 -0.032753803 0.00070553273 0.019861728
00000000: d4bc 8fbc 00b0 3339 c0cb 96bc 2063 983b
00000010: e02a c9bb d0f9 e2bc cc4a 3cbd f8da 64bd
00000020: 924c 5dbd 7022 73bd 0ac7 34bd b09c a7bc
00000030: 00dd 2bbd 18af 2abd 383b 77bd a239 423d
00000040: 628a 5dbd acf5 a9bc 38d9 393d 0ccf 29bd
00000050: 6841 78bd 0079 913a 586d 723c 20cb 69bb
00000060: f459 a9bc 78ea 6d3c 8c0b 24bd 64d4 de3c
00000070: e885 403d 544b 45bd cc2a 9ebc 1e1b 23bd
00000080: ba13 443d c0f2 c9bc 604d ef3b 00bc a63b
00000090: 02c0 0e3d 32bd 39bd da3b 763d a434 c9bc
000000a0: 7a4b 37bd 7683 793d d09e ea3c 0065 11bd
000000b0: 7c14 19bd 984b 313d e0b1 ef3b e001 17bd
000000c0: 7c4c d03c 4853 fbbc a059 25bc a049 3a3d
000000d0: 208e ee3c f8af 2dbd 441d 0bbd f6fd 1b3d
000000e0: 1041 cd3b a4c7 8c3c 1c7a 92bc 22c5 6fbd
000000f0: 540b 683d b231 05bd febf 77bd b03b eb3b
00000100: 626f 6c3d 74ef 9c3c e06d a1bb a488 653d
00000110: 5646 5e3d 74e7 153d 2403 49bd d658 113d
00000120: ee20 0ebd 8033 2f3a 30dd ddbc b499 25bd
00000130: a01e 85bc 7aea 42bd ac7e 58bd 207e 563b
00000140: 1a4f 553d cc9b f83c 7809 ccbc e850 fdbc
00000150: 9031 c23c 1c61 9abc ae67 26bd 4869 3cbc
00000160: 087f 17bc 722d 17bd 04a1 a0bc 064f 6cbd
00000170: 14b1 8abc c425 cd3c e891 d53c e4d9 f73c
00000180: 80a4 3abb 5848 1c3c 0ee8 53bd a8ea 483c
00000190: 401b d6bb 00fb 833a 1c3b 703d a0a3 30bc
000001a0: dc31 23bd 6089 b83c 9843 0cbc 18c1 013c
000001b0: 246f 993c f029 f73b c022 70bc 8c88 45bd
000001c0: 3073 6d3c 2043 49bb a456 50bd f849 3dbc
000001d0: 18bc 4c3d a818 3bbc d8fe 10bd 04d4 86bc
000001e0: c8d6 613d 4053 303d 605b 413b e26e 2fbd
000001f0: 4021 5bbc 5818 68bd 5e75 4bbd a0f1 54bb
00000200: 3c7a c7bc 003e 80b9 8072 653d 9c9c 97bc
00000210: 78c3 e33c 9001 0f3c 8099 1f3c 96c0 7fbd
00000220: 90af 503d 8885 113c baf8 183d acd6 913c
00000230: 00b9 703c 4238 083d c04c e13c b07d d23b
00000240: 7041 dfbb b6dc 25bd f46c 6c3d 8cb1 afbc
00000250: 02bf 713d 18ec b1bc 80c0 bfbb 78a9 123d
00000260: 6246 293d 3011 76bd b0fc 293d c09a 3ebc
00000270: 785d 4abd d290 6d3d d65f 183d 6012 3f3c
00000280: e0bf 64bc 4c7a 643d 88d4 203d 9889 233c
00000290: a0e4 f23b 4061 18bc 3a8a 713d 00d4 3f3d
000002a0: 3cc5 a83c 0099 0d3b 48b4 643d 8c30 973c
000002b0: a0a9 d9bc 0085 c73b 50d2 1fbd 10fc 44bc
000002c0: b037 88bb 4812 123d b082 253d 2cd6 acbc
000002d0: da3a 7bbd b8c3 d8bc b6f6 253d 50c9 623c
000002e0: 90d7 afbb 8623 0cbd dc9c 8a3c 28b0 11bd
000002f0: 3862 22bd 30b2 d8bb a8cc a9bc c0a5 a93b
00000300: 3415 1bbd bab4 4c3d 68a1 783c 1e51 463d
00000310: e0a0 3d3d 88a8 6dbd be84 443d 2013 97bb
00000320: c462 203d a0d4 0fbb 085d a8bc 3035 cc3c
00000330: 52c3 4cbd 98ac 723c 00df 1d3c 60c9 a93b
00000340: e4a6 b2bc ac26 cdbc c085 6d3d c4b5 183d
00000350: a651 553d 48ea 4bbd de55 30bd 24e2 333d
00000360: 002c 533d ac98 0abd f690 5e3d 320b 2cbd
00000370: 003a b8bc ea0f 7a3d 201c 7b3b 8c41 50bd
00000380: 6046 fdbc 6c27 93bc b0e5 e53b d8c2 433d
00000390: 3e37 4dbd 76b2 553d 2cf2 f53c 30ce 053d
000003a0: d0ee ed3c 685e 923c c4a0 62bd d2f9 3abd
000003b0: 4888 113d 6464 273d c248 6fbd 2c00 d2bc
000003c0: 905b 4dbc ded6 58bd b493 84bc 98e5 22bd
000003d0: bec3 233d c8c1 4ebc 047b 1b3d d8af 903c
000003e0: da8b 48bd 1c50 33bd 0ae4 283d cec5 483d
000003f0: 8e9a 73bd da28 06bd 80f3 383a 10b5 a23c

l2.bias f4 [256]
0.0266397 -0.037684485 0.06245415 -0.04942151 -0.036440693 -0.04434066 0.011208141 0.032713983
0.004155977 0.028628057 -0.0044030724 0.007843245 -0.024752479 0.015666682 0.03397198 0.05584987
-0.03759055 -0.019160263 -0.025096979 0.011773479 0.03959897 -0.029733539 0.031693183 -0.01498732
0.062480364 0.038010273 -0.0499667 -0.062342208 0.04104315 -0.05438404 0.054882877 0.013130785
0.03249022 -0.0416499 -0.038914036 -0.06404366 -0.0032257175 0.05665273 -0.043888103 -0.009980848
0.028999168 -0.0017786026 -0.033198074 0.01546073 0.022121085 -0.04663307 -0.02325415 0.011929527
0.013707494 -0.004120797 -0.010881424 -0.010448733 0.048539408 0.031427708 0.0024781227 -0.069685265
-0.0915245 -0.07146975 -0.04899481 -0.031542853 -0.035341874 0.062016703 0.0029285327 -0.059970018
0.03193488 0.046836462 -0.035469085 0.015364795 0.043534923 0.040482014 0.04635609 0.052381504
-0.017297655 -0.008757433 0.026666483 -0.02261523 -0.027955573 0.03535253 -0.039867304 -0.03226444
0.04993528 0.012785955 -0.050667845 0.079790466 0.008272202 -0.040780127 0.02622525 -0.05760423
0.008898996 0.11913341 0.042966418 -0.015948161 -0.022523465 -0.020927442 0.04249408 -0.0013335395
-0.0535795 -0.04784151 0.054452598 -0.046940744 -0.0055975155 0.055957846 -0.030744368 0.10450119
0.03827922 -0.04577338 -0.049035165 -0.048818976 -0.04010889 -0.06856265 0.022133142 0.012369871
0.056435302 0.013579643 0.082790755 -0.008957758 0.0060657035 -0.040420882 -0.015998418 0.015038208
0.042926155 0.027119264 -0.06443655 -0.0060703764 0.04191442 -0.059606053 0.034322027 0.07361676
-0.0011839643 -0.048958257 0.040106863 -0.008971374 0.052686978 0.05076825 0.03527818 0.009946168
-0.029953051 -0.015873527 0.035882838 -0.038654253 -0.07322908 0.045236267 -0.03009247 0.109731525
-0.039426398 0.05714736 -0.004326179 0.056251112 0.015201676 0.069531776 0.01705427 -0.021044016
0.109597646 -0.0031166375 0.048380032 0.0012862906 0.0059838733 0.043685477 0.055312656 -0.043358605
-0.0005051609 -0.045940246 0.040869743 0.10548265 0.009836305 -0.0075645726 -0.03758386 -0.04305021
-0.0456071 -0.010407505 0.021751538 0.045787737 -0.0374454 -0.04902246 -0.01189914 -0.0022473359
-0.055937216 0.027176198 -0.009650002 0.04886346 0.039928913 0.016778484 0.01658456 0.011616222
-0.018321607 0.010988479 -0.030493919 -0.061295196 -0.023573687 -0.047281865 -0.049931373 -0.04141658
0.021478498 0.085278764 0.0054954435 0.031319097 0.02778111 0.029992871 -0.0009961546 -0.027966939
-0.047754854 -0.052539907 -0.04782917 -0.034617927 0.03600945 -0.048704408 0.092974246 0.036999226
0.03359946 0.03762804 0.050146945 -0.010249163 -0.02070506 0.05008599 -0.032577813 0.022928787
0.07386149 0.042116147 -0.088712074 -0.060180455 -0.053019658 0.0034355181 -0.054732934 0.060537506
0.044424526 0.039269246 -0.023595717 0.043509085 0.009496036 0.092969045 0.01397251 0.038802363
0.061335824 -0.0045731985 -0.044066895 0.10519491 -0.04141985 -0.04035684 0.05767142 0.035031997
0.028068978 0.03689809 -0.004785562 -0.03563697 -0.04073235 -0.051354468 0.0146581335 0.02875683
-0.06163972 -0.05428305 0.046880394 -0.062148582 -0.02868334 -0.036140542 0.00899067 -0.03638035
00000000: 803b da3c 0c5b 1abd eccf 7f3d 366e 4abd
00000010: d642 15bd 8d9e 35bd 5aa2 373c 19ff 053d
00000020: dd2e 883b 6385 ea3c a647 90bb f480 003c
00000030: b6c5 cabc 6a57 803c 3426 0b3d d5c2 643d
00000040: 8cf8 19bd fcf5 9cbc 2e98 cdbc 8de5 403c
00000050: 8832 223d c093 f3bc b6d0 013d 608d 75bc
00000060: 69eb 7f3d a9b0 1b3d e2a9 4cbd 8b5a 7fbd
00000070: dd1c 283d cdc1 5ebd decc 603d 8122 573c
00000080: 7714 053d 1699 2abd 5364 1fbd 5329 83bd
00000090: 8f66 53bb b10c 683d 03c4 33bd b686 23bc
000000a0: aa8f ed3c 0020 e9ba b4fa 07bd 004f 7d3c
000000b0: 4737 b53c 5102 3fbd 7d7f bebc 1074 433c
000000c0: 6695 603c c007 87bb 0048 32bc 2a31 2bbc
000000d0: 42d1 463d 57ba 003d 0068 223b 26b7 8ebd
000000e0: 3271 bbbd bb5e 92bd c8ae 48bd 1433 01bd
000000f0: a4c2 10bd 3a05 7e3d a0ec 3f3b 1fa3 75bd
00000100: 26ce 023d 97d7 3f3d 0848 11bd 9fbc 7b3c
00000110: ad51 323d 78d0 253d e2df 3d3d fd8d 563d
00000120: d0b3 8dbc 567b 0fbc ab73 da3c 9343 b9bc
00000130: 1603 e5bc d1cd 103d e64b 23bd b827 04bd
00000140: f088 4c3d 2f7c 513c 1689 4fbd 2f69 a33d
00000150: 2188 073c 1009 27bd 56d6 d63c 6af2 6bbd
00000160: 18cd 113c 38fc f33d 8efd 2f3d b8a5 82bc
00000170: 2183 b8bc 0770 abbc 460e 2e3d 29ca aeba
00000180: 2e76 5bbd 76f5 43bd b009 5f3d f044 40bd
00000190: 5d6b b7bb 0e34 653d 9ddb fbbc b804 d63d
000001a0: acca 1c3d de7c 3bbd 19d9 48bd 68f6 47bd
000001b0: 3849 24bd 936a 8cbd 9050 b53c 00ab 4a3c
000001c0: b428 673d 277d 5e3c 338e a93d 8fc3 12bc
000001d0: cfc2 c63b 5e90 25bd 1d0f 83bc d162 763c
000001e0: 56d3 2f3d 3829 de3c 4ff7 83bd 02ea c6bb
000001f0: 74ae 2b3d 7a25 74bd 4195 0c3d 62c4 963d
00000200: 402f 9bba 7488 48bd 1847 243d abfc 12bc
00000210: 4dce 573d 5ef2 4f3d da7f 103d 41f5 223c
00000220: 1a60 f5bc 3309 82bc e2f9 123d ec53 1ebd
00000230: 21f9 95bd aa49 393d 7c84 f6bc ecba e03d
00000240: 937d 21bd 5a13 6a3d 9fc2 8dbb 9167 663d
00000250: 7310 793c ad66 8e3d 65b5 8b3c 8064 acbc
00000260: bb74 e03d 8040 4cbb 242a 463d c098 a83a
00000270: 5e14 c43b 8bef 323d 868f 623d cb98 31bd
00000280: c66c 04ba d72b 3cbd 0867 273d 4a07 d83d
00000290: 7428 213c 3ce0 f7bb 89f1 19bd 6b55 30bd
000002a0: 83ce 3abd 3d84 2abc 4830 b23c ec8b 3b3d
000002b0: 5960 19bd c6cb 48bd 9cf4 42bc 0a48 13bb
000002c0: 6c1e 65bd 9ea0 de3c 0b1b 1ebc 0d25 483d
000002d0: 808c 233d 0873 893c 58dc 873c f751 3e3c
000002e0: 3217 96bc 0509 343c 62ce f9bc ac10 7bbd
000002f0: 9b1d c1bc a1aa 41bd d784 4cbd 6fa4 29bd
00000300: adf3 af3c a2a6 ae3d 1f13 b43b 7448 003d
00000310: 3695 e33c 9cb3 f53c 6791 82ba ec1a e5bc
00000320: 989a 43bd 1634 57bd 85e8 43bd 87cb 0dbd
00000330: a57e 133d 467e 47bd 4869 be3d 808c 173d
00000340: 969f 093d dc1f 1a3d e266 4d3d 1bec 27bc
00000350: a89d a9bc f826 4d3d 5070 05bd 27d5 bb3c
00000360: b144 973d fb81 2c3d adae b5bd c87f 76bd
00000370: 242b 59bd 6e26 613b a42f 60bd 2df6 773d
00000380: 7ef6 353d cad8 203d ce4b c1bc 9536 323d
00000390: 4395 1b3c 8e66 be3d f4ec 643c 3aef 1e3d
000003a0: 463b 7b3d c5da 95bb 7d7f 34bd 6e70 d73d
000003b0: dca7 29bd 374d 25bd de38 6c3d b67d 0f3d
000003c0: eaf0 e53c 7422 173d 34d0 9cbb 12f8 11bd
000003d0: f7d6 26bd 1059 52bd ab28 703c 7293 eb3c
000003e0: ee79 7cbd e757 5ebd a805 403d 838f 7ebd
000003f0: 53f9 eabc 1b08 14bd 9a4d 133c 9003 15bd

l3.weight f4 [256, 256]
-0.055798918 0.08569112 0.0137782395 0.022046238 -0.031543322 -0.0013778274 -0.054646946 -0.01905784
0.041223533 0.008332759 -0.02396264 -0.043859273 -0.028598042 -0.0029637502 -0.023544902 -0.025713159
0.024294823 0.025246784 0.062049523 0.061216533 0.02081322 0.026368216 0.054712817 -0.02731432
-0.008097548 -0.04588508 -0.025433198 0.015840404 -0.00010345876 0.039455533 0.022322848 -0.027084403
0.024732567 0.015602723 0.03399878 0.048176467 0.0397916 0.018658511 -0.0003458485 -0.0058070645
-0.050252378 -0.017035283 -0.02529527 -0.010306962 0.0019169822 0.036864467 0.04470256 -0.047280718
-0.04955148 0.036926515 -0.06077072 -0.0499225 -0.013415091 -0.01284419 0.008409202 -0.03319975
0.05463776 0.057200067 -0.01809983 0.011447303 -0.03256219 0.013151959 0.035565376 -0.03168127
-0.010810263 -0.025195181 0.0054927096 0.059643358 0.024486607 -0.010956698 -0.0515595 0.049675487
-0.059301473 0.027928121 -0.040910117 0.0035893992 -0.019969583 -0.036231548 0.034966715 0.039524287
0.040991206 0.024151668 -0.04927033 0.014407645 0.026880257 0.022430435 -0.04966575 0.04742597
-0.019446686 4.2708172e-05 -0.01882635 0.056075945 -0.025131755 0.044288285 -0.01835423 0.023660362
0.053928338 -0.039707825 -0.035489857 0.03715846 0.0037260577 -0.0067755133 -0.03728292 0.04894738
0.05885619 -0.020745032 0.044038303 0.036226273 -0.058553644 0.043347612 -0.0014031455 -0.024113618
-0.053988695 -0.046186395 0.009300448 -0.037165225 0.021487132 0.008750558 -0.060654476 -0.057890274
0.047296733 -0.04997538 -0.020317845 0.06091166 -0.053120255 0.050804615 -0.08720967 0.060193162
-0.034506354 0.00203906 0.023617633 -0.04520134 0.054689784 0.02545803 0.019111685 0.014268525
0.04463131 -0.0033155605 0.056763873 -0.0528633 -0.040126592 -0.012400963 -0.04683397 -0.04281774
0.00037823617 -0.025605002 -0.02781891 0.042248614 0.025644988 -0.0073024193 0.00949454 -0.05144698
0.018638106 0.058705494 0.03149513 -0.011989668 0.00979843 0.029932939 0.012244225 0.04387348
-0.011368863 -0.03105747 0.031425208 -0.050551686 -0.0013292432 0.03708133 0.019029371 0.023223326
-0.004223928 -0.05990857 -0.057079993 0.008701748 -0.01882691 0.014836401 0.0136719495 -0.024642706
-0.044456147 -0.0127942925 0.043535203 0.10267309 0.030902594 0.041582115 0.03727656 0.06203478
-0.01735758 0.03155423 0.014841914 -0.017576143 0.043967925 0.052590147 -0.04072678 0.016418219
0.021182008 -0.0525978 -0.022782959 -0.02179417 -0.02289164 -0.052575797 0.029176354 0.015798703
-0.015587419 0.0052615255 -0.012645721 -0.04959335 0.043043524 0.03169883 0.015075723 -0.031048179
0.008261107 0.061894067 0.0044286577 -0.0076080337 -0.021147817 0.04500083 -0.023604281 0.009256408
-0.009124854 -0.018574962 -0.059076235 0.052432187 -0.000547193 -0.004374437 -0.057371184 -0.060622253
-0.04557097 0.031166568 -0.06007342 0.0057943612 -0.0041294172 0.008618917 -0.015351251 0.03770499
-0.028294161 0.008691512 0.048310436 -0.052733265 -0.044332363 0.038787745 0.0041500553 0.021366127
0.046397366 0.020708464 0.01711031 -0.005597666 -0.019268304 -0.056241557 -0.011155181 0.032218277
0.011815898 0.011311628 0.008158274 0.011738404 0.057778597 0.060214885 -0.016789861 -0.056630597
00000000: 688d 64bd d37e af3d 20be 613c 509a b43c
00000010: 9233 01bd 3798 b4ba 7ad5 5fbd 301f 9cbc
00000020: 02da 283d 2086 083c 4c4d c4bc c8a5 33bd
00000030: 7146 eabc 7a3b 42bb 3de1 c0bc 67a4 d2bc
00000040: f005 c73c 58d2 ce3c a427 7e3d 30be 7a3d
00000050: 7c80 aa3c 2802 d83c 8c1a 603d 48c2 dfbc
00000060: 94ab 04bc fef1 3bbd 4859 d0bc bcc3 813c
00000070: 00f8 d8b8 209c 213d 68de b63c 1ce0 ddbc
00000080: f49b ca3c 90a2 7f3c 4e42 0b3d b054 453d
00000090: 84fc 223d bcd9 983c 0053 b5b9 3049 bebb
000000a0: 70d5 4dbd 948d 8bbc 0738 cfbc 88de 28bc
000000b0: 4043 fb3a 32ff 163d 081a 373d 6da9 41bd
000000c0: 7ef6 4abd 4240 173d b8ea 78bd 897b 4cbd
000000d0: f8ca 5bbc 7070 52bc c0c6 093c 76fc 07bd
000000e0: d8cb 5f3d 9e4a 6a3d 1846 94bc 788d 3b3c
000000f0: ee5f 05bd 507b 573c 00ad 113d 38c4 01bd
00000100: 881d 31bc 2066 cebc 30fc b33b 984c 743d
00000110: 2398 c83c b983 33bc 0e30 53bd 8678 4b3d
00000120: 1ae6 72bd 84c9 e43c 5e91 27bd 203c 6b3b
00000130: 4097 a3bc 8867 14bd 4239 0f3d 38e4 213d
00000140: 65e6 273d b8d9 c53c b0cf 49bd 0b0e 6c3c
00000150: fc33 dc3c 08c0 b73c 506e 4bbd bc41 423d
00000160: a84e 9fbc 8d21 3338 b839 9abc e4af 653d
00000170: 1ce1 cdbc a267 353d 9c5b 96bc 60d3 c13c
00000180: f6e3 5c3d aca4 22bd d05d 11bd 7833 183d
00000190: e030 743b 2005 debb fab5 18bd 0c7d 483d
000001a0: 3013 713d 7cf1 a9bc 8261 343d 0062 143d
000001b0: f2d5 6fbd 448d 313d c0e9 b7ba ec89 c5bc
000001c0: 4023 5dbd f22d 3dbd e860 183c 903a 18bd
000001d0: c805 b03c 805e 0f3c d470 78bd 5a1e 6dbd
000001e0: 38ba 413d fcb2 4cbd 9c71 a6bc 817e 793d
000001f0: a094 59bd 8018 503d fc9a b2bd 1b8d 763d
00000200: 8956 0dbd c0a1 053b c479 c13c 0a25 39bd
00000210: 6502 603d 5c8d d03c 1c90 9c3c 88c6 693c
00000220: 52cf 363d e049 59bb 3c81 683d 3087 58bd
00000230: c85b 24bd 692d 4bbc fad4 3fbd a861 2fbd
00000240: 004e c639 95c1 d1bc 7ce4 e3bc e20c 2d3d
00000250: 7015 d23c 2249 efbb fd8e 1b3c 12ba 52bd
00000260: f1ae 983c 2c75 703d 0a01 013d 5070 44bc
00000270: 9889 203c ec35 f53c 009c 483c aeb4 333d
00000280: 7844 3abc 3c6c febc b8b7 003d 490f 4fbd
00000290: 003a aeba 98e2 173d 7ce3 9b3c d83e be3c
000002a0: e068 8abb b062 75bd b6cc 69bd c791 0e3c
000002b0: e43a 9abc 6014 733c 5000 603c 80df c9bc
000002c0: a617 36bd 279f 51bc f851 323d 4546 d23d
000002d0: 7027 fd3c 0252 2a3d 4eaf 183d 2e18 7e3d
000002e0: 7c31 8ebc 023f 013d 802b 733c d8fb 8fbc
000002f0: b617 343d c468 573d 20d1 26bd 807f 863c
00000300: e485 ad3c ca70 57bd 54a3 babc b089 b2bc
00000310: 4087 bbbc b859 57bd 4003 ef3c 486c 813c
00000320: 6062 7fbc e068 ac3b 0030 4fbc 6622 4bbd
00000330: 684e 303d a2d6 013d 2a00 773c c058 febc
00000340: 9859 073c a284 7d3d 461e 913b d04c f9bb
00000350: 303e adbc ca52 383d c45d c1bc 30a8 173c
00000360: 6980 15bc 852a 98bc ecf9 71bd 22c3 563d
00000370: 8071 0fba 7057 8fbb 0cfe 6abd 0a4f 78bd
00000380: a0a8 3abd 0851 ff3c 8c0f 76bd a0de bd3b
00000390: 1050 87bb 5c36 0d3c d083 7bbc 8c70 1a3d
000003a0: 28c9 e7bc d866 0e3c 2ae1 453d d6fe 57bd
000003b0: da95 35bd e6df 1e3d 30fd 873b 0408 af3c
000003c0: 2a0b 3e3d cca4 a93c ec2a 8c3c a06c b7bb
000003d0: 90d8 9dbc 8c5d 66bd 38c4 36bc 50f7 033d
000003e0: 7897 413c 6854 393c 48aa 053c 6f52 403c
000003f0: 40a9 6c3d e2a3 763d e48a 89bc 7cf5 67bd

l3.bias f4 [256]
0.040344246 -0.008794275 -0.03882979 0.027160808 -0.017824307 -0.032081764 -0.081847616 0.025814567
-0.020119159 0.036617395 -0.05561304 -0.043989796 -0.029190103 0.011624803 -0.0029444147 -0.014923256
-0.0040578023 0.077104524 0.04254164 0.15465723 0.05064329 0.046985645 -0.07125548 -0.017892841
0.015697982 -0.02397959 -0.03326052 0.15939699 -8.6360495e-05 0.018320242 0.007745505 0.009225926
0.07912293 -0.035159986 0.03368689 -0.098708995 -0.039309032 -0.060308836 0.13565792 0.0728521
-0.062411778 0.010662911 0.00087645254 0.018445462 -0.014870933 -0.0423944 0.041584536 0.042412672
0.13005087 0.044384334 -0.06203587 0.058180768 0.047639325 0.034906976 0.043322127 0.028840816
-0.04988448 0.05947195 0.03675495 0.029037865 0.042309813 0.10924193 -0.0074176705 0.020031104
0.052276596 0.012449093 -0.05381793 -0.01724845 0.031298608 -0.01934519 -0.08368277 -0.064731784
0.02255071 -0.019291798 -0.042949513 -0.02403802 -0.040818043 0.01755514 0.060127456 0.029227376
-0.025226345 0.056435205 0.07689111 0.0055755493 0.03464345 0.03359873 -0.061337035 0.041938774
0.03861846 -0.012366032 0.013276546 -0.0054202974 0.027356043 -0.06737454 -0.0382111 0.0018185005
-0.050637845 -0.0047046393 -0.04249838 -0.06275458 -0.003248793 0.03408677 -0.033604678 -0.0211485
0.07270232 0.032872323 0.0061096177 0.010280974 0.07165928 0.04445852 -0.02219156 0.04299831
-0.039895143 0.024875468 0.0058084726 -0.00868523 -0.04063356 -0.026571535 -0.0018889159 0.04637651
-0.007940236 -0.045000542 -0.01693901 -0.05862329 0.04733393 0.03899286 -0.09800866 0.017814707
0.04580261 -0.017981622 -0.031969994 0.042779956 0.029655641 0.02444643 0.052186307 -0.030070355
0.012436 0.075412184 -0.04957795 -0.05094058 -0.023391942 0.12990505 0.00046577683 -0.013903282
0.038926773 0.038230468 0.0010497813 0.071664274 0.01264763 0.02470633 -0.05663806 -0.08073813
0.018617269 -0.06861955 0.15731575 -0.031726424 -0.07896946 -0.054598987 -0.022801384 -0.022546371
-0.0059057777 0.011415368 0.02921577 0.028186029 0.016942274 0.016036307 0.060940824 0.01511116
0.06620272 -0.045772046 -0.061659683 -0.03790361 0.014987942 0.040517516 -0.031848364 -0.0455043
-0.048273318 0.027576955 0.053468756 -0.05232141 0.047217686 -0.06652374 0.034357704 -0.03445573
-0.06266886 -0.091345206 0.14839017 -0.043235682 -0.022688637 0.02969373 6.435473e-05 -0.013093797
0.048290532 -0.039980337 0.019804262 -0.028873926 -0.023654692 -0.0079435045 0.15146366 -0.05727307
-0.020108279 0.030724397 -0.0029617383 0.0019429257 0.07410366 0.07695045 0.047436457 -0.07566896
-0.06454173 -0.00694977 0.047305856 0.038540903 -0.051135026 -0.00577046 0.016263576 -0.050203167
-0.06509909 -0.019106936 -0.049057476 -0.060049966 0.13611567 0.054434326 -0.0024805367 0.0968419
0.03350073 0.050661918 0.07446626 -0.07299499 0.0031255558 -0.007095623 -0.014073917 0.017119784
0.05439222 0.11289544 0.01804546 -0.032526575 -0.04846084 -0.0021436561 -0.01949052 -0.034582056
0.0817442 -0.008586924 -0.048018787 0.054544643 0.086459614 -0.052059643 0.0990293 -0.06649593
-0.054196544 -0.052448902 0.08742071 0.01946851 0.05477226 -0.05362514 -0.05258341 -0.074526705
00000000: 0240 253d dd15 10bc fc0b 1fbd 5880 de3c
00000010: 4804 92bc 2b68 03bd b99f a7bd 1279 d33c
00000020: efd0 a4bc 1ffc 153d 80ca 63bd a52e 34bd
00000030: 1520 efbc f575 3e3c 15f7 40bb ac80 74bc
00000040: 50f7 84bb fae8 9d3d 2540 2e3d 775e 1e3e
00000050: 576f 4f3d 0574 403d 65ee 91bd 0294 92bc
00000060: 0e99 803c d870 c4bc 2f3c 08bd f738 233e
00000070: 701c b5b8 5514 963c 01ce fd3b 5728 173c
00000080: 340b a23d eb03 10bd 44fb 093d f127 cabd
00000090: 8202 21bd 6606 77bd e9e9 0a3e 7b33 953d
000000a0: 7ea3 7fbd 7eb3 2e3c bcc1 653a f01a 973c
000000b0: 37a5 73bc c0a5 2dbd 8c54 2a3d e9b8 2d3d
000000c0: 0e2c 053e 59cc 353d 5319 7ebd f54e 6e3d
000000d0: 7421 433d 9efa 0e3d 8b72 313d 9343 ec3c
000000e0: ab53 4cbd dc98 733d 5c8c 163d d1e0 ed3c
000000f0: 0e4d 2d3d 3cba df3d ee0f f3bb 4518 a43c
00000100: fc1f 563d 48f7 4b3c 3170 5cbd 9f4c 8dbc
00000110: f832 003d ce79 9ebc df61 abbd 1992 84bd
00000120: 44bc b83c d509 9ebc d4eb 2fbd 62eb c4bc
00000130: d230 27bd cccf 8f3c 3548 763d 406e ef3c
00000140: 7ba7 cebc 9a28 673d 1679 9d3d 19b3 b63b
00000150: 4ae6 0d3d d29e 093d 8b3c 7bbd fec7 2b3d
00000160: 642e 1e3d e69a 4abc df85 593c c09c b1bb
00000170: c819 e03c aafb 89bd 3e83 1cbd c05a ee3a
00000180: a169 4fbd 6029 9abb c812 2ebd 7985 80bd
00000190: b4e9 54bb 929e 0b3d 0fa5 09bd 9e3f adbc
000001a0: f4e4 943d 21a5 063d 3033 c83b 8871 283c
000001b0: 1ac2 923d 231a 363d 13cb b5bc ff1e 303d
000001c0: 1769 23bd a3c7 cb3c 0055 be3b 7f4c 0ebc
000001d0: 606f 26bd 8cac d9bc 8095 f7ba 4cf5 3d3d
000001e0: c317 02bc 7d52 38bd aec3 8abc fa1e 70bd
000001f0: 39e1 413d fab6 1f3d c4b8 c8bd 26f0 913c
00000200: 859b 3b3d 324e 93bc f8f2 02bd 093a 2f3d
00000210: 63f0 f23c e143 c83c 4fc1 553d 1b56 f6bc
00000220: 5dc0 4b3c b471 9a3d 4012 4bbd 12a7 50bd
00000230: 75a0 bfbc d405 053e 8233 f439 97ca 63bc
00000240: ae71 1f3d 8d97 1c3d d198 893a b8c4 923d
00000250: 0138 4f3c ee64 ca3c 4ffd 67bd 085a a5bd
00000260: 3e83 983c 6888 8cbd 6117 213e 91f3 01bd
00000270: beba a1bd 30a3 5fbd f8c9 babc 2bb3 b8bc
00000280: 4185 c1bb 8607 3b3c e955 ef3c 63e6 e63c
00000290: 86ca 8a3c 935e 833c 169d 793d cd94 773c
000002a0: 4b95 873d 787b 3bbd dd8e 7cbd d140 1bbd
000002b0: fc8f 753c b2f5 253d 6e73 02bd b862 3abd
000002c0: 3eba 45bd 11e9 e13c 0e02 5b3d fa4e 56bd
000002d0: 5567 413d 993d 88bd aaba 0c3d 7421 0dbd
000002e0: 8858 80bd 3213 bbbd 98f3 173e e617 31bd
000002f0: 85dd b9bc 4440 f33c 2ff6 8638 5d87 56bc
00000300: 4bcc 453d 6cc2 23bd 8c3c a23c 0389 ecbc
00000310: 7cc7 c1bc 7925 02bc 4a19 1b3e 2b97 6abd
00000320: 1eba a4bc bbb1 fb3c b919 42bb c5a9 fe3a
00000330: a9c3 973d 3398 9d3d bb4c 423d 54f8 9abd
00000340: 742e 84bd e5ba e3bb c9c3 413d 11dd 1d3d
00000350: f672 51bd 2016 bdbb 313b 853c d6a1 4dbd
00000360: ac52 85bd 2686 9cbc 7ef0 48bd f4f6 75bd
00000370: e861 0b3e 87f6 5e3d 8090 22bb 0c55 c63d
00000380: 1038 093d df82 4f3d c481 983d 667e 95bd
00000390: 20d6 4c3b 6682 e8bb 4996 66bc ca3e 8c3c
000003a0: 60ca 5e3d b935 e73d 13d4 933c 963a 05bd
000003b0: e07e 46bd 957c 0cbb 95aa 9fbc eaa5 0dbd
000003c0: 8169 a73d 2bb0 0cbc 59af 44bd 346a 5f3d
000003d0: bd11 b13d 7e3c 55bd e0cf ca3d 052f 88bd
000003e0: 32fd 5dbd a9d4 56bd a109 b33d 6d7c 9f3c
000003f0: e158 603d 09a6 5bbd b461 57bd 75a1 98bd

l4.weight f4 [1, 256]
0.00048764798 -0.026108723 0.035502456 -0.037830055 -0.008756986 -0.053885914 -0.021500502 0.0042750114
-0.044191323 -0.006737787 -0.0059563224 0.0012407738 0.00046937354 -0.0020075943 -0.030151712 -0.0010078783
0.0034765303 0.018506255 0.00908137 0.040867887 -0.00052217033 0.004614669 0.0059686354 -0.039553083
-0.0070645753 0.058558397 0.013271719 0.040915094 0.0020456796 -0.028389882 0.0056016147 -0.018010395
0.0319864 -0.011211674 0.024861794 -0.025382554 0.042817734 -0.04569003 0.05623733 -0.00934555
-0.031472296 -0.014412137 -0.00041192424 0.019385995 -0.023854073 0.026419789 -0.0062214658 0.0048025926
0.056879353 0.013198984 0.045721933 0.0460652 0.050513316 0.049175844 -0.0012141169 -0.017088639
-0.047552075 0.03619746 0.0025898835 0.0021867068 -0.059627987 0.065765195 -0.0030747522 0.05279025
-0.03543088 -0.021503843 -0.033323772 -0.0033349982 -0.0007005362 -0.022927243 0.019446623 0.04103231
-0.083455585 0.022476725 0.036481827 -0.03416461 0.03658145 -0.0021607548 -0.012680953 -0.017521396
-0.005182986 0.0057216575 -0.008105395 -0.009734233 0.00751315 -0.00016542467 0.02298911 -0.0047269464
-0.025714697 0.013481705 -0.010037279 0.059609257 0.00080221245 -0.007918546 -0.015104904 0.0018482059
-0.0010317989 0.0019364168 -0.04738415 -0.02431375 -0.0040316773 0.058168337 -0.041799255 -0.02655885
0.046304658 0.03382049 0.05954685 -0.0034757345 -0.0006272809 0.029862728 -0.032200705 -0.014321585
0.025144124 -0.046524312 0.020332403 0.0035361464 0.060877748 -0.022573883 0.05756159 0.004807099
0.03491024 0.009303613 -0.004658152 0.07726596 0.0049477136 0.04063178 0.013161876 -0.04241889
-0.026307518 -0.01959797 0.033213682 -0.011258469 0.05376538 0.0012062878 0.027471296 7.898243e-06
0.042387027 0.06246493 0.030348208 -0.041260205 0.044966545 0.07748063 0.020263696 -0.009203286
-0.006021775 0.02176501 0.008594752 0.02186787 -0.0013123096 -0.027189419 -0.011585827 -0.033284526
-0.03959215 -0.051136356 0.054401238 -0.0005750054 0.013582594 0.036267366 -0.00854148 0.0069353525
-0.04019546 -0.045317102 0.0017837351 -0.025420496 -0.025899198 -0.011906147 0.03797005 0.010862188
-0.0006383308 -0.04594642 -0.046496764 0.0007570014 0.0114013925 0.027365962 -0.0034876645 -0.020272993
0.0061763464 0.057457753 -0.0061609503 -0.058049105 -0.01375103 -0.053051602 0.009099819 0.002906938
-0.01172457 -0.03417946 0.060638543 -0.039331883 0.0038111017 0.0014017856 -0.024919953 0.021711865
-0.052523065 0.004804216 -0.008987095 -0.0014325758 -0.018396623 -0.0036779328 0.03787514 0.012336623
-0.035033192 -0.04366558 -0.015222511 -0.000959433 0.06062702 0.0360874 0.0209074 -0.071836814
0.041240282 0.01903215 0.049153697 -0.015607316 -0.006127787 4.445068e-05 -0.013337597 -0.0074347155
-0.0154999485 0.00679289 0.001778367 -0.00021656802 0.031973384 -0.03112983 -0.031342454 0.05027056
0.050690617 0.0053759567 2.9956766e-05 -0.019325066 0.056510113 0.005445652 -0.029385606 -0.014581259
-0.03754356 0.03655383 -0.002775791 0.021856964 0.043396957 0.026512166 -0.0021826746 -0.0046267584
-0.030534491 -0.0015693754 0.01741397 0.036721952 0.0032176164 0.010166012 0.03774786 -0.02258279
-0.018585403 -0.0077577834 0.06955973 -0.027474053 0.030580143 -0.009688788 0.022130214 -0.022089718
00000000: 01ab ff39 f6e1 d5bc 066b 113d b0f3 1abd
00000010: 7679 0fbc 7ab7 5cbd d221 b0bc 6515 8c3b
00000020: f601 35bd a7c8 dcbb 412d c3bb 76a1 a23a
00000030: 4016 f639 d891 03bb b900 f7bc c91a 84ba
00000040: 80d6 633b 6e9a 973c 07ca 143c 1665 273d
00000050: 42e2 08ba a636 973b 8b94 c33b 6a02 22bd
00000060: f47d e7bb eeda 6f3d a071 593c 9696 273d
00000070: cf10 063b e691 e8bc c08d b73b 898a 93bc
00000080: 2c04 033d 2bb1 37bc f6aa cb3c 13ef cfbc
00000090: a661 2f3d 7825 3bbd 1d59 663d 141e 19bc
000000a0: 18e9 00bd e220 6cbc 89f7 d7b9 61cf 9e3c
000000b0: 9e69 c3bc 506e d83c 70dd cbbb 115f 9d3b
000000c0: 53fa 683d 8d40 583c ec46 3b3d ddae 3c3d
000000d0: 0de7 4e3d 9c6c 493d 0123 9fba 79fd 8bbc
000000e0: f7c5 42bd ca43 143d 09bb 293b da4e 0f3b
000000f0: 7a3c 74bd e7af 863d c881 49bb 973a 583d
00000100: f81f 11bd d428 b0bc 827e 08bd fc8f 5abb
00000110: 30a4 37ba ead1 bbbc 864e 9f3c 7f11 283d
00000120: c3ea aabd 1c21 b83c f86d 153d 31f0 0bbd
00000130: 6ed6 153d 739b 0dbb c6c3 4fbc 0889 8fbc
00000140: 0ad6 a9bb be7c bb3b 7ecc 04bc 557c 1fbc
00000150: df30 f63b d975 2db9 a853 bc3c 80e4 9abb
00000160: a1a7 d2bc 5fe2 5c3c 6673 24bc d628 743d
00000170: 914b 523a cabc 01bc 8f7a 77bc 803f f23a
00000180: 6d3d 87ba 5ecf fd3a e215 42bd a12d c7bc
00000190: 291c 84bb ec41 6e3d b235 2bbd f291 d9bc
000001a0: f4a9 3d3d 5b87 0a3d 66e7 733d 26c9 63bb
000001b0: 1c70 24ba aea2 f43c e3e4 03bd 15a5 6abc
000001c0: 0dfb cd3c 4790 3ebd 2490 a63c b1be 673b
000001d0: f25a 793d ddec b8bc b4c5 6b3d de84 9d3b
000001e0: 0afe 0e3d 2e6e 183c 69a3 98bb 9e3d 9e3d
000001f0: 6e20 a23b 826d 263d e9a4 573c 6ebf 2dbd
00000200: dd82 d7bc ec8b a0bc 120b 083d 7175 38bc
00000210: 1639 5c3d 4d1c 9e3a 7c0b e13c b282 0437
00000220: 059e 2d3d 3adb 7f3d ce9c f83c 7600 29bd
00000230: d72e 383d 2aae 9e3d 0d00 a63c 61c9 16bc
00000240: 4f52 c5bb 894c b23c 01d1 0c3c 3f24 b33c
00000250: ce01 acba 58bc debc 7bd2 3dbc 5b55 08bd
00000260: 612b 22bd 5b74 51bd d5d3 5e3d f6bb 16ba
00000270: 8789 5e3c 178d 143d 90f1 0bbc f441 e33b
00000280: ffa3 24bd 6d9e 39bd 38cc e93a a53e d0bc
00000290: 8e2a d4bc 0012 43bc 7c86 1b3d 52f7 313c
000002a0: a855 27ba 5032 3cbd 6473 3ebd 8171 463a
000002b0: e8cc 3a3c 952e e03c 4d91 64bb 8c13 a6bc
000002c0: f362 ca3b d258 6b3d cce1 c9bb e6c4 6dbd
000002d0: 004c 61bc a34c 59bd 6817 153c 5482 3e3b
000002e0: 6918 40bc c3ff 0bbd 1f60 783d 781a 21bd
000002f0: adc3 793b 1fbc b73a ee24 ccbc 15dd b13c
00000300: 6d22 57bd af6c 9d3b 9c3e 13bc 44c5 bbba
00000310: 84b4 96bc 7909 71bb f622 1b3d 8c1f 4a3c
00000320: f77e 0fbd aeda 32bd d767 79bc 7582 7bba
00000330: 0a54 783d 62d0 133d ff45 ab3c 2e1f 93bd
00000340: 92eb 283d 50e9 9b3c 6355 493d d4b5 7fbc
00000350: 9acb c8bb 8e70 3a38 f085 5abc ea9e f3bb
00000360: 7ff3 7dbc e496 de3b 1818 e93a 8916 63b9
00000370: 86f6 023d fc03 ffbc f260 00bd 81e8 4d3d
00000380: f7a0 4f3d cb28 b03b aa4b fb37 9a4f 9ebc
00000390: 2677 673d 7171 b23b 15ba f0bc 3ce6 6ebc
000003a0: 47c7 19bd 78b9 153d 0cea 35bb 600d b33c
000003b0: 02c1 313d 0b30 d93c 340b 0fbb 109c 97bb
000003c0: 7823 fabc 80b3 cdba bea7 8e3c c269 163d
000003d0: a5de 523b 588f 263c 809d 1a3d 8bff b8bc
000003e0: 6a40 98bc 0135 febb 5575 8e3d 4411 e1bc
000003f0: 3583 fa3c b9bd 1ebc 6c4a b53c 7ff5 b4bc
