models/GMI_pretrained/GMI_GPM_channel_predictor_89V_ocean.pt (torch, 544272 bytes, 7 tensors)

l1.weight f4 [256, 12]
000000 c0 0e 61 3e 38 5e 28 bd 62 32 b7 3d 40 6b 79 3e
       0.21978283 -0.04110548 0.08945157 0.24357319
000010 91 30 b2 3c 7c 18 95 be b5 cc 31 be 16 65 68 be
       0.021751674 -0.29120243 -0.17363246 -0.22694811
000020 4f 3f 12 be db 03 1c 3e c5 6e 2e 3e 77 c5 ac 3c
       -0.14281963 0.15235846 0.17034443 0.021090252
000030 61 82 48 3e 60 7f de 3d 5f 54 6d be b0 05 42 be
       0.19580986 0.108641386 -0.23176716 -0.18947482
000040 6f e7 8c be 4e b6 9e bc a0 ca 10 3e 8c 76 5a bd
       -0.2752032 -0.019374039 0.14139795 -0.05333571
000050 24 04 93 be 0d 0a 87 be 6b a6 ab bc 8b c8 eb 3d
       -0.28714097 -0.26374856 -0.020953378 0.1151286
000060 a2 9a 31 3e 56 37 08 be a1 90 97 be e5 71 bf be
       0.17344144 -0.13302359 -0.2960253 -0.37391582
000070 d9 96 36 3e 5f a4 61 bd 8d cc 27 3e ca 2e 0c bd
       0.17830981 -0.055088397 0.16386624 -0.03422431
000080 d7 31 83 be b4 5f 23 3e e2 d9 08 3e 57 52 fb 3d
       -0.25623962 0.15954477 0.13364366 0.122715645
000090 a8 0a 90 3d 6e b1 3e be 42 6c f6 3d dd d4 0f 3e
       0.070332825 -0.18622372 0.12032367 0.14046045
0000a0 ce 73 35 be b1 74 32 be 69 c2 04 3e 33 1d 66 3e
       -0.17719957 -0.17427327 0.12964787 0.22472076
0000b0 94 6b 52 bd ab dd 1a bd c3 48 66 be 8c 47 71 bd
       -0.051372126 -0.037809055 -0.22488694 -0.058906123
0000c0 76 78 db bd 5d b5 e4 3d eb 8c b4 bd 59 a9 a0 be
       -0.107163355 0.11167405 -0.088159405 -0.31379202
0000d0 cc 96 37 bc f9 81 01 3d e5 9f 05 3e 7e 68 2f 3d
       -0.011205386 0.031618092 0.13049276 0.04282426
0000e0 26 68 5b 3d 67 a4 eb 3d 67 f8 6c be a1 df 4e 3d
       0.05356612 0.11505967 -0.23141633 0.050506238
0000f0 e5 ef 81 3e fe 5f d6 bd 60 8f 42 3e d5 a9 74 be
       0.25378338 -0.10467528 0.19000006 -0.23892911
000100 cd 17 02 3e 3a a9 d9 3d 80 de 8b be e5 87 24 be
       0.12704392 0.106279805 -0.27318192 -0.16067465
000110 4f 64 5a be 56 cc d5 3d f0 bc 3e be f4 ea 23 be
       -0.21327327 0.104393646 -0.18626761 -0.16007596
000120 9c 59 ae bd 98 ce 8d be 3a 3c 44 be 50 d8 1e be
       -0.085131854 -0.2769668 -0.191636 -0.15512204
000130 bf fb 08 3e db 7a 27 be 72 45 a8 3d cb bd 29 3d
       0.13377284 -0.1635546 0.08216371 0.041440766
000140 89 8a 7b 3e 9d 81 30 3e 9f ae fb 3d f0 6b a5 be
       0.24564566 0.17236944 0.12289166 -0.32308912
000150 ce da 09 3e 14 e0 82 be f2 81 81 be a3 ab 38 3e
       0.13462374 -0.25561583 -0.25294453 0.18034224
000160 df 8d 46 3e a4 8c 24 be 38 d5 cd bd ef f9 71 be
       0.19390057 -0.16069275 -0.10050434 -0.23630498
000170 8e 56 23 3d 34 1e f9 3d bb 61 16 3c 7f 2f b2 3d
       0.039877467 0.12163964 0.009178574 0.087004654
000180 15 8c 23 3e 7f e5 06 3e f6 5a 37 3c 15 87 8e be
       0.15971406 0.13173483 0.01119112 -0.27837434
000190 2c bf cd 3d 04 b3 47 3d a2 52 7b 3d 8c 6d 35 be
       0.10046229 0.048754707 0.0613581 -0.1771757
0001a0 4d 33 f1 3d fd 90 a0 be f9 d3 9c be 28 e1 da 3c
       0.11777363 -0.31360617 -0.30630472 0.026718691
0001b0 d7 dd 02 3e e0 d1 f0 bd 3f 91 56 be 8d 25 3a be
       0.12779938 -0.117587805 -0.20953844 -0.18178387
0001c0 ce c2 b5 bd 9b a6 5b be 10 d2 f7 bd c5 f0 46 be
       -0.08875047 -0.21450274 -0.12100613 -0.19427784
0001d0 37 eb c7 3c 2a cf 4e bc c6 61 34 3d fb 0e 6b bd
       0.024404151 -0.012622634 0.044038557 -0.057387333
0001e0 ab b2 3a be 8b 8f 89 3e 4f 00 39 be 20 c7 d0 bd
       -0.18232219 0.26867327 -0.18066524 -0.1019423
0001f0 75 64 f3 3d c7 85 7c 3c f6 72 2a 3e 06 7f a7 bd
       0.11884395 0.015412754 0.16645417 -0.08178525
000200 4b 14 eb bd c0 76 16 bd 30 ff 38 be 2a a5 44 3d
       -0.1147848 -0.036734343 -0.18066096 0.048009075
000210 70 19 6f be 8d 94 fc bc 3a fc 94 be d7 b1 3f 3e
       -0.23349547 -0.030832553 -0.29098684 0.18720184
000220 1d 6b fe 3d 03 0c 98 be 65 b0 8c bd 21 6d 27 be
       0.12422774 -0.29696664 -0.06869582 -0.16350223
000230 3c 74 8d 3e 24 80 65 3e 25 20 51 3e dc 28 ee bd
       0.27627742 0.22412163 0.20422418 -0.11628887
000240 d9 55 00 be 25 4a 18 be 48 f7 85 be d2 78 26 3c
       -0.12532748 -0.14872034 -0.26165223 0.010160642
000250 d5 24 84 3e 12 49 19 be f5 ae 7f be 58 e7 6e 3e
       0.2580935 -0.1496928 -0.24969085 0.23330438
000260 eb a6 0a 3b 6c b8 77 be e4 b4 63 bc 16 2c 3c be
       0.002115662 -0.24191445 -0.013898108 -0.18376192
000270 79 9b e6 3d 58 16 d7 bd 2d 1d 7d be 1d 34 14 3e
       0.11260123 -0.105023086 -0.24718161 0.14473005
000280 62 de 84 be 67 74 37 3e 01 01 f2 3d 55 1a f0 bd
       -0.25950915 0.17915498 0.11816598 -0.117237724
000290 dd f3 87 3d 89 f9 72 be db 7f 7c be 9d 36 31 3e
       0.0663831 -0.23728003 -0.24658148 0.1730599
0002a0 2c 92 31 be 28 5a a5 bd 7f 55 f3 bc 83 5c af bd
       -0.17340916 -0.080738366 -0.029703854 -0.08562567
0002b0 00 ee 5e be 83 6b 09 3e 0c d5 8e be da 59 b7 bd
       -0.21770477 0.13419919 -0.27896917 -0.08952685
0002c0 c7 ce c6 bd 3f 0f 26 3d d2 8b 23 3e 2f ef 80 3e
       -0.097074084 0.040541884 0.15971306 0.25182483
0002d0 03 e4 3a 3e d0 b2 6f 3e d1 cc 4e 3e a4 c5 49 3e
       0.18251042 0.23408055 0.20195319 0.197043
0002e0 2f 2a df bd 5a 58 f8 3d 8b fd 5f 3e 3a 78 2d bd
       -0.10896718 0.12126227 0.21874063 -0.042350985
0002f0 31 c6 79 3e ee 8f 41 be 58 61 23 be 6c 6d 24 be
       0.2439201 -0.18902561 -0.15955102 -0.16057366
000300 cd 7c 8d be e8 b8 a3 3d 84 22 65 be 58 26 1d 3b
       -0.27634278 0.079942524 -0.22376448 0.0023979153
000310 ea 8d 50 3e b3 c4 9b 3d 83 35 7c bd f2 b4 8c be
       0.20366636 0.07605877 -0.06157447 -0.274818
000320 b9 f4 30 3e c3 cf 87 be d3 bc f4 bd fc 81 f0 bd
       0.17280854 -0.26525697 -0.11950078 -0.117435426
000330 cf 33 0b 3e 33 22 33 3e 99 79 2b bd df 0c 9c bd
       0.13593982 0.17493515 -0.04186401 -0.076196425
000340 ef 5c 37 be 7a c2 21 3e 82 57 8b 3d b5 a5 81 be
       -0.17906545 0.15796843 0.068038 -0.25321737
000350 df ae a4 bd 4a 89 75 3d ea 4c 1a 3e a8 62 aa be
       -0.080411665 0.059945382 0.15068403 -0.33278394
000360 aa a2 4f 3e d0 33 1f 3e 40 6a 55 be a3 cb 43 bd
       0.20276895 0.15547109 -0.20841312 -0.047801625
000370 53 e0 53 be 0c 37 4b be ad 69 9a bd 4d 91 6c bd
       -0.20691042 -0.19845217 -0.07539687 -0.057755757
000380 24 1d 80 bd da 30 5b 3d ec 0d c1 bd 3b bf 4b bd
       -0.06255558 0.053513385 -0.094264835 -0.04974292
000390 ca e5 e0 3d 63 4f 44 be 57 4c b1 bd f2 48 d6 3d
       0.10981329 -0.19170909 -0.08657139 0.10463132
0003a0 8d da b7 3e 60 7b e9 3d 42 98 24 3d 2f 1d bf be
       0.3590893 0.11400485 0.040184267 -0.37326953
0003b0 ff 7b 88 be 0a 67 7d 3e 19 11 b0 bd ae 30 31 3c
       -0.26657102 0.24746338 -0.08597011 0.010814829
0003c0 55 f3 1b 3e 93 52 44 3e 25 2c bc 3d 83 5a 68 3b
       0.15229543 0.19172125 0.091881074 0.003545434
0003d0 1b 2d 80 be 88 81 af be ff ba a4 bb e4 61 fb 3d
       -0.25034413 -0.34278512 -0.0050271745 0.122745305
0003e0 a5 96 07 3e d9 aa fb 3d f6 d7 f2 bd 05 b8 a5 be
       0.1324106 0.12288446 -0.118575975 -0.32366958
0003f0 a1 46 e2 bb 97 70 61 3e fb 72 03 be 92 2e 3c 3e
       -0.0069053923 0.22015606 -0.1283683 0.1837714

l1.bias f4 [256]
000000 14 9c c8 be 6e 7e 54 be e1 39 48 3e 1f 65 c3 3d
       -0.39181578 -0.20751354 0.19553329 0.09540772
000010 f9 94 89 3c 26 f9 e8 bc 90 ad 61 be 84 b9 aa bd
       0.016794669 -0.028439116 -0.22038865 -0.083361655
000020 6c 83 36 3e f0 30 78 be ca d2 a2 3d ee 11 9e be
       0.17823571 -0.24237418 0.07950361 -0.30873054
000030 4c 39 2b 3e a6 63 34 bd ff ac b1 bd 73 ff 38 3d
       0.16721076 -0.044040345 -0.086755745 0.04516549
000040 13 d5 14 bd 17 da 11 3e 04 d7 06 3e 78 51 1a be
       -0.036336016 0.14243351 0.1316796 -0.1507014
000050 07 17 47 3c a6 86 ba 3e d3 4c 31 be 01 0c 58 3e
       0.012151486 0.36430854 -0.17314462 0.21098329
000060 71 fd 4f 3e 9f d0 8f 3e f2 4e 96 3e 04 d0 98 3e
       0.20311524 0.28088853 0.29357105 0.29846203
000070 67 4f 6f 3e d3 a7 2d 3e a6 34 47 be 50 64 41 bd
       0.23370133 0.16958551 -0.19453678 -0.047214806
000080 41 b0 bc 3c ac ef 1c 3e 5c 48 b4 3c e5 84 93 3c
       0.023033263 0.15325803 0.02200716 0.018007705
000090 21 12 d5 3d 12 8c d0 3e 0b 34 89 bd 6d 22 44 3e
       0.104038484 0.40731865 -0.066993795 0.19153757
0000a0 62 38 8d be a0 b4 2b 3e e3 2f 03 3e a4 88 04 3e
       -0.2758208 0.16768122 0.12811236 0.1294275
0000b0 7f c3 82 3a 29 93 85 3e 26 8f 07 3d 95 d8 36 bd
       0.0009976475 0.26088837 0.0330955 -0.044640142
0000c0 2d 65 e6 3e 9d d1 54 be 3f b4 8c 3d ac 3e ba 3e
       0.44999066 -0.20783086 0.06870317 0.3637594
0000d0 b9 ff a5 3e 36 a3 78 bd fc 6f 34 3e 1e 87 8e 3e
       0.32421663 -0.060702525 0.17620844 0.2783746
0000e0 07 71 75 bb f4 2c 71 3e 65 71 ae 3e f4 a1 7b be
       -0.0037451403 0.23552305 0.34070888 -0.24573499
0000f0 a1 1e 88 3e 3c 9c 39 3e d8 93 52 3d a7 79 05 be
       0.26585868 0.18126005 0.051410526 -0.13034688
000100 0a 11 ce 3e 8c 25 9d 3e 7d e0 6e be c5 0f ac 3c
       0.40247375 0.30692708 -0.23327823 0.021003613
000110 3b ca 1c be 07 1e e8 3d 9b c7 90 3d aa 20 84 3e
       -0.1531152 0.11333852 0.07069322 0.2580617
000120 98 87 e3 3e 3f 0c f2 3e 99 26 1d 3e 6d 3f d4 3e
       0.44439387 0.47274968 0.15346755 0.4145464
000130 df be 1b be eb 38 0f 3e d8 a7 85 be f3 f1 a0 3e
       -0.1520953 0.13986556 -0.26104617 0.31434593
000140 a8 4f 97 3c 99 4b af be 08 55 4b be 64 3d a1 be
       0.0184706 -0.34237364 -0.19856656 -0.3149215
000150 2e 41 83 3c 30 bd 8e bd a5 39 c0 bd 0c 95 e4 3c
       0.016022291 -0.069696784 -0.09385995 0.027903102
000160 da 7f 39 bd 02 ea 8e 3e d5 69 61 bd a6 88 2d 3e
       -0.045287944 0.2791291 -0.05503257 0.16946658
000170 37 d9 88 3e f4 0c 7b 3e df c0 92 be 18 26 12 be
       0.26728222 0.2451666 -0.28662774 -0.14272344
000180 53 4d 83 3e 7a 0b 97 3d 0b d0 b7 3e 5b 15 50 be
       0.2564493 0.07375236 0.35900912 -0.20320646
000190 c3 c0 2b bd ca 99 60 3e 88 80 b4 be 44 96 70 be
       -0.04193188 0.21933666 -0.35254312 -0.23494822
0001a0 bf 1c 83 3d aa a0 95 bd 5f ae 82 3e a6 d4 5a be
       0.06401967 -0.07306035 0.2552366 -0.21370181
0001b0 17 61 4f 3e c5 a6 b9 3d 39 f9 1a 3e 37 8f 39 be
       0.2025188 0.09065012 0.15134133 -0.18121038
0001c0 af 33 64 bd 3d 8e 8e 3e 22 6c 56 be ad 2f 65 3e
       -0.05571335 0.27842894 -0.20939687 0.22381468
0001d0 48 fe 51 3e fb 17 b4 3e a2 9e 81 bd 80 d2 82 bc
       0.20507157 0.35174546 -0.06329085 -0.015969515
0001e0 da 09 7c bd a4 33 28 3d 92 24 b1 3e 21 6b 54 3d
       -0.061532833 0.041064873 0.34598213 0.05185998
0001f0 69 53 0d be 65 d5 d7 bd c3 3a 46 3e fc 73 0d be
       -0.1380135 -0.10538749 0.19358353 -0.13813776
000200 c0 71 1c 3e 60 5b 3c 3e 26 97 98 3e c3 48 e0 3e
       0.15277767 0.18394232 0.29802817 0.43805513
000210 37 83 cb bd 4f 16 2f be 5b a3 5e be 5d 97 31 3e
       -0.099371366 -0.17098354 -0.21742003 0.17342897
000220 85 be 2f 3e f2 5b 7e 3e 0e f0 38 3e e5 e6 d6 3d
       0.17162521 0.24839762 0.18060324 0.104932584
000230 05 3c 4e 3e 05 cd 2d be 97 a4 ab 3e 96 a8 fe 3d
       0.20140083 -0.1697274 0.3352401 0.12434499
000240 3c 7f 4b be a3 61 18 3f d8 f8 d4 3c 42 4d 01 3d
       -0.19872755 0.5952398 0.025997564 0.03156782
000250 1c 51 0d 3e df 37 ee 3b e7 32 5a 3e 93 bf 8c 3e
       0.13800472 0.007269844 0.2130848 0.2748991
000260 28 b5 f3 bd c4 2d 41 be f9 bc 80 3e c9 62 93 be
       -0.11899787 -0.18865114 0.25144175 -0.28786305
000270 7f ab 99 bd 21 db ca 3e 53 bc 3e 3e c5 80 68 be
       -0.075034134 0.39620307 0.18626527 -0.22705372
000280 6b 30 47 3e 4a 68 e8 3c 48 e3 cd bd c2 b2 53 be
       0.19452064 0.028370041 -0.10053116 -0.2067366
000290 af 23 5e 3e 21 d2 ff 3d 20 20 89 be 28 f4 0a be
       0.216933 0.12491251 -0.26782322 -0.135697
0002a0 1c 80 17 3d 91 be 45 3d 5c 34 3f be 5e 33 0e 3e
       0.03698741 0.04827744 -0.18672317 0.13886783
0002b0 54 ed 97 3d 07 28 55 3e 19 81 ee bc ba eb 8a be
       0.074183136 0.2081605 -0.029114293 -0.2713297
0002c0 e6 b0 03 3e df 04 8e 3e 99 8a e2 3d 7a 19 78 3e
       0.1286045 0.2773809 0.11061592 0.24228469
0002d0 fa ca 3d be 25 83 a9 bd 3e 94 7d bd b6 a9 0a 3d
       -0.1853446 -0.08276967 -0.061908953 0.033853255
0002e0 16 13 16 3d 90 e8 55 be b0 96 b1 bd bc 80 3c 3e
       0.036639296 -0.20889497 -0.086713195 0.18408483
0002f0 84 8a a2 3e 71 97 1d 3e 69 05 67 be e4 d5 32 bd
       0.31746304 0.15389802 -0.22560658 -0.043661013
000300 19 3e 9b 3e 08 0f 73 3e f0 46 98 bd d8 cc 5c be
       0.30320814 0.23736203 -0.07435405 -0.21562517
000310 38 f8 82 be f7 1a 7c 3e 19 ae 17 3e 5a 03 a3 3e
       -0.2558 0.24619661 0.14812507 0.31838495
000320 ac 55 5c 3e 56 4f 2b be 3f 98 01 3e c7 51 88 be
       0.21517056 -0.16729483 0.12655734 -0.2662489
000330 ba 5c ba 3d 69 28 c2 3d 6d 70 59 3e 80 79 b6 3d
       0.090997174 0.09480364 0.21234293 0.08909893
000340 98 04 56 3e cd a1 e3 bd db c6 cf 3e ba 20 0b 3e
       0.2090019 -0.111148454 0.40581402 0.13586703
000350 1b 0c d2 be e0 4b 92 bd 1c 48 aa 3d cf a5 81 be
       -0.4102486 -0.07143378 0.08314535 -0.25321814
000360 24 4b 39 3e f4 e4 63 3c cb b2 47 be 99 71 10 be
       0.1809507 0.013909567 -0.19501798 -0.14105834
000370 b8 7e 82 3e 1d 01 8b bd d8 5c 5b 3e 0f b7 cf 3d
       0.25487304 -0.06787322 0.21422136 0.101423375
000380 7c e1 1a 3e ca 1e f1 bd d3 99 5f bc 94 49 a8 3e
       0.15125078 -0.11773451 -0.013647514 0.32868636
000390 27 3d 61 3e 9c b0 58 3e c9 ca 22 be 97 dd 2b be
       0.21995984 0.21161121 -0.15897669 -0.16783749
0003a0 69 94 8c 3d 4b f2 e2 3e 58 be 96 3d 6b 20 95 3e
       0.068642445 0.4432548 0.07360524 0.29126295
0003b0 bd ba 24 3e f8 c8 85 3e a9 a9 4e be 01 1d 7e 3e
       0.1608686 0.2612989 -0.20181908 0.24815752
0003c0 03 c1 ed 3e 1b fb 65 3e ff 81 28 be 15 55 7a 3e
       0.4643632 0.2245907 -0.1645584 0.24446519
0003d0 8d ab 8f 3e 73 16 6d 3d 97 b7 d4 3c 11 4b 26 3d
       0.2806057 0.057882737 0.025966449 0.040598933
0003e0 a2 a1 88 3e e4 a6 cc 3d 0a d1 c5 bd 0c f8 66 3e
       0.26685816 0.09992769 -0.09659012 0.2255556
0003f0 0d 0f 84 3d 26 6c 5c bd a5 af 85 3d 9f a3 23 bd
       0.06448183 -0.053814076 0.06527642 -0.039950963

l2.weight f4 [256, 256]
000000 cc dc 32 bd 02 71 4e 3d a4 22 07 bd b6 1a 91 bc
       -0.0436676 0.05040074 -0.03299202 -0.017712932
000010 70 8d e3 bc 00 4c 2a 3b 8d f0 bb bc 32 a3 2b bd
       -0.027777404 0.002598524 -0.022941852 -0.041903682
000020 39 d2 0d 3a 60 0f ee bc f5 8b 9d 3b 17 21 a5 3c
       0.0005410049 -0.029060066 0.004807944 0.02015738
000030 cc af a9 bc 5e 7c 5c bd df 53 af 3c 54 5c 26 bd
       -0.02071371 -0.053829543 0.021402298 -0.040615395
000040 40 c5 53 bb 5a c0 69 bc 90 6d fd 3c 5e 0d ff bc
       -0.0032313615 -0.014267052 0.030936033 -0.031134304
000050 2a 5e 88 3c cf f8 47 bd 0e 07 42 bd 73 fa 55 bd
       0.016646463 -0.048821267 -0.04737001 -0.0522408
000060 ce 3d 0c bd e8 61 6f 3d f8 6f fe 3c fd f6 32 bd
       -0.03423863 0.05844298 0.03105925 -0.043692578
000070 c0 15 f8 3c 00 26 7f 3a dd 18 42 3d 56 d0 cd 3c
       0.030283809 0.00097331405 0.047386993 0.025123756
000080 04 e7 6e 39 38 47 3e 3d 8c 89 90 bc 4f 85 61 be
       0.00022783509 0.04645464 -0.017643712 -0.2202351
000090 48 92 a0 ba 83 50 48 bd c0 35 b2 3a ec 5b 99 39
       -0.0012250626 -0.048904907 0.0013596341 0.0002925092
0000a0 9b bb 60 3c 90 44 c7 3c 38 1f e8 3c 7d c1 82 3c
       0.013716604 0.024324685 0.028335199 0.015961403
0000b0 27 07 bd bd 43 3a f7 3d 65 2b 47 3c 8a 9f 44 3d
       -0.0922988 0.120716594 0.012156342 0.04800371
0000c0 95 e8 4a bd e1 16 8f 3d 0b b7 29 3d e1 9d 21 3d
       -0.049538214 0.06986786 0.04143433 0.039457206
0000d0 8f c2 4c bc 6f 13 ad 3b be b4 01 bd 7d 31 b5 3b
       -0.012497558 0.0052818577 -0.03166651 0.005529581
0000e0 d4 06 a2 bc fe f9 c4 3c 49 ed 21 3d 8c f2 b4 bc
       -0.019778647 0.024044987 0.039532933 -0.022088312
0000f0 98 39 bf bc d0 80 83 bb 08 08 c9 bc e6 05 20 bd
       -0.023342893 -0.0040131584 -0.024539962 -0.039068125
000100 7f 28 38 bc 07 b6 8c bd 30 0b 4d be 24 fd 10 3d
       -0.011240124 -0.068706565 -0.20023799 0.035397664
000110 c4 18 84 3c 56 74 88 bd 79 0d 46 be d4 ad 8b bd
       0.01612509 -0.06662814 -0.19341077 -0.068202645
000120 0c 7b bf bc f9 f1 37 3d c5 6f ea 3c cf 6e 93 3b
       -0.023374103 0.044908497 0.028617749 0.0044992934
000130 d2 99 5d be 39 a4 33 bd 29 dc 3e bd 1c 8e 00 3d
       -0.21640709 -0.043857787 -0.04659668 0.031385526
000140 6e 97 71 3d ca f4 96 bd bf d5 60 3d 20 13 39 3b
       0.058982305 -0.073709086 0.054891344 0.002824016
000150 78 32 96 3c 72 69 b8 bb 0e e7 2d bd 20 10 79 bb
       0.018334612 -0.0056278044 -0.04245668 -0.0038003996
000160 9c 61 0d 3d 90 3b a8 bb 84 01 8b 3c 60 f6 6f 3d
       0.034516916 -0.0051340535 0.016968496 0.05858457
000170 5a 9f cb 3c 6f aa af bd bc 5f 28 be 09 11 a4 bb
       0.024856258 -0.085774295 -0.1644277 -0.0050069136
000180 3a cd b3 3c 04 8a 00 bd 08 02 13 bd 7f 8a 8d bc
       0.021948446 -0.031381622 -0.03589061 -0.017277954
000190 f5 e0 45 3d b0 a5 f6 3b de 6c a6 bd f4 4c 3d 3d
       0.04831024 0.0075270757 -0.081262335 0.046215966
0001a0 00 ee 95 bd f8 79 9e 3c 77 32 82 3d d0 fb f3 bb
       -0.073207855 0.019345269 0.06357282 -0.00744579
0001b0 6c 51 71 3d 78 de ec bc 6a 39 50 3d 60 a5 0a bb
       0.05891554 -0.028914675 0.050836004 -0.00211557
0001c0 0e c9 2b bd ae 6d ee ba 91 1a ba bb a0 65 2e 3c
       -0.041939788 -0.0018190646 -0.0056794365 0.0106443465
0001d0 e0 37 26 bc eb a8 17 bd d5 50 80 bd 1c ae cd 3c
       -0.010145158 -0.037026327 -0.062654175 0.025107436
0001e0 02 7b 7d 3d a8 99 12 3e 31 3d 2e bc 32 97 90 bc
       0.061884888 0.14316428 -0.010634706 -0.01765022
0001f0 e4 6b 4c 3d f8 c8 e7 bc b3 2a ed bc 30 0d f4 bc
       0.04990758 -0.028294072 -0.028951025 -0.029791445
000200 79 b3 04 bd bc a1 66 3d 64 f2 94 bc 85 03 94 3e
       -0.03239772 0.056306586 -0.018181987 0.28908935
000210 c6 53 71 bd be e0 39 bd da 54 f4 bc 50 9b 60 bc
       -0.058917783 -0.045380346 -0.029825617 -0.013708904
000220 86 12 0e 3d 7e 2e 66 3d 02 ee 7c 3d ff be 5b bd
       0.034685634 0.056196682 0.06175042 -0.053648945
000230 1c ea 63 3d 7a bf 5b bd f2 79 26 bd d8 d1 0b bc
       0.055643186 -0.053649403 -0.04064364 -0.008533917
000240 ec 1e 68 3d cf ed 17 3d 18 3b 34 3c 90 f9 d8 bc
       0.056670114 0.037092026 0.011000417 -0.026486188
000250 8c ac 7c bd 98 bc 0f 3d 3b 88 df 3d c6 f8 15 bd
       -0.06168799 0.035091966 0.10914656 -0.036614202
000260 74 1d 58 3d 70 7e 18 3c 12 9c 18 3d a8 e5 39 3d
       0.052762464 0.009307489 0.037258215 0.045385033
000270 62 9d 78 bc d0 3c 38 bd a0 03 6c 3d 60 59 36 bd
       -0.015174242 -0.04497987 0.057620645 -0.04451883
000280 82 92 bb 3c bb 66 03 bc 0c dd 67 3d 10 2a eb bb
       0.022897009 -0.008020098 0.05660729 -0.007176645
000290 0f a6 94 bc ee cc 95 bd c9 e4 1d be 1c 81 10 bd
       -0.01814559 -0.07314478 -0.15419306 -0.03527938
0002a0 fe 0f 01 3d 3a e2 85 bd a0 16 3a bc d8 b3 77 bc
       0.031509392 -0.0653729 -0.011357933 -0.015118562
0002b0 8f 83 1d 3c bc ab 78 bd 50 0c 97 bc ce f0 9a bd
       0.009613886 -0.060710654 -0.018438488 -0.07565461
0002c0 80 b6 31 bd b4 ed 9b bd a0 c5 05 3c 86 8a 48 3c
       -0.043386936 -0.07613698 0.008164793 0.012240058
0002d0 3a 9e 22 bd 51 50 16 3d 4d 5d 42 bd b0 f0 89 bc
       -0.039701678 0.03669769 -0.04745226 -0.016838402
0002e0 78 80 bd bc 80 63 f0 3a a8 36 df bc bf df 12 bd
       -0.023132548 0.00183402 -0.027247742 -0.035857912
0002f0 a1 df a0 bd 12 ab 6a bd 2a d5 18 bd 50 be b6 bc
       -0.07855154 -0.05729205 -0.037312664 -0.022307545
000300 e8 77 c7 3c a0 61 6c bc 08 3a e1 bc 9a 71 81 3c
       0.024349168 -0.0144275725 -0.027493492 0.01580124
000310 e0 33 ee bb 9c 29 97 bc fc 2f 6b bd 62 f5 c2 3d
       -0.0072693676 -0.018452458 -0.05741881 0.09519459
000320 de 3a 17 3d 62 7b 4a be 92 79 50 bd 59 09 7d 3d
       0.036921374 -0.1977363 -0.05089719 0.061776493
000330 00 52 1e bb fe 0e 1b bd 53 5e d2 3c b8 ce a2 3c
       -0.0024157763 -0.037856095 0.025679743 0.019873962
000340 8d 31 7d 3d b8 87 4f bd 5f 4b 30 bd cc 42 83 3c
       0.061814833 -0.05066654 -0.04304063 0.016023062
000350 14 81 a3 be 59 dc db bc e2 b8 21 bd 04 5e 52 bd
       -0.31934416 -0.026838468 -0.03948296 -0.05135919
000360 2e 80 65 bd 5c aa 78 3d eb 01 24 bd 64 de ba 3c
       -0.056030445 0.060709342 -0.04004089 0.022811122
000370 dd d7 17 3d b0 f8 b0 3d 9b e7 92 3d e0 d8 39 3b
       0.037071098 0.086411834 0.071730815 0.0028358027
000380 43 0e 4f bd a0 de 4d bd fc 42 b0 3c 5b 16 43 bd
       -0.05055071 -0.05026114 0.021516316 -0.04762874
000390 e7 fa 1f bd fa 1d 77 bd 00 5e 0a 3a 08 20 13 bd
       -0.03905764 -0.060331322 0.00052782893 -0.03591922
0003a0 3e e2 53 3b 96 71 cb 3c 6c 43 1f bd 80 60 a7 bd
       0.0032330896 0.024834435 -0.038882658 -0.08172703
0003b0 12 0d ef bb 62 d0 38 3e 5e 5a 10 3c 74 fb 13 3d
       -0.0072952593 0.18048242 0.008810608 0.036128476
0003c0 da 49 c5 3d 6f 84 b4 3d b0 65 d8 3b fd 0f 4c bd
       0.09633227 0.08814322 0.006603919 -0.049819935
0003d0 16 25 57 bd 54 83 09 3d 9b 86 14 3d 60 a6 fc 3c
       -0.052525602 0.03357251 0.036261182 0.030841053
0003e0 dc f6 0f bd 90 f4 18 3c c3 4c 39 bd c3 f3 5a 3b
       -0.035147533 0.009335652 -0.04523922 0.0033409453
0003f0 92 53 0d bd dc 60 41 3c 2c d5 5f 3b 96 d6 e7 bc
       -0.034503527 0.011802878 0.003415416 -0.028300565

l2.bias f4 [256]
000000 98 f3 c2 3c 8f 50 b5 3c 78 31 c7 3c 78 2e 57 3c
       0.023797795 0.02213314 0.02431558 0.013133638
000010 bc 6d 4d 3e 8d b9 1a bb d5 72 0e 3c b6 1d de 3c
       0.20061392 -0.0023609132 0.00869437 0.027113777
000020 40 f6 31 3c 2c 90 77 bd 40 dd a5 bd ee fa 20 bd
       0.010861933 -0.060440227 -0.08098841 -0.039301805
000030 f3 65 a3 bc d2 7c 64 3d 9c f9 4a bd bc 08 b8 bc
       -0.019946074 0.0557831 -0.049554452 -0.022465102
000040 77 e2 a4 bc f6 eb f4 3b b0 af 6a bc 12 e8 1c bd
       -0.020127518 0.007474418 -0.014324114 -0.038307257
000050 17 f2 2b 3b 5f 5d ff bb 97 14 12 3d c0 be ab 3c
       0.0026236826 -0.007793113 0.035664167 0.02096498
000060 e2 ad 20 3d 53 cf aa 3e 99 20 18 ba 08 01 fc bc
       0.039228328 0.333613 -0.0005803197 -0.03076221
000070 80 d9 10 3d d6 41 55 3d 55 54 81 3e 1a 4f af ba
       0.035363674 0.05206474 0.25259653 -0.0013375015
000080 87 fe 10 bd 2f d3 28 3d 4c 04 40 bd d0 d7 b1 3c
       -0.035398986 0.041217025 -0.046879098 0.021709353
000090 c8 a0 d9 3c 03 95 f4 3c 13 86 14 3d a6 41 62 3e
       0.026565924 0.02985621 0.036260676 0.22095355
0000a0 09 9c 24 3d 0a aa 10 bd a2 84 5a bd dd 26 89 3d
       0.04018787 -0.035318412 -0.053349145 0.06696866
0000b0 b6 28 23 3c 1c b1 37 bd 18 1b 09 bd 34 99 60 bd
       0.009958437 -0.04484664 -0.033473104 -0.054833606
0000c0 40 59 a1 3b 18 1f cd 3d 18 cc be 3c 03 dd 65 bd
       0.0049239695 0.10015696 0.023290679 -0.056118976
0000d0 10 af f1 3d cd 59 9d 3e f4 d1 21 3d ae 7d 96 bd
       0.11800969 0.30732575 0.039506868 -0.0734819
0000e0 de 74 39 3e 6f 91 07 3d 11 25 3d 3d 84 92 64 bd
       0.18110988 0.03309768 0.046177927 -0.05580379
0000f0 a8 99 5f bd 99 86 03 3d 9c 1d a4 3d 15 0a 5d 3d
       -0.054589897 0.032110784 0.0801346 0.053964693
000100 1c bf 9b bc d4 de 1f 3d db b0 92 3d e0 04 6a 3d
       -0.019012026 0.039030865 0.07162639 0.057133555
000110 5c e4 95 bc 26 cf 3a 38 33 b3 36 bd c2 1d da bc
       -0.018297367 4.4538778e-05 -0.04460449 -0.026625518
000120 5c e0 1c 3d 4c cb a0 3e 34 95 a0 3e 03 c5 f3 3d
       0.038299903 0.31405103 0.31363833 0.119028114
000130 2c aa 27 3d 58 dc 7f 3d 16 a3 e1 3c 86 cb 26 bd
       0.040933773 0.062465996 0.027543586 -0.04072144
000140 81 1e 73 3c c2 0f a4 3e b9 ac 76 bd 3d e4 04 3e
       0.014838816 0.32043272 -0.060223315 0.12977691
000150 ae 57 07 bd 88 d5 a2 3e eb fd 85 3d 65 ea af 3c
       -0.033042602 0.31803536 0.06542572 0.021474073
000160 0d 40 7d 3e 4e 0e 56 bc 9a 5a 2d 3d a1 3e 48 3c
       0.24731465 -0.013064934 0.042322733 0.012221963
000170 5f e8 3e 3a 58 1d d5 bc 90 6e 62 bb 52 50 43 3d
       0.0007282551 -0.026014969 -0.0034550764 0.04768402
000180 da f8 8d bc d3 f3 56 3c 5e f0 33 3b 30 d7 7b 3e
       -0.017330576 0.013119656 0.0027456502 0.24593806
000190 71 3b ea bc 00 51 94 bd b1 fc 3e bd ec cb 74 bd
       -0.028592797 -0.07242012 -0.046627704 -0.059764788
0001a0 0c 4e 1e bd 76 b3 7c bd db 2f 85 3e 62 96 93 bd
       -0.03864865 -0.061694585 0.26013073 -0.072064176
0001b0 0b 81 46 bd f3 98 63 bd 82 21 39 be 78 54 55 3d
       -0.04846291 -0.055565786 -0.18079188 0.05208251
0001c0 b4 7a ad 3c 2a 72 06 3e b6 c7 f2 3b d2 fa c1 3d
       0.021176673 0.13129488 0.0074090613 0.09471668
0001d0 88 09 0b bd ab 73 dc 3c 92 06 24 3b 4b 4e 92 3e
       -0.033944637 0.026910624 0.002502833 0.28575358
0001e0 7b ba 87 bd c0 7f 9e bd 29 f6 65 bd 86 44 d9 bc
       -0.06627365 -0.0773921 -0.05614296 -0.026521932
0001f0 b0 b9 17 3d 4b 58 b4 bd 81 92 80 3e aa 54 9e bc
       0.03704232 -0.08805903 0.25111774 -0.01932748
000200 41 d7 80 bd 39 e3 91 bd 3c 8a 33 bd ac db bf bc
       -0.062910564 -0.071234174 -0.043833002 -0.023420177
000210 30 cb 66 3c 2a 2b 97 3d 1c bf 19 bd 74 92 b8 bc
       0.01408653 0.0738128 -0.03753577 -0.022530772
000220 ad 65 90 3e 88 ba f1 3c 96 a0 96 3c 10 91 51 3c
       0.28202572 0.02950789 0.01838712 0.012790933
000230 85 c6 97 3e e8 45 75 3d 6c 6a 14 bd 56 1b 8d bc
       0.29643646 0.05988112 -0.036234304 -0.017224949
000240 d8 40 0e 3c 0d fb d2 bc 12 6d 9b 3c e0 76 d2 3c
       0.008682452 -0.025754476 0.018972907 0.02569145
000250 48 5b 19 3d a2 a9 5d bd e2 62 43 3d 7a c1 cb bc
       0.03744057 -0.054116853 0.047701724 -0.02487253
000260 dc 20 a0 bc 6e 3a dd 3c 36 73 1d bd 17 13 d9 bc
       -0.019546919 0.0270054 -0.03843995 -0.02649836
000270 d8 9a 14 bd 84 02 4a bd 47 f6 96 bd 86 7d 1b 3d
       -0.036280483 -0.049318805 -0.073711924 0.037961505
000280 f8 3c a7 3d f0 e8 fe 3c 8d ae 9c 3d 80 0b 21 bb
       0.08165926 0.031116933 0.076504804 -0.0024573505
000290 24 e1 d5 3c 66 0c bc bc 7d 06 13 3e 50 89 a7 3e
       0.026108332 -0.02295513 0.14357944 0.3272195
0002a0 cc 98 32 3c 80 69 52 3d 59 e4 5f bd 76 07 86 3c
       0.010900687 0.051370144 -0.05466113 0.01636098
0002b0 4c 91 2a 3d d0 06 95 bc bd 4d 6d bc c5 1c 42 3d
       0.041642472 -0.018191725 -0.014483866 0.047390718
0002c0 22 67 b4 bc 49 1d 76 3e 40 f1 7a bb 40 fa e7 3a
       -0.022021834 0.24034609 -0.003829077 0.0017698482
0002d0 48 92 a4 3c e6 6a 4b bd d7 95 44 bd 04 d0 55 3e
       0.020089284 -0.049662493 -0.04799446 0.20880133
0002e0 47 37 92 3d 41 c5 44 3d 5f 43 3b 3d a0 ef 1e bd
       0.071394496 0.04803968 0.045718547 -0.038802743
0002f0 67 fe 1d 3d 7a 62 1b 3d 47 bb a5 bc 6e fd 1f bd
       0.038572695 0.03793571 -0.020230902 -0.03906005
000300 bd ee 48 bd 66 77 60 3d 30 2f ca bd d2 4f 0b bd
       -0.049055804 0.054801367 -0.098722816 -0.03401167
000310 90 f3 6f bd 2a 4e 57 3d 2b 2c ea 3c 4d 16 dc 3c
       -0.05858189 0.052564777 0.028585514 0.026866103
000320 35 44 38 3c 8e 37 4c 3d 60 10 a3 bc 31 87 d4 3d
       0.011246731 0.04985767 -0.01990527 0.10377348
000330 69 31 0f 3d 24 07 7d bd c9 b7 65 bb 68 5e 91 bc
       0.03495923 -0.061774388 -0.0035052171 -0.017745212
000340 2a ad 90 bd 8e 71 73 3d 10 bc a8 3b 32 81 f2 ba
       -0.070642784 0.059434466 0.005149372 -0.0018501638
000350 ff 5a 4a bd 0f f1 a8 bc 3f 47 b5 bc d8 c8 90 3e
       -0.049403187 -0.020622758 -0.0221287 0.28278232
000360 34 7c 84 3e f8 b1 66 3d 90 be 42 bd e3 fd b2 3c
       0.2587601 0.056322068 -0.047545016 0.021849578
000370 6a 21 8c bd 11 66 29 bd ec f9 92 3e f2 44 9e 3e
       -0.06842311 -0.041357104 0.287063 0.30911976
000380 74 58 1e bd 30 13 97 bb df 15 8a 3e 4e 4b 41 bd
       -0.038658574 -0.0046104416 0.2696981 -0.047190957
000390 25 ce c5 bc 5f a8 6f 3d 94 37 c1 3b 83 4e 01 3d
       -0.024146149 0.05851018 0.005896518 0.031569015
0003a0 c8 ee 15 bd 8a 47 3f 3d 52 fe a2 3e e4 78 d6 bc
       -0.036604673 0.046699084 0.31834656 -0.026180692
0003b0 f1 8f 7d bd 6a 11 04 3d 08 f4 6d bd 99 04 2a bd
       -0.06190485 0.03224317 -0.058094054 -0.04150829
0003c0 f2 21 be 3d c9 71 8d bd 7f 73 62 bd ca c0 fb 3d
       0.09283818 -0.069064684 -0.055285927 0.12292631
0003d0 bd 1a 4a bd 0e c6 76 bd 26 ca 59 bd 6c 24 b5 bc
       -0.049341906 -0.060247473 -0.0531713 -0.022112094
0003e0 d6 2e 8d 3e b4 f7 8a bd e2 6e 52 bd ba d0 6d 3d
       0.27574795 -0.06785527 -0.051375277 0.058060385
0003f0 71 b8 04 3c a0 b5 1a 3d 59 ff 48 3d 38 f4 55 3d
       0.008100615 0.037770867 0.049071644 0.05223486

l3.weight f4 [256, 256]
000000 4f 09 17 3d 3c 5e 89 bc 47 22 a6 bc 00 6b 82 3b
       0.03687411 -0.016768567 -0.020280017 0.0039800406
000010 83 d8 22 bd 31 cb af 3b c8 7d ab bc 33 a8 48 bd
       -0.039757263 0.0053647985 -0.020934 -0.048988532
000020 78 ef 6b bd de 47 7f 3d 30 11 a4 bb 2f 27 02 bd
       -0.057601422 0.062324397 -0.0050069317 -0.03177565
000030 65 19 1d bd 4c e8 06 3d 5c d0 3f 3d 44 93 45 bd
       -0.038354296 0.03293638 0.046829566 -0.048236147
000040 01 50 38 bd 18 69 2f 3c 1c f2 d9 3c 4f 9e 0b 3d
       -0.044998173 0.010706209 0.026604705 0.03408652
000050 19 56 5a 3c 46 fb 28 bd 9c c0 56 bd 70 e2 67 3c
       0.013326191 -0.041255258 -0.05242978 0.014153108
000060 e2 63 70 bd 0f d5 35 bd 80 0e 34 3d be fd 05 bd
       -0.058689006 -0.04439264 0.04395914 -0.03271269
000070 12 56 3f bd 68 16 1d bd 5a 15 4d bd 72 75 01 bd
       -0.046712942 -0.038351446 -0.05006919 -0.031606145
000080 88 32 61 bc b6 15 1b bd 83 e5 4d bc 5c a2 b8 3c
       -0.013744958 -0.037862502 -0.012566927 0.022538356
000090 80 e4 e7 bc 80 b8 12 bd e9 cc 31 3d 7d eb b3 3b
       -0.0283072 -0.035820484 0.04340831 0.005490719
0000a0 c5 83 8b bd e8 d1 d8 3c 62 61 7f 3d 0a 4d 89 bd
       -0.068122424 0.026467279 0.06234873 -0.06704147
0000b0 7c dd e6 bc 54 36 4f bd 0c 08 6e 3d d8 c7 1e 3c
       -0.028181784 -0.05058892 0.058113143 0.009691201
0000c0 31 09 c7 3c 5c 69 5f bd f7 fa 2d 3b 92 99 87 3c
       0.024296375 -0.054543838 0.0026547292 0.01655272
0000d0 6f 37 42 bd c9 df 0f 3d c2 06 05 3d 25 34 91 3c
       -0.047416147 0.035125528 0.032477148 0.01772506
0000e0 de 0a b1 bc d7 51 ab b8 8d 78 f6 3c c8 f7 38 bd
       -0.021611627 -8.169159e-05 0.03008678 -0.045158178
0000f0 00 34 53 3d 2b e0 0b 3c e4 b2 f7 3b fc 2b 13 3d
       0.051563263 0.0085373325 0.007559167 0.03593062
000100 2c 68 9e bc 18 61 52 3c 8e d3 63 bc cc 49 12 3d
       -0.019336782 0.012840532 -0.013905419 0.03571491
000110 6a 85 6a 3c f2 81 9d bb 58 1f 0e bd 56 44 03 3d
       0.014314035 -0.0048067505 -0.03469786 0.032047592
000120 3c 88 4b bd b2 79 40 bc a3 e3 64 bc e8 60 52 3d
       -0.04969047 -0.011747764 -0.013970288 0.05136195
000130 89 bd 6b 3b 8c c5 bc bc 1e f7 21 3d 58 9d 9b 3c
       0.0035971126 -0.023043416 0.03954231 0.018995926
000140 34 ac 40 3d 82 20 b3 bb 80 50 05 3a 6e a9 89 bc
       0.047039226 -0.0054665217 0.0005085543 -0.016804423
000150 78 20 aa 3c e1 f4 34 bd b9 16 e2 bc 8d 02 0a 3d
       0.020767435 -0.044178847 -0.027598726 0.03369384
000160 5b f4 3c 3d 7c 3f 59 bb c4 6c 2d bd c2 28 91 3c
       0.046131473 -0.0033149412 -0.042340055 0.01771963
000170 7f 96 81 3c e5 c0 5b 3d d8 af 47 3c 7c e4 42 bd
       0.015818832 0.053650755 0.0121879205 -0.04758118
000180 22 ce 61 3d b9 d3 fb bc 88 5c 29 3c ae 06 76 bc
       0.055128224 -0.030740606 0.010337003 -0.015016241
000190 9e 4e 78 bd fd 8d 08 b9 ff c9 0a 3d da dc 35 3d
       -0.06062185 -0.00013022865 0.033884045 0.044400074
0001a0 85 28 99 3a 57 28 e7 bb 8f 04 0c 3d d4 03 50 bc
       0.0011685049 -0.0070543694 0.034184035 -0.012696225
0001b0 72 d7 0b bd 3a 9d 5f bd f4 0b 3d bd 30 43 46 3c
       -0.03414101 -0.054593302 -0.046153978 0.01210098
0001c0 fc a9 02 3d b8 43 7c bd 0f 2c 8b bd 4b 00 b1 bb
       0.03190039 -0.06158802 -0.06795513 -0.0054016463
0001d0 98 9a 1d 3d 6b 90 24 3d b4 36 76 bd b2 8c 10 3d
       0.03847751 0.04017679 -0.060110763 0.035290428
0001e0 d3 78 5f bd e3 40 31 bd d0 76 06 3c e4 5d 56 3d
       -0.054558586 -0.04327477 0.008207038 0.052335635
0001f0 10 99 bc 3b 35 ac 08 bd 55 23 c0 bc 60 e8 3c bc
       0.005755551 -0.033367354 -0.023454348 -0.011530012
000200 21 b5 37 bd 3c 27 3e bd d5 80 60 bd 8f 2b 68 bd
       -0.044850472 -0.046424136 -0.054810364 -0.056682166
000210 00 4b 4a bc dd 25 52 3d 1a f5 18 3d 62 40 2f 3d
       -0.012346983 0.05130564 0.037343122 0.04278601
000220 ff 80 22 bc 6c 1e e6 3c bc 60 51 bc 70 22 b4 3b
       -0.00991845 0.028090678 -0.012779411 0.0054972693
000230 7f 3e 77 bc ae fb 78 bd 20 57 79 3d 9c 47 5e 3d
       -0.015090584 -0.060786895 0.060874104 0.05426751
000240 1a f2 3b bd 9b 19 22 3d a2 a9 ee 3a 2a 39 22 bd
       -0.045885183 0.0395752 0.0018208514 -0.039605297
000250 36 ba 2a 3d 20 47 ec bb 53 77 28 bd 46 9e 45 bd
       0.04168149 -0.007210627 -0.04112942 -0.048246644
000260 04 bf 80 bc 76 ba 35 3d 1e da f5 bc ed f2 5d 3a
       -0.015716083 0.044367276 -0.030011233 0.000846668
000270 f8 4f 7f bc a9 2e dd 3c 92 ea 82 3b da bf 1c 3d
       -0.015583031 0.026999788 0.003995248 0.0382689
000280 48 de cf ba 30 f6 6d 3d 3e 1a 8f bd 70 16 46 3d
       -0.0015859092 0.05809611 -0.06987427 0.04836124
000290 00 e2 4e bd 40 a7 11 bd 15 11 92 3b 7b aa 38 3d
       -0.0505085 -0.035559893 0.0044576027 0.045084458
0002a0 1c 48 c2 3c c2 ee 4f bd 8c 75 d2 bc c8 33 67 bd
       0.023716025 -0.050764807 -0.025690816 -0.056445867
0002b0 04 b5 73 bc 8a a9 16 bd 71 e9 67 bd 34 d0 6e bd
       -0.0148747 -0.03678278 -0.05661911 -0.058304027
0002c0 b6 19 fd 3c 76 d1 92 3c 50 f8 83 3c 10 dc 29 3c
       0.030896049 0.017922144 0.016109616 0.010367408
0002d0 6a 4a 1a 3d f2 ec 0a 3d 32 cc 12 bd cc ac 4f 3c
       0.037668623 0.033917375 -0.035839267 0.012675475
0002e0 90 68 dc 3b c3 14 48 bd 82 25 31 3d 88 74 52 bc
       0.006726332 -0.048847925 0.04324866 -0.012845166
0002f0 53 e6 20 3d 16 4b 47 3d 7b fa 11 3b f2 c5 7c bd
       0.039282154 0.048655592 0.0022274542 -0.061712213
000300 d8 04 79 bd 64 7c dd 3c ec b9 56 3d b4 cb 58 bd
       -0.060795635 0.027036853 0.052423403 -0.05292864
000310 be 54 61 bd a0 17 03 bc 5e 96 7c 3d 20 9e 1b 3d
       -0.055012457 -0.008001238 0.06166684 0.037992597
000320 7c c8 26 bd 70 0d de bc 52 e0 27 bc 1b 30 02 b9
       -0.04071854 -0.027106017 -0.010246353 -0.00012415687
000330 4a 25 83 3c 5b 45 0d 3d 3c d1 94 3c 56 f9 09 bc
       0.016008992 0.03448997 0.018166177 -0.008421263
000340 68 f0 99 3c 04 f1 01 bd c0 51 e5 3c d2 22 2c 3d
       0.018791392 -0.03172399 0.027993083 0.042025395
000350 16 57 3b bd cc 80 68 3d 13 60 2f 3d be e3 29 bc
       -0.04573735 0.056763455 0.042816233 -0.010369239
000360 b4 1c 78 bd 00 0b 9e ba 9d 3d 8f 3c 38 6b 2b bd
       -0.06057425 -0.0012057722 0.017485434 -0.0418503
000370 09 4a 0e 3d b3 c9 1c 3d fa fe 87 3c 96 c9 a5 ba
       0.034738574 0.038278293 0.016601074 -0.0012648578
000380 6c 57 aa bc 0c 52 cf 3b cd f6 8d bd 40 46 05 3d
       -0.02079364 0.0063269194 -0.06931839 0.0325377
000390 c6 c6 cf bb 53 32 88 bc 20 70 ff 3b 2a d9 a0 3c
       -0.0063408343 -0.016625559 0.0077953488 0.019634802
0003a0 00 c4 29 bd e6 75 48 3d 62 ca b6 bc 33 1b 61 bc
       -0.041446686 0.04894056 -0.0223133 -0.013739395
0003b0 84 4b 7b bb bc 6b 11 bd a1 b1 1c 3b 0d 69 d9 3b
       -0.0038344571 -0.035503134 0.0023909586 0.0066348375
0003c0 12 89 68 bd dd 6c 6f 3b 74 2a 31 3d fb 50 58 bd
       -0.056771345 0.0036533393 0.043253377 -0.052811604
0003d0 11 ad 9d 3c 38 62 05 bd d9 f9 01 3d e8 97 24 3c
       0.019247564 -0.03256437 0.031732414 0.010045983
0003e0 57 c5 05 3d e7 e8 b8 bc 96 b6 2d 3d 2c be 11 bd
       0.0326589 -0.022571994 0.042410456 -0.035581753
0003f0 38 a8 64 3d 73 bd ef bb 40 72 ca 3b 69 45 ef 3c
       0.05582449 -0.0073162853 0.0061781704 0.029207902

l3.bias f4 [256]
000000 e9 49 51 3d 48 a2 2f 3c f4 bd c7 ba df 62 48 bd
       0.051095877 0.010719843 -0.0015239106 -0.048922416
000010 11 3b fa bc ff 7e 57 bd 84 70 85 3d d8 59 54 bc
       -0.030545743 -0.052611347 0.06515601 -0.012960874
000020 d8 e1 10 3c 47 1c e4 bc 3b 4f be 3e 64 52 05 3c
       0.008842908 -0.027845515 0.37169823 0.008137319
000030 b8 bd 97 bc 31 0f 0f 3d 7b da 02 3d 36 92 a4 3c
       -0.018523082 0.034926597 0.03194664 0.02008925
000040 40 ae 23 bc 52 c0 8a 3c 10 11 0b 3b 51 2e bf 3d
       -0.009990275 0.016937409 0.0021219887 0.09335006
000050 36 81 1e 3d 10 0a 23 3d b2 7a 26 bd b6 25 a8 3e
       0.038697444 0.03980452 -0.040644355 0.3284127
000060 4f 56 9a 3c 5c c4 5f bd c9 d0 b2 bc 3c d7 3c 3c
       0.018839983 -0.054630622 -0.021828072 0.011525925
000070 90 06 12 3d 00 73 0c 3c b3 35 0c bd 14 c1 b1 3e
       0.03565079 0.00857234 -0.0342309 0.3471762
000080 4f 4d 3a 3c 0c 1e 8e 3d a2 24 66 3c 64 38 58 bd
       0.011370971 0.06939325 0.01404682 -0.052788153
000090 f1 13 c9 ba c8 a7 60 3c af 4c 6c bd 54 82 4f 3c
       -0.0015341026 0.013711877 -0.05769032 0.01266535
0000a0 60 c4 a3 bc 05 3c bc 3d bb 4c 43 3e db 4e ed bb
       -0.0199911 0.09191135 0.19072239 -0.0072420663
0000b0 ac 14 65 bd c3 f9 7c 3c b2 01 21 3d 22 71 0e bd
       -0.055927917 0.015440407 0.039308257 -0.03477586
0000c0 9d 64 6a 3d f5 13 82 bd 32 be a3 bd 3c 5e ec 3c
       0.05722486 -0.06351463 -0.07995261 0.028853528
0000d0 47 3a 2c bc 3e a6 95 3d 01 3b 88 3c c1 31 a2 3e
       -0.010511941 0.07307099 0.016629698 0.31678584
0000e0 24 72 d1 bb f7 5e b6 bb 52 64 05 bd 50 b6 c7 3c
       -0.0063917805 -0.00556552 -0.032566376 0.024378926
0000f0 52 89 24 3e dc d0 ba 3e 20 fe 0e bb 96 ef 1b bd
       0.16068009 0.36487472 -0.002181895 -0.038070284
000100 31 50 91 3e e8 81 40 bc 9a c8 69 bd 56 bc b4 bd
       0.28381494 -0.011749722 -0.057076074 -0.08824985
000110 06 5a 4b bd 2b 85 17 bd 93 1e 8a 3e 53 b1 07 bd
       -0.0496464 -0.036992233 0.2697645 -0.033128094
000120 5b e6 74 bd 84 64 e6 bc d8 12 52 bd a5 52 02 3d
       -0.059789997 -0.028124101 -0.051287502 0.031817097
000130 64 41 29 bd 0a eb 4f 3c 1e 8b d8 3b 2d 5b 82 bd
       -0.041322127 0.012690315 0.006608381 -0.06365047
000140 ca 77 be 3c ad 53 63 bd 23 28 fe 3c 44 d7 c4 3d
       0.02325048 -0.05549972 0.031024998 0.09611371
000150 ef 3e 5e 3d 19 29 47 3c f9 1d 85 bc 0a 35 50 3d
       0.054259237 0.012155795 -0.016249644 0.050831832
000160 26 de a9 3c e3 81 76 bc 0f 76 6b 3d ef db a8 3d
       0.020735811 -0.015045616 0.057485636 0.08245074
000170 a1 c5 40 3d bd f6 7d bc 75 0b ff 3c ad 60 56 3d
       0.047063474 -0.0155007215 0.031133393 0.05233829
000180 60 04 bb 3e 92 9d 67 3d cd a9 d8 3a 28 dd 46 bd
       0.36526775 0.056546755 0.0016530097 -0.048550755
000190 58 78 c9 3d 72 82 88 bd 66 bb 5a bd e5 5c 09 3d
       0.09837407 -0.066655055 -0.053401373 0.033535857
0001a0 f4 f3 31 bd 7c b1 76 bd 5a 68 49 bd a8 ab 2b bd
       -0.043445542 -0.060227856 -0.049171783 -0.04191175
0001b0 17 62 11 3d 1e 1d aa 3e b3 83 f1 3c f2 12 9d 3e
       0.035493936 0.3322534 0.029481744 0.30678517
0001c0 1e 50 42 bd 22 06 7f bd 00 fa 67 bb 25 a0 b5 bc
       -0.047439687 -0.062261708 -0.0035396814 -0.02217109
0001d0 2b b7 a6 3d a8 83 ea 3c 6d 4d 47 3e 29 b8 00 bd
       0.08140405 0.028627232 0.1946313 -0.03142563
0001e0 c5 d8 a1 3c 61 8a 39 3d 83 9d a7 3c 69 3a df bc
       0.019756684 0.045297984 0.02046085 -0.027249532
0001f0 f6 6c a9 3c e6 c5 7a bd 98 12 60 3d 6b c7 57 bc
       0.02068184 -0.061223887 0.054705232 -0.013170104
000200 9b 20 1b bd 19 36 1e 3d a3 4a 94 3e f1 78 3f 3d
       -0.037872892 0.03862581 0.28963193 0.046746198
000210 7e 7d a1 bc e5 12 44 3d 30 6f 02 3e 37 5c 2d bd
       -0.01971316 0.04786958 0.12737727 -0.04232427
000220 d0 b9 8a bb eb f7 ab bc 76 32 b2 bc 83 1f af bc
       -0.0042335764 -0.02099224 -0.021752577 -0.02137733
000230 bc 9e 8f 3e 81 9c df 3d 20 aa 46 3e d9 7b 57 bd
       0.28050792 0.109185226 0.19400835 -0.052608345
000240 a3 ee f4 bc 94 b8 f2 3b 1b 1e d2 3c 6a 6a 64 3d
       -0.029898947 0.0074072573 0.025649121 0.055765547
000250 07 fd c5 bb e0 53 7c bd 12 cf df 3c ef ef 40 3e
       -0.006042126 -0.061603427 0.027320419 0.18841527
000260 26 8e 21 bd ed e5 e8 3d 9f b4 92 3e 64 49 41 bd
       -0.039442204 0.1137198 0.28653428 -0.04718913
000270 64 5e 48 3d 94 bf 1c 3d c5 b3 a4 3e f3 b2 55 bd
       0.048918143 0.03826864 0.32168403 -0.052172612
000280 2f 10 5b bc f2 bb 9e bc ca 71 af 3e 86 73 3e 3c
       -0.013370558 -0.019376729 0.34266502 0.011624223
000290 2d c8 14 bd cb 90 77 bd f0 94 b9 3e d9 f9 a6 3d
       -0.036323715 -0.06044082 0.36246443 0.081531234
0002a0 f4 9b 4d bd ca 1d 99 3e 18 1c ac 3e 32 c5 4a bd
       -0.050197557 0.2990554 0.33615184 -0.049504466
0002b0 3b b2 59 bd 3e 9e 64 bd f7 2c e6 3c 50 49 6e bc
       -0.05314849 -0.055814974 0.028097613 -0.014543846
0002c0 c5 3f f4 3c b4 0b 9d bc 67 1e 39 bd 94 47 db bc
       0.029815564 -0.01917062 -0.04519501 -0.02676753
0002d0 82 dc 5a 3d 0b fb 65 3c cb 59 22 bd 2e 56 b5 3e
       0.05343295 0.014036904 -0.039636414 0.35417312
0002e0 74 9b c4 3c 9b 15 cf bc 30 7f 72 bd 65 4e 61 3c
       0.023999907 -0.025278857 -0.059203327 0.013751601
0002f0 db 37 d9 3c 54 5b 31 bd e6 2e 23 3e a8 e9 1b bc
       0.026515892 -0.043299988 0.15935859 -0.009516157
000300 88 f7 2a 3d 2f 6c 30 3e ef 50 db bb bc f9 dd bc
       0.04173997 0.17228769 -0.0066929976 -0.027096622
000310 62 6a bc 3e b9 0b 63 3d 16 58 1f 3d c4 41 82 bd
       0.36799914 0.0554311 0.038902365 -0.063602
000320 2f c6 a5 3e b3 5e 0a bd 46 1f 41 bd 72 13 3c bd
       0.32377765 -0.03378172 -0.047148965 -0.045916982
000330 62 99 7a 3d 0e 28 0c 3d 0d 04 ca ba 86 7a c0 bb
       0.061181433 0.034217887 -0.0015412584 -0.005873981
000340 9c 77 27 bd b9 8e 49 3d a9 7a 30 3d 9e 19 70 bb
       -0.040885553 0.049208377 0.043085728 -0.0036636363
000350 d8 44 fd ba a8 06 f8 3c c1 5a b4 3c 47 fd a3 3b
       -0.0019322885 0.030276611 0.022015931 0.0050045582
000360 40 5c c2 3b c7 61 42 bd 16 3e 82 39 bb 71 1e bd
       0.005931407 -0.04745653 0.0002484179 -0.03868268
000370 2f 06 ed bc 5a aa 14 3d 47 0f 76 bd d6 a7 80 3c
       -0.028933613 0.036295272 -0.060073163 0.01570503
000380 4f 8b a6 3e 29 eb 76 3e 92 25 58 bb 30 21 4b 3d
       0.3252816 0.24113144 -0.0032981378 0.049592197
000390 fe e0 5f 3c 49 38 9d bd 88 af d0 3c 60 15 8f 3e
       0.013664482 -0.07676751 0.025474325 0.27945995
0003a0 c6 45 78 bd a9 df 96 3c f9 44 80 bd 8a da 2b bd
       -0.060613416 0.018417196 -0.062631555 -0.041956462
0003b0 63 8d 1f 3c f0 ac 04 bc 7d 30 a1 bc 98 f3 61 3e
       0.009738299 -0.008097872 -0.019676441 0.2206558
0003c0 6b ba 01 3d 61 e6 8a 3e 9b 59 fd 3c ec e6 dc 3c
       0.031671923 0.2712889 0.030926516 0.02696558
0003d0 4c fe ff 3c 23 16 c4 bd f1 64 66 bd 66 6f de bc
       0.031249188 -0.09574535 -0.05624861 -0.027152728
0003e0 07 fd f3 bc 95 26 0e bd a7 4f f3 3b 5c ba ab 3b
       -0.029783739 -0.034704763 0.007425267 0.0052407216
0003f0 34 45 f7 3d 67 c7 b4 3e 40 ce bc 3b b7 93 bf bc
       0.12073746 0.35308382 0.0057618916 -0.023385866

l4.weight f4 [1, 256]
000000 11 4b 0d bd c4 f6 94 3c 58 ca 0c 3c 17 36 06 bd
       -0.034495417 0.018184073 0.008593164 -0.032766428
000010 07 9e 95 bc 9e 48 6a bc bf 17 74 3b b0 fd c5 3c
       -0.01826383 -0.01429954 0.00372456 0.02416882
000020 cc b5 d8 bc fe 4f 04 3b 95 bd 88 3d 09 32 33 bd
       -0.026453875 0.002018928 0.06676785 -0.04374889
000030 f2 c2 c5 bc 69 93 1d bd 28 a2 37 3a ad ed 50 bc
       -0.024140809 -0.03847066 0.0007005059 -0.012751979
000040 83 a1 3b 3d 8e fc 42 bc 6e 9d 32 3d bc 0e 23 3c
       0.045808326 -0.011901034 0.043607168 0.009952243
000050 bb e4 e7 bb 4b 01 c9 bc ea c6 b7 bb 23 34 3c 3d
       -0.0070768273 -0.02453675 -0.005608429 0.04594816
000060 cb f5 de bc fb 7f 22 bd 2d ed b0 bc 8b 9d e2 bc
       -0.027216813 -0.039672833 -0.02159747 -0.027663013
000070 48 52 a5 3c ec 3a fb bb e2 37 4d bc fc bb 88 3d
       0.020180836 -0.007666936 -0.0125255305 0.0667648
000080 4a 94 4f bd 15 40 8f bc 56 da 8e bc 4b 7d 09 bd
       -0.05067853 -0.017486611 -0.017438095 -0.033566754
000090 2f 6d 39 bd 04 6a 9e bc c5 d9 ea bc 92 a7 3d 3d
       -0.04527014 -0.019337662 -0.028668294 0.046302386
0000a0 bc b6 46 bd 50 78 36 3c eb f6 41 bb 5b 70 09 bc
       -0.048514113 0.011137083 -0.0029596637 -0.008388604
0000b0 36 82 e9 3c b8 2a 3c b9 7e 19 91 bc fe 81 f1 3c
       0.028504472 -0.00017944991 -0.017712351 0.02948093
0000c0 3a 69 a0 bc 73 13 90 3b 9e 5f 92 3c 20 95 a5 bb
       -0.019581426 0.00439685 0.01786786 -0.0050531775
0000d0 8d ed 21 bc 45 e8 98 3c d9 9c 21 b9 89 5a 41 3d
       -0.009883297 0.018665442 -0.00015412587 0.04720548
0000e0 0b 96 53 3d 2c 6b 0b 3b 1c d9 04 bd 01 99 3f bd
       0.051656764 0.0021273596 -0.032433614 -0.046776775
0000f0 2b 94 04 ba 91 f8 85 3d d4 f7 65 3d 49 a1 91 3d
       -0.0005057479 0.06541551 0.05614455 0.07110841
000100 a6 f3 61 3d ae 20 31 3d b4 f9 3b 3d e8 94 47 bc
       0.055164002 0.043244056 0.045892432 -0.012181498
000110 24 03 03 bd c4 f0 12 3c 7c 15 13 3d 82 51 69 bc
       -0.031985417 0.008968536 0.03590916 -0.014240624
000120 eb 82 77 ba 35 22 1b 3d 1b 12 6e 3d eb 79 a6 3b
       -0.00094418105 0.03787442 0.058122735 0.0050804517
000130 00 74 85 3b cd 56 10 3c 80 47 b2 3b 92 63 cf bc
       0.004072666 0.008809757 0.0054406524 -0.025316034
000140 d8 8e cd 3a 40 b3 51 bc 8a e7 11 bc b1 82 0f bb
       0.001568283 -0.012799084 -0.008905301 -0.0021897967
000150 7a 15 3b 3d 88 bc 45 3c 0d ea 08 bb 2d 79 4d bd
       0.04567478 0.012068875 -0.0020891458 -0.05016439
000160 1f a9 68 bb ea e3 41 3c 12 28 8d bc 82 ba 0f 3b
       -0.0035501195 0.011834124 -0.017231021 0.0021931236
000170 9d fc e3 bc 74 03 d2 bc 92 ef 19 bb 86 bb 4b 3c
       -0.027830416 -0.025636412 -0.0023488742 0.012434846
000180 14 25 5d 3d 50 42 93 3c 6a 09 36 bc cf d5 3f bd
       0.05399044 0.017975956 -0.011110643 -0.046834763
000190 04 4c 46 bc a4 00 9c 3a db 2a a8 3c 1e 00 21 bd
       -0.0121030845 0.0011902046 0.020528248 -0.039306752
0001a0 f9 8f 1b 3c f0 19 8a bc f8 48 1e bd 76 c6 ea 39
       0.009494775 -0.016858071 -0.038643807 0.00044779823
0001b0 aa e0 50 bc f3 12 38 3d af 88 d5 3b d6 d0 4c 3d
       -0.012748877 0.044939946 0.006516538 0.05000385
0001c0 0a 3a 20 3d 99 e8 10 bc 0e 0c 09 bd 93 33 1f 3c
       0.03911785 -0.008844518 -0.033458762 0.009716886
0001d0 90 83 0c 3c ea c5 70 3d 06 97 00 bb c2 3c 13 3d
       0.008576289 0.058782496 -0.0019621267 0.035946615
0001e0 3a 5c a7 3c 83 6f 83 bb 07 84 63 3c e5 53 4b bc
       0.02042972 -0.004011096 0.013886458 -0.012410139
0001f0 b0 ad e2 bc 60 81 30 bd c8 9e da 3c 27 55 02 bb
       -0.027670711 -0.04309213 0.02668704 -0.001988718
000200 d9 f2 bb bc 55 d4 d5 3c d0 43 63 3d 31 e2 6d 3c
       -0.022942947 0.026102224 0.055484593 0.01451926
000210 76 88 88 3c 2e 2f ad bc dc 69 40 ba 64 ac 34 bd
       0.016666632 -0.021140661 -0.0007339993 -0.044109717
000220 90 db 8a 3b 19 01 d0 bb 36 5c d4 3a bc d1 39 3a
       0.0042375997 -0.006347787 0.0016201797 0.0007088443
000230 e5 00 12 3d e9 d4 19 3a ca 70 18 37 60 82 ba 3c
       0.035645384 0.0005868213 9.086167e-06 0.022767246
000240 1e 98 4d bd a9 b1 1e 3d c4 c1 bb 3c 30 42 ed 3b
       -0.0501939 0.03874365 0.022919543 0.007240556
000250 e4 a7 a6 bc 08 31 1c bd 30 9b 32 3a 1f c5 b0 ba
       -0.020343728 -0.038132697 0.0006813286 -0.0013486481
000260 25 44 f0 bb 16 33 66 bb b2 a9 22 3d 56 a7 12 bc
       -0.007332342 -0.0035125664 0.039712615 -0.008951029
000270 e0 cc 41 bc e0 d5 0c bd bf 26 89 3d 2d a2 f7 bc
       -0.011828631 -0.034383655 0.06696843 -0.030228699
000280 a2 2c 5c 3c 42 8f 1d bb d3 22 14 3d b9 9f a0 ba
       0.013438376 -0.0024041687 0.036166023 -0.0012254632
000290 c0 7c 3a 3d 01 51 f2 bb a5 93 83 3d 34 ef 89 38
       0.045529127 -0.0073949103 0.06424645 6.577224e-05
0002a0 00 c4 fb 38 36 39 49 3d dc 46 87 3d 03 9b 66 3c
       0.000120051205 0.049126826 0.06605312 0.014075044
0002b0 eb c2 22 3d e8 34 55 3c dd 5f 02 bd 00 92 31 bc
       0.03973667 0.013013102 -0.031829704 -0.010838032
0002c0 8d 55 02 bd aa f2 9b 3c 36 9a 6b 3c 2a b6 1e bd
       -0.03181987 0.01903661 0.0143800285 -0.038747944
0002d0 63 fb 0d 3b 83 94 bd bc 94 1d 62 bd 76 aa e2 3c
       0.002166473 -0.023142105 -0.05520399 0.027669173
0002e0 6e c7 38 bd f5 46 50 3d a7 a0 13 bd d6 2a 7e ba
       -0.045112066 0.05084892 -0.036041882 -0.0009695714
0002f0 fa 6c 15 bd 6b 86 5c 3c 13 fb bc 39 d3 48 ea 3b
       -0.03648088 0.013459782 0.0003604522 0.0071497946
000300 5c 70 9c 3c 0b ef 1b 3c 25 fe 89 bc e8 63 a6 bc
       0.019096546 0.0095174415 -0.016844818 -0.02031131
000310 02 3e 47 3d cf 62 16 b8 52 c2 1c bd d2 da 9f bb
       0.04864312 -3.585481e-05 -0.038271256 -0.0048783803
000320 63 43 93 3c 00 00 15 3c c9 a2 cd bc 0d 1e 18 3d
       0.017976468 0.009094238 -0.025102036 0.037138034
000330 58 a0 49 3b ca 86 51 bd ea 8b 36 bc 38 93 38 bc
       0.0030765738 -0.051153935 -0.011141757 -0.011265568
000340 b4 61 12 bd e6 50 b3 3b da 15 a1 bc c9 70 41 bb
       -0.03573771 0.0054722903 -0.01966374 -0.0029516688
000350 33 fe 28 ba 1f ac cc bc ff 2f 81 bc d9 10 a4 bc
       -0.000644657 -0.024984417 -0.015769957 -0.020027565
000360 08 9e 3c 3d 12 01 47 bc b6 8a 3b 3c 5d bb e9 ba
       0.046049148 -0.012146251 0.0114466455 -0.0017832328
000370 78 20 fe bb 50 53 2e bd 9e e1 b6 3c 8f b3 03 3c
       -0.0077553354 -0.04255992 0.02232438 0.008038416
000380 b3 6b fb 3c ee ac dc 3c 83 87 c5 3a 62 e3 81 3a
       0.030691003 0.026937928 0.0015070293 0.0009909684
000390 bc 60 47 bd 8a 26 d7 bc 46 f4 8f bd 50 b0 20 3d
       -0.048676237 -0.026263494 -0.07029013 0.039230645
0003a0 d0 48 1a 3d 7c 39 5a bd a8 98 02 bc d0 f3 91 bb
       0.037667096 -0.053277478 -0.007970966 -0.0044541135
0003b0 bb 8c 31 bd 90 54 0f bd 05 a4 21 bd 13 81 44 ba
       -0.0433471 -0.034992754 -0.03946306 -0.000749604
0003c0 de e1 b8 bc 02 08 13 3d a2 e8 52 3d 6c 5a 56 3d
       -0.02256864 0.03589631 0.051491387 0.052332327
0003d0 30 fc 04 bc d8 e7 9c 3c 38 62 8c 3d e6 34 6e bc
       -0.008116767 0.01915352 0.06854671 -0.014538979
0003e0 12 c5 0b bd ee 3f bf 3c fe 34 e9 bc 49 11 6d bd
       -0.034123488 0.023345914 -0.028467651 -0.057877813
0003f0 ac 32 4a bc 58 94 6a 3d 14 01 ac ba 84 9c 0f 3a
       -0.012341183 0.057270378 -0.001312288 0.000547834
