models/GMI_pretrained/GMI_GPM_channel_predictor_19V_nonocean.pt (torch, 545332 bytes, 7 tensors)

l1.weight f4 [256, 13]
00000000: a138 973c 2373 5d3e afe3 283e 5a3f a5be
00000010: 139e 43be 681e 2dbe 33a6 20be 761f 56bd
00000020: fc7c eabd 8db3 683e 0627 633d db63 253d
00000030: f91d 083e 30e9 5dbe 7649 2c3d 2df0 8abe
00000040: e848 ffbc 893d 5d3e 96a7 76be 859b fcbd
00000050: fd65 b3bc 90fc 21be 132c 983d b7f5 1abe
00000060: 0c6d 663e 5cc2 54bd b59a d83d 83c0 3abe
00000070: 7452 523e bdde 8b3e 21e7 823e 39ab ee3c
00000080: ed23 bebd 27da 79be c3a8 dfbd 2b91 813e
00000090: 1aae 943c 0def a43d 9bd9 9cbe 53d4 38be
000000a0: b85c 34bd b802 8fbe 0557 c6bd b9ee 1b3e
000000b0: 0e3e 31be 73f5 623e 35d2 65be 9898 b1bc
000000c0: b315 9ebc 8dc9 77bd 7494 c33d f2c7 8ebe
000000d0: 7448 ffbd 5e56 c2bc 4b63 81be 6611 533e
000000e0: caa7 8f3b 8251 c6bd 5a38 973d b590 1dbe
000000f0: 624c 0a3e 0857 bbbc a5f2 5bbd 501e dfbb
00000100: 2b54 95bd 0248 10be 38ac 253e 793a 903d
00000110: 77c4 a2be d4df 673d fed8 083e 9578 90be
00000120: ef35 acbe b79e 053e 96b5 543e 8121 5ebe
00000130: 6f39 003e cd0d c4be 2243 493e 5db6 4a3c
00000140: 84a6 80be 90ef a6be 316e 5abe c8a6 c23e
00000150: 5939 80bd d9c4 753e 7d12 08be 8496 09be
00000160: aebe 413e e823 cf3d 4a53 fa3e 0259 c8ba
00000170: 3b72 cc3e 89a2 d93e 3b50 ad3c c24e babe
00000180: dffe b8be 5053 ba3d 3fd6 363d 0b76 693c
00000190: f066 11be ea6a 50be 9771 a53d 9c6a 3a3e
000001a0: dbdd 17be c1c6 d73c 9738 933c e0d6 a1be
000001b0: 3d81 673e bcda 91be 1584 9cbe e154 8ebc
000001c0: fc32 5ebe c144 053e d2df 733e c414 743e
000001d0: 7341 88be e277 263e aae1 3bbe 9a17 f4bc
000001e0: 68cd 56be 7076 57bd 161c 00be fbb0 02be
000001f0: 87de 6ebd dd81 5a3e 55d2 133e 7608 443e
00000200: 4b9e 56be b9b7 9fbd 9d4d e33d 0d02 4fbe
00000210: 2f4c d7bd 3ef3 9fbd bd87 d23d 6746 21bb
00000220: 8971 4cbe 0341 443e bd5c 783e bf5c 34be
00000230: 1a36 963e 8caa 1ebe 75e7 0fc0 7dfb 96bd
00000240: 0f7e 903e ef84 0b3e c4e8 dcbe f000 d7bd
00000250: adaa 6abe 4a20 443e 1eac 78be f287 cc3e
00000260: 63c8 8c3e b6f5 93be bd29 943d 95c5 893c
00000270: db84 f23d 2980 60be 8ac3 8fbc 76c4 7d3e
00000280: 362e 0dbd d0cd 213d 83f2 c23d f4c7 4dbe
00000290: 288a 3cbe 39dc 7dbe 7d47 4cbe b457 a4bc
000002a0: 2722 3fbe f961 0e3e cdb1 fa3d 9929 0e3e
000002b0: 093e 0f3b 5b1c acbe 264e a1be bb1d 843b
000002c0: 7f42 28bd 9ca0 f33d a1a2 1b3e 591c 49be
000002d0: d795 7cbe 7aef 9e3e 4d37 5d3c 18fb 03bd
000002e0: 970a 81be 18cf 383e 40fc e6bd 666a f5bd
000002f0: e02d 143e 86e9 043d 8145 8bbd aa3e 59be
00000300: 6f18 13be fcf7 59bd 311f 9d3c af7e ebbd
00000310: 088a 3a3e d786 dc3d 7593 f6bd da9f 053e
00000320: ff80 76be 3532 10be 1db9 183e ba53 28be
00000330: 4848 82bd 35a4 3a3d 885b 0cbc 14f0 283e
00000340: 0fec 8ebe 780f 26be 4711 4f3e f7c7 47be
00000350: c8e3 88be 75a3 9e3d ac41 743e 1bfd 0b3e
00000360: 6004 eebd 2cb4 1d3e 1f85 4abe 3039 0f3e
00000370: d5b0 463e 3e81 d33e 6851 9cbe 0e0c b63d
00000380: 71a0 98be 1ef7 023f 252d 19be c998 b5bd
00000390: a931 3cbc 666f 7bbc c543 69be 18a0 133e
000003a0: 5d1b 8dbd 6982 683d 670d 4abe 5907 013e
000003b0: ba62 39bd 03cb 61be 9b2e 8bbe 6e95 843d
000003c0: 6750 483e bd7c 27be 893b 7dbe d057 a9bd
000003d0: ef6a 5a3e 9153 103e 1401 3a3e 9749 e03d
000003e0: cdb4 68be ea35 993d 17dd ce3c ae32 6cbe
000003f0: d0d6 6c3c a515 cdbd 8a25 363e 2aa5 8dbe
0.01845962 0.21625952 0.16493104 -0.32274896 -0.1910327 -0.1690613 -0.156884 -0.052276097
-0.1144962 0.22724743 0.055457138 0.040378433 0.13292684 -0.21670985 0.042062245 -0.27136365
-0.031162694 0.21605505 -0.24087366 -0.123343505 -0.021899218 -0.15819001 0.074302815 -0.15132795
0.22502536 -0.051943168 0.10576383 -0.182375 0.20539266 0.27318373 0.25566962 0.02913438
-0.09284196 -0.24399625 -0.109208606 0.25306067 0.018149424 0.08053408 -0.3063477 -0.18049745
-0.044033736 -0.27931762 -0.096845664 0.15227784 -0.17308828 0.22163944 -0.22443469 -0.021679208
-0.019297456 -0.06049495 0.095497996 -0.2788692 -0.12464991 -0.023722824 -0.25271067 0.20612106
0.0043840157 -0.09683515 0.07383795 -0.15387233 0.135057 -0.022868648 -0.0536982 -0.0068090335
-0.072914444 -0.14089969 0.16178977 0.07042403 -0.31790516 0.056609944 0.13364026 -0.28216997
-0.33634898 0.13048826 0.20772395 -0.21692468 0.12521909 -0.3829178 0.19654515 0.01237258
-0.2512704 -0.32604647 -0.21331097 0.3801787 -0.06260938 0.24000873 -0.13288303 -0.13436323
0.18920395 0.101142704 0.4889167 -0.0015285315 0.399309 0.42506817 0.02115642 -0.36388212
-0.3613195 0.09097922 0.044637915 0.014249335 -0.14199424 -0.20353284 0.08078306 0.18204731
-0.14830725 0.02633989 0.01797132 -0.3160925 0.22607894 -0.28487194 -0.3056952 -0.017374458
-0.21699136 0.13014509 0.2381585 0.23836046 -0.26612434 0.16256669 -0.18347803 -0.02979641
-0.20976794 -0.052603185 -0.12510714 -0.12762825 -0.058317687 0.21338601 0.14435704 0.19143853
-0.20958821 -0.07798714 0.11098788 -0.20215626 -0.10512578 -0.07810067 0.10279796 -0.0024608613
-0.19965185 0.19165425 0.24254127 -0.17613505 0.2933815 -0.15494746 -2.248502 -0.07372186
0.28221175 0.13624929 -0.43146336 -0.10498226 -0.2291667 0.19152942 -0.24284407 0.39947468
0.27496633 -0.288984 0.072345234 0.016817847 0.118417464 -0.21923889 -0.017549295 0.24781975
-0.0344679 0.03950292 0.09518912 -0.20095807 -0.18412077 -0.2479104 -0.19949146 -0.020061351
-0.18665372 0.13904561 0.12240944 0.13883056 0.0021857044 -0.33615384 -0.31504935 0.0040318645
-0.04107904 0.11895868 0.15198757 -0.1963972 -0.24666534 0.3104208 0.013501954 -0.032221884
-0.25203392 0.1804775 -0.112785816 -0.119831845 0.14470625 0.032449268 -0.06800366 -0.2121531
-0.1436479 -0.053215012 0.019179912 -0.11498772 0.18216717 0.10767906 -0.12039844 0.1304926
-0.24072646 -0.14081652 0.14914365 -0.16438189 -0.06361443 0.045566756 -0.008566745 0.16497833
-0.27914473 -0.16216838 0.20221435 -0.19509874 -0.26736283 0.07746021 0.23853177 0.13670771
-0.11621928 0.15400761 -0.19777344 0.13986659 0.19403394 0.4130954 -0.30530858 0.08889018
-0.29809907 0.5115832 -0.14958628 -0.08867032 -0.011486449 -0.015346384 -0.22779758 0.1441654
-0.06889985 0.056764994 -0.19731675 0.12600459 -0.04526017 -0.22050099 -0.27183995 0.06473814
0.19561921 -0.16356178 -0.24729742 -0.08268702 0.21329854 0.14094378 0.18164474 0.10951536
-0.2272522 0.074809864 0.025251908 -0.23066208 0.014455512 -0.10013894 0.17787758 -0.27665073

l1.bias f4 [256]
00000000: 6179 2ebc 4e7b a23c 31f8 f4bc 87c8 163e
00000010: 14ca 443e e5b7 77be ea9a 3c3e f073 0f3f
00000020: df52 5ebe bc9d 143e beb5 b7bd 8a62 d3be
00000030: 58b6 533e 2537 88be b927 36be b61a 9abe
00000040: 0ea4 7fbe 52f6 86be 80be 87be a85b 74bd
00000050: 261c 55bd 345e 593e 40fe 18be e4c6 6fbf
00000060: 0c5d cc3d 4914 7f3c 1874 733f d6d9 553d
00000070: 7f6d 823e b0fe 2a3e 6457 d6be 0d77 8abd
00000080: 2597 413e 1700 31be 919a aabe 1f5e 58be
00000090: 3b55 113e bdf2 17be 6d0d 833e 1d9b e03d
000000a0: 7f5c de3d 3eb3 413f d351 cebd 78a2 26be
000000b0: 6909 703e 2767 7ebe c037 6cbe 73b7 7d3e
000000c0: fcbe 5cbe 0d92 9ebd 5393 8e3d 3ffb 74be
000000d0: bcf7 2abd 977d aebe fe84 0f3e 91e4 27be
000000e0: 1c14 17bf 0065 4f3e 9098 623e bf6a a2bd
000000f0: 8ae5 3a3d d5cd e6bd 8bf0 6cbe 05d7 153f
00000100: ea09 1bbe 4929 88be a4b5 05bd 357d 96bd
00000110: 65f7 0ebc ed9c 45be e58f 28bf 87eb eb3d
00000120: 1893 cd3d 6860 22be 16b7 c63d cbff 813d
00000130: 0af8 30bd 1d79 08be 1651 abbe 2085 783d
00000140: 5118 89bd df91 3d3e 43d4 183e 349d afbc
00000150: 7338 8cbe 020b 7c3e ec20 303e f598 613d
00000160: 3d4c 6e3e 50cc c13f faa9 c53d 4bdf e73e
00000170: f499 353e 51c8 2a3b 58f4 123c 29ea f7bc
00000180: 2de3 9d3d 1f62 2c3e 71ca 81be 8e9d 88be
00000190: 1aaf 2fbe c234 e33e b394 8d3c e020 d4bc
000001a0: 7c3e be3d 81cc 853e 5d1d 6bbe f6d7 aebd
000001b0: 14e8 f73d f817 bebd e672 56bf 9a75 12be
000001c0: f8f9 813e bf0f cbbf 5499 5b3f 536f fe3c
000001d0: ff07 84bd ef59 c93d 9152 ae3e 5913 733d
000001e0: 9f07 dcbf ada5 11be a3fd c4bd e934 423e
000001f0: 2a3f 793c 2727 aa3c 6240 78bd 1a29 b1bd
00000200: cc88 3fbf 0688 983f d574 14bd 884d cbbf
00000210: a574 17ba e423 833e 3176 1f3d 8b00 c7be
00000220: 3f17 de3d 032c 19be 035f 653e 391b 7d3d
00000230: acc3 233e c56d 19be d185 d7c0 fc81 89be
00000240: 2f93 27be 43e0 c93b dae6 553e 637b 83be
00000250: c026 533e c732 9cbd dabb 8abe 098e 413e
00000260: a4a3 903d 84c9 953d 191a 74bd 548d fabd
00000270: c818 6cbc 1446 f13d ddbc d83b 7397 80bf
00000280: f6f4 8cbe 5f19 953c 167d 8abe 4e7f d53d
00000290: 245b 29be a824 c4be d830 73be 13e4 453c
000002a0: d329 7fbe 2ad4 70be d375 8cbe 25f2 e53b
000002b0: ebc2 22bf 13a9 593e 403f f63c c864 483e
000002c0: 4715 fabb 0aae 8d3e 8283 b33d ccaa 88bd
000002d0: fa8a ea3d dd7c 7bbc 4ec7 623d b04e 883d
000002e0: c058 a2be 6f24 3b3f 7124 a0bc 92ee 2abe
000002f0: 93d1 cb3d 1b4b 76bb 39c0 a2bd f49f 9bbd
00000300: b323 33bd 6eee 05be a377 803e 1503 50bd
00000310: 918c 923e 632b e73e 615c 473e b374 0bbe
00000320: 9ecd 633e 895b 3cbe f583 3fbe 0e3a 123e
00000330: 56d3 16be e7c8 bdbe aba2 72be 79be 4a3e
00000340: 5e5d a73d 061e e4be ad97 20be ac9f 75bd
00000350: 4c7e 853c 9ed8 7d3e 0195 883e 64a1 6abe
00000360: d1c9 91be 65fe 59be 17ad 143f 76c4 a8bf
00000370: 00b3 e93d 4a98 8abd 706a c4bd 33d8 95be
00000380: 3461 58bd 6c69 8f3d 2b2c 5cbe d8cf 143e
00000390: e717 e1bd 9dc4 e6be d782 0b3f ce95 65be
000003a0: 1793 febe 0132 cd3d 1410 2d3f 2796 3dbd
000003b0: c407 063c eca6 e83d cc6b 8f3d 0ff1 60bd
000003c0: d50f f13b 34ac 0dbf 7c55 043e d436 4c3e
000003d0: 3b95 b03d acad 9ebe 4cbc 25be 3746 d8bd
000003e0: 0080 83be 0bde 853e 451a 50be b36b e13e
000003f0: 3222 1e3e b0fc 8a39 ec06 8ebe 86b8 97bd
-0.010649056 0.019834187 -0.029903503 0.14724933 0.19217712 -0.24191244 0.1841847 0.5603628
-0.217113 0.14513296 -0.089702114 -0.41286117 0.20675027 -0.26604572 -0.1778859 -0.30098504
-0.24964926 -0.26359802 -0.26512527 -0.059657723 -0.052028798 0.21227342 -0.14940739 -0.9366286
0.09978685 0.015568801 0.9509902 0.052209698 0.25474164 0.16698718 -0.4186355 -0.067609884
0.18905313 -0.1728519 -0.3332105 -0.21129654 0.14192669 -0.14838691 0.2559618 0.109670855
0.10857486 0.75664127 -0.100742005 -0.16272914 0.2344109 -0.24844037 -0.23068142 0.24777012
-0.2155723 -0.07742701 0.069616936 -0.23923968 -0.041740164 -0.34080192 0.14015576 -0.16395785
-0.5901506 0.20253372 0.2212851 -0.079305165 0.04562906 -0.11269728 -0.23138635 0.5853122
-0.151405 -0.26593998 -0.03264393 -0.073481 -0.008725976 -0.19298144 -0.65844566 0.11519533
0.100378215 -0.15857089 0.097028896 0.06347617 -0.0432053 -0.13327451 -0.334603 0.060673833
-0.06694091 0.18512677 0.14924721 -0.021437265 -0.27386817 0.24613574 0.17200059 0.05507751
0.2327127 1.5140476 0.09651561 0.45287547 0.1773451 0.002605934 0.008969389 -0.030263023
0.07709346 0.16834305 -0.25349763 -0.26682705 -0.1715664 0.4437619 0.01728282 -0.025894582
0.09289262 0.26132587 -0.2296042 -0.08537285 0.12104812 -0.092819154 -0.8376907 -0.14302674
0.25386024 -1.586418 0.85780835 0.031058943 -0.06446838 0.098316066 0.34047368 0.059344623
-1.7189826 -0.14223357 -0.0961869 0.18965496 0.015212813 0.020770622 -0.060608275 -0.086504176
-0.7481811 1.1916511 -0.036244232 -1.5883036 -0.0005777574 0.2561332 0.038931075 -0.38867602
0.108442776 -0.14958195 0.22399525 0.06179354 0.15992612 -0.1498328 -6.735085 -0.26856983
-0.1636474 0.0061607673 0.20888844 -0.25680074 0.2062025 -0.076268725 -0.27096444 0.18901838
0.07062462 0.07313827 -0.0595952 -0.122339875 -0.014410205 0.117809445 0.006614311 -1.0046219
-0.2753064 0.018200574 -0.27048558 0.10424672 -0.16538674 -0.38309216 -0.23749101 0.012078303
-0.24918298 -0.23518434 -0.27433643 0.0070173913 -0.6357867 0.21255903 0.030059457 0.19569695
-0.007631931 0.27671844 0.087653175 -0.06673202 0.11452289 -0.015349594 0.055365853 0.066556334
-0.31708336 0.7310247 -0.019548627 -0.1669257 0.099520825 -0.0037581387 -0.0794682 -0.07598868
-0.043735217 -0.13079235 0.25091276 -0.05078419 0.2862287 0.4515029 0.19468834 -0.13618736
0.22246405 -0.18394293 -0.18702681 0.14279959 -0.14729056 -0.3706734 -0.23694865 0.19799222
0.08172105 -0.44554156 -0.1568286 -0.059966728 0.016295575 0.24789664 0.2667618 -0.22913128
-0.28474286 -0.2128845 0.58076614 -1.3184955 0.11411095 -0.06767328 -0.09590614 -0.2926651
-0.052827075 0.070025295 -0.21501224 0.14532411 -0.10990887 -0.4507188 0.5449652 -0.22420427
-0.49721596 0.10019303 0.6760266 -0.046285775 0.008180562 0.11359963 0.070029825 -0.05491739
0.0073566237 -0.55340886 0.12923235 0.1994279 0.086222135 -0.30991876 -0.16185111 -0.105602674
-0.25683594 0.26145968 -0.20322521 0.4402748 0.15442732 0.00026509678 -0.27739656 -0.07408242

l2.weight f4 [256, 256]
00000000: b6ec 55bd 8492 dd3c 1e00 ea3c 6a54 1c3d
00000010: b032 bb3c 986d 98bc c461 ccbc 8a18 633d
00000020: 9868 35bc 048f 463d b890 59bc 9c39 06bc
00000030: 5050 3fbc d0d0 0a3c a88e 833c 62c0 5b3d
00000040: 6816 37bd 2d7a 72bd c8e9 103d eccd 813c
00000050: 0caf aa3c 400a 3a3d f469 123d 986f acbc
00000060: 88e6 563d 62f3 43bd 0880 023c 8a7d 2abc
00000070: c26e 0cbd 10e0 c6bb 4035 6abc f020 fb3c
00000080: 68c7 b3bc 73f0 c53c daef 4fbd a8b3 6a3d
00000090: a0de 6bbc 2142 1fbc 18e5 70bd f821 48bd
000000a0: c229 103d fc07 43bd 2411 12bd c875 1c3d
000000b0: bed0 22bd 06d9 58bd 8708 f1bc 3cce cb3c
000000c0: e27d 5abd c04d 493d 3a86 5d3d 589a 613d
000000d0: c07b e0bb 1dea 33bd b0da 4a3c d779 113d
000000e0: 0fa5 3cbc 90eb 07bd 2829 ab3c 180f 643c
000000f0: 507f ce3c f891 ba3c 408a 603b ade0 683d
00000100: 0041 0b3d 7c24 273d 88f7 223c dc9c ef3c
00000110: 1434 57bd 8aae 713d 42fb 883c 9c80 c83c
00000120: 40b3 393c f032 50bc 802b 13bb 6066 a4bc
00000130: 2cd4 b53c 3c9a 54bd 8a9f 133d a4c5 ed3c
00000140: 5881 ac3c e2cd 1bbd 20a5 7d3c da9a 2abd
00000150: 8087 1c3d c272 4dbd 683f 143d ece7 aebc
00000160: d015 67bd 1336 babd acee 003d ab68 2c3d
00000170: 82b6 26bd 7017 5fbc d01a 743d b46a 2cbd
00000180: 9863 89bc e055 75bb 82d4 a23c 7a49 f0bc
00000190: de68 653d 3c91 f1bc 3e2e 61bd 0076 13bc
000001a0: 48cc 38bc 1813 623c b2db 76bd ba4e 5abd
000001b0: 08c1 9abc 6018 2b3d 23f5 9fbd b8ed 0bbd
000001c0: 6048 d23c 5159 7fbd 5323 603d 6ca1 9f3c
000001d0: 2028 e0bc 9416 623d dcee 89bc 65a7 7bbd
000001e0: 5146 56bd 480e 0e3d 5415 afbd 2813 463d
000001f0: e80a 033d c0f5 8fbb 0064 6b3c 9009 653d
00000200: 181e 44bc d9af 88bd c09e 6e3c baa9 5abd
00000210: 4015 ffbc 7424 bb3c 25c6 af3c 8043 8a3b
00000220: 40f2 2fbc 189d 06bd 34ec d6bc 9470 a5bc
00000230: 4a9c 6abd 9d4a 33bd 695c 98bc 204b 653b
00000240: 38b6 bf3c a096 3d3b deaf 683d f86f 1cbc
00000250: c098 88bb 38e8 4d3d 121b 063d 58c1 1f3d
00000260: 3c07 113d 307a d13b 962b 1a3d c007 13bb
00000270: 224d 57bd a07e b6bc fc77 e13c a5a9 eebc
00000280: 64da 9a3c a266 993c cc52 e2bc 8afa 06bd
00000290: 7ce6 3a3d dc26 4dbd 2c7d 72bd baf8 1b3d
000002a0: d2e9 1f3d e091 243b b818 9a3c fcf0 423d
000002b0: 002f 403b c84f 263c e8ae d23c 6cf0 523d
000002c0: e087 163d 6a2e 53bd 76e2 113d 8c61 b2bc
000002d0: a0ed 78bb 52f3 2fbd 38d4 903c 788f 14bc
000002e0: 6d51 4ebd 416e 463c fea9 1ebd 5871 d1bd
000002f0: 8870 3cbd a884 55bd c0c4 943c a47c 93bc
00000300: f849 483c db04 8a3c 3a0b a63a a4e4 ad3c
00000310: e701 063d c917 16bd 3899 763d f085 af3c
00000320: d81b ba3c bea6 753d 9eac 72bd b8fd 8f3c
00000330: 026c 523d 94b1 5cbd 008c 733a 80bc e33b
00000340: e5da 0cbd 5709 a23c 54b4 3f3d c006 033c
00000350: 02ee 4a3d 12f4 07bd 90d0 5abd 2ad7 263d
00000360: e8be 3bbd 1c28 5ebd ec2f 04bd 76ae 51bd
00000370: 205b b5bb 467a 6a3d 1e83 3abd 705d ff3c
00000380: 938b 61bd af19 69bc 3530 143d fe4b 83bd
00000390: c424 d8bc 3033 003c 8e3a adbd 40d8 083d
000003a0: c518 f0bc 028f 26bd ca6b 373d 6e20 6dbd
000003b0: 1a40 2b3d 60c6 0d3b d6c5 2d3d ec00 62bd
000003c0: 40e2 083b 926c fd3c 8027 b83c be2b 6bbd
000003d0: 3a2c 31bd 8220 b53c be8a 513d 5007 6c3c
000003e0: 9c50 563d 3453 1dbd 04a7 adbc edd5 603d
000003f0: 7c28 d8bc 740d b2bc 58aa 613d fa08 013d
-0.0522277 0.027047403 0.028564509 0.03816644 0.022851318 -0.018606946 -0.024948962 0.055443324
-0.0110723 0.048476234 -0.013279133 -0.008192446 -0.011676863 0.008472636 0.016059235 0.053650267
-0.044699103 -0.059198547 0.0353792 0.015845262 0.020835422 0.04541993 0.035745576 -0.021049306
0.052465945 -0.04783953 0.007965095 -0.010405907 -0.034285314 -0.006069191 -0.014294922 0.030655354
-0.02194567 0.024162507 -0.05076585 0.05730024 -0.01439634 -0.009720356 -0.05881223 -0.04886052
0.035196073 -0.047615036 -0.035660878 0.038198262 -0.039749853 -0.052941345 -0.029423011 0.024878614
-0.053342707 0.049146414 0.054083087 0.055078834 -0.0068506896 -0.04392444 0.012381241 0.035516586
-0.011513962 -0.033183634 0.020893648 0.013919614 0.025207192 0.022774681 0.003426209 0.056854893
0.033997536 0.04080628 0.009946711 0.029249601 -0.0525399 0.059004344 0.016721372 0.024475388
0.01133424 -0.012707457 -0.0022456348 -0.020068347 0.022195898 -0.0519049 0.03604082 0.029024906
0.02105777 -0.038038142 0.015481263 -0.041651584 0.03821516 -0.05015827 0.03619328 -0.021350823
-0.056417286 -0.09092345 0.031477615 0.042092007 -0.040701397 -0.013616428 0.059595883 -0.042093948
-0.016771123 -0.0037435219 0.019876722 -0.029331911 0.056008212 -0.029488198 -0.05497574 -0.009000301
-0.011279173 0.013798498 -0.06026811 -0.053297736 -0.018890873 0.041771293 -0.07810428 -0.034162253
0.025669277 -0.06234104 0.054721188 0.019486152 -0.027362883 0.055197313 -0.01683753 -0.061438937
-0.052313153 0.03468159 -0.0854899 0.048358113 0.031992823 -0.0043933094 0.014367104 0.055917323
-0.0119700655 -0.06674165 0.014564216 -0.05338452 -0.031138062 0.02284453 0.021456787 0.0042194724
-0.010738909 -0.03286466 -0.026235677 -0.020195283 -0.057277955 -0.04377233 -0.018598752 0.0034987405
0.023402318 0.002892889 0.056808345 -0.00954818 -0.0041686 0.05027029 0.03274066 0.039002746
0.03540729 0.0063927397 0.037639223 -0.002243504 -0.052563794 -0.022277176 0.027523033 -0.029133627
0.018902965 0.018725697 -0.027627371 -0.032953776 0.045629963 -0.050085887 -0.059201404 0.038079
0.039041348 0.0025111362 0.018810615 0.0475931 0.002932489 0.010150857 0.025718167 0.051498815
0.036750674 -0.051557936 0.03561636 -0.02177503 -0.0037983432 -0.042956658 0.017679319 -0.009067409
-0.050370622 0.0121112475 -0.038736336 -0.10226697 -0.046005756 -0.052128464 0.018160224 -0.01800377
0.012224667 0.016848018 0.0012668141 0.021227188 0.032716658 -0.036643777 0.060204715 0.021426171
0.022718355 0.05997347 -0.05924665 0.017577037 0.051372536 -0.05388029 0.0009290576 0.006949961
-0.03438844 0.019779844 0.046802834 0.007997215 0.04954339 -0.033191748 -0.053421557 0.04073254
-0.04583636 -0.05423747 -0.032272264 -0.05119177 -0.0055345446 0.057245515 -0.0455352 0.031172484
-0.05506475 -0.014227315 0.036178786 -0.06410979 -0.026384719 0.007824704 -0.08458434 0.033409357
-0.029308686 -0.040663727 0.04478053 -0.057892255 0.04180918 0.0021633133 0.042425 -0.05517666
0.0020886809 0.03093556 0.022479773 -0.057414763 -0.04325507 0.022110227 0.051157705 0.01440604
0.05232297 -0.038409427 -0.021197803 0.054891516 -0.026386492 -0.02173493 0.055094093 0.0315027

l2.bias f4 [256]
00000000: 9286 20bd c5bc 5b3d ce15 f2b9 4c63 ce3b
00000010: 1171 eb3c caa9 a93a e184 7c3c 78e5 acbd
00000020: bd0a 92bd 32d5 18bd c295 903c 1896 c0bc
00000030: a744 23bd 83a8 00bd 7346 a5bd f633 cabd
00000040: d27c 17bd f0c6 0cbc 4157 52bd f6fb 42bd
00000050: f9e1 bbbd 9a91 0ebc 3954 67bd 2168 053d
00000060: ee4a dcbd 91a8 4cbd 03e4 19bd e769 f6bd
00000070: d76d 15bd b775 833d 0ad2 9ebc f66b eabc
00000080: 9fac a0bd 94af 123d 96a5 53bc 1934 763d
00000090: 1915 a9bc 248c f43e bbdc 263d c039 8ebc
000000a0: 20cb b4bc 187d 04bd c12e 48bc 3137 b53a
000000b0: d718 583d d788 81bd 5982 573d f354 edbd
000000c0: 9070 daba 9b0a e4bb 7dd2 17bc dc1b 65bd
000000d0: 97cb 7a3c bd3a 043d f287 913b 2242 5e3d
000000e0: 3a22 cfbc 2a9e d1bc fc68 023d 884b afbe
000000f0: 6bab d139 e6d2 20bc 6f63 073e 14d4 093d
00000100: c380 80ba 5ce4 f6bc 481e 63bd 5c11 143c
00000110: 8172 52bd 0de7 1bbd 1cac ad3c a896 563d
00000120: 4065 fcbb 82dc ecbc 6cbe 20bd 2503 5dbd
00000130: 61ba 2fbd d032 f2bb 91b4 2c3d fdac 14bc
00000140: 1dce 9cbc 2351 ce3c 9862 a4bd 87a7 b7bc
00000150: 9b83 04bd 4124 8cbd a48a bbbd b119 50bb
00000160: 5e9f 67bd ff1a 5bbd 21b6 60bd 9e9d 15bd
00000170: 75d3 693d 1e6a f0bd fc34 75bc d0e6 c63c
00000180: fe93 563d 091f 1fbd 09a4 41bd f6d4 07bc
00000190: 5b6c 97bd 9a34 68bc bb14 0abd 5037 0dbd
000001a0: 8926 c3bd 16ed 3fbe 1307 633d b637 58bd
000001b0: 5cf2 65bd 6730 f63c eeb7 8dbb a282 6f3d
000001c0: d93e afbd 19cc 2cbd ff50 65bd 3133 be3c
000001d0: 9e9f bf3c c04e dbbc 7c7a 2fbd 92e9 92bc
000001e0: 479b 59bb b854 d8bc 3a04 ac3c 5270 30bc
000001f0: 6c59 e1bd b866 593d bb0f 243c 7e36 97bd
00000200: 4819 6abd 408d fa3c c03f 7d3d 5c03 16be
00000210: e047 47bc c97d e7bc 3e55 61bc b733 82bd
00000220: 0d08 48bd ec0e 973c 34b5 c63c b3d9 273d
00000230: 6ad5 873c ab06 85bc f896 38bd f0da 323d
00000240: 947f 49bd 772d 7fbd 363c d1bc 48cb 83bc
00000250: 85e7 d0bd 1595 d0bb a472 2d3d 6833 81bc
00000260: 6588 e63b 5756 d63c b7a2 9abc 8d35 11bb
00000270: cfab 1dbd 12e2 ee3c df92 773c bac7 e3bd
00000280: 2810 943a 66d5 c5bd 05c3 b1bd 6009 283d
00000290: 7696 9abd 7b4c 2abc 1639 80bc 54e8 1dbd
000002a0: 70f4 4e3d ef79 4dbd 77c7 493c 484c 82bd
000002b0: bf13 1e3d c0f6 c53c 80c6 82bc 8b41 b3bd
000002c0: 24aa 7d3d b5b8 0dbd 76a1 2cbd ae7d 7ebd
000002d0: 95cc d8bd 5aef e7bc a2ed 953c fa4e 0a3d
000002e0: b0e4 7bbd 0ca2 4c3d 15cd d8bc 82b0 f33c
000002f0: 0c6e 39bd f47b 3bbd ba56 c43c 23de 4ebd
00000300: 85f4 99bd 94fc 993c 8e7a 033d 0559 083d
00000310: c3bd 723c dbf1 323c 1981 f53c a9d2 79bd
00000320: 2396 cbbc 65b6 89bc 7471 73bd f87a 54bd
00000330: 249c 543d 3bc1 a5bd 6ecb 04bd 2e77 ee3b
00000340: 66d7 a73b c3da 85bd 8539 05bd 8e84 f7bc
00000350: e25b 0a3d dfc1 2cbd 2f81 ebbc 773b 3b3c
00000360: be27 083d c34e 733c aceb eebc 2001 0c3c
00000370: ea6f cfbc 65c7 4fbd 358f e23c 8a2d 99bd
00000380: 5375 85bd 9b7e 9a3c 9996 54bd 54a7 82bc
00000390: 729c 673d f32a 2b3d 662c 27bd bf98 75bc
000003a0: 172f f4bc 2873 51bc d2ec 0cbd d5e4 e8bd
000003b0: 51b2 f7bc 49c6 b5bd c5cc e03c f832 1a3d
000003c0: e0ba e0bc 9bf4 f93b 9e08 0f3d f9d1 2dbc
000003d0: 6254 613d 9835 f43c 76fb 5fbd 666e 93bd
000003e0: 48ae 20bd b688 e6bc fcad 443c dac0 01bd
000003f0: 10e1 3cbd b541 81bd 226c 84bd 0faf ccbc
-0.039190836 0.05364682 -0.00046174083 0.006298458 0.028740438 0.0012944278 0.01541254 -0.08442205
-0.071309544 -0.037312694 0.017649535 -0.02350907 -0.039860394 -0.031410705 -0.08070078 -0.09873192
-0.036984272 -0.008592352 -0.051352743 -0.04760357 -0.0917396 -0.008701706 -0.056476805 0.03257001
-0.10756479 -0.049965445 -0.037570965 -0.12031918 -0.036481705 0.06418937 -0.019387264 -0.028615933
-0.07845425 0.035811976 -0.012917897 0.060108278 -0.020639943 0.4776317 0.04073785 -0.017361522
-0.022069514 -0.03234586 -0.012218178 0.0013825652 0.052758064 -0.06324928 0.052614544 -0.115884684
-0.0016665626 -0.006959272 -0.009266493 -0.055934772 0.015307329 0.03228258 0.004441255 0.054262288
-0.025284875 -0.025588114 0.031838402 -0.34237313 0.00039991303 -0.009815907 0.13221525 0.03364952
-0.0009803999 -0.030138187 -0.0554488 0.009037342 -0.05137873 -0.038062144 0.021200232 0.05238977
-0.0077024996 -0.02891374 -0.0392441 -0.053958077 -0.042902354 -0.007391311 0.04216439 -0.009074447
-0.019141251 0.025185173 -0.08026618 -0.02241875 -0.03235207 -0.068428524 -0.09157303 -0.0031753595
-0.05654847 -0.053492542 -0.05486119 -0.03652727 0.057086427 -0.1173899 -0.014966246 0.024279982
0.05238723 -0.038847957 -0.047275577 -0.00829052 -0.07393714 -0.014172697 -0.033711176 -0.03447658
-0.095288344 -0.18742785 0.05542667 -0.052787505 -0.056139335 0.030052377 -0.0043249046 0.05847419
-0.08556909 -0.04218683 -0.055985447 0.02321777 0.023391541 -0.02677095 -0.04284142 -0.01793364
-0.0033204125 -0.026407585 0.02099811 -0.010768967 -0.11003384 0.053076476 0.010013516 -0.073834404
-0.057153016 0.030584931 0.061828375 -0.14649719 -0.012163132 -0.028258221 -0.0137532335 -0.0635752
-0.048835803 0.018439732 0.024256326 0.0409791 0.016581256 -0.016238531 -0.04506585 0.043665826
-0.049193934 -0.062299218 -0.025541406 -0.016088143 -0.10200409 -0.006365428 0.042345658 -0.015771583
0.0070353025 0.026164217 -0.018876417 -0.0022157163 -0.038493928 0.029160533 0.0151107 -0.11122079
0.0011296319 -0.09659843 -0.08679775 0.041024566 -0.075482294 -0.010394211 -0.01565222 -0.038551643
0.050526083 -0.050165113 0.0123156225 -0.06362206 0.03859305 0.024165511 -0.015963793 -0.08752736
0.061929837 -0.03459998 -0.04214617 -0.062131576 -0.10585896 -0.028312374 0.018301789 0.033766724
-0.06149739 0.049959227 -0.026464978 0.029747251 -0.045270965 -0.045772508 0.023967136 -0.050504815
-0.075173415 0.018797196 0.0320993 0.03328802 0.0148157505 0.010921921 0.029968785 -0.060991917
-0.024851864 -0.016810605 -0.05943437 -0.051875085 0.05190672 -0.080934964 -0.03242057 0.007277391
0.005122113 -0.06535866 -0.032525558 -0.030214574 0.033779033 -0.042177077 -0.028748123 0.011427752
0.033241026 0.014850321 -0.029165111 0.00854519 -0.02532192 -0.050727267 0.027656177 -0.07479389
-0.065165184 0.018859198 -0.051901434 -0.015948929 0.056545682 0.041789006 -0.040813826 -0.014990031
-0.02980761 -0.012783803 -0.034405537 -0.11371771 -0.030236395 -0.088757105 0.027441392 0.037646264
-0.027432859 0.007628036 0.034920327 -0.010609143 0.055012114 0.029810712 -0.05468317 -0.07198791
-0.039228708 -0.02814136 0.012004372 -0.03167806 -0.046113074 -0.06311361 -0.06465937 -0.024985818

l3.weight f4 [256, 256]
00000000: 16ab 4f3d b4b2 a5bc 88d7 113c 48e0 983c
00000010: c845 7f3c 3431 19bd e664 44bd d127 85bd
00000020: 5800 4c3d 0042 dd39 a8ae fabc 5870 d6bc
00000030: 68d1 7dbc 1066 e8bc d420 adbc 780c 1ebd
00000040: df4c 61bc 82c3 0abd c956 ccbc 813c 87bc
00000050: acc5 09bd 23c9 33bd 3ce1 613d dcdf 58bd
00000060: e1d1 0ebd c157 bf3c aa2a ff3c 6e36 8bbd
00000070: 6c72 0a3c 963f 30bd e2b9 4a3d e231 0b3c
00000080: c44a 1ebd 6878 55bd ed7a f73a c8a7 7dbc
00000090: 0a04 aa3c a2e2 71bd 2c6c 2d3d 9047 1f3d
000000a0: af5b 3c3c fe3c 5fbd 8b78 0abd b468 d7bc
000000b0: c0c4 2dbd 741a 733d e8c8 50bd 626b 4abd
000000c0: 663f 623d 1a06 28bd 4179 b7bc fa5d 4e3d
000000d0: 00b5 8cbb b63f 393d 45c7 d23c 622d 023d
000000e0: 4c44 543d 054a 3d3d 88e7 6fbd b36a 0dbd
000000f0: d0b8 5abd 1069 453c a46d 433c a8b4 62bd
00000100: 5ca3 6fbd 4027 98bb f8d8 d93c 2ed1 ce3c
00000110: 3a54 1c3c 68ee 033c c096 c53c 2135 2c3d
00000120: 4e56 6ebd e60d 463d 100a 993c f46a 86bc
00000130: 2a49 483d 9a2f 123d 6b6e 90bc 029b 44bc
00000140: c28a 5cbd 3402 15bd 80e0 e2bc 8bbd 07bd
00000150: 7a9b 0a3d 1409 1a3d 5577 653c 27cf 04bd
00000160: 105b 023d b6bf f13c b603 4c3d 3c73 603d
00000170: d8fb 723c 8669 303d 49fe 833b 6174 8d3c
00000180: b432 f33c ac79 81bd 408f 2abd ea76 163d
00000190: d035 fa3b abc6 12ba 0550 d93b 7678 8abb
000001a0: 7bf4 fc3c ae69 a83c 2ca3 203d 54dc 42bd
000001b0: 134c ddbc 8c45 2b3d 66ef c5bc 605f 6dbc
000001c0: de64 0f3d ab3c d63b 2570 653c 1761 87bd
000001d0: fc35 5fbd f8cd 9a3c cfe7 eb3c 7562 e1bc
000001e0: 56c0 3fbd 7886 59bc 10d4 ef3b 1276 283d
000001f0: d819 56bd 18b2 47bc ce09 7c3d 4b29 90bc
00000200: 1724 ddbc 80bb 56bc fabe 34bd 0b38 f3bb
00000210: 4e08 5dbd 82ec 89bd c47e 25bd 0405 a73c
00000220: b8c2 43bd 0ab5 7f3d c2ef 67bd 4e26 bebc
00000230: 18d9 b2bc 9499 7d3b be92 47bd 422a a2bc
00000240: 72c0 6c3d f433 263d 385f 90bc 7293 303c
00000250: aa1b 2a3d fb67 53bd 1053 4b3d 1ee6 88bd
00000260: 6a02 3f3d 02df ae3c ce2d 4c3c 020a 83bd
00000270: ca7d 133d 5480 473d d069 afbb de7d 73bd
00000280: bc7c a13c 95c4 b23c 781e 57bc 908b 4bbd
00000290: a57b 89bd d518 e73b cc45 f7ba 5ae9 1a3d
000002a0: d404 133d 5c86 e43c 4d3f 9f3c 8062 cbbc
000002b0: 5b01 413d 9b2f 39bd 548b 783d ca48 303d
000002c0: a4e6 a0bc d274 5a3d 69c0 9fba e2c5 62bd
000002d0: 3b9d 0ebd 206d 313d db89 bcbc 5c32 e43c
000002e0: b8cf 093d c02b 0bbd 3832 2d3d 5e0c 60bd
000002f0: c26f 663d 2003 923c 70fa d3bb 40ff 523c
00000300: 179a b53c a037 643b 80ec 3dbb b285 4fbd
00000310: bcd6 19bd fb62 5d3d 4e29 7ebd 563b 333d
00000320: b834 4ebc 714c 9abc 6855 4e3d c1a4 e7bc
00000330: d20d d7bc d570 c0bc 78c0 0fbd f24a 2a3d
00000340: b176 793d 302b 703c 7d9a 5cbd 6ceb a13c
00000350: 7a09 febb c657 723d 9866 30bd 7aef 3abd
00000360: 50d3 193d 5c89 69bd 31ea b43c 984e 053c
00000370: 7963 1cbd 80b1 d1bb 0e6c 6c3d e469 acbc
00000380: bb55 1dbd 7c79 733a 08e0 3f3d 93dc e9bc
00000390: 78da ca3c b3bc a23c 1894 11ba 3284 643d
000003a0: cdf7 18bd 9ab9 6e3d 2c33 cbbc 8cd6 5ebd
000003b0: 00f6 99b9 ee72 f3bc 3898 a73c 4bd6 debc
000003c0: 3cde 26ba c6f7 44bd 168a 443d dc99 e1bc
000003d0: acbe 4d3d 3ce5 43bd d8a6 2dbc f5e9 ea3b
000003e0: 96a3 02bc 18cb 5b3a 1c7d c73b 1864 5bbd
000003f0: 545a b13c 7d17 86bd 6cca 60bd 46f3 243d
0.05070027 -0.020226814 0.008901484 0.018661633 0.015580602 -0.03740044 -0.047947787 -0.06501735
0.049805015 0.0004220158 -0.03060086 -0.026176617 -0.015491821 -0.02836898 -0.021133818 -0.03858611
-0.013751238 -0.033877857 -0.024943726 -0.016508343 -0.03363578 -0.04389299 0.05514644 -0.052947864
-0.034868125 0.023357274 0.031148273 -0.06797491 0.008450132 -0.04302939 0.049493678 0.00849578
-0.03864552 -0.05211678 0.0018881239 -0.015481897 0.02075388 -0.059054025 0.04233949 0.038886607
0.011496468 -0.054501526 -0.033806365 -0.026295044 -0.042423964 0.0593514 -0.05097285 -0.049418814
0.055236243 -0.041021444 -0.022396686 0.05038259 -0.004294038 0.045226775 0.025729785 0.03178156
0.051822945 0.04621317 -0.058570415 -0.034525584 -0.053398907 0.012048975 0.011927996 -0.05534807
-0.0585054 -0.004643351 0.026592717 0.025246229 0.009541566 0.008052446 0.024119735 0.042042855
-0.058187775 0.0483531 0.018681556 -0.016408421 0.0488979 0.035689928 -0.017630776 -0.011999847
-0.053843267 -0.036379054 -0.02769494 -0.033139747 0.03383968 0.037606314 0.014005502 -0.03242412
0.031825125 0.02951036 0.049808227 0.054797396 0.014830552 0.043069385 0.004028116 0.017267408
0.029687263 -0.06322035 -0.04164052 0.0367345 0.0076358095 -0.0005599062 0.0066318535 -0.004225786
0.030878296 0.020558205 0.039218113 -0.047573403 -0.027013814 0.041814372 -0.024162006 -0.014488071
0.035008304 0.006537994 0.014003788 -0.06610315 -0.054494843 0.018897042 0.028797058 -0.027512768
-0.046814285 -0.013276689 0.007318981 0.041128226 -0.05227074 -0.012188457 0.061532788 -0.017597815
-0.026994748 -0.013106227 -0.044127442 -0.0074224523 -0.053962998 -0.067345634 -0.040404096 0.020388134
-0.04779312 0.06242851 -0.056625135 -0.023211624 -0.021832034 0.0038696276 -0.04872393 -0.01979554
0.057800718 0.04057689 -0.017623529 0.010777341 0.04153029 -0.051612835 0.04963976 -0.06684516
0.04663316 0.021346573 0.012462093 -0.06398393 0.036008634 0.048706368 -0.00535319 -0.05944621
0.019712798 0.021822253 -0.013129823 -0.049693644 -0.067130364 0.0070525208 -0.0018865406 0.037820198
0.035893276 0.027896099 0.019439364 -0.024827242 0.047120433 -0.045211416 0.06067975 0.043038167
-0.019641228 0.053334065 -0.001218808 -0.055364497 -0.034817915 0.04331696 -0.023014953 0.027856044
0.03364536 -0.03397727 0.04228422 -0.054699294 0.056258924 0.017823756 -0.0064690635 0.012878239
0.022168202 0.0034823194 -0.0028980076 -0.05066461 -0.037558302 0.054049473 -0.06205111 0.04375776
-0.012585811 -0.018835278 0.05037442 -0.028276803 -0.026251707 -0.023491303 -0.035095662 0.04157538
0.06090421 0.014658734 -0.05385827 0.019765578 -0.0077525945 0.05916574 -0.04306659 -0.04563854
0.03755504 -0.05701576 0.022084327 0.008136414 -0.038180802 -0.0063993335 0.057720236 -0.021046586
-0.038411837 0.0009287817 0.046844512 -0.02854756 0.024762377 0.01986537 -0.0005553379 0.055790134
-0.037345696 0.058282472 -0.024804674 -0.054403827 -0.00029365718 -0.029717889 0.020458326 -0.027201792
-0.0006365513 -0.048087858 0.04798325 -0.027539186 0.050230667 -0.047826037 -0.010598861 0.007169003
-0.007973572 0.00083844503 0.0060879122 -0.053562254 0.021649517 -0.06547449 -0.054880545 0.040271066

l3.bias f4 [256]
00000000: 9a0c 043d 34b5 88bb f5e2 b7bc 1838 38bd
00000010: ca9f bfbb a940 ec3c c4d0 c1bd bb0b c43c
00000020: 1e90 753c eeaf f83a b35b 09bd 0c70 703d
00000030: 5a8e e23c e29a 15bd b4a6 133d ff60 65bd
00000040: ed6b 593b a9cf 133d 2fa0 ecbc 2473 053d
00000050: b80d 36bc 043b 8fbc 448e e53c 6db0 653c
00000060: 3b23 3cbd 56a4 0ebc ee7c 413d debf cabc
00000070: e032 2ebd 7f5d 4d3d 2f0e 573d 1923 2d3d
00000080: 6ece 193d 219d fd3c 0fd7 a2bb 8905 a83c
00000090: fe2c 493d a0dc 5dbd 17bf 27bd 904c 0fbd
000000a0: 403d 7fbd 87c8 5e3d 8c2d 32bd 2f23 0cbd
000000b0: ad4d 60bd 590d 88bd 5918 02bd fd58 5d3b
000000c0: b127 8cbd e57e 0c3d 99f8 333d f314 3dbd
000000d0: d1cd 013d 0c22 83bd 0624 d23d fc15 513d
000000e0: 6459 65bd dddc 7bbd edc5 bdbc 7976 be3c
000000f0: 825d 0e3d 1fd7 b63b 611d 713b 7853 893c
00000100: 6dd8 8e3c 728f 433c 84d4 73bc 7929 b43c
00000110: 4d84 9c3d 86e7 813d 230d e13b 956d d439
00000120: ca4b 9fbc feb6 ef3c a621 95bd 7c30 e63c
00000130: 73fd 0f39 78ae 753d c25c ec3d 1b73 173d
00000140: 22b6 ae3d 97ba b6bc 053b f9bc 3de8 d43b
00000150: d8e9 443d 5140 28bd 20d0 b1bc b2b8 853c
00000160: 8374 ab3c 9ba7 193d bfa5 003d 7eb9 65bd
00000170: ce4a 633d 0f26 4b3d 6676 163d 89bd c4bd
00000180: e14f 01bd b789 b43d 6b53 f43c a8e0 a7bc
00000190: a825 f7bc b6f5 043d 1c1c 03bd 7136 8a3d
000001a0: 48c8 4abd 9754 f9bc ec96 893c f952 5b3c
000001b0: e5af f63c 813a a3bd a08c a73c a14a b3bc
000001c0: e78e c3bc 9079 363d 223d 283d be25 76bd
000001d0: c23f 16bd 7210 31bd c2e1 95bc 3169 f6bb
000001e0: 716d cebb 6466 193d 8b62 cd3c e53e 02bd
000001f0: dc7b 143d 180d d63c bcac 183d 18dd 203c
00000200: 01a7 15bc bef0 03bd ba18 e03b 9e5c 1bbd
00000210: 6e57 8e3d 9340 11bd e9e6 2e3b 431c a73c
00000220: 0e69 563d 49c8 fb3c 9f31 253d 577e 253d
00000230: 8576 56bc 7c32 d63c 40b9 223c f516 2f3c
00000240: 28e0 f3bc 7326 e63c de0c f93a f9af c7bc
00000250: 21af 6a3d 1b43 a13c aad6 363d 913f 3abd
00000260: d9c5 a53a 9210 8b3c b24e 18bc 1581 6dbb
00000270: afa5 efbc 335f 463b 091a 513a ac97 aa3b
00000280: 0287 a0bd 1ead d13c 20cc 243d 2ebf 5e3d
00000290: e26c 863c 7282 4b3d 8c28 13bd 1107 893c
000002a0: aa72 fe3b 8594 23bd a6e9 64bc dc95 6a3d
000002b0: 82a3 3fbd ca79 ce3c e0f6 0f3d c8a7 263c
000002c0: c939 6ebb f621 19bc fd72 463d 647a 5d3d
000002d0: 4e8f 67bd e865 be3c 5699 89bd 2422 b93c
000002e0: 4050 5fbb dcc0 943d 7dec ca3c 29eb f6bc
000002f0: f024 9fbc 94c5 f53c a673 0b3c 405b dbba
00000300: 801d 04bb 34e1 f13c db7d 89bd 6543 85bd
00000310: 1091 c2bc 493b c73d 50aa 713c d5f3 9bbd
00000320: bfd4 a43c 88d0 0bbc 21bc 01bd 7623 e939
00000330: 10d4 f1bc 24fb ce3c 3a75 21bd e8f2 943b
00000340: a405 503d d855 08bd dcea 20bd eefb 7a3b
00000350: fa95 ae3d 5099 253c 682a 22bd 71ec 403d
00000360: 1369 a83d 9464 c43c 194c 87ba 4723 97bc
00000370: 429f 543d aafe 7abd 5108 f7bc ade3 50bb
00000380: 2c6f 46bd fd17 383d 23b4 19bd 41df acbc
00000390: d93e 9abc ae33 72bd 5840 1a3d 3895 d2bc
000003a0: 1a4a 3abd 08c3 6d3d e050 5bbd c9fc 04bd
000003b0: 99ba 203d d75b 3abd 22a6 64bd 4870 f93b
000003c0: 0093 00bb 1610 47bc 5ac4 ffbb e0a2 5ebd
000003d0: 8c21 a9bd 9d60 e13c 7f21 e63b f8cf 2bbd
000003e0: 396f 34bd 2e56 7a3d b8b1 ddbc 4b80 53bc
000003f0: c721 35bd 4842 f63b 301a 4bbd 652f 1a3d
0.03223858 -0.0041719917 -0.022447089 -0.04497537 -0.0058479058 0.028839426 -0.09463647 0.023931375
0.0149879735 0.001897333 -0.033534717 0.058700606 0.02765577 -0.03652466 0.036047652 -0.056000706
0.00331759 0.036086712 -0.028884975 0.03258051 -0.011111669 -0.017484196 0.02802194 0.014019114
-0.045932036 -0.008706173 0.047238283 -0.024749693 -0.042528987 0.050137993 0.05250376 0.0422698
0.037550382 0.030958714 -0.0049694846 0.020510452 0.049115174 -0.054165483 -0.04095372 -0.034985125
-0.062314272 0.054390457 -0.043500468 -0.03421324 -0.054761577 -0.06643171 -0.0317615 0.0033774965
-0.06843508 0.034300704 0.043938253 -0.046162557 0.031690422 -0.06402978 0.10260777 0.051046357
-0.055993453 -0.06148993 -0.023165667 0.023249852 0.034757145 0.0055798437 0.0036791193 0.016763434
0.017437184 0.0119360555 -0.014882211 0.021992432 0.07642422 0.06342988 0.006868021 0.00040517436
-0.019445319 0.029262062 -0.072818086 0.028099291 0.0001373196 0.05998084 0.1154113 0.036975008
0.08530833 -0.02230577 -0.03042365 0.0064974115 0.048074573 -0.041076962 -0.021705687 0.016323421
0.02092958 0.037513357 0.031408068 -0.056085102 0.05549126 0.049596842 0.036734007 -0.096064635
-0.03157032 0.088153295 0.029824933 -0.020492867 -0.030169323 0.03246089 -0.03200923 0.06748665
-0.04950741 -0.030435843 0.016795598 0.013386481 0.03011317 -0.07970143 0.020452797 -0.021886172
-0.023871852 0.044549525 0.041073926 -0.060094588 -0.036681898 -0.043228574 -0.018296126 -0.007519864
-0.0062996675 0.037451163 0.025071403 -0.031798262 0.036250934 0.02612929 0.037274107 0.009818338
-0.009134055 -0.03221201 0.006838885 -0.037930124 0.0695027 -0.035461973 0.0026687926 0.020399218
0.05234628 0.030735152 0.040330525 0.04040369 -0.013089781 0.02614712 0.009931862 0.010686626
-0.029769972 0.028094506 0.0019001027 -0.024375902 0.057295922 0.019685319 0.044638313 -0.045470778
0.0012647464 0.016975675 -0.009296106 -0.003624027 -0.029253809 0.0030269145 0.0007976597 0.005206069
-0.07838251 0.025595244 0.04023373 0.054381542 0.016409341 0.04968495 -0.03592734 0.016727002
0.007765134 -0.03993656 -0.013971722 0.057271823 -0.046786793 0.025204558 0.035147548 0.010171838
-0.003635036 -0.009346476 0.048449505 0.0540718 -0.05653315 0.023241952 -0.067187 0.022599287
-0.0034074932 0.072633475 0.02477097 -0.03014143 -0.019426793 0.03000144 0.008511459 -0.0016735569
-0.0020159185 0.02952633 -0.06713458 -0.06506995 -0.023750812 0.097281046 0.014750078 -0.07614867
0.020120976 -0.008533604 -0.031673554 0.00044467644 -0.029520065 0.025266238 -0.039418437 0.0045455582
0.05078663 -0.033284992 -0.03928648 0.0038297134 0.085246995 0.010107353 -0.039591223 0.047100488
0.08223166 0.02397374 -0.0010322361 -0.018449439 0.051909693 -0.061278023 -0.030155333 -0.0031873987
-0.048445866 0.044944752 -0.037525307 -0.02110255 -0.018828796 -0.059131317 0.03765902 -0.025705919
-0.045480825 0.058047324 -0.053543925 -0.032467637 0.039240453 -0.04549774 -0.0558225 0.007612262
-0.0019618869 -0.012149831 -0.0078053894 -0.05435455 -0.08258352 0.02751189 0.007023036 -0.04194638
-0.044051383 0.061117344 -0.027062282 -0.012909005 -0.044221666 0.0075152256 -0.04958552 0.037642855

l4.weight f4 [1, 256]
00000000: 1085 53bd 6ab2 ae3b 503e d33a 701f 8dbc
00000010: d664 23bd ed7b 233d 9cf2 3b3c a02d c13d
00000020: 400b 38bc d682 81bb 377b 243c 361b 013d
00000030: 49d7 393d 5b59 6239 abf7 33bc 05b7 1e3c
00000040: a192 a5bc 423c 63bd e40c a23b 224e aebc
00000050: 9c8d e63c 764e f6bb 080e 74bd 07d9 193b
00000060: e38f f43b f453 eeba b1e3 59bd 657c a83c
00000070: 430d 2cbc 413d 193c a1b6 023a 0520 8cbc
00000080: 1819 423b 1766 223b fa2c a6bc 5d2f ac3c
00000090: 521f d1bc 2abb 90bc 998c 393d bdae f5bc
000000a0: 6c3a 213c e5be 973b 91c1 14bd f059 0e3c
000000b0: 8fc9 883c 71cf 76bc dda3 b0bc 2700 c0bc
000000c0: 20c3 41bd 0d10 ec3b 2936 2d3b 1318 e83b
000000d0: 3f83 28bc 6801 01bc e622 bd3d 732b b1bc
000000e0: f9bd d3bb 5e53 75bc 59d4 a03c 6376 713d
000000f0: a05d 45bb 88d6 bb3a a18b 643a 52a1 153b
00000100: 1668 41bc 96d0 07bd 1081 ad3a 2e24 cd3d
00000110: b224 a03a 7293 9c3b 7921 6bba c2f7 263c
00000120: 1272 3fbd 4446 d9bc 1614 c4bc aa79 b93d
00000130: e998 7c3c 1dbb 6dba 2338 8fba 3b39 e43a
00000140: ed37 b0bc 1ecb 143d c28c d0bc 7e44 b13d
00000150: 22d9 88ba 5947 2bbc fe6f 5dbd c878 bc3a
00000160: fa83 f8bc e724 b53d 579e 833b 9913 bebc
00000170: fc82 ce3d 0437 d6bc 2c51 e13c 7bde a4bb
00000180: 78e4 50bd 8ec8 ab3d abab 83bd d077 9abc
00000190: b8be 91bc 14e0 243d 069f e7bc be56 a5ba
000001a0: 7d81 32bd bc64 22bd 3ece e13c d1b1 dbbc
000001b0: 855b 9b3a f0aa fcbb 0d56 35bb 9d61 ebbc
000001c0: eadf 31bd 02c2 373c ee1a 353b c0f6 c3bb
000001d0: 3961 873b 275a 0ebc 0c59 9cbc eeb3 423b
000001e0: 40c8 88bc d112 e83a 884a 83bc db9d 163b
000001f0: 7853 eabc 5730 7f3d 52ae 1eba a3bd ffbc
00000200: 7429 9ebc 5480 9a3c 2822 cd3b eb52 76bb
00000210: ac19 90ba a98e 4c3c f06c 013d 8f3d eb3b
00000220: f044 3d3b 4ebd 35bb 6d57 51bc 8817 d13a
00000230: a9cb 4abd d0ac 90bc 9674 7d3d e583 a53c
00000240: 3650 1fbd aaa0 833b 2013 723d 0dee 403b
00000250: f9d0 d23b 02e2 9dbc 3a46 47bb 7680 c5bc
00000260: 638f c0ba bf3d bebc 5b32 eabc 5ffe 9fbb
00000270: ee49 523c d8b3 813b ccc1 64bb e775 143b
00000280: af32 8d3c 2caf 03bd a488 e33c 7d75 ba3b
00000290: e470 463a afef 3a3c 0628 f0bc 4b9e 1ebb
000002a0: b9a9 18bc 3e00 46bd 4cdc 07bd 78f2 943c
000002b0: 30f0 313d 8ae2 263a 6554 f83b 9e56 663d
000002c0: 5371 80ba 5cd5 51bd 9b9e 20bd 73cd e5bc
000002d0: 409c 94ba b8a1 5ebd f829 0f3c 73ea 5abd
000002e0: a8f0 183c 2056 70bb 14f9 68bc 25ba 93ba
000002f0: 1e0e 673d a2fc ccbb 4886 d0bc 5042 a03c
00000300: 2c97 bc3c caee a7bc c000 4abc 172a aa3b
00000310: 0c64 81bc 0f78 d939 b0d9 90bb 635a 76bd
00000320: 1b0c 0dbd 6fef bcbc 2401 6c3d 84e0 043b
00000330: cb47 203d 1add a3bb b070 2cbd 86f6 4b3b
00000340: 60a6 173b cf79 04bd 26e1 a3bb 88db f03a
00000350: 3bfd 973a 2cdc c8bc 1f42 86ba 64cd 16bd
00000360: 1610 13ba 2909 e6bc aa03 0dbb 04fd 8abc
00000370: fea3 0bba f1ba 61bc 30e7 4d3d e8ed 083d
00000380: 5979 ca3a 89e6 d23b d670 0c3a a8ea 2c3d
00000390: 667f 173d 3b39 9b3b 0f7a e23d ff47 cfbc
000003a0: 90f9 85bb a02a 1b3d 5001 02bc eeed 24bd
000003b0: 2067 febb 95a6 d9bc f4bf e8bc c855 9ebc
000003c0: bb73 a33c a0e8 13bd e606 82bc 9f51 95bc
000003d0: a3dc b23a 26da 55bd 9de8 55ba f370 383c
000003e0: 432e 303b 8b4c 393a ad88 0f3b 4659 153d
000003f0: 836e 693b d5f3 073b c035 11bd 3b26 89ba
-0.05164057 0.005331327 0.0016116593 -0.017226905 -0.039891087 0.039913107 0.011471417 0.094325304
-0.011233151 -0.0039523644 0.010039142 0.03152009 0.045371328 0.00021586327 -0.010984342 0.00968719
-0.02021152 -0.05547739 0.0049453843 -0.021277491 0.028143696 -0.0075166775 -0.059583694 0.0023475306
0.0074634417 -0.0018182979 -0.05319566 0.020567128 -0.010501209 0.009352983 0.000498632 -0.017105112
0.0029617008 0.0024780089 -0.020285118 0.021018678 -0.02552763 -0.017667372 0.0453001 -0.029990548
0.009840589 0.0046309107 -0.03631741 0.008688435 0.016697673 -0.015064106 -0.021562511 -0.023437573
-0.047305226 0.007204062 0.0026429987 0.007082948 -0.010285198 -0.00787387 0.09235172 -0.021627164
-0.0064618555 -0.01497349 0.019632505 0.058950793 -0.003011562 0.0014330903 0.0008718316 0.002283175
-0.011804601 -0.033157907 0.0013237316 0.10016666 0.0012217967 0.004778319 -0.00089695264 0.010190906
-0.046739645 -0.026522763 -0.023935359 0.09056409 0.015417316 -0.00090687146 -0.0010926764 0.0017412076
-0.021511042 0.03632652 -0.025457744 0.08655642 -0.0010440687 -0.010454022 -0.054061882 0.0014379257
-0.030336369 0.08844929 0.0040166783 -0.023202704 0.10083577 -0.02614928 0.027504526 -0.0050314046
-0.050999135 0.08387862 -0.064292274 -0.01885596 -0.017791137 0.04025276 -0.02827407 -0.0012614352
-0.04358052 -0.03964685 0.027564164 -0.026818188 0.0011852836 -0.007710807 -0.0027669698 -0.02873307
-0.04342643 0.011215689 0.002763446 -0.0059803426 0.004131463 -0.008688486 -0.01908543 0.0029709297
-0.01669705 0.0017705803 -0.01602675 0.0022982273 -0.028604254 0.06230196 -0.00060531974 -0.031218356
-0.019306876 0.01886002 0.0062601753 -0.0037586044 -0.0010993979 0.012485185 0.03159803 0.007178969
0.0028880201 -0.0027731243 -0.012777192 0.0015952447 -0.04951063 -0.017660528 0.061878763 0.020204494
-0.038894854 0.0040169554 0.05910027 0.0029438764 0.006433603 -0.019272808 -0.0030406849 -0.024109107
-0.001469117 -0.023222802 -0.028588464 -0.0048826183 0.012835009 0.0039582066 -0.003490555 0.0022653283
0.017236082 -0.03214948 0.027775116 0.005690275 0.00075699226 0.011409684 -0.02931596 -0.0024203237
-0.009317809 -0.048340075 -0.033169076 0.018182024 0.04344195 0.00063661544 0.00757842 0.05623495
-0.0009799398 -0.051228866 -0.039213758 -0.028052067 -0.001133807 -0.054353446 0.0087380335 -0.053446244
0.009334721 -0.0036672428 -0.014219541 -0.0011270685 0.056409948 -0.006255702 -0.025454655 0.01956287
0.023021303 -0.020499606 -0.01232928 0.005193006 -0.015794776 0.00041478916 -0.0044204816 -0.060144793
-0.034435373 -0.02306339 0.057618275 0.0020275423 0.039130967 -0.0050007226 -0.042099655 0.0031122281
0.0023139939 -0.03234273 -0.005001205 0.0018375972 0.0011595854 -0.024519049 -0.0010243094 -0.03681697
-0.0005610002 -0.02808054 -0.0021517077 -0.01696635 -0.0005326866 -0.01377748 0.050269306 0.03343001
0.0015447541 0.0064361733 0.000535739 0.042215973 0.03698673 0.004737047 0.11058437 -0.025302885
-0.004088588 0.037882447 -0.007934883 -0.04026597 -0.0077637583 -0.02656869 -0.028411843 -0.019328013
0.019952646 -0.03611052 -0.01587243 -0.018227397 0.0013646077 -0.052209996 -0.0008159967 0.011257398
0.0026883043 0.0007068596 0.0021901533 0.03646209 0.0035618849 0.00207447 -0.03545165 -0.0010463664
