models/GMI_pretrained/GMI_GPM_channel_predictor_19H_nonocean.pt (torch, 545332 bytes, 7 tensors)

l1.weight f4 [256, 13]
0	0x3e6d22b0	0.23157763
1	0x3e8977ed	0.2684931
2	0xbeec0e33	-0.46104583
3	0xbca2f5b0	-0.019892544
4	0xbd3a2b64	-0.045451537
5	0x3ecb668c	0.39726675
6	0xbe828c35	-0.25497594
7	0x3d8a92dd	0.06766293
8	0x3df9642e	0.12177311
9	0xbd454b1b	-0.04816733
10	0x3e04fbfe	0.12986752
11	0xbdb28016	-0.08715837
12	0xbdfa642c	-0.122261375
13	0xbe870fab	-0.2637914
14	0x3e805369	0.25063637
15	0xbe460c25	-0.1934057
16	0xbe57bcef	-0.21068166
17	0xbd5845e0	-0.052801013
18	0xbe870b68	-0.2637589
19	0xbe3bf7b2	-0.18356207
20	0xbdf4463b	-0.11927458
21	0x3e0bed25	0.13664682
22	0x3def2f89	0.116789885
23	0xbe3065db	-0.17226355
24	0xbe87e5e2	-0.26542574
25	0xbe8b53ef	-0.27212474
26	0xbe013724	-0.1261869
27	0xbda1c86e	-0.07899557
28	0x3e098e89	0.13433279
29	0xbe4eb4d2	-0.20186165
30	0x3e052b1f	0.1300473
31	0xbd7b0fb1	-0.06129426
32	0xbe870b25	-0.2637569
33	0xbe0c9828	-0.13729918
34	0x3e29ec2e	0.16594002
35	0x3b6ae446	0.0035841628
36	0xbcd09180	-0.025460005
37	0xbe59b802	-0.212616
38	0x3e173212	0.14765194
39	0xbe8e3620	-0.2777567
40	0x3d6fb7b4	0.058524802
41	0x3d65bcc0	0.05608821
42	0x3d859198	0.065219104
43	0x3cc8475b	0.024448087
44	0xbde5fe8a	-0.1123019
45	0xbe8cfb34	-0.27535403
46	0xbdb31903	-0.08745005
47	0x3de0b5c0	0.10972166
48	0x3e4c1932	0.19931486
49	0x3d0ce44f	0.03439742
50	0x3c8d2d35	0.01723347
51	0x3e86e54c	0.26346815
52	0x3e690b59	0.22758235
53	0xbcd50ffc	-0.026008599
54	0xbd65271a	-0.055945493
55	0xbe5471b3	-0.20746498
56	0xbdce681a	-0.100784495
57	0x3e31312d	0.17303915
58	0xbe97e288	-0.29665017
59	0xbd04678c	-0.032325312
60	0x3de7a57f	0.11310863
61	0x3e028658	0.1274656
62	0xbe31c751	-0.1736119
63	0xbe276f3f	-0.16351031
64	0x3a9a8813	0.0011789821
65	0x3defca1d	0.11708472
66	0x3d839608	0.064251006
67	0xbe140a28	-0.14457
68	0x3d761abd	0.060084093
69	0xbe1a3054	-0.15057498
70	0xbe9120a0	-0.28345203
71	0x3e304a3a	0.17215815
72	0xbe567d68	-0.20946276
73	0x3ddbae5d	0.107266165
74	0x3e211149	0.1572925
75	0xbe7e397e	-0.24826619
76	0x3df6d924	0.12053135
77	0xbe217a2e	-0.15769264
78	0xbe80ce57	-0.25157425
79	0xbc39d6b2	-0.011342691
80	0xbdc0af6b	-0.09408458
81	0x3d9f75ea	0.07786162
82	0x3e7437c8	0.23849404
83	0xbe05a8fe	-0.13052747
84	0x3b6d8406	0.0036242022
85	0x3e00f95f	0.12595128
86	0xbc8964f3	-0.01677177
87	0xbbab7bc7	-0.0052332613
88	0x3cb8c0a2	0.022552792
89	0xbe8e72d3	-0.2782198
90	0xbe4033dc	-0.18769783
91	0x3e6b6d9d	0.22991033
92	0xbe2c55ba	-0.16829577
93	0x3e2472f9	0.16059484
94	0xbde45e7d	-0.11150835
95	0x3e0b6653	0.13613252
96	0xbe72377b	-0.23653977
97	0xbe896a4c	-0.2683891
98	0x3d3d2fe1	0.04618824
99	0xbe861d8f	-0.26194426
100	0xbd954982	-0.07289411
101	0xbe10832b	-0.14112537
102	0xbe85f2b3	-0.26161727
103	0xbcfc767a	-0.030818213
104	0xbd50ff22	-0.051024564
105	0x3c70ceae	0.014697714
106	0xbd7e8949	-0.062142644
107	0x3d97916f	0.07400786
108	0x3e12fe20	0.14354753
109	0xbe8519ff	-0.25996396
110	0xbe633ce5	-0.22191198
111	0x3c4a083c	0.012331065
112	0xbd9735cf	-0.0738331
113	0x3e773e40	0.2414484
114	0xbe72f345	-0.23725612
115	0xbcd86d7c	-0.026419394
116	0x3e69bec9	0.22826685
117	0x3d2bf539	0.04198191
118	0xbdfc2255	-0.12311236
119	0x3eb827f0	0.3596797
120	0x3e70a643	0.23500924
121	0xbe2a4124	-0.16626412
122	0x3ec42713	0.3831106
123	0xbc8658ad	-0.016399706
124	0x3db84439	0.089973874
125	0xbd8f4202	-0.06995012
126	0x3d9f16a9	0.07767994
127	0xbe2c004b	-0.16796987
128	0xbe261f76	-0.16222939
129	0x3dc6b298	0.09702033
130	0xbcfd03db	-0.030885627
131	0x3e1f0d81	0.15532495
132	0xbdcfbed1	-0.10143817
133	0xbd1f8883	-0.038948547
134	0x3dfe6c4e	0.12423001
135	0x3e6dfd22	0.23241094
136	0xbddad2af	-0.10684716
137	0xbe3e1c43	-0.18565468
138	0x3cffbceb	0.031218013
139	0xbe8be1fd	-0.27320853
140	0xbed3e168	-0.4138291
141	0xbe26553e	-0.16243455
142	0xbed583d0	-0.41702127
143	0xbe3a8316	-0.18214068
144	0xbe08abcf	-0.1334679
145	0xbd97e2b3	-0.07416286
146	0xbe130fd0	-0.143615
147	0x3e5fec47	0.21867476
148	0x3e783999	0.24240722
149	0xbe36f6b8	-0.17867553
150	0xbe1cb543	-0.15303521
151	0x3c8e7bfa	0.017393101
152	0xbe4583da	-0.19288579
153	0xbe39c0d8	-0.1813997
154	0x3db5158b	0.088419996
155	0x3de52281	0.11188222
156	0xbdf08418	-0.11743945
157	0x3d5b14ff	0.05348682
158	0xbed1db7f	-0.40987775
159	0x3e8bcc60	0.27304363
160	0x3ec38a10	0.3819127
161	0xbd4d2c84	-0.05009128
162	0x3dec6403	0.11542513
163	0xbde7947a	-0.113076165
164	0xbe3b16d4	-0.18270427
165	0xbe7b1fea	-0.24523893
166	0xbe73c306	-0.23804864
167	0x3de57d0c	0.112054914
168	0x3daaad61	0.08333851
169	0x3dedab6f	0.11604964
170	0x3bdf3f98	0.006813001
171	0xbd98c64c	-0.07459697
172	0xbe4d5c32	-0.20054701
173	0xbdb8a0b9	-0.090150304
174	0xbe0794eb	-0.13240401
175	0xbdafd79f	-0.08586048
176	0x3e3b8b60	0.18314886
177	0xbd0ad343	-0.03389288
178	0xbe208747	-0.15676604
179	0xbcdf2956	-0.02724139
180	0xbd55b829	-0.052177582
181	0x3df753e8	0.12076551
182	0xbe39de93	-0.18151312
183	0xbe3728b2	-0.17886618
184	0x3e476219	0.19471015
185	0xbe51f744	-0.2050448
186	0xbe0d8723	-0.13821082
187	0xbc352dd0	-0.011058286
188	0x3dc477d8	0.09593171
189	0x3e0d1877	0.13778864
190	0xbe5d75b2	-0.21626928
191	0x3e6fbdcc	0.23412246
192	0x3dd28edf	0.10281157
193	0xbddc42bb	-0.10754915
194	0xbe7e4644	-0.24831492
195	0xbd3e509a	-0.046463586
196	0xbd268902	-0.040658005
197	0x3e1af977	0.15134226
198	0xbe7f2131	-0.24915005
199	0xbd340c39	-0.04395697
200	0xbe8967ca	-0.26836997
201	0x3d2cf28a	0.04222349
202	0x3d0aaa51	0.033853833
203	0x3dd9187d	0.10600374
204	0xbe3df338	-0.18549812
205	0x3dba398d	0.09093008
206	0xbdc44b66	-0.095846936
207	0x3cf6a614	0.03010849
208	0xbee1d474	-0.441074
209	0xbeaeeab4	-0.3416344
210	0x3df22306	0.118230864
211	0x3e87ee7f	0.26549146
212	0xbe2c10cd	-0.16803284
213	0x3d9ce109	0.076601095
214	0x3d50bcde	0.050961368
215	0x3eb87a49	0.36030796
216	0x3ba99301	0.005174995
217	0xbe34d25a	-0.17658368
218	0x3e8ef36d	0.27920094
219	0xbce0e185	-0.027451286
220	0x3dc5ba2b	0.09654649
221	0xbe64c07b	-0.2233905
222	0xbe34907e	-0.17633244
223	0x3dcf306f	0.1011666
224	0x3d765298	0.06013736
225	0x3e864533	0.2622467
226	0xbbcb0722	-0.0061959187
227	0x3e542abc	0.20719427
228	0xbe4fd5fc	-0.20296472
229	0xbe7ea21b	-0.24866526
230	0xbd33ff39	-0.04394457
231	0xbdf6edc6	-0.120570704
232	0xbcae03a0	-0.021241963
233	0xbe8935ab	-0.26798758
234	0x3c9494c3	0.018137341
235	0xbcc8c9d9	-0.024510311
236	0xbd0e591e	-0.034752958
237	0x3d77d1eb	0.060502928
238	0x3d04effa	0.032455422
239	0xbe47a4bd	-0.19496436
240	0x3dc033f3	0.093849085
241	0x3dcc24b5	0.09967939
242	0xbe986ee8	-0.29772115
243	0xbe4e67b2	-0.20156744
244	0xbe471226	-0.19440517
245	0x3e068de2	0.13140061
246	0x3dd6d525	0.10489873
247	0xbe3c1952	-0.18369034
248	0xbe5714fc	-0.21004099
249	0x3e1458a5	0.1448694
250	0x3db0de45	0.086361445
251	0xbe08e6d8	-0.1336931
252	0x3c523c28	0.012831725
253	0xbf00c129	-0.5029474
254	0xbc4982d1	-0.0122992555
255	0x3e28b790	0.16476274

l1.bias f4 [256]
0	0xbdb38b53	-0.08766808
1	0xbddbe42c	-0.1073688
2	0x3e6b9cda	0.23009053
3	0xbda84f47	-0.08218246
4	0x3e4dfb73	0.20115452
5	0xbc400fad	-0.011722487
6	0xbda8c7ea	-0.082412556
7	0xbe1cac34	-0.15300065
8	0xbd34e5c0	-0.04416442
9	0xbef12d9c	-0.4710511
10	0xbef29f5b	-0.47387204
11	0x3e647c09	0.2231294
12	0x3ee06bfb	0.43832383
13	0x3e8834ae	0.2660269
14	0xbdc882ef	-0.097905986
15	0x3dc3717d	0.095431305
16	0xbe04a121	-0.12952091
17	0xbc9ac109	-0.018890874
18	0xbe960263	-0.29298696
19	0x3e37048e	0.17872831
20	0x3f330a19	0.6993728
21	0x3e5fe623	0.21865134
22	0xbea6a11f	-0.325448
23	0xbe5dbb81	-0.21653558
24	0x3ddadb78	0.106863916
25	0x3d04333e	0.03227543
26	0xbed792a4	-0.42104065
27	0xbdac659f	-0.0841782
28	0xbfb478d0	-1.4099369
29	0xbe5fa579	-0.21840467
30	0x3e3afe85	0.18261154
31	0xbf23ddc9	-0.6401029
32	0x3faddb01	1.358246
33	0x3dd8cd62	0.10586049
34	0xbd1ba1b2	-0.037996
35	0xbc1c5e5b	-0.0095439805
36	0xbf0b69ea	-0.5445849
37	0x3d4f4da0	0.05061114
38	0xbe2825c0	-0.1642065
39	0xbd615492	-0.055012293
40	0x3f363b68	0.71184397
41	0xbf4e46ab	-0.8057658
42	0xbe357d04	-0.17723471
43	0x3df9edfa	0.122035936
44	0xbf0b1dc7	-0.5434231
45	0xbe56ed8b	-0.20989053
46	0xbe5b633c	-0.21424574
47	0xbf21255b	-0.62947625
48	0xbe2ddfd0	-0.16979909
49	0x3e1c04d5	0.15236218
50	0xbf61ab90	-0.8815241
51	0xbe7787f9	-0.24172963
52	0xbe1f2eab	-0.15545146
53	0xbf12917c	-0.5725324
54	0x3d795268	0.060869604
55	0xbc357d53	-0.011077243
56	0xbef982f4	-0.48732722
57	0xbe2a6e27	-0.16643582
58	0x3db3bc6a	0.087761715
59	0x3e6f2aae	0.23356125
60	0xbdbd064d	-0.092297174
61	0xbd98783e	-0.074448094
62	0xbf0ab3bb	-0.54180497
63	0x3bfdb78e	0.0077428287
64	0x3da9d1c7	0.08291965
65	0x3d8b68eb	0.06807121
66	0xbd8e1c41	-0.06938983
67	0x3e017a6e	0.1264436
68	0x3fb5cc33	1.4202942
69	0xbdfec0a2	-0.124390855
70	0x3eebe88e	0.46075863
71	0x3e567a53	0.209451
72	0xbde303fe	-0.11084746
73	0x40381c13	2.8767135
74	0x3e2e48da	0.17019978
75	0x3f3ac0e9	0.7295061
76	0xbe09c694	-0.13454658
77	0x3e259198	0.16168821
78	0xbfbd3fe7	-1.4785126
79	0xbe150f02	-0.14556506
80	0x3f91ed09	1.1400462
81	0x3e61586c	0.22006387
82	0xbf1cb7cc	-0.6121795
83	0xbace2ebd	-0.0015730482
84	0xbe8c375f	-0.27385995
85	0x3e0983b0	0.13429141
86	0xbeab15f7	-0.33415195
87	0x3e38b0c4	0.1803618
88	0xbf2393ef	-0.63897604
89	0xbf515dfe	-0.81784046
90	0x3d0c81af	0.034303363
91	0xbe4204c6	-0.18947133
92	0xbc9849d9	-0.0185899
93	0x3eacab70	0.33724546
94	0x3f3f3881	0.74695593
95	0xbe2383bc	-0.15968221
96	0x3dd82a3b	0.1055493
97	0xbf658810	-0.8966074
98	0xbd4fd301	-0.05073834
99	0x3d902b78	0.07039541
100	0xbdec5367	-0.11539345
101	0xbe3a80cf	-0.18213199
102	0xbe66945f	-0.22517537
103	0xbe8acab7	-0.27107784
104	0x3e5441cf	0.20728229
105	0xbe5a8bd1	-0.21342398
106	0xbe55368f	-0.20821594
107	0xbf67e8bf	-0.9058952
108	0xbebf7186	-0.373913
109	0x3d68e1f9	0.05685613
110	0x3e549f27	0.20763837
111	0x3f76e224	0.96438813
112	0x3d09e0c8	0.033661634
113	0x3e8a4057	0.27002212
114	0xbd623ffe	-0.05523681
115	0xbd844ebf	-0.06460332
116	0xbf6e6063	-0.93115824
117	0x3d36e607	0.044652965
118	0xbecb090a	-0.39655334
119	0x3d89d47b	0.067299806
120	0xbdece6e1	-0.11567474
121	0xbf15a694	-0.58457303
122	0xbe27a306	-0.16370782
123	0x3d2ea14c	0.042634293
124	0x3b953d06	0.0045543937
125	0x3d9e52e3	0.07730653
126	0x3dd90480	0.105965614
127	0xbf100359	-0.5625511
128	0xbf21f882	-0.6326982
129	0x3b7d57c7	0.0038657056
130	0x3e1afba4	0.15135056
131	0xbe8c0645	-0.27348533
132	0xbe2299de	-0.15879008
133	0xbeca967c	-0.39567935
134	0x3e6f82c6	0.2338973
135	0x3dd1b0ae	0.10238777
136	0xbf594cb6	-0.84882677
137	0x3f0a1aa5	0.53946906
138	0xbe8519df	-0.259963
139	0x3d417fe8	0.04724112
140	0xbd151dd3	-0.036405396
141	0xbe565c01	-0.20933534
142	0x3e35a094	0.17737037
143	0x3e89a633	0.26884612
144	0x3e60ed7f	0.21965598
145	0x3e19d931	0.15024258
146	0x3f11c703	0.5694429
147	0x3d22c618	0.0397397
148	0x3e80014d	0.25000992
149	0xbdc47699	-0.09592933
150	0xbd3704ae	-0.044682197
151	0xbeb2f622	-0.3495341
152	0xbdf294c0	-0.11844778
153	0x3e0a87f1	0.1352842
154	0x3beaae52	0.007161894
155	0xbe980791	-0.29693273
156	0xbe698322	-0.2280393
157	0xbe2b63d5	-0.16737302
158	0x3e38e70c	0.18056887
159	0x3efde7d4	0.49590933
160	0xbe2eaeb7	-0.17058836
161	0xbed5ed7e	-0.41782755
162	0x3e3cdbab	0.18443172
163	0xbe87eea5	-0.2654926
164	0xbacfcbc0	-0.0015853569
165	0xbf26d725	-0.65172035
166	0xbf6418b6	-0.89100206
167	0xbda895c9	-0.08231694
168	0xbbc52c67	-0.006017256
169	0xbd1e5948	-0.038659364
170	0xbe9709e4	-0.29499733
171	0xbe8e0842	-0.27740675
172	0xbfb2be4f	-1.3964328
173	0x3e30ceb6	0.17266354
174	0xbef022db	-0.46901593
175	0x3d10367d	0.035208214
176	0xbf4c6d43	-0.7985422
177	0xbea6cf50	-0.32580042
178	0x3d6cf207	0.057848003
179	0xbe09d1e7	-0.13458978
180	0xbddddbff	-0.108329765
181	0x3db65438	0.08902782
182	0x3daa7200	0.08322525
183	0x3cc38195	0.0238655
184	0x3ee6f0d9	0.45105627
185	0xbe12a2bd	-0.14319892
186	0xbcc9f7be	-0.024654265
187	0x3fbb762b	1.4645437
188	0x3f8d883b	1.1057199
189	0x3dd0c14f	0.10193121
190	0xbeaf1d30	-0.34201956
191	0xbccaea75	-0.024770001
192	0x3f600190	0.87502384
193	0xbe1b63e7	-0.15174828
194	0x3e6adf63	0.22936778
195	0x3d134f16	0.035964094
196	0xbee2c3d4	-0.4429003
197	0x3f8f7066	1.1206176
198	0xbe19319f	-0.14960335
199	0xbf0a9b4e	-0.54143226
200	0xbe58d370	-0.21174407
201	0xbd6c84f6	-0.05774399
202	0xbe625073	-0.22101001
203	0xbe496a93	-0.19669561
204	0xbe370618	-0.17873418
205	0xbe4a4f01	-0.197567
206	0x3dae0ffc	0.084991425
207	0x3e7e59f1	0.24838997
208	0xbe164d03	-0.14677815
209	0xbde39ee8	-0.11114293
210	0xbddd71c4	-0.10812715
211	0xbf104dcb	-0.563687
212	0xbf1fc484	-0.62409234
213	0xbe59bbde	-0.21263072
214	0xbe2c7af4	-0.16843778
215	0xbea4ed32	-0.32212216
216	0xbdb135e1	-0.08652855
217	0xbf9c9296	-1.2232234
218	0x3e800d5e	0.25010198
219	0x3e07cad4	0.13260967
220	0x3e1fd901	0.15610124
221	0xbebbe72b	-0.36699805
222	0x3e7d3292	0.24726322
223	0xbe862617	-0.26200935
224	0xbe3ce884	-0.18448073
225	0xbee3d6f1	-0.44499925
226	0x3df4af8c	0.119475454
227	0xbf20f906	-0.6287998
228	0x3e10fcba	0.14158908
229	0xbd1cd893	-0.03829248
230	0x3f17fcbd	0.59370023
231	0xbf361d2d	-0.7113827
232	0xbf2bbc06	-0.67083776
233	0xbe01f669	-0.12691654
234	0x3c4f810b	0.012665044
235	0xbe7ecc46	-0.24882612
236	0x3e8b0cad	0.27158108
237	0x3b678acd	0.0035330534
238	0x3e7249c7	0.23660956
239	0xbe986bfe	-0.29769892
240	0xbe0cfd08	-0.13768399
241	0x3d9bf4f9	0.07615084
242	0xbdd138e6	-0.10215931
243	0xbe8c8de4	-0.27452004
244	0x3d0b05fb	0.03394125
245	0x401bc81d	2.434089
246	0xbf5f73e6	-0.8728622
247	0x3d9c26f9	0.07624621
248	0xbd81abbd	-0.063315846
249	0xbe310754	-0.17287952
250	0xbef05764	-0.46941674
251	0xbd4a6530	-0.049412906
252	0xbdd4b8f2	-0.10386838
253	0xbe13afa1	-0.14422466
254	0x3c07342e	0.008252187
255	0xbd7adce0	-0.0612458

l2.weight f4 [256, 256]
0	0xbc28cf36	-0.010303309
1	0x3c894a98	0.016759202
2	0x3bb91b70	0.0056490228
3	0x3d2d769c	0.042349443
4	0x3c3eba30	0.01164107
5	0xbbf50540	-0.0074774325
6	0x3c1dd170	0.009632453
7	0xbd4f9f80	-0.05068922
8	0xbc71ff18	-0.014770292
9	0xbd8c3b2f	-0.06847226
10	0xbd200c4c	-0.039074227
11	0x3cf486c8	0.029849425
12	0xbd2bf0de	-0.041977756
13	0xbd30f922	-0.04320634
14	0xbd54c326	-0.05194392
15	0x3c87e3c0	0.016588092
16	0xbd8a9d1a	-0.06768246
17	0xbd16ac4a	-0.0367854
18	0x3ca81d90	0.020521909
19	0xbd70c908	-0.05878547
20	0x3c93bc90	0.01803425
21	0xbbd3cf40	-0.006463915
22	0xbc14af18	-0.009074949
23	0x3cff6744	0.03117717
24	0x3ac08780	0.001468882
25	0xbd052ab0	-0.032511413
26	0xbd9328d4	-0.07185522
27	0x3c1fa850	0.009744719
28	0x3c0bf34f	0.008541896
29	0xbd339034	-0.043838695
30	0x3b0ea7c0	0.0021767467
31	0xbd377a7c	-0.044794545
32	0xbb91ca19	-0.0044491407
33	0x3bb53840	0.005530387
34	0xbc5b74b8	-0.013394527
35	0xbd2dd48c	-0.04243903
36	0xbb005506	-0.0019581928
37	0xbd4458ae	-0.047936134
38	0x3ca3adc4	0.019980319
39	0x3d358ce0	0.044323802
40	0xbd832aff	-0.06404685
41	0xbd2f95d0	-0.04286748
42	0x3c3564e0	0.011071414
43	0x3ca774f8	0.020441517
44	0xbd75c14b	-0.05999879
45	0x3d36e99c	0.04465638
46	0x3bf17b90	0.007369466
47	0xbce17970	-0.027523726
48	0xbb331360	-0.002732478
49	0xbb882870	-0.004155211
50	0x3cb9c5c8	0.022677317
51	0xbd33bd50	-0.043881714
52	0xbce987d8	-0.028507158
53	0x3cb074d1	0.021540077
54	0x3d7c24f2	0.06155867
55	0x3c9bb9bc	0.019009463
56	0xbd884668	-0.06654054
57	0x3d262118	0.040558904
58	0x3ca07910	0.019588977
59	0x3c8b41fc	0.016999237
60	0xbd85148c	-0.0649806
61	0x3d77532e	0.06038206
62	0xbd6abc63	-0.057308566
63	0xbd7935b2	-0.060842223
64	0x3cef2054	0.02919022
65	0x3d332680	0.04373789
66	0xbcd0b4d8	-0.025476858
67	0x3b6f5120	0.003651686
68	0xba0fec4b	-0.00054902275
69	0x3c762028	0.015022315
70	0xbd2199ec	-0.039453432
71	0x3bc4ae30	0.00600221
72	0xbcbdc03c	-0.023162954
73	0xbd4d6f4f	-0.05015498
74	0xbc891b58	-0.016736671
75	0xbd693df3	-0.056943845
76	0x3c7e84f8	0.015534632
77	0x3c5a7fb0	0.013336107
78	0xbd8c6f32	-0.06857146
79	0xbd7a3122	-0.061082013
80	0x3dfac772	0.122450724
81	0x3cfdffe0	0.0310058
82	0xbbaf2609	-0.0053451103
83	0x3ce57c08	0.028013244
84	0x3bbdf750	0.005797304
85	0xbc205578	-0.009786002
86	0x3d0fcc1e	0.03510677
87	0xbd583256	-0.05278238
88	0xbda6c118	-0.081422985
89	0xbd5a42c5	-0.053286333
90	0xbd5d2c50	-0.053997338
91	0xbd494906	-0.049141906
92	0x3cfa5f34	0.030562975
93	0x3cf70f10	0.03015855
94	0xbd414902	-0.047188766
95	0x3cd79760	0.026317298
96	0xbd1b0c0c	-0.037853286
97	0xbdd1eda0	-0.102504015
98	0xbce0a97c	-0.027424566
99	0xbba5a120	-0.005054608
100	0xbc8cb310	-0.017175227
101	0xbcb30354	-0.021852173
102	0x3d2014ca	0.039082326
103	0x3beae800	0.00716877
104	0x3d7e3d64	0.062070265
105	0x3d42eb24	0.04758753
106	0x3cfa1eb0	0.030532211
107	0x3c082b1e	0.008311061
108	0x3d4f8982	0.050668247
109	0xbd6d129d	-0.05787908
110	0x3b85f890	0.004088469
111	0xbce79647	-0.0282699
112	0xbd515184	-0.05110313
113	0x3cb39d64	0.021925636
114	0xbbf774a0	-0.0075517446
115	0x3b88bbd0	0.0041727796
116	0x3d204073	0.039123964
117	0xbd699f9c	-0.05703698
118	0xbd3bede8	-0.045881182
119	0x3d4ded66	0.05027523
120	0xbca7f4e0	-0.020502508
121	0x3ccbcd9f	0.024878321
122	0x3cdc583c	0.026897542
123	0x3d778e68	0.060438544
124	0x3d316102	0.043305404
125	0xbd20bbdc	-0.039241657
126	0x3d261c14	0.04055412
127	0x3cd5e39c	0.02610951
128	0x3d0e8c3f	0.034801718
129	0xbd023a82	-0.03179408
130	0x3cbc8588	0.023012891
131	0x3d281376	0.041034184
132	0xbbc30d70	-0.0059525296
133	0xbd941ec0	-0.072324276
134	0xbbeeaf90	-0.0072841123
135	0x3d1766dc	0.03696333
136	0xbceea8b9	-0.029133188
137	0x3c8c5c4d	0.017133856
138	0xbba10b6b	-0.004914691
139	0xbc04b628	-0.00810007
140	0x3d6174cc	0.055043027
141	0x3d27985c	0.040916786
142	0xbad0b900	-0.0015924275
143	0x3cd1b464	0.025598712
144	0x3ce53540	0.027979493
145	0xbacd4280	-0.0015660077
146	0x3c4ab633	0.012372541
147	0x3c85729c	0.016290002
148	0xbd680c08	-0.0566521
149	0x3c671a10	0.014105335
150	0x3cb19732	0.02167854
151	0x3ceceefc	0.02892255
152	0x3d367a9a	0.044550516
153	0x3b033e40	0.0020026118
154	0xbcc004e0	-0.023439825
155	0xbc0be000	-0.0085372925
156	0x3d4fef16	0.05076512
157	0xbc61963c	-0.013768729
158	0xbd7b4a68	-0.061350256
159	0x3c1aa6b6	0.009439161
160	0xbbe1d1d0	-0.0068914667
161	0xbd4744c8	-0.04864958
162	0x3cfd24ec	0.030901395
163	0x3b2dca00	0.0026518106
164	0xbc870ed0	-0.016486555
165	0x3d69c94e	0.057076745
166	0x3cb597b1	0.022167059
167	0xbcbc05eb	-0.02295204
168	0xbd765348	-0.060138017
169	0xbbf308a0	-0.0074167997
170	0xbd08d558	-0.033406585
171	0x3c9dabe4	0.019247003
172	0xbccf9515	-0.025339643
173	0xbcf36044	-0.029708989
174	0xbdae7ac1	-0.08519507
175	0x3c9e99a8	0.019360378
176	0x3c508894	0.012727875
177	0xbc53ef18	-0.012935422
178	0x3d284a92	0.04108674
179	0x3d001a4a	0.03127507
180	0x3d7d1500	0.061787605
181	0x3c686cd0	0.014186099
182	0xbd166b54	-0.03672345
183	0x3d148340	0.036257982
184	0xbcd0f109	-0.02550556
185	0x3ca724ec	0.020403348
186	0x3d54b846	0.05193355
187	0xbdecb05b	-0.11557075
188	0x3cbf0727	0.02331884
189	0x3d32ba1a	0.04363451
190	0x3d5d0178	0.05395648
191	0x3d306fd2	0.04307539
192	0xbd727f80	-0.059203625
193	0xbc18f2a0	-0.00933519
194	0xbcdae034	-0.026718237
195	0x3d1800c2	0.037110098
196	0x3c9886c2	0.018618945
197	0xbce79f6f	-0.028274266
198	0xbcb396c4	-0.021922477
199	0xbcb79cb6	-0.022413593
200	0xbcbd06a8	-0.023074463
201	0x3d3bb3b8	0.04582569
202	0xbd35092c	-0.0441982
203	0xbcdb92f0	-0.026803464
204	0x3d00f85a	0.031486847
205	0xbd3e7562	-0.046498664
206	0x3d56f00e	0.052475028
207	0x3d59c4c6	0.053166173
208	0xbd039ce8	-0.03213206
209	0x3c473648	0.012158938
210	0xbc98bf00	-0.018645763
211	0xbd0ed71b	-0.03487311
212	0xbcb4f077	-0.022087319
213	0xbd6db9b6	-0.058038436
214	0x3d51f5ea	0.051259913
215	0x3d2ff4a8	0.04295793
216	0x3d35d078	0.044388264
217	0x3cd3b8f8	0.025845036
218	0xbc0aa400	-0.008461952
219	0x3c4cbda8	0.012496389
220	0x3d1043a4	0.035220757
221	0x3ccee6df	0.025256572
222	0x3d64720e	0.055772834
223	0x3baadf80	0.0052146316
224	0xbc7225b0	-0.014779493
225	0x3d3d0966	0.04615154
226	0x3d65c3f2	0.05609507
227	0xbda4c013	-0.08044448
228	0x3d644436	0.055729114
229	0xbd0c75b2	-0.03429193
230	0xbd2f78fa	-0.04283998
231	0xbcb356e1	-0.021892013
232	0xbd87eca9	-0.06636936
233	0xbc861c64	-0.01637096
234	0x3d6b9412	0.057514258
235	0xbceb64fc	-0.028734677
236	0x3cc87484	0.024469621
237	0xbcb7b8c8	-0.022426978
238	0x3ba595c0	0.005053252
239	0x3bfc1da0	0.0076939613
240	0xbd3a6dd8	-0.04551491
241	0xbd3cb262	-0.046068557
242	0xbce3ba00	-0.027798653
243	0x3d68bbf4	0.05681987
244	0xbbe54250	-0.0069964305
245	0xbd399f47	-0.045317914
246	0xbdb1cac1	-0.0868125
247	0x3cb7c560	0.022432983
248	0xbb4cafc0	-0.0031232685
249	0x3ae83000	0.00177145
250	0xbd0b2d2a	-0.03397862
251	0xbd448acc	-0.04798393
252	0xbd24881a	-0.04016886
253	0xbcb7f7c8	-0.022457018
254	0xbbcf3410	-0.006323345
255	0xbcb123f4	-0.02162359

l2.bias f4 [256]
0	0xbd5cae47	-0.05387714
1	0xbc630cec	-0.013858061
2	0x3e02d6d7	0.12777267
3	0xbe85a857	-0.26104996
4	0xbc90d91b	-0.017681649
5	0xbcd3803e	-0.025817987
6	0xbcda2863	-0.026630586
7	0xbdce7c3b	-0.10082289
8	0xbd892f4e	-0.06698476
9	0x3eee97ea	0.46600276
10	0xbf17b285	-0.59256774
11	0xbd448b68	-0.04798451
12	0x3ccc9acd	0.024976159
13	0x3b807b36	0.003920938
14	0x3c9d8250	0.019227177
15	0xbf131c0b	-0.57464665
16	0x3d6044bc	0.05475305
17	0xbc599dde	-0.013282267
18	0xbd545d18	-0.051846594
19	0xbe1c0eae	-0.15239975
20	0x3cd497c0	0.025951266
21	0xbc869542	-0.016428594
22	0xbc8cae3c	-0.017172925
23	0x3d21f894	0.039543703
24	0xbbab72ec	-0.0052322056
25	0xbc20cf3d	-0.009815034
26	0xbd87d70f	-0.06632816
27	0x3bea89fb	0.007157562
28	0x3e5599bf	0.2085943
29	0xbc64f5bd	-0.013974604
30	0xbd5d4380	-0.05401945
31	0xbf4727d2	-0.77795136
32	0x3d15d46e	0.03657954
33	0xbce266be	-0.027636882
34	0x37288cd2	1.0046368e-05
35	0xbd28dc20	-0.041225553
36	0xbd4d5194	-0.050126627
37	0x3ce55e32	0.027999017
38	0x3d38c34c	0.045108125
39	0xbd7faf61	-0.062423114
40	0xbcb46658	-0.022021458
41	0xbc9168dd	-0.017750198
42	0xbdd8934f	-0.10574972
43	0xbd6ec738	-0.05829546
44	0x3cc52f87	0.024070514
45	0xbc490f0e	-0.012271656
46	0xbd376311	-0.04477221
47	0x3c1f46b3	0.009721446
48	0xbf139ef7	-0.57664436
49	0xbd0e1799	-0.034690473
50	0xbe6b0f46	-0.22955045
51	0xbd32b2ae	-0.043627433
52	0xbe88092b	-0.26569495
53	0xbd58b7cf	-0.05290967
54	0x3d57256a	0.052525915
55	0x3ce4f72e	0.027949896
56	0xbdc851a6	-0.09781198
57	0x3b989151	0.004655995
58	0x3be1c512	0.0068899477
59	0xbe9cde15	-0.30638185
60	0x3cc1ca90	0.02365616
61	0x3b5a3f3d	0.0033301853
62	0xbd410407	-0.04712298
63	0xbcb71545	-0.02234901
64	0xbd3504ea	-0.04419414
65	0xbf23509b	-0.6379487
66	0xbe03960e	-0.1285021
67	0x3d074944	0.033028856
68	0x3d277338	0.040881366
69	0xbf1189eb	-0.5685107
70	0xbd768385	-0.06018402
71	0x3cc57a7a	0.024106253
72	0xbd6f1eb2	-0.058378883
73	0xbdd5cfc4	-0.10440019
74	0xbdb9c9dd	-0.090717055
75	0x3d547ac1	0.05187488
76	0xbca6bec3	-0.020354634
77	0xbcf56aa6	-0.02995808
78	0x3c95dbca	0.01829328
79	0x3c3468e3	0.011011335
80	0xbc323b11	-0.01087834
81	0xbf1a4e6e	-0.60275924
82	0xbf2da8b5	-0.6783555
83	0xbd8b7c27	-0.068107896
84	0xbe0b88c4	-0.1362639
85	0xbc52e892	-0.012872832
86	0xbd9f6d2a	-0.07784493
87	0xbd29a64b	-0.041418355
88	0xbf30f419	-0.69122463
89	0x3cdeab60	0.027181327
90	0xbda1ceb7	-0.07900756
91	0xbc8e1273	-0.017342782
92	0xbc952c7f	-0.018209694
93	0xbc7ba74c	-0.015359711
94	0xbd14f43e	-0.03636574
95	0xbde17d6c	-0.110102504
96	0xbc678272	-0.014130222
97	0xbd547506	-0.051869415
98	0xbd159ead	-0.03652828
99	0x3d45c29c	0.048281297
100	0xbce433ee	-0.027856793
101	0xbcfe8a6f	-0.03107187
102	0xbda27d22	-0.079340234
103	0x3ce3119c	0.027718358
104	0xbaf75c7a	-0.0018872165
105	0xbe15c192	-0.14624622
106	0xbc804870	-0.01565954
107	0xbd3111cb	-0.04322986
108	0x3d001ace	0.031275563
109	0xbd811265	-0.063023366
110	0xbd466248	-0.048433572
111	0xbf18e1d9	-0.59719616
112	0xbf2639fd	-0.64932233
113	0x3cff8fe0	0.031196535
114	0xbd5d1ea4	-0.0539843
115	0x390dd4bb	0.00013526056
116	0xbf1eea88	-0.62076616
117	0x3bb97724	0.0056599546
118	0x3c840b47	0.016118659
119	0x3d2db360	0.042407393
120	0xbbc1dff7	-0.0059165913
121	0xbca10197	-0.019654078
122	0xbe4a8569	-0.19777454
123	0xbd6e5f03	-0.05819608
124	0xbe0467f8	-0.12930286
125	0x3d389d1b	0.045071702
126	0x3c3a3e13	0.011367339
127	0xbd7bf6c2	-0.061514623
128	0xbc46c41d	-0.012131718
129	0xbbb1e20a	-0.0054285573
130	0x3c642e39	0.013927036
131	0x3b46a097	0.0030308121
132	0x3d08e8d2	0.03342516
133	0xbce36a48	-0.02776064
134	0xbdcd4124	-0.1002219
135	0xbd5af3a8	-0.053455025
136	0xbd8508e4	-0.064958364
137	0xbe0a6094	-0.13513404
138	0xbd8a5b80	-0.067557335
139	0x3c8f028a	0.017457265
140	0x3c6b507f	0.0143624535
141	0xbd15231b	-0.036410432
142	0xbf1cbe45	-0.6122783
143	0xbd9cb6cb	-0.076520525
144	0x3cee6192	0.02909926
145	0xbd7b3b9c	-0.061336145
146	0x3d451c00	0.048122406
147	0xbe41be4b	-0.18920247
148	0xbd2fe9c9	-0.042947564
149	0xbd08d761	-0.033408526
150	0xbd9bade3	-0.07601526
151	0x3c92cb03	0.01791907
152	0xbdddc307	-0.10828214
153	0xbbcccc30	-0.006249927
154	0xbf013dae	-0.5048474
155	0xbbc603a6	-0.0060429154
156	0xbcee69a7	-0.029103113
157	0xbd6ca60c	-0.057775542
158	0xbb64e57b	-0.003492682
159	0x3c7a65b0	0.015283033
160	0x3bfb3591	0.0076662977
161	0xbe094210	-0.13404107
162	0xbd7bc18c	-0.061463878
163	0x3dd83afe	0.10558127
164	0x3ce73318	0.028222606
165	0xbcbbef15	-0.022941152
166	0xbe74617b	-0.23865311
167	0xbf257483	-0.6463091
168	0xbd591930	-0.053002536
169	0xbe896665	-0.26835933
170	0xbcba7394	-0.02276019
171	0xbf94911d	-1.1606785
172	0xbd27ec9f	-0.040997144
173	0x3c5161e6	0.012779688
174	0xbdf5c40a	-0.12000282
175	0xbd0847c4	-0.033271566
176	0xbca61ff4	-0.020278908
177	0xbd8c64ff	-0.06855201
178	0xbd7586ee	-0.059943132
179	0x3c216904	0.009851698
180	0xbe3cbd18	-0.18431509
181	0xbca27bf8	-0.019834504
182	0xbc9ec665	-0.019381711
183	0xb962e01e	-0.0002163653
184	0xbdfab35d	-0.12241242
185	0x3c264560	0.010148376
186	0xbb9f5b2b	-0.004863163
187	0xbe4eb02b	-0.2018439
188	0xbdee8228	-0.11645919
189	0xbf1d1a82	-0.6136857
190	0x3c892b60	0.016744316
191	0xbd831e40	-0.06402254
192	0xbf199adb	-0.60001916
193	0xbfb934fe	-1.4469297
194	0xbd0ca367	-0.03433552
195	0xbda7c7e5	-0.08192424
196	0xbc07c833	-0.008287477
197	0xbd786e3f	-0.060652014
198	0xbc9d51ef	-0.019204108
199	0xbd8d1250	-0.068882585
200	0xb94f0c61	-0.0001974567
201	0xbcd467c4	-0.025928386
202	0x3cf83c80	0.030302286
203	0xbf1adb3a	-0.60490763
204	0x3cef0aef	0.029180018
205	0xbd6091cc	-0.054826543
206	0xbce7a948	-0.028278962
207	0xbea7f634	-0.32805026
208	0xbe5e944f	-0.21736263
209	0xbd656ff2	-0.056014962
210	0xbda6c5de	-0.08143209
211	0xbdadcbd3	-0.08486142
212	0xbd7f6d41	-0.062360052
213	0xbe0f0d92	-0.1397002
214	0x3d0d1f81	0.034453873
215	0xbf32fea5	-0.69919807
216	0xbc98d283	-0.018655067
217	0xbd3176c3	-0.04332615
218	0xbcf7e852	-0.030262146
219	0xbc959252	-0.018258248
220	0xbcb16d8d	-0.021658683
221	0x3cb705c2	0.022341613
222	0xbc1d1ac3	-0.0095889
223	0x3d325a59	0.043543193
224	0x3c9f4419	0.019441651
225	0xbd006c07	-0.031353023
226	0xbefbc4f5	-0.49173704
227	0xbd9076d6	-0.07053916
228	0x3d010c24	0.03150572
229	0xbbd81ad2	-0.006594994
230	0xbcdc88e3	-0.026920741
231	0xbd98a02e	-0.07452427
232	0x3becfdac	0.0072323885
233	0xbd9e7920	-0.077379465
234	0xbdc9c996	-0.098529026
235	0xbf15cfdd	-0.585203
236	0xbf94c5bb	-1.1622843
237	0xbca19fb5	-0.019729475
238	0x3e46577b	0.19369309
239	0xbc8a5cf4	-0.016890027
240	0xbdeac64a	-0.11463602
241	0xbf2dcb99	-0.6788879
242	0xbb7f266f	-0.003893282
243	0xbd67bb33	-0.05657501
244	0xbcca649b	-0.024706176
245	0xbdbf72aa	-0.09348042
246	0x3d6a0604	0.057134643
247	0xbe0fd38f	-0.14045547
248	0xbe04bbbb	-0.12962238
249	0xbc074ceb	-0.008258085
250	0x3d1e7c1e	0.038692586
251	0xbcf8c530	-0.030367464
252	0xbdfadf6f	-0.12249648
253	0x3c244a9e	0.010027556
254	0xbbf61556	-0.0075098677
255	0x3cee89ea	0.029118497

l3.weight f4 [256, 256]
0	0x3c85c780	0.01633048
1	0x3d60735c	0.054797515
2	0x3ef67aca	0.48140556
3	0xbc40fdaa	-0.011779228
4	0x3d100a1b	0.035165887
5	0xbca89292	-0.020577703
6	0x3d2d0c5f	0.042248126
7	0x3b8ebf40	0.004356295
8	0xbd38b31d	-0.04509269
9	0xbe3a5bc1	-0.18199064
10	0x3c09e36c	0.008416038
11	0xbbd2fd60	-0.006438896
12	0xbc09be13	-0.008407134
13	0x3a005a7c	0.0004896296
14	0x3d7bf376	0.06151148
15	0x3c98118a	0.01856305
16	0x3c6d5e33	0.014487791
17	0xbd4d99bf	-0.05019545
18	0x3d0a1d84	0.033719555
19	0xbd8fecf0	-0.07027614
20	0x3d03ef40	0.03221059
21	0xbc058a98	-0.008150719
22	0xbd03bf3c	-0.032164797
23	0xbf2dcb1e	-0.6788806
24	0x3ca302a3	0.019898718
25	0xbd35e402	-0.0444069
26	0xbc861568	-0.01636763
27	0x3d2e4293	0.04254396
28	0xbf4ca279	-0.79935414
29	0xbd81e84f	-0.063431375
30	0xbd27fd2c	-0.041012928
31	0x3d990c5a	0.07473059
32	0xbc5e5d98	-0.013572119
33	0xbba6fa5c	-0.005095763
34	0x3ce31823	0.02772147
35	0xbd63a418	-0.055576414
36	0xbd5140ca	-0.05108718
37	0x3c88a97e	0.016682383
38	0x3d5a3ea0	0.05328238
39	0x37ba9e53	2.2246653e-05
40	0xbc991bd9	-0.018690037
41	0x3d36e0c6	0.044647954
42	0x3d361779	0.04445598
43	0xbb53a708	-0.0032295603
44	0x3d23c330	0.039981067
45	0x3d609d06	0.05483725
46	0x3bb73f2a	0.0055922465
47	0xbd534a76	-0.051584683
48	0xbcd30028	-0.02575691
49	0xbcdde060	-0.02708453
50	0xbca10049	-0.019653456
51	0x3c53f810	0.012937561
52	0x3c58ac01	0.013224603
53	0xbd6d64e6	-0.057957552
54	0x3b85f3fd	0.0040879236
55	0xbd3bce28	-0.045850903
56	0xbc8bd58e	-0.017069604
57	0xbb600a00	-0.0034185648
58	0x3d45463e	0.04816269
59	0xbd03dd33	-0.032193374
60	0x3d11c0e8	0.03558436
61	0xbcf53731	-0.029933544
62	0xbcfcb8b4	-0.030849792
63	0x3c0f94f0	0.008763537
64	0xbbcdb100	-0.0062772036
65	0xbc4bd157	-0.012440047
66	0xbd48f32d	-0.049060035
67	0xbb100360	-0.0021974668
68	0x3cb7c45c	0.022432499
69	0x3e5a0b1e	0.21293303
70	0x3c18b558	0.0093205795
71	0xbd3642c2	-0.04449726
72	0xbb8d3290	-0.004309006
73	0xbd05d0f1	-0.032669965
74	0xbcbaf483	-0.02282167
75	0xbb4f5900	-0.0031638741
76	0xbc5ddfe6	-0.013542151
77	0x3c971e84	0.018447168
78	0xbd00dc96	-0.031460367
79	0x3bb9892c	0.005662104
80	0x3aebd0c0	0.001799129
81	0xbda2b5a6	-0.07944803
82	0xbd77671d	-0.06040107
83	0xbd00bd9e	-0.031430833
84	0xbd7ce737	-0.06174394
85	0xbd742ec8	-0.059614927
86	0xbd550e56	-0.052015625
87	0xbd0626a5	-0.032751698
88	0xbeb533e0	-0.3539114
89	0x3d42bdc6	0.047544263
90	0x3d3493a0	0.0440861
91	0xbc95783c	-0.018245809
92	0xbd026f55	-0.031844456
93	0x3d53e63e	0.051733248
94	0x3ca0de88	0.019637361
95	0xbcfdcfc6	-0.030982863
96	0x3cc3459b	0.023836901
97	0xbd191052	-0.03736908
98	0xbd641ac0	-0.055689573
99	0x3d54dde2	0.051969416
100	0xbd40d072	-0.04707379
101	0x3d183c08	0.037166625
102	0xbd4194b4	-0.047260955
103	0x3c71e7f0	0.014764771
104	0x3d6026ce	0.054724507
105	0xbce1531b	-0.027505448
106	0xbc425a0c	-0.011862289
107	0xbc34e8f8	-0.011041872
108	0xbd06de0e	-0.03292661
109	0xbcf6f410	-0.030145675
110	0xbd8e8284	-0.06958488
111	0xbc8e39e8	-0.017361596
112	0xbcf757a0	-0.03019315
113	0xbc250170	-0.0100711435
114	0xbd71d664	-0.05904235
115	0x3b681f5c	0.0035419082
116	0xbda5147e	-0.08060549
117	0x3b9133b5	0.004431213
118	0xbcd4c8f8	-0.025974736
119	0x3d2ac80c	0.041694686
120	0x3d671690	0.056418
121	0xbd0d877c	-0.034553036
122	0x3ce283b9	0.0276507
123	0x3c9b2ce1	0.018942298
124	0x3c4665d5	0.01210924
125	0xbc929eb0	-0.017897934
126	0xbcaffefc	-0.02148389
127	0x3cd89468	0.026437953
128	0x3bcd4bce	0.00626514
129	0xbc514268	-0.01277218
130	0x3d2704ec	0.04077618
131	0xbd1537d2	-0.036430188
132	0xbc7055fc	-0.014668938
133	0x3d29f3fc	0.041492447
134	0xbaca2253	-0.0015421606
135	0x3cdf9a40	0.027295232
136	0xbcf334bb	-0.02968823
137	0x3c0bd94c	0.008535694
138	0xbca4d185	-0.020119438
139	0xbc3bb318	-0.0114562735
140	0x3d0463ec	0.032321855
141	0xbc059cfa	-0.008155102
142	0xb910ac13	-0.00013797013
143	0xbd374c5e	-0.044750564
144	0xbd2f2d36	-0.042767726
145	0x3ca794b9	0.020456659
146	0x3d50486c	0.050850317
147	0x3bbb033d	0.005707173
148	0x3af212a0	0.0018468685
149	0x3cf47ad3	0.029843723
150	0xbd555e3e	-0.05209183
151	0x3d0b8862	0.03406561
152	0xbcc29cd5	-0.023756424
153	0x3c82ba10	0.015957862
154	0x3c8485e7	0.01617713
155	0xbd580c95	-0.052746374
156	0x3cf20ff0	0.029548615
157	0xbc09bcb8	-0.00840681
158	0x3cdea050	0.027176052
159	0xbc52c52d	-0.012864393
160	0x3d448312	0.04797656
161	0xbc8672d5	-0.016412178
162	0x3b9a0489	0.0047002477
163	0xbf16e756	-0.5894674
164	0x3d52175a	0.0512918
165	0xbd478f60	-0.048720717
166	0xbd904b67	-0.07045632
167	0x3beeee8d	0.007291621
168	0xbd1901db	-0.037355285
169	0x3c3950b3	0.011310744
170	0xbd2b14b4	-0.04176779
171	0x3d63836e	0.055545263
172	0xbcdaa502	-0.02669001
173	0x3d54af74	0.051925138
174	0xbd0efcdb	-0.03490911
175	0xbcae604c	-0.021286152
176	0x3b5d0340	0.003372386
177	0xba608d68	-0.0008565993
178	0xbc3382e8	-0.010956503
179	0x3c84d984	0.016217
180	0xbc8093a6	-0.015695404
181	0x3d0b9586	0.034078144
182	0xbcd33f6b	-0.025787076
183	0x3d23eba4	0.040019646
184	0xbd7d0966	-0.06177654
185	0xbcfe45d4	-0.031039156
186	0x3d0e918f	0.034806784
187	0x3c56d024	0.013111148
188	0xbd3dc6df	-0.046332236
189	0xbd511576	-0.051045857
190	0x3cc8513c	0.024452798
191	0xbca86bb4	-0.02055917
192	0x3c832fab	0.01601394
193	0xbbe0db38	-0.0068620704
194	0x38c2daeb	9.2914175e-05
195	0x3d0b4e44	0.034010187
196	0xbcd555a8	-0.02604182
197	0xbc8dbfcf	-0.017303376
198	0xbd159c60	-0.036526084
199	0x3a749a86	0.0009330887
200	0xbd8ad460	-0.067787886
201	0xbd2d09a0	-0.042245507
202	0xbd6c66e6	-0.05771532
203	0xbf61d78b	-0.8821952
204	0x3ce4397d	0.027859444
205	0x3c0d8fc8	0.008640237
206	0x3d554102	0.05206395
207	0xbcce4a0b	-0.02518179
208	0x3db2212e	0.08697735
209	0x3c058db2	0.008151459
210	0x3d714d28	0.058911473
211	0x3d3084a1	0.043095235
212	0xbd3a861e	-0.04553806
213	0xbd839957	-0.06425732
214	0xbcbd28f8	-0.023090824
215	0xbf2d3621	-0.6766072
216	0xbcd481e8	-0.02594085
217	0xbcb44998	-0.022007748
218	0xbd7daa1a	-0.0619298
219	0xbc8eba78	-0.0174229
220	0xbd5b47f5	-0.05353542
221	0xbad48cf2	-0.0016216321
222	0xbd28ba2a	-0.041193165
223	0x3b81a5f1	0.0039565493
224	0xbd232867	-0.039833453
225	0xbd652926	-0.055947445
226	0x3dc68244	0.09692815
227	0x3d4a2664	0.04935302
228	0x3d207986	0.039178394
229	0x3c883be4	0.01663012
230	0xbd7d93f4	-0.061908677
231	0x3d54548c	0.051838443
232	0xbca68143	-0.020325309
233	0x3c2eb61d	0.010663536
234	0xbe56c0e1	-0.20972015
235	0xbd5e13be	-0.054218046
236	0xbd13fd66	-0.03613033
237	0xbd2affaf	-0.041747745
238	0x3ca55837	0.020183666
239	0x3ac9cf82	0.0015396925
240	0xbd2f0431	-0.042728607
241	0xbea50efe	-0.32238
242	0x3d687a56	0.056757294
243	0xbd713943	-0.0588925
244	0x3b405380	0.0029346645
245	0x3c90d266	0.01767845
246	0xbc519e10	-0.012794033
247	0x3c769189	0.015049347
248	0x3d49f6a2	0.049307473
249	0x3d7bca0e	0.06147199
250	0x3d22eb2c	0.03977506
251	0xbca3ab20	-0.01997906
252	0x3c540cf3	0.01294254
253	0xbca4d5f8	-0.02012156
254	0xbd23acf2	-0.039959855
255	0xbcbd9a60	-0.0231449

l3.bias f4 [256]
0	0x3d4db3bb	0.050220232
1	0xbba51e4b	-0.0050390116
2	0xbd7be384	-0.061496273
3	0x3bf4aeb3	0.007467115
4	0x3d50c4f4	0.05096908
5	0x3b9b3a40	0.0047371686
6	0x3c919979	0.017773377
7	0x3ca47c3f	0.020078776
8	0xbd745af5	-0.059657056
9	0x3b2e618d	0.0026608438
10	0xbd5a5737	-0.05330583
11	0x3d191e98	0.037382692
12	0xbcd9385f	-0.026516138
13	0x3cbc1fc4	0.022964366
14	0xbc15675b	-0.00911888
15	0xbedbdc1e	-0.42941374
16	0xbdecdfe2	-0.1156614
17	0xbd804ebf	-0.062650196
18	0xbec10c6b	-0.37704787
19	0x3a465700	0.00075660646
20	0xbd3c3b0e	-0.045954756
21	0xbcf6fc49	-0.030149596
22	0xbcb41776	-0.021983843
23	0xbd2d7207	-0.042345073
24	0xbd231037	-0.039810386
25	0xbe5c58a1	-0.21518184
26	0xbdddb781	-0.10826016
27	0xbebdd3d0	-0.37075663
28	0x3d42640f	0.047458705
29	0xbdba78ab	-0.09105047
30	0xbdcfa629	-0.101391144
31	0x3c0f9d29	0.008765497
32	0xbc8e59e4	-0.017376848
33	0xbd74552e	-0.059651546
34	0xbf0157e9	-0.50524765
35	0x3d1fcafc	0.03901194
36	0x3c2facf7	0.01072239
37	0xbce7ce5e	-0.028296646
38	0x3d58c239	0.0529196
39	0xbc441b71	-0.011969433
40	0x3d5ef455	0.054432232
41	0x3c01d8fb	0.007925267
42	0xbbd8906b	-0.006609013
43	0x3bdc6888	0.0067263283
44	0xbd286169	-0.041108523
45	0xbd1a2688	-0.037634403
46	0xbd30838c	-0.043094203
47	0xbe440861	-0.19143821
48	0xbdaf5714	-0.08561531
49	0xbd003a70	-0.03130573
50	0x3b314e34	0.002705467
51	0x3ca744aa	0.020418484
52	0xbd9a7f91	-0.075438626
53	0xbee2e38f	-0.44314238
54	0xbd0307a1	-0.031989697
55	0xbc636c08	-0.013880737
56	0x3d4adf28	0.049529225
57	0x3ca01214	0.01953987
58	0xbda33cdb	-0.07970592
59	0xbed89d82	-0.4230767
60	0x3d78f352	0.060778923
61	0xbd7e575c	-0.06209503
62	0xbeceb320	-0.40371037
63	0x3d1d9abf	0.038477656
64	0xba504322	-0.0007944574
65	0xbd937dce	-0.0720173
66	0xbc8a4b9b	-0.016881755
67	0xbd22d398	-0.039752573
68	0xbd160d83	-0.03663398
69	0x3bd837fc	0.0065984707
70	0xbc2cdf28	-0.0105512515
71	0xbe7696e0	-0.24080992
72	0xbd85d9e9	-0.06535704
73	0xbd03ea6f	-0.032205995
74	0xbea4c4cc	-0.32181394
75	0xbd4f0fec	-0.050552294
76	0xbd8ff247	-0.070286326
77	0xbf040673	-0.5157234
78	0xbd15d02c	-0.03657548
79	0x3d2983f3	0.041385602
80	0xbc3471b1	-0.011013434
81	0xbe6a50d6	-0.22882399
82	0xbd00317a	-0.031297185
83	0xbcb30920	-0.021854937
84	0xbd9863c6	-0.07440905
85	0xbc3436b0	-0.010999367
86	0x3bf976e9	0.007613052
87	0x3bc542e9	0.006019939
88	0xbe0ed2c9	-0.13947596
89	0xbc6f569f	-0.014608054
90	0x3b2cec2f	0.0026385894
91	0xbee26da9	-0.4422429
92	0xbcdaccc5	-0.02670897
93	0xbef98710	-0.48735857
94	0xbd37caca	-0.04487113
95	0xbc8aee6a	-0.016959388
96	0x3cf99ba1	0.030469717
97	0xbcc4ce27	-0.024024082
98	0xbcf40a93	-0.029790198
99	0xbd8b60cb	-0.06805571
100	0x3d757de3	0.059934508
101	0xbc5a9e1b	-0.013343359
102	0x3addae1e	0.0016912853
103	0xbcf1b9f6	-0.029507618
104	0xbd552215	-0.052034456
105	0xbc813285	-0.01577116
106	0x3d2f7894	0.0428396
107	0xbd07c07f	-0.033142563
108	0xbe11a819	-0.1422428
109	0xbeffa8f6	-0.49933594
110	0xbc661287	-0.014042503
111	0x3d132045	0.035919446
112	0x3bdbc7a4	0.0067071486
113	0x3d215fb5	0.039397914
114	0x3cba4625	0.022738526
115	0x3b602980	0.0034204423
116	0xbc3beb45	-0.011469667
117	0x3c1b5f4c	0.00948317
118	0xbdd2ec95	-0.10299031
119	0xbcef70bb	-0.029228559
120	0x3c8bce7d	0.017066235
121	0xbd0c7177	-0.034287896
122	0xbd8c2c75	-0.06844417
123	0xbcd2d812	-0.025737796
124	0xbcc41a0f	-0.023938207
125	0x3ce8862c	0.02838429
126	0xbd03c250	-0.032167733
127	0x3d16a1ac	0.036775276
128	0x3cfd3d8d	0.030913139
129	0xbccfa433	-0.025346851
130	0xbdd70d80	-0.10500622
131	0xbecaad2e	-0.3958525
132	0xbd767401	-0.060169224
133	0xbe6651bd	-0.22492118
134	0xbce41417	-0.02784161
135	0xbc175282	-0.00923598
136	0xbcc071a7	-0.023491694
137	0x3cdbb321	0.026818814
138	0x3d5ae5b4	0.05344172
139	0xbb221bff	-0.0024735925
140	0xbd40e2a7	-0.047091153
141	0xbf09f927	-0.538958
142	0xbd1bd511	-0.038044993
143	0xbc86a8c5	-0.016437897
144	0xbd39e5e5	-0.04538526
145	0x3c06dda7	0.008231557
146	0x3d13f271	0.036119882
147	0xbd1f60fc	-0.03891085
148	0xbf451c11	-0.7699595
149	0xbefb2506	-0.49051684
150	0x3c459fec	0.012062054
151	0xbc6db7da	-0.014509166
152	0xbd0f97b0	-0.03505677
153	0xbd80b254	-0.062840134
154	0x3d3a72f8	0.0455198
155	0xbd47ceab	-0.04878108
156	0xbca7cd27	-0.020483566
157	0xbd6b55fe	-0.057455055
158	0xbcf84ef3	-0.030311083
159	0xbda335b0	-0.079692245
160	0xbd6696ea	-0.056296267
161	0xbb3bb4e3	-0.0028641752
162	0x3d515904	0.051110283
163	0xbd55a104	-0.05215551
164	0xbf039577	-0.5139994
165	0xbee96caa	-0.45590717
166	0xbd7f92c8	-0.06239584
167	0xbdbb23b3	-0.091376685
168	0xbe5ec701	-0.21755601
169	0xbecb55f5	-0.39714018
170	0x3d06edf2	0.032941766
171	0x3d2d542c	0.0423166
172	0x3b701c60	0.0036638007
173	0xbbd6b56f	-0.0065523903
174	0xbda1afda	-0.07894869
175	0x3d36c8d0	0.044625103
176	0xbd633a92	-0.05547578
177	0xbd0a54e3	-0.03377236
178	0xbe832bda	-0.25619394
179	0xbeba6d93	-0.36411723
180	0xbdf9ba9b	-0.12193795
181	0xbcb155db	-0.021647384
182	0x3cf14f3b	0.029456725
183	0xbd7da7d1	-0.06192762
184	0xbd1355b9	-0.035970423
185	0x3c83e111	0.016098531
186	0xbc35dfdf	-0.011100738
187	0xbd03b9b2	-0.032159515
188	0xbd3e62e2	-0.04648102
189	0xbd7253a5	-0.0591618
190	0xbd027e55	-0.03185876
191	0xbc441610	-0.011968151
192	0xbe509d53	-0.20372514
193	0xbd4e6950	-0.050393403
194	0x3d174513	0.03693111
195	0xbf029bd6	-0.51019037
196	0xbcbf0b45	-0.023320803
197	0xbd35bbd0	-0.044368565
198	0xbda2b032	-0.07943763
199	0xbd88941a	-0.06668873
200	0xbd331801	-0.043724064
201	0x3f1502a2	0.5820714
202	0xbe5f5f54	-0.21813709
203	0xbee9dcff	-0.4567642
204	0xbdc29098	-0.09500235
205	0xbccdb973	-0.025112843
206	0xbd09c1ca	-0.033632077
207	0x3bdf6c9d	0.0068183676
208	0xbd01da11	-0.031702105
209	0x3c4e3dba	0.012587959
210	0xbd678dcf	-0.056531724
211	0xbc9beead	-0.019034708
212	0xbd47e0d0	-0.048798382
213	0xbdeeaec3	-0.11654427
214	0xbaede29f	-0.0018149203
215	0x3d2bbbb7	0.041927066
216	0xbec6d446	-0.38833827
217	0x3d4003f3	0.046878766
218	0xbc8b543a	-0.017007936
219	0xbd2d5cf6	-0.042324983
220	0xbd3c4737	-0.045966353
221	0xbc01e1c0	-0.007927358
222	0xbc35af25	-0.011089121
223	0x3d1b7574	0.03795381
224	0xbc99a664	-0.018756099
225	0xbec596bb	-0.3859156
226	0xbbdf7af6	-0.006820078
227	0xbd04ec2d	-0.032451797
228	0xbe6a1d1e	-0.2286267
229	0xbeb7be72	-0.35887486
230	0xbd56719e	-0.052354448
231	0xbd995bee	-0.07488237
232	0x3ca08ed2	0.019599352
233	0x3ca37866	0.019954871
234	0xbc3a02ee	-0.011353238
235	0xbe28e739	-0.16494454
236	0x3d0226b3	0.031775188
237	0x3d568a03	0.052377712
238	0xbd7c6755	-0.061621983
239	0xbdcbb5b4	-0.099467665
240	0xba8614ff	-0.0010229646
241	0xbd396c01	-0.045269016
242	0xbd3418d9	-0.04396901
243	0xbe600d49	-0.21880068
244	0xbd1d6bc5	-0.038432855
245	0xbd793054	-0.060837105
246	0x3cca5c64	0.024702258
247	0xbd8221da	-0.06354113
248	0xbbefa910	-0.007313855
249	0x3ca86d3f	0.020559905
250	0xbd8c7fb6	-0.068602964
251	0xbc38daa1	-0.011282594
252	0xbd13628f	-0.035982665
253	0xbda79c40	-0.08184099
254	0xbd05edd7	-0.032697525
255	0x3c30bbcf	0.010786965

l4.weight f4 [1, 256]
0	0xbd8d43f6	-0.06897728
1	0x3c2dcf79	0.010608547
2	0xba64a639	-0.0008722279
3	0x3c9c834c	0.019105576
4	0x3bfd2440	0.0077252686
5	0xbb93edf6	-0.004514451
6	0x3d6d3b57	0.05791792
7	0xbd455e36	-0.04818555
8	0x3d11e7f2	0.03562159
9	0xbc2f57cb	-0.010702084
10	0xbbfe89db	-0.0077678985
11	0xbc346450	-0.0110102445
12	0x3d2d96c4	0.04238011
13	0x3c985116	0.018593352
14	0x3b106e4d	0.00220384
15	0x3d955525	0.07291631
16	0x3b0eb585	0.0021775675
17	0xbd144dfd	-0.036207188
18	0x3ddf108b	0.10891827
19	0xba893040	-0.001046665
20	0x3a6da0e6	0.0009064808
21	0x3af3f534	0.0018612505
22	0xbce75447	-0.028238429
23	0xbc746008	-0.014915474
24	0xbcd8972b	-0.02643927
25	0x3c0147aa	0.007890621
26	0xbe202a29	-0.15641083
27	0x3df03192	0.11728205
28	0xbc7525c7	-0.01496262
29	0xbc9cd7b3	-0.019145822
30	0x3d958f52	0.07302727
31	0xbd546b24	-0.05185999
32	0xbd481233	-0.04884548
33	0xbd1c93d4	-0.038226917
34	0x3dae81a2	0.08520819
35	0xbcf73a34	-0.03017912
36	0xbd26953e	-0.040669672
37	0xbd729388	-0.059222728
38	0xbc740f2e	-0.014896197
39	0xbd2eb486	-0.04265263
40	0xbd56bc88	-0.05242589
41	0x3d2e777e	0.042594425
42	0xbca80e1e	-0.020514544
43	0x3ccc4705	0.024936209
44	0xbd6521c9	-0.055940423
45	0xbc356e01	-0.01107359
46	0xbd0e0525	-0.034672875
47	0x39bfb20c	0.00036563014
48	0x3c5bbbb5	0.013411452
49	0xbc8e2b4d	-0.017354632
50	0xbd159d9f	-0.036527272
51	0xbc4c3650	-0.012464121
52	0xbc95c625	-0.01828296
53	0x3da5a64d	0.0808836
54	0x3c0660f9	0.008201831
55	0xbbf2ed3a	-0.0074135335
56	0x3d6ead1e	0.058270566
57	0xbcefb8d2	-0.029262934
58	0xbc0dad64	-0.008647297
59	0x3d8d0a44	0.06886724
60	0xbc928cfc	-0.017889492
61	0x3ca2deab	0.019881567
62	0xbc630f40	-0.013858616
63	0x3ccd44f2	0.02505729
64	0xbc410d60	-0.011782974
65	0x3c09b57b	0.008405085
66	0xbc9591b5	-0.018257955
67	0xbd25cf09	-0.040480647
68	0xbcf9ef6d	-0.030509675
69	0x3bcdc6fb	0.006279824
70	0xbd1ca404	-0.038242355
71	0x3c635785	0.013875847
72	0x3bfddee3	0.0077475174
73	0x3c16314b	0.009167026
74	0xbb7f86eb	-0.003899033
75	0xbd783222	-0.060594685
76	0x3c69f801	0.01428032
77	0x3d1b6851	0.03794128
78	0x3b7403d6	0.0037233732
79	0xbc7215fc	-0.014775749
80	0x3c104b6c	0.0088070445
81	0xbc08b292	-0.008343356
82	0xbc868d80	-0.016424894
83	0x3b86528e	0.0040991968
84	0x3ca691cc	0.020333193
85	0x3c9bf66a	0.019038398
86	0x3c96ee1c	0.018424086
87	0x3b743ec5	0.003726886
88	0xbc2c57d8	-0.01051899
89	0x3b128b61	0.0022360908
90	0x3ba24a9f	0.004952743
91	0x3d77c852	0.060493775
92	0xbccfae1b	-0.025351575
93	0x3d434e52	0.047682114
94	0xbc90e2b1	-0.01768622
95	0xbcce3a87	-0.025174392
96	0x3d2f77e9	0.042838965
97	0x3cc409e9	0.023930507
98	0xbcb8e8f3	-0.022572016
99	0xbd01b0b5	-0.03166266
100	0xbd22eefd	-0.0397787
101	0x3cb60510	0.02221921
102	0xbbab4ae6	-0.0052274344
103	0xbd576362	-0.052585013
104	0x3b99cd8e	0.0046936935
105	0xbd13166e	-0.035910062
106	0xbc321daf	-0.010871335
107	0xbd1288ba	-0.035774924
108	0xbb441bd7	-0.002992382
109	0x3c841b35	0.016126255
110	0x3d37e563	0.044896495
111	0xbc86523c	-0.016396634
112	0x3d2da24a	0.0423911
113	0xbcb95390	-0.022622854
114	0xbd59074e	-0.052985482
115	0xbc9ee1b3	-0.019394731
116	0xbccaad62	-0.024740878
117	0xbc60f446	-0.013730114
118	0x3bc7c26c	0.006096175
119	0xbce0b8a0	-0.027431786
120	0xbd27c5af	-0.04096001
121	0x3c0bbbcb	0.00852866
122	0x3c03e3e7	0.008049942
123	0xbcef3d6e	-0.029204097
124	0xbc90e559	-0.017687486
125	0xbd0493a8	-0.03236738
126	0xbc9866a3	-0.018603629
127	0x3d4f69d7	0.050638046
128	0xbbbe3e8a	-0.005805795
129	0xbca1ca3d	-0.019749755
130	0x3c0f15bf	0.008733212
131	0x3dd40aac	0.10353598
132	0x3cc185f1	0.023623439
133	0x3b01d136	0.0019808537
134	0x3b387173	0.0028143793
135	0xbc85522c	-0.016274534
136	0x399f8f9d	0.00030433843
137	0xbb7cb66b	-0.0038560878
138	0x398f6eb3	0.00027357563
139	0x3c7ba4cb	0.015359114
140	0x3bbfeb54	0.0058569107
141	0xbb21194b	-0.0024581726
142	0xbae93f61	-0.0017795378
143	0x3c35cecf	0.01109667
144	0x3c0e3d64	0.008681629
145	0x3c065a5c	0.008200254
146	0xbd3857e7	-0.045005705
147	0xbd090f01	-0.033461574
148	0x3d619171	0.055070344
149	0x3dff0c34	0.124534994
150	0xbd5642df	-0.052309867
151	0x399babd4	0.00029691926
152	0xbcb148f3	-0.02164123
153	0xbcdbb3ff	-0.026819227
154	0x3d432202	0.047639854
155	0x3d58119e	0.052751176
156	0x3d14fc86	0.036373638
157	0xbd0f7d72	-0.035031743
158	0xbb16396d	-0.0022922412
159	0xbc804dd8	-0.015662119
160	0xbc2197b6	-0.009862831
161	0x3b90c614	0.004418144
162	0xbcd40b80	-0.02588439
163	0x3d543c3c	0.051815256
164	0x3dab0817	0.083511524
165	0x3d8b1cda	0.067926124
166	0x3d094d23	0.03352083
167	0x3c17ff7c	0.009277221
168	0xbca53644	-0.020167477
169	0x3c171279	0.009220713
170	0xbe123e30	-0.14281535
171	0xbce430cd	-0.027855301
172	0xbd483ada	-0.04888425
173	0xbc41f346	-0.011837786
174	0x3c40c79f	0.011766343
175	0xbcacdbfb	-0.021100989
176	0xbd5e920c	-0.0543385
177	0xbc4487ee	-0.011995299
178	0xba802a39	-0.0009778208
179	0xbdf9c09e	-0.12194942
180	0xbcdae7bb	-0.026721826
181	0xbc4b49f8	-0.012407772
182	0xbd558d01	-0.052136425
183	0xbd45d883	-0.048302185
184	0x3b058021	0.002037056
185	0xbd037a23	-0.0320989
186	0x3beb728a	0.007185285
187	0xbd34ddad	-0.04415672
188	0x3b078de4	0.0020683939
189	0xbb7f3fc7	-0.0038947926
190	0x3bb3c0ce	0.0054856306
191	0xbc1c3733	-0.009534645
192	0xbc0495fa	-0.008092398
193	0x3bc3bb37	0.0059732455
194	0xbd1ce5d7	-0.03830513
195	0x3d716b6f	0.058940347
196	0xbd88b89b	-0.06675836
197	0xbca5305d	-0.020164663
198	0xbca347f5	-0.019931773
199	0x3caddffa	0.021224964
200	0x3c2a2ab9	0.010386162
201	0x3daa1a52	0.083058015
202	0xbb9485a2	-0.004532532
203	0x3d44bc31	0.048031036
204	0xbcad9a78	-0.02119182
205	0xbcb73bf9	-0.022367464
206	0x3c48ef95	0.012264152
207	0xbd4d3275	-0.050096948
208	0x3b3e12ac	0.0029002829
209	0x3b914b09	0.0044339937
210	0x3c833a37	0.01601897
211	0xbc22fbb0	-0.009947702
212	0xbd019795	-0.0316387
213	0xb9a88b27	-0.00032147134
214	0xbd436ea4	-0.047712937
215	0x3c7c6220	0.015404254
216	0x3dc9f213	0.09860625
217	0xbd12b075	-0.035812814
218	0xbca65a56	-0.020306747
219	0x3c64e491	0.01397051
220	0xbcc91e45	-0.024550566
221	0x3c44eb70	0.012019023
222	0x3cd208de	0.025638994
223	0xbba66d68	-0.00507896
224	0x3d35230a	0.04422287
225	0xbc4c0995	-0.012453456
226	0x3c253c8b	0.010085235
227	0xbcc13e42	-0.023589257
228	0xbc629c43	-0.013831201
229	0xbbe32ae0	-0.0069326013
230	0x3d69e61c	0.057104215
231	0xbc696402	-0.014245035
232	0x3ccdf835	0.025142768
233	0xbd3a6914	-0.045510367
234	0xba5d4fd2	-0.0008442375
235	0x3c21e2c3	0.009880724
236	0x3d5a6acf	0.053324517
237	0x3cac8f91	0.021064552
238	0x3cb36ba4	0.021901913
239	0xbc72c0f9	-0.014816516
240	0xbd192651	-0.037390057
241	0xbd1a1e1b	-0.037626367
242	0xbbaef8cb	-0.005339717
243	0xbdc4591d	-0.095873095
244	0xbc6ae0c4	-0.014335815
245	0xbc319444	-0.010838572
246	0xbd3ae9b2	-0.045633025
247	0xbd4df40a	-0.050281562
248	0x3d3bd240	0.045854807
249	0x3bcb18e8	0.0061980374
250	0x3ca749c6	0.02042092
251	0x3d2778ba	0.04088662
252	0xbcf377a4	-0.029720135
253	0xbcb68fa3	-0.022285288
254	0x3bb4a759	0.0055131135
255	0x3cce51c1	0.025185468
